results/flappy_slow_v15/FlappyBirdAgent/checkpoint.pt (torch, 428727 bytes, 41 tensors)

network_body.observation_encoder.processors.0.normalizer.running_mean f4 [2]
1.0300117 2.1937602
00000000: 6cd7 833f 9166 0c40

network_body.observation_encoder.processors.0.normalizer.running_variance f4 [2]
51274.242 197464.56
00000000: 3e4a 4847 24d6 4048

network_body.processors.0.normalizer.running_mean f4 [2]
1.0300117 2.1937602
00000000: 6cd7 833f 9166 0c40

network_body.processors.0.normalizer.running_variance f4 [2]
51274.242 197464.56
00000000: 3e4a 4847 24d6 4048

network_body._body_endoder.seq_layers.0.weight f4 [128, 2]
-0.40074366 0.41626596 -1.0127476 0.38178936 1.0884141 0.48741052 0.65711504 -0.45544195
0.095482536 0.95420825 0.55657744 -0.37910908 -0.48549852 -0.9837726 1.332486 -1.1279619
0.55788034 0.44276872 0.19163126 0.5000883 -0.41674128 -0.45242026 -1.6458817 0.11369626
1.0648468 -1.1425229 0.8138787 0.25404066 -0.68855256 -0.2723131 0.29343104 -0.23685318
-0.16365409 0.40330327 -0.7581512 -0.15843627 -0.6765136 -0.0046129175 0.61415076 -0.4791974
0.90027046 0.49868178 0.8469164 1.3877378 0.46110195 -0.7016966 0.18676746 -0.4389237
-0.45938376 -0.3972215 1.5803146 -0.09350244 0.65157205 0.36837217 0.84224004 0.1222263
0.7766913 0.9254595 -1.380586 0.16394097 -0.028743535 1.1562644 1.0215644 -0.7715606
0.013394623 -0.16541 1.1289066 -0.4092455 0.17809507 -0.3314753 -0.47998172 -0.13157393
-0.8578657 0.8238955 0.62591165 0.5909231 -0.6726462 -0.804551 -0.6707479 0.26504093
0.18214215 0.8208634 0.12906247 0.11947895 -0.17062046 1.2789758 -0.017243149 0.3787759
0.5995988 0.32721657 0.9035472 0.5966856 0.2001132 0.6793408 -0.40953782 -0.3168467
-1.4118595 -1.2095103 -0.83410287 -0.33416587 1.091297 1.425505 0.74684906 -0.07152915
-0.24710765 0.532114 -0.49772567 -0.7578504 0.11972503 -0.3260574 -0.82303697 0.62099755
-0.12155716 0.5128224 0.11470506 -0.30527467 -0.1862046 -1.1576933 -1.5493822 0.77147156
-0.78679794 -0.58206725 1.0534997 0.366497 -0.05684744 -0.30719268 1.1309541 -0.31633183
0.82791585 -1.2620167 0.98609525 2.0952187 -0.12867114 0.29163817 -0.1828615 -0.7343643
0.21731736 -0.12268414 0.7481122 -0.5161084 -0.547787 -0.699171 0.31158447 -0.2550822
2.2918901 0.19470574 0.15911543 -0.7498134 -0.33719388 -0.5522629 0.41513357 -0.8449877
-0.21451151 -1.4842163 -1.3395977 0.52667063 -0.040604398 0.81841534 -0.65916723 -0.56578517
-0.38340506 -1.0614189 -0.35161445 -0.94702333 0.10658395 0.32470536 -1.8289089 1.4897007
-0.50912446 0.93518925 -0.79579145 -0.7065892 1.1207252 -0.66078377 0.24718621 0.32149026
-0.008904341 -0.16941443 -0.5587144 0.8001348 0.7968208 1.2344637 0.7214744 0.17885263
-0.31627458 0.09396008 0.61774635 0.24954069 0.3041697 0.24576737 -1.3548582 -0.41323856
0.03695348 -0.30130535 -1.0091528 0.038189594 0.07092535 0.07827489 0.9361916 -0.14892684
1.2329928 0.06923934 0.6783751 0.38231778 -0.13697484 -0.4774363 -0.24724507 0.48060277
-0.4223571 0.28935087 0.3000184 1.0552536 0.4731561 0.47015762 -0.3928501 -0.8813115
0.80720264 0.34248847 -0.8198987 0.5785835 -1.109555 0.49736974 0.10953698 1.0558555
-0.12016815 -0.4842158 0.0024683992 0.5098047 -0.3240545 -0.116340525 -0.3856699 -0.07212714
-0.87701184 -0.27476668 0.48392063 -0.41959605 0.48761004 1.2177314 1.1622409 0.30958727
0.40906397 0.67016643 0.5507639 -0.30261505 -0.041589294 -0.6716237 -0.2933404 -1.3335327
-0.25577462 0.10843411 -1.0348371 0.80193835 -0.6973208 -0.14670871 1.7397969 -0.74447054
00000000: 462e cdbe d020 d53e b7a1 81bf e579 c33e
00000010: 2751 8b3f df8d f93e b138 283f b02f e9be
00000020: 598c c33d fe46 743f dc7b 0e3f 961a c2be
00000030: 4393 f8be 85d8 7bbf e78e aa3f 0e61 90bf
00000040: 3fd1 0e3f 95b2 e23e fc3a 443e c905 003f
00000050: 1d5f d5be a1a3 e7be 40ac d2bf 96d9 e83d
00000060: e64c 883f 313e 92bf 5b5a 503f 9e11 823e
00000070: fb44 30bf 9f6c 8bbe 983c 963e a489 72be
00000080: f094 27be c47d ce3e 3216 42bf 1e3d 22be
00000090: ff2f 2dbf f527 97bb fc38 1d3f 5d59 f5be
000000a0: 2078 663f 3853 ff3e 83cf 583f 64a1 b13f
000000b0: 8e15 ec3e 63a2 33bf f83f 3f3e 9bba e0be
000000c0: 5934 ebbe 9e60 cbbe c047 ca3f 357e bfbd
000000d0: 6dcd 263f 479b bc3e 0b9d 573f c851 fa3d
000000e0: 3ed5 463f eaea 6c3f 0bb7 b0bf 24e0 273e
000000f0: 9077 ebbc 7900 943f 9fc2 823f ff84 45bf
00000100: 1f75 5b3c 3d61 29be 0380 903f a088 d1be
00000110: 8e5e 363e 21b7 a9be 2ac0 f5be 51bb 06be
00000120: 169d 5bbf d1ea 523f bf3b 203f bc46 173f
00000130: 8b32 2cbf 0ef7 4dbf 22b6 2bbf 72b3 873e
00000140: 7983 3a3e 1b24 523f f428 043e 61b1 f43d
00000150: 21b7 2ebe 7bb5 a33f 8141 8dbc eaee c13e
00000160: 4f7f 193f ee88 a73e df4e 673f 63c0 183f
00000170: 7aea 4c3e 47e9 2d3f f1ae d1be bb39 a2be
00000180: d0b7 b4bf 3cd1 9abf c487 55bf ca17 abbe
00000190: 9faf 8b3f f376 b63f 8031 3f3f e07d 92bd
000001a0: ca09 7dbe a038 083f e6d5 febe 7c02 42bf
000001b0: 6632 f53d fff0 a6be 8db2 52bf b2f9 1e3f
000001c0: f6f2 f8bd 5448 033f 7dea ea3d f64c 9cbe
000001d0: 6bac 3ebe 4b2f 94bf 2852 c6bf 297f 453f
000001e0: 976b 49bf 5c02 15bf 14d9 863f 7fa5 bb3e
000001f0: dcd8 68bd 5c48 9dbe 1bc3 903f 3ff6 a1be
00000200: 4bf2 533f c389 a1bf bd70 7c3f 1018 0640
00000210: 5ec2 03be 9951 953e 0c40 3bbe 4cff 3bbf
00000220: 7188 5e3e d341 fbbd 4884 3f3f ae1f 04bf
00000230: c53b 0cbf dffc 32bf 0088 9f3e 229a 82be
00000240: 54ae 1240 f160 473e 28ef 223e c5f3 3fbf
00000250: ada4 acbe 1a61 0dbf 638c d43e 1d51 58bf
00000260: e8a8 5bbe cdfa bdbf f077 abbf e3d3 063f
00000270: cc50 26bd ab83 513f 2fbf 28bf 4cd7 10bf
00000280: ab4d c4be 93dc 87bf cf06 b4be 1f70 72bf
00000290: b048 da3d c83f a63e b019 eabf 83ae be3f
000002a0: fb55 02bf 9068 6f3f fdb8 4bbf 08e3 34bf
000002b0: ec73 8f3f 2029 29bf 621e 7d3e 5f9a a43e
000002c0: 83e3 11bc fa7a 2dbe e807 0fbf a2d5 4c3f
000002d0: 73fc 4b3f e802 9e3f 8cb2 383f 2525 373e
000002e0: beee a1be 246e c03d a024 1e3f 9887 7f3e
000002f0: 22bc 9b3e 71aa 7b3e fe6b adbf 0194 d3be
00000300: 885c 173d b244 9abe eb2b 81bf b16c 1c3d
00000310: 4f41 913d 964e a03d 41aa 6f3f 4780 18be
00000320: b5d2 9d3f 5bcd 8d3d fea9 2d3f 28bf c33e
00000330: 2243 0cbe 8872 f4be d02d 7dbe 9111 f63e
00000340: 313f d8be cc25 943e 039c 993e 8d12 873f
00000350: 8441 f23e 80b8 f03e a623 c9be a19d 61bf
00000360: d5a4 4e3f a65a af3e e2e4 51bf 0c1e 143f
00000370: e605 8ebf 3fa7 fe3e ed54 e03d 4626 873f
00000380: b81a f6bd 22eb f7be dec4 213b 9082 023f
00000390: 79ea a5be f143 eebd 8676 c5be 65b7 93bd
000003a0: d983 60bf 38ae 8cbe 72c4 f73e 4bd5 d6be
000003b0: 06a8 f93e 9fde 9b3f 4fc4 943f 3982 9e3e
000003c0: d570 d13e 0790 2b3f ddfe 0c3f 5cf0 9abe
000003d0: 8959 2abd 88ef 2bbf b730 96be 33b1 aabf
000003e0: e4f4 82be b412 de3d 8b75 84bf d54b 4d3f
000003f0: 9e83 32bf cf3a 16be aab1 de3f 9f95 3ebf

network_body._body_endoder.seq_layers.0.bias f4 [128]
0.019754319 0.019723319 -0.023021702 -0.045674764 -0.037159435 -0.036887337 0.025489757 -0.008802527
-0.014743722 -0.010342184 0.021366453 -0.026641756 -0.0179528 -0.017832838 0.02765221 -0.005509543
-0.011478128 -0.0025268062 0.046020254 -0.025661128 -0.00163535 0.00047460524 -0.0073878383 -0.010264607
0.032755654 -0.025549687 -0.010101733 -0.023455461 -0.008900719 0.023876844 -0.009126144 -0.0066062715
0.015617062 0.002376881 -0.016690955 0.03694724 -0.010959111 -0.02091578 0.022382136 0.04649077
0.009859814 -0.009197427 -0.030966617 -0.022180997 -0.020361837 -0.016055416 -0.008457766 0.022793338
0.030112492 0.024947071 -0.030108545 -0.004634522 0.0043929317 0.028573552 -0.0007388878 -0.015836433
-0.011182964 -0.025028266 0.02090806 -0.002965716 0.018872902 -0.002134536 0.02015748 -0.007462635
-0.0043320297 -0.0010025804 0.0013651126 0.002252827 0.007019354 -0.03162888 0.01691821 -0.016841954
-0.0024103187 -0.0026700464 0.022915011 -0.0007281681 0.027924081 0.016966984 -0.019786783 0.012041188
0.028464574 0.025725536 0.015106488 -0.014984937 0.0022709712 0.019766103 -0.024719283 -0.029848522
0.028455365 -0.0028956868 -0.005762866 -0.023344548 0.01914615 -0.035592683 -0.013974199 -0.0174805
-0.0072236005 -0.0036071418 -0.012808288 -0.00084071426 -0.0016326279 -0.0143182585 0.020053644 0.018024435
-0.006709238 -0.02763186 -0.016961182 0.020701287 -0.0019365049 0.006449906 -0.010493506 0.014620498
0.010960901 -0.01555755 0.026882531 0.015702112 0.026854739 -0.020620314 -0.018843876 -0.012339311
-0.013573308 -0.0178411 0.026145328 0.026651312 0.032406136 -0.018261097 0.023702303 0.0026462276
00000000: cfd3 a13c cc92 a13c 0298 bcbc 7615 3bbd
00000010: 7e34 18bd 2d17 17bd e5cf d03c 7938 10bc
00000020: a78f 71bc 4472 29bc b308 af3c d03f dabc
00000030: c011 93bc 2c16 92bc e386 e23c 6689 b4bb
00000040: c20e 3cbc c698 25bb bc7f 3c3d 4937 d2bc
00000050: 3e59 d6ba 70d4 f839 ae15 f2bb e22c 28bc
00000060: cb2a 063d 944d d1bc bd81 25bc ab25 c0bc
00000070: 52d4 11bc 5f99 c33c d385 15bc 6c79 d8bb
00000080: b5de 7f3c 72c5 1b3b 78bb 88bc fd55 173d
00000090: d88d 33bc 9257 abbc be5a b73c 1b6d 3e3d
000000a0: 0f8b 213c ceb0 16bc b4ad fdbc ecb4 b5bc
000000b0: decd a6bc a686 83bc 7192 0abc 18b9 ba3c
000000c0: 79ae f63c cd5d cc3c 32a6 f6bc 30dd 97bb
000000d0: 95f2 8f3b 1513 ea3c ecb1 41ba 68bb 81bc
000000e0: c038 37bc 1408 cdbc 6147 ab3c 755c 42bb
000000f0: 589b 9a3c 92e3 0bbb 4d21 a53c 1f89 f4bb
00000100: b3f3 8dbb 0469 83ba 94ed b23a 2aa4 133b
00000110: 9c02 e63b 498d 01bd 0f98 8a3c 23f8 89bc
00000120: 70f6 1dbb f2fb 2ebb 43b8 bb3c 89e2 3eba
00000130: 0bc1 e43c 58fe 8a3c e417 a2bc 6748 453c
00000140: 8a2e e93c 5cbe d23c 3481 773c 6283 75bc
00000150: 93d4 143b 86ec a13c 1880 cabc e384 f4bc
00000160: 3a1b e93c 90c5 3dbb 6dd6 bcbb 113d bfbc
00000170: 63d8 9c3c a2c9 11bd 0af4 64bc 4433 8fbc
00000180: f4b3 ecbb cc65 6cbb dbd9 51bc 6163 5cba
00000190: e7fd d5ba 2197 6abc 8a47 a43c fba7 933c
000001a0: 2bd9 dbbb 365c e2bc 2df2 8abc bf95 a93c
000001b0: 52d2 fdba bc59 d33b f4ec 2bbc d08a 6f3c
000001c0: 5a95 333c 18e5 7ebc c138 dc3c b7a1 803c
000001d0: 78fe db3c efeb a8bc 795e 9abc d22a 4abc
000001e0: 9462 5ebc 8027 92bc ba2e d63c da53 da3c
000001f0: 4cbc 043d 4c98 95bc 552b c23c 556c 2d3b

network_body._body_endoder.seq_layers.2.weight f4 [128, 128]
-0.1035389 0.09411677 0.10197948 0.055243596 0.022726763 0.13620411 -0.049300488 0.04197075
0.064941674 -0.016848937 0.0966426 -0.016907541 0.0028836136 0.26743862 0.10054616 0.07261143
0.03825289 -0.020994233 0.11988343 0.04891488 0.12923707 -0.032905567 0.15643626 0.06105017
0.028015966 -0.22686651 0.17856802 0.019159883 -0.049131636 0.03519614 0.07477409 0.042952303
-0.026912313 0.0255554 0.11718344 -0.06462716 0.08116898 -0.0063606487 -0.03869907 0.17359586
0.24999844 -0.048959676 0.04796308 0.038553268 0.0007960576 0.11943603 -0.05184133 -0.10039988
0.12932329 -0.048372675 0.004781946 0.018396426 0.0009506679 -0.04562366 -0.07497545 0.16516912
-0.04835703 -0.020833155 -0.06184564 -0.0054624826 0.0016021358 -0.013136845 -0.013051862 -0.03529053
0.09059683 -0.027515238 0.049101606 -0.22281119 -0.08434701 -0.025706027 -0.07407283 -0.016521843
0.016596625 -0.10352365 -0.13989422 0.12980887 -0.06625358 0.09354551 0.08958064 -0.034505885
-0.032712813 -0.06027289 -0.00060501264 -0.08443196 0.012262783 0.016557492 0.060457032 -0.020312069
-0.18489635 -0.06983445 0.018248111 0.03754197 -0.10750374 -0.054444317 -0.019158607 0.011965044
0.08194459 -0.048777122 0.05496031 0.01832007 0.07373351 0.11253781 0.059645843 -0.066141866
-0.022048434 0.06266843 0.11808544 -0.021212248 0.0351382 -0.07310845 -0.062940344 -0.04168035
0.03236711 -0.07922007 0.09083705 0.1210807 0.071099944 0.081669584 -0.04330615 -0.0058138394
0.008045333 -0.0027773273 -0.16843973 -0.023394484 0.06395602 -0.015296942 0.11438349 -0.04567986
0.059688188 -0.014997639 -0.13829419 -0.025489433 -0.27158558 0.1406578 0.038331408 -0.04142965
-0.049342237 0.039689057 -0.025379745 0.0071492237 0.036280643 0.0575287 -0.0015108474 -0.10870161
0.06745235 0.10389455 0.1500874 -0.0045416704 -0.06569744 0.0720784 -0.052873295 0.021479445
0.08577532 0.1769055 0.0024975552 -0.0397823 -0.030982113 -0.060431026 -0.114328034 0.10550842
-0.0013761156 0.14974639 -0.10857399 -0.17298193 -0.07566874 0.12973607 -0.08462387 -0.06368141
-0.054228112 -0.0041281325 0.094353884 0.025027098 0.035821665 0.19361533 -0.115403734 -0.117690556
0.14591062 -0.084322415 -0.122729585 -0.08980614 -0.012971095 -0.21419474 -0.040098656 0.123720676
0.0065991445 0.16546366 0.02486091 -0.011474115 -0.025768986 -0.024423266 -0.03051168 -0.02696139
-0.017504238 -0.07324811 0.0075060045 -0.12331458 -0.015607612 0.006511271 -0.09443839 0.009434133
0.04156496 0.053930253 -0.15277289 0.15505718 -0.00049743656 -0.02999505 0.12915011 0.12121268
0.029026791 0.033570837 -0.058049187 0.07678368 0.061891474 -0.019905519 0.060612373 -0.045532506
0.20204467 0.029108243 0.10840573 -0.11391411 -0.0058313855 -0.052584626 -0.06757671 0.036454856
0.012670529 -0.042032 0.13849363 0.047712617 -0.00631609 -0.02823794 -0.023730578 -0.06752743
0.07879117 -0.110027514 -0.060426053 0.03681682 0.03127401 -0.1148444 -0.072868265 -0.07982182
-0.081429556 0.11670768 -0.008896253 -0.013944938 -0.00076854374 0.056326605 -0.041372705 -0.06463477
-0.036357757 0.010076164 -0.24369296 -0.036061503 0.023243703 -0.104201 -0.07736502 0.11862927
00000000: 340c d4bd 4bc0 c03d 9eda d03d 1c47 623d
00000010: 7a2d ba3c 1779 0b3e 4fef 49bd 85e9 2b3d
00000020: 2400 853d c806 8abc 8eec c53d af81 8abc
00000030: 02fb 3c3b b7ed 883e 25eb cd3d 4db5 943d
00000040: 10af 1c3d 19fc abbc 7285 f53d f85a 483d
00000050: b956 043e fdc7 06bd d430 203e be0f 7a3d
00000060: bd81 e53c b24f 68be 89da 363e 30f5 9c3c
00000070: 413e 49bd d429 103d 2823 993d c1ee 2f3d
00000080: 3677 dcbc 8f59 d13c dffd ef3d 3f5b 84bd
00000090: ec3b a63d fd6c d0bb eb82 1ebd 1dc3 313e
000000a0: 97ff 7f3e f189 48bd ef74 443d 08ea 1d3d
000000b0: 85ae 503a e19a f43d 9357 54bd 749e cdbd
000000c0: 536d 043e 6d22 46bd dfb1 9c3b 1ab4 963c
000000d0: 3e36 793a e0df 3abd bb8c 99bd 1822 293e
000000e0: 0512 46bd 4baa aabc db51 7dbd a0fe b2bb
000000f0: c2fe d13a ec3b 57bc 7ad7 55bc ce8c 10bd
00000100: d58a b93d a367 e1bc c41e 493d 9e28 64be
00000110: 20be acbd 7295 d2bc 7fb3 97bd d158 87bc
00000120: a5f5 873c 3504 d4bd 6e40 0fbe 9eec 043e
00000130: f5af 87bd ca94 bf3d 0e76 b73d 0b56 0dbd
00000140: dffd 05bd b5e0 76bd b699 1eba aaea acbd
00000150: d7e9 483c 94a3 873c cba1 773d 7f65 a6bc
00000160: 7855 3dbe 5d05 8fbd 107d 953c 9cc5 193d
00000170: ec2a dcbd 0101 5fbd 83f2 9cbc 0809 443c
00000180: 91d2 a73d 85ca 47bd 101e 613d f913 963c
00000190: 9801 973d 397a e63d 334f 743d 6375 87bd
000001a0: eb9e b4bc 4e58 803d c7d6 f13d 4fc5 adbc
000001b0: 13ed 0f3d e2b9 95bd dee6 80bd 04b9 2abd
000001c0: 6093 043d 223e a2bd c608 ba3d 28f9 f73d
000001d0: d99c 913d 6242 a73d ca61 31bd 0582 bebb
000001e0: 93d0 033c d203 36bb 777b 2cbe caa5 bfbc
000001f0: 60fb 823d 06a0 7abc e441 ea3d ce1a 3bbd
00000200: 9a7b 743d a8b8 75bc fe9c 0dbe 37cf d0bc
00000210: 440d 8bbe 9908 103e 6501 1d3d 23b2 29bd
00000220: 161b 4abd fe90 223d 2fe9 cfbc 0944 ea3b
00000230: 039b 143d 37a3 6b3d a007 c6ba f39e debd
00000240: 7524 8a3d aac6 d43d 83b0 193e 4bd2 94bb
00000250: 618c 86bd d79d 933d ab91 58bd a9f5 af3c
00000260: f9aa af3d b726 353e 06ae 233b c4f2 22bd
00000270: 33ce fdbc 8686 77bd d124 eabd cc14 d83d
00000280: c75e b4ba 1e57 193e 0a5c debd 2d22 31be
00000290: 36f8 9abd 88d9 043e 484f adbd 666b 82bd
000002a0: 4c1e 5ebd 4945 87bb 9c3c c13d a105 cd3c
000002b0: bdb9 123d 1943 463e cb58 ecbd bf07 f1bd
000002c0: 9869 153e 3bb1 acbd a659 fbbd 48ec b7bd
000002d0: b784 54bc de55 5bbe 7d3e 24bd 4461 fd3d
000002e0: a33d d83b 4e6f 293e 1ba9 cb3c edfd 3bbc
000002f0: 7b19 d3bc 4d13 c8bc a1f3 f9bc 22de dcbc
00000300: 0c65 8fbc 1b03 96bd eef4 f53b 5b8c fcbd
00000310: 12b7 7fbc 805c d53b ea68 c1bd 9f91 1a3c
00000320: 0540 2a3d f8e5 5c3d 7f70 1cbe 4fc7 1e3e
00000330: 6766 02ba 2eb8 f5bc ed3f 043e 5b3e f83d
00000340: 98c9 ed3c 9381 093d fcc4 6dbd c340 9d3d
00000350: ea81 7d3d e610 a3bc ae44 783d 4b80 3abd
00000360: cce4 4e3e 6974 ee3c d303 de3d cd4b e9bd
00000370: 3515 bfbb fa62 57bd a865 8abd b051 153d
00000380: 0d98 4f3c bf29 2cbd 46d1 0d3e 4e6e 433d
00000390: 34f7 cebb 4153 e7bc a166 c2bc d24b 8abd
000003a0: 445d a13d 1b56 e1bd 4f81 77bd 3ccd 163d
000003b0: 2d19 003d 8a33 ebbd f53b 95bd 9f79 a3bd
000003c0: 8ac4 a6bd 7004 ef3d 97c1 11bc 4f79 64bc
000003d0: 1978 49ba bab6 663d 6d76 29bd 3c5f 84bd
000003e0: dfeb 14bd 7f16 253c a68a 79be 3ab5 13bd
000003f0: 9469 be3c 5567 d5bd 8d71 9ebd e7f3 f23d

network_body._body_endoder.seq_layers.2.bias f4 [128]
-0.024622278 -0.024348764 -0.014919557 -0.01054453 0.0034313204 -0.022737408 0.032387186 -0.002288212
-0.008265358 -0.008520612 0.020134449 0.02341214 0.03283764 -0.010691117 0.015291723 0.031561866
-0.014821343 -0.0117879845 0.028104255 -0.005898069 0.016090382 0.020433279 -0.018186279 -0.011042438
-0.021042394 -0.010555077 0.03535899 0.024341831 0.015375586 0.026237555 -0.014468684 -0.021027075
-0.025685914 -0.006826021 -0.0060845837 0.01889027 -0.009573673 0.0048007625 -0.010287841 0.03270155
0.011481553 -0.02566843 0.030415919 0.04214817 0.033619557 -0.023025943 -0.028766736 0.0003751575
0.023571005 0.00820136 -0.0077218115 -0.0074197203 -0.007725884 -0.0032298977 -0.019507527 -0.004376541
-0.025793402 -0.008790413 -0.018196473 -0.03404849 -0.005994738 0.025969561 0.015726367 0.013875537
0.022182664 -0.0041662594 0.028569812 0.019852646 -0.009419833 0.026706317 -0.0049794484 -0.0055218763
-0.0074708792 -0.014265208 -0.029008795 -0.0016526657 0.019834986 0.01748003 -0.026794152 -0.019280195
-0.010194665 0.016956644 -0.0068856664 -0.012425959 0.035834704 -0.003110354 -0.014302943 0.021378037
0.044237513 -0.014219134 -0.010104852 -0.01821759 -0.0129883075 -0.004415197 -0.016209248 -0.025774682
-0.011076411 -0.021971233 0.029332088 -0.0019234519 -0.015533845 -0.020995528 0.028396804 0.029308625
-0.025660524 -0.015444561 0.005116408 -0.004869362 0.026569348 -0.016939512 -0.0058440785 -0.012961739
0.023170345 -0.012764918 0.016765554 0.014270578 -0.008621974 0.031868923 0.0314399 -0.016932597
-0.012273259 0.028759852 -0.029260341 -0.0123511525 0.031456325 -0.016370537 0.029978171 0.0529565
00000000: a9b4 c9bc 0f77 c7bc 2871 74bc f7c2 2cbc
00000010: 01e0 603b cd43 babc 6da8 043d d4f5 15bb
00000020: 6d6b 07bc 099a 0bbc 00f1 a43c d1ca bf3c
00000030: c380 063d cb29 2fbc 238a 7a3c 0447 013d
00000040: 38d5 72bc 6422 41bc e53a e63c 9744 c1bb
00000050: facf 833c b163 a73c 64fb 94bc 58eb 34bc
00000060: 1961 acbc 34ef 2cbc 97d4 103d 8568 c73c
00000070: e2e9 7b3c 24f0 d63c 0f0e 6dbc f940 acbc
00000080: 446b d2bc d0ac dfbb 3061 c7bb c4bf 9a3c
00000090: e5da 1cbc b74f 9d3b 558e 28bc 0ff2 053d
000000a0: 201d 3c3c 9946 d2bc ce2a f93c 8fa3 2c3d
000000b0: a9b4 093d e7a0 bcbc 38a8 ebbc cab0 c439
000000c0: fb17 c13c ff5e 063c 4007 fdbb 2021 f3bb
000000d0: 6a29 fdbb b1ac 53bb 40ce 9fbc 1669 8fbb
000000e0: af4c d3bc aa05 10bc c510 95bc 6e76 0bbd
000000f0: 826f c4bb 1ebe d43c 95d4 803c 3856 633c
00000100: 6bb8 b53c 1e85 88bb 3d0b ea3c 04a2 a23c
00000110: a555 1abc 35c7 da3c a42a a3bb dbf0 b4bb
00000120: 47ce f4bb 9eb8 69bc daa3 edbc 429e d8ba
00000130: fb7c a23c 4832 8f3c 697f dbbc 80f1 9dbc
00000140: 8607 27bc a9e8 8a3c 28a1 e1bb 4096 4bbc
00000150: 69c7 123d 15d7 4bbb e456 6abc fe20 af3c
00000160: 6532 353d 5ff7 68bc d28e 25bc 0e3d 95bc
00000170: e9cc 54bc 5bad 90bb 42c9 84bc 6d25 d3bc
00000180: d679 35bc 04fd b3bc d949 f03c 561c fcba
00000190: ab81 7ebc d0fe abbc 6aa0 e83c a418 f03c
000001a0: 0536 d2bc 2f0b 7dbc 8ba7 a73b 2b8f 9fbb
000001b0: f6a7 d93c bbc4 8abc af7f bfbb 795d 54bc
000001c0: bccf bd3c f223 51bc ea57 893c 24cf 693c
000001d0: 2e43 0dbc fd88 023d 20c7 003d 3bb6 8abc
000001e0: c815 49bc c899 eb3c 62b3 efbc 7d5c 4abc
000001f0: 59d8 003d 811b 86bc c894 f53c eae8 583d

action_model._discrete_distribution.branches.0.weight f4 [2, 128]
-0.008132043 -0.0020802792 -0.025043948 -0.028289933 0.0092221275 -0.014550695 0.03222353 0.012235566
-0.034213807 -0.022329204 0.020818302 0.022535281 0.0060200826 -0.021976389 0.02051028 0.03132776
-0.0120553095 -0.007293931 -0.0047728037 -0.015925156 0.004836471 0.009428009 -0.0009004253 -0.014548966
-0.012675514 -0.028016731 0.032930993 0.018010983 0.007976442 0.017849177 -0.024329478 0.00069614477
-0.01587919 -0.024382485 -0.024664294 0.013317436 -0.011991307 0.007032368 -0.030659072 0.023346556
0.009062011 -0.003120025 0.029086908 0.02183804 0.021893159 -0.01572281 0.0030775508 -0.0010991285
0.014060466 0.01564568 -0.018876856 -0.03362493 -0.030183334 -0.017531121 -4.978379e-05 -0.024262749
-0.013023934 -0.017076327 -0.030546283 -0.01790271 -0.019394426 0.016636252 0.024315692 0.012679276
0.022147601 0.0012968808 0.021124301 0.014989402 -0.0080638295 0.01969845 -0.03398194 -0.028679514
-0.008161539 -0.02565089 -0.0135453725 -0.017243896 0.020276506 0.014168139 -0.012243639 -0.014750853
0.002668751 0.0063732606 -0.016589332 0.0030330515 0.020845035 -0.0144397 -0.01944549 0.020575251
0.021734666 -0.0025913825 -0.0074610263 -0.020086577 -0.01745643 0.0006046446 -0.0168208 -0.008259521
-0.029128302 -0.0056416714 0.02945152 -0.03322778 -0.012571442 -0.004292027 0.012337034 0.03325073
-0.0013995168 -0.012211884 -0.027019251 -0.015569904 0.012364614 -0.0065838816 -0.009752135 -0.0101083545
0.022371424 -0.01658447 0.023184976 0.00929253 -0.00977358 0.02881777 -0.0032840127 -0.012985947
-0.010588942 0.0043944875 -0.023446118 -0.02712437 0.008580857 -0.00012426099 0.024301823 0.037903015
0.011721323 0.008061353 0.03433479 0.031529106 0.0056584664 0.0024968074 -0.042270474 0.0067626494
0.014122456 0.014293205 -0.025661664 -0.0055042114 -0.03241253 0.025401568 -0.0059900763 -0.022114925
0.005097026 0.011827504 -0.02014045 0.014551038 -0.020522242 -0.012245291 0.019081218 0.026376152
3.4611126e-05 0.024813266 -0.012734343 -0.021426266 -0.017457906 -0.02600283 0.0068156356 0.01212158
0.0072124726 0.026076335 0.0107290605 -0.0119022215 -0.0032741986 -0.00449572 0.032768734 -0.035529252
-0.008378665 0.012175401 -0.0066541694 -0.018275091 -0.013188057 -0.0077812676 0.011188112 -0.0026493808
-0.008300067 0.0072908835 0.012078033 0.024871517 0.036211785 0.031162368 0.0016766377 0.023931704
0.014467416 0.019254155 0.02676223 0.025944075 0.029746281 -0.016490193 -0.013950463 -0.014164292
-0.011407952 0.0038489278 -0.019839339 -0.026387937 -0.0034439615 0.0007587375 0.023779364 0.041455954
0.0014270142 0.0018716985 0.02793774 0.03469954 -0.010832276 0.00073662016 0.010723921 0.0038423322
0.016976273 -0.004386978 0.023277152 0.002466444 -0.04119849 -0.015657773 0.036631107 -0.018449625
-0.015795678 0.005773373 0.018892523 0.006567711 0.001405852 -0.00051955075 0.01601317 0.020447854
0.004011678 0.008264493 -0.02336889 0.018910771 -0.0011078791 0.0028075876 -0.00557825 -0.030856356
0.011630155 0.0010590078 0.014011068 0.03556279 -0.035813604 0.017433127 0.021283021 0.020576041
-0.017172074 0.00011377516 -0.010147425 -0.020349737 0.009781692 -0.016509425 -0.029517984 0.0016328931
0.0141002145 -0.018826434 0.02412305 0.026322931 -0.00904376 0.013340033 -0.022163395 -0.01993544
00000000: 433c 05bc 4b55 08bb f728 cdbc 4ac0 e7bc
00000010: 6818 173c 0a66 6ebc d2fc 033d af77 483c
00000020: c723 0cbd bceb b6bc 258b aa3c e99b b83c
00000030: 1d44 c53b d407 b4bc 2d05 a83c 8a51 003d
00000040: a283 45bc ee01 efbb 2e65 9cbb 7975 82bc
00000050: 427b 9e3b f077 1a3c 850a 6cba c95e 6ebc
00000060: f6ac 4fbc 5883 e5bc a6e2 063d c58b 933c
00000070: 9faf 023c 7038 923c 9d4e c7bc 7c7d 363a
00000080: 1315 82bc c7bd c7bc c60c cabc 6031 5a3c
00000090: 3077 44bc c76f e63b bc28 fbbc 4741 bf3c
000000a0: d478 143c 5579 4cbb ab47 ee3c b0e5 b23c
000000b0: 4859 b33c 1fcd 80bc bcb0 493b a210 90ba
000000c0: de5d 663c 5e2b 803c a3a3 9abc 4bba 09bd
000000d0: 0a43 f7bc 6d9d 8fbc f0ce 50b8 acc2 c6bc
000000e0: 5762 55bc a7e3 8bbc 333c fabc b4a8 92bc
000000f0: 0fe1 9ebc c048 883c b431 c73c bdbc 4f3c
00000100: e36e b53c 19fc a93a df0c ad3c 1c96 753c
00000110: 271e 04bc a55e a13c a630 0bbd 4df1 eabc
00000120: fab7 05bc d121 d2bc 69ed 5dbc 1243 8dbc
00000130: ea1a a63c 7b21 683c 8b99 48bc 90ad 71bc
00000140: 36e6 2e3b c9d6 d03b 5ae6 87bc 29c6 463b
00000150: 35c3 aa3c 7e94 6cbc 264c 9fbc 6e8d a83c
00000160: e60c b23c 2fd4 29bb a07b f4bb 9b8c a4bc
00000170: c900 8fbc 0381 1e3a c6cb 89bc f152 07bc
00000180: 7a9e eebc c5dd b8bb 5044 f13c da19 08bd
00000190: 73f8 4dbc 22a4 8cbb 4521 4a3c eb31 083d
000001a0: fe6f b7ba 5b14 48bc 7a57 ddbc e918 7fbc
000001b0: f394 4a3c 9abd d7bb 6bc7 1fbc 839d 25bc
000001c0: 4744 b73c 28dc 87bc 6bee bd3c b23f 183c
000001d0: 5e21 20bc 3e13 ec3c 9738 57bb 02c3 54bc
000001e0: 3e7d 2dbc a2ff 8f3b 1312 c0bc ed33 debc
000001f0: b996 0c3c 0e4c 02b9 9e14 c73c 3140 1b3d
00000200: cb0a 403c c413 043c a3a2 0c3d aa24 013d
00000210: a86a b93b 7aa1 233b ce23 2dbd 3799 dd3b
00000220: e061 673c 0c2e 6a3c 6938 d2bc ac5c b4bb
00000230: 00c3 04bd f316 d03c 6748 c4bb 5c2a b5bc
00000240: f404 a73b 26c8 413c 96fd a4bc 7a67 6e3c
00000250: 431e a8bc 79a0 48bc 3750 9c3c cd12 d83c
00000260: 6a2b 1138 3145 cb3c b5a3 50bc 2386 afbc
00000270: e203 8fbc e303 d5bc b255 df3b 9799 463c
00000280: 9b56 ec3b 0a9e d53c f1c8 2f3c 8901 43bc
00000290: f093 56bb d550 93bb 8238 063d 1f87 11bd
000002a0: ab46 09bc 557b 473c 380b dabb a5b5 95bc
000002b0: b812 58bc 01fa febb 584e 373c 3ca1 2dbb
000002c0: 01fd 07bc 5de8 ee3b f1e2 453c 5abf cb3c
000002d0: cf52 143d 3948 ff3c a0c2 db3a 6c0c c43c
000002e0: be08 6d3c e4ba 9d3c 773c db3c ab88 d43c
000002f0: 79ae f33c 7116 87bc 7c90 64bc 5911 68bc
00000300: 6be8 3abc 4b3e 7c3b 1c86 a2bc 842b d8bc
00000310: 16b4 61bb 03e6 463a f1cc c23c b8cd 293d
00000320: a70a bb3a c853 f53a b0dd e43c 1b21 0e3d
00000330: dc79 31bc be19 413a 62b3 2f3c a3cf 7b3b
00000340: d311 8b3c a4c0 8fbb baaf be3c 10a4 213b
00000350: bfbf 28bd bb44 80bc 800a 163d ab23 97bc
00000360: f065 81bc 902e bd3b 7ec4 9a3c f435 d73b
00000370: 9144 b83a 7632 08ba 0d2e 833c 4282 a73c
00000380: 6574 833b cc67 073c 1d70 bfbc c3ea 9a3c
00000390: 4136 91ba 81ff 373b c1c9 b6bb 78c6 fcbc
000003a0: 688c 3e3c 68ce 8a3a ae8e 653c 4aaa 113d
000003b0: 49b1 12bd ebcf 8e3c bb59 ae3c 168f a83c
000003c0: 73ac 8cbc 939a ee38 6341 26bc 7eb4 a6bc
000003d0: 6443 203c c63e 87bc b3cf f1bc cd06 d63a
000003e0: 9604 673c e539 9abc b49d c53c 30a3 d73c
000003f0: 472c 14bc 2790 5a3c 0290 b5bc a64f a3bc

action_model._discrete_distribution.branches.0.bias f4 [2]
0.010297815 -0.010297818
00000000: 2bb8 283c 2eb8 28bc

exp_avg f4 [128, 2]
-1.1051949e-06 3.1433046e-07 2.0537664e-05 5.031406e-05 0.00013250807 1.1522388e-05 0.00010194523 0.000107434185
-0.000100677855 2.8605882e-05 0.0002262858 0.00015247035 8.9619694e-05 -6.413736e-05 0.00030107054 0.00018926951
4.0902305e-05 5.301706e-05 6.2633655e-05 7.606688e-05 5.0350685e-05 -0.0001222161 -6.144433e-05 0.00021494918
0.00025636208 0.00017408145 5.382558e-05 1.5869868e-05 3.5616235e-05 -4.0459257e-05 9.774101e-05 3.7973765e-05
-4.4049724e-05 4.3297332e-05 -1.5786558e-05 5.993973e-05 0.00011488436 -0.00012793935 1.1180258e-05 9.3622104e-05
0.0001806088 7.613895e-05 0.00023782928 9.765907e-05 2.3227838e-05 3.8376285e-05 -2.2726308e-05 2.2425582e-05
2.4043346e-05 -3.754351e-05 4.958084e-05 -8.7654145e-05 9.650248e-05 4.4756907e-05 0.00010401706 2.7414018e-05
5.377321e-05 9.52909e-05 -7.4547374e-06 6.058678e-05 -7.439069e-05 6.5890206e-05 0.000102079255 3.950365e-05
4.164215e-05 -9.792033e-05 0.00032360147 5.803033e-05 9.826541e-06 2.6813046e-05 6.0406615e-05 -4.0701118e-05
-3.7487247e-05 3.981597e-05 -1.4824394e-05 -2.6586453e-05 9.0273454e-05 0.00017680028 6.370082e-05 -3.4631168e-05
8.1164966e-05 -1.1908826e-05 8.022719e-05 9.507182e-05 7.226048e-05 -1.457996e-05 1.4539462e-05 1.5228296e-05
7.494456e-05 4.565699e-05 7.385506e-05 1.8842093e-05 0.00013270014 -6.159178e-06 3.1706026e-05 -7.3454394e-06
6.6200984e-05 -3.2059048e-05 6.448247e-05 -3.3916032e-05 -0.00011376745 5.0732033e-06 0.00020702896 0.00010299489
3.0279512e-05 -6.8127792e-06 7.421901e-05 -9.9930185e-05 -2.3757304e-06 2.4704703e-05 -0.00019446797 0.00012842007
-2.8395578e-05 1.874176e-05 -3.269802e-05 7.296179e-05 2.018507e-05 5.0134735e-05 3.6714508e-05 2.242393e-05
3.138933e-05 5.0169507e-05 0.00016156444 1.6069105e-05 -7.563813e-09 -1.6312337e-05 0.000105015046 2.4586006e-05
0.00018147317 9.832076e-05 0.00020567565 7.642135e-05 1.3088302e-05 -6.4731507e-06 3.264885e-05 8.691496e-05
5.6330908e-05 3.6143392e-06 9.736488e-05 8.917143e-05 6.392378e-05 -0.00013441869 6.860689e-05 8.390893e-05
9.52729e-05 -0.00016733 2.6212732e-05 5.7728106e-05 2.1138285e-05 6.046857e-05 3.1051124e-05 2.9940376e-05
-9.984615e-06 -0.00013308949 8.182945e-05 2.8463188e-05 -0.00014252968 -1.2050899e-05 7.258717e-05 8.833006e-05
-1.2624972e-05 -0.00016612127 3.9551745e-05 -6.16242e-05 4.9311442e-05 -2.6403424e-05 -0.00017175463 0.0001722934
-5.4592256e-05 1.3108358e-05 4.2207008e-05 3.2113276e-06 0.00013379277 7.050725e-05 8.511979e-05 2.9609797e-05
1.0887059e-05 -3.3567594e-05 -2.8581582e-05 3.921277e-05 0.00015338961 5.0528146e-05 0.0001388868 4.8304657e-05
0.00013917562 -0.000120454984 2.8675866e-05 6.046385e-05 7.582895e-05 0.00011993792 -8.1387756e-05 0.00022633908
-6.3332714e-05 3.6228543e-05 -3.5255685e-05 0.0001830199 5.6693963e-05 3.6956964e-05 0.00027494557 5.792368e-05
0.00022118197 -6.1122264e-06 8.180222e-05 5.489123e-05 -1.1639303e-05 -4.8345282e-05 7.541832e-05 -8.2768136e-05
-6.2506064e-05 3.1655414e-05 -6.4064996e-05 -8.914361e-06 5.7024063e-06 5.7790385e-05 1.382345e-05 -7.519312e-05
0.00018564827 5.597744e-05 2.71268e-05 -8.995901e-06 -7.5158045e-05 0.00011860768 0.00015825107 -6.4508777e-06
2.6259637e-05 4.5352128e-05 4.3266887e-06 4.7148773e-05 5.5011296e-05 -0.00016372505 -4.724528e-05 5.168373e-05
0.00013811271 -0.00014702852 0.00015744999 0.00020222737 -2.5618754e-05 1.9168947e-05 4.6352998e-05 -4.0317245e-05
-4.797578e-05 1.1531138e-06 0.0001532587 0.000109669025 2.0479893e-06 -0.00012194486 2.3093658e-05 -1.123768e-06
3.608129e-05 -3.4852852e-05 -0.000127444 9.093644e-05 5.8296373e-05 -4.4662738e-07 0.00035040092 4.4598877e-05
00000000: 3556 94b5 40c1 a834 4c48 ac37 5008 5338
00000010: ddf1 0a39 4850 4137 6ecb d538 4a4e e138
00000020: 0323 d3b8 aaf6 ef37 2247 6d39 73e0 1f39
00000030: 35f2 bb38 7c81 86b8 01d9 9d39 a676 4639
00000040: 848e 2b38 a25e 5e38 305a 8338 1886 9f38
00000050: a32f 5338 2227 00b9 acdb 80b8 fb63 6139
00000060: 5668 8639 a289 3639 c7c2 6138 4820 8537
00000070: a462 1538 ccb2 29b8 4efa cc38 0546 1f38
00000080: 08c2 38b8 289a 3538 606d 84b7 cc67 7b38
00000090: 12ee f038 7527 06b9 d892 3b37 fc56 c438
000000a0: ce61 3d39 caac 9f38 d061 7939 50ce cc38
000000b0: 67d9 c237 39f6 2038 60a4 beb7 921e bc37
000000c0: b1b0 c937 0978 1db8 06f5 4f38 f6d2 b7b8
000000d0: 6061 ca38 5db9 3b38 bc23 da38 28f7 e537
000000e0: 8b8a 6138 ead6 c738 b523 fab6 8f1e 7e38
000000f0: 3302 9cb8 892e 8a38 6213 d638 b9b0 2538
00000100: eba8 2e38 945a cdb8 0ea9 a939 9865 7338
00000110: acdc 2437 94ec e037 1c5d 7d38 7eb6 2ab8
00000120: a03b 1db8 1200 2738 4ab6 78b7 f905 dfb7
00000130: 3151 bd38 7763 3939 1e97 8538 ef40 11b8
00000140: 1c37 aa38 05cc 47b7 a53f a838 4b61 c738
00000150: 8d8a 9738 749c 74b7 84ee 7337 097d 7f37
00000160: 8e2b 9d38 d27f 3f38 a2e2 9a38 160f 9e37
00000170: 6c25 0b39 f0aa ceb6 16fc 0438 d878 f6b6
00000180: 62d5 8a38 2477 06b8 c33a 8738 1041 0eb8
00000190: 6f96 eeb8 7c3a aa36 ea15 5939 f6fe d738
000001a0: c200 fe37 5499 e4b6 07a6 9b38 9c91 d1b8
000001b0: bd6e 1fb6 f23c cf37 19ea 4bb9 80a8 0639
000001c0: 0a33 eeb7 a037 9d37 3b25 09b8 1003 9938
000001d0: 1c53 a937 c347 5238 e7fd 1938 061b bc37
000001e0: 09a8 0338 196d 5238 a069 2939 24cc 8637
000001f0: 00f2 01b2 7ad6 88b7 863b dc38 0c3e ce37
00000200: d549 3e39 8e31 ce38 a3aa 5739 6644 a038
00000210: d495 5b37 f133 d9b6 70f0 0838 1d46 b638
00000220: da44 6c38 e08d 7236 5f30 cc38 8c01 bb38
00000230: d10e 8638 bef2 0cb9 0be1 8f38 44f8 af38
00000240: 40cd c738 4e75 2fb9 6ae3 db37 1521 7238
00000250: 1f52 b137 a29f 7d38 e43c 0238 7828 fb37
00000260: 9883 27b7 f08d 0bb9 da9b ab38 3bc4 ee37
00000270: 0574 15b9 382e 4ab7 f139 9838 d73d b938
00000280: d8cf 53b7 d730 2eb9 5de4 2538 3e3c 81b8
00000290: c2d3 4e38 ec7c ddb7 0819 34b9 a8a9 3439
000002a0: fdf9 64b8 f8eb 5b37 6e07 3138 3082 5736
000002b0: b94a 0c39 4bdd 9338 5782 b238 8e62 f837
000002c0: 90a7 3637 eeca 0cb8 7bc2 efb7 6478 2438
000002d0: 36d7 2039 2fee 5338 24a2 1139 bb9a 4a38
000002e0: acef 1139 c79c fcb8 f48c f037 919a 7d38
000002f0: 5c06 9f38 2e87 fb38 b8ae aab8 6f55 6d39
00000300: 7ed1 84b8 1af4 1738 81df 13b8 08e9 3f39
00000310: aeca 6d38 3d02 1b38 9226 9039 14f3 7238
00000320: 15ed 6739 a017 cdb6 3c8d ab38 023b 6638
00000330: 6d46 43b7 5ac6 4ab8 e729 9e38 ce93 adb8
00000340: b015 83b8 bec5 0438 a25a 86b8 e48e 15b7
00000350: 4c57 bf36 f463 7238 44eb 6737 00b1 9db8
00000360: 94aa 4239 52c9 6a38 5c8e e337 1aed 16b7
00000370: 2b9e 9db8 03bd f838 33f0 2539 9e74 d8b6
00000380: 2448 dc37 7a38 3e38 f92d 9136 9cc1 4538
00000390: eebb 6638 9cad 2bb9 3c29 46b8 fcc6 5838
000003a0: 59d2 1039 ab2b 1ab9 2919 2539 ff0c 5439
000003b0: dbe7 d6b7 00cd a037 276b 4238 501a 29b8
000003c0: 9a39 49b8 b0c4 9a35 12b4 2039 1cfe e538
000003d0: 3070 0936 a6bc ffb8 41b9 c137 60d4 96b5
000003e0: fd55 1738 f72e 12b8 7da2 05b9 21b5 be38
000003f0: 4183 7438 00c8 efb4 04b6 b739 ae0f 3b38

exp_avg_sq f4 [128, 2]
9.895615e-08 4.034223e-08 1.0772605e-07 6.1434854e-08 1.3146756e-07 1.7168594e-07 9.3459796e-08 1.777812e-07
5.763229e-08 4.3205457e-08 1.8471086e-07 3.17322e-07 5.289935e-07 4.7383492e-07 3.2063176e-07 5.612493e-07
1.2028602e-07 1.2606546e-07 1.6908622e-07 1.379236e-07 8.732072e-07 1.084789e-06 4.5717042e-07 3.756369e-07
4.3132405e-07 7.8249394e-07 4.6685578e-08 4.634463e-08 9.8350846e-08 8.884422e-08 6.981743e-08 4.6835236e-08
1.7288542e-07 4.5480608e-08 4.381884e-08 1.14982175e-08 2.296827e-07 2.3061162e-07 1.0118337e-07 1.4267607e-07
3.0033408e-07 2.1577114e-07 5.0602864e-07 3.7435098e-07 6.136846e-08 6.744135e-08 4.0364064e-08 2.2908752e-08
1.9940899e-07 3.336177e-07 3.5925265e-08 5.593505e-08 4.643523e-08 3.700599e-08 6.3017865e-08 8.393496e-08
3.8783432e-07 4.0234244e-07 4.59108e-08 5.7355344e-08 2.4618183e-07 1.000904e-07 3.5164465e-08 4.9556032e-08
1.7977439e-07 2.7840238e-07 3.2507998e-07 1.8622939e-07 1.600868e-08 2.1782196e-08 1.5922724e-07 2.4102786e-07
3.750642e-08 2.2535714e-08 4.5833946e-08 1.2454861e-08 1.5546027e-07 2.1148438e-07 1.295369e-07 1.8667944e-07
2.4721693e-08 1.3089696e-08 2.5899755e-07 1.6073125e-07 3.4381532e-08 2.4869525e-08 1.5301177e-08 1.1483619e-08
3.4130593e-08 2.7876778e-08 6.393402e-08 3.0867206e-08 3.1067593e-08 2.0389876e-08 9.4279855e-08 1.0285101e-07
3.3099914e-07 3.7407813e-07 1.0364844e-07 7.55502e-08 7.748533e-08 5.015209e-08 3.6825546e-07 2.0413799e-07
6.8012646e-08 2.5427207e-08 5.4261983e-07 4.0617303e-07 8.621036e-09 1.0641455e-08 1.1237645e-06 3.6581517e-07
3.2129613e-08 1.3273845e-08 4.6346617e-08 5.8580753e-08 8.000099e-08 9.376202e-08 1.7799296e-07 6.894735e-08
6.142535e-08 3.702185e-08 4.924965e-07 2.9925855e-07 1.0253217e-07 1.0585821e-07 4.3834792e-08 4.4506123e-08
1.7957404e-07 2.2671144e-07 3.6369622e-07 2.9450771e-07 1.1687821e-08 4.7055986e-09 6.4806486e-08 1.1224406e-07
9.7072705e-09 9.175153e-09 5.7455868e-08 1.03672924e-07 7.9286326e-07 7.3692445e-07 1.02747315e-07 1.20417e-07
2.1281757e-07 2.392887e-07 2.849178e-08 3.8752052e-08 4.103288e-08 4.005256e-08 4.7015554e-08 9.039624e-08
7.1325735e-07 1.2767626e-06 1.6941546e-07 1.423887e-07 4.1637414e-08 2.1788793e-08 1.219999e-07 5.761109e-08
6.993764e-07 1.3008201e-06 1.5986437e-07 1.8708491e-07 2.4070914e-08 6.2001164e-09 7.6564584e-07 1.9501367e-07
5.993252e-08 3.3068904e-08 4.221525e-07 5.0291214e-07 6.436614e-08 1.08288525e-07 2.1345567e-08 2.1606622e-08
3.6467462e-08 4.5667676e-08 1.8322145e-07 3.863173e-08 1.0314908e-07 9.834807e-08 7.929906e-08 9.3393425e-08
6.303807e-07 3.2959272e-07 8.1336836e-08 1.3728543e-07 3.205996e-07 2.6404908e-07 4.926439e-07 1.5505533e-07
3.3340424e-08 2.0410624e-08 3.276478e-07 9.721541e-08 5.628939e-08 5.4836747e-08 2.7992138e-07 1.5621058e-07
5.4238336e-07 3.327208e-07 1.1143705e-07 1.2885394e-07 2.7478737e-07 4.81044e-07 1.4889159e-07 8.7061494e-08
2.6001397e-08 2.8255831e-08 1.8313633e-08 5.058347e-09 8.185244e-08 9.865921e-08 3.6974893e-07 4.4258545e-07
4.4804395e-07 2.5873996e-07 4.5208726e-08 3.5184087e-08 3.3837028e-07 1.2869471e-07 6.394802e-08 2.502526e-08
1.9084677e-08 1.6296507e-08 9.980711e-08 3.400913e-08 5.356553e-07 7.818709e-07 3.8473964e-08 3.706873e-08
8.911195e-07 9.165381e-07 3.895351e-07 6.6010045e-07 6.763865e-08 5.950364e-08 9.811123e-08 1.368017e-07
3.4103696e-08 1.1635764e-08 8.4471125e-08 1.3979049e-07 4.069061e-07 6.862417e-07 2.2669504e-07 3.3620435e-07
7.008198e-08 1.04072335e-07 5.319789e-07 2.2149403e-07 1.3884677e-07 1.2996742e-07 3.3539357e-07 2.4314784e-07
00000000: b881 d433 c044 2d33 0657 e733 2bee 8333
00000010: 8729 0d34 ac58 3834 11b4 c833 20e4 3e34
00000020: 5f87 7733 e790 3933 ef54 4634 675c aa34
00000030: 2800 0e35 6063 fe34 4b23 ac34 c2a8 1635
00000040: f827 0134 9c5c 0734 118e 3534 2718 1434
00000050: 5866 6a35 1199 9135 0671 f534 24ab c934
00000060: ba90 e734 930c 5235 5683 4833 760c 4733
00000070: f334 d333 a0ca be33 8aee 9533 e327 4933
00000080: 62a2 3934 7556 4333 5333 3c33 b289 4532
00000090: b39e 7634 0a9e 7734 254a d933 8032 1934
000000a0: 9a3d a134 b8ae 6734 06d6 0735 68fa c834
000000b0: abc9 8333 46d4 9033 c25c 2d33 e1c8 c432
000000c0: 201d 5634 111c b334 3f4c 1a33 3d3d 7033
000000d0: 1370 4733 84f0 1e33 7054 8733 bb3f b433
000000e0: 8b37 d034 8601 d834 752f 4533 de56 7633
000000f0: f92a 8434 48f1 d633 bd07 1733 6fd7 5433
00000100: 0208 4134 5577 9534 a786 ae34 58f6 4734
00000110: 7683 8932 8e1b bb32 0df8 2a34 9e66 8134
00000120: bf16 2133 8f94 c132 f5da 4433 0ff9 5532
00000130: 98ec 2634 6214 6334 d516 0b34 0e72 4834
00000140: 945b d432 18e1 6032 5a0c 8b34 7895 2c34
00000150: e5aa 1333 aaa0 d532 a56f 8332 7e49 4532
00000160: fc96 1233 af75 ef32 194c 8933 da92 0433
00000170: 2e6f 0533 d025 af32 e676 ca33 f1de dc33
00000180: 2db4 b134 e8d4 c834 5595 de33 293e a233
00000190: 0366 a633 ce66 5733 a5b4 c534 0631 5b34
000001a0: 590e 9233 056b da32 8da8 1135 ff0f da34
000001b0: b81b 1432 9dd1 3632 41d4 9635 4165 c434
000001c0: e2fe 0933 fd0a 6432 a50e 4733 389a 7b33
000001d0: 02cd ab33 375a c933 551e 3f34 3510 9433
000001e0: f1e8 8333 f401 1f33 1a34 0435 c8a9 a034
000001f0: a82f dc33 2b54 e333 dd44 3c33 0027 3f33
00000200: f0d0 4034 f76d 7334 0742 c334 d51c 9e34
00000210: 95cb 4832 e2ae a131 be2b 8b33 d30a f133
00000220: 07c5 2632 c0a0 1d32 65c5 7633 cba2 de33
00000230: 26d5 5435 10d1 4535 efa5 dc33 f94b 0134
00000240: d982 6434 9777 8034 16be f432 5570 2633
00000250: 213c 3033 4106 2c33 26ee 4933 dc1f c233
00000260: ac76 3f35 3b5d ab35 91e8 3534 82e3 1834
00000270: d2d4 3233 102a bb32 14ff 0234 1070 7733
00000280: c8bc 3b35 d797 ae35 2fa7 2b34 82e1 4834
00000290: 80c4 ce32 cd08 d531 c886 4d35 f364 5134
000002a0: 40b4 8033 a507 0e33 33a4 e234 dcff 0635
000002b0: a939 8a33 3f8c e833 665b b732 7799 b932
000002c0: 66a0 1c33 2424 4433 87bb 4434 09ec 2533
000002d0: ce82 dd33 6c33 d333 1f4b aa33 948f c833
000002e0: 6f37 2935 e1f2 b034 66ab ae33 bb68 1334
000002f0: e01e ac34 a1c2 8d34 3b3e 0435 497d 2634
00000300: 2f32 0f33 7053 af32 92e7 af34 bdc4 d033
00000310: d7c2 7133 a485 6b33 1a48 9634 d6ba 2734
00000320: 4d98 1135 cca0 b234 2b4f ef33 1a5b 0a34
00000330: 7d86 9334 1821 0135 02df 1f34 90f6 ba33
00000340: ad59 df32 3bb7 f232 1b50 9d32 b1cd ad31
00000350: dbc6 af33 79de d333 e881 c634 7b9c ed34
00000360: b18a f034 f3e8 8a34 852b 4233 501d 1733
00000370: 42a9 b534 552f 0a34 cc53 8933 21f7 d632
00000380: a6ef a332 66fc 8b32 8a55 d633 6f11 1233
00000390: f4c9 0f35 c2e1 5135 923e 2533 8035 1f33
000003a0: 4435 6f35 0508 7635 4c21 d134 c231 3135
000003b0: be40 9133 f290 7f33 38b1 d233 c4e3 1234
000003c0: 6979 1233 a2e6 4732 7e66 b533 5119 1634
000003d0: c074 da34 2c36 3835 7569 7334 937f b434
000003e0: fa7f 9633 5f7e df33 50cd 0e35 d1d3 6d34
000003f0: e915 1534 2c8d 0b34 2410 b434 fc89 8234

exp_avg f4 [128]
-0.00022278215 -0.00023599993 0.000581654 0.00034824383 0.00021063043 0.0006187566 -0.00042582737 0.0003885015
0.0004662338 0.00039378705 -0.00050415704 -2.2040294e-06 0.00039757852 0.00033564764 -0.00020235957 0.0003476962
0.000120587516 -0.00010699621 -0.000435911 0.00011874519 0.00053884496 0.00055643206 0.00013360924 0.00015921234
-0.00023406908 0.0003794805 0.00026151948 0.00038953847 0.0007045069 -0.00016738514 0.00020565192 0.00020023555
-7.619358e-05 0.0006478043 0.00013810814 -0.00038728846 -8.477913e-05 4.7481997e-05 -0.00046357696 -0.00039396554
-9.443518e-05 0.0004185754 0.00013872013 7.888576e-05 0.00020598374 0.00022629825 0.000103418744 -0.00028553992
-0.00034550374 -0.00030403183 0.00021943451 0.00052508654 -0.00020039371 -0.000410393 6.520477e-05 0.00035035258
6.0331236e-05 0.0002804798 -0.00043796285 -0.00012365772 -0.00019355776 0.0006269503 -0.0003320371 0.0002697668
0.00035632812 0.00037574972 -4.4355405e-05 -9.262805e-06 0.00014288552 0.0002783348 -0.0003445924 0.0005164896
0.00057147164 6.3358515e-05 -0.00024886013 0.00019118833 -0.00017622157 -0.00027000532 -9.664741e-05 -0.00018166832
-0.00034748472 -0.00014916415 -8.018833e-05 0.00017787737 -0.00018775936 -0.0002599488 0.00026657642 0.00016532303
-4.2431617e-05 -2.6252828e-05 0.00035155038 0.00046664002 -0.00056551246 0.0005258498 0.000633945 7.0180235e-05
5.3122727e-05 -8.980011e-05 0.00031647156 0.0005942995 0.0007364646 0.0004752651 -0.00027868693 -0.00036862056
-0.00015628504 6.5373955e-05 0.00041011607 -0.00022368894 0.0006417328 -0.0001741663 2.5700945e-05 -8.819897e-05
-4.8263595e-05 0.00017064915 -0.000478904 -0.00018135384 -0.0005651907 0.0005467506 0.00017886213 0.0005237715
-2.5213543e-05 0.0003948331 -0.00028997156 -0.00041416677 -0.0003671939 9.670564e-05 -0.0002810906 0.0006186285
00000000: a19a 69b9 c076 77b9 247a 183a 7f94 b639
00000010: addc 5c39 0d34 223a 9541 dfb9 caaf cb39
00000020: d770 f439 3475 ce39 6829 04ba f0e8 13b6
00000030: 1672 d039 ddf9 af39 7c30 54b9 fe4a b639
00000040: eee3 fc38 2763 e0b8 fc8a e4b9 d706 f938
00000050: 4641 0d3a 86dd 113a 7519 0c39 3df2 2639
00000060: 7170 75b9 03f5 c639 8d1c 8939 f83a cc39
00000070: a8ae 383a 1b84 2fb9 44a4 5739 52f6 5139
00000080: 1eca 9fb8 69d1 293a 1fd1 1039 fa0c cbb9
00000090: 73cb b1b8 6827 4738 3f0c f3b9 298d ceb9
000000a0: 800b c6b8 3d74 db39 6775 1139 786f a538
000000b0: 57fd 5739 794a 6d39 84e2 d838 85b4 95b9
000000c0: ba24 b5b9 7666 9fb9 0118 6639 f6a5 093a
000000d0: c720 52b9 042a d7b9 8bbe 8838 87af b739
000000e0: 2c0c 7d38 5d0d 9339 619e e5b9 1eaa 01b9
000000f0: c4f5 4ab9 ec59 243a 4415 aeb9 7d6f 8d39
00000100: 8dd1 ba39 4600 c539 410a 3ab8 7267 1bb7
00000110: 8ad3 1539 77ed 9139 69aa b4b9 0865 073a
00000120: d0ce 153a 58df 8438 7179 82b9 ba79 4839
00000130: 1ec8 38b9 808f 8db9 2faf cab8 387e 3eb9
00000140: 9c2e b6b9 f268 1cb9 c82a a8b8 9884 3a39
00000150: 45e1 44b9 bd49 88b9 48c3 8b39 905a 2d39
00000160: 9af8 31b8 8539 dcb7 4b50 b839 5da7 f439
00000170: e63e 14ba 2fd9 093a 542f 263a ba2d 9338
00000180: 18d0 5e38 1153 bcb8 18ec a539 c4ca 1b3a
00000190: 4d0f 413a 002d f939 ba1c 92b9 6a43 c1b9
000001a0: 72e0 23b9 6019 8938 d904 d739 0b8e 6ab9
000001b0: f639 283a 69a0 36b9 5c98 d737 76f7 b8b8
000001c0: a46e 4ab8 48f0 3239 6815 fbb9 cd29 3eb9
000001d0: 4e29 14ba d053 0f3a f08c 3b39 b64d 093a
000001e0: ac81 d3b7 9a01 cf39 5307 98b9 8624 d9b9
000001f0: ee83 c0b9 72ce ca38 575f 93b9 752b 223a

exp_avg_sq f4 [128]
1.3136695e-07 2.186101e-07 8.425841e-07 3.3223154e-07 1.6141932e-07 8.249057e-07 6.247977e-07 6.383009e-07
5.889398e-07 5.418964e-07 1.1550916e-06 2.914456e-07 6.478768e-07 2.5329413e-07 1.1145859e-07 2.294267e-07
1.2813298e-07 3.7160916e-08 4.279214e-07 1.2268102e-07 8.9517636e-07 1.4297366e-06 6.4537126e-08 6.005199e-08
2.1297531e-07 3.35047e-07 1.6243511e-07 4.2003686e-07 1.6544833e-06 1.5157629e-07 2.9388852e-07 9.05397e-08
1.7534958e-07 9.423079e-07 3.863851e-08 4.0652034e-07 6.027646e-08 3.056271e-08 3.4088902e-07 4.019067e-07
3.5337404e-08 5.888065e-07 1.2986425e-07 3.9485283e-08 1.193333e-07 1.3248392e-07 8.365298e-08 2.034591e-07
3.612478e-07 2.1239315e-07 1.9842486e-07 8.725585e-07 8.740281e-08 6.03942e-07 1.0123895e-08 9.228331e-07
4.6981793e-08 1.4518696e-07 3.7980493e-07 1.4677272e-07 1.0054694e-07 1.2706789e-06 2.7052613e-07 1.9858116e-07
2.921076e-07 1.1160018e-06 1.1872913e-08 4.5050125e-08 3.1426605e-08 2.0773243e-07 6.8314347e-07 5.031854e-07
1.2318915e-06 2.9822356e-08 1.3118905e-07 7.017831e-08 6.5879567e-07 3.345799e-07 6.469529e-08 9.701889e-08
9.039886e-07 1.3039785e-07 1.7294337e-08 4.4340976e-07 1.4498619e-07 3.884983e-07 2.55069e-07 1.0101295e-07
2.7519837e-08 9.018637e-08 3.94617e-07 4.8338296e-07 8.8615406e-07 6.690516e-07 1.1419677e-06 2.3868859e-07
2.1210218e-08 2.0118706e-07 2.498072e-07 7.620658e-07 1.6047924e-06 5.8489206e-07 3.9703966e-07 3.154886e-07
8.0243844e-08 1.4310943e-08 4.3426454e-07 3.581447e-07 1.1554446e-06 1.0480622e-07 2.4603168e-07 5.919449e-08
1.7730677e-08 1.1812578e-07 8.50133e-07 9.201191e-08 1.2637943e-06 9.548814e-07 1.963768e-07 7.3082464e-07
3.2231256e-08 3.5441724e-07 5.209736e-07 4.969246e-07 2.8264742e-07 3.5848203e-07 2.2993014e-07 9.897201e-07
00000000: df0d 0d34 16bb 6a34 f02d 6235 8e5d b234
00000010: 9b52 2d34 176f 5d35 c5b7 2735 b457 2b35
00000020: a317 1e35 d676 1135 a508 9b35 fa77 9c34
00000030: c1e9 2d35 7bfc 8734 025b ef33 5558 7634
00000040: ed94 0934 dc9a 1f33 12bd e534 4dba 0334
00000050: 0d4c 7035 60e5 bf35 a997 8a33 eef5 8033
00000060: 35ae 6434 82e0 b334 d369 2e34 6d81 e134
00000070: 9d0f de35 f9c0 2234 bbc7 9d34 ba6e c233
00000080: ba47 3c34 e8f2 7c35 7ef3 2533 bb3f da34
00000090: 5671 8133 0e44 0333 6e03 b734 a3c5 d734
000000a0: e3c5 1733 790e 1e35 d070 0b34 8796 2933
000000b0: 1622 0034 e740 0e34 b6a4 b333 6976 5a34
000000c0: 85f1 c134 2f0e 6434 9c0e 5534 c339 6a35
000000d0: 34b2 bb33 941e 2235 5ced 2d32 9cb8 7735
000000e0: 07c9 4933 b0e4 1b34 fee7 cb34 9498 1d34
000000f0: 44ec d733 328c aa35 d43c 9134 9339 5534
00000100: f6d2 9c34 88c9 9535 a0f9 4b32 237d 4133
00000110: ebf9 0633 0e0d 5f34 4361 3735 a312 0735
00000120: 7857 a535 0716 0033 f9dc 0c34 efb4 9633
00000130: 18d8 3035 50a0 b334 9dee 8a33 b358 d033
00000140: a0a9 7235 7d03 0c34 a68e 9432 c60d ee34
00000150: 80ad 1b34 cd92 d034 6bf0 8834 75ec d833
00000160: c364 ec32 7bac c133 bfdb d334 d3c1 0135
00000170: 0be0 6d35 e098 3335 b645 9935 1c25 8034
00000180: c331 b632 e105 5834 3d1d 8634 c390 4c35
00000190: 3f64 d735 7a01 1d35 b728 d534 6c60 a934
000001a0: 8552 ac33 31dc 7532 dd24 e934 0847 c034
000001b0: c614 9b35 d411 e133 5616 8434 083d 7e33
000001c0: 2c4e 9832 56ac fd33 b234 6435 1598 c533
000001d0: a49f a935 7a29 8035 a5db 5234 e32d 4435
000001e0: a46e 0a33 bc46 be34 08d9 0b35 6664 0535
000001f0: c4be 9734 6575 c034 b7e2 7634 86d6 8435
