results/flappy_run_05/FlappyBirdAgent/FlappyBirdAgent-15309.onnx (onnx, 71034 bytes, 8 tensors)

network_body.observation_encoder.processors.0.normalizer.running_mean f4 [2]
000000 78 70 d5 3f ac 9e ed 3f
       1.6674948 1.8564048

network_body._body_endoder.seq_layers.0.weight f4 [128, 2]
000000 62 ca 63 be ab 92 38 3f a2 54 32 bf a0 53 f1 be
       -0.22245172 0.720988 -0.6966039 -0.47134113
000010 ab 82 98 3f d8 5e 4f 3f 33 8d 3a 3f 62 2d e2 be
       1.1914877 0.81004095 0.728717 -0.4417525
000020 91 12 13 3f 02 f1 62 3d 8a 2c 8d 3f b3 98 2e bf
       0.57450205 0.055405624 1.1029217 -0.6820175
000030 f2 aa bb 3e 32 a8 f1 be b9 63 c1 3f bd a9 b5 3e
       0.36653858 -0.47198635 1.5108558 0.35481063
000040 36 44 3e 3f 67 8e ef 3e 80 63 b9 3f 3c 6e 98 3f
       0.7432283 0.46788332 1.448349 1.1908641
000050 13 d3 25 3c 96 76 29 3f b1 06 af bf 3b 50 c9 bd
       0.010121125 0.6619657 -1.3673917 -0.09829756
000060 b7 28 5d 3e 9c 10 ae bf 4c b2 cd be d5 6f 1f be
       0.21597563 -1.3598819 -0.40175092 -0.15570004
000070 53 51 f8 3e 52 4b 3d 3e 1f e8 df bd c4 20 8c bf
       0.48499545 0.18485764 -0.109329455 -1.0947499
000080 5d 4d 78 be 56 e2 21 bf b7 ff a9 be 6e 95 f6 3e
       -0.24248262 -0.63235986 -0.33202907 0.4816088
000090 24 ee ac 3e f5 86 d6 3f e4 b5 4c 3e 35 0c 5e bf
       0.33775437 1.6759936 0.19991261 -0.86737376
0000a0 a4 95 83 3d 98 db 31 bf 09 db 01 3f c4 a9 16 3f
       0.06425026 -0.694757 0.50724846 0.5885279
0000b0 db 50 4d be bb 99 03 bf 98 38 4d 3e 42 06 97 3f
       -0.20050375 -0.5140645 0.2004112 1.1798785
0000c0 11 e3 b6 bd fb 34 68 bc 2c c1 83 3f ad 14 ea be
       -0.08930028 -0.014172788 1.0293326 -0.457189
0000d0 f2 3c 4a bf e0 2f 56 3f 8f ef c7 3c 62 5b 12 3f
       -0.78999245 0.836668 0.024406223 0.5717069
0000e0 fc 74 54 3e 2b b3 d1 3e 31 c1 d1 3f ee bb 48 bf
       0.20747751 0.40957007 1.6387082 -0.7841176
0000f0 eb f7 93 3a af 5d 12 bf 37 b4 9c bf 90 83 0a bf
       0.0011289095 -0.571742 -1.2242497 -0.54107
000100 25 51 6a 3e c1 84 fd be 93 a5 c6 3f 6b 22 24 3d
       0.22882517 -0.49515346 1.5519279 0.040071886
000110 09 0a a0 3e 80 69 65 3f 23 d1 17 bf d6 d0 a5 3d
       0.31257656 0.89614105 -0.5930349 0.08096473
000120 a7 04 83 be f7 92 4a bf 88 95 51 3d 6b d0 13 3f
       -0.25589487 -0.791305 0.051167995 0.57739896
000130 81 a2 c5 3f 43 d1 a2 be 9a e6 af 3e 74 46 a5 3e
       1.5440217 -0.3180028 0.34355623 0.32280314
000140 f6 c8 95 bf 1b 5a 5d bf 8a 1b be 3d 4b 6c 00 bf
       -1.1701953 -0.86465615 0.092825964 -0.5016524
000150 dd 7d cb 3f 90 b0 66 3d 12 1d 67 be 71 14 d6 be
       1.5897785 0.056320727 -0.22569683 -0.4181247
000160 1a 07 e9 3e e5 33 56 3f ac df 90 be cc 21 91 be
       0.4551323 0.83672935 -0.28295648 -0.28346097
000170 35 16 25 3e 29 95 87 be 41 fc f7 be 95 31 42 bf
       0.16121753 -0.26480988 -0.48434642 -0.75856906
000180 69 82 57 be 0f 0d 89 bf bb 07 89 3f fe 6d 31 3f
       -0.21045841 -1.070711 1.0705484 0.6930846
000190 ef 0d a5 3e 2c 58 24 3f 7c 6f 14 3f 25 13 7a bf
       0.32237193 0.6419704 0.5798261 -0.9768546
0001a0 b1 9c 4c 3f 16 e0 06 bf d0 26 8d bf 26 50 90 3f
       0.7992659 -0.5268568 -1.102747 1.1274459
0001b0 43 2b df 3e cc cd ed 3c 56 20 32 bf c7 de 91 3e
       0.43587694 0.029028796 -0.6958059 0.28490278
0001c0 6d c9 1e be 54 72 56 be 8d 6c 56 bf 63 95 89 be
       -0.15506525 -0.2094205 -0.83759385 -0.26871786
0001d0 db e0 f4 3a 6f 6a f8 be 90 53 9c be 4c 1a 91 3f
       0.0018682735 -0.48518702 -0.30532503 1.133615
0001e0 f3 a4 11 bf d2 71 a6 3e 8f bf ed 3e ee 2b 88 3f
       -0.5689232 0.32508713 0.4643521 1.0638406
0001f0 1c 77 9d 3f 80 2f 23 3f 35 a1 49 bf 2b f0 5f be
       1.2301974 0.63744354 -0.7876161 -0.2186896
000200 a5 65 48 bd cc 25 79 be 82 eb 96 3f b9 43 93 be
       -0.04892506 -0.24330825 1.1790621 -0.28762606
000210 34 8b 8e be 27 d3 78 bf f3 8e 0a bf 6e 91 a7 3b
       -0.2784058 -0.9719719 -0.54124373 0.005113772
000220 04 ef 2e 3d e5 cf ba bf b3 12 82 3f 76 ac e1 3e
       0.04270841 -1.4594694 1.0161957 0.4407689
000230 9f 78 0b 3e ef dc 76 bf a7 15 93 bf 68 0c af be
       0.13620232 -0.9643087 -1.1490983 -0.34189153
000240 5b 60 bf 3e de 71 29 3e c8 4d 17 3f 95 76 e6 3e
       0.373782 0.16547343 0.5910306 0.45012346
000250 71 d3 ed 3f 50 e6 29 bf ef 8e c4 3f ce 6d 78 3f
       1.8580152 -0.66367054 1.535612 0.9704255
000260 a6 b2 6f be db 64 5f bf 7f 66 24 3f 75 7e 24 be
       -0.23407993 -0.8726327 0.64218897 -0.16063865
000270 5f a6 a8 3e 38 e6 7e 3e f0 7c 33 3f 76 4b 1b bf
       0.3293943 0.24892509 0.70112514 -0.6066202
000280 62 b6 8b 3f e9 a9 01 3f 4f 26 45 3f 77 e4 06 3e
       1.0915034 0.5064989 0.7701158 0.1317309
000290 d6 46 79 bf 91 78 de 3c bd bd 02 bf e4 20 c4 3e
       -0.9737371 0.0271571 -0.5107077 0.38306344
0002a0 1e 50 f6 be 3a 70 c8 3e 3d ed c5 be 38 8f a6 be
       -0.48108 0.39148122 -0.3865756 -0.32531142
0002b0 e6 6c a2 3e 9f 6f 31 3e 50 8b 45 3f af 6e e1 bf
       0.31723708 0.17327736 0.771657 -1.7611903
0002c0 b8 1d b0 be 30 07 ab 3f 1d 84 e8 3e 34 a7 57 3f
       -0.34397674 1.3361568 0.45413294 0.84239507
0002d0 01 e7 a9 3e bc 7c e9 3e ca 07 5a be 89 1a ae 3d
       0.33184054 0.45602977 -0.21292034 0.08501155
0002e0 5b 4e 7b 3e 21 14 c1 3f 56 ac 52 bf 33 81 3a 3f
       0.24541609 1.5084268 -0.82294214 0.7285339
0002f0 b2 7a 41 3f 11 88 57 bf d7 54 8b 3e ba 2f 0e 3f
       0.75577843 -0.84191996 0.27213165 0.55541575
000300 f6 04 b6 3e e3 17 89 3e 91 84 52 3e 06 69 82 bd
       0.3555066 0.26776037 0.20558383 -0.06367688
000310 6b cf 82 3f b1 20 8f 3e 25 34 e6 be 8c 9f ce be
       1.0219549 0.2795463 -0.44961658 -0.403561
000320 91 e9 4c 3f 39 b9 70 3e ea dc 54 3f b6 a2 64 3f
       0.80043894 0.23508157 0.8314959 0.8931078
000330 c0 e5 8d bf 8a 9c 53 bf 99 79 9c 3d 68 29 a9 be
       -1.1085739 -0.82660735 0.076403804 -0.33039403
000340 97 5a c2 3d d3 3f 32 bf 60 e0 8d 3f 3e 2f b3 3e
       0.09489935 -0.6962864 1.1084099 0.3499698
000350 6b 95 e1 3f 9e de dc 3f eb 44 ac 3f ae da 94 bf
       1.7623724 1.7255437 1.3458532 -1.1629236
000360 7b 70 e9 be 97 1f 11 bf 72 de 05 be 38 fa da be
       -0.45593628 -0.5668883 -0.13073137 -0.42769027
000370 7d c5 61 bf e7 a3 6f bf 1b 9b ec 3d af 94 08 be
       -0.8819197 -0.9360947 0.115530215 -0.13337968
000380 12 72 c9 bd 4c dc c8 3e e7 f2 1f bd b8 a3 67 bf
       -0.0983621 0.39230573 -0.03905001 -0.9048419
000390 fb 09 64 3d 01 7a ab 3e f0 49 a7 3f 7e f1 06 bf
       0.05567358 0.3349152 1.3069439 -0.5271224
0003a0 b9 02 38 bf 62 b9 05 bf b2 c1 d1 be 66 bf 72 bf
       -0.71879154 -0.52235997 -0.4096809 -0.948233
0003b0 0e 0a 90 be 0a ff e3 3e ac 65 46 be a2 1a 5b 3f
       -0.2813267 0.44530517 -0.19374722 0.85587513
0003c0 20 b1 53 3e cb 6e 33 3f bf 39 59 3e b4 92 8f 3f
       0.20673037 0.7009093 0.21213435 1.1216645
0003d0 a7 ed 1e 3e 3a b9 17 bf ca 84 f0 bf c0 43 6a 3e
       0.15520345 -0.5926701 -1.8790524 0.22877407
0003e0 b2 42 a1 3f 8a 12 b8 3f 08 2a 32 3e 41 fa 07 3f
       1.2598479 1.4380658 0.17398846 0.5311623
0003f0 85 fb 29 be ba 1d 54 bd 65 9c d8 3d 4f 5f ca 3e
       -0.16599853 -0.051786162 0.10576705 0.3952584

network_body._body_endoder.seq_layers.0.bias f4 [128]
000000 11 f0 3b 3d e7 42 49 3d 2f 7f 33 3d 6c 63 17 3d
       0.045883242 0.04913607 0.043822464 0.03696005
000010 5b ab eb bb db 93 ec bc bc b4 e5 3b a7 f3 42 3d
       -0.007192058 -0.028879097 0.0070100706 0.047595646
000020 ed f7 af 3a a3 7f 31 3d 1d 49 24 bd e1 09 5e 3d
       0.0013425328 0.043334614 -0.04010879 0.05420864
000030 7d 37 86 3d 3e 08 64 3d 15 23 4e bd 9c ef f5 bc
       0.06553552 0.055671923 -0.050326426 -0.030021481
000040 ba 4c 3a bd a9 8f b6 3c da 71 23 3d 47 8a 6c 3d
       -0.04548333 0.0222853 0.0399035 0.05774906
000050 21 9e 80 3d a0 ad 27 bd 0b 11 42 3d e5 29 e3 bc
       0.06280161 -0.040937066 0.047379535 -0.027729938
000060 1f 9f 7a bd 11 42 da bc 53 35 ed 3c 61 2f 39 bd
       -0.061186906 -0.026642831 0.028956091 -0.0452112
000070 88 18 6a bd a2 1a 82 3d 0c 0c 2b 3d cf 19 5a 3d
       -0.0571523 0.06352736 0.041759536 0.05324727
000080 60 df b1 3b 89 5c 30 3d 17 63 ac 3c 49 28 03 3d
       0.0054282397 0.043057 0.021043343 0.03202084
000090 66 9f 62 3d 7f 41 21 3d e8 31 c2 3b 0f bd 88 bd
       0.055327795 0.039369103 0.0059263594 -0.06676685
0000a0 b8 d3 68 3d 37 94 24 bd c1 80 23 3d 80 b0 81 3d
       0.056842536 -0.04018041 0.03991771 0.06332493
0000b0 c9 59 21 3d 66 f4 c1 3c ea 96 4d 3d 73 ff 28 3d
       0.039392266 0.023676109 0.05019275 0.04125924
0000c0 df 67 42 3d 5b a1 0b 3d 5b 13 6d bd 87 ea cb 39
       0.04746234 0.034089427 -0.057879787 0.00038893914
0000d0 b2 36 35 3d b3 1a 56 3d c3 59 1c 3d d3 3a 6b 3d
       0.044241615 0.052271556 0.03817154 0.057429146
0000e0 a0 ac 9a 3c 11 5f b7 bb 69 5e 34 bd d9 e8 ce 3c
       0.018881142 -0.0055960496 -0.04403535 0.025257515
0000f0 1c 9a 39 3d 94 4a f2 bc 51 a9 28 3d 83 e3 52 3d
       0.045312986 -0.029576577 0.041177098 0.051486503
000100 74 61 48 3d 18 b2 61 3d bf 5d 24 3c 76 d4 81 3c
       0.048921064 0.055101484 0.010032116 0.01584838
000110 d7 e2 62 3d 7e 13 07 bd d6 31 67 3a 87 c7 62 3d
       0.055392113 -0.032977574 0.0008819377 0.055366065
000120 23 f6 2e bd 1f 56 80 bd e1 1a f3 3c 47 a1 1e 3d
       -0.042715203 -0.06266426 0.029675903 0.038728025
000130 6a 9d c5 3b 9a 53 0e bd 54 b7 a8 bd 8b a2 89 3c
       0.006030728 -0.034747697 -0.08238092 0.01680114
000140 34 1b 18 3d 38 ec 4e bd 55 96 14 3d 8b 22 97 3c
       0.037135318 -0.050518245 0.03627618 0.018449089
000150 a6 ac 59 3d 11 7d 7a 3d db f2 6b bd 49 0f 46 3d
       0.053143166 0.06115443 -0.057604652 0.04835442
000160 0c ca 37 3c 52 82 94 bc 9e 29 79 bd 7f 42 78 3d
       0.011217605 -0.018128548 -0.060830705 0.06061029
000170 ef fb 33 3d e2 98 4a 3d 3c 46 1e 3d 6d 7f 8a bd
       0.043941434 0.049462207 0.0386412 -0.06762586
000180 8b b5 9c bc 00 3b 18 3c 47 08 10 3d 2d 4c 47 3d
       -0.019129535 0.00929141 0.035164144 0.04865663
000190 5b 81 4c bd 64 3e e6 3c c3 89 42 3d 5a ed 26 bd
       -0.04992805 0.028105922 0.04749466 -0.0407537
0001a0 0d 97 65 3d 2e eb 1a 3d b7 7b 50 3d 9e bd 3d 3c
       0.056052256 0.03782194 0.050899234 0.011580853
0001b0 93 ba 5f 3d 09 7d 9e 3c 18 27 bc bc c8 ed 00 bd
       0.05462129 0.01934673 -0.02296786 -0.031476766
0001c0 fd eb 93 bd 2b 9f 2b 3d f3 ba 6f 3c fa f1 62 3d
       -0.072227456 0.04189984 0.0146319745 0.055406548
0001d0 f4 a8 0c 3d 04 97 49 3d 81 c1 b8 3c af b9 39 bc
       0.034340814 0.049216285 0.022553207 -0.011335774
0001e0 3d 43 16 3d 80 34 30 3d 46 26 68 3d d5 59 80 3d
       0.036685217 0.043018818 0.056677125 0.06267134
0001f0 45 62 1a 3d ae a0 4e bd b3 f5 22 3d b2 34 60 bd
       0.037691373 -0.050446205 0.0397851 -0.054737754

network_body._body_endoder.seq_layers.2.weight f4 [128, 128]
000000 19 20 aa bd 5b 23 87 bd 75 b0 d9 3d 21 d2 af bd
       -0.083069034 -0.065985404 0.1062936 -0.08585001
000010 dc 82 7d 3d 44 c8 3e bc 7e cb 0a be 65 4e 01 be
       0.061892375 -0.011644427 -0.13554189 -0.12627561
000020 c3 fb 27 3e 77 92 9a bc 9d 80 07 3d 0e c4 02 be
       0.16404633 -0.018868668 0.03308164 -0.12770101
000030 d6 55 d2 3d 7f 9e 1e bd 84 4c 0d 3d 90 85 1c bd
       0.10270278 -0.038725372 0.0344968 -0.038213313
000040 db d0 fd 3b f2 9f 38 3e 28 41 d0 3d 04 67 77 3d
       0.007745845 0.18029764 0.101686776 0.060400978
000050 78 42 56 3d 43 d4 8c 3d 05 f7 ae bc fa 89 c5 bd
       0.052309483 0.06876423 -0.021358022 -0.096454576
000060 1a ab 8d 3c 9a 6d 39 3d d8 67 98 3d d6 92 9f 3d
       0.017293502 0.04527054 0.074416816 0.077916786
000070 44 fe 9a bd 30 c1 3e 3e b6 c6 19 bd 9c 2f 91 3d
       -0.075680286 0.18628383 -0.03754302 0.07089159
000080 9e 47 07 3e 6c 15 02 3e 81 1a d0 bd b9 8e d9 3d
       0.13210914 0.12703484 -0.10161305 0.10622925
000090 bb 72 c4 3d ac 70 05 3d e3 45 78 3d 46 bf ec 3d
       0.095921956 0.032578155 0.060613524 0.1155992
0000a0 20 da ba bc 7d d6 93 3d 3f 44 4c 3c 07 21 f9 bc
       -0.022809088 0.07218645 0.012467443 -0.030411256
0000b0 a7 ef 35 3d a3 f7 d7 bc d4 99 e6 3d f0 3a 7a 3d
       0.044418003 -0.0263632 0.11259809 0.061091363
0000c0 7b 2d ed bc ae 6c 24 bd 84 f4 81 bd 72 92 13 3d
       -0.02895235 -0.040142708 -0.06345466 0.036028333
0000d0 f6 78 9c 3c ea 09 85 3d 4b 09 0d bc b9 65 db 3d
       0.019100647 0.064960316 -0.008608173 0.107127614
0000e0 48 be 4a be 3a 13 c9 bc 83 6e 1d bc 75 29 ea bc
       -0.19799149 -0.0245453 -0.009608868 -0.028584221
0000f0 44 2b 7d bc ab 56 8d 3c f9 ba 13 be db b3 79 3d
       -0.01545221 0.01725324 -0.14426793 0.06096254
000100 cf 0c 0e 3c 7c 1d 92 bd d0 d1 a9 bc 23 f1 57 3d
       0.008670046 -0.0713453 -0.02072993 0.0527202
000110 1a 13 32 bd 0a 0f 16 bd 0e d5 0d 3e 67 34 a4 3c
       -0.043475248 -0.036635436 0.13850805 0.020044519
000120 5c fe 8a bd 4d 4a 4b bd 35 f9 a0 3d 15 ff 3e bc
       -0.067867965 -0.049631406 0.078600325 -0.011657496
000130 b1 86 93 3d 05 ef dd ba cb 75 07 be 3f ad 06 bd
       0.07203425 -0.0016932195 -0.13228528 -0.032880064
000140 88 08 9e bd 9a ce b2 bd 16 28 6f be 71 62 28 3d
       -0.07716471 -0.08730812 -0.23355135 0.041109506
000150 e6 72 4c 3e 3e 01 5c 3d 4f f2 d0 3d 12 09 c3 3c
       0.19965705 0.053712122 0.10202467 0.023808036
000160 71 fa d2 3d ea a0 9d bc 7a b9 53 bd 07 29 23 bd
       0.10301674 -0.019241769 -0.051690556 -0.03983405
000170 b4 43 84 3d 84 65 f6 3d 4f 56 19 bd 1b c8 e6 bd
       0.06458226 0.12031081 -0.037435826 -0.11268636
000180 63 17 cf 3c 89 15 5a bc 95 59 19 3d bf c6 85 3d
       0.025279706 -0.013310798 0.037438948 0.065320484
000190 50 c2 25 be c4 13 f3 bc fa c2 e8 bc 0b 2b f3 bc
       -0.16187406 -0.02967251 -0.028413285 -0.02968361
0001a0 96 0b d1 3a 54 36 d0 3b 30 a5 25 3d 11 43 a3 3d
       0.0015948887 0.0063541327 0.04044074 0.07971776
0001b0 20 b1 f1 bc f6 f7 c1 bd f9 07 8c bd f7 a6 54 bc
       -0.029503405 -0.09471123 -0.06837458 -0.012979261
0001c0 4e 55 36 bd f9 60 46 bb ff 34 1a bc 99 c5 86 3d
       -0.044514947 -0.0030270203 -0.009412049 0.065806575
0001d0 80 23 9d bc 8a d5 b9 bb 21 57 5f bd aa 8d 01 bd
       -0.019181967 -0.005671208 -0.054526452 -0.031629242
0001e0 9b a3 89 3c f8 5f c6 3c 69 45 9c bd 17 4c d0 3b
       0.016801646 0.024215683 -0.076304264 0.006356727
0001f0 19 4f b7 3d 5f ac 09 be d1 f4 db bc 46 5c 64 3d
       0.089506336 -0.1344466 -0.026850136 0.05575206
000200 e0 24 f3 3d c5 3a 2a bc 49 0d b3 bc 30 78 ad 3b
       0.11872268 -0.010389988 -0.02185692 0.0052938685
000210 e0 30 7d 3d fc 2b e9 3d be 4d 1a bd 96 53 4b 3c
       0.06181419 0.113853425 -0.037671797 0.012410065
000220 97 f7 2f bd 9d 5d 2a bd 52 67 9e bc 6a 0b 38 bb
       -0.04296073 -0.041593183 -0.019336376 -0.0028082975
000230 a7 61 83 3d 92 b5 86 bd a4 3d 91 bc 7d 7c 0b be
       0.0641511 -0.065776005 -0.017729588 -0.13621707
000240 b4 a1 0f 3e bb 94 82 3b 73 f5 1a 3d 23 c7 4c 3e
       0.14026529 0.003985015 0.037831735 0.1999784
000250 64 a5 8f bd 6b 14 c2 bd 52 3e 21 bb 3f ca 17 bb
       -0.07013968 -0.09476551 -0.0024603796 -0.002316132
000260 a8 20 19 3d b5 a8 fa bd 68 28 38 bc 10 11 18 bd
       0.03738466 -0.122392096 -0.011240102 -0.037125647
000270 bb c0 07 3c 7b 36 b6 bd d3 cf bf 3d 4c bb 8b 3d
       0.008285697 -0.0889711 0.09365811 0.068228334
000280 d3 72 81 3c ac be 1a bd 71 57 c4 bd 5b 69 aa 3b
       0.015801823 -0.037779495 -0.095869906 0.0052005476
000290 d5 62 90 bd 10 62 4e 3c c3 1c 80 3b 21 17 c9 3c
       -0.07050101 0.012596622 0.0039096787 0.024547162
0002a0 fc 69 d3 3c 67 39 4b be 4c 18 3b bd c9 c8 ac bc
       0.025807373 -0.19846116 -0.04567747 -0.021091836
0002b0 b4 8b 52 bd d8 32 e8 bd 0c 6c ab bd 00 bc 01 3c
       -0.051402763 -0.11337823 -0.08370218 0.007918358
0002c0 a2 aa 30 bd ab 55 5b bd de 10 77 bd 42 18 81 3d
       -0.043131478 -0.053548496 -0.06031882 0.06303455
0002d0 81 7b df bc 2a 89 d8 bd 7a 53 c6 3d 73 69 15 be
       -0.027280571 -0.10573037 0.09683891 -0.14591007
0002e0 3c 0d 31 be bf 59 66 3e 45 ce d4 bd b2 e7 d1 bc
       -0.17290205 0.22495173 -0.10390905 -0.025623176
0002f0 60 52 0e be 7b 4e 19 3d 5e 72 19 be 16 54 3a 3d
       -0.13898611 0.03742836 -0.14985034 0.045490347
000300 b5 66 59 bd 50 70 a2 bd 98 f3 21 be e6 c3 a5 3d
       -0.053076465 -0.07931578 -0.1581558 0.08094005
000310 a8 da 51 bd 20 c4 15 3e 18 a0 bd 3d b8 d5 ac 3d
       -0.051233917 0.14625597 0.09259051 0.08439201
000320 aa 78 9f 3d 64 6c ef 3b 69 d8 27 3e 23 c5 63 3d
       0.07786687 0.0073066223 0.16391148 0.055607926
000330 f6 54 3d 3e d1 ff d9 bd bf 35 bc 3d 23 56 9f bd
       0.18489441 -0.10644496 0.09189939 -0.07780101
000340 ab a0 d1 bd 22 09 b4 bd 3c 4b 8d bd f5 1e 32 bd
       -0.10235723 -0.087908044 -0.068991154 -0.043486554
000350 82 bd ca bd 9d 90 7e 3d 55 5f 2f ba 3f ad d8 3d
       -0.09899427 0.062149633 -0.0006689926 0.10579919
000360 be ad 88 bd b7 55 0b 3e 92 eb 01 bc 1c 59 18 bd
       -0.06673764 0.13606916 -0.0079296995 -0.037194356
000370 2d 89 5d bd fb 0f 52 bc ab 64 12 be 65 74 14 bd
       -0.0540859 -0.012821193 -0.14296214 -0.036243815
000380 e8 9e 62 3c 8f e9 7b bd a1 68 ac 3b cb 97 33 3e
       0.0138318315 -0.061502036 0.005261496 0.17538373
000390 70 b0 36 bd d2 62 ad 3d 39 91 8b bd 5b a9 f6 3a
       -0.044601858 0.08466114 -0.068148084 0.0018818782
0003a0 92 c4 e0 bd 90 0b 45 be 52 a8 80 3d d1 00 27 3e
       -0.10974993 -0.19242692 0.062821046 0.16308905
0003b0 62 61 39 be ef 84 80 3c 69 f3 04 3e 24 8f c4 bb
       -0.18103555 0.015688388 0.12983479 -0.005998509
0003c0 5c a8 79 bc 2d dd 25 be 46 5c a8 ba 53 3b 93 3d
       -0.015237894 -0.16197653 -0.0012844882 0.071890496
0003d0 a2 8a 38 3d 5e a1 10 bc a2 ea 60 3d 6c 03 3c bd
       0.045054086 -0.008827535 0.054911263 -0.0459017
0003e0 fc d7 15 3e 38 17 dc 3d 5f ae 27 bc 66 fe 53 bd
       0.14633173 0.10746616 -0.010234444 -0.051756285
0003f0 51 89 fc 3d 67 b4 c7 3c 97 04 14 be a9 ae 29 bb
       0.123308785 0.024378015 -0.14454876 -0.002589146

network_body._body_endoder.seq_layers.2.bias f4 [128]
000000 9f 0d 8e 3d 47 c5 e8 3b 96 be 3d 3d f2 bd 7d bd
       0.06936192 0.0071035954 0.046324335 -0.061948724
000010 7b 37 93 bd ea 40 29 bd 47 69 80 3d 36 66 23 bd
       -0.071883164 -0.041321672 0.0627008 -0.039892398
000020 27 97 48 3d 68 0e 29 bd 8e fe 1a 3c bb 82 14 bd
       0.048972275 -0.041273504 0.009460105 -0.036257487
000030 f5 bf ff bc ac a6 7b 3d 87 d1 41 3d e2 2f 17 3d
       -0.031219462 0.061438248 0.04731896 0.0369109
000040 b0 20 3d 3d 6b 2b 40 bd 1e c6 70 3d 2f 0d 77 3d
       0.04617375 -0.046916407 0.05878269 0.060315307
000050 24 80 56 bd ac 80 83 3d 04 66 5c bd 0d 88 7e 3d
       -0.0523683 0.064210266 -0.053808227 0.062141467
000060 93 b3 43 3d ab 64 7b 3b 5d b8 23 bd a4 fd 95 bd
       0.047778677 0.0038359563 -0.039970744 -0.07323769
000070 7d e6 4e 3d 4f 96 ae 3d 14 01 0d 3d 2d c9 6e bd
       0.05051278 0.08524763 0.034424856 -0.058297325
000080 82 92 6f 3d 49 8f 31 bc 15 e0 6f 3d a7 a1 57 3d
       0.05848933 -0.0108373845 0.05856331 0.052644398
000090 d5 4c 6e bd 59 94 26 bd ec 82 6d bd 2f 94 6c 3d
       -0.05817874 -0.04066882 -0.057986185 0.057758506
0000a0 89 60 08 bd 56 fa a7 bc 40 db 19 bd bb 92 40 3d
       -0.033295188 -0.020505112 -0.03756261 0.047014933
0000b0 31 72 28 3d fc 31 25 bd 9c cd e7 3c 38 e3 54 3d
       0.041124526 -0.040330872 0.028296284 0.051974505
0000c0 fd e3 8c 3d 31 e7 60 3d 04 41 92 3d 49 39 95 3d
       0.06879423 0.05490798 0.07141307 0.07286317
0000d0 04 97 35 bd d6 1c 81 3b 59 73 0e bd 0f fb 36 3d
       -0.044333473 0.003940205 -0.034777973 0.044673022
0000e0 6d f0 89 3d b6 37 70 bd 37 f3 3e bd 25 af 5c bd
       0.06735311 -0.05864688 -0.046618666 -0.05387797
0000f0 c1 a6 0f bd c8 80 ce 3c 71 86 82 3d 4c 08 53 3d
       -0.03507114 0.025207892 0.06373299 0.051521584
000100 8b 01 e4 bc 5b f6 29 3d d9 eb 2b 3d 6f ae ba bc
       -0.027832767 0.04149471 0.04197297 -0.022788255
000110 f3 3a 07 3d db 33 57 3d bc d5 23 3d e4 17 50 3d
       0.033015203 0.052539688 0.039998755 0.050804034
000120 4c 10 d2 3b d6 5e fd 3c 67 45 7f 3d 78 3e 81 3d
       0.006410634 0.03092901 0.062322047 0.06310743
000130 54 08 0b bd d0 4c d0 bc 49 ca 32 bd c1 76 ce bc
       -0.03394349 -0.025427252 -0.043649945 -0.02520311
000140 c7 92 fe 3c 5f 80 4f bd ca 37 52 3d 41 0b 40 3d
       0.031075848 -0.050659534 0.051322736 0.046885733
000150 28 8a 61 3d a2 45 13 bd 1f 9f 48 bd 8c 16 5e bc
       0.055063397 -0.03595508 -0.048979875 -0.01355518
000160 77 df 73 bd eb f0 38 bd ee 23 59 bd d1 a7 4c 3d
       -0.059539285 -0.045151632 -0.05301278 0.04996473
000170 b0 7e 61 3d 77 8d f0 bc af 38 6d bc 46 5c 44 bd
       0.05505246 -0.02936433 -0.014478846 -0.04793956
000180 63 36 0a bd 28 28 84 bd 99 43 64 bd 8b 56 aa bc
       -0.033743273 -0.06452972 -0.05572853 -0.02079322
000190 58 c4 85 3d 68 0e 52 3d c9 fa 30 3d 38 78 8a 3d
       0.0653159 0.05128327 0.043207917 0.06761211
0001a0 bc 3d 5b bd c4 84 68 bd 61 67 4b 3d 38 00 48 3d
       -0.05352567 -0.05676724 0.049659137 0.048828334
0001b0 cd b5 14 bd 39 16 ef bc c3 ac 56 3d 9a 56 14 bd
       -0.03630619 -0.029185401 0.052410852 -0.036215402
0001c0 39 58 41 3d ba 28 24 bd 9c 40 08 3d 12 55 40 bd
       0.047203276 -0.040077902 0.03326474 -0.04695613
0001d0 44 0f 64 3d ec 10 4f bd 20 f6 31 3d 90 be 45 bd
       0.05567862 -0.050553247 0.043447614 -0.048277438
0001e0 12 60 18 bd 20 c4 3b bd 9f 6f 3f bd e8 70 9b 3d
       -0.037200995 -0.045841336 -0.04673731 0.075898945
0001f0 9a dc 69 3d 0a 58 3c bd 0d f0 85 3d 9a bb 83 3d
       0.057095148 -0.045982398 0.06539927 0.064322665

action_model._discrete_distribution.branches.0.weight f4 [2, 128]
000000 df 5e fc 3c ec ad b3 3b 2c 6b 3d 3c 1e c3 06 bd
       0.030806957 0.0054833796 0.011561196 -0.032900922
000010 db 2d 17 bd 18 06 8c bd 1b c6 f8 3c c6 6b 82 bd
       -0.036908966 -0.068371 0.030367902 -0.063682124
000020 c2 f9 02 3c 37 e2 85 bd a9 d8 d2 3b 13 a6 a0 bd
       0.007994117 -0.06537288 0.0064345193 -0.07844176
000030 11 13 1d bc 4b 71 db 3c 5f f1 68 3c d4 5a d4 b9
       -0.009587065 0.02678742 0.014217704 -0.00040503463
000040 eb 85 7a 3c e3 2f 8c bd 86 cc a0 3c fb 20 21 3c
       0.015290718 -0.06845071 0.019628774 0.009834523
000050 0d 64 96 bd 7a 43 61 3c 3f b9 1a bc d8 ae b8 3c
       -0.07343302 0.013748998 -0.00944358 0.02254431
000060 a9 0f ae 3b 1e a7 f9 3a e2 78 87 bd 1a 14 04 bd
       0.0053119254 0.0019046997 -0.066148534 -0.032245733
000070 f3 66 3f 3c 58 93 37 3d d1 71 6e 3c 43 24 b5 bc
       0.01168226 0.044818252 0.014553503 -0.022112017
000080 cc 5c 84 3c 51 5b 27 bc aa 44 d0 3c f8 f6 92 3c
       0.01615753 -0.010214643 0.025423367 0.01794003
000090 bb df fa bc 6d a4 95 bc d1 01 00 bd 93 97 60 3c
       -0.030624261 -0.01826688 -0.031251732 0.013708013
0000a0 0a de 25 bc 6b c6 cf 3a 12 01 b6 bc 4b c6 dc 3c
       -0.010123739 0.001585198 -0.022217307 0.026950022
0000b0 e0 8c 06 bc c9 60 ac bc cc c9 45 3b 88 60 86 3c
       -0.008212298 -0.021042245 0.0030180095 0.016403452
0000c0 2b 98 a8 3c 2c e0 f4 3b 10 10 80 3c 9e 37 e0 3c
       0.020580372 0.0074730124 0.01563266 0.02737027
0000d0 35 e3 86 bd af 38 23 3c ea 2c 4d bd 1d 55 97 3a
       -0.06586305 0.009962245 -0.05009166 0.0011545751
0000e0 a2 fe c9 3c e4 bb 3b bd 8a cc cc bc f0 b8 0a bd
       0.024657551 -0.045833483 -0.024999876 -0.033867776
0000f0 87 52 5e bc b8 59 83 3b 3d fa ec 3b 9b 1f 35 3b
       -0.013569481 0.004008498 0.007231979 0.0027637247
000100 60 5e 5d bc f5 36 ec bb 56 ea af 3b 3d b5 d4 3b
       -0.01351127 -0.0072087 0.005368511 0.006491332
000110 89 f5 d5 3a 6e 73 b4 3c 16 a2 b8 3c 1e e2 f8 3b
       0.0016323786 0.022027697 0.022538226 0.0075953146
000120 a8 5d 8e bc 77 5a f8 bb 7c 8e b2 3c ed 5d 8c 3c
       -0.017378643 -0.0075791436 0.021796457 0.017134631
000130 4e e9 8b bd 7b bd f9 3b 70 54 b8 bc 7e da 1e 3b
       -0.06831609 0.007621465 -0.0225012 0.0024239118
000140 10 23 bd bb cc eb aa bc c2 d6 f8 3b 7c 7e 82 3c
       -0.005772002 -0.02086439 0.0075939605 0.015929453
000150 64 34 86 3c 8e db a2 3a d9 d7 ae bd f2 4c 61 38
       0.016382404 0.0012425052 -0.085372634 5.371584e-05
000160 bf 6b 4f bd 7e 6c 8d bd 39 94 1f bd 3c d1 f4 3b
       -0.050639864 -0.06905459 -0.038959716 0.0074712317
000170 98 7e c9 3c dd 68 83 bd 1f 64 c9 3b 9e a0 3e bd
       0.024596497 -0.064164855 0.0061459686 -0.046539895
000180 7b 27 bb bc 79 99 25 bd 7f a7 71 bd 91 77 06 bc
       -0.022845974 -0.040429566 -0.058997627 -0.008207218
000190 d3 3b 88 3c 23 e5 4d 3c 3d 72 d2 3b b1 3b f9 3c
       0.016630089 0.0125668375 0.0064223097 0.03042397
0001a0 cc 83 40 bd ea bb e1 bc 71 68 32 3c 81 10 a7 3c
       -0.04700069 -0.027555425 0.010889159 0.020393612
0001b0 76 2b ab bc ec fa 4c bc b0 2e a3 3c 51 44 cb bb
       -0.020894747 -0.012510996 0.019919723 -0.0062032123
0001c0 95 45 96 3c 24 c7 6d bd 89 76 aa 3c e7 ae 7e bd
       0.018343726 -0.058051243 0.020808475 -0.06217852
0001d0 72 e8 28 3c f0 f7 20 bd 9e 9b 9a 3c 09 ee f4 bc
       0.0103093255 -0.03929895 0.018873032 -0.02989866
0001e0 57 ee 62 bc c4 84 53 bc d6 6b ef bb 50 a3 79 3d
       -0.01385077 -0.012910072 -0.007306556 0.060946763
0001f0 4f 55 5d 3c 3d 16 70 bd 72 74 87 3c e1 52 99 3b
       0.013509109 -0.058614958 0.016535018 0.0046790694
000200 bb 91 0d bc 67 d1 bd 3b c2 92 38 bb 32 c5 39 3d
       -0.008640702 0.005792785 -0.0028163646 0.045354076
000210 24 4d 57 3d 7b 42 47 3d f6 16 08 bd f5 5e 6f 3d
       0.0525638 0.048647385 -0.033225022 0.058440167
000220 4f b0 42 3b de 46 8e 3d e6 60 7d 3b d6 09 64 3d
       0.002970714 0.069471106 0.0038662492 0.055673443
000230 30 91 a9 3a f6 7a e9 bc 93 c5 89 bc c0 07 cf bb
       0.0012936946 -0.028501015 -0.016817844 -0.0063180625
000240 52 d5 8b bc d4 7e b4 3d 2c e6 c0 bc a2 c0 75 bc
       -0.017069492 0.08813253 -0.023547255 -0.0149995405
000250 9c 66 8a 3d b1 1a 76 bc 48 d4 b8 3c 67 73 a5 bc
       0.067578524 -0.015021012 0.022562161 -0.02019663
000260 3d ae 47 bb 2d 93 69 bb 57 fe 74 3d 5b 98 df 3c
       -0.0030468844 -0.0035640702 0.05981287 0.027294328
000270 6f cc 7c bc 92 3e 02 bd c2 42 0d 3c 32 33 40 3d
       -0.0154296 -0.031797953 0.008621873 0.046923824
000280 6a b3 2b bc d7 84 42 bb f4 7d 9f bc b0 20 45 bc
       -0.010479787 -0.002968123 -0.019469239 -0.012031719
000290 05 d3 55 3d f9 52 85 3c ae 79 57 3c 3e e1 55 bc
       0.052203197 0.016274916 0.013151569 -0.01305419
0002a0 5c 73 d6 3a 22 07 e0 3c 2c 4e a1 3c bc 4b 53 bc
       0.0016361284 0.027347151 0.019690596 -0.012896474
0002b0 b2 fd 84 bc 41 91 33 3c fc 3c c7 bc 4a 45 42 bc
       -0.016234253 0.010959924 -0.024321072 -0.01185734
0002c0 c4 c6 c9 bc c6 e7 d4 bc 1e cc c7 bc 15 cc ad bc
       -0.024630912 -0.025989424 -0.024389323 -0.021215478
0002d0 54 56 90 3d b1 6e ef 3a 94 86 37 3d d4 57 f5 bb
       0.07047716 0.0018267242 0.044806078 -0.0074872766
0002e0 62 1c 44 bc 03 2d 8b 3d 36 76 09 3d 8e c7 23 3d
       -0.011969658 0.06795695 0.03356 0.039985232
0002f0 18 c5 4f 3c 62 31 19 3b 2b ef 93 bc ec 4b 9d bc
       0.012681268 0.0023375382 -0.01805838 -0.019201241
000300 18 5d a5 bb 86 37 3b bc b9 ad 3e ba 8c 5e 28 3c
       -0.005046498 -0.011426812 -0.00072738115 0.010276448
000310 fa c9 b3 bb 22 04 8d bc 2d db 5c 39 91 62 34 bc
       -0.005486724 -0.017213885 0.00021062484 -0.011009828
000320 4f 63 d5 3b ea 90 28 bc e0 51 98 bc 9b c1 96 bc
       0.0065120826 -0.010288456 -0.018593729 -0.018402865
000330 39 57 93 3d 76 15 75 3c b9 6d c9 3c dd b8 92 3b
       0.07194371 0.01495873 0.024588453 0.004477604
000340 60 de 02 bc 5f d6 98 3c 99 d7 31 bc 80 a9 8a ba
       -0.007987589 0.018656908 -0.010854625 -0.0010579079
000350 0f db 44 bc 7c 85 75 3c ab f1 8f 3d 84 d0 db ba
       -0.012015118 0.014985438 0.070285164 -0.0016770517
000360 4c 84 52 3d 97 3c 92 3d 13 c0 2b 3c 2b fd 7f bc
       0.0513957 0.07140463 0.010482806 -0.015624325
000370 04 20 ab bc 95 98 a9 3d 90 92 03 3b 51 d6 41 3d
       -0.02088929 0.08281056 0.0020076372 0.04732353
000380 6f 92 69 bb cd e9 d1 3c 8d 83 68 3d be 47 00 bc
       -0.003564026 0.02562418 0.05676608 -0.007829605
000390 65 90 56 bc 4a 5f 81 bc e8 08 1e 3a 9a 06 73 bc
       -0.01309595 -0.015792508 0.0006028549 -0.014833117
0003a0 42 73 6a 3d 82 91 13 3d 0d 81 e5 bb 0c e7 c7 bc
       0.057238825 0.03602744 -0.0070039094 -0.024402164
0003b0 3b fc 05 3c af 94 05 3c 15 e5 e7 ba 57 b5 d6 3c
       0.008177812 0.008153125 -0.0017692173 0.026209516
0003c0 03 25 85 bc 75 e8 84 3d b8 ea 3e 3b 94 e8 95 3d
       -0.016253 0.0648965 0.0029131602 0.073197514
0003d0 6d 9f 15 bc f5 ab 26 3d 61 51 10 3c 26 e5 93 3c
       -0.009132248 0.040691335 0.008808465 0.018053602
0003e0 9d d9 57 3c fd fa de 3c e9 78 e9 3c 8d 14 1d bd
       0.013174442 0.02721929 0.028500037 -0.038349677
0003f0 69 fd 88 bc 24 07 6d 3d e8 5b 84 bc 11 ca a6 bc
       -0.016722398 0.057868138 -0.016157106 -0.020360025

action_model._discrete_distribution.branches.0.bias f4 [2]
000000 d1 17 35 3d cf 17 35 bd
       0.044212166 -0.04421216

49 f4 [2]
000000 99 25 03 40 16 1a 59 40
       2.0491698 3.3922172
