results/flappy_bird_train3/FlappyBirdAgent.onnx (onnx, 534229 bytes, 10 tensors)

network_body.observation_encoder.processors.0.normalizer.running_mean f4 [2]
0	0xc6a27c8c	-20798.273
1	0xc35fde51	-223.86842

network_body._body_endoder.seq_layers.0.weight f4 [256, 2]
0	0xbf15e3b5	-0.5855058
1	0xbf92eded	-1.1478859
2	0x3e629af3	0.22129421
3	0x3f48b393	0.7839901
4	0xbe6a0064	-0.22851712
5	0x3ed4ceb1	0.41563943
6	0x3ebb4b17	0.36580727
7	0xbf5d4376	-0.8643106
8	0xbf213d51	-0.62984186
9	0xbfa65b1c	-1.2996554
10	0x3f2b0fb4	0.66820836
11	0x3fdf9367	1.7466859
12	0x3e400c76	0.18754753
13	0x3edbd212	0.42933708
14	0x3f4b625d	0.79446965
15	0xbf017fea	-0.50585806
16	0x3f69ed72	0.9137794
17	0xbf0904dc	-0.5352304
18	0x3fd0476d	1.6271797
19	0x3dbcee8a	0.09225185
20	0xbec500ca	-0.38477165
21	0xbf5977c8	-0.84948397
22	0xbe965b2d	-0.29366437
23	0xbef2f7eb	-0.4745477
24	0xbf7aa5a3	-0.9790899
25	0xbf54ceb9	-0.83127934
26	0xbecf912e	-0.4054045
27	0x3e1e62a2	0.15467313
28	0xbf8ef1ef	-1.1167582
29	0xbf4dc20c	-0.8037422
30	0xbd28bf29	-0.04119793
31	0xbf829984	-1.0203099
32	0x3ef739dd	0.48286334
33	0xbfa216e2	-1.2663233
34	0x3f8e5a1d	1.112125
35	0x3f3d00ca	0.7382933
36	0x3f4ab070	0.7917547
37	0xbe72c741	-0.23708822
38	0xbd210744	-0.03931357
39	0x3e99f715	0.3007132
40	0xbe49407f	-0.1965351
41	0x3f877aa5	1.0584303
42	0xbf498365	-0.7871612
43	0x3f23dc1f	0.64007753
44	0x3f32de0a	0.69870055
45	0xbe4e1ee6	-0.20128974
46	0xbe16876a	-0.14700094
47	0xbf8c2d82	-1.0951388
48	0xbf9d00c7	-1.2265862
49	0x3d0d497f	0.03449392
50	0xbededdf2	-0.43528706
51	0xbf3b2c56	-0.73114526
52	0xbeddb5eb	-0.43302855
53	0x3c247d43	0.01003963
54	0x3ec928b8	0.39288878
55	0xbb9768c5	-0.004620644
56	0xbed9272d	-0.424127
57	0xbf39f76e	-0.7264317
58	0xbfa88fca	-1.3168881
59	0xbe5011f6	-0.20319352
60	0x3d9eb1b2	0.077487364
61	0xbfa465d2	-1.2843573
62	0xbdc40354	-0.09570947
63	0xbeb2db26	-0.34932822
64	0x3cae2aa3	0.021260565
65	0x3f5f736b	0.8728549
66	0x3f5f0b54	0.8712666
67	0x3f33effc	0.7028806
68	0x3eef1077	0.4669225
69	0xbef1387a	-0.471134
70	0x3e40e504	0.18837363
71	0xbe2eb8c6	-0.17062673
72	0x3f0ee653	0.55820197
73	0xbd879dcc	-0.06621894
74	0xbf4b25a8	-0.79354334
75	0xbeb4b55b	-0.35294613
76	0x3dc0dac4	0.09416726
77	0xbef2bb9e	-0.47408766
78	0xbeeb72ad	-0.45985928
79	0xbf7d854c	-0.9903152
80	0x3f773f01	0.9658051
81	0xbf3f09fe	-0.7462462
82	0xbf984c6d	-1.1898323
83	0x3ea4a582	0.32157522
84	0x3d54e266	0.051973723
85	0xbf3935d3	-0.72347754
86	0x3d9bfedd	0.07616971
87	0x3f4b3a41	0.79385763
88	0xbd8ae568	-0.06782037
89	0xbdf5c15f	-0.11999773
90	0xbf5aed2d	-0.8551815
91	0x3f191d64	0.5981047
92	0xbe950504	-0.2910539
93	0xbf23b3e3	-0.6394636
94	0xbd0871ab	-0.033311527
95	0xbec028af	-0.3753104
96	0x3e3235da	0.17403355
97	0x3ea6f95e	0.32612127
98	0x3f3b30a6	0.73121107
99	0xbee2eb83	-0.44320306
100	0xbf5712f7	-0.84013313
101	0xbf7ee1da	-0.9956337
102	0xbf1f47c2	-0.6221887
103	0x3e97cb84	0.29647458
104	0xbe597e79	-0.21239652
105	0x3eb8089a	0.35944062
106	0x3e18c285	0.14917953
107	0xbf14aae4	-0.5807326
108	0x3f824881	1.0178376
109	0xbfc23076	-1.5171039
110	0xbe511149	-0.2041675
111	0xbefecb12	-0.49764305
112	0xbe849a1c	-0.25898826
113	0xbf012d70	-0.5045996
114	0xbfa65966	-1.2996032
115	0xbf7f46dd	-0.99717504
116	0xbea148c1	-0.3150082
117	0xbda6b656	-0.081402466
118	0x3f5402c1	0.828167
119	0x3f2e80be	0.68165195
120	0x3f404c9b	0.7511689
121	0xbf1d5eff	-0.6147308
122	0xbee1c9eb	-0.44099364
123	0x3ecac547	0.39603636
124	0x3eea1b29	0.45723847
125	0xbe8c92a7	-0.27455637
126	0x3deeebf0	0.11666095
127	0xbfa33843	-1.2751545
128	0xbf32b587	-0.6980824
129	0x3f59a05b	0.8501031
130	0xbf9b30a6	-1.2124221
131	0xbe136f1f	-0.14397858
132	0xbe83a6a6	-0.2571308
133	0xbe78577c	-0.24252123
134	0xbe3a64f8	-0.18202579
135	0xbc029c33	-0.007971811
136	0x3f272c3b	0.65301865
137	0xbf340370	-0.70317745
138	0xbf9e6927	-1.237584
139	0x3f169cdf	0.58833116
140	0xbec11574	-0.3771168
141	0xbfa1b28b	-1.2632612
142	0xbebfc895	-0.3745772
143	0xbe54309f	-0.20721672
144	0x3d6fe218	0.05856523
145	0x3e786ad2	0.24259499
146	0x3d8af34b	0.06784686
147	0x3dbe3252	0.092869416
148	0x3e407f1c	0.18798488
149	0x3f5a7a4e	0.8534287
150	0x3f214b9a	0.63005984
151	0xbf274d7d	-0.6535261
152	0xbfd02c1c	-1.6263461
153	0x3ea85bc9	0.32882527
154	0x3f42be19	0.76071316
155	0xbdd65ec1	-0.104672916
156	0x3eb4c9d4	0.35310233
157	0x3f609eee	0.8774251
158	0xc00815f7	-2.1263406
159	0xbf0cd263	-0.55008525
160	0x3f16470f	0.58702177
161	0xbfcd3888	-1.6032877
162	0x3faa32b0	1.3296719
163	0x3fdb3473	1.7125381
164	0xbd59625e	-0.053072326
165	0x3f615943	0.8802683
166	0xbf07a5eb	-0.52987546
167	0xbf3ae9f3	-0.7301323
168	0xbf6bcfa1	-0.9211369
169	0x3f029da6	0.510218
170	0x3f0cc422	0.54986775
171	0xbefdf22e	-0.4959883
172	0x3f80fa4b	1.0076383
173	0x3ea92269	0.33034065
174	0xbfaec9e0	-1.3655357
175	0x3e9912ff	0.29897305
176	0xbe78abfc	-0.24284357
177	0x3e001b57	0.1251043
178	0xbfbb8c9f	-1.4652289
179	0x3f24e4e7	0.6441178
180	0x3eeac84c	0.4585594
181	0x3fa61594	1.2975335
182	0x3fc5b442	1.5445635
183	0xbd51279d	-0.05106317
184	0x3f249135	0.6428407
185	0x3e1d882e	0.1538398
186	0x3cae39aa	0.02126773
187	0x3f209063	0.62720317
188	0xbf0036a6	-0.50083387
189	0x3f2bc3d2	0.67095673
190	0x3e0fb0cf	0.14032291
191	0x3ecc66cc	0.39922178
192	0x3f66451b	0.89949197
193	0x3f7ecd34	0.99531865
194	0xbf007aaf	-0.501872
195	0xbf44f748	-0.7693982
196	0x3f885455	1.0650736
197	0x3f884436	1.0645816
198	0x3f49c814	0.7882092
199	0x3f170d06	0.5900425
200	0xbf443e95	-0.7665799
201	0x3e07563e	0.13216493
202	0x3e9646df	0.29350945
203	0x3edfaafd	0.4368514
204	0xbf544254	-0.8291371
205	0xbf2d30d6	-0.6765264
206	0x3e8a5a4a	0.2702201
207	0xbee201c9	-0.44141987
208	0x3e37a762	0.17934945
209	0x3ec10609	0.37699917
210	0x3fc4a593	1.5363029
211	0xbf1ab903	-0.60438555
212	0xbe92cbbb	-0.2867106
213	0x3e99f967	0.3007309
214	0xbeab7ebb	-0.33495125
215	0xbf9420ac	-1.1572471
216	0xbf94ee2f	-1.1635188
217	0xbe426552	-0.18983963
218	0x3e9d4c16	0.3072211
219	0xbf856e34	-1.0424256
220	0xbfcff482	-1.6246493
221	0x3fa7301a	1.3061554
222	0xbd7798c7	-0.060448434
223	0x3fc4db5e	1.5379446
224	0xbdff0113	-0.12451377
225	0xbed56e58	-0.41685748
226	0x3e0da8d3	0.13833933
227	0xbf591db8	-0.8481097
228	0xbd4f2eb4	-0.05058165
229	0x3f514182	0.8174058
230	0xbfc6380e	-1.5485857
231	0x3f34f68d	0.70688707
232	0x3f19e070	0.6010809
233	0x3f28262a	0.65683234
234	0x3f479ff5	0.7797845
235	0xbf113fab	-0.56737775
236	0x3ee1c5cf	0.44096228
237	0xbf79acda	-0.97529376
238	0xbf44b0ad	-0.76832086
239	0x3f2199f7	0.63125557
240	0xbfe8a9bb	-1.8176798
241	0x3f817ddf	1.0116538
242	0xbbffc635	-0.0078056105
243	0xbe6032e5	-0.21894415
244	0xbf1abe64	-0.60446763
245	0x3f5fa403	0.8735964
246	0xbf581f36	-0.84422624
247	0x3f87d6b5	1.0612398
248	0x3f6f2961	0.93422514
249	0x3f18782d	0.59558374
250	0xbf7b1b46	-0.9808849
251	0xbeacd96b	-0.33759627
252	0xbeb394b3	-0.35074386
253	0xbf345639	-0.70444065
254	0x3e92b565	0.28654018
255	0xbf0cf4ee	-0.55061233

network_body._body_endoder.seq_layers.0.bias f4 [256]
0	0x3b2d4763	0.0026440255
1	0xbc3bffa2	-0.011474522
2	0x3c196818	0.009363197
3	0x3b6d9253	0.0036250546
4	0x3bdac161	0.0066758846
5	0x3b9808e1	0.0046397303
6	0x3bc92116	0.0061379774
7	0x3c7232ae	0.014782591
8	0x3c9d2cf2	0.01918647
9	0x3b56ae95	0.0032757868
10	0x3c177dd5	0.009246309
11	0xbba2dd8f	-0.0049702595
12	0xbc12a73f	-0.008951007
13	0xbc2eef4f	-0.010677173
14	0x3bdedc8a	0.0068011926
15	0x3be2e29f	0.006923988
16	0x3bf3b750	0.007437624
17	0x3c8a913c	0.016914956
18	0x3ca1eb73	0.019765591
19	0xbb56a14c	-0.003274995
20	0xbc73cf64	-0.014880989
21	0xbc048c68	-0.008090116
22	0x3c664922	0.014055522
23	0xbb8e944b	-0.004351174
24	0xbbd37241	-0.006452829
25	0x3c57ea1e	0.0131783765
26	0x3bc1413b	0.0058976687
27	0x3c697d25	0.014251028
28	0xbac12f56	-0.0014738839
29	0xbb2a8cc4	-0.0026023844
30	0x3c343999	0.0110000605
31	0x3a81640e	0.0009871738
32	0xbc2cb88b	-0.010542045
33	0x3ba09d16	0.0049015386
34	0x3c7d02ec	0.015442591
35	0x3c53800a	0.012908945
36	0x3c96f659	0.018428015
37	0x39fa4ae0	0.00047739502
38	0x3b561725	0.0032667604
39	0x3be657c2	0.0070295045
40	0x3c971107	0.018440736
41	0xbc14a131	-0.009071634
42	0x3b5fad8c	0.0034130542
43	0xbbb4debd	-0.0055197165
44	0x3ae2700e	0.0017275827
45	0xbc6dfa4a	-0.014525006
46	0x3bc0a55d	0.005879088
47	0x3ba85f56	0.005138318
48	0xba9e8541	-0.0012094156
49	0x3c99f059	0.018791365
50	0x3b873914	0.0041266773
51	0x3b5fced8	0.0034150388
52	0xbc8913cb	-0.01673307
53	0x3c274706	0.010209804
54	0x3c01ef04	0.007930521
55	0x3be60999	0.007020187
56	0xbb915192	-0.0044347728
57	0x3af7a21b	0.0018892916
58	0xbbbcb722	-0.005759136
59	0x3c64e5ca	0.013970802
60	0x3c670c07	0.014101989
61	0xbc0a8cab	-0.008456389
62	0x3c98d0cf	0.018654255
63	0x3bfb927c	0.0076773744
64	0xbc80a9c7	-0.015705956
65	0xb96a4017	-0.00022339854
66	0x3996d892	0.00028771587
67	0xbc804eec	-0.015662633
68	0x3c5d57d7	0.013509712
69	0xbc060ec2	-0.0081822295
70	0x3a5551cb	0.0008137493
71	0xbc4e501d	-0.012592343
72	0xbb978aee	-0.004624716
73	0x3c647e14	0.013946075
74	0x3c85d60b	0.016337415
75	0x3c70f5fe	0.014707087
76	0xbbc4c4c4	-0.0060049016
77	0x39f06ae7	0.00045856016
78	0xbbfb89a6	-0.007676321
79	0x3b257edd	0.0025252618
80	0x3c6f4be2	0.014605494
81	0x3c8d4727	0.017245842
82	0xbc5cfb68	-0.013487674
83	0xbbd7ebe0	-0.006589398
84	0xbbe09215	-0.006853352
85	0x3c4ae291	0.012383119
86	0x3c8b2e1f	0.016989766
87	0xbb6889e5	-0.0035482582
88	0xbc68103f	-0.01416403
89	0xbc2fd1ed	-0.010731203
90	0x3c88f826	0.016719889
91	0x3c232e5e	0.009959785
92	0x3ae159c8	0.0017192895
93	0x3c4913fc	0.012272831
94	0xbc77a8ec	-0.015115958
95	0xbc8bf5eb	-0.017085036
96	0x3c904bf8	0.01761435
97	0xbacf168b	-0.0015799565
98	0x3c891867	0.016735269
99	0x3c75fc93	0.015013832
100	0xbc4e742c	-0.01260094
101	0x3c8bda23	0.01707179
102	0x3b0f986b	0.0021910917
103	0x3bce4f86	0.006296101
104	0x3c366bdb	0.011134113
105	0x3caf5b70	0.021405905
106	0xbb9bc312	-0.004753479
107	0xbb4c1afb	-0.0031144011
108	0xbb5277ed	-0.0032114938
109	0x3be916cd	0.007113314
110	0x3abb1ba6	0.0014275208
111	0x3c8282de	0.015931543
112	0xbb361885	-0.002778561
113	0xbb45c342	-0.0030176197
114	0xbbfff922	-0.0078116814
115	0xbbe38cfc	-0.006944297
116	0xbc45a541	-0.012063325
117	0x3c8ead12	0.01741651
118	0xbbd3efdc	-0.0064678025
119	0xbbd3e5bd	-0.006466596
120	0xbb643d4a	-0.003482657
121	0xbbc547ae	-0.006020508
122	0xbc7451a3	-0.014912042
123	0xbc3b43a7	-0.011429704
124	0x3b94b22f	0.0045378427
125	0xbc0a30fd	-0.008434531
126	0x3c088467	0.008332348
127	0x3c8e645a	0.017381836
128	0xba068dad	-0.00051328057
129	0x3c96a8b2	0.018390987
130	0xbc898da2	-0.016791169
131	0xbc81c68b	-0.015841743
132	0x3ac3a521	0.0014926532
133	0x3c7c6f35	0.015407373
134	0x3bb9740a	0.005659585
135	0x3bcd9077	0.006273325
136	0xbc1de1ab	-0.009636323
137	0xbc18a8cb	-0.009317587
138	0xbbd2c5ed	-0.006432286
139	0x3aa9b9f5	0.0012949096
140	0x3c8b7b8b	0.017026683
141	0x3ab4e483	0.0013801012
142	0xbb08a80f	-0.0020852124
143	0x3bbc7d11	0.0057522138
144	0x3b90f155	0.0044233003
145	0x3c64db4e	0.013968302
146	0x3c2f0dd0	0.0106844455
147	0xbac85171	-0.001528306
148	0x3c3d6146	0.011558836
149	0xbc48538a	-0.0122269485
150	0x3befa7c3	0.0073137
151	0xbc882b26	-0.016622137
152	0x3c16c7f7	0.009202949
153	0x3b4a05ae	0.003082614
154	0x3c2d905b	0.010593499
155	0x3bc460b1	0.005992972
156	0x3c8e27a8	0.017352894
157	0xbc4f4357	-0.012650332
158	0x3b89e6de	0.0042084297
159	0x3b19fd5e	0.0023496966
160	0x3bdd8083	0.0067597046
161	0x3c88e491	0.016710551
162	0xbb510dc5	-0.0031899076
163	0xbc065d30	-0.008200929
164	0xbc43ad4f	-0.011943175
165	0x3c8ff65c	0.017573528
166	0x3c0e65d5	0.008691271
167	0xbbb5d139	-0.005548623
168	0xbc196a83	-0.009363773
169	0xbc80d6ea	-0.015727479
170	0xbbbb7c39	-0.0057215956
171	0xbc091f3a	-0.008369261
172	0xbb688005	-0.0035476696
173	0xbbf79890	-0.0075560287
174	0x3ca678be	0.020321246
175	0xbbdc12ba	-0.0067160996
176	0x3c935752	0.017985974
177	0xbb9009b4	-0.004395688
178	0x3b935958	0.0044967346
179	0xbc229f2f	-0.009925648
180	0xbc8cd212	-0.017190013
181	0xbc045f8e	-0.008079423
182	0x3bce33b6	0.0062927855
183	0xbc82a8bb	-0.015949598
184	0xbb49b019	-0.0030775128
185	0x3aa2a0c2	0.0012407529
186	0xbc1f031c	-0.009705331
187	0x3c2dff7a	0.010619992
188	0xb9ccac88	-0.00039038458
189	0xbc206909	-0.009790667
190	0x3b99abc4	0.0046896655
191	0x3bb48c2a	0.005509873
192	0xbc817de5	-0.015807102
193	0xbbaee817	-0.005337726
194	0x3c4b783a	0.012418801
195	0x3c6a688c	0.0143071525
196	0xbb99f7a4	-0.0046987105
197	0x3c465df2	0.012107359
198	0x3c583445	0.013196056
199	0xbbcf4990	-0.006325908
200	0x3b3ab4f1	0.0028489197
201	0xbc3271e4	-0.010891411
202	0x3c8007eb	0.015628776
203	0x3ca315b2	0.019907806
204	0xbbd77e03	-0.006576301
205	0xbc6d3d4d	-0.014479947
206	0x3c918a1e	0.017766055
207	0x3bb64a70	0.005563073
208	0x3b92468b	0.004463976
209	0xba239eb9	-0.0006241608
210	0xbb5bc000	-0.003353119
211	0xbba9f5dc	-0.0051867794
212	0xbb360128	-0.0027771685
213	0x3c59c40f	0.013291373
214	0xbc419e35	-0.011817505
215	0xbbcdc827	-0.0062799635
216	0xbc4dd19c	-0.012562182
217	0x3c947ecf	0.018126873
218	0x3bc85fce	0.0061149364
219	0x3c30275e	0.010751573
220	0x3c872037	0.016494853
221	0xbb847644	-0.0040424187
222	0xbc39f684	-0.011350278
223	0x3a88fb01	0.0010450782
224	0x3c86fb6f	0.016477315
225	0xbc57df5b	-0.013175811
226	0xbc820522	-0.015871588
227	0x3c4b74aa	0.012417952
228	0x3c8b4795	0.017001906
229	0xba993a90	-0.0011690427
230	0x3c0957a5	0.0083827125
231	0xba36e462	-0.0006976781
232	0x3c565cf6	0.013083687
233	0xbc15b220	-0.009136707
234	0xbc88037f	-0.01660323
235	0xb9fff092	-0.0004881663
236	0xbc3cbf49	-0.011520215
237	0xbc7f1a09	-0.015570172
238	0x3c5f45e7	0.013627506
239	0xbc307819	-0.010770821
240	0x3c815b42	0.015790585
241	0xbc8d39eb	-0.017239532
242	0xbc03518a	-0.008015046
243	0x3bc44030	0.005989097
244	0x3c0ed482	0.008717658
245	0x3c981e4a	0.01856913
246	0x3c477cab	0.012175719
247	0x3c1ec865	0.0096913325
248	0x3c958b27	0.01825483
249	0xbc1a0f4d	-0.009403062
250	0xbc2492f5	-0.010044803
251	0x3c515b3f	0.012778102
252	0x3c9594a0	0.018259346
253	0x3c84e316	0.016221564
254	0xbb5a53e3	-0.003331416
255	0xbc737390	-0.014859095

network_body._body_endoder.seq_layers.2.weight f4 [256, 256]
0	0x3daf4c9f	0.08559536
1	0x3daa872b	0.083265625
2	0xbe073e7f	-0.13207434
3	0x3db78464	0.089607984
4	0x3d12c00f	0.035827693
5	0x3d72c890	0.059273303
6	0xbde482a9	-0.11157734
7	0x3b84d586	0.0040537743
8	0x3d37d482	0.044880398
9	0xbcc11faf	-0.023574678
10	0xbb7e4d7a	-0.0038803504
11	0xbc82b2c6	-0.015954386
12	0xbc8b1a48	-0.016980305
13	0x3dc459f0	0.09587467
14	0x3c0c9517	0.008580468
15	0xbc8668fb	-0.01640748
16	0xbc4c54e0	-0.012471408
17	0x3d430851	0.047615353
18	0x3d460061	0.048340205
19	0xbdf9c6cb	-0.1219612
20	0xbcecb22e	-0.028893556
21	0xbc5f7850	-0.013639525
22	0x3d5f2d15	0.054486353
23	0xb9b3a042	-0.00034260942
24	0x3c5bbda6	0.013411915
25	0x3d9a2785	0.07527069
26	0x3d1e9884	0.03871967
27	0x3b0b48e9	0.0021253175
28	0x3cfa29ba	0.030537475
29	0xbcb7b4e6	-0.022425126
30	0xbc80557d	-0.015665764
31	0x3c7a6f3f	0.015285312
32	0x3c2d39f1	0.010572896
33	0x3c7e9381	0.015538097
34	0x3d64a4d9	0.055821273
35	0xbb254f55	-0.0025224288
36	0x3d8e1db5	0.0693926
37	0x3ce8597a	0.028362978
38	0xbcf77aae	-0.030209865
39	0x3a6ef359	0.0009115241
40	0x3d2b75e0	0.04186046
41	0x3cb2041a	0.021730471
42	0xbd9d89b4	-0.076922804
43	0xbd8b86a4	-0.0681279
44	0x3d250a7b	0.040293198
45	0xbd22a27b	-0.039705735
46	0xbd17d341	-0.0370667
47	0x3d7b0731	0.061286155
48	0xbe087e67	-0.13329469
49	0x3d0a0286	0.033693813
50	0x3e10bbc9	0.14134134
51	0xbda9d357	-0.08292263
52	0xbdb21afc	-0.08696553
53	0x3d2f0520	0.042729497
54	0xbd472794	-0.04862173
55	0xbe0215cd	-0.12703629
56	0x3c9ae50c	0.018908046
57	0x3d9a5786	0.07536225
58	0x3da2c266	0.07947235
59	0x3d942cf3	0.07235136
60	0x3dd6740a	0.104713514
61	0xbd1b6b56	-0.03794416
62	0xbca92e8c	-0.020652078
63	0xbda75b61	-0.08171726
64	0x3ccddc3b	0.025129428
65	0x3c8d7b27	0.017270638
66	0x3e1e7f8a	0.1547834
67	0x3dd40ad9	0.103536315
68	0x3d28a6d0	0.04117471
69	0xbd322e60	-0.043501258
70	0xbce76ee0	-0.028251112
71	0x3d9395c4	0.072063
72	0x3ceffc67	0.02929516
73	0xbd76fad9	-0.06029782
74	0xbd8a2c59	-0.0674674
75	0xbb8cd40e	-0.00429774
76	0x3dc8f9a4	0.0981324
77	0xbd4b02ed	-0.049563337
78	0xbd097e3f	-0.033567663
79	0x3dc05003	0.09390261
80	0x3d16f77e	0.03685712
81	0x3d4065af	0.046971973
82	0xbc35705b	-0.011074151
83	0xbd806493	-0.06269183
84	0x3d0f743c	0.03502296
85	0xbdcd6b12	-0.10030188
86	0x3d32edb3	0.04368372
87	0xbab702b0	-0.0013962593
88	0xbd292f9c	-0.04130517
89	0xbc8cc2d0	-0.017182738
90	0x3d0b540f	0.03401571
91	0x3d19bcbd	0.03753351
92	0x3d0bc4f5	0.03412338
93	0x3ce71e5f	0.028212724
94	0xbd094623	-0.033514153
95	0xbd166dd5	-0.036725838
96	0x3d3db891	0.046318594
97	0xbc959c43	-0.018262988
98	0x3e07d622	0.13265279
99	0xbcf0b263	-0.029381936
100	0x3d229101	0.039689068
101	0x3d8af636	0.06785242
102	0x3d9860d2	0.07440342
103	0xbcefa24e	-0.029252198
104	0x3b974270	0.0046160743
105	0x3d7fab23	0.062419068
106	0xbd525ef2	-0.05136008
107	0x3bf8d113	0.007593283
108	0x3caeb1bd	0.021324987
109	0x3e119a5a	0.14219037
110	0xbd834000	-0.064086914
111	0xbd7f4b2c	-0.06232755
112	0xbc95d996	-0.01829223
113	0xbcff911f	-0.031197129
114	0x3d867da5	0.065669335
115	0xbd092396	-0.033481203
116	0xbd34996c	-0.044091627
117	0xbd7ae534	-0.06125374
118	0x3d1a1df8	0.037626237
119	0xbd33f60b	-0.043935817
120	0xbd098fef	-0.03358453
121	0x3d8d79fc	0.06908032
122	0xbd346ae6	-0.04404726
123	0x3d08a265	0.033357996
124	0xbb392028	-0.0028247926
125	0x3dd2e14b	0.102968775
126	0xbcc368d0	-0.02385369
127	0x3e13ec72	0.14445665
128	0xbdaf3ffe	-0.085571274
129	0x3dc06ca3	0.09395721
130	0x3d3d0c20	0.04615414
131	0x3d3bc257	0.045839634
132	0xbdb81cae	-0.08989845
133	0x3cf13907	0.029446138
134	0x3cd03301	0.025414946
135	0xbdb44df3	-0.0880393
136	0xbbb0127c	-0.0053732973
137	0xbd07aabc	-0.03312181
138	0xbd0f3631	-0.03496379
139	0xbdbb021f	-0.09131264
140	0x3d924623	0.07142284
141	0x3d056acc	0.032572553
142	0xbdfbd831	-0.122970946
143	0x3d384fa9	0.044997845
144	0xbd93285b	-0.071854316
145	0xbc390479	-0.01129257
146	0x3d3de73b	0.046363097
147	0x3a190357	0.00058369845
148	0x3e06e62a	0.13173738
149	0x3d6c1fcd	0.057647515
150	0xbd2b60c2	-0.041840322
151	0xbd151a34	-0.036401942
152	0x3d2d4fcd	0.042312432
153	0xbd02421e	-0.031801336
154	0xbdfc02f9	-0.123052545
155	0x3c3eeae5	0.011652683
156	0xbbcd45c8	-0.006264422
157	0x3c1febe5	0.0097608315
158	0x3df7fa9b	0.12108346
159	0x3d4197dc	0.047263965
160	0xbc5fc87a	-0.013658637
161	0xbcd04cde	-0.025427278
162	0xbaf29417	-0.0018507269
163	0x3c844ac0	0.016148925
164	0x3d90fe74	0.07079783
165	0x3d5f1e43	0.05447222
166	0x3daf9a8f	0.085744016
167	0xbd753cd5	-0.059872467
168	0x3d26b6ca	0.040701665
169	0xbcd77e66	-0.026305389
170	0x3c5e8b0c	0.013582956
171	0xbd15d737	-0.036582198
172	0x3d1adfb7	0.037811007
173	0xbd8b5e0e	-0.06805049
174	0xbd86ce2a	-0.065822914
175	0x3cf83fa0	0.030303776
176	0xb518f0c0	-5.697475e-07
177	0xbd31acc8	-0.043377668
178	0xbd06d937	-0.032921996
179	0xbde9ba86	-0.1141253
180	0x3d1fd7e0	0.039024234
181	0x3dd49c19	0.10381336
182	0xbcce8e9f	-0.025214491
183	0xbd781477	-0.06056639
184	0xbb91ef44	-0.0044535715
185	0x3d0b51d9	0.034013603
186	0xbb734a62	-0.0037123193
187	0xbd34a152	-0.04409916
188	0xbdaa68b1	-0.083207496
189	0xbd758b47	-0.05994728
190	0xbdd30092	-0.10302843
191	0xbe106a8d	-0.14103146
192	0xbdd4c517	-0.103891544
193	0x3bc29f28	0.005939383
194	0x3d3124a3	0.04324783
195	0x3dae9002	0.08523561
196	0xbc8997e6	-0.016796064
197	0xbce363c8	-0.02775754
198	0xbd228e65	-0.03968658
199	0x3e4e9eaa	0.20177713
200	0xbd107007	-0.035263088
201	0x3bd5fb2b	0.0065301857
202	0xbd3b8b6d	-0.045787264
203	0xbd1148f2	-0.035469957
204	0xbda34560	-0.079722166
205	0xbe03877e	-0.12844655
206	0x3d04fc53	0.032467198
207	0xbbe8305b	-0.0070858425
208	0x3ce047db	0.027378013
209	0x3c1ca0b2	0.009559797
210	0xbdaf3ef2	-0.08556928
211	0xbdaec5b2	-0.08533801
212	0xbdd04013	-0.10168471
213	0x3b95f252	0.004576006
214	0xbc3e6f9b	-0.0116232885
215	0x3c2a085c	0.01037797
216	0x3a8b1c33	0.0010613262
217	0x3dd2257e	0.10261057
218	0x3d01a6b2	0.031653114
219	0xbcb98c45	-0.022649894
220	0xbb97a87c	-0.004628239
221	0x3c8e9969	0.017407136
222	0x39cd8275	0.00039197845
223	0x3ca338b3	0.019924497
224	0x3c331ab9	0.010931664
225	0x3c4aa0eb	0.012367467
226	0xbdc5bfc2	-0.096557155
227	0xbceb212e	-0.028702345
228	0xbd879f86	-0.066222236
229	0x38779482	5.9027698e-05
230	0x3d0dc913	0.034615587
231	0xbd59bc32	-0.053157993
232	0x3dcad019	0.09902973
233	0x3c252a28	0.010080852
234	0xbafb4296	-0.0019169624
235	0x3da0bf13	0.078489445
236	0x3c2a7407	0.01040364
237	0xbd8fd8f2	-0.07023801
238	0xbe027982	-0.12741664
239	0x3d3e3bfe	0.04644393
240	0x3db2b21c	0.08725378
241	0x3bcae220	0.006191507
242	0x3da6764d	0.08128033
243	0x3c68a094	0.014198441
244	0x3c54aad2	0.01298018
245	0x3d8cc8bb	0.06874224
246	0x3c786e65	0.015163039
247	0xbc217f48	-0.009857006
248	0x3dc40ddb	0.09572955
249	0xbc8a61e7	-0.016892387
250	0x388e4a06	6.7848756e-05
251	0xbc816ce0	-0.015798986
252	0x3c07838f	0.008271112
253	0x3c912726	0.017718863
254	0x3da1620d	0.0788003
255	0x3daac43c	0.0833821

network_body._body_endoder.seq_layers.2.bias f4 [256]
0	0x3bee191a	0.007266176
1	0xbc4d7773	-0.012540686
2	0x3c73ce7a	0.014880771
3	0x3c46f583	0.0121434955
4	0xbc815abc	-0.015790336
5	0xbc127ff4	-0.008941639
6	0x3c6adfa1	0.014335544
7	0xbb17f366	-0.0023185848
8	0xbc7d13ae	-0.015446587
9	0x3b3b7e92	0.0028609377
10	0x3c11f002	0.00890732
11	0xbc07b96f	-0.008283957
12	0x3c121d2d	0.008918089
13	0x3c1edab5	0.0096956985
14	0x3c1ebee7	0.009689069
15	0x3b70c565	0.003673875
16	0x3c34e89f	0.011041789
17	0xbc5c7011	-0.013454453
18	0xbc7db71b	-0.01548555
19	0xbc7fe9d6	-0.015619716
20	0xbc82563a	-0.015910257
21	0x3c8a02f2	0.016847108
22	0xbbf00abf	-0.0073255
23	0x3c599e0a	0.013282308
24	0x3c126d03	0.008937123
25	0x3c79d120	0.015247613
26	0xb6778598	-3.688363e-06
27	0xbbc1e8b3	-0.0059176325
28	0x3c308396	0.01077356
29	0x3c1a0bbe	0.009402214
30	0xbc7aca1e	-0.015306978
31	0x3af2da29	0.0018528152
32	0x3be30776	0.0069283796
33	0xbc827dc9	-0.01592912
34	0xbc6a324c	-0.014294218
35	0xbc5d74bc	-0.013516601
36	0xbb209e0f	-0.0024508273
37	0x3c7a6768	0.015283443
38	0xbc0240a5	-0.007949983
39	0xbc8579b6	-0.016293388
40	0xbbf7b5ae	-0.0075594997
41	0x3c10c82d	0.008836788
42	0xbae83250	-0.001771519
43	0xbb2bcc2a	-0.002621422
44	0x3b99f384	0.004698219
45	0x3c0a845e	0.00845441
46	0x3bbc6dfa	0.005750415
47	0x3c135561	0.008992524
48	0xbbbef79c	-0.005827857
49	0xbc7d0981	-0.01544416
50	0x3bdc396b	0.006720712
51	0x3c82a466	0.015947532
52	0xbc18d80e	-0.009328855
53	0xbc5ba6d6	-0.013406476
54	0x3c895adc	0.016766958
55	0xbc4f5d80	-0.0126565695
56	0xbc33c549	-0.010972329
57	0xbbe5f664	-0.0070178974
58	0x3c5ff337	0.013668827
59	0x3bfb3366	0.0076660393
60	0x3c80cb7f	0.015722034
61	0x3c4439db	0.011976684
62	0xb9c759bf	-0.00038023104
63	0x3c6f116b	0.014591555
64	0xbc10dabe	-0.008841215
65	0xbc0acdf9	-0.008471959
66	0x3c2750b6	0.010212114
67	0xbc2540e1	-0.010086269
68	0xbc58ee36	-0.013240388
69	0x3c4ccc0f	0.012499823
70	0xbc8b648f	-0.017015724
71	0xba164a93	-0.00057331583
72	0xbc6acfcb	-0.014331768
73	0xbc74be36	-0.014937928
74	0xbba48e3b	-0.005021838
75	0xbc17dedf	-0.009269445
76	0xbc13c2b1	-0.009018586
77	0xbc4e75ab	-0.012601296
78	0x3c280ec6	0.0102574285
79	0x3c68f095	0.0142175155
80	0xbc0e016c	-0.008667331
81	0x3c265e66	0.010154342
82	0xbc5838fd	-0.013197181
83	0xbbc7e66c	-0.0061004665
84	0x3aae4e2a	0.0013298441
85	0xbc766ee2	-0.015041085
86	0x3bb98e03	0.005662681
87	0xbb5db2d0	-0.0033828504
88	0xbc563210	-0.013073459
89	0x3b3ffef0	0.0029296242
90	0xbc737925	-0.014860426
91	0xbc720c69	-0.014773467
92	0xbbd166cb	-0.0063904277
93	0x3c78305b	0.015148248
94	0x3c7bcb6f	0.015368327
95	0x3c3d15c3	0.011540833
96	0x3c0ba4f0	0.008523211
97	0x3c8ec7c8	0.017429247
98	0x3c363a90	0.011122361
99	0x3c94d840	0.018169522
100	0x3c5fa97a	0.013651246
101	0xbc8b5dd1	-0.017012509
102	0x3c2d2c79	0.010569685
103	0x3bb272da	0.0054458203
104	0x3c70bfac	0.014694136
105	0xbc6d268e	-0.014474524
106	0xbc97c9d7	-0.018528862
107	0x3bdef6b0	0.00680431
108	0x3ba2b43c	0.0049653333
109	0xbb3810cc	-0.0028086184
110	0x3c2ec591	0.010667221
111	0x3be0820a	0.0068514394
112	0x3c54b48b	0.012982498
113	0x3c8543c8	0.016267672
114	0xbc1dd221	-0.009632618
115	0x3c3a779d	0.011381057
116	0xbc793643	-0.015210691
117	0x3c28da3d	0.010305938
118	0xbc735657	-0.014852128
119	0xbc4154e3	-0.011800024
120	0x3c873c1b	0.016508153
121	0x3b99d2ac	0.0046943035
122	0x3c53fa89	0.01293815
123	0x3bdf453b	0.006813673
124	0x3c2b6091	0.010460035
125	0xbc702495	-0.014657159
126	0x3bc78f5d	0.0060900883
127	0xbc4de89c	-0.012567665
128	0x3c585cec	0.013205748
129	0x3c8fc686	0.017550718
130	0xbc8f4ee0	-0.017493665
131	0xbc02a98a	-0.007974992
132	0xbc3c61d6	-0.011497935
133	0x3c950ca5	0.018194506
134	0x3c8930f0	0.016746968
135	0xbc871b84	-0.016492613
136	0xbbdeed7c	-0.0068032127
137	0x3c5c960d	0.013463509
138	0x3b6d0e55	0.0036171873
139	0x3b1f0610	0.0024265088
140	0xbb5d30a5	-0.0033750918
141	0x3bc3045d	0.005951448
142	0xbc7a7881	-0.015287519
143	0xbc819658	-0.01581876
144	0xbc2ae6bd	-0.010430989
145	0xbc1b13f3	-0.0094652055
146	0xbc84f2a1	-0.016228976
147	0xbbfe370e	-0.007758028
148	0x3c79afee	0.015239699
149	0x3c22ecc7	0.009944147
150	0x3b93530f	0.0044959853
151	0x3c73768b	0.014859806
152	0x3c53857f	0.012910246
153	0xbb3aa2b9	-0.0028478338
154	0x3b9eb39e	0.0048431894
155	0x3c5d8ae8	0.013521887
156	0x3c332d06	0.010936027
157	0xbc7ad343	-0.015309158
158	0x3b8ccfd2	0.004297235
159	0x3be34b08	0.0069364347
160	0x3c808273	0.015687203
161	0xbbb4fe2a	-0.005523463
162	0x3c3fcf8d	0.011707199
163	0xbc63efaf	-0.0139121255
164	0xbc00d5c7	-0.0078634685
165	0x3b42ff52	0.0029754234
166	0xbba14303	-0.0049213185
167	0xbc7ba37d	-0.015358803
168	0xbc856dec	-0.016287766
169	0xbc2392be	-0.0099837165
170	0x3c925124	0.017860956
171	0xbbe576f2	-0.007002705
172	0x3bbc7e9f	0.005752399
173	0x3c19793c	0.009367283
174	0x3b6a64c9	0.003576564
175	0x3c35614a	0.011070559
176	0xbc072d11	-0.008250491
177	0x3c64d5e1	0.013967008
178	0x3c90d803	0.017681127
179	0x3c857221	0.016289772
180	0x3c90bb8e	0.017667558
181	0x3c1da6d5	0.009622295
182	0xbabbc8a9	-0.0014326769
183	0xbbcf099f	-0.0063182856
184	0xbc1cd89f	-0.009573131
185	0xbc6efe01	-0.014586926
186	0xbb1bd7c2	-0.0023779725
187	0xbc6051d5	-0.013691385
188	0xbb970949	-0.004609261
189	0x392f65c3	0.0001672721
190	0xbc82e345	-0.015977511
191	0xbb806caa	-0.0039192038
192	0x3c63eeb2	0.01391189
193	0x3b8fa1ce	0.0043833023
194	0x3c94a031	0.018142791
195	0xbbb6b44c	-0.0055756923
196	0xbc36c072	-0.011154281
197	0x3bfebf6e	0.007774285
198	0x3c261d63	0.010138842
199	0xbc013ec6	-0.0078885015
200	0xbc3c77d4	-0.011503179
201	0xbc5a54c9	-0.013325878
202	0xbc8287f0	-0.01593396
203	0x3bd57b37	0.0065149325
204	0xbbb46cb7	-0.005506124
205	0x3c8c0458	0.017091915
206	0x3abde3a9	0.0014487404
207	0xbc88e15d	-0.016709024
208	0x3b29fd1b	0.0025938216
209	0xbc84cfc5	-0.016212353
210	0x3c08f5cd	0.008359385
211	0xbc8be961	-0.017079057
212	0x3b7debbf	0.0038745252
213	0xbbab4157	-0.005226295
214	0x3c26cf8f	0.010181322
215	0x3c835175	0.016030053
216	0x3c8d1e6b	0.017226418
217	0xbc5a35fb	-0.013318534
218	0x3c029fcf	0.007972672
219	0x3c0a0b81	0.008425594
220	0x3c005556	0.007832846
221	0xbc869e61	-0.016432943
222	0xbc04e32b	-0.008110802
223	0xbc2681df	-0.0101628
224	0x3c021caa	0.007941404
225	0x3b90bc89	0.0044170064
226	0xbaa2a15f	-0.0012407711
227	0xbc35b759	-0.011091077
228	0x3c11ed06	0.008906608
229	0x3be9b2cb	0.0071319095
230	0x3c05702a	0.008144418
231	0x3c0c04f7	0.008546106
232	0xbc313299	-0.010815286
233	0xbc85b8da	-0.016323496
234	0xb6a1deb8	-4.824102e-06
235	0xbba04510	-0.0048910454
236	0xbc47121b	-0.012150313
237	0x3c784c4f	0.015154912
238	0xbc8f352b	-0.017481407
239	0x3c833f7b	0.01602148
240	0x3b355cb9	0.0027673675
241	0xbba1ef73	-0.0049418746
242	0xbc35f946	-0.011106795
243	0x3bff0764	0.0077828635
244	0xbc32bc8d	-0.010909212
245	0x3c234f51	0.009967641
246	0x3c4a2590	0.012338057
247	0xbc4ed261	-0.0126234
248	0xbc5a2eab	-0.013316791
249	0x3c3d9e7c	0.01157343
250	0x3ac27e98	0.0014838753
251	0x3c894f47	0.016761435
252	0x3c1993a8	0.009373583
253	0x3bd73e60	0.006568715
254	0xbc1abc01	-0.009444238
255	0xbc3df9cd	-0.011595202

network_body._body_endoder.seq_layers.4.weight f4 [256, 256]
0	0xbbcaff13	-0.006194958
1	0xbad8dbc5	-0.0016544989
2	0x3c81d038	0.015846357
3	0xbd0a2b6e	-0.033732824
4	0x3d211c75	0.03933378
5	0xbd398db9	-0.045301173
6	0x3c9327b7	0.017963273
7	0xbd8bae7c	-0.0682039
8	0x3d5afae9	0.053461943
9	0xbdafca53	-0.08583512
10	0xbd3334da	-0.043751575
11	0x3dbffabf	0.09373998
12	0x3e260eaa	0.16216531
13	0x3d1520ef	0.03640836
14	0x3e3ef558	0.18648279
15	0xbc01c326	-0.007920062
16	0x3d777ed3	0.060423683
17	0xbd5e7dd6	-0.054319225
18	0xbdab0198	-0.08349913
19	0x3cd39898	0.025829598
20	0xbb8b1611	-0.004244574
21	0x3d7ff9de	0.06249415
22	0xbcb3d448	-0.02195181
23	0x3d87a746	0.06623702
24	0x3c950215	0.01818947
25	0x3dc10b9b	0.09426042
26	0xbe026acb	-0.12736051
27	0xbd9de664	-0.07709959
28	0x3ba1d500	0.0049387217
29	0x3bdc1902	0.0067168484
30	0xbde66941	-0.11250544
31	0x3e1cb61c	0.15303844
32	0x3dbf6552	0.09345497
33	0xbdabf3c0	-0.08396101
34	0x3d19f636	0.03758832
35	0xbb4ff84e	-0.0031733694
36	0xbd2bd437	-0.04195043
37	0xbe162bfa	-0.14665213
38	0x3d68c4e2	0.056828387
39	0xbb23ed74	-0.002501336
40	0x3d5f77f1	0.054557744
41	0x3db327e7	0.08747845
42	0x3d900dd5	0.07033888
43	0x3c5cc0b6	0.01347368
44	0xbcf2a443	-0.029619342
45	0x3b8657c4	0.004099818
46	0x3d8015f9	0.06254191
47	0xbc726d9f	-0.0147966435
48	0xbc8a94e3	-0.016916698
49	0x3d3e789f	0.046501752
50	0x3bf629db	0.007512314
51	0x3cfc3dc4	0.03079117
52	0xbc4689b2	-0.01211779
53	0xbd337b18	-0.043818563
54	0x3e37b924	0.1794172
55	0xbc31bf92	-0.010848897
56	0xbc9a87c4	-0.018863566
57	0x3c90b550	0.017664582
58	0x3c9b683b	0.0189706
59	0x3e145cd6	0.14488539
60	0x3cbfd187	0.02341534
61	0x3dbb4836	0.091446325
62	0x3d8a117c	0.06741616
63	0x3d66228c	0.05618529
64	0xbc02b520	-0.007977754
65	0xbd2dfdc4	-0.042478338
66	0x3dd6a623	0.10480907
67	0x3c904a5e	0.017613586
68	0x3dfc3048	0.123138964
69	0xbd1030fc	-0.035202965
70	0xbdb4beca	-0.088254526
71	0xbdde8d57	-0.10866802
72	0xbcd703a9	-0.026246862
73	0x3c35df50	0.011100605
74	0xbc158489	-0.009125837
75	0xbd994d40	-0.074854374
76	0x3cd879c0	0.026425242
77	0x39948acb	0.0002833217
78	0xbdc4ee43	-0.09615757
79	0xbd75de26	-0.06002631
80	0xbd19d05d	-0.037552226
81	0x3ca4f1df	0.020134864
82	0xbd4e0268	-0.050295264
83	0x3d8f57f8	0.069992006
84	0xbd821088	-0.06350809
85	0xbc8bec72	-0.01708052
86	0xbdf70904	-0.120622665
87	0x3daecf99	0.0853569
88	0xbd5a6ea5	-0.053328175
89	0x3d8faf2c	0.07015833
90	0xbab2bde1	-0.0013636911
91	0x3d697754	0.056998566
92	0xbdaeb02e	-0.08529697
93	0x3cd51acd	0.026013756
94	0x3d86d972	0.06584443
95	0xbe38116f	-0.179754
96	0x3c339220	0.010960132
97	0x3c8e0dc7	0.017340554
98	0x3d3151a9	0.043290768
99	0x3d882a1e	0.06648658
100	0xbcb3e6db	-0.021960666
101	0x3cf90d74	0.030401923
102	0xbd86b1d3	-0.06576886
103	0xbd1ee9cd	-0.03879719
104	0xbe0d6723	-0.13808875
105	0xbd9b3a31	-0.075794585
106	0x3d407e24	0.046995297
107	0xbcab2904	-0.020893581
108	0x3dcf91ee	0.10135256
109	0xbcb103b7	-0.021608217
110	0xba8b7a12	-0.0010641238
111	0xbc80b007	-0.015708936
112	0x3d395e96	0.04525622
113	0x3d0449cc	0.03229694
114	0xbc6bc829	-0.014390984
115	0x3d148c15	0.036266405
116	0xbd936911	-0.07197774
117	0xbca1f57f	-0.019770382
118	0x3a5bf239	0.0008390281
119	0x3d7aed66	0.061261557
120	0x3dc41304	0.095739394
121	0xbd868af6	-0.065694734
122	0x3da5f83c	0.081039876
123	0x3c57b174	0.013164867
124	0xbdd14f94	-0.102202564
125	0xbc7a1314	-0.015263338
126	0x3d1c7d23	0.038205277
127	0xbccee378	-0.02525495
128	0x3d1b65a7	0.03793874
129	0xb8cd18f0	-9.779807e-05
130	0xbd3e4fa2	-0.046462663
131	0x3db1cda4	0.08681801
132	0xbcdc3ca3	-0.026884383
133	0x3c98895e	0.01862019
134	0x3d83eb10	0.06441319
135	0xbd6bce17	-0.05756959
136	0x3ddcd264	0.10782316
137	0x3d028111	0.03186137
138	0x3d746e23	0.059675347
139	0xbcb009cc	-0.021489047
140	0xbc4ac8e0	-0.012376994
141	0x3ce50bff	0.027959822
142	0xbdc0eae4	-0.09419802
143	0xbbce4bf0	-0.0062956735
144	0x3cf54044	0.02993787
145	0x3c598fb8	0.013278894
146	0x3dc5a947	0.09651428
147	0xbb123e1a	-0.0022314847
148	0x3cd44e3b	0.02591621
149	0x3c337e7a	0.010955447
150	0x3e0ca597	0.13735043
151	0xbcc397dd	-0.023876125
152	0x3c4b7417	0.012417815
153	0x3d84e4d6	0.064889595
154	0x3db7c98d	0.0897399
155	0xbd020ed8	-0.031752437
156	0x3d85a7cc	0.06526145
157	0x3c5dab0e	0.013529552
158	0xbce18cc8	-0.02753295
159	0xbdba0838	-0.09083599
160	0x3d71c0e7	0.059021857
161	0x3d0cec1c	0.03440486
162	0xbc9774cd	-0.018488312
163	0x3d363499	0.044483755
164	0xbc1ec61c	-0.009690788
165	0x3dda83f5	0.106697
166	0xbddff4bc	-0.10935351
167	0xbd6cb143	-0.057786237
168	0xbd57b672	-0.052664228
169	0x3dd41ffa	0.103576615
170	0xbd8708db	-0.06593486
171	0xbd53dc4a	-0.051723756
172	0xbe333d23	-0.1750379
173	0xbd863bca	-0.065543726
174	0xbd1b3b26	-0.037898205
175	0x3db87ea6	0.09008531
176	0xbd52e062	-0.05148352
177	0x3c86b5ae	0.016444054
178	0x3be3a3e4	0.0069470275
179	0x3ce1c249	0.027558463
180	0x3da34b23	0.079733156
181	0x3c7d72fb	0.015469308
182	0x3bf3fa2b	0.007445594
183	0x3d42c427	0.047550347
184	0xbdefe93d	-0.117144085
185	0xbcc02976	-0.02345727
186	0x3d743abf	0.059626337
187	0xbd220608	-0.039556533
188	0x3d9a8e62	0.075466886
189	0xbae1b0b4	-0.0017218799
190	0x3bc43dca	0.005988811
191	0xbd92c908	-0.0716725
192	0xbd83f0f1	-0.0644244
193	0xbd051b07	-0.03249648
194	0xbdfd074d	-0.12354908
195	0x3d7d73aa	0.061877884
196	0x3be48ef9	0.0069750515
197	0x3a6c0c03	0.00090044754
198	0x3db82cc6	0.08992915
199	0x3d7b89fa	0.06141088
200	0xbd89ea39	-0.067341276
201	0x3d4c00a4	0.0498053
202	0xbe006f2a	-0.12542406
203	0xbb98cc20	-0.0046630055
204	0x3d38c825	0.045112748
205	0xbc1f8cf4	-0.009738196
206	0x3d6b84ee	0.05749982
207	0xbd0a96b2	-0.03383512
208	0x3bed7583	0.0072466745
209	0x3d24a152	0.04019291
210	0xbd9c7473	-0.076393984
211	0x3d509eec	0.05093281
212	0xbdc37c81	-0.095452316
213	0xbd537fc5	-0.051635522
214	0xbd18cca8	-0.03730455
215	0x3b20265e	0.002443693
216	0xbbe859e0	-0.007090792
217	0xbca17a00	-0.019711494
218	0xbd8855bc	-0.066569775
219	0x3c8a71c0	0.016899943
220	0x3d18fdc9	0.037351403
221	0x3d512892	0.05106408
222	0xbcb07ce8	-0.021543935
223	0xbda9b284	-0.08286002
224	0xbdb78412	-0.08960737
225	0xbdb60135	-0.08886949
226	0xbd570b4c	-0.052501008
227	0x3c6ca359	0.014443242
228	0x3c9e30f2	0.019310448
229	0x3d0b1ce5	0.033963103
230	0x3d7697d7	0.0602034
231	0xbd5733dc	-0.05253969
232	0xbd5c6bfa	-0.053813912
233	0x3ca6d489	0.020365017
234	0x3dd87626	0.1056941
235	0x3d98b02d	0.07455478
236	0x3bf2265e	0.0073898276
237	0x3cce8d99	0.025214003
238	0xbd878203	-0.06616595
239	0x3d73a33f	0.059481855
240	0xbd901139	-0.07034535
241	0xbdbb6de2	-0.09151818
242	0x39bdd660	0.0003620861
243	0x3be3c799	0.006951284
244	0x3d436ea4	0.047712937
245	0x3b95bb02	0.004569412
246	0x3d92d8be	0.071702465
247	0x3db8a548	0.090159
248	0x3d9bdb7f	0.07610225
249	0x3b9087fb	0.0044107414
250	0x3d1c5179	0.038163636
251	0x3c6fca69	0.014635661
252	0xbc359825	-0.011083637
253	0xbcbb164f	-0.022837786
254	0x3d54b346	0.05192878
255	0xbe1bcab8	-0.1521405

network_body._body_endoder.seq_layers.4.bias f4 [256]
0	0x3c11d8b4	0.008901764
1	0xbc0d718a	-0.008633027
2	0x3c506c8b	0.012721191
3	0x3c0ef6c7	0.0087258285
4	0xbbedb64c	-0.0072543975
5	0xbc57c3f1	-0.013169275
6	0x3c2d8f11	0.010593192
7	0x3c686158	0.014183365
8	0x3c49a53a	0.0123074595
9	0xbc522b4a	-0.012827704
10	0xbc71bac1	-0.014753998
11	0xbc3b568a	-0.011434207
12	0x3c6e8d11	0.01456
13	0x3c59016d	0.013244969
14	0x3c08ce9a	0.008350039
15	0x3bdedae3	0.0068009957
16	0x3c52f745	0.012876336
17	0xbac299f9	-0.0014846913
18	0xbc702bc9	-0.014658877
19	0xbc74affd	-0.014934537
20	0xbc74cd7c	-0.014941569
21	0xbae8a941	-0.0017750637
22	0xbba99404	-0.0051751155
23	0xbc7ee92b	-0.015558521
24	0xbc41683a	-0.011804635
25	0xbc1a37fa	-0.00941276
26	0xbc78d846	-0.015188282
27	0x3c26be9a	0.010177279
28	0x3c114ebb	0.008868868
29	0xbc1a661b	-0.009423758
30	0x3beffb8b	0.0073236874
31	0x3bf4bd76	0.0074688746
32	0x3c1ae988	0.009455092
33	0x3c664c7f	0.014056324
34	0x3c12bab5	0.008955647
35	0x3c6e3d20	0.0145409405
36	0x3be9d640	0.0071361363
37	0xbc63205b	-0.013862695
38	0x3c6800b4	0.014160324
39	0xbc621377	-0.013798586
40	0x3c07a197	0.008278272
41	0xbc3c96d6	-0.011510571
42	0xbc0cda7a	-0.008597011
43	0xbb704aa6	-0.0036665588
44	0x3c813ce3	0.015776103
45	0x3c0fef0a	0.008785019
46	0xbc179cfb	-0.009253736
47	0xbc6ae569	-0.014336922
48	0xbc83bcd5	-0.016081253
49	0xbc55694d	-0.013025594
50	0xbc0497f3	-0.008092868
51	0x3c2b959d	0.010472682
52	0x3bcadde9	0.0061910045
53	0x3c64e393	0.013970274
54	0x3c1dd490	0.009633198
55	0xbbe71e60	-0.0070531815
56	0xbc2ef308	-0.01067806
57	0xbc1040bc	-0.008804496
58	0x3c102767	0.008798457
59	0x3aa00d32	0.0012210964
60	0xbc80d1e3	-0.015725082
61	0x3c17b3f1	0.00925921
62	0x3c03c6ab	0.008042972
63	0x3c497600	0.0122962
64	0x3c17819c	0.00924721
65	0xbc60cc87	-0.013720638
66	0x3c135b12	0.008993881
67	0xbc30dd55	-0.010794957
68	0x3c111eea	0.008857468
69	0xbc14481c	-0.009050395
70	0xbc79d8bb	-0.0152494265
71	0xbc84816d	-0.016174996
72	0xbc08ab33	-0.008341598
73	0x3c0d4e16	0.008624574
74	0xbc18a65a	-0.009317005
75	0x3c0b4d89	0.008502373
76	0xbc60aa5c	-0.013712492
77	0xbc7d1581	-0.015447021
78	0x3c32d840	0.010915816
79	0xbc959b16	-0.018262427
80	0xbc66062f	-0.01403956
81	0xbc65d347	-0.014027423
82	0x3c810e47	0.015753878
83	0x3aea14b5	0.0017858954
84	0xbc80237c	-0.01564192
85	0xbc719e59	-0.014747226
86	0xbc774e6f	-0.015094384
87	0x3c67aa90	0.014139786
88	0xbc6ba11a	-0.014381671
89	0xbc6728c9	-0.014108845
90	0xbc257092	-0.01009764
91	0x3c65bc8c	0.014022004
92	0xbc170889	-0.0092183435
93	0x3c33c335	0.010971834
94	0x3c7a5c3f	0.015280782
95	0xbc0d61f5	-0.008629312
96	0xbc499b88	-0.012305148
97	0x3c70cb2b	0.0146968765
98	0xbc23bf93	-0.009994405
99	0x3b8f736d	0.0043777735
100	0x3c12d551	0.008961991
101	0x3c761ef8	0.015022032
102	0xbc1c9e2b	-0.009559195
103	0x3c83611b	0.016037514
104	0x3c3888d9	0.011263096
105	0xbc5bd7f7	-0.013418189
106	0xbc3af6af	-0.011411353
107	0x3b4324ac	0.0029776497
108	0xbc0f513e	-0.008747397
109	0xbb853a6a	-0.0040658014
110	0xbc77cd1a	-0.015124584
111	0x3c02c34c	0.007981133
112	0x3c24081b	0.010011698
113	0x3c667dbe	0.014068065
114	0x3bfc330a	0.007696514
115	0x3c0cd133	0.008594799
116	0xbc58d314	-0.013233919
117	0x3c47a154	0.01218446
118	0xbc5a8fcc	-0.013339948
119	0x3c6583f8	0.014008515
120	0xbc7c61a8	-0.015404142
121	0xbc1ddc8d	-0.009635103
122	0x3c084500	0.008317232
123	0x3bff0fcb	0.007783865
124	0x3c8cbd26	0.017180037
125	0xb8ecbd46	-0.00011288612
126	0xbc732439	-0.014840179
127	0xbc13478d	-0.008989227
128	0xbc0e1dd8	-0.0086741075
129	0x3c44dc27	0.012015379
130	0x3b248969	0.0025106317
131	0xbc5348a2	-0.012895735
132	0xbc6e159e	-0.014531521
133	0xbc87171a	-0.016490508
134	0xbc6248ea	-0.013811329
135	0x3c6edbb6	0.01457875
136	0xbc6006bd	-0.0136734815
137	0x3c3a6d56	0.011378607
138	0xbc0e6cb8	-0.008692913
139	0xbc695ade	-0.014242856
140	0x3c756235	0.014977028
141	0x3c23c245	0.009995048
142	0xbc8ae298	-0.016953751
143	0xbc1b4eba	-0.009479219
144	0xbc0b7ba3	-0.008513364
145	0x3c0133cc	0.0078858845
146	0x3c0e9c33	0.008704233
147	0xbc10676c	-0.00881372
148	0xbc517772	-0.012784826
149	0x3c8ee4d0	0.01744309
150	0x3c61df4d	0.013786149
151	0x3c17538a	0.009236226
152	0xbc1e8a01	-0.009676457
153	0x3c6cbe30	0.014449641
154	0xbc293195	-0.010326763
155	0xbc318598	-0.010835074
156	0xbc4d9473	-0.0125476
157	0x3bddf2b8	0.006773319
158	0xbc277769	-0.010221341
159	0x3c5b0d8d	0.01336993
160	0x3c0c7d92	0.00857486
161	0xbc5ecd0d	-0.013598693
162	0x3c5211da	0.012821639
163	0x3c79164f	0.015203073
164	0x3c13f07c	0.009029504
165	0x3c119359	0.008885228
166	0x3c1d9e6f	0.009620293
167	0x3c763631	0.015027569
168	0xbb73d9a6	-0.0037208586
169	0x3c064883	0.008195999
170	0x3c82bc48	0.01595892
171	0xbc61dfdd	-0.013786283
172	0x3c076096	0.008262774
173	0xbc39d0a4	-0.011341248
174	0xbb862d9d	-0.004094793
175	0xbc76bf4f	-0.01506026
176	0x3c3029d1	0.010752157
177	0x3c1f9e14	0.009742279
178	0xbc8256b5	-0.015910486
179	0xbc1b935d	-0.009495583
180	0xbc6dab7d	-0.014506218
181	0xbc66c6c0	-0.014085472
182	0xbc497722	-0.01229647
183	0xbc3bc230	-0.011459872
184	0x3c6a0d7d	0.014285442
185	0xbc3acec3	-0.011401835
186	0xbc1b9948	-0.009496994
187	0xbc8443ac	-0.01614555
188	0x3c260792	0.010133641
189	0x3c214a12	0.00984432
190	0x3c1e08aa	0.00964562
191	0xbc6840e5	-0.014175628
192	0x3c6955e0	0.014241666
193	0xbc84844c	-0.016176365
194	0xbc4d6b39	-0.012537771
195	0x3c0123cc	0.00788207
196	0x3c0dadee	0.008647425
197	0xbc2315dc	-0.009953942
198	0x3b84d2c2	0.0040534446
199	0x3c113699	0.008863115
200	0xbc1a0385	-0.009400253
201	0x3c19221f	0.009346514
202	0x3c583fcd	0.013198805
203	0x3c66a540	0.014077485
204	0xbc718f2d	-0.014743608
205	0x3c023528	0.007947244
206	0xbc273557	-0.010205588
207	0xbc1cc24e	-0.00956781
208	0xbc627f3b	-0.013824279
209	0x3c0c1927	0.008550919
210	0x3c07beb6	0.008285215
211	0x3c339f94	0.010963339
212	0x3c610c59	0.013735854
213	0xbc0d7a5e	-0.008635132
214	0x3c109336	0.00882416
215	0x3bcfb998	0.006339263
216	0x3bfff737	0.0078114527
217	0x3c32d7bb	0.010915692
218	0x3b9584e2	0.00456296
219	0x3c5888b1	0.0132161835
220	0xbc7fa5e5	-0.015603517
221	0xbc084184	-0.008316401
222	0xbc5926d0	-0.0132538825
223	0x3c301d26	0.010749137
224	0x3c28b468	0.010296918
225	0x3c295c26	0.010336911
226	0xbc82c6eb	-0.015963992
227	0xbc7089e7	-0.014681316
228	0x3c806e2b	0.015677532
229	0x3c65ab6b	0.01401792
230	0xbc39d475	-0.011342158
231	0x3c049299	0.008091592
232	0x3c0f59f6	0.008749476
233	0x3c7046e2	0.014665337
234	0x3c167b8d	0.00918473
235	0xbc15b833	-0.009138155
236	0xbc24877b	-0.010042067
237	0xbc7ba6ba	-0.015359575
238	0xbc0a58a3	-0.008443984
239	0xbb740624	-0.0037235105
240	0xbc6f01c8	-0.014587827
241	0xbc714a0c	-0.014727127
242	0x3c3131cd	0.010815096
243	0x3c75c01a	0.014999414
244	0x3c427dad	0.011870784
245	0xbc25300f	-0.010082259
246	0xbc672cf3	-0.014109838
247	0x3c21fff3	0.009887683
248	0x3c0d5c55	0.008627971
249	0x3c5141f8	0.012772076
250	0x3c676a41	0.014124454
251	0xbc7d8d10	-0.015475526
252	0x3c1f2119	0.009712481
253	0xbc10b238	-0.008831553
254	0x3c74e0f2	0.014946209
255	0x3c156f15	0.009120722

action_model._discrete_distribution.branches.0.weight f4 [2, 256]
0	0x3af534f6	0.00187078
1	0xbbbee301	-0.005825401
2	0x3a5b09f5	0.0008355671
3	0xbb9d19db	-0.004794342
4	0xbb1c2baf	-0.0023829748
5	0xbbe69954	-0.007037321
6	0x3c3879ea	0.011259535
7	0x3b1ee149	0.0024243167
8	0x3c0e0745	0.008668725
9	0xbb544272	-0.0032388237
10	0xbb254d6a	-0.0025223144
11	0xbc4a005a	-0.012329185
12	0x3c0dace7	0.00864718
13	0x3c5f5b96	0.013632676
14	0x3c40302c	0.011730235
15	0x3a0c5cb3	0.00053543894
16	0x3c90b73d	0.0176655
17	0x3b4a95cc	0.003091204
18	0xbb78e02e	-0.0037975418
19	0xbbf79553	-0.0075556426
20	0xbbe98263	-0.007126139
21	0xba5b2977	-0.0008360366
22	0x3b8ecdbb	0.004358021
23	0xbc0eb954	-0.008711178
24	0x3b764581	0.0037578049
25	0xbc1ff6da	-0.009763444
26	0xbcb626ec	-0.022235356
27	0x3b3e0ba4	0.0028998638
28	0x3b1e1641	0.002412215
29	0x3859dd9b	5.1943218e-05
30	0xba63cadf	-0.0008689593
31	0x3c29dbb3	0.010367322
32	0x3c456462	0.012047859
33	0xbb287a6a	-0.002570773
34	0x3c6779f2	0.014128195
35	0x3c1e2550	0.009652451
36	0x3b3037dd	0.0026888766
37	0xbc0e1e66	-0.00867424
38	0x3b96bc61	0.0046000932
39	0xbba93124	-0.0051633287
40	0xbbc57db4	-0.006026948
41	0xbc80aaba	-0.015706409
42	0xbc06d392	-0.008229153
43	0xbb853508	-0.0040651597
44	0x3c2ef16c	0.010677677
45	0xbb641b81	-0.0034806433
46	0xba883e6a	-0.0010394577
47	0xbbfe710f	-0.0077649425
48	0xbc2f5eb2	-0.010703729
49	0xbc699ea1	-0.0142590115
50	0x3bba36a5	0.0056827837
51	0xbc161873	-0.009161103
52	0xbb894d20	-0.004190102
53	0x3bb82cf9	0.0056205955
54	0x3b9934d9	0.0046754894
55	0xbb8b555d	-0.0042521195
56	0x38f98bc5	0.00011899279
57	0xbc499bb3	-0.012305188
58	0x3bcce0a5	0.0062523657
59	0xba15263e	-0.00056895975
60	0xbbead146	-0.0071660606
61	0x3b330087	0.0027313547
62	0x3baf99eb	0.0053589246
63	0x3c119f1e	0.008888034
64	0xbaa80ed0	-0.0012821797
65	0xbc7feb83	-0.015620115
66	0x38bbc978	8.954381e-05
67	0xbb892ade	-0.0041860184
68	0x3b8069e1	0.0039188717
69	0x3a49ed06	0.0007702861
70	0xbc30e194	-0.0107959695
71	0xba3eeb79	-0.0007283013
72	0xbbbb2743	-0.0057114675
73	0x3c32ffef	0.010925277
74	0xbac0487b	-0.0014670038
75	0x3b6c7fbe	0.0036086882
76	0xbb8a29f1	-0.0042164256
77	0xbc1a982f	-0.009435697
78	0xbab94b9b	-0.0014136912
79	0xbb936b6f	-0.004498891
80	0x3ba62e56	0.0050714416
81	0xbc56a7cd	-0.01310153
82	0x3be8a709	0.0070999903
83	0x3a889c78	0.0010422608
84	0xba1fe3ea	-0.00060993305
85	0x3b083bac	0.002078752
86	0xbb071744	-0.0020613233
87	0x3c7a148c	0.015263688
88	0xbc9b72cd	-0.01897564
89	0xbc95ce74	-0.018286921
90	0xbc837724	-0.016048022
91	0x3be11a3c	0.0068695825
92	0x3aceeb06	0.0015786595
93	0x3b859bc4	0.0040774066
94	0x3af6669e	0.0018798893
95	0xbc82037d	-0.015870804
96	0x3c0d2fc1	0.008617342
97	0x3bd373ab	0.0064529977
98	0xbbb665a0	-0.005566314
99	0x3b039e23	0.002008327
100	0x3a95a6ae	0.0011417472
101	0x3c90a81c	0.017658286
102	0xbb9cd397	-0.0047859657
103	0x3c070889	0.008241781
104	0xbb159d32	-0.0022829291
105	0xbca454c9	-0.02005996
106	0x3ad95108	0.0016579935
107	0xbc05a92c	-0.0081580095
108	0xba8a30d6	-0.0010543119
109	0x3b868cee	0.0041061556
110	0xbc920a55	-0.017827192
111	0x3b867830	0.004103683
112	0x3bd6cc02	0.0065550813
113	0x3ba075bb	0.004896847
114	0x3c28104f	0.0102577945
115	0xbaeffe5d	-0.0018310059
116	0xbc288f8e	-0.010288132
117	0x3b19dfc0	0.0023479313
118	0xbb878029	-0.004135151
119	0xbbcd278a	-0.006260817
120	0xbc81b8d4	-0.015835203
121	0xba32f45f	-0.0006826575
122	0x3bf2f7ad	0.007414779
123	0xba104433	-0.00055033265
124	0x3bb227bd	0.005436866
125	0xbb15fb3d	-0.0022885345
126	0x3b568a71	0.0032736326
127	0xbaa4edb6	-0.001258305
128	0x3be8d15a	0.007105035
129	0x3b4f42c0	0.003162548
130	0x3bcd4f95	0.0062655904
131	0xbaa51954	-0.0012596049
132	0xbc5062b7	-0.012718848
133	0xbc20292a	-0.009775439
134	0xbc28623a	-0.010277325
135	0x3b90494e	0.00440327
136	0xbc5184cc	-0.012788009
137	0x3c6b9d4a	0.014380762
138	0xbb843108	-0.0040341653
139	0xbc01ca6f	-0.007921799
140	0x3bccdac4	0.006251665
141	0x3c2882a4	0.010285053
142	0xbbfc4530	-0.0076986775
143	0xba8516f6	-0.0010153938
144	0xbbd0514d	-0.006357348
145	0xbb85d731	-0.0040844907
146	0xb983597e	-0.00025052944
147	0xbbc5392f	-0.0060187797
148	0xb9183cff	-0.00014518572
149	0x3b8a6733	0.004223728
150	0x3b8f1821	0.00436689
151	0xb9ad8e68	-0.00033103232
152	0xbb57019c	-0.0032807356
153	0x3c6e3be4	0.014540646
154	0x39928d37	0.00027952503
155	0xbb873146	-0.004125747
156	0x3ae4646d	0.0017424949
157	0x3b378abc	0.0028006276
158	0xbbbb9c3c	-0.0057254117
159	0x3c37d041	0.011219085
160	0x3924da83	0.00015721661
161	0xbc457906	-0.01205278
162	0x3c174cbd	0.009234604
163	0x3c94e702	0.01817656
164	0x3b7ea957	0.0038858259
165	0x3c8948d7	0.016758366
166	0xbb5c47c6	-0.0033612116
167	0x3b9240ee	0.0044633066
168	0x3b11f6d6	0.002227237
169	0x3accd0e0	0.0015626214
170	0x3c16d81e	0.0092068
171	0x3a8e66ee	0.0010864416
172	0xbbc11824	-0.0058927704
173	0xbbf608d7	-0.007508378
174	0x3b38dc1c	0.0028207367
175	0xbc62dea0	-0.013847023
176	0x3cb7b3ba	0.022424567
177	0xbafc67d5	-0.0019257019
178	0xbb90a8d6	-0.004414658
179	0x3be0df3a	0.006862548
180	0xbbe3bf09	-0.0069502634
181	0xbc0dbeb1	-0.008651421
182	0xbb5192b2	-0.0031978306
183	0xb9ca6888	-0.00038606324
184	0x3c2d2412	0.010567682
185	0xbb5b6e46	-0.0033482476
186	0xba067465	-0.00051290385
187	0xbc23c4f3	-0.009995687
188	0x3be48b0c	0.0069745835
189	0xbb5de27c	-0.003385692
190	0x3b4e4551	0.0031474421
191	0xbc3a4745	-0.011369531
192	0x3c0a85cb	0.00845475
193	0x3b4adb56	0.0030953488
194	0xbbabd182	-0.005243481
195	0xbaf0b6d6	-0.0018365036
196	0x3c69c894	0.014269013
197	0xba542c6d	-0.0008093778
198	0x3c23789e	0.009977488
199	0x3b48ce6a	0.003064061
200	0xbb7abcb4	-0.0038259448
201	0x3c4c4ed3	0.012469965
202	0x382c186c	4.103074e-05
203	0x3b4a9788	0.0030913074
204	0xbc0473b6	-0.008084228
205	0x3b612dea	0.0034359642
206	0xba9981dc	-0.0011711675
207	0x3b3b09d8	0.0028539803
208	0xbc59ec31	-0.013300941
209	0x3b0a1318	0.002106851
210	0xba501fa3	-0.00079392846
211	0x3c4a296a	0.012338975
212	0x3c39d90b	0.011343251
213	0x3bde955e	0.0067927083
214	0x3bc0ae8c	0.0058801826
215	0xba0295c3	-0.00049814227
216	0x3a84df4c	0.0010137348
217	0x3b811b68	0.0039400347
218	0x3c450f14	0.012027521
219	0x3c281062	0.010257812
220	0x3b6c5eef	0.0036067327
221	0xbb978dba	-0.0046250494
222	0xbc7b59b3	-0.01534121
223	0x3c2a8545	0.0104077505
224	0x3bbc4c26	0.0057463823
225	0x3b64782d	0.003486167
226	0xbbf0927d	-0.0073416815
227	0xbafc7dcd	-0.0019263566
228	0x3c05424d	0.008133483
229	0x3c769cef	0.015052064
230	0xbb1c29fa	-0.002382873
231	0x3bb76898	0.0055971853
232	0x3c7b5cab	0.015341918
233	0x3bf3edc1	0.007444114
234	0x3c0292f8	0.00796961
235	0x3b19857b	0.0023425508
236	0xbb898ee8	-0.004197944
237	0xbc1452d5	-0.009052952
238	0xbc37b527	-0.011212624
239	0xbbcfc00f	-0.006340034
240	0xbc39d50f	-0.011342301
241	0xbc5cd26a	-0.013477901
242	0xbc1e6ed9	-0.009669983
243	0x3c65bc51	0.014021949
244	0x3b28be8d	0.0025748343
245	0xbbff47b6	-0.007790531
246	0xbb9720ce	-0.004612065
247	0x3c030da4	0.007998858
248	0x3be2cf37	0.0069216746
249	0x3c691f27	0.014228619
250	0x3c02fad5	0.007994373
251	0xbb7c47de	-0.0038494985
252	0x3c11caba	0.008898431
253	0xbbaf7357	-0.0053543258
254	0x3c80843e	0.015688058
255	0x3c0ecdd8	0.008716069

action_model._discrete_distribution.branches.0.bias f4 [2]
0	0x3c416e33	0.011806059
1	0xbc416e33	-0.011806059

54 f4 [2]
0	0x477d6b2a	64875.164
1	0x44159112	598.2667
