results/flappy_genetic_7/FlappyBirdAgent/FlappyBirdAgent-14334.onnx (onnx, 534229 bytes, 10 tensors)

network_body.observation_encoder.processors.0.normalizer.running_mean f4 [2]
00000000: 5ac5 41c6 be30 25c3
-12401.338 -165.1904

network_body._body_endoder.seq_layers.0.weight f4 [256, 2]
00000000: 13a8 633f f76a a23e 6f60 9dbe 6e85 fe3e
00000010: 144c a73f b206 a93e 55df 823f 50eb 083f
00000020: 67bd cb3d c4e1 d1bd 8053 4cbf 9acb 63be
00000030: 84bb 61be d48b ddbe 9124 f13e d158 23bf
00000040: 6a50 97be 12a6 d8bf 3e72 4d3f ffb4 b53d
00000050: 1ff8 093f 6044 f13e 0288 4abe 2ca7 5b3e
00000060: 649b 0a3d 3bbb 1d3f 18a7 58bf 8204 aabe
00000070: 5174 d13d 5fa3 89bf 22d7 8f3f 0538 ea3e
00000080: d4b6 adbf f2ac d23e ce56 30be 0821 463f
00000090: e144 cebe dcd2 cc3e 9e8e 48be 0364 9e3f
000000a0: 74f9 853e 7d62 36bf c8e1 963e 3efd 063f
000000b0: 5581 d43f d30f 61be c3a8 c33d ff44 9dbf
000000c0: ffc7 743e 8f67 8b3f 7e9a 1a3e d0f2 903f
000000d0: 5168 87bf b5c8 1ebf 0362 a33e 7bae a53f
000000e0: 2605 7b3f 54aa 15bd d600 52bf 3eb5 d23e
000000f0: fae2 333f fcd9 72bf 301f bd3f ae71 7ebe
00000100: e3d1 1bbe 0801 843f 4bca ad3d b948 54bf
00000110: 5b72 a63e 5b67 a3be ebff ed3e 248b 66be
00000120: b195 44bf c380 c93f 0ac3 f73f a333 8fbe
00000130: de67 c03c 2539 3bbf 54bd 463f 0a50 973e
00000140: dc31 6c3e e431 6abe a523 7b3f 1cc9 693f
00000150: c2bb ce3e 742a 9ebe 7f51 bbbf 9ac8 c83e
00000160: 00aa 4fbf d5ad 2cbf 5935 113e bfa5 48bf
00000170: 64f2 1e3d cfaa 7a3e 4d8c 4ebf fb9a a93f
00000180: 0969 0ebf 85fc 063f 991c 48bf a75d e7be
00000190: 9efc 2d3f 2eb2 b5be 902f 883e adc2 e1be
000001a0: 1df1 aabe 3055 4ebf 5b1f 083e d063 06bf
000001b0: 37e2 e1be ae35 4c3f 2a1d 62be 21f7 f2bd
000001c0: 0631 373f e226 3d3f 6c3b 62bf b29f 17be
000001d0: 2b3f 7c3f 7642 1cbf 5ae2 523e cf3e 27bf
000001e0: 19fa 19bf 1d72 25bf c1e6 8d3e e980 6abf
000001f0: a381 483e fdce 15bf f883 823f b7a7 a6bf
00000200: 141f 873e 28c4 b0be bd56 2c3e 6473 043f
00000210: 5da6 693f 6266 69be 6088 123f 2b44 67bf
00000220: 20cf 9abf d0d2 a4be 836b 83bf c6f4 4f3f
00000230: 6d08 3bbf d481 53bf 9bf0 113e bb3a f6be
00000240: 3c12 173f d38b 89bf d60d f3be 9189 0c3f
00000250: bfeb 9abd 487a a33f 4189 773c 5c5c 163f
00000260: 9cb3 013e 2dd1 abbf 0f2a a43d 552b 2cbf
00000270: de80 57bf 4357 9b3e a38f 003f a9ba 5e3f
00000280: 67bf 083e 63ec 1c3f f9f4 5e3d 97a8 8c3f
00000290: 19a6 8c3f dd4c 95be 99d8 5c3d 0322 153f
000002a0: 2dc1 39bf d1fe 2b3e 9136 41bf 8f8e 37be
000002b0: 6ff4 2a3f 6fba 31be 94a4 48bf ca71 8bbe
000002c0: 2d1f 0abf 5c00 2a3f 6bc3 12be d73d 3e3e
000002d0: 534d d3be 9388 75bf 18de 25bf f9ea bebf
000002e0: 379c a03e fecd 51be d3a0 d6be 1f42 363f
000002f0: 51f8 2d3e 8ba1 c0be d76d 763e db8b 5cbf
00000300: 074a 083f bb4b 603d 0bfe 01bf ab0d cebf
00000310: cb47 b63f e555 1c3f deea 46bf 2242 3ebe
00000320: d077 9b3e c8b3 71bd 621d 00bf c995 08bf
00000330: 216b 923d 0384 033d 0c52 0bbf b078 5e3f
00000340: fd8b 5fbf ba53 ccbe 3342 d5be 4974 5d3e
00000350: 997e 45bf e229 023f b2d0 c4be 120c 2b3f
00000360: b1d7 b63f 5e06 0ebf a8b2 31bf 3fee d13e
00000370: affb e4be 59cc c3bd 5029 dd3e 0963 17be
00000380: 6a3a d7bb 45d3 75bf fda3 45be 2d91 95bf
00000390: 1b11 203c 1338 273f 8aab a93e d76a 1e3e
000003a0: 15ff bebe d17a 1ebf 6dae 863f b436 753f
000003b0: 0440 883f ab92 acbe 7e02 b53d 7448 fabd
000003c0: 9e65 36bf ba8b 733f a577 f9bd 9ef6 883e
000003d0: d344 a3be 0568 9c3e 8ec9 06bd cfa5 65be
000003e0: dbcc c5be 70ae 32bf ca2f b1be 8dcf 873f
000003f0: 1862 1d3e 1ab8 2bbf aaec a9bf 708f b63f
0.88928336 0.31722233 -0.30737635 0.49711174 1.3070092 0.3301292 1.0224406 0.5348406
0.09948235 -0.102481395 -0.7981491 -0.22245637 -0.22044188 -0.43270743 0.4709821 -0.638074
-0.2955354 -1.6925681 0.80252445 0.08872413 0.5389423 0.47122478 -0.19778445 0.2145049
0.0338396 0.61613816 -0.84629965 -0.33206564 0.10227264 -1.0752982 1.1237528 0.45745865
-1.357142 0.41147572 -0.17220613 0.7739415 -0.40286925 0.40004623 -0.19585654 1.2374271
0.2616688 -0.7124403 0.29469132 0.52730167 1.6601969 -0.21978693 0.09553673 -1.2286681
0.23904417 1.0890979 0.15097997 1.13241 -1.057871 -0.62025005 0.31910715 1.2943872
0.9805473 -0.03653939 -0.82032526 0.41153902 0.70268214 -0.9486387 1.4775143 -0.24848053
-0.15216784 1.0312815 0.0848585 -0.82923466 0.3250912 -0.3191479 0.46484312 -0.22514015
-0.7679091 1.574242 1.9356396 -0.27969083 0.023487028 -0.7313407 0.7763264 0.29553252
0.23065895 -0.22870594 0.98101264 0.91322494 0.40377623 -0.30891764 -1.4634246 0.39215547
-0.81118774 -0.67452747 0.14180507 -0.7837791 0.03880538 0.24479221 -0.8068283 1.3250421
-0.5562902 0.52729064 -0.78168637 -0.4518864 0.6796359 -0.35487503 0.26598787 -0.44093838
-0.3338708 -0.80598736 0.13293211 -0.5249605 -0.441179 0.7976941 -0.22081438 -0.11863542
0.7155918 0.73887455 -0.8837192 -0.14807013 0.98533887 -0.6103891 0.20594159 -0.65330213
-0.60147244 -0.6462725 0.27715114 -0.9160295 0.19580702 -0.58518964 1.0196524 -1.3019933
0.26390898 -0.34524655 0.16829963 0.5173857 0.91269475 -0.22792962 0.5723934 -0.9033839
-1.209446 -0.32192087 -1.0267185 0.8123287 -0.7305973 -0.82619977 0.1425194 -0.48091683
0.590122 -1.0745796 -0.47471493 0.5489741 -0.07564496 1.2771692 0.0151084075 0.5873468
0.12666172 -1.342321 0.080158345 -0.6725362 -0.8418101 0.30340013 0.5021917 0.8700357
0.13354264 0.612982 0.054432843 1.098895 1.0988189 -0.29160205 0.0539175 0.5825502
-0.7256039 0.16796423 -0.75473887 -0.17925476 0.66779226 -0.17356275 -0.78376126 -0.27235252
-0.5395382 0.664068 -0.14332359 0.18578278 -0.4126993 -0.9591152 -0.64792013 -1.4915458
0.31369182 -0.20488736 -0.41919574 0.7119464 0.16989256 -0.37623248 0.24065338 -0.861509
0.53237957 0.054759722 -0.50778264 -1.6097921 1.424066 0.61068565 -0.7770213 -0.18579915
0.30364847 -0.059009343 -0.50044835 -0.53353554 0.071493395 0.032108318 -0.5442207 0.86902905
-0.8732298 -0.39907628 -0.41652068 0.2162639 -0.771463 0.5084516 -0.38440472 0.6681529
1.4284574 -0.55478466 -0.6941323 0.4100208 -0.4472327 -0.095604606 0.4319558 -0.14783873
-0.006568243 -0.96025497 -0.19300838 -1.1684929 0.009769703 0.6531994 0.33138686 0.15470444
-0.37303987 -0.6190615 1.052198 0.95786595 1.0644536 -0.3370565 0.08838366 -0.122208506
-0.71248806 0.9513508 -0.121810235 0.26750654 -0.31888446 0.3054811 -0.03290706 -0.22426532
-0.38632855 -0.6979742 -0.34606773 1.0610214 0.15369451 -0.6707779 -1.3275349 1.4262524

network_body._body_endoder.seq_layers.0.bias f4 [256]
00000000: 0b76 ee3b e01b bcbb 5d69 0c3c f812 82bb
00000010: 4e59 a73b 59dd ccbb bfa7 3c3a 0bc9 b5bb
00000020: 3cd3 493b 03d8 233c 2651 b13b 62d0 cdbb
00000030: e7c5 a6bb fb04 81ba 0929 d4bb 6374 17ba
00000040: 578a 8fbb cc14 c4bb dc42 863b 4d82 97bb
00000050: 9537 b1ba 73a1 13bb cd9d b93b dd8e 89bb
00000060: b6a7 41bb b636 9f3a 6f29 f8ba 6269 84bb
00000070: 457a 6a3b 156e 10bb c6dc 2e3b 9900 313b
00000080: 37b9 84bb 4e19 c6ba 20e7 e43b 3800 c73b
00000090: 06b1 82bb 2d24 843b a33b 583b a837 4bbb
000000a0: e646 e93a 45c6 d93b f485 e93b 28b9 5cbb
000000b0: a058 e2b6 eb3a 6e3b 147b abbb be5d a5bb
000000c0: dcba a3bb 6260 263b 7b4f a93b e3f3 713b
000000d0: df5d 93bb 9b93 963b 64a3 afbb 3634 4439
000000e0: 1696 0b39 8e23 0bbb a1cd db3b fccc ac3b
000000f0: f0e6 a7ba 25ce be3b c9f9 80bb 7ba9 82bb
00000100: ef82 c23b 8a0f e93b c89b f13b 4065 cebb
00000110: a57f babb f0a1 93bb ff91 aa3b 4c67 cc3b
00000120: 0c19 2c3b e1a0 aebb 1c69 f33a bf89 c03b
00000130: 4341 953b 0bf7 11bb 676c cfbb 69ad 21ba
00000140: 1901 1ab9 05cb 84bb 4f44 f13b 5ca9 ee39
00000150: df34 22b9 1d4b 093b e9ad ec3b 5ba6 8fba
00000160: 8f66 8b3b a282 873b 8d36 81bb 08d2 383b
00000170: 3de2 9e3b 91b3 fdbb 6e6f 0b3b 99aa 41bb
00000180: 8a6f e63b 5659 633b 1592 a1bb f827 2bba
00000190: b207 f13b a34b 193b 30ad 9f3b aa77 ba3b
000001a0: 1ea8 dabb f9df bfbb 5712 96bb d74e b1bb
000001b0: 9c09 993b 567d 1fbb 8a5c 0fbc 5d39 5cbb
000001c0: 2198 883b 69d9 adbb de50 88ba 1fcb babb
000001d0: da52 9dbb c6f9 d73b 685b c73b a5e7 033a
000001e0: 4650 faba 27a1 90bb f421 d8bb f9c6 2cbb
000001f0: 8161 593b dc88 593b 3e55 0c3b 1c89 a03b
00000200: 8f80 da3b 50a6 c4bb d570 c2bb 2d2a c8ba
00000210: 0d56 83bb 13af 64bb 7a06 12bb d39f 99bb
00000220: 6289 bd39 b3a9 91bb e8e0 bdba bf96 83bb
00000230: f8c7 32bb 8dc7 c7bb 0a02 88bb b406 36bb
00000240: 60e4 cb3a 81ee dd3b 7599 bbbb ec88 863b
00000250: 6872 b43a 685a bb3b b017 a13b cb4c 503b
00000260: e7f2 f13b aef6 9eba 3fdb acbb dbb8 9dbb
00000270: c6f1 dcbb 8705 c73b f510 8bbb f212 38bb
00000280: 1b9f 4cbb 923c b63b 4e13 ec3b 23da 013c
00000290: 1bc2 d7bb 428d 80bb 0642 a4bb 451b c83b
000002a0: 187a a03b 13dc 85bb 3529 90bb 5e88 c63b
000002b0: 1380 ca3b 1561 7e3b a8d7 fa3a afb0 c23a
000002c0: bf4e e03b 31af 90bb 1da8 52bb 8a9b edbb
000002d0: 60a9 6fba f7b9 fdb9 5c0d 013b 4e04 35bb
000002e0: 0345 323b a1e3 0e3b c8eb de3b 1bb0 a13b
000002f0: 3d36 cf39 541e 573b 215e bbbb b9eb 85bb
00000300: cece 023b feec 9b3b 5020 a0bb 1216 843b
00000310: 7724 c5bb 175c b9ba 5eda eb3b d1fc 6cba
00000320: 2067 68bb 036e c2bb 3d32 59b8 b64f 833a
00000330: bc86 72bb ff04 db3b 4fc8 8bba 6e2a cbbb
00000340: 83df e13b 456d 0d3b 8ec7 b83b 776f 7a3b
00000350: 8dde d73b b3be 40bb aeac 00bb ce69 8bbb
00000360: 9bb4 dc3b b728 073b 62ab c93b 8b98 1d3b
00000370: a85c e93a 033c c4bb 6aa1 d03b 6498 9fbb
00000380: 14b2 8ab5 f4f2 d83b 58dd 8d3b d16c 0f3b
00000390: a864 a6bb 43fe a2bb 4089 3bba d575 6d3b
000003a0: 9d33 3e3b fe08 b4bb 8ecd 5f3b e6e8 12bc
000003b0: c953 dcbb a1f4 cf3b 31f9 8bbb f9f8 8f3b
000003c0: 4fd1 bb3b 3e3d 0e3b 8d1c 493a 7219 293b
000003d0: 3f39 df3b e720 aebb 0d75 14ba 8657 a6bb
000003e0: e721 f83b cd56 6e38 071d 59bb 89a9 b33b
000003f0: e938 7bbb be2f e63b fd38 66b9 9d3f 63bb
0.0072772554 -0.0057406276 0.008570042 -0.0039695464 0.0051070815 -0.0062519726 0.0007196627 -0.005547648
0.0030796072 0.010000232 0.005411285 -0.0062809447 -0.0050895098 -0.0009843403 -0.0064746183 -0.0005777536
-0.004380505 -0.0059839245 0.0040973257 -0.0046236874 -0.0013520593 -0.002252665 0.0056645633 -0.004197939
-0.0029549426 0.0012147042 -0.0018933247 -0.004040883 0.0035778445 -0.002203827 0.0026681884 0.0027008413
-0.0040503996 -0.0015113743 0.00698556 0.006073024 -0.003988388 0.004032633 0.003299453 -0.0031008516
0.0017797619 0.00664595 0.007126564 -0.0033679698 -6.745642e-06 0.0036351036 -0.005233178 -0.0050465753
-0.0049966406 0.0025387038 0.0051669455 0.003691905 -0.0044972743 0.0045952327 -0.005360054 0.00018711467
0.00013311984 -0.002123091 0.0067078625 0.0052734595 -0.0012809914 0.005822914 -0.0039360267 -0.003987489
0.0059360187 0.007112448 0.007373307 -0.006298691 -0.005691486 -0.0045053884 0.0052053924 0.0062379
0.0026260046 -0.005329237 0.0018570754 0.0058757956 0.004554899 -0.0022272493 -0.0063300612 -0.0006167503
-0.00014686993 -0.004052522 0.0073628793 0.0004552108 -0.0001546922 0.0020949312 0.00722288 -0.0010959612
0.0042541693 0.0041354457 -0.0039432705 0.002820136 0.004848747 -0.0077423532 0.0021276134 -0.0029551147
0.0070323395 0.00346907 -0.0049307444 -0.0006529088 0.0073556537 0.002339103 0.0048729405 0.0056905346
-0.006672873 -0.005855557 -0.004579823 -0.00541101 0.004670335 -0.002433618 -0.00875009 -0.0033603527
0.004168526 -0.0053054583 -0.0010400077 -0.0057004835 -0.0048011364 0.0065910546 0.0060838945 0.0005031771
-0.001909741 -0.004413742 -0.0065958444 -0.0026363714 0.003316969 0.0033193147 0.0021413113 0.004899157
0.0066681574 -0.0060012713 -0.005933861 -0.0015271358 -0.004008061 -0.0034894391 -0.0022281692 -0.004688242
0.00036151247 -0.0044452786 -0.0014486583 -0.004015773 -0.0027279835 -0.0060967864 -0.0041506337 -0.0027774991
0.0015555732 0.0067728166 -0.0057250806 0.004105678 0.0013767006 0.0057175644 0.004916154 0.0031784053
0.0073836925 -0.001212796 -0.0052751596 -0.0048132963 -0.006742689 0.006073657 -0.004243965 -0.0028087464
-0.0031222764 0.0055614198 0.0072044497 0.007925543 -0.0065844185 -0.0039230892 -0.0050127534 0.0061067664
0.004897367 -0.004085073 -0.0043994435 0.0060587367 0.0061798184 0.003881519 0.0019137757 0.0014853681
0.0068453248 -0.0044154157 -0.003214366 -0.0072512077 -0.00091423653 -0.00048394475 0.00196918 -0.0027620974
0.0027201779 0.0021803158 0.0068030097 0.0049343235 0.00039522527 0.0032824473 -0.005718008 -0.004086938
0.001995969 0.0047584763 -0.0048866645 0.0040309513 -0.00601631 -0.0014141825 0.0071976623 -0.0009040358
-0.0035461858 -0.0059335246 -5.178362e-05 0.0010018263 -0.0037006577 0.006683945 -0.0010664555 -0.0062001264
0.0068930998 0.0021580022 0.005639023 0.003821341 0.0065878094 -0.002941054 -0.0019634175 -0.0042545563
0.006735397 0.0020623633 0.0061544636 0.0024047222 0.0017804103 -0.0059885993 0.0063668983 -0.0048704613
-1.0333629e-06 0.006620759 0.0043293647 0.0021884928 -0.005077917 -0.004974158 -0.0007153936 0.0036233563
0.0029022463 -0.005494236 0.003414962 -0.00896666 -0.006723855 0.0063463007 -0.0042716493 0.0043936935
0.0057317386 0.0021703984 0.0007671796 0.002580252 0.006812244 -0.005313981 -0.0005663194 -0.0050763516
0.007572401 5.682446e-05 -0.0033128874 0.0054828566 -0.0038333482 0.0070247343 -0.00021955739 -0.0034675368

network_body._body_endoder.seq_layers.2.weight f4 [256, 256]
00000000: 4a19 27bc 8801 963a f14e 7fbb 62c9 603d
00000010: c006 8cbd f187 13bd 8506 1c3c 16e4 013b
00000020: d3c7 34bd c60e 1a3d 0e69 143e 5e78 443d
00000030: aa0d 9dbd 7069 09bd 5603 023d d33b 2b3b
00000040: d5e0 a13c f48b d03d 50f9 a6bd dd3e 4f3d
00000050: a0b8 603c 568c 903d 4ff0 10bd bf0a a23c
00000060: 7d0b 653d 0ca1 8a3c 046d 613a e8d7 ecbd
00000070: 5f45 573d d38a aabb 0c7f 92bd ad6f 18bd
00000080: 215a 953d 96fb 953c 719b 58bd 740a 903d
00000090: c81a 06bd 1424 ffbc 3e3c f1bb 9da3 c8bd
000000a0: 929e f53b 3442 033e 8733 de3c 5634 4cbd
000000b0: 95e7 c3bc 7654 5bbc 2fa9 f13c 0a30 b63c
000000c0: c195 8f3d f366 54bd fea5 9e3b ca27 11bd
000000d0: dbc2 bc3d 8f3a a9bd 105d b43d c5f0 6fbd
000000e0: aa4c 74bc 3e17 9c3d 1d9d d53d 93c2 21bd
000000f0: 5fe9 963d 5fd0 803d 3194 37bd 4b8e 2dbb
00000100: 11ba 223d ca95 153d b3e9 56bb b61d 053d
00000110: 3e77 893c a7e2 a13c 5195 b23d 4a0b 543c
00000120: 0919 123e 3294 a43d d602 d33d c930 ebbc
00000130: 0f0c 8f3d a772 77bd 15de 43bd d02a 27bd
00000140: a5a6 51bd edaf d33c 8d97 9c3d 74e8 82bd
00000150: ac0a 63bd 2739 4e3c 6067 26bd 4034 babd
00000160: 069d 0b3b 3cb5 763d 8697 1b3d b3cc b73b
00000170: 9386 f0bd 3f7f 843b 4d9d 34bd bc02 f6bc
00000180: 09a9 043c fd8c 7bbd 8ce7 86bd 3d5e 90bd
00000190: 8c82 aa3c 123f b13d abe1 deba c81b ad3d
000001a0: bc92 82bd 49f4 a1bd f9c2 9eba b8ab 503c
000001b0: a0bb df3d 9448 6f3d 59bd e7b9 7875 203d
000001c0: 5e41 b43c b666 983d 224f b2bc d227 f53c
000001d0: fcb4 193c 8a9f d4bd f9c7 7fbb 0cb5 85bd
000001e0: 208f cf3c 4039 a838 462d 14be 130a fabd
000001f0: ded0 c8bc b7d4 3a3d ed16 f7ba 34c2 c7bc
00000200: 8913 5ebc d4f9 bcbc 5ebd 623b 3689 79bd
00000210: 9d4f a4bd 89cf 06bc f4aa a0bc 3b80 fb3b
00000220: b156 1bbc 3c8a 69bd a428 ed3c 9373 b63c
00000230: 2c85 2ebd 58d8 f5bb 814c 3dbd 9d03 153d
00000240: 0ed0 68bc bb4e 793b ac04 dd3c 7ae6 153d
00000250: 7b7d c0bc 6f11 35bd 34e2 c73d 5fa5 f9bb
00000260: bf99 4d3b a3a1 7dbc 4cf4 05bd 173a 2dbc
00000270: 139f 96bc 8025 663d 5d71 6dbd 2526 db3d
00000280: 418b 8c3b ccae e73d 7b63 2bbd e211 6bbd
00000290: 3e65 e73d 83f1 bf3c bfea 13bd 9e12 723c
000002a0: a1b0 50bd cbc2 d23d 8d0f 7f3d aadb 96bd
000002b0: 193a e2bc 23be 333e 47e1 a1bd 4e5c d03d
000002c0: 7730 943d a896 1dbc 6f0b 22bd d27c d3bc
000002d0: b99f cbbc 75ad ba3d 880a d4bc d12e 023c
000002e0: 8965 e83c e7e8 c63c dad8 10bd 8673 8a3c
000002f0: f60a e53d 46a5 763d 9e23 04bc 61b6 5ebd
00000300: 96fb 18bd 4cc2 c7bd 6c19 9f3c cb72 1e3d
00000310: 9dfa 0bbe 536f 873c b765 ddbc 08a1 cabc
00000320: 2064 3f3e b955 e33d 74c4 813d d3aa bc3d
00000330: 844a 2fbd 91e6 90bd ad86 8abc 549e 64bc
00000340: e39a debc 6cd2 ad3d 2925 773d eff5 a03d
00000350: d81b 6f3d 98d7 45bd 5b2c 1abc bedc c6bc
00000360: dccb 24be 0094 71bd 4829 883d 4363 87bc
00000370: 5fda 683a 7a27 a03c 8f64 583c f45f 06bd
00000380: 76b6 593b 08e2 343d 552f 02bd 7ea5 1bbd
00000390: 9b19 11bc 889e 01bd ba14 bb3c 7c24 a83d
000003a0: 5228 8a3d 62c8 26bd 80ac 143d 7e9b 23bd
000003b0: 6525 8fbc dd52 f5bd e595 11bd ad45 14b9
000003c0: bd3c bc3c 49e3 97bc cbd2 bd3c c98b ef3b
000003d0: ea70 37bd 0799 29be 62c2 c8bc 5163 12bd
000003e0: b474 693d d19d 3ebd 718d dcbd ac43 f33a
000003f0: 8146 0fbd 75b0 9abb 692c 82bd 5c9e 92bd
-0.0101989005 0.0011444548 -0.0038956965 0.054879554 -0.06837225 -0.036018316 0.009523039 0.0019819788
-0.04413588 0.037611745 0.144932 0.047966354 -0.07668622 -0.03354782 0.031741463 0.0026128187
0.019760529 0.10182944 -0.08153021 0.05059706 0.013715893 0.07058017 -0.035385426 0.019780515
0.05591916 0.016922496 0.00085993134 -0.11564618 0.05255639 -0.0052045374 -0.071531385 -0.037215877
0.07292581 0.018308442 -0.052882615 0.07033244 -0.032740384 -0.031145133 -0.0073619178 -0.09796832
0.0074957097 0.12818223 0.02712418 -0.0498546 -0.023914138 -0.013386836 0.029499618 0.022239704
0.07010985 -0.051855993 0.004841565 -0.035438336 0.09216853 -0.08263122 0.08806813 -0.058579225
-0.014910856 0.076216206 0.104303576 -0.0394922 0.07368731 0.06289744 -0.04481906 -0.0026482518
0.039728228 0.036519803 -0.0032793104 0.032499038 0.016780492 0.019761397 0.08719886 0.012942145
0.14267363 0.080360785 0.10303275 -0.028709786 0.06984722 -0.060412075 -0.047819216 -0.040812314
-0.051184315 0.025840724 0.076460935 -0.06391993 -0.0554301 0.012586868 -0.04062593 -0.09091997
0.002130331 0.060231432 0.0379863 0.005609119 -0.11744418 0.004043489 -0.044095326 -0.0300306
0.008096942 -0.061413754 -0.06587133 -0.070492245 0.020814203 0.08654608 -0.001700451 0.084525645
-0.063756436 -0.07907922 -0.001211255 0.012736253 0.109244585 0.058418825 -0.00044200828 0.039174527
0.022003826 0.074414656 -0.02176625 0.029926214 0.009381529 -0.10381992 -0.0039029105 -0.065286726
0.025336802 8.021528e-05 -0.14470395 -0.12208953 -0.024513658 0.045613017 -0.0018851437 -0.024384595
-0.013554462 -0.023068346 0.0034597735 -0.06092187 -0.080229975 -0.008228191 -0.019612767 0.0076751984
-0.009481118 -0.057016596 0.028950043 0.022271907 -0.04260747 -0.007502597 -0.046215538 0.0363804
-0.01420976 0.0038041312 0.026979767 0.036596753 -0.023497334 -0.04420608 0.09759942 -0.0076185907
0.0031372157 -0.015480432 -0.032703683 -0.010572932 -0.0183864 0.056188107 -0.05796944 0.10700635
0.0042890613 0.11312637 -0.04184292 -0.0573901 0.11298607 0.023430591 -0.036112543 0.0147749465
-0.050949696 0.1029106 0.06227069 -0.07366116 -0.027615594 0.17553 -0.07904296 0.10173856
0.072358064 -0.009618439 -0.039561685 -0.025816355 -0.024856435 0.091151156 -0.025883928 0.007945732
0.028368728 0.024280978 -0.035363056 0.016900789 0.11183731 0.06021621 -0.008065132 -0.05437315
-0.037349306 -0.09753856 0.019421302 0.038683694 -0.1366982 0.016532576 -0.02702604 -0.024734989
0.18690538 0.11100335 0.063362986 0.0921227 -0.042795673 -0.07075227 -0.016909922 -0.013953764
-0.027173465 0.084874004 0.060338173 0.07859408 0.058376163 -0.04830131 -0.009409989 -0.02427518
-0.16093391 -0.058979034 0.06648499 -0.016526824 0.00088826375 0.019550074 0.013207569 -0.03280635
0.0033220327 0.044160873 -0.03178342 -0.037999623 -0.0088562025 -0.031645328 0.022837032 0.08210084
0.06745972 -0.040718444 0.03629732 -0.03994321 -0.017473886 -0.119786955 -0.03554334 -0.00014140336
0.022978181 -0.018540995 0.023171803 0.007310365 -0.044785418 -0.16562282 -0.024506751 -0.035739247
0.056996062 -0.046537224 -0.10769165 0.0018559597 -0.034979347 -0.0047207423 -0.06356127 -0.07159111

network_body._body_endoder.seq_layers.2.bias f4 [256]
00000000: 50ab 8dbb 5271 db3b 6031 c1bb bda8 ebbb
00000010: d7dd 5dbb 6491 a9bb 51f6 66bb 19c9 dd3b
00000020: 1eb1 18bb 7085 08ba e33e d1bb fd0a f0bb
00000030: 568f b43b 32da 9ebb b418 b93b 3d67 cebb
00000040: 3376 cbbb 84ff 9f3b 03bf d13b f0b2 4ebb
00000050: 621b 80b8 4f87 b03b a54d edbb 2fb4 7fbb
00000060: 6f96 d4bb 824a c33b 6b1c 6c3b 5a00 233b
00000070: 8888 d9bb 2ea4 dc3b 051c 3ebb 3403 c13b
00000080: 4aa4 f63b fec8 e93b a12e 193b 2f59 cabb
00000090: 7e8d debb bab8 aebb 13e4 c93b f6eb 8e3b
000000a0: 7c63 cd3b ab46 b93b 1afc 0cbc dd39 503a
000000b0: b793 e5bb f20b a53a 6b4e 93bb 917c ac3b
000000c0: fe09 d43b 2204 bcbb 9a59 e9bb 6fa3 9739
000000d0: c679 64bb 5f45 723b 9632 8bbb 1cee b63b
000000e0: efed 89bb 2315 8abb eea1 223b fc5e 7838
000000f0: d292 b7bb ed31 b1bb efc1 bf3b 9be6 ac3b
00000100: 7eec b5bb c0bc d7bb e8a7 81bb 1b5b a73b
00000110: 51b5 dc3b 2ede 9a3b 768a bc3b ba09 94bb
00000120: 42d7 35ba 80cd a6bb 21ec b43b 3aee d0bb
00000130: 541f ddbb 7332 803b 0590 db39 5844 d03b
00000140: 6c38 723a b65c b4bb e50f b3bb 0e3c d33b
00000150: a256 ed3b bb99 c73b e430 a13b 64d6 f5bb
00000160: 1be2 c43b 28a4 dc3b 4d6e d93b f043 8cbb
00000170: e88d b43b 686d 9fbb 330f e6bb 0304 c9bb
00000180: 3761 be3b 4a08 bd3b 422f a93b 469b c7bb
00000190: ae21 973b 9230 e83b d3b3 133b 04df ea3b
000001a0: 9736 563b e8e4 363a 779d 7339 ca17 1fbb
000001b0: b8c1 893b 791c 6bbb c5f2 e7bb 8740 bd3b
000001c0: 6e0c 9d3b c3a0 9e3a c135 e23b 2e98 d0bb
000001d0: 4c25 93b9 9ac1 1f3b 84e6 fbbb e2f7 d43b
000001e0: 989b c83b d02f 8b3b 303e 62bb 11ab adbb
000001f0: f210 c8bb 4b37 c3bb 694e 013b cc87 f4bb
00000200: 46c6 95bb 10bf a63b 1910 a53b b0da d5ba
00000210: 93e6 69bb 353b debb e040 c7b8 619e e7bb
00000220: 944f 853a f007 c2bb fbe9 c3bb bbab abbb
00000230: f9b9 eebb 1b6b a73b 2f2e c93b 0793 95bb
00000240: c69c b8bb 0912 4c3a 6661 de3b 16af b1bb
00000250: ab5d 82bb 4fe4 94bb 908b 503b 3405 9dbb
00000260: c6ae ba3a 88c8 9cbb d390 c1bb 8170 adbb
00000270: 0e19 b8bb c52e 4dbb b141 c1bb 0cc6 c0bb
00000280: 7fba a1bb 51cb 97bb c943 03bc 13c0 b3bb
00000290: e504 ad3a 0310 73bb 9b97 8dba e0c8 9b3b
000002a0: bad2 d3bb fad0 d3bb c7ef abbb 2df4 0d3b
000002b0: 5e67 afbb e370 803b 6897 e03b 11da d43b
000002c0: c693 e7bb e718 df3b de80 c5bb 2e58 b13b
000002d0: 1096 cabb 2a4f a8bb b684 2c3b c57b acbb
000002e0: 02e4 2ebb 7d6b 87ba ae49 cebb c80a 383b
000002f0: b409 d83b 6706 363b 3afc c03b 282e f3bb
00000300: c664 803b 51a9 98ba 3d8f e3bb c7ad d0bb
00000310: 5fad 883b 9c7f 313a 4f74 cbbb 6820 6938
00000320: c9a5 553b 495a 83bb f9ce f83b 3af5 ca3a
00000330: e6d7 c23b 6787 003b 6c75 103a 6dd6 d43b
00000340: dc43 dd3b 65c0 dd3b 7d3d debb a03f abbb
00000350: 23c6 3c39 15f5 c2bb f068 db3b ce40 94bb
00000360: 7454 943b 8da1 b93b 577b 053b 5559 8b3b
00000370: f9e4 3dbb 3b77 c93b 5682 d13b bbf7 95bb
00000380: 172d 90bb acc9 c13b 34c3 c23b 5249 5f3b
00000390: 0b5f d2bb 0a1a 0b3b 0b88 d93b a4bc e73b
000003a0: 6a79 813b bd15 ccbb 9d8a 82bb 2010 dcbb
000003b0: 8edf ae3b 5c8e b3bb 85fd c13b 6b16 8b3b
000003c0: 4528 60bb 76a0 9d3b 49c1 a33b 9b50 cdbb
000003d0: 0146 9f3b 6c61 7c3b 4af9 cbbb ca8c e0bb
000003e0: 74d0 c93b 6933 d0bb 8076 e9bb 96f4 cfbb
000003f0: e6c5 a23b 8725 babb f45d abbb d3d0 dcbb
-0.0043234006 0.0066968584 -0.0058957785 -0.007191746 -0.003385415 -0.0051748026 -0.003524203 0.0067683575
-0.002329893 -0.0005207872 -0.0063856705 -0.0073255287 0.005510251 -0.0048477883 0.005648697 -0.006298928
-0.006209159 0.0048827548 0.006400944 -0.003153976 -6.108616e-05 0.005387224 -0.007241922 -0.003901731
-0.0064876596 0.0059598098 0.003602768 0.0024872036 -0.0066385902 0.006733439 -0.00290084 0.0058902744
0.007526909 0.007134556 0.002337374 -0.0061751823 -0.0067917695 -0.0053320797 0.006161222 0.004361625
0.006267963 0.005654176 -0.008605028 0.00079431926 -0.0070061344 0.0012592061 -0.004495432 0.005263873
0.0064709177 -0.0057377974 -0.007121277 0.00028922732 -0.0034862622 0.0036967618 -0.0042479737 0.005582584
-0.004209272 -0.0042139455 0.0024815756 5.921627e-05 -0.005602219 -0.005407563 0.005851976 0.0052765138
-0.0055518737 -0.00658378 -0.0039567836 0.005107296 0.006735482 0.004726193 0.0057538105 -0.004517761
-0.0006936678 -0.0050904155 0.005521313 -0.006376055 -0.0067481194 0.003912264 0.00041878238 0.0063558035
0.0009239975 -0.005504216 -0.0054645413 0.006446368 0.0072429935 0.006091324 0.0049191583 -0.007502364
0.006008399 0.006733436 0.0066354633 -0.0042805597 0.0055100806 -0.004865337 -0.007020855 -0.0061345114
0.0058099288 0.0057688104 0.0051631043 -0.006091508 0.004612169 0.007085868 0.0022537604 0.007167699
0.0032686347 0.0006976859 0.00023232946 -0.0024275654 0.0042040013 -0.0035875125 -0.007078501 0.0057755145
0.0047927415 0.0012102354 0.0069033806 -0.0063657975 -0.00028065813 0.002437687 -0.0076873917 0.0064992765
0.006122064 0.004247643 -0.003452193 -0.0052999337 -0.0061055357 -0.005957519 0.0019730574 -0.0074624773
-0.004570755 0.0050886944 0.0050373194 -0.0016315784 -0.0035690411 -0.0067819604 -9.501143e-05 -0.007068441
0.0010170811 -0.0059213564 -0.0059788204 -0.0052389777 -0.0072853533 0.0051092035 0.0061395387 -0.004564646
-0.005633923 0.000778467 0.006786513 -0.005422483 -0.0039784512 -0.004543818 0.0031821467 -0.00479188
0.001424276 -0.0047846474 -0.005907157 -0.0052929525 -0.005618221 -0.0031308394 -0.0058977236 -0.005882984
-0.004935562 -0.0046323915 -0.008011767 -0.0054855435 0.0013200311 -0.00370884 -0.0010802628 0.004754171
-0.0064643295 -0.006464121 -0.0052470895 0.0021660433 -0.0053528985 0.003919707 0.0068539865 0.006495722
-0.0070671765 0.0068083885 -0.006027325 0.005412123 -0.0061824396 -0.00513639 0.002632422 -0.005263778
-0.0026686196 -0.0010331717 -0.0062954044 0.0028082598 0.0065929536 0.0027774812 0.0058894427 -0.0074212737
0.003918263 -0.001164714 -0.0069445656 -0.006368372 0.004171058 0.00067710294 -0.0062089334 5.558171e-05
0.0032600036 -0.0040085656 0.0075930324 0.001548446 0.0059461473 0.0019611956 0.0005510661 0.006495288
0.0067524742 0.00676732 -0.0067822323 -0.0052260906 0.00018002889 -0.005949626 0.006695859 -0.004524327
0.004526669 0.0056650103 0.0020367706 0.0042525926 -0.002897559 0.0061482466 0.006393711 -0.004576651
-0.0043999064 0.0059139337 0.00594368 0.0034070802 -0.0064200214 0.0021225237 0.006638532 0.0070720483
0.0039512413 -0.0062281773 -0.003983809 -0.0067157894 0.0053367084 -0.005479617 0.0059201145 0.004244616
-0.003420369 0.004810388 0.0049974066 -0.0062657124 0.00486064 0.0038510216 -0.006224786 -0.006852721
0.0061588828 -0.006353785 -0.007124722 -0.0063462956 0.004967439 -0.005680743 -0.005229706 -0.006738761

network_body._body_endoder.seq_layers.4.weight f4 [256, 256]
00000000: 0f53 40bd c4bc 223d 3fe2 b83d 7604 df3d
00000010: 5fe2 94ba 41de e6bd 72ce 6abd 0fcd 80bd
00000020: 55f4 b13d 666d a33c 4411 6fbc bde1 0a3d
00000030: d7f8 fe3c a6b7 943d 755c a5bc 49b8 9cbd
00000040: 7bad ae3c 6d71 2ebd 3448 0abe 36f1 2b3d
00000050: eb5c d13c 58a5 3bbc 4163 0b3d 2d03 99bc
00000060: c9dc cabc 2b52 183d 90ef 233d b0f8 913d
00000070: abf6 0d3d 7a6d 403d 921f cc3d 0dc4 fd3d
00000080: 34a3 09bd 8574 903b dbc8 a5bd 43f8 4dbd
00000090: f09b 4cbd b425 59bc 3ddc 80bd 8a0c a6bd
000000a0: 44d1 2abd 5bde 183e 098a a63d 06e4 453c
000000b0: 9abf 643d 037a a33d 1aa3 04bc be0d 323d
000000c0: 3078 b33b ffcd 913c 666e 9abd 8dd1 3abd
000000d0: 3d3f 65bb 7fdf 23bd 7fbd 98bd c9c9 8e3d
000000e0: f890 3ebb 7d07 a5bd 921e c4bd 636e 1fbe
000000f0: a94e 723c 5487 acbd 5e1f b2bd 0e5e b8bd
00000100: b7f4 be3d b839 c23c 5a1e c4bd a560 c0bd
00000110: ec49 953d d28c 273d eaac 63bd 6b3c 7d3c
00000120: 7820 a7bc b908 5b3c a9e4 a63d 9960 e0bc
00000130: 1070 4e3c 1dbf 743b 2bd3 353b 4e7d 3f3d
00000140: b4ef aa3c 9410 be3d d6fe 073d 8ef1 9b3c
00000150: df1c 39be fa1c 01bd a019 ebb9 cb1d d63d
00000160: fff9 04bd c5f1 cbbd 3d15 9c3d a860 56bd
00000170: bcbf 7fbd 77e0 923d 3dfe 833d b7a0 993d
00000180: 6af0 d23c fbce 0b3d bac5 41bd 4283 bf3c
00000190: b72b 17be 73e6 af3c d409 62bb 68cb 8d3d
000001a0: bdf1 c73c f03d 00be 1194 bd3c fb20 b9bd
000001b0: 3011 2e3d e3f9 2d3e 2e6e 0ebb ac6d 14be
000001c0: aa98 333d 6329 9abd 51c3 b3bc f768 053e
000001d0: 4bb4 c1bd d7ce 80bd 4c3a 973d 6dfc 66bd
000001e0: 31f2 24bc 7efe 9d3d e977 34bd 9059 113e
000001f0: 928d df3d c832 3bbe e8b8 c93c b5f2 c73d
00000200: c178 c1bd bcbf ea3d dcbf 76bd 9b77 923d
00000210: b45f dcbd 9783 bd3d 0017 1d3d 6f4c 3abd
00000220: 46d2 4e3c 8344 d3bc ea1c b2b9 e325 bcbd
00000230: e44a 9c3d de3a 003c db61 fc3c 1c24 49bd
00000240: 7335 99bb c058 643d 609e bdbd 2a08 bb3d
00000250: 630c 8fbd f6c8 91bc cdac a7bd a69d 723c
00000260: af93 293d 33ce b5bc 8356 97bd 71ce 41bd
00000270: 0159 14bd d07e d3bc dc3a 49bd b561 133d
00000280: 032c b83b 5c5e 1f3d 1b02 cb3c f278 d43d
00000290: bf5e 80bd e042 90bb c907 f73d 5f22 ef3c
000002a0: 7cd6 b73d 77df f93d 480f 62bd f933 3bbc
000002b0: a6ad 903d 4caa 483d 16ed 203c f99c a8bd
000002c0: 1bae 943d 5bfe db3a acc3 efbd 6ce4 88bb
000002d0: 6288 0c3d fc25 5f3d 6629 3e3c 2fb5 a53b
000002e0: 2feb 29bc 35a9 cb3c d0c3 cc3c a933 673d
000002f0: 7a04 c93c 9552 64bb 96ce c9bd 9940 cd3d
00000300: b338 24bd 2df6 1f3b b772 863d e2db 06bc
00000310: fe56 04bd ea7a f8bc 3d4e b0bd fa91 193d
00000320: 5df0 f0bd 9075 89bb 5808 b8bc d5b1 05bc
00000330: cadd 77bd d530 183d f22b bdbd aa4a e6bc
00000340: 70f2 67bc f56d 88bc 8fb3 703d c472 bc3c
00000350: 5e0d 5b3a 80fa 643d 338b 07be c0e9 a53c
00000360: 4f86 6eb9 5f12 07be f77d 833d afe7 c4bc
00000370: 45e7 92bd 99d6 e7bc 0754 0c3e be6c 8ebd
00000380: ba6d 043d eea2 163d e826 a0bd 5755 613d
00000390: 1313 adbd d261 9039 29f0 833a 3f32 29bd
000003a0: bfde e03c 8f89 f43c 4e44 b13d f39d cebd
000003b0: 6fc2 a33c 3d78 d63c e0e0 5abd b48d 213d
000003c0: 3f52 5f3c 7658 aebd c6e4 d53d 0fde 033d
000003d0: 119a 49bb ccf5 3e3d 2834 43bd e173 033e
000003e0: 6ad4 cd3c a8c3 743c 5c2c 28bc 70e6 0c3e
000003f0: 9299 773d b2a4 4a3d 5007 46bd 500c b0bd
-0.04695421 0.039730802 0.09027528 0.10889523 -0.0011358968 -0.1127286 -0.057325788 -0.06289112
0.08689181 0.019949626 -0.014591519 0.033906687 0.031124515 0.07261591 -0.020185689 -0.07652337
0.021322956 -0.04258864 -0.13504106 0.041978084 0.025557002 -0.011452995 0.034030203 -0.018678272
-0.024763482 0.037187736 0.040023386 0.071275115 0.03465907 0.046979405 0.09966959 0.12390909
-0.03360291 0.0044084215 -0.08094951 -0.05028559 -0.0499534 -0.013253618 -0.06292007 -0.081078604
-0.041703478 0.14928572 0.08131797 0.012078291 0.055846788 0.07982256 -0.008095527 0.043470137
0.005476974 0.017798422 -0.07540588 -0.04561 -0.003498032 -0.040008064 -0.074580185 0.06972081
-0.0029078107 -0.08058069 -0.09576143 -0.15569453 0.014789262 -0.08424249 -0.08697389 -0.090023145
0.093240194 0.023709163 -0.095761016 -0.093934335 0.0728949 0.04090578 -0.055584826 0.015456299
-0.020401224 0.013368779 0.08149082 -0.027389811 0.01259996 0.0037345358 0.0027744274 0.04675036
0.020866252 0.09280506 0.033202015 0.01903608 -0.1807742 -0.031521775 -0.00044841785 0.10454901
-0.032464977 -0.09958223 0.076212384 -0.052338272 -0.06243871 0.071717195 0.064449765 0.07501357
0.025749404 0.03413294 -0.047307707 0.023378018 -0.1476277 0.021472191 -0.0034490721 0.06923562
0.024407262 -0.12523627 0.023141893 -0.09039494 0.04249686 0.16989855 -0.0021733153 -0.14494962
0.043846764 -0.07527425 -0.02194372 0.13028322 -0.09458216 -0.062894516 0.07384166 -0.056393076
-0.010067509 0.07714556 -0.044059668 0.14194322 0.10915674 -0.1828109 0.024624303 0.097630896
-0.0944686 0.11462352 -0.060241565 0.07151719 -0.107604414 0.092536144 0.038352013 -0.04548305
0.012623375 -0.025789505 -0.00033972348 -0.09186914 0.07631472 0.007826535 0.03080838 -0.049106702
-0.004675561 0.0557487 -0.09258723 0.091324165 -0.069847845 -0.017796021 -0.08187256 0.014808094
0.041400608 -0.02219305 -0.07389548 -0.04731602 -0.036217693 -0.025817305 -0.0491284 0.035981853
0.005620481 0.038908347 0.024781277 0.10374631 -0.062680714 -0.0044025034 0.12062032 0.029191194
0.089764565 0.12200826 -0.055190355 -0.011425965 0.07064371 0.048990533 0.009822151 -0.08233065
0.072597705 0.0016784178 -0.11707243 -0.0041776206 0.034309752 0.054479584 0.01160655 0.005056999
-0.010371014 0.024860958 0.024995714 0.05644575 0.024538267 -0.0034839262 -0.09853856 0.10022087
-0.040093135 0.0024408207 0.06564849 -0.008231135 -0.032309525 -0.030332047 -0.08608673 0.03749273
-0.11764596 -0.0041949227 -0.022464916 -0.008160074 -0.06051425 0.037155945 -0.092368975 -0.028111774
-0.014156923 -0.016653994 0.05876499 0.023003943 0.0008356179 0.055902958 -0.13236694 0.020253062
-0.00022747483 -0.13190602 0.0642051 -0.024036257 -0.071730174 -0.02830057 0.13703929 -0.06954335
0.032331206 0.036776476 -0.07819921 0.055013027 -0.08450904 0.00027538702 0.001006608 -0.041307684
0.027449964 0.02985075 0.08655606 -0.1008872 0.019990174 0.026180381 -0.053437114 0.03944178
0.013630449 -0.08512966 0.10444026 0.032194193 -0.0030761997 0.04662113 -0.047657162 0.12837173
0.025125701 0.014939226 -0.010264482 0.1375978 0.06044919 0.049473472 -0.048346817 -0.085960984

network_body._body_endoder.seq_layers.4.bias f4 [256]
00000000: 4c0d 85bb 2f59 b8bb 0c79 9f3b 8f6d 973b
00000010: 8d9d 1f3b 5b04 e93b fe1d 993b e907 b7bb
00000020: 64bb fc3b 4ef0 d9bb fe2b e8bb ea24 f8ba
00000030: 7e82 bfbb c7e3 afbb ff3c fdbb 206c 8e3b
00000040: 97a7 fa3b 44a7 70ba b45b fabb 2ce1 593b
00000050: a2ca bf3b c621 a73b 9709 edbb d612 f9bb
00000060: e648 d7bb 438d c4bb ade6 a33b 4d08 e1bb
00000070: 2104 883b 4f4b d7bb 6eeb c0bb 980c afbb
00000080: 7676 e0bb 64c4 e8bb 85c3 e6bb 9858 cdbb
00000090: 09e2 b5bb 68a4 ccbb 8a1a cabb a5b1 ad3b
000000a0: ab04 e63b b16f a03b dcaa c9bb a95b 933b
000000b0: 5d82 e6bb 3b34 dc3b 012c dfbb 4319 aabb
000000c0: d385 cebb 88b2 cf3b 7452 07ba 4074 dcbb
000000d0: 6e5d e1ba 7e2a ae3b c4b5 d6bb 6b60 dd3b
000000e0: 38da 9d3b 9dcd a53b 8742 a93b a15f d8bb
000000f0: d8d3 d1bb 0d0d dabb 9fe3 d7bb dca3 b03b
00000100: d7c5 a53b 40ef dbbb 2197 a73b 11c9 e0bb
00000110: d283 fabb 19cd ccbb 86ec b1bb 1e75 d43b
00000120: 3376 c3bb 1cfe cc3b 2459 bebb e90e d9bb
00000130: 74e2 b43b d360 e9bb 9deb 91bb b3cf 123b
00000140: 1152 b7bb bfa0 f9bb bd04 d23b beff 143b
00000150: b888 b8bb ccb3 53bb 981b 933b 9361 9bbb
00000160: 2d6d 9f3b 8184 f73b b6c3 953b 6879 94bb
00000170: 364a dcbb bc0c f5bb 72c1 b0bb 6097 a03b
00000180: b46a a13b 9f97 9d3b 99be c2bb 4e94 e43b
00000190: e06e b2bb 1a14 b6bb be11 b33b 9c5f d93b
000001a0: f106 c2bb bc29 ddbb 21a5 f4bb fb3c 9e3b
000001b0: 2da3 b3bb 2497 ebbb 0db1 85bb fd94 8d3b
000001c0: be14 f4bb b37a a33b 0b95 bf3b e167 c9bb
000001d0: e947 c2bb c8c5 b4bb 504d babb 2fe8 a83b
000001e0: 9b11 edbb f85d 9e3b 68bd d5bb 28ec b03b
000001f0: 4836 e7bb b649 bd3b 20f0 c63b aca6 b73b
00000200: ab96 c63b 747f bbbb 1e83 c93b 817e 24ba
00000210: 8b52 ae3b a261 01bc 814c d63b 3ae1 bebb
00000220: 12e4 983b 50bd d0bb 9ec5 fcbb 00b1 f5bb
00000230: 3b3a bfbb c2d8 afbb 4dc3 c93b 8ede afbb
00000240: 1fda c4bb 40b4 a13b 756f eabb 0b0d a23b
00000250: 93c0 583b b58f dabb 5c17 1839 6d01 b6bb
00000260: ead4 033c 7269 9f3b 0b08 e13b 437d 9f3b
00000270: fda6 8c39 9f0f bebb 05a2 e5bb 09b0 a03b
00000280: 3b43 a43b a3ec b23b b5bd 01ba c126 adbb
00000290: b234 e8bb 36a9 b63b 7b77 b2bb 508e c7bb
000002a0: d26a 03bc 9f86 aa3b 76a5 a63b d0b0 b1bb
000002b0: 87cc a33b e594 efba db1f f1bb 723a f1bb
000002c0: 43c6 ebbb 5d98 d03b 8178 debb c8e9 993b
000002d0: 28dc dabb 190e bf3b 50f2 9f3a 6402 bdbb
000002e0: ca71 dd3b 18c5 a03b 4080 e63b 61cf debb
000002f0: 971a b83b 12c6 e13b 7967 9a3b 683f d4bb
00000300: a5f5 d3bb 8dd3 e23b 5f92 873b 9323 edbb
00000310: fe3e eabb 9fef c83b a7b6 d2bb c36c b3bb
00000320: cbe5 b1bb c335 dbbb 0317 12bc b2ee e73b
00000330: 5e38 a83b 8897 a7bb a23b d33b dc8b c0bb
00000340: b578 d33b 8001 b3bb 0364 ddbb 91b4 efbb
00000350: 4f5d 6a3b b02b a23b 6042 fd3b 4be8 d73b
00000360: 4452 c6bb eb55 c73b fa24 ac3b 99f0 a73b
00000370: 8113 bebb 8b1d febb a1bb bf3b 8a81 ccbb
00000380: 8fac 923b e9b2 c93b de4f d7bb dbf6 f03b
00000390: 83f7 cdbb 8354 dc3b 913c e8bb bbce dcbb
000003a0: 556b 8d3b f420 dabb 2922 ca3b c831 c2bb
000003b0: 9ffe e5bb ed93 dfbb 44cd c63b 3a6b e0bb
000003c0: e27a cebb 5d84 9e3b 919c d8bb f2db a03b
000003d0: 6067 ea3b e746 fcbb a253 813b d10d afbb
000003e0: 272c b4bb a968 413b 48f3 cd3b 9964 b73b
000003f0: d552 0abc d051 f8bb b590 b5bb 8af4 ea3b
-0.004060423 -0.005625866 0.004866725 0.0046212147 0.0024355382 0.007111115 0.004672765 -0.0055856598
0.0077127684 -0.006650961 -0.0070853224 -0.00189319 -0.0058444133 -0.0053677293 -0.0077282186 0.0043463856
0.007649373 -0.0009180198 -0.0076403264 0.0033245785 0.005853013 0.0051004617 -0.007233809 -0.0076011224
-0.0065699695 -0.005998285 0.005001864 -0.0068674446 0.004150883 -0.006570257 -0.0058874404 -0.0053420775
-0.006850059 -0.0071034897 -0.0070423507 -0.0062666647 -0.005550627 -0.0062451847 -0.0061677145 0.005300718
0.0070195994 0.004896127 -0.006154401 0.0044970107 -0.0070345835 0.0067200935 -0.0068106656 -0.0051909997
-0.006302574 0.0063384213 -0.0005162128 -0.0067277253 -0.0017193982 0.005315124 -0.00655243 0.0067558787
0.0048172735 0.0050599114 0.0051654014 -0.0066031967 -0.0064034276 -0.006654388 -0.006588414 0.0053906273
0.0050589847 -0.0067118704 0.0051144515 -0.0068599065 -0.0076451087 -0.0062500355 -0.005429807 0.006483688
-0.005965018 0.006255878 -0.0058089662 -0.006624092 0.0055201594 -0.007122138 -0.004453136 0.002240163
-0.0055945 -0.0076180394 0.0064092563 0.0022735442 -0.0056315325 -0.0032303212 0.0044893734 -0.0047418564
0.0048653097 0.0075536375 0.0045704497 -0.0045310743 -0.006722714 -0.0074783247 -0.005394154 0.004900858
0.00492605 0.0048093344 -0.005943131 0.006975687 -0.0054453462 -0.0055565955 0.0054647615 0.006633712
-0.0059212376 -0.00674936 -0.007465974 0.004829047 -0.0054820986 -0.007189648 -0.004079944 0.0043207393
-0.0074487617 0.004988992 0.0058466247 -0.0061464165 -0.0059289825 -0.0055167414 -0.005685486 0.0051546316
-0.0072347648 0.0048329793 -0.006522823 0.005399246 -0.0070560314 0.0057766093 0.0060711056 0.0056045856
0.0060604415 -0.0057219807 0.0061496636 -0.0006274954 0.0053198985 -0.007896813 0.0065398817 -0.005825189
0.00466586 -0.006370224 -0.0077139875 -0.0074979067 -0.005835799 -0.0053664157 0.006157315 -0.0053671068
-0.0060074474 0.0049348176 -0.0071544 0.0049454025 0.0033073768 -0.0066699632 0.00014504552 -0.005554369
0.008046368 0.004864865 0.006867414 0.0048672273 0.00026827297 -0.005800202 -0.0070078396 0.0049037975
0.0050128973 0.005460338 -0.0004949228 -0.005284161 -0.00708636 0.0055743707 -0.005446372 -0.006089963
-0.008021073 0.0052040364 0.0050856424 -0.005422689 0.004998747 -0.0018278627 -0.007358534 -0.0073617036
-0.0071952655 0.0063658194 -0.0067892675 0.0046970583 -0.0066790767 0.005830538 0.0012202952 -0.0057681073
0.0067579495 0.004906308 0.0070343316 -0.006799624 0.005618404 0.006890067 0.004712042 -0.006477285
-0.006468492 0.0069221915 0.004137322 -0.007236907 -0.0071486225 0.0061320807 -0.0064304653 -0.005475612
-0.005429005 -0.0066897585 -0.008916619 0.0070780152 0.0051336726 -0.0051144995 0.006446318 -0.0058760475
0.0064535984 -0.0054628253 -0.006756307 -0.0073152264 0.0035761183 0.0049490556 0.00772886 0.006588971
-0.0060522873 0.0060832403 0.0052534314 0.005125117 -0.005800665 -0.0077549866 0.0058512245 -0.006241028
0.004476137 0.006155361 -0.0065708 0.007353646 -0.006285609 0.006723942 -0.007087298 -0.0067385114
0.0043157735 -0.0066567603 0.006168623 -0.0059263445 -0.0070188786 -0.006823054 0.00606695 -0.00684872
-0.00630127 0.0048375563 -0.006610461 0.004909032 0.0071534365 -0.007698882 0.0039467374 -0.005342223
-0.0054984274 0.0029511845 0.006285105 0.005596709 -0.0084426 -0.007578112 -0.005540932 0.0071702646

action_model._discrete_distribution.branches.0.weight f4 [2, 256]
00000000: d78a 9d3a dcd8 e7bb ca21 4f3a a33c 623a
00000010: e729 fdba 57ca 2a3b 4e02 e9b6 639d 80bb
00000020: 1803 0c39 4761 543b b47e 65bc 7d35 63bc
00000030: 7666 b93b 0d15 3ebb 6681 69bb 6f95 e53b
00000040: dbc5 c63b 5db2 703c 53d8 c0bb f29f 44bb
00000050: 6b8e 013c b505 953b df4e 68bc 325d 6fbb
00000060: 209c c8bb 6d15 1bbb 0b6d 423b c775 3ebc
00000070: 5420 04bc ff81 faba fcd0 0b3b 3b72 c1bb
00000080: a71a f4bb 99ee 5bbc 07d7 d8bb b5b6 a1bb
00000090: 4b5c 833b 6836 7cba fec8 f0bb 7c17 fcbb
000000a0: e079 9b3b 5931 a2b9 74be 9dbb 638d ee3a
000000b0: 4848 69bc dcfc 99ba 9bf8 cb3a 03c0 653b
000000c0: fa99 dabb 6e90 e43b e6dc 9a3b 11db a93b
000000d0: 748d f7b8 7347 06bc 0666 50bc 9d55 db3b
000000e0: 49f7 333b 29a4 ba3b 76ee 0f3c 92e2 c0b9
000000f0: 1fd4 4ebc ecc2 33bc 07d3 c2ba 8960 cb3b
00000100: 7e35 3e3b cc68 10bb 381b 5cba c7b8 c53a
00000110: b97f a2bb 1232 10bb 491c 4bbb d407 8d3b
00000120: 9659 2dbc 5078 a4bb 6e3f 54bb c7ba e6bb
00000130: 8957 343b cb0d 71bb 0061 aaba 30af 0eb8
00000140: 7a25 0abc 344d 48bb b27d 993a 8239 423b
00000150: 345a 84bb 819d 4d38 2d2d a0b9 349a fdba
00000160: c204 193c 1a64 3fba 2056 ae3a 9484 9ebb
00000170: e057 16bc f35a 4eba d674 4bbc f322 46bb
00000180: cef9 3e3b 9ac8 173b ff75 3cbb f9ed a63b
00000190: 8698 34bb fa5f b13a cc0d eb3b 5063 453c
000001a0: 9442 afbb c91a 1b3c 3ce5 f8bb 5c88 1d3b
000001b0: 4037 12bb 6f14 dabb 66db 5d3b 2087 19bc
000001c0: 5c24 16bc 0cbe c13b 79c2 8f3a 68a8 68bb
000001d0: 80c7 283b e961 5dbc d3ba 5ebc c2ae 6eba
000001e0: 0d28 d2bb fcf3 54bb 0d31 0dbc 193c 8d3b
000001f0: 0f2d 2cbc b476 c5bb 15bf 393c b2f0 d73a
00000200: c0e9 163a 25fd a6ba 39fe c33b adfc 7dbc
00000210: 8b92 183b f5d2 d3bb eadf 61ba 5d87 33bc
00000220: 4aca 30bc 37a9 1bbc 4d3c 6f3b cb61 483b
00000230: 9e6a 5ebb 2b0d a0bb 45ce 333b 5aa7 3b39
00000240: ed1b 06bc 0c8a 97bb eea8 abbb d585 273c
00000250: ccf3 aa3a 4033 12bc 6497 933b 38a1 84ba
00000260: dd2d 73bb adb4 7c3b ca71 093c 31c4 3a39
00000270: 81ab 123c d60f 58bb b361 19bc 4e8e 62bb
00000280: 7ab2 203c a8f2 08bb a752 53bb a692 baba
00000290: cca8 d7bb d49b db3b 0702 76bb 0333 02bc
000002a0: 6472 cdbb 8ef9 f73b a099 a33b 79c2 523b
000002b0: 2c58 b8ba 10d6 97bb 51aa 55bc ba17 22bc
000002c0: ab48 ecb9 a1f3 1d3b 8b12 11bc 4e7e 0b3b
000002d0: fdc5 8dbb 0cab cf3b 1633 3bbb dff5 16b9
000002e0: 7977 783c 1e77 e539 a181 ff3b 6f8a 5c3a
000002f0: 938f a1bb 6061 b53a 145a 543b 0f19 353b
00000300: baad 9abb b95a 5b3b 378d abba 7c57 c3bb
00000310: b645 a53b 7781 713c b869 36bb adfc 293b
00000320: a130 d039 279a 55bc 2535 efbb d3d4 6a3b
00000330: d680 fcb9 daaf 243b a7e1 a1ba b6fa 89bb
00000340: 77ff 1a3a 4fbe 84bb 52ee 4dbb ab15 38bc
00000350: c2af d53b 313e fe3b f668 1d3b 38e6 62bb
00000360: 0bf3 b7bb a2c5 fdb9 540d f0bb 3ccf 5bbb
00000370: 691d 8a39 bfcc 96bb de0e c33b 4d48 063b
00000380: 670f ac3b 3fa6 643b 4e72 4abc 5133 863a
00000390: c475 98bb a724 b7bb 4458 7fbb 5785 59bb
000003a0: c68f 033c 8d54 34bc fbd7 333a 7176 463b
000003b0: ee6a 68bc 6b69 cfbb 7088 eb3b 5fa3 0dbc
000003c0: f733 92ba 526f da39 2cc9 a3ba c388 d3ba
000003d0: 28b8 b43b c48b 15bc 1e0f 00bc 1417 9238
000003e0: ec04 433c 2a2b 12bc fd4b 82ba 6b00 18bb
000003f0: 18f0 18bc 5370 a9bb 9897 08bb 20c9 643c
0.0012019527 -0.007075412 0.00079014583 0.00086302514 -0.0019314856 0.0026060545 -6.9442094e-06 -0.003925012
0.00013352593 0.0032406615 -0.014007259 -0.013867733 0.0056579662 -0.0029004246 -0.0035630106 0.0070063393
0.0060660667 0.014690963 -0.005885163 -0.0030002561 0.00790749 0.0045477995 -0.014178961 -0.0036524055
-0.006122127 -0.0023663894 0.0029667045 -0.01162476 -0.008064348 -0.0019112228 0.0021334281 -0.00590351
-0.0074494663 -0.013423585 -0.00661743 -0.0049351105 0.004008805 -0.0009621144 -0.007348179 -0.0076932292
0.0047447532 -0.00030935815 -0.0048139635 0.0018200096 -0.014238425 -0.0011748332 0.0015561761 0.0035057075
-0.0066711875 0.006975225 0.00472604 0.0051835855 -0.000118042255 -0.008195746 -0.012719637 0.0066935555
0.0027460626 0.005695839 0.008784881 -0.00036789902 -0.012623816 -0.010971766 -0.0014863916 0.0062065762
0.0029023583 -0.002203512 -0.000839639 0.0015084975 -0.0049590734 -0.00220025 -0.00309922 0.0043039117
-0.010580441 -0.005019225 -0.003238644 -0.0070413086 0.0027517995 -0.0036781903 -0.0012998879 -3.4018594e-05
-0.008431787 -0.0030563595 0.0011710434 0.0029636328 -0.0040390734 4.9022496e-05 -0.00030551237 -0.0019348324
0.009339513 -0.0007300988 0.0013300814 -0.004837582 -0.0091762245 -0.0007871829 -0.012417993 -0.0030233234
0.0029140594 0.002316034 -0.0028756855 0.0050942865 -0.0027556731 0.0013532632 0.0071732756 0.012047604
-0.005348513 0.009466835 -0.0075956862 0.0024037575 -0.0022310764 -0.006655268 0.0033852695 -0.009370595
-0.009163942 0.005912548 0.0010967992 -0.0035500769 0.0025753677 -0.013512113 -0.013594347 -0.00091050204
-0.006413466 -0.0032494059 -0.008617652 0.0043101427 -0.01050879 -0.0060261134 0.011337061 0.0016474931
0.00057568774 -0.0012740238 0.0059812334 -0.015502137 0.0023280706 -0.006464357 -0.00086164346 -0.010957566
-0.010790417 -0.009500793 0.0036504448 0.0030575867 -0.003393806 -0.0048843822 0.0027436179 0.00017896053
-0.008185369 -0.0046246108 -0.005238644 0.010224779 0.0013042628 -0.008923352 0.004504131 -0.0010118848
-0.0037106194 0.003855984 0.008388946 0.0001781143 0.0089520225 -0.0032968423 -0.009361672 -0.0034569683
0.009808177 -0.0020896588 -0.003224531 -0.0014234378 -0.0065814015 0.006701926 -0.003753783 -0.007946732
-0.00626974 0.007567591 0.0049926788 0.0032159372 -0.0014064363 -0.0046336725 -0.013041095 -0.009893352
-0.0004506757 0.0024101513 -0.008854519 0.0021285 -0.0043265806 0.006337529 -0.0028564385 -0.00014396709
0.015165203 0.00043767033 0.0077974354 0.0008412962 -0.0049304455 0.0013838224 0.0032402324 0.0027633344
-0.004720417 0.0033470823 -0.001308835 -0.0059613567 0.0050437106 0.0147403395 -0.002783401 0.002593796
0.00039709083 -0.013037241 -0.0073000365 0.003583242 -0.00048161176 0.002512923 -0.0012350575 -0.0042107953
0.0005912701 -0.004051007 -0.0031422568 -0.011235635 0.006521196 0.0077588786 0.002401886 -0.0034622084
-0.00561369 -0.00048403168 -0.0073258076 -0.003354027 0.00026343323 -0.0046020444 0.0059527 0.0020489872
0.0052508595 0.003488913 -0.012356354 0.0010238682 -0.0046527106 -0.005589086 -0.0038962523 -0.003319105
0.008029884 -0.011006487 0.00068604917 0.0030283 -0.01418565 -0.0063297055 0.0071878955 -0.008644908
-0.0011154403 0.0004166314 -0.0012495867 -0.0016138781 0.005515117 -0.009127561 -0.007816104 6.966121e-05
0.011903029 -0.008921424 -0.0009940859 -0.0023193609 -0.009334587 -0.005170861 -0.002084231 0.013963968

action_model._discrete_distribution.branches.0.bias f4 [2]
00000000: d140 d83b d140 d8bb
0.0065995236 -0.0065995236

54 f4 [2]
00000000: 1c14 1e47 6b61 e843
40468.11 464.76108
