results/flappy_genetic_6/FlappyBirdAgent/FlappyBirdAgent-43700.onnx (onnx, 534229 bytes, 10 tensors)

network_body.observation_encoder.processors.0.normalizer.running_mean f4 [2]
00000000: f6d4 9143 1b29 4a40
291.66376 3.1587589

network_body._body_endoder.seq_layers.0.weight f4 [256, 2]
00000000: f793 18bf 23bc 88bf a8da 46bc 92f3 86be
00000010: 36d2 8abf 21d7 bfbf 62a0 4b3f 4c1c 53be
00000020: bf34 b63e 1c12 203e 839b f9be 6ff7 0f3f
00000030: 4cd8 32bf 2bc7 e33d 9f7f edbd 1b37 30bf
00000040: 199f 50bf 606f ac3e 36d4 bebe 2c30 053f
00000050: e871 24bf 0c09 29bd 58e5 85bf f35a 4f3f
00000060: f5ba b83d 4b01 1dbf 79cb 613e 33e5 0bbe
00000070: 9d72 f33e f24f 2fbf 3598 803e fe28 683e
00000080: d463 733f ca8b b9be 9f6c fd3e f26f f23e
00000090: 0dd6 f9be 1ffd 4b3f f681 cebe 29e7 183e
000000a0: a212 573e f27e cd3f 6d47 3a3e 98d6 263e
000000b0: cf8f 443d ef7c 54bf a0c2 d13e 6c0b aa3e
000000c0: bebb 153f c84a b5bf c6a4 ce3c c9cb 5a3f
000000d0: ca0a 80bf b124 83bf 63ea 13c0 3de7 46bd
000000e0: ecc7 663d ce0a e3be 1bfb 7abf 98e3 903f
000000f0: c8da edbe bc2f 553f 3e3c 893f 517c d4be
00000100: 731a 503e 52bf 7abf b260 423f 5501 75be
00000110: c78f 453e 3be0 8abe f309 263f b5c7 77bf
00000120: 3098 6a3d a6e2 bf3d 4ec5 e03d 22d1 e0be
00000130: 63bf f1be fe56 14c0 2e7a 92bf 2759 703f
00000140: 8c5d 07bf 8a30 0fbf 2562 a8be 20d3 4cbe
00000150: 3407 5a3d ea32 3dbf 91d0 393f ff81 a5be
00000160: 4673 a3bf e5db dcbf fded e73f 1c87 cc3f
00000170: fb38 32bf e25f 063c 30a2 223f 7ea5 963e
00000180: bc94 693e be2e f33e 14fc 1fc0 0618 ffbe
00000190: eb30 2cbe f3af 86bf a47c cc3e 3650 95bf
000001a0: 9ef9 80bf 1ace dbbf b93c 20bf 2062 fdbd
000001b0: 9598 fb3e 8607 56bf 855d 723f 5149 1e3f
000001c0: 9797 0d3e 864e bf3e 0e3b 803f cd95 f8bf
000001d0: 7902 2cbf e28c 6c3d f301 093f de86 08bf
000001e0: f950 803d c21c 40bf 5d34 693d bd5a cb3e
000001f0: c52f d33e ffe1 b83c d476 1f3e 4d2b 4b3f
00000200: b1aa da3e 4759 ed3e 8698 133f 2aa1 983c
00000210: b771 053f 1db5 acbf ac87 5dbf deb8 113f
00000220: e098 d73c ff13 b73e 4076 2abf eaf7 7ebf
00000230: cb96 2e3f ee63 bebe 153a 70bf 2077 95be
00000240: a909 edbd 3fcf 003f 9f16 a53f 503c 293e
00000250: d500 5f3f de16 5bbf 0bd1 463f 79f6 22be
00000260: 2110 77be 3dd5 903d 8e63 e3bc fe6c 2f3f
00000270: 4f48 563e 0c16 183d 3d77 7fbf 73bf 1f3f
00000280: 6ab9 0cbf e0fb 773d 3d63 993f 8469 7cbf
00000290: 6597 533e 7d3d 3b3f b244 3ebe 10ad f6be
000002a0: 180c c13f 920f 75be 4f08 15be f880 9abe
000002b0: 96f1 863e 700e b13e c5ba 033f d5f4 b6bd
000002c0: f31f c2bf 9c42 753d 3d8e 6cbf bb4f 7cbf
000002d0: d7d9 9c3e 8d33 953f 1c31 f5be 9320 7a3f
000002e0: 948e 683f 4048 c83e fc9f 5dbf 9233 a33f
000002f0: da72 9c3e 6d65 3d3f 1a1f 90bf ed46 02bf
00000300: 34d7 ae3e ce18 8c3e 2304 84bf cdd9 2bbf
00000310: 2713 c8bf 496a 8ebf 30ad e3bd 01b0 d53e
00000320: 9c79 c5bc 07a3 4e3d 2dce 0f40 be16 a73e
00000330: 6b85 7ebe 9ec9 a03e fbb6 6e3e 3e58 7a3f
00000340: 9cca 893f 4760 ae3e 4e95 253f 8d82 eabd
00000350: 8b68 d83e f330 9b3e e52e 4d3e d161 ddbe
00000360: 4b8e 3f3e 727e 0fbf bae8 263f 6fa8 ae3e
00000370: 91fd 29be d7f9 d23d a814 5ebf 722a c83d
00000380: 97a1 403e b05a 42bf 6752 41be 556b c13e
00000390: bc91 82bf a749 cabe 9dda 683d 396d 25bf
000003a0: 0a4f 103f 1331 663f 99ca 1fbf f42c 23bf
000003b0: cd85 e13e c46d 0d3e 949f 71bf 9b81 fd3e
000003c0: 9ccb 423e 9680 a13e a9aa 063f e4ee c7bd
000003d0: f0ad 8f3e 3a2f 81bf 6434 ef3e d7ea 9ebe
000003e0: fc85 8bbf 8c5a 393f e173 77bf d025 843d
000003f0: cbd3 ea3d 5bda ea3e e93b 623e 5a3b 87bf
-0.59600776 -1.0682415 -0.012137093 -0.26357704 -1.0845401 -1.4987527 0.795416 -0.20616263
0.35587117 0.15631908 -0.4875146 0.5623693 -0.6986129 0.11121973 -0.115966074 -0.68834084
-0.81492764 0.33678722 -0.3727128 0.5202663 -0.6423631 -0.041268393 -1.0460615 0.8099815
0.09020034 -0.613301 0.22050275 -0.13661651 0.4754838 -0.6848136 0.25116125 0.22671887
0.950742 -0.36239463 0.49496934 0.47351032 -0.4879612 0.7968311 -0.40333527 0.1493193
0.21003202 1.6054366 0.1819131 0.16292799 0.04798871 -0.83003134 0.409688 0.3321184
0.58489597 -1.4163446 0.025225054 0.854672 -1.0003293 -1.0245572 -2.3111808 -0.04856037
0.056343004 -0.4434418 -0.98039407 1.1319456 -0.4645598 0.8327596 1.072151 -0.41501096
0.2032259 -0.9794818 0.75928795 -0.2392629 0.19293128 -0.271242 0.6485893 -0.96789104
0.057274044 0.09369402 0.10975133 -0.43909556 -0.4721633 -2.3178096 -1.1443536 0.93886036
-0.52877116 -0.5593344 -0.32887378 -0.20002413 0.053229526 -0.73905814 0.7258387 -0.32325742
-1.2769554 -1.7254606 1.8119503 1.5978732 -0.69618195 0.008201571 0.6352873 0.29423136
0.22810644 0.474966 -2.4997606 -0.49823016 -0.16815536 -1.0522445 0.39938843 -1.1665103
-1.0076177 -1.7172272 -0.62592655 -0.123722315 0.49139848 -0.8360523 0.9467395 0.6183062
0.13827358 0.37364596 1.0018022 -1.9420716 -0.6719127 0.057751544 0.535186 -0.5333079
0.06265444 -0.7504388 0.056934703 0.39717665 0.41247383 0.0225687 0.15572673 0.79362947
0.42708352 0.46357176 0.5765461 0.018631537 0.5212664 -1.3492771 -0.86535144 0.5692271
0.026318014 0.35757443 -0.66586685 -0.99597037 0.6819884 -0.37185615 -0.93838626 -0.29192448
-0.11574108 0.5031623 1.2897528 0.16526914 0.87110645 -0.8558177 0.77662724 -0.15914334
-0.24127246 0.07071922 -0.027757432 0.68525684 0.20926021 0.0371304 -0.9979132 0.62401503
-0.5497042 0.06054294 1.198341 -0.98598504 0.20663221 0.731407 -0.18580893 -0.4817891
1.5081816 -0.23931721 -0.1455395 -0.3017652 0.2635619 0.34581327 0.5145686 -0.08933417
-1.5166 0.059877977 -0.9240454 -0.9855916 0.3063495 1.1656357 -0.4788903 0.97705954
0.90842557 0.39117622 -0.8657224 1.2750113 0.30556375 0.7398289 -1.1259491 -0.50889474
0.34148562 0.27362674 -1.0313762 -0.6712921 -1.5630845 -1.1126186 -0.11117017 0.41735843
-0.02410584 0.050448444 2.246959 0.32634538 -0.24855582 0.31403822 0.23311989 0.97790897
1.0764956 0.3405783 0.64680946 -0.11450682 0.4226726 0.30310783 0.2003742 -0.4323869
0.18706624 -0.56052315 0.6519886 0.3411288 -0.16600634 0.103015594 -0.8675027 0.09773721
0.18811642 -0.7591963 -0.1887909 0.377772 -1.0200725 -0.39509317 0.05684911 -0.64619786
0.56370604 0.8991863 -0.62418514 -0.6374047 0.44047394 0.13811404 -0.9438412 0.49512944
0.19022983 0.31543416 0.52604157 -0.09762362 0.2806239 -1.0092537 0.46719658 -0.31038544
-1.0900264 0.7240379 -0.9666119 0.06452525 0.114661776 0.45869717 0.22093166 -1.0564988

network_body._body_endoder.seq_layers.0.bias f4 [256]
00000000: 40c1 aa3c 2313 3f3b 4955 f23c 7502 6dbc
00000010: b28f 68ba a605 963c 6855 8c3c ee6b 2bbc
00000020: 6f73 c73c 4a67 893c c279 b53c a289 b43c
00000030: dbf8 9f3c 273a b2bc c679 98bc 16ac 323b
00000040: 92c6 bcbc 0fb6 99bb 1bc9 a43c 69e8 803c
00000050: 1ae2 65bc b8b2 a6bc f734 31bc 8f38 53bc
00000060: 0fc7 b3bb 1dab 20bc d538 49bc 527e e23c
00000070: 3ff8 c43a 63d6 0dbc 50b3 863c b0f6 9bbc
00000080: d00d f3bb 4b7d 6abc 8d9b a5bc 074f 8dbc
00000090: c70d 4fbc 7d73 a7bc 5b9e 793c 4555 b33c
000000a0: b6a4 e03a 5baa 89bc ebd1 823c 3b05 9dbc
000000b0: 8ef5 fe3c b6e8 9dba ce9a 9f3c 7ed3 0ebc
000000c0: b05d 18bc ee78 d53c eab5 5bbc 01b2 9fba
000000d0: 74a1 003c 1934 c33c fdc4 db3b eae9 06bc
000000e0: c973 99bc e8af 75bc a4b9 e93c ecef 82bb
000000f0: dd10 a8ba 4a11 ae38 5524 49bc 8bef cb3a
00000100: 1dfb 85bc 8694 f7bc 5fe0 38bc a0d7 a43c
00000110: 9efb 44bc dfa7 d13c 234f 97bc 4e9a 393c
00000120: e60f 5f3c 4765 d0bb 181b 1ebc 8171 a1bc
00000130: 94a2 673c 4cae 5e3c 961e 96bc 115c 7d3c
00000140: 1814 aa3c 0f98 9bbc 0c42 1b3a eae1 933c
00000150: c7e9 9cbc a5a2 b13c 9511 6bbc c056 30bc
00000160: 3dea 793c 123f d23c 7670 e839 9519 403c
00000170: 0576 2fbc 2653 233c c894 76bc 063e d53c
00000180: 84af b6bb fa17 9d3c d3f7 ed3c f536 883c
00000190: ed83 983b e1d9 92bc 4535 9f3b 19a9 c7bb
000001a0: 338c 70bc ad6b 4fbc d893 b03a f76e 34bc
000001b0: a15d 9bbc bded 68bc 8884 c93c e901 a03c
000001c0: 1b90 4ebc 88b9 883c 80fd c43c 3e38 5a3c
000001d0: af73 72bc bb9b c73c fe1c b0bc 417a a93c
000001e0: b96d bd3c 3d62 17bc 5f9c 49bb 2c56 92bc
000001f0: 5b71 7d3c 9ab1 c43c a6e7 25bc 780c a5bc
00000200: b69a aabc cf26 993c bca2 493c 865d 593b
00000210: 26b7 aa3c a87b d0bc 7b79 c23c 6ea9 d83c
00000220: 6b45 c53c 03db 59bc c1a7 973c 5148 aa3c
00000230: 56d1 a0bc 1d0f a4bc 3898 693c 8be0 df3c
00000240: fb39 5f3c 2036 af3c 390f 6ebc 9e4a 953b
00000250: ef19 2fbc 1734 66bc 6db8 1abc ebaf 33bc
00000260: 2b6c 833c 83d2 6d3c fabe 493c 1288 8ebc
00000270: 6edd cc3c 58e4 8abc a98b b93c b8b6 9e3b
00000280: 725b 89bc 7ccf a1bc cb66 d2bc d0ab df3c
00000290: 0ba4 bd3c 919c a5bc 00e5 213c e826 b2bc
000002a0: d242 3b3b 1542 1d3c 43f3 d93b 5af0 9dbc
000002b0: c331 50bc 7af0 dc3b 9a10 a33c debb 3cbc
000002c0: a5ee a13c e180 c93c ffa4 dd3c 252d 853c
000002d0: 3139 ffbb dc59 14bc 5f32 863c 6203 99bc
000002e0: a97f b8bc 7842 45bc fbf9 8d3c 9d15 bb3b
000002f0: 222a 4fbc 7793 bb3c d9d8 dfbb 5c73 71bb
00000300: 1cbe 933c f239 82bc 950a 3abc f939 1c3c
00000310: fab9 e73c 44fd 7ebc 41c7 c83c 0e2e ac3c
00000320: 8551 92bc ec85 2d3a ce24 9f3c a939 7fbc
00000330: c451 39bc 43b6 47ba caa3 8c3c 40c9 5dbc
00000340: 947e a13c fbc6 4c3c 8530 7e3c 701f d2bc
00000350: ed50 3e3c ff93 35bc b961 903c 7bac 383c
00000360: 23bb f33b 2e5b 21bc b093 0a3c 3613 743c
00000370: 7736 cb3c 6094 5a3c de8e 6b3c 6ee7 dfbb
00000380: c0aa 94bc 5a28 7cbb e18b b23c 441c 4bba
00000390: 6873 cebc 5cd0 2dbb d68f 413c 7d95 12bb
000003a0: cc96 113b d458 5d3c fb7b 963c bc25 a7bc
000003b0: 01d2 2bba 3ea5 83bc fe92 e13c 162b 5e3c
000003c0: b781 913c 7ae4 d63c 6c1d 90bc f8f8 55bc
000003d0: 530a 823c c4a0 c73b 6f02 8c3c bdcb ce3c
000003e0: 2e33 ad3c 79f9 20bc 74d0 3c3c 8e39 79bb
000003f0: af2a c8bc 71f9 62bc 0fd6 863c 9f11 af3c
0.020844102 0.0029155693 0.029581683 -0.014465918 -0.000887151 0.01831324 0.017130569 -0.010462744
0.024347035 0.016772885 0.022152785 0.022038285 0.019527843 -0.021756245 -0.018612754 0.0027263216
-0.023043904 -0.0046908925 0.020115426 0.015735822 -0.014030958 -0.020348892 -0.01081585 -0.012891903
-0.005486376 -0.009806422 -0.012281616 0.027648125 0.0015027596 -0.008657071 0.016442925 -0.019038528
-0.007417418 -0.014312099 -0.020215774 -0.017249597 -0.012637562 -0.020440811 0.015235509 0.021891246
0.0017138931 -0.016804865 0.015969237 -0.019167533 0.031122949 -0.0012047503 0.019482996 -0.008717416
-0.009299681 0.02605864 -0.013410071 -0.0012183787 0.007850993 0.023828553 0.0067068324 -0.00823448
-0.018731968 -0.014995553 0.028530903 -0.003995886 -0.0012822408 8.300187e-05 -0.012276729 0.001555906
-0.016355092 -0.030222189 -0.011283963 0.02012235 -0.012022881 0.025592742 -0.018470353 0.011328293
0.01361463 -0.0063597295 -0.009650014 -0.019707443 0.014137883 0.01359136 -0.018325131 0.015463845
0.020761535 -0.018993406 0.00059226225 0.01805206 -0.019154442 0.021684 -0.014347454 -0.01076287
0.015253601 0.02566484 0.00044334278 0.011724849 -0.01070929 0.009968555 -0.015050121 0.026030552
-0.0055751223 0.019176472 0.029048836 0.016627768 0.0046543987 -0.017926158 0.004858645 -0.006093156
-0.014681864 -0.012659949 0.0013471795 -0.011012784 -0.018965544 -0.0142168375 0.024599329 0.01953216
-0.0126076 0.01669003 0.02404666 0.013319073 -0.014798089 0.02436625 -0.0214982 0.020688178
0.023123609 -0.00923973 -0.003076337 -0.017863356 0.015468921 0.024010468 -0.01012603 -0.020147547
-0.020825725 0.018695263 0.012306865 0.0033167317 0.020839285 -0.025449589 0.023739567 0.026447978
0.024080953 -0.013296845 0.018512608 0.020786436 -0.01963107 -0.020026738 0.014257483 0.02732875
0.013624663 0.021388113 -0.014529997 0.004556014 -0.010687335 -0.014050505 -0.009443385 -0.010967235
0.01604279 0.014515522 0.012313599 -0.017398868 0.02500793 -0.016954586 0.022649603 0.004843559
-0.016767237 -0.019752257 -0.025683781 0.027303606 0.02314951 -0.020216258 0.009881258 -0.021747068
0.0028573764 0.009598275 0.0066513135 -0.019279648 -0.012707177 0.006742534 0.019905377 -0.0115194
0.019767115 0.024597587 0.027056215 0.016256878 -0.0077888 -0.009054627 0.01638144 -0.01867837
-0.02252181 -0.012039773 0.017331114 0.0057093636 -0.012644323 0.022897465 -0.00683127 -0.0036842441
0.018034987 -0.015896771 -0.011355062 0.009535306 0.028286923 -0.015563313 0.024509074 0.021018054
-0.017861137 0.0006619382 0.01942673 -0.015577712 -0.011310998 -0.00076184067 0.017167944 -0.013536751
0.019713677 0.0124986125 0.015514498 -0.025649756 0.011615974 -0.011082648 0.017624723 0.011271591
0.00743808 -0.009848399 0.008458063 0.014897158 0.024806244 0.013341039 0.014377324 -0.0068330085
-0.018147826 -0.00384762 0.021795215 -0.00077480474 -0.025201514 -0.0026521897 0.011814078 -0.0022366934
0.0022215126 0.013509948 0.018369665 -0.020403735 -0.00065544253 -0.016070005 0.027535912 0.013560077
0.017762048 0.026231993 -0.017592154 -0.013059847 0.015874064 0.006092163 0.017091004 0.025243634
0.021142568 -0.009825104 0.0115243085 -0.003802869 -0.024434416 -0.013853417 0.016459493 0.021370707

network_body._body_endoder.seq_layers.2.weight f4 [256, 256]
00000000: c06e ce3d 3b5e a43d 8353 11be 5d16 453a
00000010: 0c12 8a3d dd7d cc3d 8b87 023d 9839 043e
00000020: 0ec8 06bd 627a d2bd 0066 1ebb 21a0 daba
00000030: 7c82 46bc 5541 bcbd e24a a7bc c439 26be
00000040: d4cd 2abd ba9b bdbd cd4e 2b3c 5731 b03d
00000050: 4f01 a3bd 0982 12bc a0e9 4cbd 71b6 17bd
00000060: 0dbf bbba 4afa edbd 867e 39be f9be b93d
00000070: b18a f7bd 6b92 80bd 3dd1 10bd 81c7 023d
00000080: 625d 983d e231 43bd c0f7 f5bb 3e70 3a3c
00000090: 110e 68bd 401f 1d3e be26 25be 24f4 a2bd
000000a0: 7697 913d d94d d53d 4bec afbd d40a 1b3d
000000b0: 8b85 77bd 4580 d5bd 6af6 22be f440 8c3d
000000c0: 86be 38bd 20c3 02bd 45b2 acbd ef64 bcbc
000000d0: ed27 2ebd 0aad 38be abef 263d a681 a2bc
000000e0: 96fc 073c f0c7 123d ca0e d3bd cddc 1b3c
000000f0: 2be2 ae3d e31b f73d f894 30bd cc69 5b3d
00000100: 9772 8c3c 7b33 4abe 2492 0dbe 69e1 fb3c
00000110: e641 64bd e38e c53b 2290 ad3d dbad 6e3b
00000120: 10de d33c ce6d a7bd 726c 94bd 0868 68bd
00000130: 7592 ad3b fea4 003c 4650 b9bb 866a 8dbd
00000140: 06cf 2a3d 7244 9d3d b099 bdbc 9cb9 a93c
00000150: 691f 99bc d81b a83b cfff 013e 23be 82bd
00000160: 443a 3dbc f256 4d3d f36b 21be d75f 823d
00000170: 9257 5f3d ccd2 3e3b cdbd ed3d f7be b43c
00000180: b088 a43d 75a3 7ebc 446e 46bd 5c99 d8bb
00000190: 4840 5cbd bf74 4e3d 703a 9a3c 0b15 d7bc
000001a0: cdb9 fbbb 5bb9 843c 7222 96bd 8e5e e6bd
000001b0: 2396 3e3d 6944 12bc a603 94ba 04ec 3a3c
000001c0: c99b cb3d 8b73 9bbc b311 84bd 7d8d ec3c
000001d0: 381f dc3c 700c 9dbb 2a6f ee3c a6b5 e4bc
000001e0: fa6c bbbd 51cd 13bd aa31 2abd a3a7 36bc
000001f0: 58cf 873c 5a04 483c 9e64 8f3d c0fb 98bd
00000200: 7b55 a7bd 38d0 243d 21e8 03bd 46cc b03c
00000210: 314b 17bd 7e51 0c3d 126c 8ebd c1dc c6bd
00000220: 9984 91bb 165e de3c ea1c c3bb e7e8 a2bd
00000230: 0718 d0bc 44f9 50bd 14d9 2ebd c253 84bb
00000240: 8c04 f03b 3d72 1ebc 48f3 9ebc 6e9a ccbd
00000250: f24e bd3c fe01 2d3d 025c f53a b0cf c1bc
00000260: cca3 85bd f986 293d 240d cabc ff80 f13c
00000270: c31a 1fbd 50a2 aabc d68c 58bd 4d77 cfbb
00000280: f82f e03d 7940 833d a750 923d c8c1 943d
00000290: 006d 093d 89f8 eb3c fb0a c5bd 5b3f 123d
000002a0: 0a66 38bd bd53 a8bd 6f40 83bd f603 953d
000002b0: 2d97 81bd 62bb 60bc f4ce f9bd d5d2 093d
000002c0: 67a1 a43c 7e98 6bbd de98 dabc cd74 a93d
000002d0: 114a 7a3d d192 dfbc 8a33 1abe 78ec 96bd
000002e0: cbcc aebd 71a5 a53c 0602 84bd 7c9f 0abd
000002f0: d0e3 92bd 7cd3 853d 093b 84bd 2c2c 533d
00000300: 2c5b 14bd 58d5 543d ad4a 64bd f2e2 0bbe
00000310: cc7b 01be c9ee acbb c3f7 87bd f9f3 473c
00000320: eaf6 2cbc 4dc5 83bc 2aea 933a 9477 25bc
00000330: 1d62 833d 76e6 833d aadd c83d d743 943d
00000340: fb8f 2b3a e502 f6bd f491 8ebd 946e 503d
00000350: 0cf8 dd3d 22a1 9ebd 3dfe dcbc 69bc 4fbc
00000360: e869 b13d 3742 1c3e 0eb8 c1bd a9a2 20bc
00000370: ff06 0abd 828f 16bd 91d0 7c3d 3afa d23c
00000380: ef94 2e3d 00a2 a63c 2d2f 50bd fdbd 89bd
00000390: 9497 f03d 44fd 36bd d7e6 81bd e1e1 c1bb
000003a0: 7362 c5bd 18a4 edbc 3444 0f3d 144b 9d3d
000003b0: 937f fb3c 9376 043d ad43 c33d 1116 dfbc
000003c0: f5a2 923d c268 8a3d 4f54 9f3c 88fe 993c
000003d0: 192a 36bd 2ac6 19bd 34be 283d 0585 77bd
000003e0: c1ed 413d 364b e5bc ceb2 97bc 0873 febd
000003f0: dca6 ef3c a688 d8bb 9826 bfbc 146e ecbb
0.10079718 0.080257855 -0.14192013 0.0007518286 0.067417234 0.09984944 0.031867545 0.12912595
-0.03290563 -0.10277249 -0.0024169683 -0.0016679802 -0.012116071 -0.091921486 -0.02042145 -0.16232973
-0.0417002 -0.09258218 0.010455799 0.08603161 -0.07959234 -0.008942136 -0.05002749 -0.037039224
-0.0014323905 -0.116200045 -0.18114671 0.09069628 -0.12087 -0.06277927 -0.035355795 0.031928543
0.07439686 -0.047654994 -0.0075063407 0.0113793 -0.05665404 0.15343952 -0.1612806 -0.079567224
0.07108967 0.10415239 -0.08589991 0.037852123 -0.06043009 -0.10424856 -0.15914312 0.06848326
-0.045103572 -0.031924367 -0.0843244 -0.022997348 -0.042518545 -0.18034759 0.04075591 -0.019837212
0.008299967 0.035835207 -0.10305555 0.009513092 0.08539232 0.12065866 -0.043110818 0.053567693
0.017144484 -0.197462 -0.1382528 0.030747132 -0.05572691 0.0060289963 0.08474757 0.0036419544
0.025862724 -0.081752405 -0.07247247 -0.056739837 0.005297 0.007851837 -0.0056553213 -0.06905083
0.04170134 0.076790705 -0.023144573 0.020718388 -0.018691735 0.0051302724 0.1269524 -0.06383922
-0.011549536 0.050131746 -0.15763836 0.06365936 0.054526873 0.0029117344 0.11608467 0.022063715
0.080338836 -0.015541901 -0.048445 -0.0066100787 -0.05377224 0.050404307 0.018826693 -0.026255151
-0.0076820613 0.016201666 -0.07330789 -0.112485036 0.0465299 -0.008927443 -0.0011292591 0.01140881
0.09941823 -0.018975994 -0.06448688 0.02887606 0.026870355 -0.0047927424 0.029105742 -0.027918648
-0.09151645 -0.036084477 -0.04155127 -0.011148366 0.016578361 0.012208069 0.07001613 -0.074698925
-0.08170601 0.040237635 -0.032203797 0.02158178 -0.036936942 0.034257405 -0.069542065 -0.09710074
-0.0044408557 0.027144473 -0.0059543746 -0.07954579 -0.025402082 -0.05101897 -0.04268749 -0.004038305
0.007324761 -0.009670791 -0.019403115 -0.099903926 0.023108933 0.042238228 0.0018719437 -0.023658603
-0.065253824 0.041388486 -0.024664469 0.029480455 -0.03884388 -0.02082935 -0.052868687 -0.0063313604
0.10946649 0.064087816 0.071442895 0.07263523 0.033551216 0.028805034 -0.09621235 0.03570495
-0.045019187 -0.08219097 -0.06408774 0.07276146 -0.063276626 -0.013716551 -0.12197676 0.03364833
0.020096494 -0.057518475 -0.02668422 0.08274231 0.06110579 -0.027291687 -0.15058723 -0.073693216
-0.08535155 0.02022049 -0.064456984 -0.033843502 -0.07172358 0.06534478 -0.064565726 0.051555797
-0.03621976 0.051961273 -0.05573528 -0.13660792 -0.12644881 -0.005277489 -0.06639054 0.012204164
-0.010556916 -0.016085291 0.0011284996 -0.01009931 0.06415198 0.06440441 0.09807904 0.07239502
0.0006544587 -0.12012271 -0.06961432 0.050886706 0.10838327 -0.077455774 -0.026976699 -0.012679198
0.08662778 0.15259634 -0.09458934 -0.009804406 -0.03369808 -0.036757953 0.061722342 0.025754083
0.042622503 0.02034092 -0.05082624 -0.067256905 0.11747661 -0.044675127 -0.06342857 -0.0059168194
-0.09637918 -0.02900891 0.034977153 0.07680336 0.03070048 0.032339644 0.095343925 -0.027232202
0.07159988 0.06758262 0.019449381 0.018798128 -0.04447374 -0.0375425 0.041197017 -0.06042959
0.04734588 -0.027989965 -0.018517878 -0.12424284 0.02925437 -0.0066080866 -0.023333833 -0.007215271

network_body._body_endoder.seq_layers.2.bias f4 [256]
00000000: a51b 93bc ddaa dbbb 4b6d 813c 38df b1ba
00000010: f4a3 593c 7719 d53c 0726 28bc de7f 40bc
00000020: 7e59 bb3c d2e8 cb3c e99d b3bc 10bc 153c
00000030: 3e3e 493c dc0a 963c 2e6b 0a3a f6a8 7d3c
00000040: 0893 b53c 03c4 8bbc 7575 3bbc 53d7 babc
00000050: 7df2 33bc e8df 82bc ae04 a23c 442d 8fb9
00000060: 2bb4 b23b 274f 87bc f2ea 88bc ac94 90bc
00000070: ad11 af3c 99bf 5b3b 799b 31bc 93ef cdbb
00000080: 86a7 96bc 4927 babc 6525 823c 36b2 c43c
00000090: 1905 35bc ea87 643b c176 98bc c0a5 4b3c
000000a0: a1a8 96bc 9f72 883c 77fc 55bb b0cf 25bc
000000b0: 3987 953c a962 08bb 5f31 68bc 3237 b23c
000000c0: 5a53 cf3c 1c7b 223c adda 803c b254 a6bc
000000d0: 0ecf 1fbc cb21 c1bc 7a79 1cbc e8b2 ec3b
000000e0: 8061 b73c 8ec7 a3bc c2b0 bfbc 6017 fcba
000000f0: 1c4b 883c 08b6 c8ba 8f58 aebc da76 513c
00000100: ef2d a0bc 4528 abbb a4b8 a5bc 8cb3 803b
00000110: cc01 21bc 00c5 bebc 2b2e 9d3c 342b 83bc
00000120: adb0 8a3c c308 5c3c 4a5d 6b3c b74b 643c
00000130: b195 dabc e07e 14bc 65c8 b13c e67d 983c
00000140: f6e3 073b a34a 64bb 034e c1bc 3c32 d0bc
00000150: d5d2 363b a704 e23c 28d4 99bc 8f64 c53c
00000160: 6e23 a63c 68b2 d5bb 397c 92bc 1a56 12bc
00000170: 7045 77bc add9 813b 17aa 2abc 5f8e debb
00000180: cff1 b13c 3c92 5d3c f5bd 183c e320 b6bc
00000190: e09a 91bc 722c 973c 46d2 433c 4853 b9bb
000001a0: b784 b7bc 68c2 b03c 148b 6abc 263a 6c3c
000001b0: bc29 e6bc 943a 8bb9 0e45 a1bc d2fb c13c
000001c0: 8fa4 dabc 2e18 1a3c 52ab f13b 346e 1ebc
000001d0: 7ef5 4d3c 0a39 133c b052 d4bc 8b23 e3ba
000001e0: fe87 a2bc 4109 85bc c6e7 833c c336 7f3c
000001f0: 8a0a ac38 4b2c c73c 40d4 a73c cd3e 193c
00000200: f852 89bc 5fb1 1e3c 0d97 983c ac88 11bc
00000210: f3dd 873c de5c 843c 4570 6ebc 68f9 ab3c
00000220: c4a0 c4bc 7b03 a4bc e091 d6bc fc32 893c
00000230: f758 bdbc 21b6 53ba 1ba9 55bc 5d45 603c
00000240: eac8 8b3c 9c2c a4bc a4da 8b3c 6a73 843c
00000250: 29d2 94bc c053 ab3c 3b0d 2a3b 312f 2bbb
00000260: 0a5a b03c 8fe9 373c c339 a4bc a417 a239
00000270: 9ddd 27bc 2cd2 83bc bcfd 4bbc 132d 83bc
00000280: f538 a4bc e984 64bc 9410 c4ba 4592 bb3c
00000290: 6c80 b1bc 67f4 1e3c 22ac 8dbb 080c 633c
000002a0: 6f65 7b3c 44ab 51bc a324 b8bb 01d5 6fbc
000002b0: f9a9 4fbc 1711 263b a926 e53b 3ca6 a93c
000002c0: ddf7 c1bc 667a a23c 0f5c 4b3c eae7 943c
000002d0: 1e3e 3f3c 98f1 99bc a652 b03c 854b ac3b
000002e0: c9c0 6f3c 8775 8cbc 30a2 1439 c6b7 3a3c
000002f0: 2284 8f3c 0b8d 90bc a21e 943c 0bc2 10bc
00000300: dccc 7a3c 23f9 97bb e2fe 92bc 7e72 c3bc
00000310: c3f0 843a f7b3 923c 9e48 bebb 9d8b b0bc
00000320: 9849 9e3c a83e ca3c 6053 443c ba5d 89bc
00000330: a5bc 34bc 3ea6 9cbc 13d4 93bc 037c a23c
00000340: 691a 983c 229c 473c 6e5f 02bc 3694 70bc
00000350: aa71 d53c 0048 89bc 8e14 65bc 69ee c03c
00000360: a1f7 c93b 2f61 6b3c d2d7 3fbc aa83 9d3b
00000370: d621 883c 8fcc b5bc cd51 c6bc 24fb b33c
00000380: ae0c b63c c6e2 903c 1c99 38bc 0eab de3c
00000390: 59d6 a5bc ffc7 04bc 64ac fd3b 3f72 01bb
000003a0: f01f 4b3b ad97 c23c 3a73 9d3c 20fd b83c
000003b0: ae33 28bc f0b7 99bc d142 88bc 0989 32bb
000003c0: 06e9 663b 7291 76b9 c224 873b ca7c a03c
000003d0: 847b 893b 7255 d03c ca7c e538 49e8 973c
000003e0: 2738 cbbc 0d96 2fbc 85d4 943c 8733 c93c
000003f0: 4936 abbc 8b10 28bc b38f 5b3b f7b3 653c
-0.017957518 -0.006703718 0.015799185 -0.0013570553 0.013283718 0.02601312 -0.010262973 -0.011749236
0.022869822 0.02489129 -0.021925883 0.009139076 0.012282906 0.018315725 0.0005280253 0.015482178
0.022164837 -0.01706124 -0.011441578 -0.022807753 -0.010983107 -0.015975907 0.019777622 -0.0002730881
0.0054536066 -0.016517235 -0.016713593 -0.017649017 0.021370733 0.003353095 -0.01084029 -0.006284663
-0.018390428 -0.02272381 0.015886972 0.024010759 -0.011048579 0.003487105 -0.018611314 0.012429655
-0.018390955 0.016656218 -0.0032651701 -0.010120317 0.018252956 -0.002081076 -0.014171927 0.021754835
0.0253083 0.009917047 0.015729273 -0.020304058 -0.0097539555 -0.023575684 -0.009550447 0.0072234757
0.022385359 -0.019992616 -0.023399714 -0.001923304 0.016637377 -0.0015313039 -0.021282462 0.012784684
-0.019553153 -0.0052233064 -0.020229645 0.0039276537 -0.009827089 -0.023287296 0.019187054 -0.016011812
0.016929949 0.013429823 0.014365504 0.013934067 -0.026682707 -0.0090634525 0.021702 0.01861472
0.002073524 -0.0034834526 -0.02359677 -0.025414579 0.0027896662 0.027590109 -0.018777922 0.024095802
0.020280566 -0.006521512 -0.0178815 -0.008931661 -0.015092239 0.0039627166 -0.010416529 -0.0067918743
0.021721749 0.0135236345 0.009322633 -0.022232478 -0.017774045 0.01845381 0.011951989 -0.00565568
-0.02240215 0.021577075 -0.014315385 0.014418161 -0.028096072 -0.0002655579 -0.019686248 0.023679648
-0.026689796 0.009405179 0.0073751593 -0.009669829 0.012570737 0.008985767 -0.025918335 -0.0017329318
-0.019840237 -0.016239764 0.01610173 0.015577021 8.203562e-05 0.024313113 0.02048695 0.009353352
-0.016763195 0.009685843 0.018626714 -0.008882683 0.016585326 0.016157564 -0.014553134 0.02099295
-0.02400244 -0.02002119 -0.026192605 0.016747944 -0.02311371 -0.00080761506 -0.013040806 0.0136884125
0.017063577 -0.020040803 0.01707203 0.016168315 -0.018166618 0.020913959 0.0025947827 -0.0026120658
0.021527309 0.011225118 -0.020047074 0.00030916661 -0.010245708 -0.016091429 -0.012450632 -0.016012704
-0.02004669 -0.013947704 -0.0014958554 0.022896895 -0.021667682 0.009701825 -0.0043234983 0.013857849
0.015344008 -0.012797181 -0.005619602 -0.014638186 -0.012674802 0.0025339776 0.006993134 0.02070915
-0.02367776 0.019833755 0.012412085 0.018176991 0.011672525 -0.018791959 0.021523785 0.005258026
0.014633366 -0.017145885 0.000141748 0.011396354 0.01751906 -0.01764538 0.018081013 -0.008835326
0.015307631 -0.0046378537 -0.017943803 -0.023858305 0.0010142553 0.01790808 -0.0058069965 -0.021550948
0.019322202 0.02468808 0.011982769 -0.016768325 -0.0110313045 -0.01912224 -0.01804546 0.019834524
0.01856728 0.012183221 -0.0079573225 -0.014683774 0.026055176 -0.016757965 -0.013981951 0.023551183
0.006163553 0.014366432 -0.01170917 0.0048069553 0.016617697 -0.022192268 -0.024208928 0.02197034
0.022222843 0.017686259 -0.011266973 0.027181175 -0.02024381 -0.008104323 0.007741498 -0.0019751934
0.0030994378 0.023753965 0.019219983 0.022581637 -0.010266228 -0.018764466 -0.016633423 -0.0027242324
0.0035234108 -0.00023514571 0.004124255 0.019590754 0.0041956324 0.025431368 0.00010942815 0.01854338
-0.024807049 -0.010716927 0.018167743 0.024560703 -0.020899909 -0.01025785 0.00335024 0.014019958

network_body._body_endoder.seq_layers.4.weight f4 [256, 256]
00000000: 2282 32bd 8381 473d 46cb a83c b12e d33d
00000010: c954 15bd fdb5 a43d da24 423c aa52 f53a
00000020: ce7b 073c 1167 f8bc 12df 1d3e 283e debb
00000030: c785 2e3d 949b 51bd da21 76bd 1a9a ddbc
00000040: 4f50 183b fa76 a5bc 9903 febc 3c1f 423d
00000050: 8d19 f9bb 12b8 5fbb e656 093c 8337 07bd
00000060: 32b7 2c3c faf0 44bd a660 cbbd 6e65 8fbd
00000070: a948 34bd 3c50 94bd 2c71 e9bc 0a45 57bc
00000080: 2df2 dd3d 6240 ccbc f64e d2bc f0c0 703c
00000090: dbf1 b03d d1cc 62bb f0dc 46bb afad dcbd
000000a0: 2c87 cc3c 6a48 ab3d 94bf ce3d ca90 83bc
000000b0: ed7c babd 1200 383d 32c4 5fba ec8c 093d
000000c0: c317 8b3c 62eb 93bd b312 a53d e5dc e8bd
000000d0: 4c5b 183d caad febc a035 993d e6c7 97bd
000000e0: 4412 223d 980e 743d 3c4d 23bd a1ea 24bd
000000f0: 25cd 02be 4955 833d fd0e 4c3c 507f 33bc
00000100: ff58 79bd 9afd e33d cbfd ea3c 4aec 8ebc
00000110: ecc8 d2bd e72f 3d3b 0ff5 883d 7067 b5bb
00000120: af73 303d fa72 4cbb 7168 653a a24d 653b
00000130: e70b 26bd 33c5 5ebd b9db 0abe a0b2 e33d
00000140: 38d1 5f3d 3eb9 ae3d d1e4 913c e6ac de3b
00000150: 544e 823d 5ee6 103e 576f 093d 278c 2e3d
00000160: 7ac7 c13c 9164 103d 646b 6d3d 3d43 3a3d
00000170: 5e25 b93d 2701 80bd 8904 5e3d 8765 8a3c
00000180: fa14 763c b193 c63c 87aa b3bd b658 32bd
00000190: 74c6 543c 000c 353d 2d42 4d3d 3739 b0bc
000001a0: 6556 bc3a 1770 e3bc 577f a83d 7c7e f4bc
000001b0: 5e79 2a3d 8c58 a83d 049f 72bc a96b 8bbb
000001c0: 72b6 d63c c8bb a53b daa9 0dbd 030e fc3c
000001d0: 19ad 07be 26fe afbd 927e 63bd 49c7 37bd
000001e0: 7298 763d 2bd9 5dbd 95fb 23bd de23 45bd
000001f0: 4f80 823d 4dff 563d 2cb8 883d 8b4a e3bd
00000200: e1bb ba3d d2fa c93d 4b21 fcbd 1674 9dbd
00000210: 6d73 463d bd9c 323e 89de f0bb 904a 89bd
00000220: 1985 ac3d edf0 b23d 725d 0b3e 10f4 c5bd
00000230: b359 c4ba 10b4 b33c c958 843d a33a 83bd
00000240: 87bb 963c 4aaf a13d 11cb 2ebc 4965 13bd
00000250: 9508 bfbd 3f31 b83c 6d61 3dbd 043a efbd
00000260: 96dc 643c c2f8 493d ea84 62bc f381 cf3b
00000270: 1924 47bd 6a94 acbc 6aa9 45bc d7a3 35bd
00000280: f733 4cbc 6aec 07bd dd52 023d 183d 453d
00000290: cc1a 7b3b 283c f6bd 31fa 1ebd 6a65 243e
000002a0: 7df9 b03d 7876 1a3d 70b9 a4bd 0e35 8dbd
000002b0: 0e78 37bc 7fd5 383d c1a7 133c 7e91 433d
000002c0: 90f2 a23c 47cd 33bc de1a 00be 0130 a1bd
000002d0: 78e0 12bd 562a e9bc b474 a73d 41bc 91bd
000002e0: cfc3 d93c 8e42 9b3c 6db7 ce3c 018e b9bc
000002f0: dd5a a93c 8555 923c ae3d 93bb 161a 853d
00000300: 3230 4e3d 32db 5b3d 946e 67bd 7207 763d
00000310: 4a1a 73bd 6675 ddbd b9a2 bb3c 35a1 c2bb
00000320: 603a d7bc 070e 36bd 3f3e a53d 33a1 de3c
00000330: 5c8c d2bd 5d4f f0bc 7c7e aa3d 16eb 403c
00000340: 92ea b2bd 32f5 7ebd d696 3e3d 10c4 f0bb
00000350: 7918 2ebd a4c3 4cbd e872 de3c 029b 933d
00000360: 2270 9fbd 45ca 14bc 7095 debc 4ca0 3e3d
00000370: 52ca 813d 67fc bfbd 74ae d13b e73b 15be
00000380: a329 ed3b db5f 3bbc f131 18bd 733e 01bc
00000390: 469a b9bc 5f31 0bbd 1400 513d e390 52bd
000003a0: 6538 08bd 9128 aebd 4d1b 3b3d 5003 f03c
000003b0: 2e05 f7bc 0537 d2bc 0c7c b33d e904 71bd
000003c0: 14a0 7c3c 8cc4 85bd c6be 893c 3235 613d
000003d0: ffa8 f53c 21a7 983d 586c 9c3d c997 4f3d
000003e0: 0f8d 9bbc 5999 cdbc ef47 2c3d 51a6 9fbd
000003f0: 7ab0 2c3e e482 513d e93d 803d 5e7a 95bd
-0.043581136 0.048707496 0.02060474 0.1031164 -0.03645781 0.08042524 0.011849606 0.0018716652
0.008269263 -0.030322583 0.15417126 -0.006782312 0.04260805 -0.05117376 -0.060090877 -0.02705102
0.0023241227 -0.020198334 -0.031007575 0.04739307 -0.007601923 -0.0034136814 0.008382535 -0.033011924
0.010541724 -0.048081376 -0.099305436 -0.07001768 -0.044014607 -0.07241866 -0.028496347 -0.013139019
0.10837207 -0.024933044 -0.025672417 0.014694437 0.0863988 -0.0034606943 -0.0030344091 -0.10775315
0.024966799 0.08363421 0.100951344 -0.016060252 -0.09105859 0.044921942 -0.000853601 0.03358166
0.016979104 -0.0722263 0.08060207 -0.11370257 0.037196442 -0.031088728 0.07480931 -0.074111745
0.0395682 0.05958423 -0.03986858 -0.040262822 -0.12773569 0.06412751 0.012454745 -0.010955647
-0.06087589 0.11132355 0.028685471 -0.017446656 -0.10292229 0.0028867663 0.06687366 -0.0055360124
0.043079074 -0.003119646 0.000875122 0.00349889 -0.040538695 -0.054387283 -0.1356038 0.111180544
0.054642886 0.08531426 0.017809303 0.0067955134 0.06362596 0.14150378 0.033553448 0.04261413
0.023654688 0.035252158 0.057963744 0.04547428 0.0904033 -0.0625022 0.054203544 0.016894115
0.01501965 0.024240347 -0.0877276 -0.043541633 0.012986768 0.044200897 0.05011194 -0.021511657
0.0014369009 -0.02776341 0.08227413 -0.029845469 0.04161965 0.08220014 -0.01480842 -0.0042547775
0.026210044 0.0050577857 -0.03458581 0.0307684 -0.13249625 -0.08593397 -0.05554063 -0.044867788
0.060203977 -0.054162186 -0.04003485 -0.04812991 0.06372129 0.052489568 0.06675753 -0.11098202
0.09117866 0.09862293 -0.12311038 -0.07688157 0.048449922 0.17442603 -0.007350747 -0.06703675
0.08423824 0.08737359 0.13609865 -0.09665692 -0.0014980346 0.021936446 0.06462247 -0.064076684
0.018399967 0.07894762 -0.010668532 -0.035985265 -0.09327809 0.02248442 -0.04623549 -0.116809875
0.013968607 0.0493095 -0.0138256345 0.00633263 -0.04861841 -0.021066863 -0.012064317 -0.044345703
-0.012463561 -0.033184446 0.031817306 0.048153967 0.0038315533 -0.12023193 -0.03881282 0.16054311
0.08641336 0.037710637 -0.08043182 -0.06894885 -0.011198057 0.04512548 0.009012164 0.047746174
0.019891053 -0.010974235 -0.12510249 -0.07870484 -0.0358586 -0.02846257 0.08176556 -0.07115985
0.026582627 0.018952634 0.025233949 -0.02265072 0.02067321 0.017863045 -0.004493437 0.06499116
0.05033893 0.053675838 -0.05650194 0.060065694 -0.059351243 -0.108134076 0.02290474 -0.0059396275
-0.026272953 -0.04444697 0.08068513 0.027176475 -0.10280678 -0.029334718 0.08324906 0.011774799
-0.08736147 -0.062245555 0.046530567 -0.007347591 -0.042503808 -0.049991265 0.027154401 0.072073
-0.077850595 -0.009081428 -0.027170867 0.04653959 0.06337418 -0.09374314 0.0063989703 -0.14573632
0.0072376295 -0.011436428 -0.037157003 -0.007888424 -0.022656571 -0.03398263 0.051025465 -0.051407706
-0.033256907 -0.08503831 0.045680333 0.029298455 -0.030153837 -0.025661001 0.087638944 -0.058842573
0.015419025 -0.06531629 0.0168146 0.05498237 0.02998781 0.07453752 0.076378524 0.050681863
-0.01898816 -0.025097536 0.04206079 -0.07795394 0.16864195 0.051150218 0.062618084 -0.0729873

network_body._body_endoder.seq_layers.4.bias f4 [256]
00000000: 6624 083c 8dc7 49bc 8736 aebc e6b6 a83c
00000010: 2b42 c13c e1c7 85bc 3051 ca3c 9d00 87bc
00000020: 5b2f a33c eb44 3ebc 3051 5e3c a451 71bc
00000030: 7d99 22ba d8cc 84bc 83ad 4ebc 5933 74bc
00000040: e0fc 8fbc f06d 64bc 19d8 adbc f5f8 513c
00000050: 93d5 883b 83df c8bc 9d33 7f3c abf1 60bc
00000060: a848 adbc 0f8c 2ebc 4dd6 263b feb4 c1bc
00000070: 3c91 9d3c bfee 78bc 56db 463c 7cca 48bc
00000080: da35 38bc dba5 28bb 6b48 183c 8327 263c
00000090: 97bc 5f3c a1f2 883c e936 323b 9290 0a3c
000000a0: 3ac8 5dbc a5b4 a03a 9461 9c3c d5bb 5e3c
000000b0: 309b 4abc 1092 a0bc a565 a13c 1ed6 143b
000000c0: bde7 58bc e735 803c 671b e93b 3a7d c8bc
000000d0: a31b 823c bffd 833c bda9 453c dc41 d13c
000000e0: a83d b6bc 49ea 603c c464 68bc f5a2 a73c
000000f0: 092f 72bb e74a 8bbc 5152 0c3c 68bf 3dbc
00000100: 8135 663c b5ba 783c 90bf 6cbc ed67 92bc
00000110: f531 38bc 5c6c a7bc 1d4b 9c3b ce8b 75bc
00000120: aa59 203c 8cbe 813c e623 b23c b2f1 5c3a
00000130: 1377 95bc 65e3 4ebc bec2 b3bc d5cb 85bc
00000140: 96a6 263c d01d 813c a2f3 2ebc 1818 71bc
00000150: 21a1 5ebc 94d5 a43c a560 75bc b084 c4bc
00000160: 5c84 b8bc 4ffd 83bc 8222 943c 45f6 bd3c
00000170: 0d09 02bc 385e 903c 66b8 46bc a7c9 d5bc
00000180: 2449 a63c 85a8 bfbb 1acf 293c b092 87bc
00000190: b59f 7dbc d9ed 833c 7678 173b 0fa5 b6bc
000001a0: 63e3 9cbc c224 d23b a5f9 b33c 1798 82bc
000001b0: e6f9 903c f2a6 943a 6b8f 83bc a0d5 523c
000001c0: ed7a 8c3c 771d 113c e6dd 6ebc 2e54 4b3c
000001d0: 7d12 5cbc 229d 15bc dd09 44bc ef14 7c3c
000001e0: 1a9b c1bb 1f88 353b 324d 773c 61bd be3b
000001f0: c3f5 3cb9 a454 69bc 7480 d23b d1a5 893c
00000200: 73f9 913c cd5a b73c ecf5 8b3c d568 a2bb
00000210: 8f9b 243c 04ff b43a 959e 2c3c 343f 48bc
00000220: b861 77bc 2300 95bc c396 3bbc 8ffc 98bc
00000230: 4930 51bb e9a6 b3bc 85bd 9f3c 28f3 1b3c
00000240: 9970 d93a 33b8 39bc 5195 9dbc 97ea b23c
00000250: 979e 643c 3b8c 9abc 68e2 a03c 42a8 72bc
00000260: ebc4 35b9 3580 9f3c 6e23 8bbc 896e ac3c
00000270: f90c 34bc 0a1d 99bb ecdc 52bc e29b babc
00000280: f655 faba a2d5 6fbc 6622 97bc db31 88bc
00000290: e5ba b6bc 9dae 033c 7cd6 7c3c df31 a2bc
000002a0: 24f3 153c 395e 88bc 8328 953c 88e8 483b
000002b0: 6dea 51bc f986 833c 98a4 8cbc bca5 9c3a
000002c0: 16e7 973c 5abe a03a 56cc 3ebc 84c9 75bc
000002d0: 8fb5 97bc 0b88 2d3c 69a9 0abc 90ec 8e3c
000002e0: 3b6f 41bc 44fd 9cbc 9542 853c 508c 743c
000002f0: a39e a3bc 2552 8fbc 9edc 3bbc 09a2 483c
00000300: 8ed6 9bbc a6c3 3bbc 92b2 35bc 00f5 80bc
00000310: 7e6a 6ebc 2b1c 283c 8561 8abc c6db aa3c
00000320: 5300 8bbc e6e1 c2ba 1948 f03b 3ad3 b13b
00000330: a334 c23c 0943 9cbc e46b 86bc f476 8cbc
00000340: 2244 80bc 5a20 a23c cb59 3fbc 678c 6dbc
00000350: 65f2 aabc 700e 1b3c bcf3 afbc 053a 193c
00000360: 26d3 db3b d956 d83b eca4 f43b bc91 243c
00000370: 9112 84bc 42d7 47bc e6ec 93bb 4664 3c3c
00000380: df7d 54bc 55cb 613c 6cc4 bb3a f662 9b3c
00000390: b0bf d83b 64c3 963c 83ed 2c3c c3f0 58bc
000003a0: a8fe 6abb cfef bfbc 33e0 27bb f5f7 8bbb
000003b0: 8b78 ba3b 5cb8 f1bb 9e57 9c3c 9f87 2cbc
000003c0: 4c91 353b 1ad7 333c 9762 dcbc 56d0 35bc
000003d0: 53f9 46bc 9ab7 95bc 196b bdbc c968 9a3c
000003e0: 06e9 dabc e007 ab3b 09c7 a1bc fe4f 643c
000003f0: b197 323c 119e 86bc 402b 1cbc f47a b8ba
0.008309459 -0.012315643 -0.021266235 0.020595025 0.023591122 -0.016330661 0.024696916 -0.016479785
0.019920042 -0.011613111 0.013569161 -0.014728937 -0.0006202681 -0.016210958 -0.012614611 -0.01490482
-0.017576635 -0.013942227 -0.021221207 0.012815704 0.0041758507 -0.024520641 0.01557627 -0.013729493
-0.02115281 -0.01065351 0.0025457323 -0.023645874 0.019234292 -0.01519364 0.012137255 -0.012255307
-0.011243308 -0.0025733623 0.00929461 0.010141256 0.013655803 0.016717257 0.0027193374 0.00845732
-0.013536507 0.0012260868 0.019089498 0.013594587 -0.012366101 -0.019600898 0.019701788 0.0022710632
-0.013238844 0.015650703 0.0071138623 -0.024473775 0.015882319 0.016112207 0.012064395 0.0255441
-0.022246197 0.013727733 -0.014184181 0.020463446 -0.0036954305 -0.01700349 0.008564548 -0.011581279
0.014050842 0.015181233 -0.014449969 -0.017871821 -0.011242379 -0.020437412 0.0047696964 -0.014986945
0.009787003 0.01583793 0.021745633 0.00084283494 -0.018245256 -0.012627457 -0.021943446 -0.016332546
0.010171553 0.015761286 -0.010678204 -0.014715217 -0.013588221 0.020121373 -0.014976655 -0.023989052
-0.022524051 -0.016111998 0.01808286 0.02318872 -0.007936728 0.017623052 -0.012128925 -0.026097132
0.020298548 -0.0058489465 0.010364318 -0.016549438 -0.015479972 0.016104626 0.0023112572 -0.022295503
-0.019151395 0.0064130733 0.021969626 -0.015941663 0.017697286 0.0011341257 -0.016059598 0.012868315
0.01714846 0.008857123 -0.014579272 0.012410207 -0.013432142 -0.009131702 -0.011965242 0.01538585
-0.005908382 0.0027699543 0.015094088 0.0058209156 -0.0001802063 -0.014241371 0.006424004 0.0168027
0.017819142 0.022382164 0.017085038 -0.0049563446 0.010046854 0.0013808911 0.010535856 -0.0122221
-0.015098982 -0.018188542 -0.011449519 -0.018675117 -0.003191965 -0.021930175 0.01949955 0.009518422
0.0016589343 -0.01133542 -0.019236239 0.021840377 0.013953826 -0.018865695 0.019639209 -0.014810624
-0.00017334863 0.019470314 -0.016984668 0.021048801 -0.010989421 -0.004672651 -0.012870055 -0.022779409
-0.0019099105 -0.014638336 -0.01844902 -0.016625335 -0.022305915 0.0080372365 0.015431996 -0.019799171
0.0091522075 -0.016646491 0.018207794 0.0030656178 -0.012812239 0.01605557 -0.017168328 0.0011951248
0.018542808 0.001226376 -0.011645397 -0.015001658 -0.018519191 0.010591517 -0.008463242 0.017446786
-0.011806305 -0.019163735 0.0162671 0.014926031 -0.019973105 -0.017495224 -0.011466173 0.012245663
-0.019023206 -0.01146022 -0.011089938 -0.015741825 -0.014551757 0.010260622 -0.016892204 0.02085675
-0.016967928 -0.0014868348 0.0073328135 0.0054267915 0.02370674 -0.019074934 -0.016408868 -0.017146565
-0.015657488 0.019790817 -0.011679123 -0.014498807 -0.020867536 0.009463891 -0.021478526 0.009352212
0.0067085205 0.00660215 0.0074659493 0.010044511 -0.016122134 -0.012197318 -0.0045143245 0.011498516
-0.012969463 0.013781388 0.0014325506 0.018968087 0.006614648 0.018403716 0.010554674 -0.013240996
-0.0035857353 -0.02342978 -0.002561581 -0.004271502 0.0056906394 -0.0073767137 0.019084748 -0.010530381
0.0027705012 0.010976577 -0.02690248 -0.011097034 -0.012144404 -0.018276025 -0.023122357 0.018848794
-0.026722442 0.0052194446 -0.019748228 0.013935087 0.010900424 -0.016432794 -0.009531796 -0.0014074729

action_model._discrete_distribution.branches.0.weight f4 [2, 256]
00000000: 6492 f8ba 1ad9 03bb e907 e2bb 6bed 503c
00000010: 6853 7b3c 4fe4 37bc f44b 413c 154c f7bb
00000020: ab6a 8a3c ed6a a6bb 8115 fa3b 5def 86bc
00000030: 8b81 53ba 253c babc 26e8 99bb d38e 04bd
00000040: 57d8 9abc a431 17bc ca5b 6ebc 4c8d f5bb
00000050: 2694 b6ba 952f fdbb 9260 8b3c c612 e9bb
00000060: 5195 4bbc 7447 c13a ccf6 103b 84f6 e2bb
00000070: b063 a33c 554a cdbc 7838 843b f6d9 44bc
00000080: 6b05 65bb 6c6f a23a 6b71 a93b ff27 2f3c
00000090: f7df f73a 78e6 7e3c 3adc 323b 4e65 953b
000000a0: 1470 063a d9a2 13bc 9ffd 0a3c aa6f f9b9
000000b0: e41b 64b6 980a f5ba febb 443c 8eb5 843b
000000c0: c854 01bc 88ea 303a d752 473b c4fd 6cbc
000000d0: e00e 62ba 82b6 693b 242f 6cba f96d 803b
000000e0: 4a44 7cbc 1864 9cba 8e2f 07bc b042 5f3c
000000f0: 6913 40bb 6aed 44bc 9940 0f3c 53ce cebb
00000100: 2ff8 a83b 287b 903b 0950 5b3b f735 c3bc
00000110: 5153 fcbb f909 fbbb 719e a23b 42af 24bc
00000120: da9e 85bb 798d 5a3c 26f3 9d3c cd9e 37bc
00000130: 29e1 903b dbb3 7d3b f966 b9bc 9c47 26bc
00000140: f162 5c3b b83f de3b ceb0 d7bb 1718 20bc
00000150: 43ec fbba 2bb7 2c3b e2a6 3fbc 6a8f 7fbc
00000160: 3036 89bb a40f dbbc 819e 4839 c321 303c
00000170: 48e4 c4ba e83e dd3b de4d 30bc cfff 2abc
00000180: 5794 993c f140 e3ba 1752 3a3b 153a 98bb
00000190: 4c8d aabc 43cf ba3c 1e47 bebb 75a3 90bc
000001a0: 0045 4abc 1ac8 a23a e758 e63b a615 eabb
000001b0: 9136 103c c7e7 e83b d47f 6ebc a3c1 383b
000001c0: 7758 fe3b 8030 d63a d21d 84bc 2243 34bb
000001d0: 5a45 68bb e5e9 82bb c376 243a 2776 563c
000001e0: 1e03 92ba 460f d5bb 18d5 1c3c e708 b5bb
000001f0: 37bf afbb 4e4d b8bc 9d8a 46bb b13d 603c
00000200: 0e15 113c 255e 513c 6c6c 0f3c df1b 283b
00000210: 2164 ab3b c793 a63b c2e3 fb3a 6b4d acbb
00000220: a09e aebc 57c1 06bd 52b1 0dbc 979f 1eb9
00000230: 9f53 0d3c 946c 68bc 19c7 c53c 97eb a83b
00000240: c943 9e3b 6f9e 61bc 766f 2cbc 8aa6 c83b
00000250: b77c a8bb 6c34 41bb ccb0 f43b 78c6 43bc
00000260: 062c 64bb f93f b23b 4a79 34bc a892 703c
00000270: bbde d5bb 54e7 8cba ea4a 2ebc 5739 88bc
00000280: 7352 3b3b 37ee f2bc c922 80bb 0575 83bb
00000290: 7447 8dbc c56f 8a3b 4c80 0c3c e9f3 87bc
000002a0: 91d3 29ba 26a5 ee3a a33b 423b 8573 26bb
000002b0: 88e8 89bb 8608 263c 5eb8 a4bc bbe3 49bc
000002c0: dcd7 323c b8a8 24bb 901b 31bc ef8a dabb
000002d0: 719b dbbc ff51 143c c3ee 05bc 501d 993c
000002e0: 3300 cbbb 8353 c7bc f37a 4f3c 04d7 7b3c
000002f0: 71e3 8fbc 096d f2bb 55ce a9bb 822e 4c3b
00000300: a417 2b3b 365a 533b f26d b33b 68da ecbb
00000310: 6213 b6bb a197 94bb 7c65 1cbc f3b3 b43c
00000320: c273 29bb b58d 453c 33c8 0eba 68cc 0e3c
00000330: f98d 783c 9145 0fbc b05b 7abc 6211 82bc
00000340: 2199 f4ba b445 073c c83f 37bc 1d2e c3b9
00000350: 0e9b 27bc b8c6 463c 64e4 77bc f6df 16bb
00000360: 40a8 e73b a4a6 be3b 1c8a 2c39 a7e6 2bbb
00000370: 3573 08bc e878 7fbc 287b 433b b0c4 4e3c
00000380: e076 dbba afa4 0abb d92f 483b b426 693b
00000390: 1b8a d0ba 03e5 853c 595a 3e3b c612 2cbc
000003a0: f11a d7bb f160 e8bb 1b29 7e3b cd36 2cbc
000003b0: 5dd6 cf3b 4aca d23b f0eb ea3b b299 c8bb
000003c0: 0fb5 323b 899f 623c d3a0 83bc a468 dabb
000003d0: 153b 6abb 859a 8bbc 5432 9bbc 7c57 773c
000003e0: 0d73 4abc a401 2bba 1c63 4abc fb81 a23a
000003f0: fb92 5c3b e005 4abc 4a29 81bc 2840 35ba
-0.0018964526 -0.0020118416 -0.0068979156 0.012751917 0.01533971 -0.011223867 0.011797894 -0.0075469115
0.016896566 -0.0050786645 0.007631958 -0.01647156 -0.00080683146 -0.022733757 -0.0046968637 -0.03236277
-0.018901987 -0.009228144 -0.014548251 -0.0074936505 -0.001392965 -0.0077266195 0.017013822 -0.0071128337
-0.0124257365 0.0014746026 0.0022119759 -0.0069263596 0.019944996 -0.025059858 0.004035052 -0.012014857
-0.0034945856 0.0012392825 0.005170991 0.010690688 0.0018911351 0.015557878 0.002729191 0.0045591956
0.0005128395 -0.009010994 0.00848332 -0.00047576177 -3.3990882e-06 -0.0018695174 0.012007711 0.0040499633
-0.007893749 0.0006748815 0.0030414367 -0.014464799 -0.00086234324 0.0035661762 -0.000900971 0.0039193598
-0.015397141 -0.0011931686 -0.008251084 0.013626739 -0.0029308444 -0.012019495 0.008743429 -0.006311217
0.005156539 0.0044092126 0.0033464453 -0.023829443 -0.007700362 -0.007661101 0.0049627353 -0.01005155
-0.0040777745 0.013339394 0.019280981 -0.011207295 0.0044213724 0.0038711939 -0.022632109 -0.010148909
0.003362831 0.006782498 -0.006582356 -0.0097713685 -0.0019220192 0.0026354294 -0.011697503 -0.015598157
-0.004187368 -0.026740856 0.00019132534 0.010750237 -0.0015021646 0.006751884 -0.0107607525 -0.010436966
0.018747492 -0.001733808 0.0028430277 -0.004645596 -0.020819329 0.022803908 -0.0058068177 -0.017656067
-0.012345552 0.0012419254 0.007029641 -0.007143694 0.008802072 0.007107708 -0.014556844 0.0028191588
0.0077620107 0.0016341358 -0.0161275 -0.0027505835 -0.0035441727 -0.0039951676 0.00062738004 0.013089693
-0.0011139845 -0.006502065 0.00957229 -0.005524743 -0.0053633708 -0.0224978 -0.0030295022 0.013686583
0.0088551175 0.012778793 0.008753877 0.0025651378 0.005230442 0.0050835344 0.0019217657 -0.0052582524
-0.021315873 -0.032899227 -0.0086482335 -0.00015127506 0.008625894 -0.014186043 0.024142789 0.0051550376
0.004829858 -0.013770684 -0.010524621 0.0061233686 -0.0051418203 -0.0029480709 0.007467365 -0.011949174
-0.003481628 0.005439755 -0.011015246 0.014683403 -0.0065267957 -0.0010750093 -0.010637978 -0.016628904
0.002858308 -0.029654605 -0.0039103967 -0.0040117525 -0.017245986 0.0042247497 0.00857551 -0.016595798
-0.0006478364 0.0018207177 0.0029637597 -0.0025398445 -0.004208628 0.010133868 -0.020107444 -0.012322362
0.010915723 -0.0025124978 -0.010809794 -0.006669394 -0.026807519 0.0090527525 -0.008174601 0.018690735
-0.006195092 -0.024331814 0.012663591 0.015371088 -0.017564507 -0.007398252 -0.0051820674 0.003115565
0.002610662 0.0032249815 0.005475753 -0.0072281845 -0.00555651 -0.004534677 -0.00954568 0.022058463
-0.002585635 0.012057711 -0.0005446702 0.008715726 0.015170568 -0.008744613 -0.015280649 -0.01587743
-0.0018661359 0.008256365 -0.01118464 -0.00037227655 -0.010229839 0.012132339 -0.015130136 -0.0023021675
0.0070696175 0.005818205 0.00016454648 -0.0026230009 -0.008328249 -0.015592791 0.0029828046 0.012620136
-0.0016743802 -0.0021155288 0.0030546098 0.0035576047 -0.0015910299 0.016344553 0.002904555 -0.010502523
-0.006564491 -0.0070916344 0.0038781825 -0.010511112 0.0063426928 0.006432806 0.007169239 -0.0061218375
0.0027268564 0.013831981 -0.016067898 -0.006665306 -0.0035740782 -0.017041454 -0.018944897 0.0150965415
-0.012356532 -0.0006523377 -0.012352731 0.0012398356 0.0033656943 -0.012330502 -0.015766758 -0.0006914162

action_model._discrete_distribution.branches.0.bias f4 [2]
00000000: c4a6 6e3c c5a6 6ebc
0.014566127 -0.014566128

54 f4 [2]
00000000: a6a9 3644 5e93 f83f
730.65076 1.9419973
