results/flappyBirdRun/FlappyBirdAgent/FlappyBirdAgent-12408.onnx (onnx, 71034 bytes, 8 tensors)

network_body.observation_encoder.processors.0.normalizer.running_mean f4 [2]
1.7881509 3.5286312
00000000: 21e2 e43f 18d5 6140

network_body._body_endoder.seq_layers.0.weight f4 [128, 2]
-0.18874127 -0.90405554 -1.0565524 0.8296692 -0.015536106 -0.78260565 0.097205356 -0.1574012
0.3501449 -0.5096604 -0.680294 -0.02359135 0.2021425 0.746701 -0.35268867 -0.3757733
0.88017994 -0.06976342 -0.27402604 0.524658 1.0415778 -0.7004002 -0.8037063 -0.0018138697
-0.31038082 -0.049006924 -0.82333815 0.67765874 0.5339639 1.0456637 -0.02775553 0.023608148
0.55277824 0.0740936 -0.47399607 -0.55121607 -0.5897954 0.037799913 -0.71808046 -0.49099246
-0.05190337 0.22780113 0.8416597 -0.4382049 1.4308325 0.5713136 0.3821527 -0.7481802
-0.1607438 -0.23757741 -0.0020437532 0.41200644 -1.117553 -0.525516 0.23545551 0.24918413
0.67982197 0.16267397 -0.8542518 -0.115010284 0.21287522 0.4041449 0.11319208 -0.24791089
0.8319556 0.29921257 -0.32808033 -0.8307013 0.35165805 0.8333386 -0.33780026 -0.85319465
-0.96797186 0.43181998 0.95051557 1.6528982 1.2039226 0.5481122 -0.044617426 -0.26943097
0.38468742 0.87336844 -0.3168723 0.8118016 0.8992339 -1.0848016 -1.860185 -0.46995714
0.14291437 -0.25406128 1.2054505 0.25316906 0.4534487 0.8099446 0.010879494 -0.94015557
0.22055757 -0.14266194 0.15120903 -0.8986408 -0.08459791 0.25532904 -1.1329507 -0.40776032
0.110986054 -1.1521577 -0.46948862 0.10117455 -0.06874193 -0.4631184 0.5516878 0.05278561
-0.373411 1.0655372 -0.0011388815 -0.5088631 0.79248846 -0.5478851 0.712343 -1.1557523
-0.98854476 0.26659533 1.6157979 -0.23976207 0.21108069 -0.32160598 -0.7176036 -0.57015926
-1.3698167 1.1799572 -0.24040551 0.10384592 -0.6933011 -0.12629996 0.5323497 -0.40361828
0.013588145 0.3258686 0.6276993 0.67153716 0.4929897 0.5163349 -1.3140883 -0.64789814
-0.049203403 0.02263829 -0.72317845 0.002712381 0.8050654 1.2945374 -0.34780008 -0.27221617
0.029971305 -0.70111287 -0.5368664 -0.5722688 1.1295301 -0.2715453 1.8051071 -0.72622126
-0.31068626 0.93865776 -0.30951333 -1.500965 0.21001552 -0.81366444 -0.9133939 0.5283914
0.11042609 -0.5392751 0.21396126 0.60301137 0.51451653 0.7409954 0.45648393 0.16982983
0.9856105 0.69387627 0.59715366 -0.2617776 0.53579164 0.17194302 -0.29520962 -0.9956271
0.7468579 -0.9099309 -0.08383058 -0.5592452 -0.20999771 -0.22321329 -0.032648 0.8052808
0.49647158 -0.5118401 -0.28893474 0.47478324 -0.11444304 -0.35782665 -1.4800987 0.32010263
-0.8281817 0.28454337 0.022530446 0.82823473 -0.99431896 0.57724047 -0.7121173 0.07895321
0.021879055 0.07845657 1.2677093 -0.3109852 -0.4888854 0.6085957 -0.24151158 -0.39535075
-0.4169592 -0.52796525 0.49244073 0.28479245 0.85736144 -1.9785538 2.0974705 0.9565583
-0.19406909 0.9243195 -0.25768194 -0.7678316 1.0956438 0.33927095 -0.4463413 0.83000654
1.0055393 0.32025167 -0.23057562 0.14371288 1.5323157 -1.1129618 -0.9669715 0.9141123
0.12341607 -0.40728503 -1.103142 0.93094456 -0.39111057 -0.2990433 1.1752235 -0.12773742
-0.2959363 -0.355088 0.73827016 -1.6450233 0.18009146 -0.6151962 1.1396333 0.3037976
00000000: 6445 41be 2f70 67bf 1c3d 87bf 3365 543f
00000010: 278b 7ebc d858 48bf 9a13 c73d c82d 21be
00000020: 3146 b33e 1b79 02bf bf27 2ebf a642 c1bc
00000030: 72fe 4e3e cc27 3f3f 9c93 b4be 5c65 c0be
00000040: 7953 613f 20e0 8ebd 244d 8cbe fd4f 063f
00000050: 6c52 853f 6d4d 33bf b2bf 4dbf 5ebf edba
00000060: 3cea 9ebe 7cbb 48bd 4ac6 52bf 0b7b 2d3f
00000070: dcb1 083f 4fd8 853f 915f e3bc e065 c13c
00000080: e082 0d3f 63be 973d 9daf f2be 7f1c 0dbf
00000090: d5fc 16bf 15d4 1a3d 1fd4 37bf 5d63 fbbe
000000a0: a198 54bd b344 693e 0377 573f 655c e0be
000000b0: 8525 b73f 9c41 123f 85a9 c33e bd88 3fbf
000000c0: 069a 24be 7e47 73be 7df0 05bb 82f2 d23e
000000d0: fa0b 8fbf 3788 06bf 401b 713e 202a 7f3e
000000e0: d008 2e3f 0194 263e 3fb0 5abf 838a ebbd
000000f0: f6fb 593e 15ec ce3e 40d1 e73d 5adc 7dbe
00000100: 0bfb 543f 6432 993e 25fa a7be d7a8 54bf
00000110: 860c b43e ae55 553f 28f4 acbe f76a 5abf
00000120: 01cd 77bf 8217 dd3e fd54 733f 2b92 d33f
00000130: 231a 9a3f 1551 0c3f c3c0 36bd dbf2 89be
00000140: c0f5 c43e 1395 5f3f 163d a2be 3bd2 4f3f
00000150: 3134 663f c7da 8abf 8b1a eebf 399e f0be
00000160: 2558 123e 5214 82be 344c 9a3f 609f 813e
00000170: 6e2a e83e 8858 4f3f e83f 323c 09ae 70bf
00000180: d8d9 613e f915 12be 8ad6 1a3e 530d 66bf
00000190: ab41 adbd 7dba 823e 8704 91bf f6c5 d0be
000001a0: a84c e33d e779 93bf d060 f0be 9a34 cf3d
000001b0: 92c8 8cbd db1d edbe 693b 0d3f b935 583d
000001c0: ba2f bfbe 8663 883f 8646 95ba da44 02bf
000001d0: 86e0 4a3f 3342 0cbf 1c5c 363f b1ef 93bf
000001e0: 4511 7dbf 2f7f 883e 77d2 ce3f 3084 75be
000001f0: 8925 583e 8aa9 a4be dfb4 37bf f5f5 11bf
00000200: 2756 afbf d608 973f dd2c 76be 2bad d43d
00000210: 2e7c 31bf c754 01be 1248 083f 0ea7 cebe
00000220: d0a0 5e3c 40d8 a63e e7b0 203f dce9 2b3f
00000230: 2569 fc3e 862e 043f 0c34 a8bf a7dc 25bf
00000240: 8289 49bd ef73 b93c 3922 39bf 34c2 313b
00000250: c418 4e3f 67b3 a53f da12 b2be eb5f 8bbe
00000260: 6286 f53c 227c 33bf 1470 09bf 3580 12bf
00000270: 7194 903f fc07 8bbe c00d e73f a3e9 39bf
00000280: 4512 9fbe e04b 703f 8878 9ebe 9f1f c0bf
00000290: 4f0e 573e 504c 50bf 2fd4 69bf a944 073f
000002a0: 1327 e23d ef0d 0abf a918 5b3e f45e 1a3f
000002b0: 5bb7 033f e0b1 3d3f 43b8 e93e dfe7 2d3e
000002c0: f850 7c3f e0a1 313f 10df 183f b707 86be
000002d0: a429 093f d511 303e b725 97be 6be1 7ebf
000002e0: 1432 3f3f 3bf1 68bf 5eaf abbd b22a 0fbf
000002f0: a409 57be 0692 64be e9b9 05bd e226 4e3f
00000300: 8631 fe3e f407 03bf 41ef 93be ca16 f33e
00000310: 1d61 eabd 0e35 b7be e073 bdbf 7ee4 a33e
00000320: b703 54bf abaf 913e c591 b83c 3107 543f
00000330: b08b 7ebf 08c6 133f 524d 36bf 38b2 a13d
00000340: b43b b33c d7ad a03d 4c44 a23f 7439 9fbe
00000350: 304f fabe eecc 1b3f d04e 77be 6a6b cabe
00000360: ad7b d5be bb28 07bf 3121 fc3e 51d0 913e
00000370: 0a7c 5b3f 4041 fdbf f53c 0640 01e1 743f
00000380: 0cba 46be 34a0 6c3f e3ee 83be 9d90 44bf
00000390: 0e3e 8c3f ecb4 ad3e d986 e4be 4f7b 543f
000003a0: 83b5 803f 07f8 a33e 041c 6cbe 7829 133e
000003b0: ec22 c43f 8875 8ebf 728b 77bf 4403 6a3f
000003c0: 91c1 fc3d aa87 d0be c233 8dbf 6252 6e3f
000003d0: a53f c8be 341c 99be b96d 963f 99cd 02be
000003e0: f684 97be 18ce b5be 46ff 3c3f 2090 d2bf
000003f0: e569 383e 807d 1dbf 81df 913f 5c8b 9b3e

network_body._body_endoder.seq_layers.0.bias f4 [128]
0.0059424317 -0.010528527 0.0012230737 -0.0034754586 -0.0010981675 -0.004664591 0.017613767 -0.001675323
-0.002677133 0.02843037 -0.009040019 -0.0011424094 0.0041787312 -0.007842657 0.013492531 -0.0076370793
0.006021396 0.0016505943 -0.011322923 -0.008315985 0.008242566 -0.012368992 0.0074088196 -0.00013406006
-0.014034779 0.012223156 -0.00040587145 0.006132362 0.0007995784 -0.014096483 -4.8710583e-05 -0.001830008
-0.0034749606 -0.003172034 -0.0027353736 -0.00042634926 -0.0005673017 0.019847587 -0.008142113 -0.0072101103
0.0022602684 0.0022356699 0.0012308077 -0.015252888 -0.00066522177 0.0058808583 0.0020730682 -0.00358966
0.0057906257 0.0037360254 -0.0013752163 -0.0065674023 0.001232119 -0.0051464173 -0.004246109 -0.004253794
0.016614798 -0.0012848843 -0.008382557 -0.003239262 -0.0032984384 -0.0059336405 0.0033025574 -0.011479643
-0.0053768437 -0.008087035 3.071371e-05 -0.000240175 0.023445161 0.006601006 0.0037330105 -0.000995936
0.0006743945 -0.008017328 0.0008005415 -0.0024988821 -0.00040743157 -0.004412845 -0.0051375893 -0.0031914958
0.007045884 0.0017957909 -0.0011220013 0.0044869273 -0.0027187981 -0.0016560265 0.00035666907 0.005336005
0.010481665 0.0046471194 -0.007580922 -0.00368738 0.00072925224 -0.0017637847 0.0012206705 0.01075725
0.00268557 0.011769654 -0.003344668 -0.0045966893 -0.014218271 0.0046988158 -0.00774951 -0.0037825098
0.0002697753 0.0031052427 0.013681922 -0.009644225 -0.0005136187 0.008869627 -0.0023934836 0.008651505
0.017817013 0.0022895532 0.002768644 0.0065222126 -0.010474469 0.0018960115 0.0031053931 0.00191666
-0.0028256488 0.0014445075 0.0068545076 -0.00866924 -0.004830373 -0.0011227353 -0.004051282 -0.007945918
00000000: bbb8 c23b d87f 2cbc 8b4f a03a 85c4 63bb
00000010: 63f0 8fba 6dd9 98bb bf4a 903c 8396 dbba
00000020: d772 2fbb cfe6 e83c 961c 14bc e6bc 95ba
00000030: bded 883b 7d7e 00bc c70f 5d3c 7740 fabb
00000040: 214f c53b c158 d83a c883 39bc c53f 08bc
00000050: d40b 073c 50a7 4abc afc5 f23b 7992 0cb9
00000060: 21f2 65bc a243 483c 25cb d4b9 fbf1 c83b
00000070: cc9a 513a eff4 66bc 974e 4cb8 e1dc efba
00000080: 2abc 63bb e6e1 4fbb f443 33bb a187 dfb9
00000090: f9b6 14ba 6897 a23c 7f66 05bc ca42 ecbb
000000a0: 0321 143b 5184 123b 0e53 a13a 40e7 79bc
000000b0: 4762 2eba 37b4 c03b 50dc 073b 8040 6bbb
000000c0: 4abf bd3b 1bd8 743b 9a40 b4ba 5d33 d7bb
000000d0: 0e7f a13a 47a3 a8bb f222 8bbb 6963 8bbb
000000e0: c21b 883c 9069 a8ba fe56 09bc cc49 54bb
000000f0: 9d2a 58bb fc6e c2bb b86f 583b 1d15 3cbc
00000100: 3c30 b0bb 7c7f 04bc 98d2 0038 7cd7 7bb9
00000110: 1110 c03c 404d d83b 86a5 743b 118a 82ba
00000120: d9c9 303a 1c5b 03bc 6edb 513a 49c4 23bb
00000130: 8a9c d5b9 a099 90bb 3959 a8bb 6a28 51bb
00000140: 29e1 e63b be60 eb3a 1e10 93ba 1307 933b
00000150: dd2d 32bb 070f d9ba 50ff ba39 a7d9 ae3b
00000160: 4abb 2b3c dd46 983b 6269 f8bb f9a7 71bb
00000170: 4a2b 3f3a cb2e e7ba e8fe 9f3a 2d3f 303c
00000180: 6300 303b 82d5 403c 3832 5bbb d39f 96bb
00000190: c0f3 68bc 86f8 993b 9aef fdbb fce3 77bb
000001a0: a170 8d39 5481 4b3b 242a 603c d002 1ebc
000001b0: 5ea4 06ba e951 113c fedb 1cbb 0bbf 0d3c
000001c0: fcf4 913c 540c 163b 2372 353b 49b8 d53b
000001d0: 1b9d 2bbc 9783 f83a da83 4b3b 7038 fb3a
000001e0: 852e 39bb a155 bd3a c79b e03b 6e09 0ebc
000001f0: 1b48 9ebb bf28 93ba 9ec0 84bb 982f 02bc

network_body._body_endoder.seq_layers.2.weight f4 [128, 128]
-0.27577713 0.12964353 -0.008253048 -0.15195143 0.013682137 0.011235513 0.17693047 -0.09837993
0.081107326 0.16710865 -0.015263718 0.055983264 -0.054870088 0.022453127 0.05112675 0.14359798
-0.11086361 0.013197147 -0.10741498 -0.07135298 0.16515827 -0.04356865 -0.0787047 -0.15181407
0.095183425 -0.033560727 -0.013164898 0.04998713 0.17962414 -0.03317373 0.1402163 -0.056164984
0.069288485 -0.050520603 0.010256259 -0.0015959055 0.1509936 0.19096534 -0.012796277 -0.09634704
0.006641848 -0.015531912 -0.07201078 -0.041878227 0.11504701 -0.13535534 -0.012219936 0.068822496
0.19888909 -0.15843546 -0.05141665 -0.038213745 -0.06041005 -0.04229113 -0.014303804 -0.09049355
0.15501446 -0.038958672 -0.02830469 -0.018841619 0.013158831 -0.010590532 0.0063553555 -0.012534844
0.0095257005 -0.05698328 0.062197253 -0.06287614 0.24012843 -0.10909849 -0.11868904 -0.005936986
-0.074119315 -0.012200563 -0.030781789 -0.09675034 -0.008267967 -0.067156754 -0.07437932 -0.07280888
0.14220963 0.10275617 -0.06505501 -0.040718406 -0.14262691 -0.00013515167 0.012074665 -0.06325572
-0.0888736 -0.065824345 0.016384216 0.03294096 0.055552997 -0.11146865 -0.14127797 -0.011975237
-0.174053 0.081553414 -0.060860988 -0.043283295 0.043491162 0.054613303 0.011902673 -0.1365471
0.00903576 0.015459849 -0.16017881 -0.055519342 -0.14447102 0.0576802 -0.08702096 -0.11540075
0.17339177 -0.06933486 0.08729789 -0.07460267 0.03721052 -0.1469026 -0.03614862 0.032722093
-0.31587523 0.06370308 0.079562955 -0.05326592 0.052891288 -0.11912911 0.27372557 0.027509866
-0.09995512 0.002296295 -0.18871373 0.053012867 0.08753796 0.10554371 -0.13200365 0.02554271
0.04670314 0.16293949 -0.036381144 -0.11534352 0.0017901626 -0.09629334 -0.12800863 0.12777697
0.055948544 -0.01196657 0.027880674 0.036463406 0.038589966 0.11736662 -0.03954926 0.12529877
0.013231179 0.094105214 -0.028455215 0.0254728 -0.09302205 -0.013395408 -0.028690668 -0.18867773
0.010773618 -0.17754325 0.18358047 -0.010003115 -0.12722492 -0.118893765 -0.032920513 0.012738873
-0.14755811 0.03317236 0.0019283228 0.034779835 -0.0974581 0.122460075 0.008614075 0.14116481
0.11967904 -0.11792847 -0.074192196 0.09621904 -0.03985537 0.043304477 -0.10648478 0.09885492
-0.08533629 0.030996151 -0.08732512 0.17268576 0.0028560013 -0.06338932 0.23529394 -0.0015962049
0.074029535 0.18688042 0.07739151 -0.09792784 0.03555919 0.047287498 0.07806462 0.014521907
-0.042745776 -0.069857106 -0.066250406 -0.029054763 0.020639772 0.109850466 -0.11317789 0.008177541
-0.045877043 0.070456736 0.016552806 0.030723888 0.10739993 -0.022838673 -0.05058669 -0.008687101
0.037126977 0.10562706 -0.040307693 0.11849949 -0.08053084 -0.10374933 -0.044763964 0.10499308
0.15772247 -0.09395707 0.14246926 0.06534759 0.18843742 0.00047635328 0.0056955838 -0.006026964
-0.06696582 -0.08153519 -0.04897147 0.027217947 0.1012243 0.091801174 0.024207106 0.038374063
-0.13083252 0.0350854 -0.17503601 -0.05757323 -0.07460051 0.06590947 -0.042115252 0.17170127
0.04099878 -0.016215738 0.1070056 0.046002623 0.020169057 -0.13047591 0.027575282 -0.17861648
00000000: a932 8dbe 46c1 043e cb37 07bc 2899 1bbe
00000010: 0b2b 603c 2815 383c 432d 353e 6b7b c9bd
00000020: 991b a63d 881e 2b3e ac14 7abc b54e 653d
00000030: 75bf 60bd 9fef b73c 486a 513d 590b 133e
00000040: 760c e3bd d938 583c 63fc dbbd 8321 92bd
00000050: 401f 293e 0a75 32bd ee2f a1bd 2675 1bbe
00000060: 87ef c23d f976 09bd 96b1 57bc 4ebf 4c3d
00000070: 64ef 373e 2de1 07bd dd94 0f3e 410d 66bd
00000080: 1fe7 8d3d b1ee 4ebd de09 283c b42d d1ba
00000090: 119e 1a3e 6b8c 433e 7aa7 51bc 9951 c5bd
000000a0: dca3 d93b 9079 7ebc 637a 93bd 8188 2bbd
000000b0: c49d eb3d 979a 0abe 2036 48bc cff2 8c3d
000000c0: 95a9 4b3e e83c 22be 449a 52bd 0486 1cbd
000000d0: 8770 77bd 7739 2dbd 815a 6abc af54 b9bd
000000e0: 1cbc 1e3e 2193 1fbd 3ddf e7bc bd59 9abc
000000f0: 2398 573c e983 2dbc 9640 d03b f25e 4dbc
00000100: af11 1c3c 4d67 69bd 8cc2 7e3d 35c5 80bd
00000110: 3ae4 753e 076f dfbd 3d13 f3bd 0c8b c2bb
00000120: decb 97bd dfe4 47bc 172a fcbc 0b25 c6bd
00000130: 5e76 07bc 7b89 89bd 2f54 98bd d21c 95bd
00000140: 679f 113e d471 d23d 903b 85bd 58c8 26bd
00000150: ca0c 12be 80b7 0db9 d1d4 453c 378c 81bd
00000160: 5d03 b6bd eace 86bd 3138 863c 1aed 063d
00000170: 8a8b 633d ad49 e4bd 2cab 10be c933 44bc
00000180: f33a 32be 7a05 a73d 5f49 79bd d349 31bd
00000190: ca23 323d 33b2 5f3d 6e03 433c 01d3 0bbe
000001a0: b90a 143c 4e4b 7d3c ea05 24be 4068 63bd
000001b0: 36f0 13be 1342 6c3d 0c38 b2bd 3a57 ecbd
000001c0: 9d8d 313e 6fff 8dbd 3cc9 b23d 49c9 98bd
000001d0: 0f6a 183d a36d 16be 9310 14bd 9a07 063d
000001e0: 66ba a1be c376 823d e7f1 a23d 5e2d 5abd
000001f0: 89a4 583d f6f9 f3bd c225 8c3e 5f5c e13c
00000200: 45b5 ccbd 707d 163b 2c3e 41be 0524 593d
00000210: 1a47 b33d 4d27 d83d f72b 07be f23e d13c
00000220: cb4b 3f3d 9cd9 263e 6504 15bd 3939 ecbd
00000230: e4a3 ea3a 7135 c5bd b214 03be f7d7 023e
00000240: 4d2a 653d 6f0f 44bc 0366 e43c a75a 153d
00000250: 8310 1e3d e95d f03d 68fe 21bd 524e 003e
00000260: 96c7 583c 3cba c03d e91a e9bc 55ac d03c
00000270: 5882 bebd 6a78 5bbc b108 ebbc bc34 41be
00000280: d483 303c e6cd 35be 85fc 3b3e 1be4 23bc
00000290: 4047 02be 937e f3bd a9d7 06bd b5b6 503c
000002a0: 7919 17be bedf 073d c7bf fc3a 4d75 0e3d
000002b0: 1d98 c7bd 59cc fa3d 0d22 0d3c 828d 103e
000002c0: 491a f53d 7b84 f1bd 14f2 97bd 7d0e c53d
000002d0: 623f 23bd 0960 313d b114 dabd 7374 ca3d
000002e0: cbc4 aebd a4eb fd3c 83d7 b2bd 89d4 303e
000002f0: c02b 3b3b 43d2 81bd e5f0 703e c037 d1ba
00000300: cc9c 973d 955d 3f3e 717f 9e3d 648e c8bd
00000310: 83a6 113d 89b0 413d 58e0 9f3d 4bed 6d3c
00000320: 3216 2fbd 3e11 8fbd 4bae 87bd 4104 eebc
00000330: bd14 a93c 48f9 e03d cfc9 e7bd 18fb 053c
00000340: 91e9 3bbd 9f4b 903d c099 873c aab0 fb3c
00000350: 7ff4 db3d 2b18 bbbc fd33 4fbd 5854 0ebc
00000360: 7512 183d 0053 d83d ae19 25bd dcaf f23d
00000370: 5aed a4bd 877a d4bd 6b5a 37bd 9d06 d73d
00000380: 0082 213e 906c c0bd 76e3 113e f5d4 853d
00000390: bdf5 403e 0ebf f939 05a2 ba3b d77d c5bb
000003a0: 6025 89bd ecfb a6bd 4f96 48bd 2cf8 de3c
000003b0: b04e cf3d 4102 bc3d fb4d c63c 1f2e 1d3d
000003c0: f6f8 05be b5b5 0f3d a43c 33be e8d1 6bbd
000003d0: 27c8 98bd 8bfb 863d 0b81 2cbd 75d2 2f3e
000003e0: 56ee 273d ded6 84bc c125 db3d 3f6d 3c3d
000003f0: 9439 a53c 7a9b 05be 8fe5 e13c 3de7 36be

network_body._body_endoder.seq_layers.2.bias f4 [128]
0.01599523 -0.003169645 0.0044527636 -0.0026823767 0.0035399925 0.004491561 0.0042321286 -0.0039841346
0.00080488616 -0.001840482 -0.00032398963 0.0011078244 -0.0031983128 -0.00012226193 0.009764187 -0.009336593
0.0069805337 0.00093471585 0.0064102197 0.0092784595 -0.0043606036 0.0024219723 -0.0070112543 -0.000896935
0.004020078 -0.0009651481 0.0020743986 -0.00023663935 0.0036935208 0.0044196732 -0.0025911639 -0.00026825754
-0.004051709 0.007858916 0.0012972932 -0.0010908075 0.0028111576 0.0031089857 -0.014761799 0.0009937412
-0.0010489182 0.002292925 0.001005765 -0.007216562 0.0003645097 0.0042314385 0.0021252288 -0.0061545973
0.003572256 0.0045272163 0.0044771386 -0.00030709547 0.0019301146 0.0031953515 -0.007509901 0.0031073939
-0.008054218 0.0027644865 0.00068141933 0.0009517674 -0.0026958666 0.003701821 -0.0060550603 -0.0064170277
-0.00038554447 0.0032541747 0.0015815708 -0.00046605157 -0.013183023 0.0055610435 -0.0021087038 -0.004045841
0.0022755829 -0.004697805 -0.0022017304 0.0033296838 0.009103709 -0.0044077653 -0.011885977 -0.007722224
0.0074765743 0.0013595292 0.0008983933 0.0048985523 -0.0062531913 -0.0031278725 6.370759e-05 -0.007860768
0.007205111 0.001261015 0.0050766617 -0.0023153115 0.0015623748 0.007647794 -0.011881079 0.003533901
-0.0058420054 0.003296125 0.005171173 -0.00036704305 0.013341482 0.0005853557 -0.0040485724 -0.0023633263
-0.0027098379 -0.0013985703 -0.0073898598 -0.0049552885 -0.0056806775 -0.0022348007 -0.0030325705 -0.0068865395
-0.0062556686 0.009897548 -0.0043793395 -0.0009057699 -0.009612133 -0.0047148564 0.0050601605 0.0020423026
0.0017191259 0.0048216875 -0.008150481 0.009245184 0.005453889 0.0072335694 -0.00037751585 0.0049931784
00000000: 6e08 833c d2b9 4fbb 7de8 913b d0ca 2fbb
00000010: 38ff 673b f22d 933b abad 8a3b 588d 82bb
00000020: fffe 523a 543c f1ba 27dd a9b9 6b34 913a
00000030: c99a 51bb 7033 00b9 f8f9 1f3c 82f8 18bc
00000040: f6bc e43b b807 753a d20c d23b ae04 183c
00000050: 65e3 8ebb f4b9 1e3b aabe e5bb 4a20 6bba
00000060: dcba 833b fe01 7dba a2f2 073b 6422 78b9
00000070: ff0e 723b e8d2 903b 84d0 29bb eba4 8cb9
00000080: 33c4 84bb afc2 003c f009 aa3a 6df9 8eba
00000090: 663b 383b 20c0 4b3b 79db 71bc 6c40 823a
000000a0: db7b 89ba e644 163b e0d3 833a e978 ecbb
000000b0: aa1b bf39 e1a7 8a3b 6c47 0b3b 81ac c9bb
000000c0: 831c 6a3b 0b59 943b f6b4 923b a801 a1b9
000000d0: e6fb fc3a 1a69 513b 9e15 f6bb 6ba5 4b3b
000000e0: d7f5 03bc 632c 353b 47a1 323a 0780 793a
000000f0: 23ad 30bb 409a 723b 8769 c6bb ee45 d2bb
00000100: e722 cab9 fe43 553b b64c cf3a 6258 f4b9
00000110: 9bfd 57bc 6a39 b63b 2e32 0abb f992 84bb
00000120: f221 153b 0bf0 99bb e84a 10bb d336 5a3b
00000130: b927 153c 046f 90bb 67bd 42bc b60a fdbb
00000140: 0dfe f43b 3b32 b23a 2782 6b3a 0984 a03b
00000150: 92e7 ccbb fefc 4cbb c09a 8538 73ca 00bc
00000160: da18 ec3b a448 a53a 205a a63b 7bbc 17bb
00000170: 99c8 cc3a 599a fa3b dba8 42bc 0599 673b
00000180: 4b6e bfbb cd03 583b f172 a93b af6f c0b9
00000190: 3b96 5a3c 8e72 193a e3a9 84bb 09e2 1abb
000001a0: 8997 31bb 3b50 b7ba a326 f2bb f95f a2bb
000001b0: fa24 babb bc75 12bb 17be 46bb 7ba8 e1bb
000001c0: 5afc ccbb 5329 223c 9080 8fbb 3071 6dba
000001d0: 357c 1dbc 157f 9abb b4cf a53b 27d8 053b
000001e0: 4b54 e13a 3fff 9d3b 9889 05bc 1d79 173c
000001f0: 89b6 b23b 9407 ed3b 52ed c5b9 d19d a33b

action_model._discrete_distribution.branches.0.weight f4 [2, 128]
0.022785453 0.004587154 0.006828982 0.0075871143 0.014392641 0.006623275 -0.01964916 -0.01600137
0.008109806 -0.00014111829 -0.019277865 -0.011101395 -0.009285957 0.0029052682 -0.0035743155 0.006060541
0.00072299823 0.01957951 0.0022545794 0.0022597504 -0.013725881 -0.0062254816 -0.010265454 -0.0020350765
0.0023310091 -0.00955132 0.0025651073 0.0032058866 0.01019428 0.0028172045 -9.566531e-05 0.0051493826
-0.0006987882 0.0017823656 0.006334717 -0.014591522 -0.0047999388 -0.018388996 -0.0069682808 0.0006531225
0.010716845 0.011602509 0.009840328 -0.008109714 -0.005320772 0.0059228987 0.007147601 -0.010372934
0.009297053 0.014766135 0.0068607954 0.014580757 0.0042330706 0.0051476546 -0.00032819188 0.009251969
0.010799648 0.008661153 -0.004212356 0.01258329 -0.00072790624 0.032300312 0.0062949364 -0.006052401
-0.010026712 0.012229585 -0.01060515 0.010700413 -0.0024302914 0.013941187 0.014769833 -0.00058437104
0.0029406724 0.0024183562 0.010105976 0.007995199 0.019467454 -0.010405317 -0.0020987403 -0.0040023536
0.0025834865 -0.007270154 0.00815393 0.01233848 -0.014629716 -0.013849398 -0.015324947 0.0031435583
0.014234843 -0.004718594 0.011805531 0.002977565 0.0117591275 0.0028965136 -0.0165392 0.016561434
-0.013669275 0.0019234616 -0.008562732 -0.0154871 0.025180897 -0.0038737583 -0.0056721717 -0.019849999
0.0010996812 0.007186131 0.0019839914 -0.0014422163 -0.021243667 -0.0066352976 3.2767348e-05 -0.0010608038
-0.011186562 -0.01481252 -0.0010834157 -0.0024176678 -0.0015794392 -0.00599082 -0.0049736216 0.001282488
0.02047579 0.013658116 -0.015939573 0.018629862 -0.02086886 0.009794332 -0.0063743712 0.01334521
-0.018687703 0.017646609 -0.020878945 0.0013210552 -0.0025706904 -0.011595884 0.00982212 0.020699523
9.1154216e-05 0.008499287 0.011521811 -0.017243128 0.00044635427 0.0024403355 -0.024436403 0.018655043
-0.007456542 0.006234287 -0.015871998 -0.0059839147 -0.012771289 -0.005225927 0.006844853 0.0052919243
-0.00039221838 -0.010494246 -0.00034605822 0.0070796106 -0.023300525 -0.009648679 -0.008294104 -0.0026259832
0.005667002 -0.0077046384 -0.0049878242 -0.0048818965 -0.00573295 0.02044336 0.011711443 -0.0065705106
0.0071879057 -0.0063722106 -0.0034634664 0.002862742 0.01765263 0.002077865 -0.009005325 0.02986116
-0.027852453 -0.009446399 -0.012693113 -0.021705642 -0.0134740835 -0.00047654915 0.0055408524 -0.005240949
0.006561341 -0.0013867369 -0.003994553 0.009918943 0.006909829 0.006245685 0.005939997 0.005246461
-0.0070000007 -0.0066893743 -0.0012775194 0.009167981 0.010091703 0.0049632574 0.012355674 0.0010476254
-0.0034391177 0.009752821 0.0044239354 0.001052002 -0.014125586 -0.011464704 0.003401166 0.0024506792
-0.011426621 -0.0133923385 0.0037859925 -0.0035809174 0.008441286 -0.0031200906 0.000327187 0.004973107
0.0030563807 0.0062658195 0.0012215145 -0.0005664645 0.002515713 -0.009884297 0.001747506 0.01600057
-0.0052099405 -0.009584777 -0.014866818 0.008623248 -0.023309357 -0.012808033 -0.00130707 0.0008907465
0.006635037 0.0075011025 0.007830241 0.0031130626 0.018872846 0.01166532 0.008523404 0.008205147
-0.007990823 0.010370048 0.0015790422 0.0030900964 -0.0018722439 0.0022191878 -0.00584983 -0.014151272
-0.005825986 0.00053722004 -0.0013530687 -0.01708303 0.011378134 -0.0074118986 -0.0001482111 -0.012906774
00000000: 8fa8 ba3c d64f 963b a7c5 df3b 549d f83b
00000010: 1dcf 6b3c 0f08 d93b 46f7 a0bc 4e15 83bc
00000020: fede 043c 27f9 13b9 9dec 9dbc a0e2 35bc
00000030: 2024 18bc 5066 3e3b 103f 6abb 8197 c63b
00000040: 9787 3d3a 3565 a03c 91c1 133b 5218 143b
00000050: 85e2 60bc 20ff cbbb 6f30 28bc eb5e 05bb
00000060: d8c3 183b 247d 1cbc 5c1b 283b da19 523b
00000070: e905 273c d9a0 383b ec9f c8b8 27bc a83b
00000080: e22e 37ba 449e e93a 7593 cf3b 4711 6fbc
00000090: ce48 9dbb 85a4 96bc 2d56 e4bb 4f36 2b3a
000000a0: b595 2f3c 7318 3e3c 5439 213c 9bde 04bc
000000b0: df59 aebb e014 c23b 6c36 ea3b 3df3 29bc
000000c0: ab52 183c a9ed 713c 86d0 e03b 21e4 6e3c
000000d0: 92b5 8a3b a8ad a83b 2b11 acb9 9295 173c
000000e0: 02f1 303c 82e7 0d3c ce07 8abb 252a 4e3c
000000f0: f6d0 3eba 554d 043d c145 ce3b 3853 c6bb
00000100: 1447 24bc 995e 483c 39c1 2dbc c950 2f3c
00000110: 8645 1fbb 9469 643c 2bfd 713c 7a30 19ba
00000120: 4cb8 403b 497d 1e3b 8993 253c 4cfe 023c
00000130: 367a 9f3c 107b 2abc 058b 09bb 2d26 83bb
00000140: b64f 293b 793a eebb 1098 053c 5627 4a3c
00000150: 7ab1 6fbc 96e8 62bc 7d15 7bbc 2804 4e3b
00000160: 4239 693c 6f9e 9abb fc6b 413c 4023 433b
00000170: 5ba9 403c 6fd3 3d3b 377d 87bc d8ab 873c
00000180: 18f5 5fbc a91c fc3a b34a 0cbc 9bbd 7dbc
00000190: 2b48 ce3c e1de 7dbb a0dd b9bb 779c a2bc
000001a0: 2e23 903a a379 eb3b da05 023b c008 bdba
000001b0: 3307 aebc e96c d9bb ac6f 0938 ab0a 8bba
000001c0: d747 37bc 36b0 72bc 6601 8eba bc71 1ebb
000001d0: 2f05 cfba a44e c4bb c3f9 a2bb 2819 a83a
000001e0: d8bc a73c 4ac6 5f3c b593 82bc a79d 983c
000001f0: 2cf5 aabc 6878 203c 1ae0 d0bb dea5 5a3c
00000200: f416 99bc 9f8f 903c 520a abbc 4227 ad3a
00000210: 0779 28bb aafc 3dbc f5ec 203c 0c92 a93c
00000220: 0c2a bf38 9840 0b3c fac5 3c3c 7641 8dbc
00000230: a804 ea39 09ee 1f3b da2e c8bc 76d2 983c
00000240: 0256 f4bb fd48 cc3b fe05 82bc b714 c4bb
00000250: ab3e 51bc 413e abbb ca4a e03b e167 ad3b
00000260: a9a2 cdb9 0ff0 2bbc 266f b5b9 14fc e73b
00000270: bee0 bebc 7e15 1ebc fee3 07bc b018 2cbb
00000280: 42b2 b93b 3177 fcbb e770 a3bb 51f8 9fbb
00000290: 78db bbbb d578 a73c 5ae1 3f3c 704d d7bb
000002a0: 8688 eb3b facd d0bb 53fb 62bb d79c 3b3b
000002b0: 409c 903c ca2c 083b 128b 13bc 649f f43c
000002c0: d42a e4bc 12c5 1abc c6f6 4fbc 08d0 b1bc
000002d0: 67c2 5cbc 58d9 f9b9 0a90 b53b 44bc abbb
000002e0: 8500 d73b 2bc3 b5ba bde4 82bb 1083 223c
000002f0: d96b e23b 9aa8 cc3b 4ea4 c23b 81ea ab3b
00000300: 4360 e5bb 8a32 dbbb 7072 a7ba 4d35 163c
00000310: ac57 253c d2a2 a23b 746f 4a3c 7a50 893a
00000320: d262 61bb 4cca 1f3c a9f6 903b 54e3 893a
00000330: 006f 67bc 74d6 3bbc 19e6 5e3b 939b 203b
00000340: b936 3bbc 8a6b 5bbc 6a1e 783b d3ad 6abb
00000350: 524d 0a3c 6f7a 4cbb 4c8a ab39 72f5 a23b
00000360: 8f4d 483b 8151 cd3b 3a1b a03a ca7e 14ba
00000370: a9de 243b bff1 21bc 920c e53a a113 833c
00000380: 26b8 aabb 7809 1dbc f493 73bc 8648 0d3c
00000390: 44f3 bebc c9d8 51bc fe51 abba fc80 693a
000003a0: b96a d93b cfcb f53b 694a 003c 8604 4c3b
000003b0: 3a9b 9a3c e61f 3f3c bfa5 0b3c e26e 063c
000003c0: f1eb 02bc 22e7 293c ddf7 ce3a 3783 4a3b
000003d0: 1566 f5ba cb6f 113b eeaf bfbb bdda 67bc
000003e0: eae7 bebb 3ad4 0c3a 7459 b1ba b6f1 8bbc
000003f0: 5a6b 3a3c 83df f2bb 1d69 1bb9 ef76 53bc

action_model._discrete_distribution.branches.0.bias f4 [2]
0.003646451 -0.0036464506
00000000: 4cf9 6e3b 4af9 6ebb

49 f4 [2]
1.7472386 1.7441826
00000000: 84a5 df3f 6041 df3f
