results/flappyBirdRun_v4/FlappyBirdAgent.onnx (onnx, 71034 bytes, 8 tensors)

network_body.observation_encoder.processors.0.normalizer.running_mean f4 [2]
00000000: bb39 d63f 4517 3d40
1.6736368 2.9545453

network_body._body_endoder.seq_layers.0.weight f4 [128, 2]
00000000: 54b2 f43e cbab 9e3f 040a 313e 5fd2 0abf
00000010: 459f 113e 144a 0abe 2452 fbbe aa19 ec3e
00000020: fdbd bd3f 141f 073f d292 8bbf c5ec b2be
00000030: 59ef 9e3f 49be 263f 2abe 1bbf 72b3 20bf
00000040: 3e64 f2be 9514 d73e 14a5 073e f505 f93d
00000050: 1541 3dbc bf57 843c 0736 293f 514c 42bf
00000060: fa3b 653e 3b17 b23f 4c10 b2bf b643 96bf
00000070: 1f45 a3bf a2f4 96be 894e 9bbe 195c a0bd
00000080: 35e6 b1be c614 09bd ba84 a03e 8e84 7abd
00000090: 93a5 1f3e ec15 30be cf5a 233f 7076 6d3d
000000a0: 4953 fabe d3be 103f 134b b73f f2de 1bbe
000000b0: b68e ab3d d194 96be b803 2c3d f857 f6be
000000c0: f517 823e 4087 a43e 5519 893f e089 c53e
000000d0: 79d2 e6be 9a17 82bf 0c3e bfbe fc94 2a3d
000000e0: 79db 2f3d 90a4 60bf b17a 9a3f fc23 283e
000000f0: 18f6 733f 7ce3 463f 2e12 583f 1f4f 893f
00000100: 9978 413f 391b 30bf 7fdd 613f b94b 413f
00000110: 732e 413f 1e53 753e 5e1a 4a3c 0f02 183c
00000120: c93b 69bf c1fb fabe 93e0 cf3e 5d17 77be
00000130: 9b9c 943e 4925 243f 8868 c8bc 99c5 85bf
00000140: 9b87 293e c42d d23e a083 c9be 7fe5 033f
00000150: 653f 2f3e 15ce 9c3f 268d 2abf dc86 78be
00000160: ea56 703f 3c51 48bc 02fb de3e b642 743e
00000170: ef48 08bf 4f40 8c3e c5c7 843f e60c 0abf
00000180: d180 75bf 501e 0f3f 2191 0bbf 3825 ebbd
00000190: a6ae 723c 4d24 31bd a42f c8bf 946d 213f
000001a0: 6ba1 21bf f701 8fbf f1fa 163f 9cd7 87bf
000001b0: 8c9e 0e3d 971b d1be 5f83 163f a9d9 adbe
000001c0: 353e 173f b1e9 043f 15c9 183f d5b4 283e
000001d0: 5a3f 123f 9848 aabd 4e84 bfbe 7925 b13e
000001e0: 7fb8 12bf 61cb b43f a5a2 70bf 3a75 853f
000001f0: 865c 82bf aedb 05be 0851 3b3e f2b4 a0be
00000200: 0137 ecbe 0d80 4a3f 6a1a a6bf da59 11be
00000210: bca5 533c 56b1 043f 92eb 153f 1111 d43e
00000220: ddd9 983f 966f 1a3f b863 b6bf ae18 003f
00000230: 95b6 85bf da6d acbe 6ae9 27bf c9ac 783e
00000240: f608 703f c079 5b3f 0d2c 383f 69a4 17bf
00000250: 4bad dabf ef7b 3a3e 3a4d 893f 4185 513f
00000260: 61e7 963f 532a fdbd c106 52bf b6a3 443f
00000270: 4fa1 7abf b538 5f3f 17f5 73bf 1032 a13e
00000280: aed9 4b3e c031 5abf fb7f 25bf 5719 45bf
00000290: e18d dabd 18db 553f 0c5d 6abf 20d8 8b3e
000002a0: 6cf4 8dbf b22f 8ebf b3ae 3abe 7e05 24bf
000002b0: 6ce5 72bf 3539 67bf 0871 573f 13d8 2f3f
000002c0: 4061 0dbd fd22 a03e a320 a4bf 08bd 853f
000002d0: 8208 343e 015d 92bd 3687 f5bd c0c0 b23f
000002e0: def9 62be 4edc 59be ac23 3f3e b549 0d3e
000002f0: 1b5e 743f b358 eb3e c512 17bf ee36 d1be
00000300: 40a7 e43e d955 893f fe94 a3bf 1811 0bbf
00000310: 1957 bb3c 430d 5abf cf09 95bd b1ec aa3e
00000320: 6bf4 853e 5fc0 ebbe ae35 4cbf 4329 d53f
00000330: ec13 3cbe 2eba 01be 10f5 13bf 8a21 a73d
00000340: 1e7a 02be 16cc 9cbe f2ee f1be 0610 16be
00000350: 4f4d adbf 385b 8fbf a6a4 65be 394c b43e
00000360: b432 3b3f 0ea6 21b9 0494 803f 1e35 0340
00000370: f025 453d a286 253e c967 0dbf fcce 993e
00000380: af7a 8f3e c643 7d3f 077e ccbf f644 6bbe
00000390: 4707 11bf 3f6d 823f 9931 3f3f a227 163d
000003a0: 88db 40bf d410 64bf 2f7b 23bf cda2 0f3f
000003b0: 0685 6d3e cdff 1e3e d532 a5bd 94bc 863f
000003c0: a44a 14be 06c6 a0bf 69f5 a53e 42fc 59be
000003d0: 4ed5 ffbc 15ed 82bf 7f85 91bf 37d5 e13e
000003e0: 8c2f 963f c0e5 543f 44d3 e4be c0db 26bf
000003f0: 4785 0ebf dfb8 a73e c30d 30be 9983 363f
0.47792304 1.2396177 0.17288977 -0.5422725 0.14220913 -0.13504821 -0.49086106 0.4611333
1.4823605 0.52781796 -1.0904181 -0.34946266 1.2416793 0.651341 -0.6083704 -0.6277381
-0.47342104 0.4200789 0.13246566 0.12159339 -0.011551161 0.016155122 0.66098064 -0.758977
0.2238616 1.3913339 -1.3911223 -1.1739414 -1.2755469 -0.29483515 -0.30333355 -0.07830066
-0.34745947 -0.033467077 0.31351262 -0.06116157 0.15590505 -0.17195863 0.6381044 0.05797428
-0.48891667 0.56541175 1.4319786 -0.15221766 0.08376829 -0.29410413 0.041995734 -0.4811399
0.25408903 0.32134438 1.0710856 0.38581753 -0.45082453 -1.0163453 -0.37352026 0.04164599
0.042933915 -0.877511 1.2068692 0.16419977 0.95297384 0.77690864 0.8440274 1.0727271
0.7557464 -0.6879154 0.882286 0.7550617 0.754615 0.23957488 0.012335388 0.009277835
-0.9110685 -0.49020198 0.40601024 -0.24130006 0.2902573 0.6411939 -0.024463907 -1.0450927
0.16555636 0.4105054 -0.39358234 0.5152206 0.17114027 1.2250391 -0.66621625 -0.24270195
0.9388262 -0.012226399 0.4355088 0.23853573 -0.5323629 0.27392814 1.0373465 -0.5392593
-0.95899683 0.5590563 -0.54518324 -0.11481708 0.014812147 -0.04324751 -1.5639539 0.6305783
-0.6313693 -1.1172475 0.58976656 -1.0612674 0.03481917 -0.40841362 0.58794206 -0.33955124
0.59079295 0.51919085 0.59681827 0.16475232 0.57127917 -0.083146274 -0.37405628 0.34598902
-0.5731277 1.4124566 -0.93998176 1.04264 -1.0184486 -0.13072082 0.1829263 -0.3138805
-0.46135715 0.7910164 -1.2976811 -0.14194432 0.012917932 0.51833093 0.58562577 0.4141927
1.1941487 0.60326517 -1.4249182 0.5003766 -1.0446345 -0.3367756 -0.65590537 0.24284662
0.93763673 0.8573265 0.71942216 -0.59235245 -1.7084135 0.1821134 1.0726693 0.81843954
1.1789361 -0.12361588 -0.82041556 0.76812303 -0.9790239 0.87195903 -0.9529585 0.31483507
0.19907257 -0.8523216 -0.6464841 -0.7699179 -0.106715925 0.83537436 -0.9154823 0.27313328
-1.1090217 -1.1108305 -0.18230705 -0.6407088 -0.9488132 -0.90321666 0.84156847 0.6868908
-0.034516573 0.31276694 -1.282246 1.0448313 0.1758137 -0.07146645 -0.1198868 1.3965073
-0.2216563 -0.21275446 0.18665951 0.13797648 0.95456094 0.4596611 -0.59013015 -0.4086222
0.44658852 1.0729324 -1.2779844 -0.5432296 0.02286868 -0.85176486 -0.072772615 0.33383706
0.2616304 -0.46045205 -0.7976941 1.6653217 -0.18366975 -0.12668678 -0.5779581 0.08160694
-0.12741897 -0.30624455 -0.47252613 -0.1465455 -1.3539218 -1.1199713 -0.2242609 0.35214403
0.7312424 -0.00015416017 1.0045171 2.050117 0.048131883 0.1616464 -0.5523649 0.3004073
0.28023288 0.9893154 -1.597596 -0.22975525 -0.5665173 1.0189589 0.74685055 0.03665889
-0.7533498 -0.8908818 -0.6385984 0.5610779 0.23195276 0.15527268 -0.08066336 1.05263
-0.14481598 -1.2560432 0.32413796 -0.21287635 -0.031229641 -1.0228602 -1.1368865 0.44107983
1.173326 0.8316307 -0.44692433 -0.6517906 -0.55672115 0.32758233 -0.1719275 0.7129455

network_body._body_endoder.seq_layers.0.bias f4 [128]
00000000: 0000 0000 0000 0000 0000 0000 0000 0000
00000010: 0000 0000 0000 0000 0000 0000 0000 0000
00000020: 0000 0000 0000 0000 0000 0000 0000 0000
00000030: 0000 0000 0000 0000 0000 0000 0000 0000
00000040: 0000 0000 0000 0000 0000 0000 0000 0000
00000050: 0000 0000 0000 0000 0000 0000 0000 0000
00000060: 0000 0000 0000 0000 0000 0000 0000 0000
00000070: 0000 0000 0000 0000 0000 0000 0000 0000
00000080: 0000 0000 0000 0000 0000 0000 0000 0000
00000090: 0000 0000 0000 0000 0000 0000 0000 0000
000000a0: 0000 0000 0000 0000 0000 0000 0000 0000
000000b0: 0000 0000 0000 0000 0000 0000 0000 0000
000000c0: 0000 0000 0000 0000 0000 0000 0000 0000
000000d0: 0000 0000 0000 0000 0000 0000 0000 0000
000000e0: 0000 0000 0000 0000 0000 0000 0000 0000
000000f0: 0000 0000 0000 0000 0000 0000 0000 0000
00000100: 0000 0000 0000 0000 0000 0000 0000 0000
00000110: 0000 0000 0000 0000 0000 0000 0000 0000
00000120: 0000 0000 0000 0000 0000 0000 0000 0000
00000130: 0000 0000 0000 0000 0000 0000 0000 0000
00000140: 0000 0000 0000 0000 0000 0000 0000 0000
00000150: 0000 0000 0000 0000 0000 0000 0000 0000
00000160: 0000 0000 0000 0000 0000 0000 0000 0000
00000170: 0000 0000 0000 0000 0000 0000 0000 0000
00000180: 0000 0000 0000 0000 0000 0000 0000 0000
00000190: 0000 0000 0000 0000 0000 0000 0000 0000
000001a0: 0000 0000 0000 0000 0000 0000 0000 0000
000001b0: 0000 0000 0000 0000 0000 0000 0000 0000
000001c0: 0000 0000 0000 0000 0000 0000 0000 0000
000001d0: 0000 0000 0000 0000 0000 0000 0000 0000
000001e0: 0000 0000 0000 0000 0000 0000 0000 0000
000001f0: 0000 0000 0000 0000 0000 0000 0000 0000
0.0 0.0 0.0 0.0 0.0 0.0 0.0 0.0
0.0 0.0 0.0 0.0 0.0 0.0 0.0 0.0
0.0 0.0 0.0 0.0 0.0 0.0 0.0 0.0
0.0 0.0 0.0 0.0 0.0 0.0 0.0 0.0
0.0 0.0 0.0 0.0 0.0 0.0 0.0 0.0
0.0 0.0 0.0 0.0 0.0 0.0 0.0 0.0
0.0 0.0 0.0 0.0 0.0 0.0 0.0 0.0
0.0 0.0 0.0 0.0 0.0 0.0 0.0 0.0
0.0 0.0 0.0 0.0 0.0 0.0 0.0 0.0
0.0 0.0 0.0 0.0 0.0 0.0 0.0 0.0
0.0 0.0 0.0 0.0 0.0 0.0 0.0 0.0
0.0 0.0 0.0 0.0 0.0 0.0 0.0 0.0
0.0 0.0 0.0 0.0 0.0 0.0 0.0 0.0
0.0 0.0 0.0 0.0 0.0 0.0 0.0 0.0
0.0 0.0 0.0 0.0 0.0 0.0 0.0 0.0
0.0 0.0 0.0 0.0 0.0 0.0 0.0 0.0

network_body._body_endoder.seq_layers.2.weight f4 [128, 128]
00000000: ff7b d53d 0570 d83b 3a57 49bd 5131 903d
00000010: 9924 71bd 15ef c13d 8327 fa3c 8eb4 0d3c
00000020: 8a56 1abe 2fb1 a2bb 824e 893c 8c32 f3bc
00000030: 317e cabd f38b a3bc d37f 6c3c b8d9 803c
00000040: 6c62 ac3d 251f ecbd 7087 eabc 6045 a3ba
00000050: e99c 9cbb 46c8 993d 89dd b23d bfef b33d
00000060: 13d5 95bc 8be1 c8bd eeb1 743d eb7e 1f3d
00000070: 1d35 f13c 6d5a 913d 52e4 babd 1724 abbc
00000080: 02eb 343d eaa4 323d a68d 473e b4cf 223e
00000090: e01c 2cba fcae 463d 57a0 d83d 5952 c1bb
000000a0: 5970 e83d 39d6 14bd 01b2 bfbd efba debd
000000b0: 47b8 71bd bb00 3ebd eb3e f73c 8b99 2d3d
000000c0: 57cb bb3c 970c a53d 4fbe fbbc f451 19be
000000d0: d2a9 85bd 8c8b 203c ef62 9ebd 5c73 68bb
000000e0: f9a5 603d 1f13 1cbd 23d7 59be ac8e 8cbd
000000f0: 1fbd a13d 8725 393d bb09 203e 506b 2b3c
00000100: 6a91 8ebd 221b fa3d a9f3 f73d ca1e 09be
00000110: c133 eabc fc09 d33d 003c 94bd 75d3 c83c
00000120: 694c 05be 04c8 823c a9c8 273e 2c8f 36bd
00000130: a06e 643d 074a 9cbd 1d94 c0bd 2901 10be
00000140: 7679 2dbd 670b e1bb f0f9 d23c 7d43 a7bd
00000150: 87b7 15be e616 5c3c 1019 a4bd 91ac 97bb
00000160: 56fb 4abd 5f7d c43c a0a3 7bbd a527 32bd
00000170: 6fdc d5bd 7822 97bd 76f0 01bc ca7a bcbd
00000180: 0e67 103d 03db 603d 011e e2bb 3447 b3bd
00000190: 2a15 aebb 9d0b 24bc e8c7 9f3c 4562 01be
000001a0: 15af 8f3d 9800 3d3a 42c6 4f3d 5a51 623d
000001b0: ce40 09be 31fa be3c 2f17 70bd ef08 7ebc
000001c0: 7318 81bd ac1e 56bc b29b 26bd 9f03 57bd
000001d0: 9243 263e 2057 573e 6ada bebc 2b89 b1bd
000001e0: 6b8a a1bd 41b7 d13c d96e 043e d0f5 0cbe
000001f0: f040 d1ba 63af 063e 90b9 06be bdc8 1d3d
00000200: 438e 213d 619c 88bd 2177 a53d 608c 00be
00000210: 58ce 0dbe eeae 74bd d984 623d 2972 12bd
00000220: 600f 363c a4d8 18bd 6d40 42bd 292c adbd
00000230: ae39 a7bd b798 cf3d 8081 4cbd e864 853d
00000240: e402 84bd bc4d a7bd 90f7 433d 6b17 d13d
00000250: d2d7 343e ea56 a7bd 3bd2 323c 731b a33d
00000260: 5b5f 63be 9c0e b4bc 4062 f43d efc3 86bc
00000270: 9b2c a6bd c2b9 e13c df45 52be 2049 603d
00000280: 76da a2bb a287 92bd d301 88be 1ea0 d6bc
00000290: 39dd 8a3d de98 8abd bf12 283c 82c5 4bbd
000002a0: 2c9a 173d f189 d03d a879 7d3d 16d8 953c
000002b0: e197 67bd 6dc1 87bd ddd7 c33d 466f a5bd
000002c0: 2a22 95bd 5f31 91bd 6160 2fbe 53bd 08be
000002d0: 9230 3a3d dbc8 7fbd 29c1 d93d 8982 10bd
000002e0: 2f87 c73d 42db 80bd 47aa ec3d 9089 abbb
000002f0: c1cd 51bc ed77 c73a ba51 16bd 6639 b53c
00000300: 75d2 04be 0047 31be 3791 aabd d842 75bd
00000310: a60c 0abe 937b cbbd b578 8cbd 33bb 28ba
00000320: c82f ed3c 8ad9 75be 32d8 d83d 421c 1bbd
00000330: 5a2e 59bd c073 17bc d7ea 7dbe 222c 87bc
00000340: 7779 05be 0a06 36bd ce09 2e3e bdc4 3cbe
00000350: 39bd 86bd be41 4abc c664 dcbc 5962 143e
00000360: 42b6 31bd ed01 483c 2c08 233d 12dc bd3d
00000370: 144f b63d 2f2d f93d a6de d43c c92b 63bc
00000380: 7756 2abc 20ed acbc 8aeb cbbd 8e19 f63d
00000390: fe34 0fbe c917 d3bd 22b0 8abd 6b79 5fbd
000003a0: af57 e7bc aa31 30be 6e2e 01be b5b9 adbd
000003b0: 776c 7fbd 716d 703a b73c 7e3d c966 a53d
000003c0: a232 2ebd f042 f0bd d6e2 533b ea4e 793d
000003d0: 4a06 043e 955b a63c 37bc 0e3d 4463 a7bc
000003e0: c719 283e 4736 e23d 5446 ccbc 0a05 1fbe
000003f0: 99dd a83a 09df 09be 8dab 60bd 69da 9a3d
0.10424041 0.0066051506 -0.04915545 0.07040656 -0.058872793 0.094694294 0.030536419 0.008649005
-0.15072075 -0.0049649696 0.016761068 -0.029687189 -0.0988735 -0.019964194 0.014434773 0.015728816
0.0841721 -0.11529378 -0.028629035 -0.0012456588 -0.0047794473 0.07508902 0.08733661 0.08785962
-0.018290078 -0.09808644 0.05974 0.038939398 0.029444272 0.070973255 -0.0912558 -0.020891232
0.044169433 0.043614306 0.19487628 0.15899545 -0.0006565582 0.04850672 0.105774574 -0.005899709
0.113495536 -0.03633711 -0.093601234 -0.108754985 -0.05901363 -0.046387415 0.030181369 0.042382758
0.022924108 0.08059042 -0.030730395 -0.14972669 -0.06526531 0.009798896 -0.07733714 -0.003546915
0.054845784 -0.038104173 -0.21273474 -0.0686315 0.078974 0.045201804 0.15628712 0.010462597
-0.06961329 0.122122064 0.12107021 -0.13390651 -0.028589131 0.10304639 -0.072380066 0.024514893
-0.1301743 0.015964516 0.1638514 -0.044570133 0.055769563 -0.07631307 -0.0940325 -0.14062943
-0.042352162 -0.0068678143 0.025753945 -0.08167169 -0.14620791 0.013433194 -0.08012593 -0.004628726
-0.0495561 0.023985563 -0.06143534 -0.04349484 -0.10442435 -0.07379621 -0.0079308655 -0.09203108
0.03525453 0.054896366 -0.0069005494 -0.08753815 -0.0053125815 -0.010012534 0.019504502 -0.12635143
0.07015816 0.00072098663 0.050726183 0.055253364 -0.13403627 0.02331266 -0.05861586 -0.01550506
-0.063034914 -0.013068836 -0.040675826 -0.052493688 0.16236714 0.2102933 -0.023297507 -0.08668741
-0.07887729 0.025600078 0.1293291 -0.13765645 -0.0015964787 0.13152842 -0.13156724 0.038521517
0.039442312 -0.06670452 0.08079363 -0.12553549 -0.13848245 -0.05973714 0.055302475 -0.035753403
0.011112064 -0.03731598 -0.047424722 -0.084556885 -0.081652984 0.1013655 -0.04992819 0.06513387
-0.06445864 -0.081691235 0.047843516 0.10209545 0.17660454 -0.081708744 0.010914381 0.0796422
-0.22204344 -0.021979623 0.11932802 -0.01645085 -0.081139766 0.027554397 -0.20534466 0.054757237
-0.00496989 -0.07154776 -0.26563892 -0.026199397 0.06780476 -0.06767438 0.010258376 -0.049748905
0.037012264 0.1018256 0.0618836 0.018291514 -0.056541327 -0.0662869 0.09562657 -0.08077864
-0.07281907 -0.07089495 -0.1712661 -0.13353471 0.045456477 -0.06244741 0.106325455 -0.035280738
0.09742581 -0.0629182 0.11555915 -0.0052349046 -0.012805403 0.0015218236 -0.036699034 0.022122096
-0.12970908 -0.1731224 -0.08328479 -0.0598782 -0.13481387 -0.09935679 -0.068589605 -0.0006436586
0.028953448 -0.24008766 0.10588111 -0.037868746 -0.05302272 -0.009243906 -0.24796616 -0.016500536
-0.13034616 -0.044439353 0.16995928 -0.18434425 -0.0657906 -0.012344776 -0.026903521 0.14490642
-0.043386705 0.01220749 0.039802715 0.09270491 0.08901802 0.12166821 0.025985073 -0.01386542
-0.010396591 -0.021109164 -0.09957035 0.12016593 -0.13985059 -0.10307271 -0.06771876 -0.054559153
-0.028240053 -0.17206445 -0.12615368 -0.084826864 -0.0623593 0.00091715815 0.06206962 0.08076245
-0.042528756 -0.11731517 0.003233125 0.060866274 0.12893024 0.020307342 0.034847464 -0.020433076
0.16416083 0.11045509 -0.024935879 -0.15529266 0.0012883424 -0.13463987 -0.054851104 0.0756119

network_body._body_endoder.seq_layers.2.bias f4 [128]
00000000: 0000 0000 0000 0000 0000 0000 0000 0000
00000010: 0000 0000 0000 0000 0000 0000 0000 0000
00000020: 0000 0000 0000 0000 0000 0000 0000 0000
00000030: 0000 0000 0000 0000 0000 0000 0000 0000
00000040: 0000 0000 0000 0000 0000 0000 0000 0000
00000050: 0000 0000 0000 0000 0000 0000 0000 0000
00000060: 0000 0000 0000 0000 0000 0000 0000 0000
00000070: 0000 0000 0000 0000 0000 0000 0000 0000
00000080: 0000 0000 0000 0000 0000 0000 0000 0000
00000090: 0000 0000 0000 0000 0000 0000 0000 0000
000000a0: 0000 0000 0000 0000 0000 0000 0000 0000
000000b0: 0000 0000 0000 0000 0000 0000 0000 0000
000000c0: 0000 0000 0000 0000 0000 0000 0000 0000
000000d0: 0000 0000 0000 0000 0000 0000 0000 0000
000000e0: 0000 0000 0000 0000 0000 0000 0000 0000
000000f0: 0000 0000 0000 0000 0000 0000 0000 0000
00000100: 0000 0000 0000 0000 0000 0000 0000 0000
00000110: 0000 0000 0000 0000 0000 0000 0000 0000
00000120: 0000 0000 0000 0000 0000 0000 0000 0000
00000130: 0000 0000 0000 0000 0000 0000 0000 0000
00000140: 0000 0000 0000 0000 0000 0000 0000 0000
00000150: 0000 0000 0000 0000 0000 0000 0000 0000
00000160: 0000 0000 0000 0000 0000 0000 0000 0000
00000170: 0000 0000 0000 0000 0000 0000 0000 0000
00000180: 0000 0000 0000 0000 0000 0000 0000 0000
00000190: 0000 0000 0000 0000 0000 0000 0000 0000
000001a0: 0000 0000 0000 0000 0000 0000 0000 0000
000001b0: 0000 0000 0000 0000 0000 0000 0000 0000
000001c0: 0000 0000 0000 0000 0000 0000 0000 0000
000001d0: 0000 0000 0000 0000 0000 0000 0000 0000
000001e0: 0000 0000 0000 0000 0000 0000 0000 0000
000001f0: 0000 0000 0000 0000 0000 0000 0000 0000
0.0 0.0 0.0 0.0 0.0 0.0 0.0 0.0
0.0 0.0 0.0 0.0 0.0 0.0 0.0 0.0
0.0 0.0 0.0 0.0 0.0 0.0 0.0 0.0
0.0 0.0 0.0 0.0 0.0 0.0 0.0 0.0
0.0 0.0 0.0 0.0 0.0 0.0 0.0 0.0
0.0 0.0 0.0 0.0 0.0 0.0 0.0 0.0
0.0 0.0 0.0 0.0 0.0 0.0 0.0 0.0
0.0 0.0 0.0 0.0 0.0 0.0 0.0 0.0
0.0 0.0 0.0 0.0 0.0 0.0 0.0 0.0
0.0 0.0 0.0 0.0 0.0 0.0 0.0 0.0
0.0 0.0 0.0 0.0 0.0 0.0 0.0 0.0
0.0 0.0 0.0 0.0 0.0 0.0 0.0 0.0
0.0 0.0 0.0 0.0 0.0 0.0 0.0 0.0
0.0 0.0 0.0 0.0 0.0 0.0 0.0 0.0
0.0 0.0 0.0 0.0 0.0 0.0 0.0 0.0
0.0 0.0 0.0 0.0 0.0 0.0 0.0 0.0

action_model._discrete_distribution.branches.0.weight f4 [2, 128]
00000000: 51ac 183c 0213 073c a04c f639 c791 8fbb
00000010: b9ff 0fbc a9c7 313b 5536 1fbb e740 f63b
00000020: 781d d7bb 59db 38bc ad3f 26bc f714 a8bb
00000030: 1a94 7b3b 6b31 c83b b1a1 c8ba 8b52 013c
00000040: 972b 9dbb 9a90 55bc ed9c 063c 2b34 debb
00000050: 97aa 54bb a2b9 36bb 2a5a 7e3c 4896 1139
00000060: 4723 313c 63c1 6fbb 39a5 07bc e438 a6ba
00000070: 8b0b d2bb 6ae6 f3bb c507 bfbb 70d3 ef3a
00000080: 4b52 f4bb e2d1 ce3b ef8c b4b9 8b61 7dbc
00000090: 378d 8d3b 7b37 3dbc debf aabb 81ed 82b8
000000a0: d22c 133b eb2b eebb 4000 a6ba d15c 863b
000000b0: d260 2bbc cd21 77ba af28 0c3c 9ba2 52bc
000000c0: 9ba5 8abb 7a95 f5ba 6f11 513b 28e6 933b
000000d0: 9f2c 0e3b 5f3e c2ba 6f0b d9bb 56ab a3ba
000000e0: 64a2 bbbb 8bcb 2a3a 13f4 ce3a 3ca3 0f3c
000000f0: de8f 4a3a b377 1e3c 9db5 2abc 87dd 03ba
00000100: 1414 223c af00 843c 8358 d0bb d9b8 8bbb
00000110: c06b 34bc 50d8 f53b bd4a bfbb 86a5 bd3c
00000120: 59d3 09bc ff36 563a 9f21 3b3c 9dc5 f339
00000130: 21fc 0e3c 0e4a 273c 4c14 0d3a 350f 7738
00000140: 088c e9bb 4aa5 d53b bd89 7f3a 273b 29bc
00000150: e5be 60bc fbfa 2cbb 10b6 c83b 62be 4c3c
00000160: 6009 2c3b d15a a43b 70dc 6b39 e088 88bb
00000170: c712 0fbc a0fe 9d3c 9de0 e7bb a313 8a3a
00000180: 2f5c a43b abb2 9e39 af59 5cbc 8047 b33b
00000190: cfd5 dd3b daf5 f63b 2f8e 043c 60a0 deba
000001a0: e165 b1bb 62ac 5f3c 596c 9a3a a7c3 12bc
000001b0: 9709 223c 7cf6 8e3c 1d08 eabb 76d5 1cba
000001c0: 690f 843a 3593 ce3b fe3c b13b a843 eabb
000001d0: 9b61 94bb 1e90 a13b 583f 553c 6b28 343b
000001e0: 95a8 6abb 48fd 69bc b092 ab3b 3ff7 97bb
000001f0: 7de7 603b 9115 cbbb 4c3f 1dbc bf76 2cbc
00000200: df21 3bbb 393d 8ebb 039a b7bb d1d5 19ba
00000210: 03e6 06ba b983 093c a1fc 07bc 647d 2d3c
00000220: 8fdf 443b 7021 543b 2f45 4a3b 8f94 e03b
00000230: 602d d0ba 46e1 943b b009 1b3a c3e9 9c3c
00000240: fffb 33bb 3fc1 013c 051e 3c3c 2652 92bb
00000250: a671 8ebb 2033 ccbb a391 c4bb 0a0d 04bc
00000260: 1385 57bb 6ac2 e93a 17cb 323c 925c d23b
00000270: abb5 58bc 996d 82bb 1b9a bdbb cd23 703c
00000280: cde9 8dbb ee2f 19bc cc66 183c d981 2e3a
00000290: 95df 30bb 65a1 89bc 33d3 0dbc 8622 1e3c
000002a0: 0dcc 44bb 2a47 af3b 7f0a 4f3c e087 783c
000002b0: a7a0 a0bb b870 023c 692c 85ba 51f4 a13b
000002c0: 1315 2a3b aff8 d23a bb11 5fb8 188b e4bb
000002d0: df8e 5a3c cf63 c1ba eb38 ac3b d8dd 9cb9
000002e0: 7f68 3b3c d9fd 8fbb 03b4 2cbc 97f8 43bb
000002f0: 9525 f7bb cdeb b33a e368 e6bb cb0a 99bc
00000300: c550 d33b b0db 913b 53e9 993b 1afc bbbb
00000310: c305 25bc 390f 39bc 4fe2 d53b d97b 09bc
00000320: 3316 553a 489f 1e3b c857 b138 30da 223b
00000330: 3e3e 113c f7d4 91bc b38f b5bc d903 bcbc
00000340: 6548 093c 3a75 b5bc 6c13 0f3c 5587 5c3c
00000350: c0fe eabb 2adc 803b 1bbf 843c 5be0 1abc
00000360: 3b4d a639 79c3 c7bb 8750 8c39 3a8c ce3b
00000370: f33d 153b 8659 89bc ab2e 7e3c c3ae 723c
00000380: 04d5 c3bb ac12 2abb 2b6c 06bb 9552 5c3b
00000390: af89 ec3b b6c4 a23a a979 183c 2dd7 093c
000003a0: 6aff 4f3c b3e7 6fbb 1c5e 8bbc 7704 7dbc
000003b0: df13 02ba 658f 6abb 6425 a8bc aa4c 883a
000003c0: 93d5 61bc c385 34bb 452b 47bc 2334 633b
000003d0: a035 c13b afe2 3dbc 780f 4a3a 8f7e 0bbc
000003e0: 5fc5 58bc 4897 e2bb 77ee f63a cb09 293b
000003f0: c946 22bc 10e8 2abc e3e8 87bc 5bf5 8ebb
0.009318427 0.008244278 0.00046977866 -0.0043813917 -0.008788996 0.0027127063 -0.002429386 0.007515061
-0.0065647922 -0.011282765 -0.010147017 -0.0051294523 0.0038387836 0.0061094067 -0.0015306977 0.007893215
-0.004796456 -0.013034964 0.008216125 -0.0067811213 -0.0032450312 -0.0027881642 0.0155244265 0.00013884262
0.010811633 -0.0036583773 -0.008279138 -0.001268175 -0.0064100674 -0.007443239 -0.0058297836 0.0018297266
-0.007456099 0.006311641 -0.0003443728 -0.015465151 0.0043198126 -0.011548872 -0.0052108606 -6.2431216e-05
0.0022457135 -0.007268419 -0.001266487 0.00410042 -0.0104600955 -0.0009427339 0.008554622 -0.012856151
-0.0042311675 -0.0018736564 0.003190126 0.0045135207 0.0021694077 -0.0014819613 -0.0066236774 -0.0012486975
-0.0057261456 0.00065153156 0.0015789293 0.008766945 0.00077271264 0.009672093 -0.010419277 -0.00050302636
0.009892482 0.016113607 -0.0063582077 -0.004263979 -0.011012018 0.007502593 -0.005837767 0.023150217
-0.008412206 0.0008171647 0.01142159 0.00046495805 0.008727104 0.010210527 0.00053817476 5.890355e-05
-0.0071272887 0.006519948 0.00097480026 -0.010329044 -0.013717388 -0.0026394713 0.006125219 0.012496563
0.0026250705 0.005015709 0.00022493466 -0.0041667074 -0.008732504 0.019286454 -0.0070763365 0.0010534417
0.005015872 0.00030269226 -0.013449117 0.00547117 0.0067698727 0.007536632 0.00809054 -0.0016985051
-0.0054137562 0.013651939 0.0011781558 -0.00895778 0.009889982 0.017451517 -0.0071420805 -0.0005982736
0.0010075393 0.0063041695 0.005408882 -0.0071491785 -0.004528237 0.00493051 0.013015591 0.0027489911
-0.003580605 -0.014281578 0.0052359924 -0.0046376283 0.0034317665 -0.0061976393 -0.009597611 -0.010526358
-0.0028554124 -0.0043407944 -0.0056030764 -0.0005868348 -0.0005145969 0.008393222 -0.0082999775 0.0105889775
0.0030040478 0.0032368563 0.003086399 0.006853647 -0.0015882663 0.0045434562 0.00059142243 0.019154435
-0.0027463434 0.007919609 0.011481767 -0.0044653593 -0.004347044 -0.0062316805 -0.0059988066 -0.008059749
-0.0032885715 0.0017834429 0.010912678 0.0064197266 -0.013226907 -0.00398035 -0.005786193 0.014656973
-0.0043308497 -0.009349806 0.009301852 0.0006656922 -0.0026988734 -0.016800592 -0.008656311 0.009651786
-0.003002885 0.0053490596 0.01263678 0.015169114 -0.0049019638 0.007961445 -0.001016033 0.004942455
0.0025952503 0.0016095842 -5.3183856e-05 -0.006974589 0.013339727 -0.0014754477 0.0052558086 -0.00029919925
0.011438488 -0.0043942747 -0.010540965 -0.002990281 -0.007542322 0.001372689 -0.0070315464 -0.018681904
0.0064488375 0.0044512376 0.004697004 -0.00573684 -0.0100721745 -0.011295133 0.006527222 -0.008391344
0.0008128613 0.0024203826 8.456368e-05 0.0024849288 0.008864937 -0.017801745 -0.022163248 -0.022951053
0.008379077 -0.022150625 0.008732658 0.01346 -0.007171482 0.0039324956 0.016204407 -0.009452905
0.00031719528 -0.0060963 0.00026762878 0.0063033374 0.002277252 -0.01676632 0.015514056 0.014812174
-0.005976321 -0.002595107 -0.002051125 0.0033618559 0.0072185616 0.0012418244 0.00930635 0.008413118
0.012695173 -0.003660661 -0.017012648 -0.015442959 -0.00049620675 -0.0035791036 -0.020525642 0.0010398824
-0.01378383 -0.0027545549 -0.012156312 0.0034668527 0.005896285 -0.01158969 0.00077079935 -0.008514061
-0.013230651 -0.006915007 0.0018839379 0.002579319 -0.009904572 -0.010431305 -0.016590541 -0.0043627447

action_model._discrete_distribution.branches.0.bias f4 [2]
00000000: 0000 0000 0000 0000
0.0 0.0

49 f4 [2]
00000000: cd7b cf3f 5bc3 1740
1.6209656 2.3712986
