results/flappy_bird_train2/FlappyBirdAgent.onnx (onnx, 534229 bytes, 10 tensors)

network_body.observation_encoder.processors.0.normalizer.running_mean f4 [2]
000000 d3 1f de c3 ea 99 d5 c1
       -444.24863 -26.700153

network_body._body_endoder.seq_layers.0.weight f4 [256, 2]
000000 c1 04 85 3f 71 87 2b bf bf 58 ac be 50 65 d4 3d
       1.0392076 -0.6700354 -0.33661458 0.10370886
000010 7d e5 4a 3f 02 03 45 3f e8 6d 02 3f 91 2f 93 be
       0.7925642 0.76957715 0.50948954 -0.28747228
000020 d2 d3 7c 3f 70 d8 61 bf 19 56 90 3e 95 9d 3e be
       0.9876071 -0.8822088 0.28190687 -0.186148
000030 81 5a 5a 3f 71 39 46 3e 75 f0 94 3e 49 f4 7f be
       0.8529435 0.1935785 0.29089704 -0.24995531
000040 89 54 32 3f bf 31 4d bf 20 e3 1e 3f d0 ec 0b 3e
       0.6966024 -0.8015403 0.62065315 0.13664556
000050 bf 87 e7 be 58 de a9 be 2c 76 12 3e b9 70 5a 3f
       -0.45220754 -0.33177447 0.14302891 0.8532825
000060 ec 75 d0 be 84 d9 18 be b6 ea 4e be c5 38 fe be
       -0.40714967 -0.14926726 -0.20206723 -0.49652687
000070 5e 16 50 3f 07 54 ec 3e 64 cd 34 bf 8e 54 7b bf
       0.8128413 0.46157858 -0.706259 -0.98175895
000080 47 96 90 bf fe 9b 49 3e 6f 73 a0 3e bb 37 b3 be
       -1.1295861 0.19688413 0.3133807 -0.35003456
000090 67 6f bc bf 01 e9 b5 ba 42 2f 57 3d bd 04 41 be
       -1.4721497 -0.0013878645 0.052535303 -0.18849464
0000a0 0e f7 b5 be 41 37 e0 3e 5e 50 4a bf cd 68 4d 3f
       -0.3554005 0.43792155 -0.7902888 0.8023804
0000b0 f9 55 2a bf ad 76 36 be 1f fa c4 bf 88 28 f6 bc
       -0.66537434 -0.17818709 -1.5388831 -0.030048624
0000c0 16 e7 9f 3f 05 0a aa 3d 04 39 49 3f 15 25 06 bf
       1.2492397 0.08302692 0.78602624 -0.5240033
0000d0 01 29 ec 3f ad 2c 39 bf 5f 97 c9 bd fe 1b a2 be
       1.8450013 -0.72333795 -0.09843325 -0.3166198
0000e0 d6 03 13 bf 8a e3 73 bf 32 f0 cf 3d 7b de 56 be
       -0.5742773 -0.9526907 0.101532355 -0.20983307
0000f0 06 40 3a be 8f 71 d7 3d 2a 92 3b 3e 63 b8 c1 bd
       -0.18188486 0.105197065 0.18317476 -0.09458997
000100 2a 6d 74 bf 2e dd 33 39 2a d1 72 bf c1 f1 1d 3f
       -0.9547907 0.00017153166 -0.9485041 0.6169701
000110 47 23 71 bf 96 3f 9d bf e8 fc 77 be 5d 2f 6e be
       -0.94194454 -1.228503 -0.2421757 -0.23260255
000120 df 77 12 3f 87 a8 22 3f 4c 55 8c be 86 b9 81 3f
       0.5721416 0.635384 -0.27408826 1.0134742
000130 be 98 c2 3e 15 c9 b3 3e cd 83 8b be 64 f3 56 be
       0.38007158 0.3511435 -0.27248994 -0.20991284
000140 cb 2a 03 be 36 8d b1 3f b1 ce 40 bf 7a 91 13 be
       -0.12809293 1.3871219 -0.75315386 -0.14410964
000150 eb db 91 3f 90 74 60 bf 46 40 6f bf ef 80 d3 be
       1.1395239 -0.8767786 -0.9345745 -0.41309306
000160 8e 41 12 bf 0f cb ee be 53 6b 73 3f 32 25 68 3f
       -0.5713128 -0.46639296 0.9508564 0.90681756
000170 b6 3e 19 3e 6b 46 08 bf cb 1a 1c bf 35 6f f1 bd
       0.14965329 -0.5323245 -0.6097838 -0.11788789
000180 d3 bb 62 bf 0e d9 74 be 70 19 07 40 61 73 81 be
       -0.88567847 -0.23910925 2.1109276 -0.2528334
000190 40 37 b9 3e 7c 53 8c 3f e2 ad 64 3f 45 b4 e0 be
       0.36174965 1.0962977 0.89327824 -0.43887535
0001a0 60 18 c2 bf 6f e5 94 3c aa 81 74 bf ea 66 7f bf
       -1.5163689 0.018175809 -0.9551035 -0.9976641
0001b0 a2 dc b7 3f 49 bf 7d bf 51 9b 33 be 2d 46 06 bf
       1.4364207 -0.99120003 -0.17539717 -0.5245083
0001c0 4e 6f 62 3e a0 dc 65 3f 58 58 ed bc fe 45 5a 3f
       0.22112772 0.8978977 -0.02897279 0.8526305
0001d0 f5 c9 00 bf 89 43 53 3e cd 1e 00 40 0a 6a 2a 3f
       -0.5030816 0.20631231 2.00188 0.6656805
0001e0 90 42 f0 3e 58 52 08 3d 11 85 81 bf b6 f5 3b 3e
       0.46925783 0.033281654 -1.0118734 0.1835545
0001f0 bb ab 87 bf c0 8b c6 3e be bb 12 3f 19 cf 17 bf
       -1.0599283 0.38778496 0.5731772 -0.5930038
000200 ff 58 90 bf 34 b8 3d 3f e8 44 1c bf c2 1e 15 bc
       -1.127716 0.74109197 -0.6104264 -0.0091015715
000210 cf ac ff be 98 8e e4 3e 99 7b a0 bd 19 a2 da 3e
       -0.4993653 0.4464004 -0.078360744 0.42701796
000220 4b 07 cf be 3c f6 f7 bd 35 1f 35 3f 1c e1 01 3f
       -0.40435252 -0.12107512 0.70750743 0.50734115
000230 75 6d 86 3e d2 1d 14 be 0d f5 da bf 49 30 81 3f
       0.26255384 -0.144645 -1.7106034 1.009286
000240 71 02 d1 be fb 07 40 bf e2 3a 1d bf 14 46 3f bf
       -0.40822175 -0.7501218 -0.61417973 -0.74716306
000250 7f 8f 64 3f 2c c7 5e bf bb fa 73 3f af c7 85 be
       0.8928146 -0.8702266 0.9530446 -0.2612891
000260 60 6f 92 3e 6f 1f 5b 3e 9e 2a a4 3e c8 84 cf be
       0.28600597 0.2139871 0.32063764 -0.40530992
000270 d6 42 3c 3e f2 13 c0 3e 78 7c 7d 3f a9 42 83 be
       0.18384871 0.37515217 0.9901805 -0.25636795
000280 f5 ef 00 c0 53 3f 46 3e 97 f6 42 bf d1 dc 3a bf
       -2.0146458 0.19360094 -0.76157516 -0.7299319
000290 d1 03 1a bd 35 5e 87 bf 61 8d 6a 3f 72 82 69 bf
       -0.037601296 -1.0575625 0.9162198 -0.9121467
0002a0 92 1b c5 bc f6 77 38 3f f0 d9 1c 3e 88 9a a9 3f
       -0.024060998 0.72058046 0.15317512 1.3250284
0002b0 12 7a bf be b4 4a 04 3f 8b 43 fa 3e fa 96 6a bd
       -0.3739782 0.5167649 0.48879656 -0.05727289
0002c0 e9 1a 17 be cd f7 d6 3e 5f ee 6c bc 7b 28 fe be
       -0.14756359 0.41985932 -0.014461129 -0.4964026
0002d0 48 36 bb 3f 41 d3 89 bd de cb da 3e 48 26 81 3e
       1.462594 -0.067297466 0.42733663 0.2522452
0002e0 19 b4 7e 3e 82 ca 85 bf 67 9d 4e bf 91 8c 7b 3d
       0.2487339 -1.0452425 -0.80708927 0.06141335
0002f0 c9 be ac 3e bb aa d9 bd d9 03 95 3e f0 3d dc be
       0.33739308 -0.106282674 0.29104498 -0.43016005
000300 34 f3 6b bf 1a 1c af 3f 24 55 52 bf 87 ed 36 3e
       -0.92167974 1.3680451 -0.82161164 0.17864047
000310 e2 f7 55 3e 64 59 c3 be 66 1c c5 be 17 d0 53 be
       0.20895341 -0.38154137 -0.3849823 -0.20684849
000320 c0 aa 18 bf f0 df 5c 3f fe 5b 64 bf 6e 9d c7 3e
       -0.59635544 0.862792 -0.8920287 0.38987297
000330 c5 ee ad 3c a0 68 0c bf 70 76 95 be f6 92 2f 3f
       0.021232018 -0.54847145 -0.29191923 0.6858362
000340 c6 03 1f bf f3 e9 95 3e e7 b4 01 bf 2c bd ae be
       -0.6211513 0.29280052 -0.5066666 -0.34128702
000350 d5 45 91 3d b1 ab bc bd a5 ef a5 bd 27 42 b8 3e
       0.070933975 -0.09212435 -0.08102349 0.3598797
000360 84 73 98 3f c9 97 89 bf 1c 7b 01 bf 86 a6 e0 3e
       1.1910253 -1.0749446 -0.50578475 0.43877047
000370 7f 79 4f 3e 0e 4d 89 3e 55 82 72 3d 46 81 4f be
       0.20261191 0.268166 0.059206326 -0.20264158
000380 f6 a3 cb bd f9 02 26 3f b9 da 36 3f 02 bf 29 bf
       -0.099433824 0.64848286 0.71427494 -0.6630708
000390 83 0d 9a 3e 9c 5c 3a 3e 13 ec 15 3e f8 8c ab bd
       0.30088434 0.1819939 0.14640836 -0.08376497
0003a0 b1 4c 52 3e a3 a3 c4 bf 32 69 77 3d 44 2b 96 bf
       0.20537068 -1.5362438 0.060403056 -1.1731954
0003b0 3f 9b 2a c0 e6 4e 20 bf d4 72 09 3f 47 00 b9 3e
       -2.6657255 -0.6262039 0.5369084 0.36133024
0003c0 99 1c c4 3e 4b e3 1b bf 85 f8 0f be ec 21 16 bf
       0.38303068 -0.60893697 -0.14059646 -0.5864551
0003d0 e0 38 dc 3f 72 c8 54 bf a8 e9 8e 3e 0b 5a 2a be
       1.7204857 -0.83118355 0.2791264 -0.16635911
0003e0 17 1f 0f 3f c0 49 66 3f 8b 6b 1e bf 18 99 df be
       0.55906814 0.89956284 -0.6188285 -0.4367149
0003f0 72 1c 41 bd c8 cf 7b bf 6b ef f9 be 98 4e 9f 3e
       -0.04714627 -0.98363924 -0.48815474 0.3111465

network_body._body_endoder.seq_layers.0.bias f4 [256]
000000 00 00 00 00 00 00 00 00 00 00 00 00 00 00 00 00
       0.0 0.0 0.0 0.0
000010 00 00 00 00 00 00 00 00 00 00 00 00 00 00 00 00
       0.0 0.0 0.0 0.0
000020 00 00 00 00 00 00 00 00 00 00 00 00 00 00 00 00
       0.0 0.0 0.0 0.0
000030 00 00 00 00 00 00 00 00 00 00 00 00 00 00 00 00
       0.0 0.0 0.0 0.0
000040 00 00 00 00 00 00 00 00 00 00 00 00 00 00 00 00
       0.0 0.0 0.0 0.0
000050 00 00 00 00 00 00 00 00 00 00 00 00 00 00 00 00
       0.0 0.0 0.0 0.0
000060 00 00 00 00 00 00 00 00 00 00 00 00 00 00 00 00
       0.0 0.0 0.0 0.0
000070 00 00 00 00 00 00 00 00 00 00 00 00 00 00 00 00
       0.0 0.0 0.0 0.0
000080 00 00 00 00 00 00 00 00 00 00 00 00 00 00 00 00
       0.0 0.0 0.0 0.0
000090 00 00 00 00 00 00 00 00 00 00 00 00 00 00 00 00
       0.0 0.0 0.0 0.0
0000a0 00 00 00 00 00 00 00 00 00 00 00 00 00 00 00 00
       0.0 0.0 0.0 0.0
0000b0 00 00 00 00 00 00 00 00 00 00 00 00 00 00 00 00
       0.0 0.0 0.0 0.0
0000c0 00 00 00 00 00 00 00 00 00 00 00 00 00 00 00 00
       0.0 0.0 0.0 0.0
0000d0 00 00 00 00 00 00 00 00 00 00 00 00 00 00 00 00
       0.0 0.0 0.0 0.0
0000e0 00 00 00 00 00 00 00 00 00 00 00 00 00 00 00 00
       0.0 0.0 0.0 0.0
0000f0 00 00 00 00 00 00 00 00 00 00 00 00 00 00 00 00
       0.0 0.0 0.0 0.0
000100 00 00 00 00 00 00 00 00 00 00 00 00 00 00 00 00
       0.0 0.0 0.0 0.0
000110 00 00 00 00 00 00 00 00 00 00 00 00 00 00 00 00
       0.0 0.0 0.0 0.0
000120 00 00 00 00 00 00 00 00 00 00 00 00 00 00 00 00
       0.0 0.0 0.0 0.0
000130 00 00 00 00 00 00 00 00 00 00 00 00 00 00 00 00
       0.0 0.0 0.0 0.0
000140 00 00 00 00 00 00 00 00 00 00 00 00 00 00 00 00
       0.0 0.0 0.0 0.0
000150 00 00 00 00 00 00 00 00 00 00 00 00 00 00 00 00
       0.0 0.0 0.0 0.0
000160 00 00 00 00 00 00 00 00 00 00 00 00 00 00 00 00
       0.0 0.0 0.0 0.0
000170 00 00 00 00 00 00 00 00 00 00 00 00 00 00 00 00
       0.0 0.0 0.0 0.0
000180 00 00 00 00 00 00 00 00 00 00 00 00 00 00 00 00
       0.0 0.0 0.0 0.0
000190 00 00 00 00 00 00 00 00 00 00 00 00 00 00 00 00
       0.0 0.0 0.0 0.0
0001a0 00 00 00 00 00 00 00 00 00 00 00 00 00 00 00 00
       0.0 0.0 0.0 0.0
0001b0 00 00 00 00 00 00 00 00 00 00 00 00 00 00 00 00
       0.0 0.0 0.0 0.0
0001c0 00 00 00 00 00 00 00 00 00 00 00 00 00 00 00 00
       0.0 0.0 0.0 0.0
0001d0 00 00 00 00 00 00 00 00 00 00 00 00 00 00 00 00
       0.0 0.0 0.0 0.0
0001e0 00 00 00 00 00 00 00 00 00 00 00 00 00 00 00 00
       0.0 0.0 0.0 0.0
0001f0 00 00 00 00 00 00 00 00 00 00 00 00 00 00 00 00
       0.0 0.0 0.0 0.0
000200 00 00 00 00 00 00 00 00 00 00 00 00 00 00 00 00
       0.0 0.0 0.0 0.0
000210 00 00 00 00 00 00 00 00 00 00 00 00 00 00 00 00
       0.0 0.0 0.0 0.0
000220 00 00 00 00 00 00 00 00 00 00 00 00 00 00 00 00
       0.0 0.0 0.0 0.0
000230 00 00 00 00 00 00 00 00 00 00 00 00 00 00 00 00
       0.0 0.0 0.0 0.0
000240 00 00 00 00 00 00 00 00 00 00 00 00 00 00 00 00
       0.0 0.0 0.0 0.0
000250 00 00 00 00 00 00 00 00 00 00 00 00 00 00 00 00
       0.0 0.0 0.0 0.0
000260 00 00 00 00 00 00 00 00 00 00 00 00 00 00 00 00
       0.0 0.0 0.0 0.0
000270 00 00 00 00 00 00 00 00 00 00 00 00 00 00 00 00
       0.0 0.0 0.0 0.0
000280 00 00 00 00 00 00 00 00 00 00 00 00 00 00 00 00
       0.0 0.0 0.0 0.0
000290 00 00 00 00 00 00 00 00 00 00 00 00 00 00 00 00
       0.0 0.0 0.0 0.0
0002a0 00 00 00 00 00 00 00 00 00 00 00 00 00 00 00 00
       0.0 0.0 0.0 0.0
0002b0 00 00 00 00 00 00 00 00 00 00 00 00 00 00 00 00
       0.0 0.0 0.0 0.0
0002c0 00 00 00 00 00 00 00 00 00 00 00 00 00 00 00 00
       0.0 0.0 0.0 0.0
0002d0 00 00 00 00 00 00 00 00 00 00 00 00 00 00 00 00
       0.0 0.0 0.0 0.0
0002e0 00 00 00 00 00 00 00 00 00 00 00 00 00 00 00 00
       0.0 0.0 0.0 0.0
0002f0 00 00 00 00 00 00 00 00 00 00 00 00 00 00 00 00
       0.0 0.0 0.0 0.0
000300 00 00 00 00 00 00 00 00 00 00 00 00 00 00 00 00
       0.0 0.0 0.0 0.0
000310 00 00 00 00 00 00 00 00 00 00 00 00 00 00 00 00
       0.0 0.0 0.0 0.0
000320 00 00 00 00 00 00 00 00 00 00 00 00 00 00 00 00
       0.0 0.0 0.0 0.0
000330 00 00 00 00 00 00 00 00 00 00 00 00 00 00 00 00
       0.0 0.0 0.0 0.0
000340 00 00 00 00 00 00 00 00 00 00 00 00 00 00 00 00
       0.0 0.0 0.0 0.0
000350 00 00 00 00 00 00 00 00 00 00 00 00 00 00 00 00
       0.0 0.0 0.0 0.0
000360 00 00 00 00 00 00 00 00 00 00 00 00 00 00 00 00
       0.0 0.0 0.0 0.0
000370 00 00 00 00 00 00 00 00 00 00 00 00 00 00 00 00
       0.0 0.0 0.0 0.0
000380 00 00 00 00 00 00 00 00 00 00 00 00 00 00 00 00
       0.0 0.0 0.0 0.0
000390 00 00 00 00 00 00 00 00 00 00 00 00 00 00 00 00
       0.0 0.0 0.0 0.0
0003a0 00 00 00 00 00 00 00 00 00 00 00 00 00 00 00 00
       0.0 0.0 0.0 0.0
0003b0 00 00 00 00 00 00 00 00 00 00 00 00 00 00 00 00
       0.0 0.0 0.0 0.0
0003c0 00 00 00 00 00 00 00 00 00 00 00 00 00 00 00 00
       0.0 0.0 0.0 0.0
0003d0 00 00 00 00 00 00 00 00 00 00 00 00 00 00 00 00
       0.0 0.0 0.0 0.0
0003e0 00 00 00 00 00 00 00 00 00 00 00 00 00 00 00 00
       0.0 0.0 0.0 0.0
0003f0 00 00 00 00 00 00 00 00 00 00 00 00 00 00 00 00
       0.0 0.0 0.0 0.0

network_body._body_endoder.seq_layers.2.weight f4 [256, 256]
000000 7e 10 fe bd 7d 7b 8c 3c 44 cd 63 3d 2d 58 4a bd
       -0.124054894 0.017148728 0.05561568 -0.049400497
000010 11 38 00 3d 45 ae b0 3d 05 8b b7 3d 0f 77 fd 3a
       0.03130347 0.08626989 0.08962063 0.001933785
000020 36 ba b6 bc 6b 03 9c bc ef 58 8c 3d 20 ad 8b bb
       -0.02230559 -0.019044599 0.068529 -0.0042625815
000030 8d 2a d2 3c 82 bf 9e bc a7 af 77 bd 71 70 ad bd
       0.025655055 -0.019378427 -0.06047025 -0.08468712
000040 71 b1 9f 3d 00 7b a3 bd 81 1a 0d 3d 03 bf 3e bc
       0.07797516 -0.07982445 0.034449104 -0.01164222
000050 6f da 13 3c b5 65 b5 3c 00 5b d2 bd 8b 35 26 3d
       0.009024247 0.022143224 -0.10271263 0.040578406
000060 b8 ab 39 bd 41 7f 02 bc 10 04 c8 3d a9 f9 74 3d
       -0.04532978 -0.00796491 0.097664 0.059808407
000070 9f 91 2c 3d d5 e0 9a 3d 87 df 3d bd 37 6d 8d 3d
       0.042131063 0.075624146 -0.04635575 0.06905597
000080 66 8e 0b 3c f4 2e cd bd e0 7f 4f 3b 4e 21 c6 3d
       0.008517837 -0.10018721 0.0031661913 0.09674321
000090 82 95 88 bd 70 50 74 bd b2 b7 34 bc 20 38 04 3d
       -0.06669141 -0.059647024 -0.0110301245 0.032280087
0000a0 38 86 44 3c 36 6c 09 bb eb d9 69 bd 61 3f c3 3c
       0.011994891 -0.002096904 -0.05709259 0.023833932
0000b0 07 e5 1a 3d 2d 75 3b 3d 1a 05 db 3c 59 a1 2d 3d
       0.037816074 0.045766044 0.026735831 0.0423902
0000c0 ad 0b 04 be 35 a8 1b bd 37 49 b3 bd 8a a4 af 3d
       -0.12895079 -0.03800221 -0.08754199 0.08576305
0000d0 39 18 5e bd 4e 48 76 3d 71 99 87 3d db 28 09 3d
       -0.05422232 0.06012755 0.066210635 0.03348623
0000e0 81 2c 90 3d bf 8f 6f 3c 5f 0b 96 bd 82 be af bd
       0.070397384 0.014621674 -0.073263876 -0.08581258
0000f0 a4 25 e1 bd 82 39 03 bd 02 98 ae bc 01 df 3b 3d
       -0.109935075 -0.032037266 -0.021312717 0.04586697
000100 7f 24 d0 bb 57 ef 28 3c bb 06 2c bd ca 98 af 3d
       -0.006352007 0.010310969 -0.041998606 0.08574064
000110 e6 6b 99 bc 3d 3e af 3d c6 6b c9 3c c6 be c7 bc
       -0.018728208 0.08556793 0.024587523 -0.02438296
000120 26 09 33 3c 53 7d 36 bd 7c c1 cd 3d fa f7 a3 bb
       0.010927474 -0.044553112 0.1004667 -0.0050039263
000130 00 d7 53 3c cd a6 a0 3d 01 da c8 ba 21 36 2c bc
       0.012929678 0.07844315 -0.0015323759 -0.010510952
000140 0f 8f f7 3c dd dd a7 bd c2 de 91 3d e2 f8 6e bd
       0.030219583 -0.08196614 0.07122566 -0.058342822
000150 aa 0e 10 3e 0e 19 88 3c 1b ab 5c bb 5b 88 9a bd
       0.14068094 0.01661351 -0.0033671323 -0.07545539
000160 1e 9d ad 3d 42 eb e0 bc 7d bf 2e bd 79 f3 99 bc
       0.08477233 -0.02745593 -0.042663086 -0.018792855
000170 16 a0 2b 3d 6c dc 63 bd 59 fb 4d 3e 19 12 80 bd
       0.041900717 -0.055630133 0.20115413 -0.06253452
000180 c6 44 d0 bd 21 5c 3e 3d cd 50 0e 3d cb 9e c7 bd
       -0.101693675 0.04647458 0.034745026 -0.09747084
000190 fa ab dc 3b c4 6b 9e bc 90 a7 80 3d 73 98 e3 3c
       0.0067343684 -0.019338496 0.0628196 0.027782654
0001a0 50 bc 30 bc d5 86 2c 3d fb ff b1 3d 29 71 81 3d
       -0.010787085 0.042120773 0.086914025 0.06320412
0001b0 10 a9 4f 3d 1a 7e 56 3c 77 bb d6 bd b0 d4 0c be
       0.05069834 0.013091588 -0.10484975 -0.13753009
0001c0 57 12 7d 3d f6 6d d9 3d 6a 68 06 3e 47 55 c2 bc
       0.06178507 0.106166765 0.13125768 -0.023722304
0001d0 ee ff 59 3d a6 d9 14 3c 4d 95 72 3d d8 35 38 bd
       0.05322259 0.009085095 0.059224416 -0.044973224
0001e0 13 c1 c3 3b fc 60 3f bc 9a 4d 17 bd 25 8e 0b be
       0.005973944 -0.011680838 -0.03693924 -0.13628443
0001f0 7f 56 99 3c 42 ad 84 bd 0a ca 05 be 42 f4 e8 bb
       0.018718002 -0.06478359 -0.13065353 -0.007109196
000200 f1 0f 5f 3d fb 62 b2 bd b2 30 53 be 5c 3c be bd
       0.054458562 -0.08710285 -0.20624045 -0.092888564
000210 28 88 05 bd 67 90 34 3d bf 24 79 bd cc d4 f1 bc
       -0.03260055 0.044083025 -0.06082606 -0.029520415
000220 70 e9 30 be 40 68 91 3d aa 24 45 3b b4 5d 99 bc
       -0.1727655 0.07099962 0.0030081668 -0.018721439
000230 40 55 b3 3d f6 3c 0d bd 5f 7b 93 bd a8 da c8 3d
       0.087564945 -0.034481965 -0.072012655 0.0980733
000240 89 8b 69 bd a4 1e 43 3d d9 c5 75 bc 12 64 33 3c
       -0.057017837 0.047636643 -0.015000784 0.010949152
000250 09 8a 6a bd 89 59 96 3d fa 87 7e 3d 3a 42 39 bb
       -0.057260547 0.07341296 0.062141396 -0.0028268234
000260 6d 32 93 3d f5 0d b0 3c 73 21 09 3d 67 a6 8c bd
       0.07187352 0.02149103 0.033479165 -0.06867676
000270 b6 57 4a 3d a3 8f 88 bd d0 5d f2 3b 51 73 92 3c
       0.049400054 -0.066680215 0.007396437 0.017877253
000280 5c f7 11 bd ac 6b da 3c 04 07 16 be 70 9d ce 3c
       -0.03563629 0.02666267 -0.14651114 0.025221556
000290 78 7b b7 bd e8 d9 49 bd e2 80 b6 3c 12 ec 2b bd
       -0.08959097 -0.049280077 0.022278253 -0.04197318
0002a0 ec 12 ce 3c b8 82 69 bd bb 1b ba bd 4c 8b d9 3c
       0.025155507 -0.05700943 -0.090873204 0.02655568
0002b0 86 f2 e8 bc fb 7a 68 3d af 5e 8e bd 46 0a 25 3c
       -0.028435957 0.05675791 -0.06951653 0.01007325
0002c0 1b a9 40 bd f1 97 65 3d 03 97 8d bd 6b d9 a2 bc
       -0.04703627 0.056053106 -0.06913569 -0.019879064
0002d0 d1 3e f5 3c 86 59 34 3c 5d 42 89 3c b3 91 f4 3b
       0.02993718 0.011007672 0.016755277 0.0074636578
0002e0 cb 6e 86 3d ac 99 80 bd 80 0e 84 bd 51 b7 4b 3d
       0.06564101 -0.062793106 -0.06448078 0.04973537
0002f0 4f e8 84 bc 67 c9 19 bd 4d 67 55 bd bd 63 bb bd
       -0.016224055 -0.037545588 -0.05210047 -0.09149883
000300 6b 32 79 3d c1 20 a6 bb 89 aa 76 3d dd f3 e6 bd
       0.060839098 -0.0050698225 0.06022123 -0.11276982
000310 9a a9 1d bd b2 bd 93 3c 4c 6d 8a 3d 39 1a da bc
       -0.038491823 0.01803479 0.06759128 -0.026623832
000320 3f eb 20 bd f6 16 5e bd 08 7b b4 bd 22 73 5a bd
       -0.03928685 -0.054221116 -0.08812529 -0.053332455
000330 15 29 d5 3c ec fe d5 bc 2d 1a b2 bd 22 60 bd bd
       0.026020566 -0.026122533 -0.08696399 -0.092468515
000340 a0 07 c0 bc 18 89 ff 3c 26 dc 42 bd 41 c9 8c bd
       -0.023441136 0.031193301 -0.04757323 -0.06874324
000350 cf c6 00 3c 2d f0 79 bc 37 49 99 bd 6d 5a 40 3d
       0.0078599 -0.015255016 -0.07484668 0.046961237
000360 b2 bd d6 bb 9e 23 f3 bc df c2 9a 3d 93 62 91 bd
       -0.006553375 -0.02968007 0.075567 -0.0709888
000370 f8 0b a4 bc 15 c5 5c bd 08 90 90 bd 8b 3a 9f 3d
       -0.020025238 -0.05389889 -0.07058722 0.07774838
000380 a2 50 87 bd e4 78 ad bb 89 99 02 3d 9f 8d d3 3b
       -0.06607176 -0.0052939523 0.031884704 0.0064560915
000390 84 38 0a 3d 23 a0 2e bc 3c 1d b4 3d 25 24 9d bd
       0.033745304 -0.010658297 0.087946385 -0.0767291
0003a0 33 c6 9c bd 81 2a ad 3d fc 4d 33 bd ad de 80 bd
       -0.07654991 0.084553726 -0.043775544 -0.06292472
0003b0 6f c3 ef bc f4 4b 6a bd b4 7e 94 3d f8 a1 a7 3c
       -0.029267995 -0.05720134 0.07250729 0.020462975
0003c0 b3 75 72 3d b8 25 bb bd 43 c7 18 bc d6 5c 97 bd
       0.059194278 -0.09138054 -0.009324851 -0.07390754
0003d0 b9 e2 90 bc 07 02 a6 3c 16 ff 07 bd 44 5e eb bc
       -0.017686235 0.020264639 -0.033202253 -0.028731473
0003e0 db 02 d6 3d 80 7e 9e 3d aa 04 08 3d 4a 2b cc bc
       0.104497634 0.07738972 0.033207573 -0.024922986
0003f0 0e 63 24 3d d1 ba 22 bd 7c 07 0a bb 5f 0e ca bd
       0.04013353 -0.039728943 -0.002106159 -0.09866022

network_body._body_endoder.seq_layers.2.bias f4 [256]
000000 00 00 00 00 00 00 00 00 00 00 00 00 00 00 00 00
       0.0 0.0 0.0 0.0
000010 00 00 00 00 00 00 00 00 00 00 00 00 00 00 00 00
       0.0 0.0 0.0 0.0
000020 00 00 00 00 00 00 00 00 00 00 00 00 00 00 00 00
       0.0 0.0 0.0 0.0
000030 00 00 00 00 00 00 00 00 00 00 00 00 00 00 00 00
       0.0 0.0 0.0 0.0
000040 00 00 00 00 00 00 00 00 00 00 00 00 00 00 00 00
       0.0 0.0 0.0 0.0
000050 00 00 00 00 00 00 00 00 00 00 00 00 00 00 00 00
       0.0 0.0 0.0 0.0
000060 00 00 00 00 00 00 00 00 00 00 00 00 00 00 00 00
       0.0 0.0 0.0 0.0
000070 00 00 00 00 00 00 00 00 00 00 00 00 00 00 00 00
       0.0 0.0 0.0 0.0
000080 00 00 00 00 00 00 00 00 00 00 00 00 00 00 00 00
       0.0 0.0 0.0 0.0
000090 00 00 00 00 00 00 00 00 00 00 00 00 00 00 00 00
       0.0 0.0 0.0 0.0
0000a0 00 00 00 00 00 00 00 00 00 00 00 00 00 00 00 00
       0.0 0.0 0.0 0.0
0000b0 00 00 00 00 00 00 00 00 00 00 00 00 00 00 00 00
       0.0 0.0 0.0 0.0
0000c0 00 00 00 00 00 00 00 00 00 00 00 00 00 00 00 00
       0.0 0.0 0.0 0.0
0000d0 00 00 00 00 00 00 00 00 00 00 00 00 00 00 00 00
       0.0 0.0 0.0 0.0
0000e0 00 00 00 00 00 00 00 00 00 00 00 00 00 00 00 00
       0.0 0.0 0.0 0.0
0000f0 00 00 00 00 00 00 00 00 00 00 00 00 00 00 00 00
       0.0 0.0 0.0 0.0
000100 00 00 00 00 00 00 00 00 00 00 00 00 00 00 00 00
       0.0 0.0 0.0 0.0
000110 00 00 00 00 00 00 00 00 00 00 00 00 00 00 00 00
       0.0 0.0 0.0 0.0
000120 00 00 00 00 00 00 00 00 00 00 00 00 00 00 00 00
       0.0 0.0 0.0 0.0
000130 00 00 00 00 00 00 00 00 00 00 00 00 00 00 00 00
       0.0 0.0 0.0 0.0
000140 00 00 00 00 00 00 00 00 00 00 00 00 00 00 00 00
       0.0 0.0 0.0 0.0
000150 00 00 00 00 00 00 00 00 00 00 00 00 00 00 00 00
       0.0 0.0 0.0 0.0
000160 00 00 00 00 00 00 00 00 00 00 00 00 00 00 00 00
       0.0 0.0 0.0 0.0
000170 00 00 00 00 00 00 00 00 00 00 00 00 00 00 00 00
       0.0 0.0 0.0 0.0
000180 00 00 00 00 00 00 00 00 00 00 00 00 00 00 00 00
       0.0 0.0 0.0 0.0
000190 00 00 00 00 00 00 00 00 00 00 00 00 00 00 00 00
       0.0 0.0 0.0 0.0
0001a0 00 00 00 00 00 00 00 00 00 00 00 00 00 00 00 00
       0.0 0.0 0.0 0.0
0001b0 00 00 00 00 00 00 00 00 00 00 00 00 00 00 00 00
       0.0 0.0 0.0 0.0
0001c0 00 00 00 00 00 00 00 00 00 00 00 00 00 00 00 00
       0.0 0.0 0.0 0.0
0001d0 00 00 00 00 00 00 00 00 00 00 00 00 00 00 00 00
       0.0 0.0 0.0 0.0
0001e0 00 00 00 00 00 00 00 00 00 00 00 00 00 00 00 00
       0.0 0.0 0.0 0.0
0001f0 00 00 00 00 00 00 00 00 00 00 00 00 00 00 00 00
       0.0 0.0 0.0 0.0
000200 00 00 00 00 00 00 00 00 00 00 00 00 00 00 00 00
       0.0 0.0 0.0 0.0
000210 00 00 00 00 00 00 00 00 00 00 00 00 00 00 00 00
       0.0 0.0 0.0 0.0
000220 00 00 00 00 00 00 00 00 00 00 00 00 00 00 00 00
       0.0 0.0 0.0 0.0
000230 00 00 00 00 00 00 00 00 00 00 00 00 00 00 00 00
       0.0 0.0 0.0 0.0
000240 00 00 00 00 00 00 00 00 00 00 00 00 00 00 00 00
       0.0 0.0 0.0 0.0
000250 00 00 00 00 00 00 00 00 00 00 00 00 00 00 00 00
       0.0 0.0 0.0 0.0
000260 00 00 00 00 00 00 00 00 00 00 00 00 00 00 00 00
       0.0 0.0 0.0 0.0
000270 00 00 00 00 00 00 00 00 00 00 00 00 00 00 00 00
       0.0 0.0 0.0 0.0
000280 00 00 00 00 00 00 00 00 00 00 00 00 00 00 00 00
       0.0 0.0 0.0 0.0
000290 00 00 00 00 00 00 00 00 00 00 00 00 00 00 00 00
       0.0 0.0 0.0 0.0
0002a0 00 00 00 00 00 00 00 00 00 00 00 00 00 00 00 00
       0.0 0.0 0.0 0.0
0002b0 00 00 00 00 00 00 00 00 00 00 00 00 00 00 00 00
       0.0 0.0 0.0 0.0
0002c0 00 00 00 00 00 00 00 00 00 00 00 00 00 00 00 00
       0.0 0.0 0.0 0.0
0002d0 00 00 00 00 00 00 00 00 00 00 00 00 00 00 00 00
       0.0 0.0 0.0 0.0
0002e0 00 00 00 00 00 00 00 00 00 00 00 00 00 00 00 00
       0.0 0.0 0.0 0.0
0002f0 00 00 00 00 00 00 00 00 00 00 00 00 00 00 00 00
       0.0 0.0 0.0 0.0
000300 00 00 00 00 00 00 00 00 00 00 00 00 00 00 00 00
       0.0 0.0 0.0 0.0
000310 00 00 00 00 00 00 00 00 00 00 00 00 00 00 00 00
       0.0 0.0 0.0 0.0
000320 00 00 00 00 00 00 00 00 00 00 00 00 00 00 00 00
       0.0 0.0 0.0 0.0
000330 00 00 00 00 00 00 00 00 00 00 00 00 00 00 00 00
       0.0 0.0 0.0 0.0
000340 00 00 00 00 00 00 00 00 00 00 00 00 00 00 00 00
       0.0 0.0 0.0 0.0
000350 00 00 00 00 00 00 00 00 00 00 00 00 00 00 00 00
       0.0 0.0 0.0 0.0
000360 00 00 00 00 00 00 00 00 00 00 00 00 00 00 00 00
       0.0 0.0 0.0 0.0
000370 00 00 00 00 00 00 00 00 00 00 00 00 00 00 00 00
       0.0 0.0 0.0 0.0
000380 00 00 00 00 00 00 00 00 00 00 00 00 00 00 00 00
       0.0 0.0 0.0 0.0
000390 00 00 00 00 00 00 00 00 00 00 00 00 00 00 00 00
       0.0 0.0 0.0 0.0
0003a0 00 00 00 00 00 00 00 00 00 00 00 00 00 00 00 00
       0.0 0.0 0.0 0.0
0003b0 00 00 00 00 00 00 00 00 00 00 00 00 00 00 00 00
       0.0 0.0 0.0 0.0
0003c0 00 00 00 00 00 00 00 00 00 00 00 00 00 00 00 00
       0.0 0.0 0.0 0.0
0003d0 00 00 00 00 00 00 00 00 00 00 00 00 00 00 00 00
       0.0 0.0 0.0 0.0
0003e0 00 00 00 00 00 00 00 00 00 00 00 00 00 00 00 00
       0.0 0.0 0.0 0.0
0003f0 00 00 00 00 00 00 00 00 00 00 00 00 00 00 00 00
       0.0 0.0 0.0 0.0

network_body._body_endoder.seq_layers.4.weight f4 [256, 256]
000000 44 0c 97 3c d8 76 de bd 67 b2 eb 3b 7a 72 14 3c
       0.018438466 -0.108625114 0.007192898 0.009060496
000010 ed 53 f3 3c 30 12 23 3e a0 12 cb 3c b9 24 a5 3d
       0.029703105 0.15924907 0.024789155 0.08063645
000020 90 a6 ab bc 07 f8 a3 bc 11 29 8f 3d b9 8b 0e bc
       -0.020953447 -0.02001573 0.06990255 -0.008700305
000030 39 64 df bb 75 7b ae 3d d0 cd bc 3d 2a be c5 bd
       -0.0068173674 0.08519641 0.09218943 -0.096554115
000040 44 48 98 3a 74 e2 f3 3c cb fb 4e bd 8c 40 8b 3a
       0.0011618217 0.029771067 -0.050533097 0.0010624095
000050 eb 5f 68 bb cd 6f 77 bd d7 bc 88 3d 26 c7 84 bd
       -0.0035457562 -0.060409356 0.06676643 -0.06483297
000060 ce 95 cd bd 1c df 5d 3a 46 de 3a 3d ab 78 65 bd
       -0.100383386 0.0008463727 0.045622133 -0.05602328
000070 f7 6c ef 3b a6 3a d6 3c 72 9d 16 3d 28 85 56 3d
       0.007306691 0.026151013 0.036771245 0.05237308
000080 95 64 0e 3b 9e ca 94 3d 8c f6 d2 3c 33 fd 7e bd
       0.0021727432 0.07265209 0.025752328 -0.06225319
000090 57 d7 b6 bd 80 23 02 be 64 91 29 3d cb 8b dc bb
       -0.089277916 -0.12708855 0.04139842 -0.006730532
0000a0 46 78 b8 3c e6 84 5e 3d 51 bc af 3b 20 0d 6f 3d
       0.022518288 0.05432596 0.0053630252 0.058362126
0000b0 17 bd 52 3d 2c 4a 6b bc 3f c6 0f be 8c 99 6e 3d
       0.05144986 -0.014360946 -0.14040469 0.058251902
0000c0 c0 76 8f 3c 16 b5 b3 3d 54 c0 c9 bc ff f5 fc bc
       0.01751268 0.08774774 -0.024627842 -0.030879019
0000d0 58 e9 cf bd 13 b9 e3 3c ca c7 df bc 3a 5d b3 3d
       -0.10151929 0.027798211 -0.027316947 0.08758016
0000e0 7e b2 d9 bd 24 84 45 39 45 a7 4b bd 06 ff eb 3d
       -0.10629748 0.0001883661 -0.049720068 0.11523251
0000f0 d0 fe f6 3d fd 02 4f b9 96 10 f4 bc 44 7b 3a 3d
       0.120603204 -0.00019742172 -0.029793065 0.04552771
000100 3c d1 4c bd ee 98 c9 bc c9 40 f0 3c 56 85 6f bd
       -0.05000423 -0.024609055 0.029327767 -0.05847677
000110 ae 71 cb bc b0 45 5e 3d 27 cb d6 bd f0 31 5e bd
       -0.02483448 0.054265678 -0.10487967 -0.054246843
000120 1f 8b 07 3e c8 c1 d8 ba e9 10 89 bd c3 46 f7 bc
       0.13236664 -0.0016537244 -0.066926785 -0.030185109
000130 6e 1f 9d bc 37 a1 b2 3d 29 4f e6 bb 1b f5 34 bd
       -0.019180026 0.087221555 -0.0070284796 -0.044179063
000140 56 24 f7 3c 9e d6 5d 3d 84 6d dc 3c 94 b8 6c bd
       0.030168694 0.054159753 0.02690769 -0.057793215
000150 ea e6 15 3c eb ab 94 3d 4a e9 36 3d 06 1f c3 bd
       0.0091492925 0.07259353 0.044656076 -0.095274016
000160 8d 17 09 bd f7 f7 a4 3c 1f 41 99 3c ca c5 02 be
       -0.033469725 0.02013777 0.01870781 -0.12770763
000170 2b 5e 40 3d 68 90 b6 3c dc 0f 67 3d 8e 6e f7 3b
       0.046964806 0.022285655 0.05641161 0.007551021
000180 63 36 d6 bd 59 67 45 3d 6c 56 9a 3c 30 24 0e 3d
       -0.10459592 0.048194263 0.018840037 0.03470248
000190 6a 17 2a 3d 4a 05 39 3d f8 ef 95 3d 5c 80 3e bd
       0.041526236 0.04517106 0.07321161 -0.04650913
0001a0 c6 8b ba 3c 1f ee 92 3d 5c 43 0c bd da d3 bf bd
       0.022771727 0.07174324 -0.034243926 -0.09366579
0001b0 2a 2d 85 bd a2 fb f1 bd fc 41 da 3c 86 ea 83 3d
       -0.06502755 -0.11815573 0.026642792 0.06441216
0001c0 f4 e1 6a bd a0 6f fc bc 99 eb 57 bc 1b 50 b5 bc
       -0.057344392 -0.030814946 -0.013178729 -0.022132924
0001d0 31 cc 45 bd 13 60 ce 3d c3 64 bc bd 2a 00 05 be
       -0.048290435 0.100769185 -0.09198906 -0.12988344
0001e0 d3 fb 0c bd 59 eb 04 bd b3 da 33 3b 8d fd 80 bd
       -0.034419846 -0.032451008 0.0027443587 -0.06298361
0001f0 3c 78 c9 bb 23 ed 29 3d 23 bf 62 3d e5 ee 2a 3a
       -0.0061483663 0.041485917 0.055358063 0.00065205834
000200 5b 51 4f bd 03 38 1e 3c bd 77 a0 3d f5 e9 1b bd
       -0.050614696 0.009656909 0.07835338 -0.038064916
000210 ce e1 c9 3c cf 3e 7e 3d 17 52 f4 3c 96 39 65 bd
       0.024643805 0.062071618 0.0298243 -0.05596312
000220 bc a8 a9 3d 0f fe d1 3c 8a 9c 89 3d 4b f7 17 be
       0.08284137 0.02563384 0.067193106 -0.14840429
000230 9d 22 28 3d 27 20 2e 3c 46 dd 2d bc 98 92 cf 3c
       0.041048635 0.010627783 -0.010611838 0.025338456
000240 f3 4f cd bd 9e 35 92 3d 72 8f a4 bb 5a c8 62 3d
       -0.10025015 0.07139133 -0.005021983 0.05536685
000250 84 09 9b 3d 07 bd 0c 3d 2e d2 4e bd 56 3f 5a bd
       0.07570174 0.034359958 -0.05049341 -0.053283058
000260 fa ea a8 bd 72 02 6e 3d c6 93 97 bd b8 59 ad 3b
       -0.08247943 0.0581078 -0.074012324 0.0052902363
000270 ac 60 98 bd f2 3d 1b bd 70 05 39 3d 3b 56 be 3d
       -0.07440314 -0.037900873 0.0451712 0.09293791
000280 b2 cf 4b 3d 13 7c b2 3c 47 e1 5f 3c c0 71 38 3d
       0.04975862 0.021787679 0.01366455 0.045030355
000290 f5 f2 ad bd 1e 12 36 3d c4 9d 54 3d 48 80 9f 3c
       -0.08493606 0.04445087 0.05190827 0.019470349
0002a0 5d da cb bd cc c1 8b bd 01 ba 95 3b ae a3 19 bd
       -0.09953759 -0.06824073 0.0045692925 -0.037509613
0002b0 36 a4 a8 bd f5 e9 3b 3c bd 7a 7b 3b f6 29 7b 3d
       -0.08234446 0.011469354 0.0038372718 0.061319314
0002c0 28 53 2e bb e3 09 e8 bd 75 76 c2 bc 8a 4e 33 3d
       -0.0026599858 -0.11330011 -0.023738125 0.043776073
0002d0 6e 76 32 be 8e 8b bb bc 4e de 45 3d d2 2b dd 3c
       -0.1742799 -0.022893693 0.04830771 0.026998434
0002e0 33 03 55 3b 6d c5 d3 3d 63 a4 06 bd b0 3d 6e 3d
       0.0032503128 0.1034039 -0.032871615 0.0581643
0002f0 e8 7b 14 be fd 87 b3 3a 04 2d 60 3d 46 3b b3 3d
       -0.14500391 0.0013697144 0.05473043 0.0875154
000300 42 df da bc 84 a0 10 bc 49 45 36 bd e3 fa d6 bb
       -0.026717786 -0.008827332 -0.04449967 -0.0065606697
000310 84 16 8b bd 3f 9f 33 3d 96 24 bc 3c 9d ad 87 bd
       -0.06791404 0.04385304 0.022966664 -0.06624911
000320 5d 34 55 bd cc 8c 67 bd cb a4 af 3d 19 49 31 bc
       -0.05205189 -0.05653076 0.08576354 -0.0108206505
000330 f5 50 ec 3c 03 11 ca 3d f4 de 86 bd 31 2c 69 38
       0.028847197 0.09866526 -0.06585494 5.5592685e-05
000340 77 e0 0f bd 7a 09 90 3d c0 75 da 3c 3a b9 62 3c
       -0.035126176 0.070330575 0.026667476 0.013838107
000350 f9 89 6b 3c 3a 2e bf 3c 5e e3 bd 3c 1d 05 26 bc
       0.014376157 0.023337472 0.023179706 -0.010133055
000360 ed 7e 31 bd 4e 72 ab 3d 8b 44 e3 bc 8b 03 8d 3c
       -0.043333936 0.08371411 -0.027742645 0.017213603
000370 8b c2 de bd 96 59 7c 3d 44 98 3b 3b f1 b1 2a bd
       -0.1087695 0.061608873 0.0028624693 -0.041673604
000380 40 80 5e bd f2 eb ae bd 40 9d 91 3d 69 40 c5 3d
       -0.054321527 -0.08541097 0.07110071 0.09631426
000390 6f 2f 47 3d f8 2c 76 bd bb 62 76 3d c5 0f f7 bd
       0.04862922 -0.06010148 0.06015275 -0.12063555
0003a0 0f a1 c9 bc 21 cd fa 3c 33 c5 f1 3c 5c 0f 71 bd
       -0.024612932 0.030615391 0.029512977 -0.05885254
0003b0 48 d6 c1 3c 15 b3 9f 3a 4e 2a 1d 3d e7 bd 00 3d
       0.023661748 0.0012184108 0.038370423 0.031431105
0003c0 fa 3c 73 bd 16 5f 6e 3d 36 5d 39 bc 0b df 9c 3c
       -0.059384324 0.05819615 -0.011313727 0.019149324
0003d0 1b d2 fb bc 40 76 e9 bc e3 f2 2f bd 07 f0 d6 3d
       -0.030739835 -0.028498769 -0.042956244 0.10495
0003e0 c6 3d 54 bc 88 cf a8 3c 03 a5 72 bd 59 34 db 3c
       -0.012954181 0.020606771 -0.0592394 0.02675836
0003f0 c5 e5 dc 3c 3e 31 21 bc e8 63 d6 3a 6e 03 fb ba
       0.026965031 -0.0098384 0.0016356679 -0.0019150802

network_body._body_endoder.seq_layers.4.bias f4 [256]
000000 00 00 00 00 00 00 00 00 00 00 00 00 00 00 00 00
       0.0 0.0 0.0 0.0
000010 00 00 00 00 00 00 00 00 00 00 00 00 00 00 00 00
       0.0 0.0 0.0 0.0
000020 00 00 00 00 00 00 00 00 00 00 00 00 00 00 00 00
       0.0 0.0 0.0 0.0
000030 00 00 00 00 00 00 00 00 00 00 00 00 00 00 00 00
       0.0 0.0 0.0 0.0
000040 00 00 00 00 00 00 00 00 00 00 00 00 00 00 00 00
       0.0 0.0 0.0 0.0
000050 00 00 00 00 00 00 00 00 00 00 00 00 00 00 00 00
       0.0 0.0 0.0 0.0
000060 00 00 00 00 00 00 00 00 00 00 00 00 00 00 00 00
       0.0 0.0 0.0 0.0
000070 00 00 00 00 00 00 00 00 00 00 00 00 00 00 00 00
       0.0 0.0 0.0 0.0
000080 00 00 00 00 00 00 00 00 00 00 00 00 00 00 00 00
       0.0 0.0 0.0 0.0
000090 00 00 00 00 00 00 00 00 00 00 00 00 00 00 00 00
       0.0 0.0 0.0 0.0
0000a0 00 00 00 00 00 00 00 00 00 00 00 00 00 00 00 00
       0.0 0.0 0.0 0.0
0000b0 00 00 00 00 00 00 00 00 00 00 00 00 00 00 00 00
       0.0 0.0 0.0 0.0
0000c0 00 00 00 00 00 00 00 00 00 00 00 00 00 00 00 00
       0.0 0.0 0.0 0.0
0000d0 00 00 00 00 00 00 00 00 00 00 00 00 00 00 00 00
       0.0 0.0 0.0 0.0
0000e0 00 00 00 00 00 00 00 00 00 00 00 00 00 00 00 00
       0.0 0.0 0.0 0.0
0000f0 00 00 00 00 00 00 00 00 00 00 00 00 00 00 00 00
       0.0 0.0 0.0 0.0
000100 00 00 00 00 00 00 00 00 00 00 00 00 00 00 00 00
       0.0 0.0 0.0 0.0
000110 00 00 00 00 00 00 00 00 00 00 00 00 00 00 00 00
       0.0 0.0 0.0 0.0
000120 00 00 00 00 00 00 00 00 00 00 00 00 00 00 00 00
       0.0 0.0 0.0 0.0
000130 00 00 00 00 00 00 00 00 00 00 00 00 00 00 00 00
       0.0 0.0 0.0 0.0
000140 00 00 00 00 00 00 00 00 00 00 00 00 00 00 00 00
       0.0 0.0 0.0 0.0
000150 00 00 00 00 00 00 00 00 00 00 00 00 00 00 00 00
       0.0 0.0 0.0 0.0
000160 00 00 00 00 00 00 00 00 00 00 00 00 00 00 00 00
       0.0 0.0 0.0 0.0
000170 00 00 00 00 00 00 00 00 00 00 00 00 00 00 00 00
       0.0 0.0 0.0 0.0
000180 00 00 00 00 00 00 00 00 00 00 00 00 00 00 00 00
       0.0 0.0 0.0 0.0
000190 00 00 00 00 00 00 00 00 00 00 00 00 00 00 00 00
       0.0 0.0 0.0 0.0
0001a0 00 00 00 00 00 00 00 00 00 00 00 00 00 00 00 00
       0.0 0.0 0.0 0.0
0001b0 00 00 00 00 00 00 00 00 00 00 00 00 00 00 00 00
       0.0 0.0 0.0 0.0
0001c0 00 00 00 00 00 00 00 00 00 00 00 00 00 00 00 00
       0.0 0.0 0.0 0.0
0001d0 00 00 00 00 00 00 00 00 00 00 00 00 00 00 00 00
       0.0 0.0 0.0 0.0
0001e0 00 00 00 00 00 00 00 00 00 00 00 00 00 00 00 00
       0.0 0.0 0.0 0.0
0001f0 00 00 00 00 00 00 00 00 00 00 00 00 00 00 00 00
       0.0 0.0 0.0 0.0
000200 00 00 00 00 00 00 00 00 00 00 00 00 00 00 00 00
       0.0 0.0 0.0 0.0
000210 00 00 00 00 00 00 00 00 00 00 00 00 00 00 00 00
       0.0 0.0 0.0 0.0
000220 00 00 00 00 00 00 00 00 00 00 00 00 00 00 00 00
       0.0 0.0 0.0 0.0
000230 00 00 00 00 00 00 00 00 00 00 00 00 00 00 00 00
       0.0 0.0 0.0 0.0
000240 00 00 00 00 00 00 00 00 00 00 00 00 00 00 00 00
       0.0 0.0 0.0 0.0
000250 00 00 00 00 00 00 00 00 00 00 00 00 00 00 00 00
       0.0 0.0 0.0 0.0
000260 00 00 00 00 00 00 00 00 00 00 00 00 00 00 00 00
       0.0 0.0 0.0 0.0
000270 00 00 00 00 00 00 00 00 00 00 00 00 00 00 00 00
       0.0 0.0 0.0 0.0
000280 00 00 00 00 00 00 00 00 00 00 00 00 00 00 00 00
       0.0 0.0 0.0 0.0
000290 00 00 00 00 00 00 00 00 00 00 00 00 00 00 00 00
       0.0 0.0 0.0 0.0
0002a0 00 00 00 00 00 00 00 00 00 00 00 00 00 00 00 00
       0.0 0.0 0.0 0.0
0002b0 00 00 00 00 00 00 00 00 00 00 00 00 00 00 00 00
       0.0 0.0 0.0 0.0
0002c0 00 00 00 00 00 00 00 00 00 00 00 00 00 00 00 00
       0.0 0.0 0.0 0.0
0002d0 00 00 00 00 00 00 00 00 00 00 00 00 00 00 00 00
       0.0 0.0 0.0 0.0
0002e0 00 00 00 00 00 00 00 00 00 00 00 00 00 00 00 00
       0.0 0.0 0.0 0.0
0002f0 00 00 00 00 00 00 00 00 00 00 00 00 00 00 00 00
       0.0 0.0 0.0 0.0
000300 00 00 00 00 00 00 00 00 00 00 00 00 00 00 00 00
       0.0 0.0 0.0 0.0
000310 00 00 00 00 00 00 00 00 00 00 00 00 00 00 00 00
       0.0 0.0 0.0 0.0
000320 00 00 00 00 00 00 00 00 00 00 00 00 00 00 00 00
       0.0 0.0 0.0 0.0
000330 00 00 00 00 00 00 00 00 00 00 00 00 00 00 00 00
       0.0 0.0 0.0 0.0
000340 00 00 00 00 00 00 00 00 00 00 00 00 00 00 00 00
       0.0 0.0 0.0 0.0
000350 00 00 00 00 00 00 00 00 00 00 00 00 00 00 00 00
       0.0 0.0 0.0 0.0
000360 00 00 00 00 00 00 00 00 00 00 00 00 00 00 00 00
       0.0 0.0 0.0 0.0
000370 00 00 00 00 00 00 00 00 00 00 00 00 00 00 00 00
       0.0 0.0 0.0 0.0
000380 00 00 00 00 00 00 00 00 00 00 00 00 00 00 00 00
       0.0 0.0 0.0 0.0
000390 00 00 00 00 00 00 00 00 00 00 00 00 00 00 00 00
       0.0 0.0 0.0 0.0
0003a0 00 00 00 00 00 00 00 00 00 00 00 00 00 00 00 00
       0.0 0.0 0.0 0.0
0003b0 00 00 00 00 00 00 00 00 00 00 00 00 00 00 00 00
       0.0 0.0 0.0 0.0
0003c0 00 00 00 00 00 00 00 00 00 00 00 00 00 00 00 00
       0.0 0.0 0.0 0.0
0003d0 00 00 00 00 00 00 00 00 00 00 00 00 00 00 00 00
       0.0 0.0 0.0 0.0
0003e0 00 00 00 00 00 00 00 00 00 00 00 00 00 00 00 00
       0.0 0.0 0.0 0.0
0003f0 00 00 00 00 00 00 00 00 00 00 00 00 00 00 00 00
       0.0 0.0 0.0 0.0

action_model._discrete_distribution.branches.0.weight f4 [2, 256]
000000 9a 04 a1 3a 53 0a 10 3b 3a f4 8f 3b bb 64 45 3c
       0.0012284697 0.002197881 0.0043931277 0.012047942
000010 4a 48 ac bb 92 12 1b bb ce 36 b1 b9 02 7e 72 bb
       -0.005257641 -0.0023662192 -0.00033800903 -0.0037001376
000020 ae a1 b7 3b f7 ae d5 3a 96 24 1e bc 60 2a 1a 3c
       0.0056039905 0.0016302754 -0.009652277 0.009409517
000030 87 e9 b6 bb 70 d1 65 3b ef 05 fc 39 57 30 c4 bb
       -0.005582038 0.0035067461 0.00048069606 -0.005987208
000040 d1 5e c3 bb 2d ac f1 38 40 90 4d 3c 0e d0 08 b9
       -0.0059622307 0.00011523846 0.012546599 -0.00013047477
000050 4d 98 18 bb 08 ba 95 3c 82 3f df 38 bf 62 83 b8
       -0.0023284138 0.018277183 0.00010645298 -6.26496e-05
000060 55 31 cb 3a 1e 87 1f bb 4b 1f 2f bb db ac 02 bc
       0.0015502373 -0.002434201 -0.0026721533 -0.007975782
000070 2f 2e 0f bb 5e b8 cc 3b 88 35 ed 39 4b 1c 8b 3a
       -0.0021847596 0.006247564 0.00045244046 0.001061329
000080 f1 ad 0c 3a 54 c0 28 3c cb 43 dd bb 93 1b d0 3a
       0.00053664955 0.010299761 -0.0067524663 0.0015877358
000090 57 18 83 bc 82 ef a8 ba 10 65 3a 3b 64 89 90 ba
       -0.016002817 -0.0012888762 0.0028441586 -0.0011027274
0000a0 08 2e b1 3a b8 e7 10 bb 1e c1 c1 ba 97 76 6d ba
       0.0013517747 -0.0022110771 -0.0014782285 -0.0009058504
0000b0 18 66 76 bb 13 c6 c0 3a bb c9 e1 ba 33 fb e2 bb
       -0.0037597474 0.0014707468 -0.0017226258 -0.006926918
0000c0 44 89 86 bb 00 9f 6e 38 53 10 99 b8 23 d6 e4 3b
       -0.004105719 5.6891702e-05 -7.298649e-05 0.006983535
0000d0 d0 01 01 3b a3 3a 58 3c 83 de 3e bc a4 9a 38 bc
       0.0019684918 0.013197574 -0.011649731 -0.011267338
0000e0 a8 28 dd 3b ed 2f bd 3b 47 5b 3b bc b6 82 22 3a
       0.0067492314 0.0057735355 -0.011435336 0.0006199287
0000f0 c8 34 5f bb ff 2a cc bb cf 66 f1 3a bf df b5 3a
       -0.003405856 -0.0062307115 0.001841748 0.0013875886
000100 28 95 3a 3b 2a dc f6 3b 2f 1a 03 bb 43 dc f4 bb
       0.0028470252 0.00753357 -0.002000462 -0.0074725463
000110 cb 36 37 ba bf 0a b1 3a 3b f7 29 3c ec 70 8a ba
       -0.0006989061 0.0013507231 0.010373886 -0.0010562218
000120 23 26 51 bb 18 ef f7 ba 06 71 94 bb 57 82 c1 3b
       -0.00319136 -0.001891586 -0.004530075 0.0059054303
000130 da 20 6e 3b 3b 70 aa bb 65 61 d5 ba 87 ed 95 39
       0.00363355 -0.005201367 -0.0016279636 0.00028596466
000140 6b 2b f8 3b ef 81 74 bb 82 60 5d 3c f3 06 2d 3c
       0.007573535 -0.0037308892 0.013511779 0.010560739
000150 db e2 01 bc 2c cb 3a 3b 5a b0 05 bc 65 a7 13 bb
       -0.007927622 0.0028502448 -0.008159721 -0.0022530195
000160 38 6b 11 3b 57 41 30 3c 1b d0 77 3b f3 2e d1 3b
       0.0022189151 0.010757766 0.003781325 0.0063837706
000170 67 a9 b5 ba 4f c6 18 3b b6 c1 88 ba e5 0b 22 bc
       -0.001385969 0.002331156 -0.0010433707 -0.009890531
000180 b1 19 29 3b 2b 2d 5d bb a5 56 16 bb 69 ec 23 ba
       0.0025802667 -0.0033748846 -0.0022939828 -0.00062531844
000190 b3 51 17 3c b4 88 14 3b f2 3f 1e 3b 92 a0 69 bb
       0.009235787 0.002266449 0.0024147 -0.0035648686
0001a0 02 0b e7 bb 4f d4 ed bb 60 22 40 38 a1 8c b8 3b
       -0.007050873 -0.007257975 4.580838e-05 0.0056319986
0001b0 f0 09 8d b8 70 f3 91 3b 1c 58 ac bb a0 4d ec 3a
       -6.725255e-05 0.004454069 -0.005259527 0.0018028505
0001c0 fb ac 3c ba 85 a5 11 bc 28 c7 d8 ba 03 38 18 3c
       -0.0007197407 -0.008889561 -0.0016538845 0.009290698
0001d0 43 45 16 3c b7 0b b7 bb 27 fb 08 3b 83 fa b2 bb
       0.009171787 -0.0055861133 0.0020901652 -0.005461992
0001e0 07 33 2d bb 98 e3 03 3c 07 23 01 3c 4f ec b0 3a
       -0.002642812 0.008049868 0.007881886 0.001349816
0001f0 82 a9 8f bb 3c 88 07 3c 53 9e 37 3b 60 0c 62 3c
       -0.0043842206 0.008272227 0.0028017953 0.013796896
000200 a9 94 0d 3b c6 72 18 bc a7 7e 3d bc 0f 03 82 3b
       0.00216035 -0.009304708 -0.011565841 0.00396765
000210 f1 65 83 3b 54 59 89 3a bf 5b 81 bb e7 a0 0b 3c
       0.004009955 0.0010478892 -0.0039477046 0.008522249
000220 3b a9 ca bb a5 4a d2 bb fb f8 46 bc 5f 05 06 ba
       -0.0061847246 -0.0064175897 -0.0121443225 -0.00051124947
000230 a1 fe af 3b 91 c0 13 3c 67 fd 58 3b 3d 8d 28 3b
       0.0053709303 0.009018079 0.0033110024 0.002571895
000240 29 70 98 bb 05 f4 f2 ba 6e b0 80 3b f2 5a 64 ba
       -0.0046520424 -0.0018535858 0.003927282 -0.00087110617
000250 24 5b 4c 3b a5 0d e5 3b 8b 00 1a bb 27 76 04 bc
       0.0031182254 0.006990152 -0.0023498859 -0.00808481
000260 9c 5e 31 3b dd 16 cd 3b f0 b6 4a 3c e5 e9 fc bb
       0.0027064448 0.006258829 0.012372717 -0.007718312
000270 e3 37 94 bb de 3d 19 bb 23 b7 56 bb 2a 64 d2 3b
       -0.004523264 -0.0023382823 -0.0032762967 0.006420632
000280 6e d7 47 3b af 16 24 3b cd 02 66 bb 4b 2b c4 b9
       0.0030493396 0.0025037935 -0.0035096884 -0.0003741629
000290 4a 51 29 ba 89 b0 04 bc 7f b8 2a bb a7 5c 85 bc
       -0.00064589514 -0.00809873 -0.002604991 -0.016279532
0002a0 ff a0 a9 bb c2 05 6e bb e8 ff 97 3b 44 c4 c2 3b
       -0.005176663 -0.003631935 0.0046386607 0.005943807
0002b0 fe d9 90 3b 63 91 83 3b 37 ce ba 3c ce d2 48 3b
       0.004420518 0.004015134 0.022803409 0.0030643228
0002c0 42 13 3f bc 83 7a 2d bc ab 3f d2 bb 9f 0c c5 3b
       -0.011662306 -0.010588291 -0.006416281 0.0060134674
0002d0 cb 38 02 bc f4 88 1f 38 bc f6 1c bc 77 64 02 3c
       -0.007948111 3.80361e-05 -0.00958031 0.007958523
0002e0 db b9 cb b7 b8 b9 2f ba e5 7e c6 3b e8 51 6c 3b
       -2.4286031e-05 -0.00067033945 0.0060576075 0.0036059562
0002f0 03 0e 22 bb ab d0 06 bc ca 37 83 bc 45 5f 84 3b
       -0.002472759 -0.008228461 -0.016017813 0.0040396773
000300 d0 17 52 3c ca 1c 2a 3b 67 52 82 bb a7 3e 03 ba
       0.01282306 0.00259571 -0.0039771083 -0.00050065893
000310 da 83 69 3b a3 a1 55 3b 38 01 88 3b 6f b4 82 ba
       0.0035631568 0.0032597564 0.004150536 -0.0009971986
000320 bd c5 0a bc 6a e9 f8 ba c3 4f 09 3c a5 a0 57 bb
       -0.008469996 -0.0018990461 0.008380833 -0.0032902148
000330 d8 8b 55 3c 78 8a bc 39 10 48 94 3a 12 89 97 b9
       0.01303383 0.00035961322 0.001131298 -0.0002890309
000340 f1 90 1e bc 69 5d 87 bb 5e e1 84 3b 48 d0 96 bb
       -0.009678111 -0.0041310084 0.004055186 -0.004602466
000350 1f 59 68 3b a8 1c 29 bc c5 16 a5 3b 8d 12 39 bc
       0.003545351 -0.010321774 0.0050381147 -0.011295927
000360 5d 19 85 bb 57 f8 53 3a a7 d9 ad b9 00 6c 17 bc
       -0.0040618614 0.0008086017 -0.00033159295 -0.009242058
000370 4d b2 e4 bb fd bd 39 3c af 35 13 bc 55 ce 4d 3c
       -0.006979263 0.011336801 -0.008984967 0.0125614
000380 10 e4 16 3c 2f 87 e7 bb 0b 8b fd 3b 25 fb d5 bb
       0.009209648 -0.0070656757 0.0077375225 -0.006530183
000390 c0 ed b1 3b c2 9c 61 bb db e5 e3 3b 72 88 9a 3b
       0.0054299533 -0.003442571 0.006954891 0.0047159726
0003a0 57 82 76 bc 53 3e bb bb 58 6f 8b 38 a5 de fe 3b
       -0.015045724 -0.0057142167 6.648776e-05 0.007778006
0003b0 2c 88 bd bb 90 cf b2 bb 51 58 a2 bb 98 21 ea 38
       -0.005784055 -0.0054568723 -0.004954376 0.00011164247
0003c0 58 09 32 3c aa 94 df 3a 13 f3 2a bc 59 05 c7 3a
       0.010866486 0.0017057855 -0.01043393 0.0015184089
0003d0 bd 9a 2c 3c b3 b4 3d bc 68 9e 75 bc cd 51 84 3a
       0.010534939 -0.011578727 -0.01499138 0.0010095179
0003e0 d9 6f c1 bb e7 08 96 bb 35 ee 8c 3b 5c b0 b7 3b
       -0.005903226 -0.004578698 0.0043008574 0.0056057405
0003f0 cf 26 e6 3b a2 b0 e9 3b f8 12 43 3b 86 ed be ba
       0.0070236693 0.007131652 0.0029765945 -0.0014566637

action_model._discrete_distribution.branches.0.bias f4 [2]
000000 00 00 00 00 00 00 00 00
       0.0 0.0

54 f4 [2]
000000 05 c6 c3 44 94 1d b3 42
       1566.1881 89.55777
