results/flappyBirdRun_v4/FlappyBirdAgent/FlappyBirdAgent-1336.pt (torch, 148215 bytes, 19 tensors)

network_body.observation_encoder.processors.0.normalizer.running_mean f4 [2]
000000 bb 39 d6 3f 45 17 3d 40
       1.6736368 2.9545453

network_body.observation_encoder.processors.0.normalizer.running_variance f4 [2]
000000 1d 90 5b 45 36 f0 ea 45
       3513.007 7518.0264

network_body.processors.0.normalizer.running_mean f4 [2]
000000 bb 39 d6 3f 45 17 3d 40
       1.6736368 2.9545453

network_body.processors.0.normalizer.running_variance f4 [2]
000000 1d 90 5b 45 36 f0 ea 45
       3513.007 7518.0264

network_body._body_endoder.seq_layers.0.weight f4 [128, 2]
000000 54 b2 f4 3e cb ab 9e 3f 04 0a 31 3e 5f d2 0a bf
       0.47792304 1.2396177 0.17288977 -0.5422725
000010 45 9f 11 3e 14 4a 0a be 24 52 fb be aa 19 ec 3e
       0.14220913 -0.13504821 -0.49086106 0.4611333
000020 fd bd bd 3f 14 1f 07 3f d2 92 8b bf c5 ec b2 be
       1.4823605 0.52781796 -1.0904181 -0.34946266
000030 59 ef 9e 3f 49 be 26 3f 2a be 1b bf 72 b3 20 bf
       1.2416793 0.651341 -0.6083704 -0.6277381
000040 3e 64 f2 be 95 14 d7 3e 14 a5 07 3e f5 05 f9 3d
       -0.47342104 0.4200789 0.13246566 0.12159339
000050 15 41 3d bc bf 57 84 3c 07 36 29 3f 51 4c 42 bf
       -0.011551161 0.016155122 0.66098064 -0.758977
000060 fa 3b 65 3e 3b 17 b2 3f 4c 10 b2 bf b6 43 96 bf
       0.2238616 1.3913339 -1.3911223 -1.1739414
000070 1f 45 a3 bf a2 f4 96 be 89 4e 9b be 19 5c a0 bd
       -1.2755469 -0.29483515 -0.30333355 -0.07830066
000080 35 e6 b1 be c6 14 09 bd ba 84 a0 3e 8e 84 7a bd
       -0.34745947 -0.033467077 0.31351262 -0.06116157
000090 93 a5 1f 3e ec 15 30 be cf 5a 23 3f 70 76 6d 3d
       0.15590505 -0.17195863 0.6381044 0.05797428
0000a0 49 53 fa be d3 be 10 3f 13 4b b7 3f f2 de 1b be
       -0.48891667 0.56541175 1.4319786 -0.15221766
0000b0 b6 8e ab 3d d1 94 96 be b8 03 2c 3d f8 57 f6 be
       0.08376829 -0.29410413 0.041995734 -0.4811399
0000c0 f5 17 82 3e 40 87 a4 3e 55 19 89 3f e0 89 c5 3e
       0.25408903 0.32134438 1.0710856 0.38581753
0000d0 79 d2 e6 be 9a 17 82 bf 0c 3e bf be fc 94 2a 3d
       -0.45082453 -1.0163453 -0.37352026 0.04164599
0000e0 79 db 2f 3d 90 a4 60 bf b1 7a 9a 3f fc 23 28 3e
       0.042933915 -0.877511 1.2068692 0.16419977
0000f0 18 f6 73 3f 7c e3 46 3f 2e 12 58 3f 1f 4f 89 3f
       0.95297384 0.77690864 0.8440274 1.0727271
000100 99 78 41 3f 39 1b 30 bf 7f dd 61 3f b9 4b 41 3f
       0.7557464 -0.6879154 0.882286 0.7550617
000110 73 2e 41 3f 1e 53 75 3e 5e 1a 4a 3c 0f 02 18 3c
       0.754615 0.23957488 0.012335388 0.009277835
000120 c9 3b 69 bf c1 fb fa be 93 e0 cf 3e 5d 17 77 be
       -0.9110685 -0.49020198 0.40601024 -0.24130006
000130 9b 9c 94 3e 49 25 24 3f 88 68 c8 bc 99 c5 85 bf
       0.2902573 0.6411939 -0.024463907 -1.0450927
000140 9b 87 29 3e c4 2d d2 3e a0 83 c9 be 7f e5 03 3f
       0.16555636 0.4105054 -0.39358234 0.5152206
000150 65 3f 2f 3e 15 ce 9c 3f 26 8d 2a bf dc 86 78 be
       0.17114027 1.2250391 -0.66621625 -0.24270195
000160 ea 56 70 3f 3c 51 48 bc 02 fb de 3e b6 42 74 3e
       0.9388262 -0.012226399 0.4355088 0.23853573
000170 ef 48 08 bf 4f 40 8c 3e c5 c7 84 3f e6 0c 0a bf
       -0.5323629 0.27392814 1.0373465 -0.5392593
000180 d1 80 75 bf 50 1e 0f 3f 21 91 0b bf 38 25 eb bd
       -0.95899683 0.5590563 -0.54518324 -0.11481708
000190 a6 ae 72 3c 4d 24 31 bd a4 2f c8 bf 94 6d 21 3f
       0.014812147 -0.04324751 -1.5639539 0.6305783
0001a0 6b a1 21 bf f7 01 8f bf f1 fa 16 3f 9c d7 87 bf
       -0.6313693 -1.1172475 0.58976656 -1.0612674
0001b0 8c 9e 0e 3d 97 1b d1 be 5f 83 16 3f a9 d9 ad be
       0.03481917 -0.40841362 0.58794206 -0.33955124
0001c0 35 3e 17 3f b1 e9 04 3f 15 c9 18 3f d5 b4 28 3e
       0.59079295 0.51919085 0.59681827 0.16475232
0001d0 5a 3f 12 3f 98 48 aa bd 4e 84 bf be 79 25 b1 3e
       0.57127917 -0.083146274 -0.37405628 0.34598902
0001e0 7f b8 12 bf 61 cb b4 3f a5 a2 70 bf 3a 75 85 3f
       -0.5731277 1.4124566 -0.93998176 1.04264
0001f0 86 5c 82 bf ae db 05 be 08 51 3b 3e f2 b4 a0 be
       -1.0184486 -0.13072082 0.1829263 -0.3138805
000200 01 37 ec be 0d 80 4a 3f 6a 1a a6 bf da 59 11 be
       -0.46135715 0.7910164 -1.2976811 -0.14194432
000210 bc a5 53 3c 56 b1 04 3f 92 eb 15 3f 11 11 d4 3e
       0.012917932 0.51833093 0.58562577 0.4141927
000220 dd d9 98 3f 96 6f 1a 3f b8 63 b6 bf ae 18 00 3f
       1.1941487 0.60326517 -1.4249182 0.5003766
000230 95 b6 85 bf da 6d ac be 6a e9 27 bf c9 ac 78 3e
       -1.0446345 -0.3367756 -0.65590537 0.24284662
000240 f6 08 70 3f c0 79 5b 3f 0d 2c 38 3f 69 a4 17 bf
       0.93763673 0.8573265 0.71942216 -0.59235245
000250 4b ad da bf ef 7b 3a 3e 3a 4d 89 3f 41 85 51 3f
       -1.7084135 0.1821134 1.0726693 0.81843954
000260 61 e7 96 3f 53 2a fd bd c1 06 52 bf b6 a3 44 3f
       1.1789361 -0.12361588 -0.82041556 0.76812303
000270 4f a1 7a bf b5 38 5f 3f 17 f5 73 bf 10 32 a1 3e
       -0.9790239 0.87195903 -0.9529585 0.31483507
000280 ae d9 4b 3e c0 31 5a bf fb 7f 25 bf 57 19 45 bf
       0.19907257 -0.8523216 -0.6464841 -0.7699179
000290 e1 8d da bd 18 db 55 3f 0c 5d 6a bf 20 d8 8b 3e
       -0.106715925 0.83537436 -0.9154823 0.27313328
0002a0 6c f4 8d bf b2 2f 8e bf b3 ae 3a be 7e 05 24 bf
       -1.1090217 -1.1108305 -0.18230705 -0.6407088
0002b0 6c e5 72 bf 35 39 67 bf 08 71 57 3f 13 d8 2f 3f
       -0.9488132 -0.90321666 0.84156847 0.6868908
0002c0 40 61 0d bd fd 22 a0 3e a3 20 a4 bf 08 bd 85 3f
       -0.034516573 0.31276694 -1.282246 1.0448313
0002d0 82 08 34 3e 01 5d 92 bd 36 87 f5 bd c0 c0 b2 3f
       0.1758137 -0.07146645 -0.1198868 1.3965073
0002e0 de f9 62 be 4e dc 59 be ac 23 3f 3e b5 49 0d 3e
       -0.2216563 -0.21275446 0.18665951 0.13797648
0002f0 1b 5e 74 3f b3 58 eb 3e c5 12 17 bf ee 36 d1 be
       0.95456094 0.4596611 -0.59013015 -0.4086222
000300 40 a7 e4 3e d9 55 89 3f fe 94 a3 bf 18 11 0b bf
       0.44658852 1.0729324 -1.2779844 -0.5432296
000310 19 57 bb 3c 43 0d 5a bf cf 09 95 bd b1 ec aa 3e
       0.02286868 -0.85176486 -0.072772615 0.33383706
000320 6b f4 85 3e 5f c0 eb be ae 35 4c bf 43 29 d5 3f
       0.2616304 -0.46045205 -0.7976941 1.6653217
000330 ec 13 3c be 2e ba 01 be 10 f5 13 bf 8a 21 a7 3d
       -0.18366975 -0.12668678 -0.5779581 0.08160694
000340 1e 7a 02 be 16 cc 9c be f2 ee f1 be 06 10 16 be
       -0.12741897 -0.30624455 -0.47252613 -0.1465455
000350 4f 4d ad bf 38 5b 8f bf a6 a4 65 be 39 4c b4 3e
       -1.3539218 -1.1199713 -0.2242609 0.35214403
000360 b4 32 3b 3f 0e a6 21 b9 04 94 80 3f 1e 35 03 40
       0.7312424 -0.00015416017 1.0045171 2.050117
000370 f0 25 45 3d a2 86 25 3e c9 67 0d bf fc ce 99 3e
       0.048131883 0.1616464 -0.5523649 0.3004073
000380 af 7a 8f 3e c6 43 7d 3f 07 7e cc bf f6 44 6b be
       0.28023288 0.9893154 -1.597596 -0.22975525
000390 47 07 11 bf 3f 6d 82 3f 99 31 3f 3f a2 27 16 3d
       -0.5665173 1.0189589 0.74685055 0.03665889
0003a0 88 db 40 bf d4 10 64 bf 2f 7b 23 bf cd a2 0f 3f
       -0.7533498 -0.8908818 -0.6385984 0.5610779
0003b0 06 85 6d 3e cd ff 1e 3e d5 32 a5 bd 94 bc 86 3f
       0.23195276 0.15527268 -0.08066336 1.05263
0003c0 a4 4a 14 be 06 c6 a0 bf 69 f5 a5 3e 42 fc 59 be
       -0.14481598 -1.2560432 0.32413796 -0.21287635
0003d0 4e d5 ff bc 15 ed 82 bf 7f 85 91 bf 37 d5 e1 3e
       -0.031229641 -1.0228602 -1.1368865 0.44107983
0003e0 8c 2f 96 3f c0 e5 54 3f 44 d3 e4 be c0 db 26 bf
       1.173326 0.8316307 -0.44692433 -0.6517906
0003f0 47 85 0e bf df b8 a7 3e c3 0d 30 be 99 83 36 3f
       -0.55672115 0.32758233 -0.1719275 0.7129455

network_body._body_endoder.seq_layers.0.bias f4 [128]
000000 00 00 00 00 00 00 00 00 00 00 00 00 00 00 00 00
       0.0 0.0 0.0 0.0
000010 00 00 00 00 00 00 00 00 00 00 00 00 00 00 00 00
       0.0 0.0 0.0 0.0
000020 00 00 00 00 00 00 00 00 00 00 00 00 00 00 00 00
       0.0 0.0 0.0 0.0
000030 00 00 00 00 00 00 00 00 00 00 00 00 00 00 00 00
       0.0 0.0 0.0 0.0
000040 00 00 00 00 00 00 00 00 00 00 00 00 00 00 00 00
       0.0 0.0 0.0 0.0
000050 00 00 00 00 00 00 00 00 00 00 00 00 00 00 00 00
       0.0 0.0 0.0 0.0
000060 00 00 00 00 00 00 00 00 00 00 00 00 00 00 00 00
       0.0 0.0 0.0 0.0
000070 00 00 00 00 00 00 00 00 00 00 00 00 00 00 00 00
       0.0 0.0 0.0 0.0
000080 00 00 00 00 00 00 00 00 00 00 00 00 00 00 00 00
       0.0 0.0 0.0 0.0
000090 00 00 00 00 00 00 00 00 00 00 00 00 00 00 00 00
       0.0 0.0 0.0 0.0
0000a0 00 00 00 00 00 00 00 00 00 00 00 00 00 00 00 00
       0.0 0.0 0.0 0.0
0000b0 00 00 00 00 00 00 00 00 00 00 00 00 00 00 00 00
       0.0 0.0 0.0 0.0
0000c0 00 00 00 00 00 00 00 00 00 00 00 00 00 00 00 00
       0.0 0.0 0.0 0.0
0000d0 00 00 00 00 00 00 00 00 00 00 00 00 00 00 00 00
       0.0 0.0 0.0 0.0
0000e0 00 00 00 00 00 00 00 00 00 00 00 00 00 00 00 00
       0.0 0.0 0.0 0.0
0000f0 00 00 00 00 00 00 00 00 00 00 00 00 00 00 00 00
       0.0 0.0 0.0 0.0
000100 00 00 00 00 00 00 00 00 00 00 00 00 00 00 00 00
       0.0 0.0 0.0 0.0
000110 00 00 00 00 00 00 00 00 00 00 00 00 00 00 00 00
       0.0 0.0 0.0 0.0
000120 00 00 00 00 00 00 00 00 00 00 00 00 00 00 00 00
       0.0 0.0 0.0 0.0
000130 00 00 00 00 00 00 00 00 00 00 00 00 00 00 00 00
       0.0 0.0 0.0 0.0
000140 00 00 00 00 00 00 00 00 00 00 00 00 00 00 00 00
       0.0 0.0 0.0 0.0
000150 00 00 00 00 00 00 00 00 00 00 00 00 00 00 00 00
       0.0 0.0 0.0 0.0
000160 00 00 00 00 00 00 00 00 00 00 00 00 00 00 00 00
       0.0 0.0 0.0 0.0
000170 00 00 00 00 00 00 00 00 00 00 00 00 00 00 00 00
       0.0 0.0 0.0 0.0
000180 00 00 00 00 00 00 00 00 00 00 00 00 00 00 00 00
       0.0 0.0 0.0 0.0
000190 00 00 00 00 00 00 00 00 00 00 00 00 00 00 00 00
       0.0 0.0 0.0 0.0
0001a0 00 00 00 00 00 00 00 00 00 00 00 00 00 00 00 00
       0.0 0.0 0.0 0.0
0001b0 00 00 00 00 00 00 00 00 00 00 00 00 00 00 00 00
       0.0 0.0 0.0 0.0
0001c0 00 00 00 00 00 00 00 00 00 00 00 00 00 00 00 00
       0.0 0.0 0.0 0.0
0001d0 00 00 00 00 00 00 00 00 00 00 00 00 00 00 00 00
       0.0 0.0 0.0 0.0
0001e0 00 00 00 00 00 00 00 00 00 00 00 00 00 00 00 00
       0.0 0.0 0.0 0.0
0001f0 00 00 00 00 00 00 00 00 00 00 00 00 00 00 00 00
       0.0 0.0 0.0 0.0

network_body._body_endoder.seq_layers.2.weight f4 [128, 128]
000000 ff 7b d5 3d 05 70 d8 3b 3a 57 49 bd 51 31 90 3d
       0.10424041 0.0066051506 -0.04915545 0.07040656
000010 99 24 71 bd 15 ef c1 3d 83 27 fa 3c 8e b4 0d 3c
       -0.058872793 0.094694294 0.030536419 0.008649005
000020 8a 56 1a be 2f b1 a2 bb 82 4e 89 3c 8c 32 f3 bc
       -0.15072075 -0.0049649696 0.016761068 -0.029687189
000030 31 7e ca bd f3 8b a3 bc d3 7f 6c 3c b8 d9 80 3c
       -0.0988735 -0.019964194 0.014434773 0.015728816
000040 6c 62 ac 3d 25 1f ec bd 70 87 ea bc 60 45 a3 ba
       0.0841721 -0.11529378 -0.028629035 -0.0012456588
000050 e9 9c 9c bb 46 c8 99 3d 89 dd b2 3d bf ef b3 3d
       -0.0047794473 0.07508902 0.08733661 0.08785962
000060 13 d5 95 bc 8b e1 c8 bd ee b1 74 3d eb 7e 1f 3d
       -0.018290078 -0.09808644 0.05974 0.038939398
000070 1d 35 f1 3c 6d 5a 91 3d 52 e4 ba bd 17 24 ab bc
       0.029444272 0.070973255 -0.0912558 -0.020891232
000080 02 eb 34 3d ea a4 32 3d a6 8d 47 3e b4 cf 22 3e
       0.044169433 0.043614306 0.19487628 0.15899545
000090 e0 1c 2c ba fc ae 46 3d 57 a0 d8 3d 59 52 c1 bb
       -0.0006565582 0.04850672 0.105774574 -0.005899709
0000a0 59 70 e8 3d 39 d6 14 bd 01 b2 bf bd ef ba de bd
       0.113495536 -0.03633711 -0.093601234 -0.108754985
0000b0 47 b8 71 bd bb 00 3e bd eb 3e f7 3c 8b 99 2d 3d
       -0.05901363 -0.046387415 0.030181369 0.042382758
0000c0 57 cb bb 3c 97 0c a5 3d 4f be fb bc f4 51 19 be
       0.022924108 0.08059042 -0.030730395 -0.14972669
0000d0 d2 a9 85 bd 8c 8b 20 3c ef 62 9e bd 5c 73 68 bb
       -0.06526531 0.009798896 -0.07733714 -0.003546915
0000e0 f9 a5 60 3d 1f 13 1c bd 23 d7 59 be ac 8e 8c bd
       0.054845784 -0.038104173 -0.21273474 -0.0686315
0000f0 1f bd a1 3d 87 25 39 3d bb 09 20 3e 50 6b 2b 3c
       0.078974 0.045201804 0.15628712 0.010462597
000100 6a 91 8e bd 22 1b fa 3d a9 f3 f7 3d ca 1e 09 be
       -0.06961329 0.122122064 0.12107021 -0.13390651
000110 c1 33 ea bc fc 09 d3 3d 00 3c 94 bd 75 d3 c8 3c
       -0.028589131 0.10304639 -0.072380066 0.024514893
000120 69 4c 05 be 04 c8 82 3c a9 c8 27 3e 2c 8f 36 bd
       -0.1301743 0.015964516 0.1638514 -0.044570133
000130 a0 6e 64 3d 07 4a 9c bd 1d 94 c0 bd 29 01 10 be
       0.055769563 -0.07631307 -0.0940325 -0.14062943
000140 76 79 2d bd 67 0b e1 bb f0 f9 d2 3c 7d 43 a7 bd
       -0.042352162 -0.0068678143 0.025753945 -0.08167169
000150 87 b7 15 be e6 16 5c 3c 10 19 a4 bd 91 ac 97 bb
       -0.14620791 0.013433194 -0.08012593 -0.004628726
000160 56 fb 4a bd 5f 7d c4 3c a0 a3 7b bd a5 27 32 bd
       -0.0495561 0.023985563 -0.06143534 -0.04349484
000170 6f dc d5 bd 78 22 97 bd 76 f0 01 bc ca 7a bc bd
       -0.10442435 -0.07379621 -0.0079308655 -0.09203108
000180 0e 67 10 3d 03 db 60 3d 01 1e e2 bb 34 47 b3 bd
       0.03525453 0.054896366 -0.0069005494 -0.08753815
000190 2a 15 ae bb 9d 0b 24 bc e8 c7 9f 3c 45 62 01 be
       -0.0053125815 -0.010012534 0.019504502 -0.12635143
0001a0 15 af 8f 3d 98 00 3d 3a 42 c6 4f 3d 5a 51 62 3d
       0.07015816 0.00072098663 0.050726183 0.055253364
0001b0 ce 40 09 be 31 fa be 3c 2f 17 70 bd ef 08 7e bc
       -0.13403627 0.02331266 -0.05861586 -0.01550506
0001c0 73 18 81 bd ac 1e 56 bc b2 9b 26 bd 9f 03 57 bd
       -0.063034914 -0.013068836 -0.040675826 -0.052493688
0001d0 92 43 26 3e 20 57 57 3e 6a da be bc 2b 89 b1 bd
       0.16236714 0.2102933 -0.023297507 -0.08668741
0001e0 6b 8a a1 bd 41 b7 d1 3c d9 6e 04 3e d0 f5 0c be
       -0.07887729 0.025600078 0.1293291 -0.13765645
0001f0 f0 40 d1 ba 63 af 06 3e 90 b9 06 be bd c8 1d 3d
       -0.0015964787 0.13152842 -0.13156724 0.038521517
000200 43 8e 21 3d 61 9c 88 bd 21 77 a5 3d 60 8c 00 be
       0.039442312 -0.06670452 0.08079363 -0.12553549
000210 58 ce 0d be ee ae 74 bd d9 84 62 3d 29 72 12 bd
       -0.13848245 -0.05973714 0.055302475 -0.035753403
000220 60 0f 36 3c a4 d8 18 bd 6d 40 42 bd 29 2c ad bd
       0.011112064 -0.03731598 -0.047424722 -0.084556885
000230 ae 39 a7 bd b7 98 cf 3d 80 81 4c bd e8 64 85 3d
       -0.081652984 0.1013655 -0.04992819 0.06513387
000240 e4 02 84 bd bc 4d a7 bd 90 f7 43 3d 6b 17 d1 3d
       -0.06445864 -0.081691235 0.047843516 0.10209545
000250 d2 d7 34 3e ea 56 a7 bd 3b d2 32 3c 73 1b a3 3d
       0.17660454 -0.081708744 0.010914381 0.0796422
000260 5b 5f 63 be 9c 0e b4 bc 40 62 f4 3d ef c3 86 bc
       -0.22204344 -0.021979623 0.11932802 -0.01645085
000270 9b 2c a6 bd c2 b9 e1 3c df 45 52 be 20 49 60 3d
       -0.081139766 0.027554397 -0.20534466 0.054757237
000280 76 da a2 bb a2 87 92 bd d3 01 88 be 1e a0 d6 bc
       -0.00496989 -0.07154776 -0.26563892 -0.026199397
000290 39 dd 8a 3d de 98 8a bd bf 12 28 3c 82 c5 4b bd
       0.06780476 -0.06767438 0.010258376 -0.049748905
0002a0 2c 9a 17 3d f1 89 d0 3d a8 79 7d 3d 16 d8 95 3c
       0.037012264 0.1018256 0.0618836 0.018291514
0002b0 e1 97 67 bd 6d c1 87 bd dd d7 c3 3d 46 6f a5 bd
       -0.056541327 -0.0662869 0.09562657 -0.08077864
0002c0 2a 22 95 bd 5f 31 91 bd 61 60 2f be 53 bd 08 be
       -0.07281907 -0.07089495 -0.1712661 -0.13353471
0002d0 92 30 3a 3d db c8 7f bd 29 c1 d9 3d 89 82 10 bd
       0.045456477 -0.06244741 0.106325455 -0.035280738
0002e0 2f 87 c7 3d 42 db 80 bd 47 aa ec 3d 90 89 ab bb
       0.09742581 -0.0629182 0.11555915 -0.0052349046
0002f0 c1 cd 51 bc ed 77 c7 3a ba 51 16 bd 66 39 b5 3c
       -0.012805403 0.0015218236 -0.036699034 0.022122096
000300 75 d2 04 be 00 47 31 be 37 91 aa bd d8 42 75 bd
       -0.12970908 -0.1731224 -0.08328479 -0.0598782
000310 a6 0c 0a be 93 7b cb bd b5 78 8c bd 33 bb 28 ba
       -0.13481387 -0.09935679 -0.068589605 -0.0006436586
000320 c8 2f ed 3c 8a d9 75 be 32 d8 d8 3d 42 1c 1b bd
       0.028953448 -0.24008766 0.10588111 -0.037868746
000330 5a 2e 59 bd c0 73 17 bc d7 ea 7d be 22 2c 87 bc
       -0.05302272 -0.009243906 -0.24796616 -0.016500536
000340 77 79 05 be 0a 06 36 bd ce 09 2e 3e bd c4 3c be
       -0.13034616 -0.044439353 0.16995928 -0.18434425
000350 39 bd 86 bd be 41 4a bc c6 64 dc bc 59 62 14 3e
       -0.0657906 -0.012344776 -0.026903521 0.14490642
000360 42 b6 31 bd ed 01 48 3c 2c 08 23 3d 12 dc bd 3d
       -0.043386705 0.01220749 0.039802715 0.09270491
000370 14 4f b6 3d 2f 2d f9 3d a6 de d4 3c c9 2b 63 bc
       0.08901802 0.12166821 0.025985073 -0.01386542
000380 77 56 2a bc 20 ed ac bc 8a eb cb bd 8e 19 f6 3d
       -0.010396591 -0.021109164 -0.09957035 0.12016593
000390 fe 34 0f be c9 17 d3 bd 22 b0 8a bd 6b 79 5f bd
       -0.13985059 -0.10307271 -0.06771876 -0.054559153
0003a0 af 57 e7 bc aa 31 30 be 6e 2e 01 be b5 b9 ad bd
       -0.028240053 -0.17206445 -0.12615368 -0.084826864
0003b0 77 6c 7f bd 71 6d 70 3a b7 3c 7e 3d c9 66 a5 3d
       -0.0623593 0.00091715815 0.06206962 0.08076245
0003c0 a2 32 2e bd f0 42 f0 bd d6 e2 53 3b ea 4e 79 3d
       -0.042528756 -0.11731517 0.003233125 0.060866274
0003d0 4a 06 04 3e 95 5b a6 3c 37 bc 0e 3d 44 63 a7 bc
       0.12893024 0.020307342 0.034847464 -0.020433076
0003e0 c7 19 28 3e 47 36 e2 3d 54 46 cc bc 0a 05 1f be
       0.16416083 0.11045509 -0.024935879 -0.15529266
0003f0 99 dd a8 3a 09 df 09 be 8d ab 60 bd 69 da 9a 3d
       0.0012883424 -0.13463987 -0.054851104 0.0756119

network_body._body_endoder.seq_layers.2.bias f4 [128]
000000 00 00 00 00 00 00 00 00 00 00 00 00 00 00 00 00
       0.0 0.0 0.0 0.0
000010 00 00 00 00 00 00 00 00 00 00 00 00 00 00 00 00
       0.0 0.0 0.0 0.0
000020 00 00 00 00 00 00 00 00 00 00 00 00 00 00 00 00
       0.0 0.0 0.0 0.0
000030 00 00 00 00 00 00 00 00 00 00 00 00 00 00 00 00
       0.0 0.0 0.0 0.0
000040 00 00 00 00 00 00 00 00 00 00 00 00 00 00 00 00
       0.0 0.0 0.0 0.0
000050 00 00 00 00 00 00 00 00 00 00 00 00 00 00 00 00
       0.0 0.0 0.0 0.0
000060 00 00 00 00 00 00 00 00 00 00 00 00 00 00 00 00
       0.0 0.0 0.0 0.0
000070 00 00 00 00 00 00 00 00 00 00 00 00 00 00 00 00
       0.0 0.0 0.0 0.0
000080 00 00 00 00 00 00 00 00 00 00 00 00 00 00 00 00
       0.0 0.0 0.0 0.0
000090 00 00 00 00 00 00 00 00 00 00 00 00 00 00 00 00
       0.0 0.0 0.0 0.0
0000a0 00 00 00 00 00 00 00 00 00 00 00 00 00 00 00 00
       0.0 0.0 0.0 0.0
0000b0 00 00 00 00 00 00 00 00 00 00 00 00 00 00 00 00
       0.0 0.0 0.0 0.0
0000c0 00 00 00 00 00 00 00 00 00 00 00 00 00 00 00 00
       0.0 0.0 0.0 0.0
0000d0 00 00 00 00 00 00 00 00 00 00 00 00 00 00 00 00
       0.0 0.0 0.0 0.0
0000e0 00 00 00 00 00 00 00 00 00 00 00 00 00 00 00 00
       0.0 0.0 0.0 0.0
0000f0 00 00 00 00 00 00 00 00 00 00 00 00 00 00 00 00
       0.0 0.0 0.0 0.0
000100 00 00 00 00 00 00 00 00 00 00 00 00 00 00 00 00
       0.0 0.0 0.0 0.0
000110 00 00 00 00 00 00 00 00 00 00 00 00 00 00 00 00
       0.0 0.0 0.0 0.0
000120 00 00 00 00 00 00 00 00 00 00 00 00 00 00 00 00
       0.0 0.0 0.0 0.0
000130 00 00 00 00 00 00 00 00 00 00 00 00 00 00 00 00
       0.0 0.0 0.0 0.0
000140 00 00 00 00 00 00 00 00 00 00 00 00 00 00 00 00
       0.0 0.0 0.0 0.0
000150 00 00 00 00 00 00 00 00 00 00 00 00 00 00 00 00
       0.0 0.0 0.0 0.0
000160 00 00 00 00 00 00 00 00 00 00 00 00 00 00 00 00
       0.0 0.0 0.0 0.0
000170 00 00 00 00 00 00 00 00 00 00 00 00 00 00 00 00
       0.0 0.0 0.0 0.0
000180 00 00 00 00 00 00 00 00 00 00 00 00 00 00 00 00
       0.0 0.0 0.0 0.0
000190 00 00 00 00 00 00 00 00 00 00 00 00 00 00 00 00
       0.0 0.0 0.0 0.0
0001a0 00 00 00 00 00 00 00 00 00 00 00 00 00 00 00 00
       0.0 0.0 0.0 0.0
0001b0 00 00 00 00 00 00 00 00 00 00 00 00 00 00 00 00
       0.0 0.0 0.0 0.0
0001c0 00 00 00 00 00 00 00 00 00 00 00 00 00 00 00 00
       0.0 0.0 0.0 0.0
0001d0 00 00 00 00 00 00 00 00 00 00 00 00 00 00 00 00
       0.0 0.0 0.0 0.0
0001e0 00 00 00 00 00 00 00 00 00 00 00 00 00 00 00 00
       0.0 0.0 0.0 0.0
0001f0 00 00 00 00 00 00 00 00 00 00 00 00 00 00 00 00
       0.0 0.0 0.0 0.0

action_model._discrete_distribution.branches.0.weight f4 [2, 128]
000000 51 ac 18 3c 02 13 07 3c a0 4c f6 39 c7 91 8f bb
       0.009318427 0.008244278 0.00046977866 -0.0043813917
000010 b9 ff 0f bc a9 c7 31 3b 55 36 1f bb e7 40 f6 3b
       -0.008788996 0.0027127063 -0.002429386 0.007515061
000020 78 1d d7 bb 59 db 38 bc ad 3f 26 bc f7 14 a8 bb
       -0.0065647922 -0.011282765 -0.010147017 -0.0051294523
000030 1a 94 7b 3b 6b 31 c8 3b b1 a1 c8 ba 8b 52 01 3c
       0.0038387836 0.0061094067 -0.0015306977 0.007893215
000040 97 2b 9d bb 9a 90 55 bc ed 9c 06 3c 2b 34 de bb
       -0.004796456 -0.013034964 0.008216125 -0.0067811213
000050 97 aa 54 bb a2 b9 36 bb 2a 5a 7e 3c 48 96 11 39
       -0.0032450312 -0.0027881642 0.0155244265 0.00013884262
000060 47 23 31 3c 63 c1 6f bb 39 a5 07 bc e4 38 a6 ba
       0.010811633 -0.0036583773 -0.008279138 -0.001268175
000070 8b 0b d2 bb 6a e6 f3 bb c5 07 bf bb 70 d3 ef 3a
       -0.0064100674 -0.007443239 -0.0058297836 0.0018297266
000080 4b 52 f4 bb e2 d1 ce 3b ef 8c b4 b9 8b 61 7d bc
       -0.007456099 0.006311641 -0.0003443728 -0.015465151
000090 37 8d 8d 3b 7b 37 3d bc de bf aa bb 81 ed 82 b8
       0.0043198126 -0.011548872 -0.0052108606 -6.2431216e-05
0000a0 d2 2c 13 3b eb 2b ee bb 40 00 a6 ba d1 5c 86 3b
       0.0022457135 -0.007268419 -0.001266487 0.00410042
0000b0 d2 60 2b bc cd 21 77 ba af 28 0c 3c 9b a2 52 bc
       -0.0104600955 -0.0009427339 0.008554622 -0.012856151
0000c0 9b a5 8a bb 7a 95 f5 ba 6f 11 51 3b 28 e6 93 3b
       -0.0042311675 -0.0018736564 0.003190126 0.0045135207
0000d0 9f 2c 0e 3b 5f 3e c2 ba 6f 0b d9 bb 56 ab a3 ba
       0.0021694077 -0.0014819613 -0.0066236774 -0.0012486975
0000e0 64 a2 bb bb 8b cb 2a 3a 13 f4 ce 3a 3c a3 0f 3c
       -0.0057261456 0.00065153156 0.0015789293 0.008766945
0000f0 de 8f 4a 3a b3 77 1e 3c 9d b5 2a bc 87 dd 03 ba
       0.00077271264 0.009672093 -0.010419277 -0.00050302636
000100 14 14 22 3c af 00 84 3c 83 58 d0 bb d9 b8 8b bb
       0.009892482 0.016113607 -0.0063582077 -0.004263979
000110 c0 6b 34 bc 50 d8 f5 3b bd 4a bf bb 86 a5 bd 3c
       -0.011012018 0.007502593 -0.005837767 0.023150217
000120 59 d3 09 bc ff 36 56 3a 9f 21 3b 3c 9d c5 f3 39
       -0.008412206 0.0008171647 0.01142159 0.00046495805
000130 21 fc 0e 3c 0e 4a 27 3c 4c 14 0d 3a 35 0f 77 38
       0.008727104 0.010210527 0.00053817476 5.890355e-05
000140 08 8c e9 bb 4a a5 d5 3b bd 89 7f 3a 27 3b 29 bc
       -0.0071272887 0.006519948 0.00097480026 -0.010329044
000150 e5 be 60 bc fb fa 2c bb 10 b6 c8 3b 62 be 4c 3c
       -0.013717388 -0.0026394713 0.006125219 0.012496563
000160 60 09 2c 3b d1 5a a4 3b 70 dc 6b 39 e0 88 88 bb
       0.0026250705 0.005015709 0.00022493466 -0.0041667074
000170 c7 12 0f bc a0 fe 9d 3c 9d e0 e7 bb a3 13 8a 3a
       -0.008732504 0.019286454 -0.0070763365 0.0010534417
000180 2f 5c a4 3b ab b2 9e 39 af 59 5c bc 80 47 b3 3b
       0.005015872 0.00030269226 -0.013449117 0.00547117
000190 cf d5 dd 3b da f5 f6 3b 2f 8e 04 3c 60 a0 de ba
       0.0067698727 0.007536632 0.00809054 -0.0016985051
0001a0 e1 65 b1 bb 62 ac 5f 3c 59 6c 9a 3a a7 c3 12 bc
       -0.0054137562 0.013651939 0.0011781558 -0.00895778
0001b0 97 09 22 3c 7c f6 8e 3c 1d 08 ea bb 76 d5 1c ba
       0.009889982 0.017451517 -0.0071420805 -0.0005982736
0001c0 69 0f 84 3a 35 93 ce 3b fe 3c b1 3b a8 43 ea bb
       0.0010075393 0.0063041695 0.005408882 -0.0071491785
0001d0 9b 61 94 bb 1e 90 a1 3b 58 3f 55 3c 6b 28 34 3b
       -0.004528237 0.00493051 0.013015591 0.0027489911
0001e0 95 a8 6a bb 48 fd 69 bc b0 92 ab 3b 3f f7 97 bb
       -0.003580605 -0.014281578 0.0052359924 -0.0046376283
0001f0 7d e7 60 3b 91 15 cb bb 4c 3f 1d bc bf 76 2c bc
       0.0034317665 -0.0061976393 -0.009597611 -0.010526358
000200 df 21 3b bb 39 3d 8e bb 03 9a b7 bb d1 d5 19 ba
       -0.0028554124 -0.0043407944 -0.0056030764 -0.0005868348
000210 03 e6 06 ba b9 83 09 3c a1 fc 07 bc 64 7d 2d 3c
       -0.0005145969 0.008393222 -0.0082999775 0.0105889775
000220 8f df 44 3b 70 21 54 3b 2f 45 4a 3b 8f 94 e0 3b
       0.0030040478 0.0032368563 0.003086399 0.006853647
000230 60 2d d0 ba 46 e1 94 3b b0 09 1b 3a c3 e9 9c 3c
       -0.0015882663 0.0045434562 0.00059142243 0.019154435
000240 ff fb 33 bb 3f c1 01 3c 05 1e 3c 3c 26 52 92 bb
       -0.0027463434 0.007919609 0.011481767 -0.0044653593
000250 a6 71 8e bb 20 33 cc bb a3 91 c4 bb 0a 0d 04 bc
       -0.004347044 -0.0062316805 -0.0059988066 -0.008059749
000260 13 85 57 bb 6a c2 e9 3a 17 cb 32 3c 92 5c d2 3b
       -0.0032885715 0.0017834429 0.010912678 0.0064197266
000270 ab b5 58 bc 99 6d 82 bb 1b 9a bd bb cd 23 70 3c
       -0.013226907 -0.00398035 -0.005786193 0.014656973
000280 cd e9 8d bb ee 2f 19 bc cc 66 18 3c d9 81 2e 3a
       -0.0043308497 -0.009349806 0.009301852 0.0006656922
000290 95 df 30 bb 65 a1 89 bc 33 d3 0d bc 86 22 1e 3c
       -0.0026988734 -0.016800592 -0.008656311 0.009651786
0002a0 0d cc 44 bb 2a 47 af 3b 7f 0a 4f 3c e0 87 78 3c
       -0.003002885 0.0053490596 0.01263678 0.015169114
0002b0 a7 a0 a0 bb b8 70 02 3c 69 2c 85 ba 51 f4 a1 3b
       -0.0049019638 0.007961445 -0.001016033 0.004942455
0002c0 13 15 2a 3b af f8 d2 3a bb 11 5f b8 18 8b e4 bb
       0.0025952503 0.0016095842 -5.3183856e-05 -0.006974589
0002d0 df 8e 5a 3c cf 63 c1 ba eb 38 ac 3b d8 dd 9c b9
       0.013339727 -0.0014754477 0.0052558086 -0.00029919925
0002e0 7f 68 3b 3c d9 fd 8f bb 03 b4 2c bc 97 f8 43 bb
       0.011438488 -0.0043942747 -0.010540965 -0.002990281
0002f0 95 25 f7 bb cd eb b3 3a e3 68 e6 bb cb 0a 99 bc
       -0.007542322 0.001372689 -0.0070315464 -0.018681904
000300 c5 50 d3 3b b0 db 91 3b 53 e9 99 3b 1a fc bb bb
       0.0064488375 0.0044512376 0.004697004 -0.00573684
000310 c3 05 25 bc 39 0f 39 bc 4f e2 d5 3b d9 7b 09 bc
       -0.0100721745 -0.011295133 0.006527222 -0.008391344
000320 33 16 55 3a 48 9f 1e 3b c8 57 b1 38 30 da 22 3b
       0.0008128613 0.0024203826 8.456368e-05 0.0024849288
000330 3e 3e 11 3c f7 d4 91 bc b3 8f b5 bc d9 03 bc bc
       0.008864937 -0.017801745 -0.022163248 -0.022951053
000340 65 48 09 3c 3a 75 b5 bc 6c 13 0f 3c 55 87 5c 3c
       0.008379077 -0.022150625 0.008732658 0.01346
000350 c0 fe ea bb 2a dc 80 3b 1b bf 84 3c 5b e0 1a bc
       -0.007171482 0.0039324956 0.016204407 -0.009452905
000360 3b 4d a6 39 79 c3 c7 bb 87 50 8c 39 3a 8c ce 3b
       0.00031719528 -0.0060963 0.00026762878 0.0063033374
000370 f3 3d 15 3b 86 59 89 bc ab 2e 7e 3c c3 ae 72 3c
       0.002277252 -0.01676632 0.015514056 0.014812174
000380 04 d5 c3 bb ac 12 2a bb 2b 6c 06 bb 95 52 5c 3b
       -0.005976321 -0.002595107 -0.002051125 0.0033618559
000390 af 89 ec 3b b6 c4 a2 3a a9 79 18 3c 2d d7 09 3c
       0.0072185616 0.0012418244 0.00930635 0.008413118
0003a0 6a ff 4f 3c b3 e7 6f bb 1c 5e 8b bc 77 04 7d bc
       0.012695173 -0.003660661 -0.017012648 -0.015442959
0003b0 df 13 02 ba 65 8f 6a bb 64 25 a8 bc aa 4c 88 3a
       -0.00049620675 -0.0035791036 -0.020525642 0.0010398824
0003c0 93 d5 61 bc c3 85 34 bb 45 2b 47 bc 23 34 63 3b
       -0.01378383 -0.0027545549 -0.012156312 0.0034668527
0003d0 a0 35 c1 3b af e2 3d bc 78 0f 4a 3a 8f 7e 0b bc
       0.005896285 -0.01158969 0.00077079935 -0.008514061
0003e0 5f c5 58 bc 48 97 e2 bb 77 ee f6 3a cb 09 29 3b
       -0.013230651 -0.006915007 0.0018839379 0.002579319
0003f0 c9 46 22 bc 10 e8 2a bc e3 e8 87 bc 5b f5 8e bb
       -0.009904572 -0.010431305 -0.016590541 -0.0043627447

action_model._discrete_distribution.branches.0.bias f4 [2]
000000 00 00 00 00 00 00 00 00
       0.0 0.0

network_body.observation_encoder.processors.0.normalizer.running_mean f4 [2]
000000 bb 39 d6 3f 45 17 3d 40
       1.6736368 2.9545453

network_body.observation_encoder.processors.0.normalizer.running_variance f4 [2]
000000 1d 90 5b 45 36 f0 ea 45
       3513.007 7518.0264

network_body.processors.0.normalizer.running_mean f4 [2]
000000 bb 39 d6 3f 45 17 3d 40
       1.6736368 2.9545453

network_body.processors.0.normalizer.running_variance f4 [2]
000000 1d 90 5b 45 36 f0 ea 45
       3513.007 7518.0264

network_body._body_endoder.seq_layers.0.weight f4 [128, 2]
000000 99 d3 86 be 48 fc 91 be b2 0d 0b 3e 15 b4 0a bf
       -0.2633331 -0.28512788 0.13579443 -0.54181033
000010 ef a9 a4 3f 74 ed 99 3f 0c 60 14 be 48 8f 67 3f
       1.286436 1.202559 -0.14489764 0.90453005
000020 fe 19 a1 3f dd ac 87 be 34 39 a5 bd 5d e0 fc 3e
       1.2586057 -0.26499072 -0.08067551 0.49389926
000030 40 11 d6 bd 00 13 91 be 83 00 70 be e9 c3 a0 bf
       -0.10452509 -0.28334808 -0.23437695 -1.2559787
000040 56 ae cf 3f 4f 10 bd be 17 a4 86 bc 59 31 d9 3e
       1.6225078 -0.36926505 -0.016435666 0.42420462
000050 cb 6b 0d 3f b6 b2 90 bf 92 5c 28 3e ab 62 05 3c
       0.55242604 -1.1304538 0.16441563 0.0081412
000060 63 46 a0 3e 88 71 0b bf d8 86 19 3f cc 81 e0 be
       0.313037 -0.5447011 0.5997138 -0.43849027
000070 59 02 c8 3e 2a 7a 1e 3e 63 42 53 bf 4b 47 43 3f
       0.3906429 0.1547629 -0.82523173 0.7628066
000080 a6 d8 8c bf 80 a4 73 be 76 3c 41 bf de 8c ca be
       -1.1003616 -0.2379322 -0.7548288 -0.39560598
000090 e7 62 54 be 13 ae 44 bc dd 71 77 3b b9 e5 52 3e
       -0.20740853 -0.012004393 0.0037757077 0.20595445
0000a0 5a b4 f2 3d 52 76 6b 3e b1 82 9e 3f 9b 64 68 3e
       0.118508056 0.22994354 1.2383634 0.22694628
0000b0 51 5c 3c 3e 82 5d 44 3f 3b 32 8f be 9d 6a 4f 3f
       0.18394591 0.7670518 -0.2796801 0.81022054
0000c0 93 6d 5b 3c 1b f6 b0 be 07 09 2a 3f 3d 85 b6 be
       0.013392824 -0.34562764 0.66420025 -0.35648528
0000d0 73 c3 1b 3f f4 c5 ff be f2 d5 5f bf ad b4 a2 be
       0.60845107 -0.49955714 -0.8743583 -0.3177847
0000e0 8d a8 b8 3f 3c 79 6f bf ed df 95 3f 96 d5 01 bf
       1.4426438 -0.93544364 1.1708962 -0.5071653
0000f0 ad 32 50 3f 76 72 45 bf a7 11 fc bd 07 5c 1f be
       0.81327325 -0.7712778 -0.123080544 -0.1556245
000100 22 02 15 be 2f 6e 54 3f d4 7b 65 bf 3b c0 9a be
       -0.14551595 0.82980627 -0.8964207 -0.30224785
000110 7f 19 ff bd fa 76 99 be 66 bf 94 3f af 7b a9 3f
       -0.12456035 -0.29973584 1.162091 1.324087
000120 13 f8 e5 3e 0c 6a 15 bf 35 76 1f 3f 34 6c cd 3e
       0.44915828 -0.5836494 0.62289745 0.40121615
000130 02 aa 2d bf f8 29 7e bf 92 0c 85 3d 12 40 0f 3f
       -0.67837536 -0.9928279 0.06496538 0.5595714
000140 04 33 26 bf 8d 70 72 bf 2c d5 64 3f d4 db 7d 3e
       -0.64921594 -0.9470299 0.89387774 0.24790889
000150 5f a8 a2 3e 44 62 ae 3c 92 c6 f3 bd 05 09 bf 3e
       0.31769082 0.021287091 -0.11903109 0.3731157
000160 66 b1 7f 3f 03 2a 60 3e c2 2e 85 bf d0 b8 14 be
       0.99880064 0.21891026 -1.0404894 -0.14523625
000170 3e 1c 10 3f 98 7a 39 bf ab 88 95 3f 87 8e 0c bf
       0.56293094 -0.7245269 1.1682333 -0.5490498
000180 19 31 f0 bf b3 d1 0a 3e 76 a2 9e bd b3 c9 1d 3e
       -1.8764983 0.13556556 -0.07745831 0.15408973
000190 52 58 5b ba fb 91 d7 3d 0f 8d 15 3e 29 55 7e 3d
       -0.0008367348 0.105258904 0.14604591 0.062092934
0001a0 6c 6f e6 3e c6 09 61 3e c4 b9 55 bf 5e f3 18 3e
       0.45006883 0.21976385 -0.8348658 0.14936587
0001b0 1e 50 ad bf 44 c3 81 3e 5e 78 b4 bf b7 20 a0 3f
       -1.3540075 0.25344288 -1.4099233 1.2509984
0001c0 93 71 a1 bf 69 43 16 bf 48 00 d8 3e 09 1e 76 3f
       -1.2612785 -0.5869661 0.42187715 0.9613958
0001d0 11 c8 92 3e ed 17 32 bd 4e ed cb 3e 35 5c 4c be
       0.28668264 -0.04347985 0.39829487 -0.19957049
0001e0 c8 cb 78 3f 1d 80 ad bf 53 24 1e 3f 4d 63 b2 be
       0.97185946 -1.3554722 0.61774176 -0.34841385
0001f0 1e 51 8c 3f bd 56 9b 3f 1c 51 a2 3f 76 81 84 be
       1.0962255 1.2135845 1.2681003 -0.2588002
000200 e1 1d a6 be 73 48 ae 3e 62 06 9a be 09 78 f3 be
       -0.3244467 0.3403965 -0.30082995 -0.47552517
000210 1f 55 a7 3e 61 f1 17 bf ff 2b 38 bf 17 37 f7 be
       0.3268213 -0.5935269 -0.7194213 -0.48284218
000220 d7 19 7c 3f 72 62 c3 3e 75 50 25 bf 1a f8 f3 be
       0.9847693 0.38161045 -0.6457589 -0.47650224
000230 bf da 38 3f e7 b8 d0 3e d4 0c 82 bf 99 11 3e 3f
       0.7220878 0.4076607 -1.0160165 0.742456
000240 f4 52 b5 be 38 02 52 be 32 f6 03 be b3 3e 35 3f
       -0.3541485 -0.20508659 -0.12886885 0.70798796
000250 01 f5 a8 be e1 81 06 3f a5 ca 14 bf 6f aa 0c 3e
       -0.32999423 0.5254193 -0.5812171 0.1373689
000260 72 30 bb bd e2 93 2e 3f 0b 5f 6c be cf e3 2e bf
       -0.091400996 0.681944 -0.23083131 -0.6831636
000270 ce ac 22 bf a8 f9 29 3f 9b f2 1b 3e 6b b8 75 bf
       -0.6354493 0.6639657 0.15229265 -0.95984524
000280 ad 63 21 3d df ac 9d 3f a7 71 1f 3f b2 e8 96 3e
       0.0394017 1.2318381 0.62282795 0.29474407
000290 64 43 14 3e 0c 5e 66 3f 2b 80 5c be 11 39 70 3f
       0.14478832 0.89987254 -0.21533267 0.93837076
0002a0 df c5 47 3e a8 49 bd bf ef 29 6c bf 29 ea 7a 3b
       0.19509076 -1.4788103 -0.92251486 0.0038286543
0002b0 4d 65 c0 bf 50 c1 ae 3f 6b 4d b7 bf b5 e0 2e be
       -1.5030915 1.3652744 -1.4320501 -0.17077906
0002c0 cd 7a 9b bd 05 2b 3b bf d6 01 e5 be 76 25 9a 3e
       -0.07591782 -0.7311252 -0.44727963 0.30106705
0002d0 30 53 64 bf a6 2b 89 3f 5d 23 6f be 36 95 14 3f
       -0.89189434 1.0716445 -0.23353334 0.5804018
0002e0 33 f6 b5 bf 65 1e 87 3e fc 6e 95 bf ef 59 05 bf
       -1.4215759 0.26390377 -1.1674495 -0.5209035
0002f0 67 41 88 bd cd 12 a2 3e 32 3a 47 bf 7c e1 4c 3f
       -0.066530995 0.3165497 -0.77823174 0.8003156
000300 94 35 07 3f 32 ff fb be da 41 86 3f 0d 20 ec be
       0.5281613 -0.49218136 1.0488846 -0.46118203
000310 6f 31 9a 3d 2a 5a d3 3e 6c 7a ee 3d 22 cd a7 3e
       0.0752896 0.41279727 0.11644444 0.3277369
000320 84 eb 4f bd 7f 1b a7 3e 1d f7 2d bd 0a 13 2f 3f
       -0.050761715 0.32638165 -0.042471994 0.68388426
000330 7c 48 2a bf 91 7d 73 bd 65 39 bb 3e 21 20 32 bd
       -0.6651685 -0.05944592 0.36567226 -0.04348767
000340 bf 83 ac bd e4 98 cd 3d d0 d6 dd be 26 f3 09 bf
       -0.08423566 0.10038927 -0.4332795 -0.5388664
000350 ff a8 5a bf 6c 7b ea 3e a8 c2 7f 3e 98 15 0e bf
       -0.8541412 0.45797288 0.24976599 -0.555017
000360 b5 ab e2 be b0 8d 08 3e 15 5d af 3f b1 d1 5d 3b
       -0.44271627 0.133353 1.3700281 0.003384691
000370 27 f6 7f 3f 63 52 d5 3d d2 78 e0 be 4b 70 fe be
       0.99984974 0.10416105 -0.4384218 -0.49695048
000380 c3 86 bd 3e 1a 80 b3 3e 53 aa 9d 3f a0 d3 3f 3f
       0.37016878 0.3505867 1.2317604 0.7493229
000390 b0 e3 8b 3f 7c aa 1a bd 01 67 44 be ed 67 11 3f
       1.092886 -0.037760243 -0.19179918 0.56799203
0003a0 8f bd c4 bc 62 d6 fc bd 0c 35 16 3e fd d3 ca bf
       -0.02401617 -0.12345578 0.14668673 -1.5845944
0003b0 6a e2 4b 3f 6c df bf 3e 80 9a 53 be e2 f4 2c bf
       0.79642355 0.37475145 -0.20664406 -0.6756116
0003c0 61 d4 97 be bd 3b db be 4e c8 4e 3f 11 86 99 3f
       -0.2965422 -0.42819014 0.8077439 1.1994039
0003d0 5a e6 17 3d 57 83 0c be d1 d1 46 3f e5 88 95 be
       0.037084915 -0.13721977 0.77663904 -0.29206005
0003e0 26 fb 58 3f 17 7e e7 be a8 64 83 3f 1e 81 74 3f
       0.8475822 -0.45213386 1.0265093 0.9550952
0003f0 30 55 2d bf a0 6f a5 bf 3b 2d 17 3f f4 bd 85 bf
       -0.6770811 -1.292469 0.5905339 -1.0448594

network_body._body_endoder.seq_layers.0.bias f4 [128]
000000 00 00 00 00 00 00 00 00 00 00 00 00 00 00 00 00
       0.0 0.0 0.0 0.0
000010 00 00 00 00 00 00 00 00 00 00 00 00 00 00 00 00
       0.0 0.0 0.0 0.0
000020 00 00 00 00 00 00 00 00 00 00 00 00 00 00 00 00
       0.0 0.0 0.0 0.0
000030 00 00 00 00 00 00 00 00 00 00 00 00 00 00 00 00
       0.0 0.0 0.0 0.0
000040 00 00 00 00 00 00 00 00 00 00 00 00 00 00 00 00
       0.0 0.0 0.0 0.0
000050 00 00 00 00 00 00 00 00 00 00 00 00 00 00 00 00
       0.0 0.0 0.0 0.0
000060 00 00 00 00 00 00 00 00 00 00 00 00 00 00 00 00
       0.0 0.0 0.0 0.0
000070 00 00 00 00 00 00 00 00 00 00 00 00 00 00 00 00
       0.0 0.0 0.0 0.0
000080 00 00 00 00 00 00 00 00 00 00 00 00 00 00 00 00
       0.0 0.0 0.0 0.0
000090 00 00 00 00 00 00 00 00 00 00 00 00 00 00 00 00
       0.0 0.0 0.0 0.0
0000a0 00 00 00 00 00 00 00 00 00 00 00 00 00 00 00 00
       0.0 0.0 0.0 0.0
0000b0 00 00 00 00 00 00 00 00 00 00 00 00 00 00 00 00
       0.0 0.0 0.0 0.0
0000c0 00 00 00 00 00 00 00 00 00 00 00 00 00 00 00 00
       0.0 0.0 0.0 0.0
0000d0 00 00 00 00 00 00 00 00 00 00 00 00 00 00 00 00
       0.0 0.0 0.0 0.0
0000e0 00 00 00 00 00 00 00 00 00 00 00 00 00 00 00 00
       0.0 0.0 0.0 0.0
0000f0 00 00 00 00 00 00 00 00 00 00 00 00 00 00 00 00
       0.0 0.0 0.0 0.0
000100 00 00 00 00 00 00 00 00 00 00 00 00 00 00 00 00
       0.0 0.0 0.0 0.0
000110 00 00 00 00 00 00 00 00 00 00 00 00 00 00 00 00
       0.0 0.0 0.0 0.0
000120 00 00 00 00 00 00 00 00 00 00 00 00 00 00 00 00
       0.0 0.0 0.0 0.0
000130 00 00 00 00 00 00 00 00 00 00 00 00 00 00 00 00
       0.0 0.0 0.0 0.0
000140 00 00 00 00 00 00 00 00 00 00 00 00 00 00 00 00
       0.0 0.0 0.0 0.0
000150 00 00 00 00 00 00 00 00 00 00 00 00 00 00 00 00
       0.0 0.0 0.0 0.0
000160 00 00 00 00 00 00 00 00 00 00 00 00 00 00 00 00
       0.0 0.0 0.0 0.0
000170 00 00 00 00 00 00 00 00 00 00 00 00 00 00 00 00
       0.0 0.0 0.0 0.0
000180 00 00 00 00 00 00 00 00 00 00 00 00 00 00 00 00
       0.0 0.0 0.0 0.0
000190 00 00 00 00 00 00 00 00 00 00 00 00 00 00 00 00
       0.0 0.0 0.0 0.0
0001a0 00 00 00 00 00 00 00 00 00 00 00 00 00 00 00 00
       0.0 0.0 0.0 0.0
0001b0 00 00 00 00 00 00 00 00 00 00 00 00 00 00 00 00
       0.0 0.0 0.0 0.0
0001c0 00 00 00 00 00 00 00 00 00 00 00 00 00 00 00 00
       0.0 0.0 0.0 0.0
0001d0 00 00 00 00 00 00 00 00 00 00 00 00 00 00 00 00
       0.0 0.0 0.0 0.0
0001e0 00 00 00 00 00 00 00 00 00 00 00 00 00 00 00 00
       0.0 0.0 0.0 0.0
0001f0 00 00 00 00 00 00 00 00 00 00 00 00 00 00 00 00
       0.0 0.0 0.0 0.0

network_body._body_endoder.seq_layers.2.weight f4 [128, 128]
000000 bb 1e 86 3d f4 67 dc bd 86 53 86 3c c8 ff b0 bd
       0.0654883 -0.10762015 0.016397249 -0.086425364
000010 0e b2 16 3c 9a 46 27 3e 84 e2 5b 3d 4b b5 a7 3c
       0.009197725 0.16335526 0.05368282 0.02047219
000020 f4 6d d5 bd d2 c1 f2 bc 9a dd 63 3d 3c 8a 1b 3d
       -0.104213625 -0.029633436 0.055631258 0.037973627
000030 19 4b 8d bd c8 33 7f bc 1f 53 8e 3d 16 7e dd 3d
       -0.06899089 -0.01557631 0.06949448 0.108150646
000040 6e c5 2a bd 45 20 e4 bd 6c 69 d5 3d 4d 7b c1 3d
       -0.04169219 -0.111389674 0.10420498 0.09447346
000050 da b3 aa 3c 6c 28 e5 bc 27 f9 43 bd 99 35 97 3d
       0.020837713 -0.027973376 -0.047845032 0.0738327
000060 87 04 09 be 69 46 b5 bd 5d 20 89 3b 08 2f 10 be
       -0.13380633 -0.0885132 0.004184766 -0.14080441
000070 53 36 f4 bd 73 d8 63 3d 1f 58 9a bd 63 b1 08 3d
       -0.11924424 0.055626344 -0.07536339 0.033372294
000080 b4 8f 52 3c 4b cc c9 bb a0 62 f7 bb a6 1a 20 3d
       0.012851644 -0.006158387 -0.007549599 0.039087914
000090 21 06 25 3d cc f8 52 bd d1 e9 aa 3b b8 ad 78 be
       0.040289048 -0.051506802 0.0052158614 -0.24285018
0000a0 9f 32 7c 3d 52 18 6e 3d f9 42 68 bd 4c d3 b5 3d
       0.061571714 0.058128662 -0.056704495 0.08878192
0000b0 bc 9d 2a be ec 11 34 ba ef 6c 32 be bb c8 ab 3d
       -0.16661733 -0.00068691256 -0.17424367 0.08387896
0000c0 81 bb 86 3b 87 c7 0c be 95 72 80 3d 29 e9 78 bd
       0.0041117077 -0.13747989 0.06271855 -0.060769234
0000d0 79 c4 d5 bc 05 14 26 be a1 f7 2d bd a8 9c 1f 3d
       -0.026094662 -0.16218574 -0.042472485 0.03896776
0000e0 88 57 e2 bd 03 06 61 3e 02 ab 85 bd f5 1e c1 bc
       -0.110518515 0.2197495 -0.06526758 -0.023574332
0000f0 26 1d d4 3d 4c a6 9e 3c 47 b3 91 3b 53 30 43 3c
       0.10357122 0.019366406 0.0044464204 0.011913377
000100 c7 33 98 bd a0 de 1b 3c 0b db 09 3e 48 a7 8d bd
       -0.07431751 0.009513527 0.13462465 -0.06916672
000110 58 67 80 3e 5d 00 a4 bd 5a 8a d1 3c 67 a2 14 3e
       0.25078845 -0.08007882 0.025578666 0.14515077
000120 b9 c0 31 3c ed 94 14 3d f6 12 40 bd 9a e6 95 bd
       0.010849171 0.03627484 -0.046893083 -0.073193744
000130 9f fe a6 3d 38 d1 ab bd 82 1c 04 be 8b 4e ae 3d
       0.08154034 -0.08389515 -0.129015 0.08511075
000140 58 8a 9d 3d 68 10 36 be c2 aa d2 bd 9a 20 30 be
       0.076924026 -0.17779696 -0.10286476 -0.17199937
000150 f7 90 0a 3d da fa c6 3d e4 72 da bc f9 60 1c 3c
       0.033829655 0.09715815 -0.026666112 0.009544604
000160 35 e3 b6 3d 9e 57 75 3b 13 a5 bf bd e5 9e f1 bb
       0.08930055 0.0037436257 -0.09357657 -0.007373678
000170 2c a9 e9 bc 4e ad bb 3c d5 02 9c bd 63 cf 4c 3d
       -0.02852305 0.022909787 -0.07617728 0.050002467
000180 9b 22 82 bd 32 cb 2e be cc 27 38 3e 17 81 02 3e
       -0.06354257 -0.170697 0.17983931 0.12744556
000190 74 3b 2b bd 30 06 3e bd 1c fb c9 bc b2 e2 d5 3d
       -0.041804746 -0.04639262 -0.024655871 0.10443629
0001a0 f1 ba 8a bd d7 af b2 bc 90 11 cb bc 54 ac 20 be
       -0.067739375 -0.021812363 -0.024788648 -0.15690738
0001b0 89 49 89 3d 14 75 87 bb fd 75 fc bc f5 00 8e bc
       0.06703479 -0.00413383 -0.03081798 -0.01733444
0001c0 35 e8 4c bc 18 e6 6e bb f1 e0 28 bc 1d 21 95 bd
       -0.012506534 -0.0036453065 -0.010307536 -0.072817065
0001d0 d9 53 1c bc db 6c a1 3d 47 91 32 3e 80 25 31 3c
       -0.009541475 0.07882091 0.17438231 0.010812163
0001e0 85 9b 5c bd 7e 37 60 bb 94 7a 0a 3d 3d 9b 15 bd
       -0.053859252 -0.0034212763 0.033808306 -0.036525
0001f0 a9 25 af bd b3 3b 19 be 7e 93 e3 bc 0d 60 dc bd
       -0.08552105 -0.1496418 -0.02778029 -0.10760508
000200 e1 46 09 3e 98 a8 57 3c 8a 20 f5 3b 2c 61 6e 3d
       0.13405944 0.0131627545 0.0074806856 0.05819814
000210 ce b8 a6 bd 9b 18 6f bc 59 f7 b1 bd 68 1a 8b 3c
       -0.081407174 -0.014593269 -0.08689756 0.016980365
000220 73 7b d8 3d 08 e4 00 bd ee 4e 5e 3d 9b cd a4 3d
       0.10570421 -0.031467468 0.054274492 0.08047029
000230 95 66 29 3e 7d 3d 5a be f5 bf 50 3e 0c 01 23 bd
       0.16543038 -0.21312518 0.20385726 -0.03979592
000240 73 c3 28 3d 25 87 05 bc 86 55 44 be a3 79 ac bd
       0.04120202 -0.008149897 -0.1917325 -0.08421638
000250 3d 32 36 3b 24 28 8f 3c bd ee 3d bd 67 9c 1e 3d
       0.002780094 0.017475195 -0.046370257 0.038723376
000260 c4 85 14 bd 71 d1 e2 3d fb ad 5e 3d 6d 4e c6 3d
       -0.03626038 0.11075104 0.05436514 0.09682927
000270 87 ac 1f 3d a3 34 73 bd 3c c5 c1 3c 51 8e 47 bd
       0.038982894 -0.05937637 0.023653619 -0.048719708
000280 a1 a5 53 3b 13 99 0e be b0 fa c3 bd 16 16 b0 3d
       0.0032294767 -0.1392558 -0.09569299 0.085979626
000290 a3 2b 38 bd bf d8 0f 3e ca 78 3e 3d 7b fc ce 3d
       -0.04496349 0.14047526 0.046501912 0.101067506
0002a0 60 d3 1b bd 9d d1 ce bd c8 7c 39 3e f3 57 51 bc
       -0.03804338 -0.10098574 0.18114007 -0.012777316
0002b0 36 30 17 bd 3e a1 37 be e8 06 50 bc 8a cb 82 3d
       -0.036911212 -0.17932603 -0.012696959 0.06386478
0002c0 4d cf 18 bc 98 72 a5 bd 05 25 b7 3c 1a b0 46 be
       -0.009326768 -0.08078498 0.02235652 -0.19403115
0002d0 c8 4f 84 3d 7d db b3 38 ce 96 7c bc 5d 30 6a bd
       0.064605296 8.576268e-05 -0.015416814 -0.05717503
0002e0 80 1e 01 be fb 87 5e bc 9a 1f bd 3d 0f 80 ab bd
       -0.12609291 -0.013582225 0.09234543 -0.083740346
0002f0 b6 23 e5 3d 45 b4 3e bd 29 69 c7 bd 33 4b 00 be
       0.11188452 -0.046558637 -0.097368546 -0.12528686
000300 0f 85 97 3d 74 b1 3f bd 41 ad e2 3b 35 41 2c bd
       0.07398426 -0.046800092 0.006917626 -0.042054374
000310 2d 82 52 3e 36 d2 39 3c 7f 16 18 be 90 a7 9a bd
       0.2055747 0.011341622 -0.14852332 -0.07551491
000320 9c 88 47 3e eb d0 e1 3c f2 69 a2 bc f5 27 62 bd
       0.19485706 0.02756544 -0.01982591 -0.055213887
000330 69 ef 73 bd f4 04 aa 3d 83 73 4b bd 18 fc ad bd
       -0.05955449 0.08301726 -0.049670707 -0.08495349
000340 e6 6f a2 bd d8 af ac 3d bc c2 19 3e 8e 8a 2e 3d
       -0.07931499 0.08431977 0.15015692 0.042612605
000350 be 86 51 3d 82 d4 fa bd 5c b5 d6 bc ad 7c f4 3d
       0.05115389 -0.12247564 -0.026209526 0.119378425
000360 e0 a7 ac 3d 01 fb a8 3d d7 f5 7e bc 8d 42 18 bd
       0.08430457 0.08251 -0.0155615425 -0.037172843
000370 f7 b3 4b bd d2 50 31 be 53 22 24 bd 4d 47 44 bc
       -0.049732175 -0.17315987 -0.040071797 -0.01197989
000380 52 b7 8a be 12 ab dd 3d 10 da 26 be ef d1 53 bd
       -0.27092987 0.10823645 -0.16294122 -0.05171388
000390 11 8f 03 3c 03 72 75 bd 46 13 72 bd 62 bb f2 3c
       0.008029715 -0.059923183 -0.05910041 0.029630367
0003a0 21 95 33 bd eb bf 2b 3e 04 7a ad bd 0d 6e 87 bd
       -0.043843392 0.1677243 -0.08470538 -0.066127874
0003b0 8f 28 1c 3d 33 7a 79 3d 5d be a7 3d 9b 41 c9 bb
       0.038124617 0.060907554 0.08190606 -0.006141854
0003c0 4c 81 cc 3d a5 e9 f7 bc 37 a5 67 3d 16 84 0a bd
       0.09985599 -0.030262778 0.056554046 -0.033817373
0003d0 e7 e4 92 3c 1e 47 71 bd c1 65 ae 3c 68 06 b7 bd
       0.017931415 -0.058905713 0.021288754 -0.08936769
0003e0 b9 e1 05 bd bc 37 d0 3c e5 7e a5 bc e9 3c 96 bd
       -0.03268597 0.025417201 -0.02020211 -0.073358364
0003f0 4f d1 a3 bc 6f ba f1 bb 42 e4 f2 3c ea e7 bb bb
       -0.019997267 -0.007376961 0.029649857 -0.0057344334

network_body._body_endoder.seq_layers.2.bias f4 [128]
000000 00 00 00 00 00 00 00 00 00 00 00 00 00 00 00 00
       0.0 0.0 0.0 0.0
000010 00 00 00 00 00 00 00 00 00 00 00 00 00 00 00 00
       0.0 0.0 0.0 0.0
000020 00 00 00 00 00 00 00 00 00 00 00 00 00 00 00 00
       0.0 0.0 0.0 0.0
000030 00 00 00 00 00 00 00 00 00 00 00 00 00 00 00 00
       0.0 0.0 0.0 0.0
000040 00 00 00 00 00 00 00 00 00 00 00 00 00 00 00 00
       0.0 0.0 0.0 0.0
000050 00 00 00 00 00 00 00 00 00 00 00 00 00 00 00 00
       0.0 0.0 0.0 0.0
000060 00 00 00 00 00 00 00 00 00 00 00 00 00 00 00 00
       0.0 0.0 0.0 0.0
000070 00 00 00 00 00 00 00 00 00 00 00 00 00 00 00 00
       0.0 0.0 0.0 0.0
000080 00 00 00 00 00 00 00 00 00 00 00 00 00 00 00 00
       0.0 0.0 0.0 0.0
000090 00 00 00 00 00 00 00 00 00 00 00 00 00 00 00 00
       0.0 0.0 0.0 0.0
0000a0 00 00 00 00 00 00 00 00 00 00 00 00 00 00 00 00
       0.0 0.0 0.0 0.0
0000b0 00 00 00 00 00 00 00 00 00 00 00 00 00 00 00 00
       0.0 0.0 0.0 0.0
0000c0 00 00 00 00 00 00 00 00 00 00 00 00 00 00 00 00
       0.0 0.0 0.0 0.0
0000d0 00 00 00 00 00 00 00 00 00 00 00 00 00 00 00 00
       0.0 0.0 0.0 0.0
0000e0 00 00 00 00 00 00 00 00 00 00 00 00 00 00 00 00
       0.0 0.0 0.0 0.0
0000f0 00 00 00 00 00 00 00 00 00 00 00 00 00 00 00 00
       0.0 0.0 0.0 0.0
000100 00 00 00 00 00 00 00 00 00 00 00 00 00 00 00 00
       0.0 0.0 0.0 0.0
000110 00 00 00 00 00 00 00 00 00 00 00 00 00 00 00 00
       0.0 0.0 0.0 0.0
000120 00 00 00 00 00 00 00 00 00 00 00 00 00 00 00 00
       0.0 0.0 0.0 0.0
000130 00 00 00 00 00 00 00 00 00 00 00 00 00 00 00 00
       0.0 0.0 0.0 0.0
000140 00 00 00 00 00 00 00 00 00 00 00 00 00 00 00 00
       0.0 0.0 0.0 0.0
000150 00 00 00 00 00 00 00 00 00 00 00 00 00 00 00 00
       0.0 0.0 0.0 0.0
000160 00 00 00 00 00 00 00 00 00 00 00 00 00 00 00 00
       0.0 0.0 0.0 0.0
000170 00 00 00 00 00 00 00 00 00 00 00 00 00 00 00 00
       0.0 0.0 0.0 0.0
000180 00 00 00 00 00 00 00 00 00 00 00 00 00 00 00 00
       0.0 0.0 0.0 0.0
000190 00 00 00 00 00 00 00 00 00 00 00 00 00 00 00 00
       0.0 0.0 0.0 0.0
0001a0 00 00 00 00 00 00 00 00 00 00 00 00 00 00 00 00
       0.0 0.0 0.0 0.0
0001b0 00 00 00 00 00 00 00 00 00 00 00 00 00 00 00 00
       0.0 0.0 0.0 0.0
0001c0 00 00 00 00 00 00 00 00 00 00 00 00 00 00 00 00
       0.0 0.0 0.0 0.0
0001d0 00 00 00 00 00 00 00 00 00 00 00 00 00 00 00 00
       0.0 0.0 0.0 0.0
0001e0 00 00 00 00 00 00 00 00 00 00 00 00 00 00 00 00
       0.0 0.0 0.0 0.0
0001f0 00 00 00 00 00 00 00 00 00 00 00 00 00 00 00 00
       0.0 0.0 0.0 0.0

value_heads.value_heads.extrinsic.weight f4 [1, 128]
000000 a0 b3 ba bc 82 a1 4b 3e e0 b0 dd 3c f0 ea 6a bd
       -0.02279073 0.19885829 0.02706188 -0.05735296
000010 66 cc f0 bd 8a 90 13 be d0 55 0f be 60 8a 2d 3c
       -0.11757736 -0.14410606 -0.13997579 0.010592073
000020 aa da 2d be 64 af 9f 3d 54 bf 4f 3e 02 b2 d2 bd
       -0.16977945 0.07797125 0.2028783 -0.102878585
000030 36 fe 05 be b0 7b 41 3c c8 fc 16 be dc d3 d4 3d
       -0.13085255 0.011809275 -0.14744866 0.103919715
000040 4c ea 36 be a0 90 ef bd 30 86 09 be 24 31 38 bd
       -0.17862815 -0.11697507 -0.13430095 -0.04496874
000050 74 4e 8a 3d a0 3f 8e bc 46 26 1f 3e 48 ad ea 3d
       0.06753245 -0.017364323 0.15541944 0.11458832
000060 10 0e b0 3c 7f d6 09 be 40 23 21 3b 1e 66 2a 3e
       0.02149108 -0.1346073 0.002458766 0.16640517
000070 e4 cf 2e 3e 80 cc d6 3a ae d9 86 bd d9 69 3f be
       0.17071491 0.001638785 -0.06584488 -0.18692721
000080 80 53 65 3b b6 ad 3d 3e a0 ab f1 3d 12 fe 96 bd
       0.0034992397 0.18523297 0.11800313 -0.07372679
000090 0c f3 60 bd 81 da 04 be 90 68 2f 3c f1 3b 2a be
       -0.054919288 -0.12973978 0.010706082 -0.16624428
0000a0 dc f5 c2 3d 62 4c 10 3e 20 3e eb 3c 00 b3 43 be
       0.0951955 0.14091638 0.028716147 -0.19111252
0000b0 40 5e 39 3d 6c fa b0 3d 4a d7 3d be 32 6c 33 3e
       0.0452559 0.08641514 -0.18539158 0.17521742
0000c0 10 8a 86 3d c8 bc a1 3d 22 d2 22 3e 4a c3 10 3e
       0.06569302 0.07897335 0.15900472 0.14136997
0000d0 78 c1 1f bd a0 3f 11 3c 28 9e a5 3d f1 a6 2c be
       -0.039002866 0.008865267 0.080868065 -0.16860558
0000e0 5a f4 4c 3e 08 3c de bd 98 b1 3a 3e c4 22 8b 3d
       0.20015088 -0.10851294 0.18231809 0.067937404
0000f0 a0 45 43 be 64 5b 0d 3e 50 6e aa bc c4 74 ca 3d
       -0.19069529 0.13804394 -0.020804554 0.098855525
000100 d4 7a 8e 3d 1c 56 aa 3d 1c 49 24 3e 18 39 7f 3d
       0.06957021 0.08317205 0.16043514 0.06231031
000110 1c 06 98 3d 30 8b 34 bc f5 f4 2f be 50 c3 5a 3e
       0.0742304 -0.011019513 -0.17183287 0.21363568
000120 5e 25 03 3e 64 c5 0a be 4b 31 d5 bd de fb 03 3e
       0.12807223 -0.13551861 -0.104097925 0.12889048
000130 fc 0d 44 be 01 c4 25 be 3e d7 9e bd 40 a2 87 3c
       -0.1914596 -0.16188051 -0.07755898 0.016556859
000140 a0 8c ce 3b e8 16 11 3d c8 81 c2 bc 70 2a 80 bd
       0.006303385 0.035422236 -0.023743525 -0.06258094
000150 64 17 52 be 12 9d 0c 3e f4 2c f0 bd 02 e4 57 3e
       -0.20516735 0.13731793 -0.11727324 0.21083072
000160 c0 3a 6c bc 18 33 23 3d 80 3f 92 bb 30 4b 61 bd
       -0.014418304 0.03984365 -0.004463136 -0.055003345
000170 14 a3 be bd 72 b1 f7 bd b8 71 8b 3c c4 a6 d7 3d
       -0.093084484 -0.12094392 0.017021999 0.10529855
000180 fa ce 40 3e 08 65 30 3d 62 d5 a8 bd 98 e0 0c 3e
       0.18828955 0.0430651 -0.082438245 0.1375755
000190 d4 13 ab 3d 68 7c 35 3e 27 33 fe bd 22 c3 22 3e
       0.08353391 0.17723238 -0.124121 0.1589475
0001a0 20 60 f9 3c d0 e0 20 be 80 88 dc 3b 18 ce 16 be
       0.030441344 -0.15710759 0.0067301393 -0.14727056
0001b0 bc dd 4d 3e ee c5 4c 3e d8 df 55 3e 40 31 ff bc
       0.20104116 0.19997379 0.20886171 -0.031151414
0001c0 f9 8f 2c be fc 9d c4 3d ab 54 4f be 3a 51 1c 3e
       -0.16851796 0.09600446 -0.20247142 0.1526536
0001d0 5a a1 83 bd 96 82 2d 3e 40 3c dc bc be 10 a5 bd
       -0.0642726 0.16944346 -0.026884198 -0.08059834
0001e0 b0 04 ae 3d 60 6e 26 3d ec 53 00 be e4 eb 16 be
       0.08496988 0.040632606 -0.12532014 -0.14738423
0001f0 90 5b 44 3c 25 b3 22 be 4c a5 5a be b0 96 ad 3c
       0.011984721 -0.1588865 -0.21352118 0.021190017
