results/flappy_trainingv1/FlappyBirdAgent.onnx (onnx, 534229 bytes, 10 tensors)

network_body.observation_encoder.processors.0.normalizer.running_mean f4 [2]
00000000: 4720 bdc5 da50 38c3
-6052.0347 -184.31583

network_body._body_endoder.seq_layers.0.weight f4 [256, 2]
00000000: 5ca6 623f 5a58 4fbf 4d7e 063f d5fd a33c
00000010: 8090 ccbc d72d a4bf 92ea f43d 322c 7c3f
00000020: c34e 2cbf 3738 893f 2ec9 3c3e 6542 833f
00000030: 6390 d5be 0307 973f aa04 d23e dfe2 923f
00000040: cc16 733f 4f3f 0c3d b051 18be 5e2a 7cbe
00000050: 3ece 993f c644 3dbf 577e cebd c040 14be
00000060: d8d6 b0be c36f 843e 6cb3 45be e0b1 ecbe
00000070: 24a6 fb3e 1876 cd3e 613f fe3d 824b bd3e
00000080: c4df 01be bb5d 803f 8272 363e e65c d1bc
00000090: 951d b13e bb6d 393d e7cb 0140 e08b babe
000000a0: e0d5 93bd bb39 423f d81d a4be 6d94 013f
000000b0: ad2f 4bbe d808 b03e 3764 c93e 28f7 113f
000000c0: 27d4 0d3e 71fe 35bf a4ab e93e c3f6 dabe
000000d0: 9a02 b43e 26b4 8c3f 3809 24bd 4a98 3dbe
000000e0: bc36 f83e 997c a5be 702f b13f e3d6 18bf
000000f0: 0c88 0abf 8925 d2bd df31 82bf d8d3 d5bf
00000100: 0d2a 313e 481c 523f aeee ed3e 2097 8a3e
00000110: 77b1 9e3e 7800 f33e 7b26 08bd 05a7 253f
00000120: 8bb4 833f 6e81 e3bf 57bb de3e 7ea6 97bd
00000130: 8646 36bd 0606 3e3f 9aca c33e 642c 89bf
00000140: a5e4 be3d 60c6 b83f bc44 7dbf d64a 5d3e
00000150: 241a 45bf bb37 7ebd 932d 813e af2c ed3e
00000160: 5a4d 813f c030 7c3f 5081 e4bd 27e7 853f
00000170: fc16 f03e ca4b f9bd aaf9 cf3e 77fe fc3e
00000180: 6c92 9e3e b8e8 043f d699 143d cc03 023f
00000190: 0909 7dbd 2419 cdbc 40cc 5ebe 258d 58be
000001a0: d5d3 e03f 7b2b 4ebe 578b 023f 7659 953f
000001b0: 2b08 fc3e 9371 ab3e 769d fb3e 6523 913f
000001c0: 0051 8dbf 85ae 50bf b2ae 38bf 2160 67bf
000001d0: d579 653d 92e2 c83c 9d4f e6be f64a d4be
000001e0: 509d 9abd a74f edbe fe92 3bbf 8158 31bf
000001f0: 80f8 73bf 4169 0c3f 1342 b5bd 245b 68bf
00000200: 6f2f 823f f762 81be 4bfa f53e fbdd 76bf
00000210: 01af 653e b0e3 87bf 2370 4b3f f627 41be
00000220: 0fc9 553f d4c7 fd3e db5a 1bbf d42a b33e
00000230: 44ef 6abf a033 50be 53ec 2e3f 3a6d 11bf
00000240: d360 15bf 6a7e 06c0 9a38 453e 8db8 573e
00000250: 5332 1fbf 8b84 19bf 8c62 333e 928a 4b3e
00000260: c435 29bf 4397 a3bf b20a 1e3e e285 253f
00000270: 7907 573e ae1f 55bf 708d 9d3e 05c8 bb3f
00000280: fa0b 483e 0121 393f 2f29 ca3e 8715 75be
00000290: ba6a 833e db4a fdbd d797 ecbe 88db d6bd
000002a0: 65c6 68bf 75b6 08bf 3fcb ef3e a241 22bf
000002b0: 6a3f 09be 9a6e 1e3f 88da 7d3f 19e5 213e
000002c0: 3167 723f ae45 10be edb4 3fbf 0fdc 78be
000002d0: 78af 4d3f 8f24 1cbe 5b67 ec3e ee4e b53f
000002e0: 89e9 7ebf bd86 783e 6f7f 393f 6f0b 863e
000002f0: a4c6 903f 9931 0ebf d4db aa3e be39 433f
00000300: ecfe 42be 012c bf3e f2d1 cb3e 9fd2 babe
00000310: ab72 bcbd 17b3 183e 0993 0c3f ccb0 023f
00000320: 5986 d6bd 47d0 a2bc 2c80 0dbe cf50 d03e
00000330: 9125 25be 627e 99be c4dc 5ebf 3219 5f3f
00000340: 7851 ec3e ebc9 7a3f 93ff 10be 3b96 293f
00000350: 598d 6cbf 7cc1 9ebe ea03 35bf c708 a03e
00000360: e797 67be 250b 95be 8cbc 22bf ca71 5cbe
00000370: 32c1 3abd 7118 e4be 990b abbe 3cf8 d63e
00000380: b1a9 c5be 3344 843f 1151 28bf 0b3a c8be
00000390: d841 e63b 6a09 fc3f 4470 043c 398f 483f
000003a0: 018d 843f b678 4d3f ab2c 443f fa4f d13e
000003b0: 25b7 99bf 3f93 0bbf 4965 c53f 0524 4cbf
000003c0: 5da8 d23e 001c 84be 8b75 c03f 4c0d 49be
000003d0: d14c f6bd 12d5 adbd e7da dc3e f388 6d3f
000003e0: a851 ffbe 3597 10bf e510 a0be 346b 5abf
000003f0: 2b7e b3bf 21e9 5a3f 087a 9c3e f63a a83e
0.88535094 -0.8099419 0.5253647 0.020018497 -0.024971247 -1.2826489 0.11958803 0.98504937
-0.6730768 1.072028 0.18436119 1.0254637 -0.4171172 1.1799015 0.41019183 1.1475486
0.9495666 0.034240063 -0.14874911 -0.24625537 1.2016065 -0.73933065 -0.10082691 -0.14477825
-0.34538913 0.25866517 -0.19306725 -0.46229458 0.49150193 0.4012916 0.12414432 0.3697167
-0.12683016 1.0028604 0.17817119 -0.025556993 0.34592882 0.045270663 2.0280702 -0.3643484
-0.07218528 0.7586934 -0.3205402 0.50617105 -0.19842406 0.34381747 0.3933427 0.57017756
0.13850461 -0.7109137 0.45638764 -0.4276639 0.35158235 1.0992477 -0.040047854 -0.18515125
0.4847926 -0.32321623 1.3842602 -0.5970289 -0.5411384 -0.102610655 -1.017147 -1.6705275
0.17301197 0.82074404 0.4647116 0.27068424 0.3099477 0.47461295 -0.033239823 0.64707977
1.0289472 -1.7773874 0.43502304 -0.07404803 -0.04450085 0.7422794 0.3824051 -1.0716672
0.09320954 1.4435539 -0.98933005 0.21610579 -0.7699301 -0.062064867 0.25230083 0.46323153
1.0101731 0.98511887 -0.11157477 1.0461167 0.46892536 -0.12172659 0.40620166 0.4941289
0.30971086 0.519176 0.036279522 0.50787044 -0.061776195 -0.025036402 -0.21757603 -0.21147592
1.7564646 -0.20133774 0.50993866 1.1667926 0.49224982 0.33485088 0.4914357 1.1338927
-1.1040344 -0.81516296 -0.72141564 -0.90381056 0.05602439 0.0245221 -0.44982615 -0.4146344
-0.07549536 -0.46349832 -0.7327117 -0.6927567 -0.95301056 0.54848105 -0.08850493 -0.9076407
1.0170726 -0.25270817 0.4804252 -0.96432465 0.2243004 -1.061636 0.7946798 -0.188629
0.83509916 0.4956652 -0.6068551 0.34993613 -0.9177134 -0.20332193 0.6832935 -0.5680729
-0.5835087 -2.1014657 0.19259873 0.21066494 -0.62186164 -0.5996787 0.17518061 0.19877079
-0.66097665 -1.2780536 0.15433767 0.64657414 0.20998944 -0.83251464 0.3077197 1.4670416
0.19535819 0.72315985 0.39484546 -0.23933993 0.25667363 -0.12367793 -0.46209595 -0.10491091
-0.90927726 -0.5340341 0.46834752 -0.633814 -0.13403097 0.61887515 0.9916158 0.1581005
0.9468871 -0.1408908 -0.74885446 -0.24302696 0.8034587 -0.15248321 0.46172604 1.4164712
-0.99575096 0.24270149 0.72460073 0.26180598 1.131062 -0.5554443 0.3337084 0.7625998
-0.19042557 0.3733826 0.39808613 -0.36488816 -0.09201559 0.14912067 0.5491186 0.5105102
-0.104748435 -0.019874705 -0.13818425 0.40686652 -0.16127612 -0.29979235 -0.8705561 0.8714782
0.46155906 0.9796435 -0.14159994 0.6624486 -0.9240318 -0.31006992 -0.707091 0.31256697
-0.2261654 -0.29110065 -0.6356895 -0.21527782 -0.0455944 -0.44549897 -0.33407286 0.41986263
-0.38606027 1.0333313 -0.657487 -0.39106783 0.007026892 1.9690373 0.008083407 0.7834354
1.0355531 0.80262315 0.7663066 0.4088133 -1.2009016 -0.54521555 1.5421535 -0.7974246
0.41144076 -0.25802612 1.5035871 -0.19633979 -0.1202637 -0.084879056 0.4313576 0.9278709
-0.49866986 -0.56480724 -0.3126289 -0.8531983 -1.4022878 0.85511976 0.30561852 0.32857484

network_body._body_endoder.seq_layers.0.bias f4 [256]
00000000: 0000 0000 0000 0000 0000 0000 0000 0000
00000010: 0000 0000 0000 0000 0000 0000 0000 0000
00000020: 0000 0000 0000 0000 0000 0000 0000 0000
00000030: 0000 0000 0000 0000 0000 0000 0000 0000
00000040: 0000 0000 0000 0000 0000 0000 0000 0000
00000050: 0000 0000 0000 0000 0000 0000 0000 0000
00000060: 0000 0000 0000 0000 0000 0000 0000 0000
00000070: 0000 0000 0000 0000 0000 0000 0000 0000
00000080: 0000 0000 0000 0000 0000 0000 0000 0000
00000090: 0000 0000 0000 0000 0000 0000 0000 0000
000000a0: 0000 0000 0000 0000 0000 0000 0000 0000
000000b0: 0000 0000 0000 0000 0000 0000 0000 0000
000000c0: 0000 0000 0000 0000 0000 0000 0000 0000
000000d0: 0000 0000 0000 0000 0000 0000 0000 0000
000000e0: 0000 0000 0000 0000 0000 0000 0000 0000
000000f0: 0000 0000 0000 0000 0000 0000 0000 0000
00000100: 0000 0000 0000 0000 0000 0000 0000 0000
00000110: 0000 0000 0000 0000 0000 0000 0000 0000
00000120: 0000 0000 0000 0000 0000 0000 0000 0000
00000130: 0000 0000 0000 0000 0000 0000 0000 0000
00000140: 0000 0000 0000 0000 0000 0000 0000 0000
00000150: 0000 0000 0000 0000 0000 0000 0000 0000
00000160: 0000 0000 0000 0000 0000 0000 0000 0000
00000170: 0000 0000 0000 0000 0000 0000 0000 0000
00000180: 0000 0000 0000 0000 0000 0000 0000 0000
00000190: 0000 0000 0000 0000 0000 0000 0000 0000
000001a0: 0000 0000 0000 0000 0000 0000 0000 0000
000001b0: 0000 0000 0000 0000 0000 0000 0000 0000
000001c0: 0000 0000 0000 0000 0000 0000 0000 0000
000001d0: 0000 0000 0000 0000 0000 0000 0000 0000
000001e0: 0000 0000 0000 0000 0000 0000 0000 0000
000001f0: 0000 0000 0000 0000 0000 0000 0000 0000
00000200: 0000 0000 0000 0000 0000 0000 0000 0000
00000210: 0000 0000 0000 0000 0000 0000 0000 0000
00000220: 0000 0000 0000 0000 0000 0000 0000 0000
00000230: 0000 0000 0000 0000 0000 0000 0000 0000
00000240: 0000 0000 0000 0000 0000 0000 0000 0000
00000250: 0000 0000 0000 0000 0000 0000 0000 0000
00000260: 0000 0000 0000 0000 0000 0000 0000 0000
00000270: 0000 0000 0000 0000 0000 0000 0000 0000
00000280: 0000 0000 0000 0000 0000 0000 0000 0000
00000290: 0000 0000 0000 0000 0000 0000 0000 0000
000002a0: 0000 0000 0000 0000 0000 0000 0000 0000
000002b0: 0000 0000 0000 0000 0000 0000 0000 0000
000002c0: 0000 0000 0000 0000 0000 0000 0000 0000
000002d0: 0000 0000 0000 0000 0000 0000 0000 0000
000002e0: 0000 0000 0000 0000 0000 0000 0000 0000
000002f0: 0000 0000 0000 0000 0000 0000 0000 0000
00000300: 0000 0000 0000 0000 0000 0000 0000 0000
00000310: 0000 0000 0000 0000 0000 0000 0000 0000
00000320: 0000 0000 0000 0000 0000 0000 0000 0000
00000330: 0000 0000 0000 0000 0000 0000 0000 0000
00000340: 0000 0000 0000 0000 0000 0000 0000 0000
00000350: 0000 0000 0000 0000 0000 0000 0000 0000
00000360: 0000 0000 0000 0000 0000 0000 0000 0000
00000370: 0000 0000 0000 0000 0000 0000 0000 0000
00000380: 0000 0000 0000 0000 0000 0000 0000 0000
00000390: 0000 0000 0000 0000 0000 0000 0000 0000
000003a0: 0000 0000 0000 0000 0000 0000 0000 0000
000003b0: 0000 0000 0000 0000 0000 0000 0000 0000
000003c0: 0000 0000 0000 0000 0000 0000 0000 0000
000003d0: 0000 0000 0000 0000 0000 0000 0000 0000
000003e0: 0000 0000 0000 0000 0000 0000 0000 0000
000003f0: 0000 0000 0000 0000 0000 0000 0000 0000
0.0 0.0 0.0 0.0 0.0 0.0 0.0 0.0
0.0 0.0 0.0 0.0 0.0 0.0 0.0 0.0
0.0 0.0 0.0 0.0 0.0 0.0 0.0 0.0
0.0 0.0 0.0 0.0 0.0 0.0 0.0 0.0
0.0 0.0 0.0 0.0 0.0 0.0 0.0 0.0
0.0 0.0 0.0 0.0 0.0 0.0 0.0 0.0
0.0 0.0 0.0 0.0 0.0 0.0 0.0 0.0
0.0 0.0 0.0 0.0 0.0 0.0 0.0 0.0
0.0 0.0 0.0 0.0 0.0 0.0 0.0 0.0
0.0 0.0 0.0 0.0 0.0 0.0 0.0 0.0
0.0 0.0 0.0 0.0 0.0 0.0 0.0 0.0
0.0 0.0 0.0 0.0 0.0 0.0 0.0 0.0
0.0 0.0 0.0 0.0 0.0 0.0 0.0 0.0
0.0 0.0 0.0 0.0 0.0 0.0 0.0 0.0
0.0 0.0 0.0 0.0 0.0 0.0 0.0 0.0
0.0 0.0 0.0 0.0 0.0 0.0 0.0 0.0
0.0 0.0 0.0 0.0 0.0 0.0 0.0 0.0
0.0 0.0 0.0 0.0 0.0 0.0 0.0 0.0
0.0 0.0 0.0 0.0 0.0 0.0 0.0 0.0
0.0 0.0 0.0 0.0 0.0 0.0 0.0 0.0
0.0 0.0 0.0 0.0 0.0 0.0 0.0 0.0
0.0 0.0 0.0 0.0 0.0 0.0 0.0 0.0
0.0 0.0 0.0 0.0 0.0 0.0 0.0 0.0
0.0 0.0 0.0 0.0 0.0 0.0 0.0 0.0
0.0 0.0 0.0 0.0 0.0 0.0 0.0 0.0
0.0 0.0 0.0 0.0 0.0 0.0 0.0 0.0
0.0 0.0 0.0 0.0 0.0 0.0 0.0 0.0
0.0 0.0 0.0 0.0 0.0 0.0 0.0 0.0
0.0 0.0 0.0 0.0 0.0 0.0 0.0 0.0
0.0 0.0 0.0 0.0 0.0 0.0 0.0 0.0
0.0 0.0 0.0 0.0 0.0 0.0 0.0 0.0
0.0 0.0 0.0 0.0 0.0 0.0 0.0 0.0

network_body._body_endoder.seq_layers.2.weight f4 [256, 256]
00000000: 56c2 bbbc 64c0 9e3c fb7e 3cbd 6c90 83bd
00000010: 3bd9 7dbd 7c7a e3bc 3b92 ca3b 366e 533d
00000020: 5e9d 583d 5603 053c 87ad 81bc 67d4 913d
00000030: 67eb a0bb cee1 1c3d 0993 71bd 0447 f43c
00000040: 3281 41bc 5316 723d 8581 6d3d 1bc1 5a3d
00000050: 1078 f13c f4d0 003e 9134 5dbd cb0a 10bd
00000060: 6408 e23c 4c41 143d 6608 ffbb a3bd 913d
00000070: 9343 ccbd 1982 b13c 1413 f9bd 7a99 92bd
00000080: 28d3 b2bc ea1d 8dbd b2d3 b83d 915c 343d
00000090: e0fe 1abd f9be 853d d400 ea3d 60bb 90bd
000000a0: f1ef 81bd 4897 acbc 21e7 4ebc f404 43bd
000000b0: bb28 033c 3306 19bd 9c2c b439 2c64 8c3d
000000c0: 59f7 053d 9522 143c f859 173d 53e7 c83c
000000d0: 85f8 4bbd cafe a33c 1db5 e0bd b091 1d3c
000000e0: cb1f 3abe 7906 94bb 7b35 88bd e4c0 ff3d
000000f0: 6091 9bbd 2861 1ebd 523e 103c b25c 58bd
00000100: 1bd8 7fbd 2eb5 ab3b c5c0 233d 075d 8abd
00000110: 5373 133d c839 813d 6984 843d e444 d63a
00000120: 8b05 983d 039c c23d 11ff 6e3c 25c0 be3b
00000130: 9846 04bc b236 203e e251 a0bd 2d83 a5bd
00000140: ea07 833d 588c 743b 92a9 c0bd 7aad 6b3d
00000150: 4ea4 7fbc 3f87 2739 fe54 a63d df77 f73c
00000160: 3202 92bc 2147 893d 7383 22bc ab94 de3c
00000170: 870b 053c 46cc 113d 4a87 fe3d 1ca0 653d
00000180: 441e 81bd cf67 b7bc abf9 4539 7dd4 ad3c
00000190: 16ed 653d 8f32 b73d a8ea b6bd beb0 1ebd
000001a0: 3ad1 77bd f9c0 6f3d 8e9d fa3d 8599 a33c
000001b0: 441d 803c e8b1 013d aacf 913c 8288 9ebb
000001c0: 87af 643c 2eb5 373d c2af 19be ba37 a03b
000001d0: 2d61 2c3d 27f9 03be 54d6 7cbd fa88 bb3d
000001e0: dcea e53d 8530 a23c ce5c b4bd fc51 a23c
000001f0: 744b 93bc 7adb 903c 83cc 57bd af96 15bd
00000200: 2c66 bebb 1ed4 9e3d 9e54 bdbd 96c1 0a3e
00000210: df89 45be b51d 11bc cd71 833d ad1d aabc
00000220: 0d79 903c 81c0 cf3c 1567 0cbd c46f 96bd
00000230: 7079 4dbd 6db7 7bbd da12 81bc 7832 533d
00000240: d639 953d 4a48 303d 43a7 f53c 4766 3b3d
00000250: 43dc bb3d 0990 8839 ef29 70bd b935 503d
00000260: 189b 783c 8423 a23c e8d5 003d d8cb 70bd
00000270: 9615 693d 0ed2 55bd f565 e6bc 60da 84bd
00000280: 8c18 81bd dfd5 3b3d b802 a63d e7c6 d23c
00000290: 864f 55bb 06d8 323d bf4e 6c3d 7899 2abd
000002a0: 637c ae3c c3ef c9bc f66f 073d 65b4 283d
000002b0: 7363 44bd 0b73 33be b183 80bd cd32 fa3a
000002c0: 89f8 883d 38d5 f83c 33b2 95bc 3eaa a23b
000002d0: ab84 923d e44b 9c38 ad66 f73d dfa0 983d
000002e0: 4c91 b2bb 95c9 74bd 1f54 263d 48b1 a8bd
000002f0: 7d66 1b3d 8c16 0abe 9b15 cc3d 9705 503e
00000300: e9ee 1e3d 00d8 d03c 102c 67bd d43c 133c
00000310: 8ae6 5b3d d89c be3c ede2 e03d 46cc 53bc
00000320: 8e81 d5bc 495b 873d 01e4 0bbd 2e13 a8bd
00000330: f266 6e3d 839f 853d 404f 2bbc 3365 abba
00000340: d60e a93d 9a82 813d bc09 b0bd bd32 d23d
00000350: 170e 9c3c 04f0 54bd 4df6 373d 189a 513b
00000360: 17f9 59bd b6b0 533b f5a3 03bc 24e6 32bd
00000370: bebf 0a3e ff9f 783b d8be 72bd cfff cd3c
00000380: 6808 703b adf7 83bb 347c e6bd c50a 16bc
00000390: 0f5a 003d 33a6 393d 1f9b bcbd 376e 0abc
000003a0: a249 8ebc 7892 6cbc 8acd 08bd 28e1 58bd
000003b0: 21f4 aa3d 46f1 9f3d 7454 fd3d f548 5c3d
000003c0: 992a 823d 780f 9c3d 3d43 a5bc a6ba 6abc
000003d0: b8d2 8c3d 80f7 483d 3937 93bd 76b0 833c
000003e0: 5f35 ca3b e134 053c 91a2 45bd a3ef 28bd
000003f0: c5d2 31bc 3075 b9bd 26fe c0bd 5cc1 0f3d
-0.022919815 0.019378848 -0.046019536 -0.06424031 -0.061974745 -0.027768366 0.006181983 0.051618777
0.052884452 0.008118471 -0.015829815 0.07120591 -0.0049108746 0.03830128 -0.058978114 0.02981902
-0.011810588 0.05910332 0.057984848 0.053406816 0.029476196 0.1257971 -0.05400521 -0.035166543
0.027591892 0.036195084 -0.0077829836 0.071162485 -0.09973826 0.02166848 -0.12161842 -0.071581796
-0.021829203 -0.06890471 0.09024753 0.04403359 -0.037840724 0.06530566 0.11425939 -0.07066989
-0.06344593 -0.02106823 -0.012628348 -0.047612146 0.008005316 -0.037359428 0.00034365512 0.06855044
0.032706592 0.009041448 0.036951035 0.024524366 -0.049797554 0.020018954 -0.109720446 0.009617254
-0.1817619 -0.004517373 -0.066508256 0.12487963 -0.075960875 -0.038666874 0.008803921 -0.052822776
-0.062461954 0.005240104 0.03997876 -0.06756025 0.035998654 0.06309849 0.06470568 0.0016347435
0.07422932 0.09502413 0.01458718 0.0058212453 -0.0080734715 0.15645865 -0.07828118 -0.080816604
0.06397994 0.0037315097 -0.09407343 0.057538487 -0.015603138 0.00015976744 0.0812168 0.030208526
-0.017823312 0.0670302 -0.009919035 0.0271705 0.008120424 0.0355952 0.12428148 0.056060895
-0.06304601 -0.022388367 0.00018880393 0.021219486 0.056134306 0.0894519 -0.08931476 -0.038742773
-0.06050227 0.058533642 0.122370824 0.019970665 0.015638955 0.031663805 0.017799217 -0.0048380503
0.013957865 0.04485052 -0.15008453 0.0048894556 0.04208486 -0.12888013 -0.061727837 0.091569856
0.112264365 0.019798527 -0.088067636 0.019814484 -0.017980315 0.01768278 -0.052685272 -0.036520656
-0.0058105197 0.07755302 -0.09244655 0.1355041 -0.19290875 -0.00885718 0.0641819 -0.020766104
0.017635847 0.025360348 -0.034277994 -0.07345536 -0.05016464 -0.061454225 -0.01575606 0.051561803
0.07286422 0.04303769 0.029986983 0.045751836 0.09172871 0.00026047256 -0.05863374 0.050832484
0.015173696 0.019792326 0.031453997 -0.05878815 0.05690535 -0.052202277 -0.028124789 -0.06486964
-0.0630351 0.04585826 0.08105987 0.02572961 -0.003254862 0.043663047 0.057692286 -0.041650265
0.021299547 -0.02465046 0.03306576 0.041187663 -0.047946405 -0.17524354 -0.06275118 0.0019088626
0.06688029 0.030375108 -0.018273449 0.004964142 0.07154211 7.4527954e-05 0.12080131 0.07452559
-0.0054494496 -0.059762556 0.040607568 -0.08236939 0.037939537 -0.13485163 0.099650584 0.20314632
0.03880206 0.025493622 -0.056438506 0.0089866705 0.053686656 0.023268148 0.10980783 -0.012927121
-0.026062753 0.06609208 -0.03415299 -0.08206783 0.058203645 0.06524565 -0.010455906 -0.0013076424
0.08254783 0.063237384 -0.08595607 0.10263584 0.019049687 -0.05198671 0.044912625 0.0031982716
-0.053216066 0.0032301373 -0.008034696 -0.04367651 0.13549706 0.0037937162 -0.059264034 0.025146393
0.0036626104 -0.004027328 -0.112541586 -0.009157841 0.031335887 0.045324516 -0.092092745 -0.008449129
-0.017369095 -0.014439218 -0.033399142 -0.0529491 0.08347345 0.07809691 0.12369624 0.053780515
0.06355781 0.07620138 -0.020173663 -0.014326727 0.06876129 0.04906416 -0.07188267 0.016075354
0.006170913 0.008130283 -0.04825074 -0.04124416 -0.010853474 -0.09055555 -0.09423475 0.03509651

network_body._body_endoder.seq_layers.2.bias f4 [256]
00000000: 0000 0000 0000 0000 0000 0000 0000 0000
00000010: 0000 0000 0000 0000 0000 0000 0000 0000
00000020: 0000 0000 0000 0000 0000 0000 0000 0000
00000030: 0000 0000 0000 0000 0000 0000 0000 0000
00000040: 0000 0000 0000 0000 0000 0000 0000 0000
00000050: 0000 0000 0000 0000 0000 0000 0000 0000
00000060: 0000 0000 0000 0000 0000 0000 0000 0000
00000070: 0000 0000 0000 0000 0000 0000 0000 0000
00000080: 0000 0000 0000 0000 0000 0000 0000 0000
00000090: 0000 0000 0000 0000 0000 0000 0000 0000
000000a0: 0000 0000 0000 0000 0000 0000 0000 0000
000000b0: 0000 0000 0000 0000 0000 0000 0000 0000
000000c0: 0000 0000 0000 0000 0000 0000 0000 0000
000000d0: 0000 0000 0000 0000 0000 0000 0000 0000
000000e0: 0000 0000 0000 0000 0000 0000 0000 0000
000000f0: 0000 0000 0000 0000 0000 0000 0000 0000
00000100: 0000 0000 0000 0000 0000 0000 0000 0000
00000110: 0000 0000 0000 0000 0000 0000 0000 0000
00000120: 0000 0000 0000 0000 0000 0000 0000 0000
00000130: 0000 0000 0000 0000 0000 0000 0000 0000
00000140: 0000 0000 0000 0000 0000 0000 0000 0000
00000150: 0000 0000 0000 0000 0000 0000 0000 0000
00000160: 0000 0000 0000 0000 0000 0000 0000 0000
00000170: 0000 0000 0000 0000 0000 0000 0000 0000
00000180: 0000 0000 0000 0000 0000 0000 0000 0000
00000190: 0000 0000 0000 0000 0000 0000 0000 0000
000001a0: 0000 0000 0000 0000 0000 0000 0000 0000
000001b0: 0000 0000 0000 0000 0000 0000 0000 0000
000001c0: 0000 0000 0000 0000 0000 0000 0000 0000
000001d0: 0000 0000 0000 0000 0000 0000 0000 0000
000001e0: 0000 0000 0000 0000 0000 0000 0000 0000
000001f0: 0000 0000 0000 0000 0000 0000 0000 0000
00000200: 0000 0000 0000 0000 0000 0000 0000 0000
00000210: 0000 0000 0000 0000 0000 0000 0000 0000
00000220: 0000 0000 0000 0000 0000 0000 0000 0000
00000230: 0000 0000 0000 0000 0000 0000 0000 0000
00000240: 0000 0000 0000 0000 0000 0000 0000 0000
00000250: 0000 0000 0000 0000 0000 0000 0000 0000
00000260: 0000 0000 0000 0000 0000 0000 0000 0000
00000270: 0000 0000 0000 0000 0000 0000 0000 0000
00000280: 0000 0000 0000 0000 0000 0000 0000 0000
00000290: 0000 0000 0000 0000 0000 0000 0000 0000
000002a0: 0000 0000 0000 0000 0000 0000 0000 0000
000002b0: 0000 0000 0000 0000 0000 0000 0000 0000
000002c0: 0000 0000 0000 0000 0000 0000 0000 0000
000002d0: 0000 0000 0000 0000 0000 0000 0000 0000
000002e0: 0000 0000 0000 0000 0000 0000 0000 0000
000002f0: 0000 0000 0000 0000 0000 0000 0000 0000
00000300: 0000 0000 0000 0000 0000 0000 0000 0000
00000310: 0000 0000 0000 0000 0000 0000 0000 0000
00000320: 0000 0000 0000 0000 0000 0000 0000 0000
00000330: 0000 0000 0000 0000 0000 0000 0000 0000
00000340: 0000 0000 0000 0000 0000 0000 0000 0000
00000350: 0000 0000 0000 0000 0000 0000 0000 0000
00000360: 0000 0000 0000 0000 0000 0000 0000 0000
00000370: 0000 0000 0000 0000 0000 0000 0000 0000
00000380: 0000 0000 0000 0000 0000 0000 0000 0000
00000390: 0000 0000 0000 0000 0000 0000 0000 0000
000003a0: 0000 0000 0000 0000 0000 0000 0000 0000
000003b0: 0000 0000 0000 0000 0000 0000 0000 0000
000003c0: 0000 0000 0000 0000 0000 0000 0000 0000
000003d0: 0000 0000 0000 0000 0000 0000 0000 0000
000003e0: 0000 0000 0000 0000 0000 0000 0000 0000
000003f0: 0000 0000 0000 0000 0000 0000 0000 0000
0.0 0.0 0.0 0.0 0.0 0.0 0.0 0.0
0.0 0.0 0.0 0.0 0.0 0.0 0.0 0.0
0.0 0.0 0.0 0.0 0.0 0.0 0.0 0.0
0.0 0.0 0.0 0.0 0.0 0.0 0.0 0.0
0.0 0.0 0.0 0.0 0.0 0.0 0.0 0.0
0.0 0.0 0.0 0.0 0.0 0.0 0.0 0.0
0.0 0.0 0.0 0.0 0.0 0.0 0.0 0.0
0.0 0.0 0.0 0.0 0.0 0.0 0.0 0.0
0.0 0.0 0.0 0.0 0.0 0.0 0.0 0.0
0.0 0.0 0.0 0.0 0.0 0.0 0.0 0.0
0.0 0.0 0.0 0.0 0.0 0.0 0.0 0.0
0.0 0.0 0.0 0.0 0.0 0.0 0.0 0.0
0.0 0.0 0.0 0.0 0.0 0.0 0.0 0.0
0.0 0.0 0.0 0.0 0.0 0.0 0.0 0.0
0.0 0.0 0.0 0.0 0.0 0.0 0.0 0.0
0.0 0.0 0.0 0.0 0.0 0.0 0.0 0.0
0.0 0.0 0.0 0.0 0.0 0.0 0.0 0.0
0.0 0.0 0.0 0.0 0.0 0.0 0.0 0.0
0.0 0.0 0.0 0.0 0.0 0.0 0.0 0.0
0.0 0.0 0.0 0.0 0.0 0.0 0.0 0.0
0.0 0.0 0.0 0.0 0.0 0.0 0.0 0.0
0.0 0.0 0.0 0.0 0.0 0.0 0.0 0.0
0.0 0.0 0.0 0.0 0.0 0.0 0.0 0.0
0.0 0.0 0.0 0.0 0.0 0.0 0.0 0.0
0.0 0.0 0.0 0.0 0.0 0.0 0.0 0.0
0.0 0.0 0.0 0.0 0.0 0.0 0.0 0.0
0.0 0.0 0.0 0.0 0.0 0.0 0.0 0.0
0.0 0.0 0.0 0.0 0.0 0.0 0.0 0.0
0.0 0.0 0.0 0.0 0.0 0.0 0.0 0.0
0.0 0.0 0.0 0.0 0.0 0.0 0.0 0.0
0.0 0.0 0.0 0.0 0.0 0.0 0.0 0.0
0.0 0.0 0.0 0.0 0.0 0.0 0.0 0.0

network_body._body_endoder.seq_layers.4.weight f4 [256, 256]
00000000: 393e 6c3b b725 0abe bdd8 493d b7a0 823c
00000010: 0aa7 a73c 562c b7bc 2cc2 edbb 5aed 8dbc
00000020: 59e0 cc3b 6c05 1ebd c733 aebd 8148 5abd
00000030: acb6 d43c fd2a 223e e917 1bbd 375d a5bb
00000040: 4a9a 143d aca6 dbbc 2f53 c83c 04f9 533c
00000050: 6229 4e3d c318 86bd eeb9 323d 41ae c7bd
00000060: 54c7 6ebd d5de fe3c b421 f13d 0537 e93c
00000070: d493 043c 81b0 97bc a819 703c 0502 973d
00000080: 4c0a fbbc 3e6d 693d d224 b23c 15e4 d63d
00000090: 0aeb 413d 347b 2f3d 5bf4 fe3d ffc9 d53b
000000a0: 1267 283e 9951 b0bd 3b72 3d3d 5f0c 82bd
000000b0: 5d1c 5f3d 5ed8 973d cd79 47bc d99d b93b
000000c0: 8ce5 03bd 8839 9b3d 4578 c3bb 261a fbbc
000000d0: de0c be3d f90a 38bd e49b 323d 087b 34bc
000000e0: 588a acbd f37a 48bd 84e6 b23d 68a2 dcbd
000000f0: 7cb9 8b3d 4c15 e7bb e8ec 1d3d b562 133d
00000100: 4a64 74bd a531 3dbd 8671 043d 1c3b cebc
00000110: fe26 4dbd b36e 77bd f4b9 45bd 6107 18bd
00000120: 84b4 37bc 5abe a83d 5378 d1bb 42b6 c0bd
00000130: 2b37 d5bd 4d8c 3bbd 3ef3 7fbd 64df 0c3d
00000140: 992d 533d fac9 7f3b 248f c73c dc1a 88bd
00000150: e0e4 06bd 2706 fa3b 7ec0 bc3d fd93 78bd
00000160: d699 01be f6c7 27bd 6212 a83c a56f 6a3d
00000170: 916f 923d e0c4 d3bc 13fb 60bd a708 5d3c
00000180: 19f2 afbc 8d53 df3d 9f6e 873d 1db5 b73c
00000190: ea93 ebbc 76a0 aebc b50d a1bc cd0b c2bc
000001a0: de4d 1cbe c63c 863b 790d e73c 66ae 283d
000001b0: 74a6 0ebc 04f2 e6bc 3a1c 523d a03a a3bc
000001c0: 9996 38bc 96b1 533d d847 2b3c 56db 433d
000001d0: 9627 743b e04f 633c 342e 533c c439 b63c
000001e0: aeb0 ec3d 1f49 d2bd e719 9a3d 8e56 0cbd
000001f0: e36f a33c c602 e03d 870a 933c 361a 3d3d
00000200: 8967 b63b 59c5 023d 6e83 41bd 6240 8abd
00000210: c6b9 913d 91e7 f73b 9b25 52bd 1850 23be
00000220: e665 0abd 6aa2 aa3b 2c84 0ebd 845a d63c
00000230: ed37 4e3d 3772 51ba dbe3 813d ad79 84bd
00000240: 2b4b 803c d267 8bbd 7c15 cdbc 04bf ffbc
00000250: f5fa 24bd 36ee db3b df04 0fbd 347d f73b
00000260: d0d2 0b3e 59d6 d8bd c662 2ebc 585b b9bb
00000270: af01 5c3d 5b60 3fbd 370d 283d f4af bbbd
00000280: 712c 4cbd 406b 50bb 40d0 223e 9f08 ed3d
00000290: 61fb 9a3d a1e5 33bc 113d 3a3d 24c1 bb3b
000002a0: a537 76bd 5c74 a7bd 5d59 10bc f07c e73d
000002b0: b098 ba3c 8981 96bd 0742 cfbc 1358 1abe
000002c0: 5dfe ab3d 9d13 04be 8b4c 163e 5880 473c
000002d0: 57bd 613d 046d ca3d 1221 003e 8856 ba3c
000002e0: 71c8 983c 2172 a13d 9444 01bd af8b cfbb
000002f0: 5b33 b4bb 2404 ae3c 9c5c 72bd 4f00 283d
00000300: 0eb9 413d 44d1 71bd 21f2 623d 0596 31bd
00000310: ef75 953d f5e2 95bc 0d83 fabc 391a 12bd
00000320: 79e3 30bd 69e6 15bd 515e d1bc f261 363d
00000330: 7fe0 233d f005 293d 4398 8ebc b11f f43d
00000340: a1c6 3bbd fad5 083d ae84 90bd f309 a1bd
00000350: f7c2 7a3d e17f 68bd ed00 473d a849 583d
00000360: 0659 943c b8cb eabd 18d3 f1bd d1eb ffbb
00000370: 871a 16be fdb9 223c 5032 0d3d b47c 953c
00000380: 785d 313c d096 05bd d56d a2bc 8598 7fbc
00000390: d9fe 8d3d ba56 92bd b8cc 04bc 0c4e 51bd
000003a0: cb72 e438 451f 86bd 5e70 3dbc 2e67 943d
000003b0: 5b3e 5abc 0022 2fbd 38bc 95bc 7555 33bd
000003c0: 7ae2 99bd a2cf 20bd 804d 473e 7196 2ebe
000003d0: 55e6 3b3b 4f0b 793d 5e7c da3d c660 bc3d
000003e0: 9098 353d 130c 873d 85c0 5c3d 0ffa b13c
000003f0: 0903 133c 506b b2bc 762e 253c d46f 023e
0.003604783 -0.1349095 0.049278963 0.015945775 0.020465393 -0.022360008 -0.007255813 -0.017325092
0.0062523303 -0.03857939 -0.085059695 -0.0532918 0.025966011 0.15836711 -0.0378646 -0.0050465125
0.036279954 -0.026812874 0.024453728 0.012937788 0.050332434 -0.06547692 0.043634348 -0.09750033
-0.058295563 0.031112114 0.117740065 0.028468618 0.008091886 -0.01851678 0.014654554 0.07373432
-0.030644558 0.056988947 0.021746073 0.10492722 0.04734329 0.042842105 0.12448951 0.006524324
0.16445568 -0.086093135 0.046251517 -0.06350016 0.05447041 0.07414316 -0.012175036 0.005664569
-0.032201335 0.075793326 -0.005965265 -0.030652117 0.09279798 -0.04493234 0.0436057 -0.011015661
-0.084248245 -0.04894538 0.087353736 -0.10773164 0.06822488 -0.0070520993 0.03855601 0.035982806
-0.059665956 -0.046189923 0.032334827 -0.02517467 -0.050086014 -0.060408305 -0.04827304 -0.037116412
-0.011212472 0.08239432 -0.0063925176 -0.09409763 -0.10410913 -0.045788098 -0.062487833 0.03439273
0.051557157 0.00390303 0.024360247 -0.06645748 -0.032933116 0.007630128 0.092164025 -0.060688008
-0.1265634 -0.040962182 0.020516578 0.05723538 0.07150186 -0.025850713 -0.054926943 0.013490832
-0.021477746 0.10904608 0.06612896 0.022425229 -0.028757054 -0.021316748 -0.019659856 -0.023687268
-0.15264079 0.0040966 0.028204666 0.041181944 -0.008706678 -0.028191574 0.05129645 -0.019925416
-0.011266374 0.05168303 0.010454141 0.047816597 0.003725504 0.013874024 0.012889434 0.022244342
0.115571365 -0.10267853 0.07524472 -0.034262232 0.019950813 0.10938029 0.017949356 0.046167575
0.0055665416 0.031926487 -0.04724448 -0.06750561 0.071155116 0.0075654467 -0.051305395 -0.15948522
-0.033788584 0.0052073495 -0.034794018 0.026166208 0.050346304 -0.00079897366 0.06342288 -0.0646852
0.015660843 -0.068069115 -0.025034659 -0.031219013 -0.040278394 0.0067117466 -0.034916755 0.007552767
0.13654637 -0.105877586 -0.010643667 -0.005656641 0.053712543 -0.04672275 0.041028228 -0.0916442
-0.04984707 -0.0031802207 0.15899754 0.1157391 0.07567478 -0.010980041 0.045468394 0.0057298113
-0.06011166 -0.08176491 -0.008810368 0.11303127 0.022777885 -0.073489256 -0.025300039 -0.1507266
0.08398125 -0.12898107 0.14677636 0.012176596 0.05511221 0.09884074 0.12512615 0.02274634
0.018650265 0.078830965 -0.03155954 -0.0063337903 -0.005499286 0.021242209 -0.05917035 0.04101592
0.047295623 -0.059037462 0.055406693 -0.04335596 0.07297885 -0.018296698 -0.030580068 -0.03566954
-0.043185685 -0.03659669 -0.025557669 0.044527 0.040009018 0.041265428 -0.017406588 0.11920107
-0.045843724 0.03340719 -0.07056557 -0.07863226 0.06122109 -0.05676258 0.048584867 0.05280462
0.018108856 -0.114646375 -0.11807841 -0.007810094 -0.14658557 0.009932038 0.03447181 0.01824794
0.010825507 -0.03261453 -0.019827763 -0.015600328 0.06933374 -0.07145448 -0.008105449 -0.051099822
0.00010893269 -0.06548933 -0.011562435 0.072462425 -0.013320531 -0.042757034 -0.018278226 -0.04378267
-0.075139 -0.039260514 0.19463158 -0.17049576 0.0028671224 0.0608018 0.106682524 0.091981456
0.044334948 0.065941 0.05389454 0.021725683 0.008972892 -0.021779686 0.010081878 0.12737972

network_body._body_endoder.seq_layers.4.bias f4 [256]
00000000: 0000 0000 0000 0000 0000 0000 0000 0000
00000010: 0000 0000 0000 0000 0000 0000 0000 0000
00000020: 0000 0000 0000 0000 0000 0000 0000 0000
00000030: 0000 0000 0000 0000 0000 0000 0000 0000
00000040: 0000 0000 0000 0000 0000 0000 0000 0000
00000050: 0000 0000 0000 0000 0000 0000 0000 0000
00000060: 0000 0000 0000 0000 0000 0000 0000 0000
00000070: 0000 0000 0000 0000 0000 0000 0000 0000
00000080: 0000 0000 0000 0000 0000 0000 0000 0000
00000090: 0000 0000 0000 0000 0000 0000 0000 0000
000000a0: 0000 0000 0000 0000 0000 0000 0000 0000
000000b0: 0000 0000 0000 0000 0000 0000 0000 0000
000000c0: 0000 0000 0000 0000 0000 0000 0000 0000
000000d0: 0000 0000 0000 0000 0000 0000 0000 0000
000000e0: 0000 0000 0000 0000 0000 0000 0000 0000
000000f0: 0000 0000 0000 0000 0000 0000 0000 0000
00000100: 0000 0000 0000 0000 0000 0000 0000 0000
00000110: 0000 0000 0000 0000 0000 0000 0000 0000
00000120: 0000 0000 0000 0000 0000 0000 0000 0000
00000130: 0000 0000 0000 0000 0000 0000 0000 0000
00000140: 0000 0000 0000 0000 0000 0000 0000 0000
00000150: 0000 0000 0000 0000 0000 0000 0000 0000
00000160: 0000 0000 0000 0000 0000 0000 0000 0000
00000170: 0000 0000 0000 0000 0000 0000 0000 0000
00000180: 0000 0000 0000 0000 0000 0000 0000 0000
00000190: 0000 0000 0000 0000 0000 0000 0000 0000
000001a0: 0000 0000 0000 0000 0000 0000 0000 0000
000001b0: 0000 0000 0000 0000 0000 0000 0000 0000
000001c0: 0000 0000 0000 0000 0000 0000 0000 0000
000001d0: 0000 0000 0000 0000 0000 0000 0000 0000
000001e0: 0000 0000 0000 0000 0000 0000 0000 0000
000001f0: 0000 0000 0000 0000 0000 0000 0000 0000
00000200: 0000 0000 0000 0000 0000 0000 0000 0000
00000210: 0000 0000 0000 0000 0000 0000 0000 0000
00000220: 0000 0000 0000 0000 0000 0000 0000 0000
00000230: 0000 0000 0000 0000 0000 0000 0000 0000
00000240: 0000 0000 0000 0000 0000 0000 0000 0000
00000250: 0000 0000 0000 0000 0000 0000 0000 0000
00000260: 0000 0000 0000 0000 0000 0000 0000 0000
00000270: 0000 0000 0000 0000 0000 0000 0000 0000
00000280: 0000 0000 0000 0000 0000 0000 0000 0000
00000290: 0000 0000 0000 0000 0000 0000 0000 0000
000002a0: 0000 0000 0000 0000 0000 0000 0000 0000
000002b0: 0000 0000 0000 0000 0000 0000 0000 0000
000002c0: 0000 0000 0000 0000 0000 0000 0000 0000
000002d0: 0000 0000 0000 0000 0000 0000 0000 0000
000002e0: 0000 0000 0000 0000 0000 0000 0000 0000
000002f0: 0000 0000 0000 0000 0000 0000 0000 0000
00000300: 0000 0000 0000 0000 0000 0000 0000 0000
00000310: 0000 0000 0000 0000 0000 0000 0000 0000
00000320: 0000 0000 0000 0000 0000 0000 0000 0000
00000330: 0000 0000 0000 0000 0000 0000 0000 0000
00000340: 0000 0000 0000 0000 0000 0000 0000 0000
00000350: 0000 0000 0000 0000 0000 0000 0000 0000
00000360: 0000 0000 0000 0000 0000 0000 0000 0000
00000370: 0000 0000 0000 0000 0000 0000 0000 0000
00000380: 0000 0000 0000 0000 0000 0000 0000 0000
00000390: 0000 0000 0000 0000 0000 0000 0000 0000
000003a0: 0000 0000 0000 0000 0000 0000 0000 0000
000003b0: 0000 0000 0000 0000 0000 0000 0000 0000
000003c0: 0000 0000 0000 0000 0000 0000 0000 0000
000003d0: 0000 0000 0000 0000 0000 0000 0000 0000
000003e0: 0000 0000 0000 0000 0000 0000 0000 0000
000003f0: 0000 0000 0000 0000 0000 0000 0000 0000
0.0 0.0 0.0 0.0 0.0 0.0 0.0 0.0
0.0 0.0 0.0 0.0 0.0 0.0 0.0 0.0
0.0 0.0 0.0 0.0 0.0 0.0 0.0 0.0
0.0 0.0 0.0 0.0 0.0 0.0 0.0 0.0
0.0 0.0 0.0 0.0 0.0 0.0 0.0 0.0
0.0 0.0 0.0 0.0 0.0 0.0 0.0 0.0
0.0 0.0 0.0 0.0 0.0 0.0 0.0 0.0
0.0 0.0 0.0 0.0 0.0 0.0 0.0 0.0
0.0 0.0 0.0 0.0 0.0 0.0 0.0 0.0
0.0 0.0 0.0 0.0 0.0 0.0 0.0 0.0
0.0 0.0 0.0 0.0 0.0 0.0 0.0 0.0
0.0 0.0 0.0 0.0 0.0 0.0 0.0 0.0
0.0 0.0 0.0 0.0 0.0 0.0 0.0 0.0
0.0 0.0 0.0 0.0 0.0 0.0 0.0 0.0
0.0 0.0 0.0 0.0 0.0 0.0 0.0 0.0
0.0 0.0 0.0 0.0 0.0 0.0 0.0 0.0
0.0 0.0 0.0 0.0 0.0 0.0 0.0 0.0
0.0 0.0 0.0 0.0 0.0 0.0 0.0 0.0
0.0 0.0 0.0 0.0 0.0 0.0 0.0 0.0
0.0 0.0 0.0 0.0 0.0 0.0 0.0 0.0
0.0 0.0 0.0 0.0 0.0 0.0 0.0 0.0
0.0 0.0 0.0 0.0 0.0 0.0 0.0 0.0
0.0 0.0 0.0 0.0 0.0 0.0 0.0 0.0
0.0 0.0 0.0 0.0 0.0 0.0 0.0 0.0
0.0 0.0 0.0 0.0 0.0 0.0 0.0 0.0
0.0 0.0 0.0 0.0 0.0 0.0 0.0 0.0
0.0 0.0 0.0 0.0 0.0 0.0 0.0 0.0
0.0 0.0 0.0 0.0 0.0 0.0 0.0 0.0
0.0 0.0 0.0 0.0 0.0 0.0 0.0 0.0
0.0 0.0 0.0 0.0 0.0 0.0 0.0 0.0
0.0 0.0 0.0 0.0 0.0 0.0 0.0 0.0
0.0 0.0 0.0 0.0 0.0 0.0 0.0 0.0

action_model._discrete_distribution.branches.0.weight f4 [2, 256]
00000000: 95d6 a0bb bffd 1cbc a371 b33b b7cf 8b3b
00000010: 111b 0cbc 07fe bf3b 07f1 40bc cae1 1abc
00000020: eb1c 00bc 4201 a8bb b51b 283c 53a4 933a
00000030: 059a 7cbb 53b2 1bbc aae1 d33b b03c 54bb
00000040: c865 bcbb 12d5 cdba 3662 063c 1357 b83b
00000050: bb35 0bbc 30aa fd3b 6cca b6bb b557 9d3b
00000060: 421c f5bb f313 6c3c aae8 de3a b3e6 7a39
00000070: 5727 233b 1fce 63bc 017d 0c3c 6b31 303b
00000080: 17fc f9bb cf1c 073c 77d1 21ba 6361 383b
00000090: 7fb3 14bc 12b0 e2ba e2d3 fe3b 97f8 97ba
000000a0: 3fe1 3dbb cf57 263c 1840 22bc 4f46 433c
000000b0: e25d fc38 437f bfbb 9259 f439 c507 12bc
000000c0: 80d8 8dbb 8fe8 13bc 6d60 e4bb bfd2 953b
000000d0: 47e3 aaba 9245 b23b 8388 b4bb 2102 973a
000000e0: 27b5 65bb 288a d7bb 4e0a 1bbc 6324 87bc
000000f0: cfc8 803a 48f2 63b8 18fa 5d3b da9a 863b
00000100: 0db5 f83b 2e67 3ebb fa46 893a aa95 e73a
00000110: 5d99 e23a 8ac2 a7bb 96b1 40bb e0c5 28b8
00000120: 094d 383b 0d48 ceb8 9be6 06bc 0260 55bc
00000130: d153 af3b a226 5ebc 0824 a2ba 155c 013c
00000140: 4a05 33bb 96e7 aa3b 03f9 cd39 97e0 f9bb
00000150: eb2e 223c 58fc 1ebb a7e4 1c3b 4162 c6bb
00000160: 7418 023b 4981 21bc bf1b 98bb b1e8 39bc
00000170: 62c8 c2bb c62a 343a 6a8a a53a cac8 153c
00000180: df35 023c b298 f53a adcb 083c 2b54 7dbb
00000190: 8bae 05ba 1209 f43b b5ae 0a3c 66f0 953b
000001a0: 65dd 31b9 8789 873b d2f0 ddbb 9af8 63bb
000001b0: d2e8 2abb f30a 6a3c 832d 143b ca7c d23b
000001c0: 436e ee3b 49d7 cabb 9d0e c2bb 6020 e13b
000001d0: a43f 98b8 9feb 613c 1b1f 573b 7e3b ccbb
000001e0: 236c c3ba 44de 1cbb 0074 7d3c cc24 c0ba
000001f0: 9f92 2c3b 4662 0d3c 85fe 7bbb abb7 52bb
00000200: f616 c5bb 33c1 16bb e5f1 1d39 c708 85bb
00000210: 4500 14bc a559 09bc 1ff5 9abb c486 bdb9
00000220: c15e 1fba 1e10 453b 5efd 2abc c590 16bc
00000230: fd3e dcba cdf0 f7ba 0dfc 55b8 e7f2 ed3b
00000240: 6a63 a03b 571e f3bb 8589 673c 1f8e 083b
00000250: f883 e73b 5226 1f3c 8bdb 43bb e9ad adbb
00000260: 306a 8b3a 0900 133b 1f91 dc38 82fd 043c
00000270: 5daa 5ebc fa53 90bb a2c9 d8ba 832c 89bc
00000280: c73c 26bc bb67 933b 1a9c ceba e250 0a3c
00000290: 1594 bc3a bab0 5dbc f142 aebb 7055 523c
000002a0: 3898 46bb 6ba0 103c fd70 84bb 005d 0fbc
000002b0: 408c a8b9 9479 2fbb a2dc 5abb 4075 043c
000002c0: b855 6bbc cd07 a33a 8311 64bc c32a 543b
000002d0: 8ff3 a93b b343 62ba 9a08 ac3b 7372 7d39
000002e0: 3bc0 d6ba 2378 32bc fa66 e6ba d0ed fb3b
000002f0: 39ea c2bb 2a45 11bc 7f40 2cbc 3729 813b
00000300: fc2f 3ebb daca e23b e425 4c3a 5c4f a53b
00000310: 5d8d 4cbb 4315 80bb 415a cbbb f88f 35bc
00000320: 8cb4 403c 4b15 99bb e213 713b d131 0bbc
00000330: a724 d43b c37b fb3a 4590 373c 03fe 11bc
00000340: 232e 90ba 2dac 123b 7b48 c2bb db30 133a
00000350: 47dd 583b fffd 3c3b 3f36 feba 4f63 b4bb
00000360: 274c b73b 11d6 1cbb 1d50 6a3b d79e df3b
00000370: 7012 6a3b 6584 1c3c d95d 893b db65 66bb
00000380: db58 d43b ef24 f13b dfb9 bb3b 2c73 26bc
00000390: 3399 c8bb 5afe 5c3b 60a3 42bb 3d92 3cba
000003a0: 3542 5b3a 1d06 8f3b 5288 ee3b 4ff0 47ba
000003b0: 13c0 123c d0f0 183c fb65 19bc 3db1 fb3a
000003c0: b8ca 2ebc ef4c 29b9 162a 3bbb c763 9a3a
000003d0: 4ddb d2bb 2b20 3abc 1309 9dbb df06 58bc
000003e0: f799 c639 6ffe 303c afe5 2e3b 60b6 a9bb
000003f0: d2ae 1c3b 5e90 c239 79f4 243c 65b5 1aba
-0.0049083927 -0.009581982 0.005476193 0.004266705 -0.008551375 0.00585914 -0.011776215 -0.009453246
-0.007819395 -0.005127103 0.010260512 0.0011264182 -0.0038543951 -0.009502965 0.0064661102 -0.0032384805
-0.005749438 -0.0015703759 0.008202126 0.0056256144 -0.008496697 0.007741235 -0.00557833 0.0048017153
-0.0074801752 0.014409053 0.0017006595 0.000239278 0.0024895275 -0.013904124 0.008574725 0.0026884924
-0.0076289284 0.008246615 -0.00061728753 0.002813422 -0.009075998 -0.0017294905 0.0077767232 -0.0011594471
-0.0028973368 0.010152771 -0.009902976 0.011918618 0.000120337834 -0.005844028 0.00046606042 -0.008912985
-0.0043287873 -0.009027614 -0.0069695027 0.004572242 -0.0013037705 0.0054404223 -0.0055094375 0.001152102
-0.0035050602 -0.006577749 -0.009462906 -0.016496843 0.0009825471 -5.434666e-05 0.0033870991 0.004107815
0.0075899423 -0.00290532 0.0010473423 0.0017668505 0.0017288137 -0.0051196264 -0.0029402724 -4.0238607e-05
0.0028122088 -9.836266e-05 -0.008233692 -0.013023378 0.005350568 -0.0135590155 -0.0012370357 0.007895489
-0.0027316385 0.0052155955 0.00039286175 -0.00762565 0.009898881 -0.0024259295 0.0023939998 -0.0060541932
0.0019851 -0.009857484 -0.0046419795 -0.011346982 -0.0059442976 0.0006872829 0.0012629752 0.00914211
0.007947414 0.0018737523 0.008349341 -0.0038654904 -0.00050995563 0.0074473703 0.008464505 0.004575777
-0.00016962511 0.0041362676 -0.006773093 -0.003478563 -0.0026078713 0.014284837 0.0022610135 0.0064235674
0.007276328 -0.006190215 -0.005922152 0.0068703145 -7.259779e-05 0.013789087 0.0032824937 -0.006232678
-0.0014909547 -0.0023936192 0.015469551 -0.0014659404 0.002633251 0.008629387 -0.0038451266 -0.0032152932
-0.0060147 -0.002300334 0.000150628 -0.004059884 -0.009033267 -0.008383189 -0.0047289277 -0.00036149297
-0.0006079488 0.003006942 -0.010436384 -0.009189789 -0.001680344 -0.0018916369 -5.1017898e-05 0.007261622
0.0048946636 -0.0074193883 0.014131908 0.0020836664 0.0070652924 0.009713726 -0.0029885496 -0.0053002727
0.0010636505 0.002243044 0.000105174484 0.008117082 -0.013590422 -0.004404542 -0.0016539583 -0.016744858
-0.010146326 0.0044984496 -0.0015763075 0.0084421355 0.0014387394 -0.013530904 -0.0053180386 0.012837753
-0.0030303132 0.008827309 -0.0040417896 -0.0087502 -0.0003214795 -0.0026775347 -0.0033395668 0.008084595
-0.014363699 0.0012438238 -0.013920191 0.003237412 0.005186505 -0.0008631304 0.005250049 0.00024170596
-0.0016384193 -0.010892901 -0.0017578297 0.0076882616 -0.0059483317 -0.008866588 -0.010513424 0.003941681
-0.00290203 0.0069211544 0.00077876286 0.0050448608 -0.0031212189 -0.0039087846 -0.0062058275 -0.011081688
0.011761796 -0.004671728 0.0036785533 -0.008495764 0.006474096 0.0019186664 0.01120383 -0.008910659
-0.0011000078 0.0022380457 -0.0059290505 0.0005614885 0.0033090876 0.0028837917 -0.0019394829 -0.0055050026
0.005593795 -0.0023931304 0.0035753318 0.006824355 0.0035716556 0.00955305 0.0041920957 -0.0035155925
0.006480319 0.007359139 0.0057289447 -0.010159295 -0.0061217784 0.0033720941 -0.002969943 -0.0007193422
0.00083640526 0.0043647424 0.0072794342 -0.00076270563 0.008956927 0.009334758 -0.009362693 0.0019202601
-0.010668449 -0.00016145756 -0.002855902 0.0011779004 -0.006434834 -0.0113602085 -0.0047923415 -0.013185232
0.00037880216 0.010802849 0.0026687195 -0.0051792115 0.0023907912 0.00037110125 0.010068052 -0.00059016637

action_model._discrete_distribution.branches.0.bias f4 [2]
00000000: 0000 0000 0000 0000
0.0 0.0

54 f4 [2]
00000000: 1255 4246 d988 9143
12437.268 291.06912
