results/flappy_slowv2/FlappyBirdAgent/checkpoint.pt (torch, 148215 bytes, 19 tensors)

network_body.observation_encoder.processors.0.normalizer.running_mean f4 [2]
000000 a0 ac e0 3f ee 33 45 40
       1.7552681 3.0812945

network_body.observation_encoder.processors.0.normalizer.running_variance f4 [2]
000000 a7 c2 6e 45 16 c0 d8 45
       3820.1658 6936.0107

network_body.processors.0.normalizer.running_mean f4 [2]
000000 a0 ac e0 3f ee 33 45 40
       1.7552681 3.0812945

network_body.processors.0.normalizer.running_variance f4 [2]
000000 a7 c2 6e 45 16 c0 d8 45
       3820.1658 6936.0107

network_body._body_endoder.seq_layers.0.weight f4 [128, 2]
000000 63 58 d8 3f 5c c5 eb 3e f5 d7 32 3f 8c 76 51 3f
       1.6901973 0.4604901 0.69860774 0.81821513
000010 24 c5 25 3f 0f ee 9c 3f 30 60 c4 bf b4 79 42 3f
       0.6475394 1.226015 -1.5341854 0.75966954
000020 d1 32 57 bd 45 0a 38 3f eb b4 de be 0e 72 72 3e
       -0.052538697 0.7189067 -0.43497404 0.23676321
000030 23 f9 3e bf f0 df 66 3f cc af 69 bf 07 92 a1 3c
       -0.745989 0.9018545 -0.9128387 0.019722952
000040 e0 6a 2f bf a9 ef 3a 3e 63 dd b2 3d 5e e3 4a bf
       -0.68522453 0.18255486 0.087336324 -0.79253185
000050 5a 1a 29 bc 5e d8 a0 be 52 e0 23 3f a3 80 2b bf
       -0.010321224 -0.31415075 0.6401416 -0.6699316
000060 29 b3 d3 bf a6 08 14 bf c4 b0 6e be 3c cb a7 3e
       -1.653905 -0.57825696 -0.23309618 0.32772243
000070 be 8f 70 be 56 2a b5 be 81 15 33 3f c0 01 41 3d
       -0.23492333 -0.35383862 0.6995469 0.04712081
000080 8d 23 ba bd ad dd 8f bf b1 f5 6e bd 42 03 f2 3c
       -0.09088812 -1.1239525 -0.05833978 0.02954257
000090 fc be 9a bd d3 8f 4b be 1b d9 54 3e e1 e8 1b bf
       -0.07555959 -0.19879083 0.20785944 -0.6090222
0000a0 78 7d 4d bd a5 59 46 3e 88 8d ec 3f e8 a3 12 bd
       -0.050168484 0.19370134 1.8480692 -0.035800844
0000b0 13 36 da be 86 aa 3e 3f 59 f5 55 bf 66 4f dd be
       -0.4261938 0.7447895 -0.83577496 -0.4322464
0000c0 67 a3 09 bf 16 cc 7f be 0a 11 ed be d7 c1 af bd
       -0.5376496 -0.24980196 -0.46302062 -0.08581894
0000d0 18 e7 9f 3e c7 4f d3 3d cb a7 4b 3f c3 14 33 3f
       0.31230998 0.10317951 0.79552907 0.69953555
0000e0 c8 53 93 3f de 89 2d bf 4d 6b d5 bd e8 f7 b5 be
       1.1509943 -0.67788494 -0.104208566 -0.355407
0000f0 f3 1c 1a bf 56 58 29 bf 93 f2 ef be e7 8b 0b 3d
       -0.60200423 -0.66150415 -0.46864757 0.03406897
000100 56 4f 8b bf 23 06 1c 3f 1f 4c 91 bf eb af b1 bd
       -1.0883586 0.60946864 -1.1351355 -0.08676132
000110 b3 e9 cd be 90 9a 4d be 6b c8 87 3e a9 3a 0a be
       -0.4021736 -0.20078492 0.26520094 -0.1349894
000120 6d 4e 3f bf d5 2b 3f 3e 23 cd d7 bf bb 98 52 3d
       -0.74729043 0.18669064 -1.6859478 0.051415186
000130 86 9f 9b 3e c8 67 ae bd b2 63 97 3f 80 4b 36 3f
       0.30395144 -0.085158885 1.18273 0.71208954
000140 eb 12 19 3f 14 5e 63 3c 02 02 7b be 66 92 f4 bd
       0.5979449 0.01387741 -0.24512485 -0.11941986
000150 aa 22 d8 3c c2 65 1a 3f fa 4d b1 3f dc ef 0b bf
       0.026383717 0.6031152 1.3851922 -0.5466287
000160 18 b7 c7 3f 56 1e 3d 3f 7a c7 30 bf c9 6b c1 be
       1.5602751 0.73874414 -0.6905438 -0.37777546
000170 9a a2 96 3e d3 48 47 3f 83 96 d1 3e a8 13 fc 3d
       0.2942093 0.77845496 0.40935144 0.12308437
000180 b4 10 93 bf ec bc 53 3f f2 85 df bd 10 b4 36 3f
       -1.1489472 0.82710147 -0.1091422 0.71368504
000190 d2 88 22 3f 4b 9f be 3d 04 18 53 3e 75 1e a4 bd
       0.6349002 0.093077265 0.2061463 -0.08013622
0001a0 ca 07 c6 3d 12 fa a5 3e f1 73 f1 3e b6 5e b4 be
       0.096694544 0.3241735 0.4715877 -0.3522851
0001b0 7a c7 1f bf 16 2c 50 3d ec 91 91 3e 7c 61 48 be
       -0.6241375 0.050823294 0.28431642 -0.19568437
0001c0 1c ea f7 3e d0 a2 d2 be bc f4 96 3f e1 84 de be
       0.484208 -0.4113984 1.1793437 -0.43460754
0001d0 65 2f a2 be 89 10 ab 3e 86 8a 8f be a9 84 c9 be
       -0.31676784 0.33411053 -0.28035372 -0.39359024
0001e0 ee a4 40 3e d4 1e 0d bf b2 83 07 bf 10 7c f2 be
       0.18812916 -0.55125165 -0.52935326 -0.47360277
0001f0 4d ef 22 be 3f 5c 78 bf c3 88 12 bf 8d ad 79 3d
       -0.15911599 -0.97015756 -0.5723993 0.060956527
000200 42 45 11 bf 64 3b 93 bf 4c 21 fc be d0 2a ca 3e
       -0.56746304 -1.15025 -0.49244153 0.39485788
000210 ea 34 a5 bc ca 1a 61 3f aa 28 11 bd dd 76 9f bf
       -0.020166833 0.879315 -0.03543917 -1.2458149
000220 a1 13 fd bf da 6a fc 3e dc 38 21 3d e6 08 02 bf
       -1.9771615 0.4930027 0.039360866 -0.5079483
000230 0b e3 ac 3d 53 1e 3f be 22 78 d3 bf 06 ee 08 3f
       0.084417425 -0.18663912 -1.6521037 0.53488195
000240 64 91 2a be 1d 6e 5c be 1f 46 a5 3e c0 7c 80 be
       -0.16657025 -0.2152638 0.3228006 -0.25095177
000250 99 41 3f 3c 56 f6 0d 3f b1 52 22 3f 7b a7 96 3e
       0.011673355 0.55454004 0.6340743 0.29424652
000260 93 37 f6 be 6f 03 15 bf 46 13 df 3e b3 22 56 bf
       -0.48089275 -0.58208364 0.43569392 -0.83646697
000270 84 0f 7d be 93 19 fa 3e 68 36 53 bf 02 e3 da be
       -0.2471295 0.48847637 -0.8250489 -0.42751318
000280 ed be b0 3d 62 eb 74 3f f4 95 96 be 28 37 32 be
       0.08630166 0.95671666 -0.2941128 -0.17403853
000290 66 41 2c 3e f4 a9 6e bf dd 76 92 be 10 61 f9 be
       0.16821823 -0.9322808 -0.2860631 -0.48706865
0002a0 ff e8 2c bf 49 14 01 3f 18 92 71 3f f4 73 36 be
       -0.67543024 0.5042158 0.94363546 -0.1781767
0002b0 bf 5b d9 be ca 55 a0 3e 6d cb 38 3f 0c 87 cb 3f
       -0.4245281 0.31315452 0.72185403 1.5900588
0002c0 54 f3 b7 bd f2 33 4a bf ae 5d 77 bf e4 c3 cc 3e
       -0.08981958 -0.7898551 -0.9662732 0.39993203
0002d0 17 09 45 bd 9e ce 24 be 24 19 bc 3e 28 d3 27 3f
       -0.048104372 -0.16094443 0.3673793 0.65556574
0002e0 ce b7 4c 3f c6 7e 6a 3e c7 06 b8 bf 38 cc 8f bf
       0.79967964 0.22899923 -1.4377068 -1.1234198
0002f0 fa d3 f4 3e da ae 7b 3f a5 52 bc bc cc 50 10 bf
       0.47817975 0.9831368 -0.022988627 -0.56373286
000300 f4 c4 1b bf c7 85 63 3f b7 9b ae bf 0e 59 a7 3f
       -0.608474 0.88876003 -1.364127 1.3074052
000310 82 6f 1c bf 0b 9a 1a 3f d3 16 09 bf e3 21 4a bd
       -0.6110765 0.603913 -0.5355045 -0.049348723
000320 09 fa 24 bf f7 d0 5a 3f 6c c1 48 3e 4c 9d fd be
       -0.64444023 0.85475105 0.19605035 -0.4953407
000330 9e 95 90 3e 92 1e 49 3f 2c 58 23 bf 39 f8 5e bf
       0.2823915 0.7856227 -0.63806415 -0.8709751
000340 ee 33 31 3f 1f 58 de 3e 34 ae a1 bf 5e 12 d7 3e
       0.69219863 0.43426606 -1.2631288 0.420062
000350 c2 15 2e bd 5b 88 74 be 34 b2 35 bf 0e 1a 38 3f
       -0.04250122 -0.2388014 -0.7097504 0.71914756
000360 c7 f6 12 be 33 80 c7 be 3e d1 15 3e b3 b9 ad 3e
       -0.1435195 -0.38964996 0.14630601 0.3393074
000370 f5 1e 63 3f 8c 2b 43 3f b7 0a 0c bf af 74 83 bf
       0.8871911 0.7623832 -0.5470385 -1.0269984
000380 37 df 7e 3f 3a 8f 1f be 93 3a b8 bf e1 31 94 bf
       0.9955935 -0.1558198 -1.4392875 -1.1577722
000390 ce c3 8f 3e d0 01 a5 3c 37 62 73 3f 47 54 12 3f
       0.28079075 0.020142466 0.9507174 0.5715985
0003a0 51 d5 76 3e 48 a1 21 3e 25 a0 12 3f f5 3d 59 be
       0.24104811 0.1578418 0.5727561 -0.21215041
0003b0 05 3e 90 3e b9 c5 4a bb f0 ec a8 be ac 05 ad be
       0.28172317 -0.0030940606 -0.3299327 -0.3379339
0003c0 c2 80 83 3e d6 13 5f 3f a9 64 11 3e f1 67 ee 3d
       0.25684172 0.8713964 0.14198555 0.11640919
0003d0 eb 11 84 bf c2 08 24 3e b0 d2 34 bf b9 3d bb 3e
       -1.0317968 0.16018966 -0.70633984 0.36570528
0003e0 77 d3 a4 be c6 fc 9e be c5 60 2e 3f 17 f3 4b bd
       -0.32192585 -0.31052226 0.6811641 -0.049792375
0003f0 fe 83 ac 3f 97 2b e8 bd 35 20 4a 3f 6b 5d 13 3f
       1.3477781 -0.11336439 0.78955394 0.5756442

network_body._body_endoder.seq_layers.0.bias f4 [128]
000000 00 00 00 00 00 00 00 00 00 00 00 00 00 00 00 00
       0.0 0.0 0.0 0.0
000010 00 00 00 00 00 00 00 00 00 00 00 00 00 00 00 00
       0.0 0.0 0.0 0.0
000020 00 00 00 00 00 00 00 00 00 00 00 00 00 00 00 00
       0.0 0.0 0.0 0.0
000030 00 00 00 00 00 00 00 00 00 00 00 00 00 00 00 00
       0.0 0.0 0.0 0.0
000040 00 00 00 00 00 00 00 00 00 00 00 00 00 00 00 00
       0.0 0.0 0.0 0.0
000050 00 00 00 00 00 00 00 00 00 00 00 00 00 00 00 00
       0.0 0.0 0.0 0.0
000060 00 00 00 00 00 00 00 00 00 00 00 00 00 00 00 00
       0.0 0.0 0.0 0.0
000070 00 00 00 00 00 00 00 00 00 00 00 00 00 00 00 00
       0.0 0.0 0.0 0.0
000080 00 00 00 00 00 00 00 00 00 00 00 00 00 00 00 00
       0.0 0.0 0.0 0.0
000090 00 00 00 00 00 00 00 00 00 00 00 00 00 00 00 00
       0.0 0.0 0.0 0.0
0000a0 00 00 00 00 00 00 00 00 00 00 00 00 00 00 00 00
       0.0 0.0 0.0 0.0
0000b0 00 00 00 00 00 00 00 00 00 00 00 00 00 00 00 00
       0.0 0.0 0.0 0.0
0000c0 00 00 00 00 00 00 00 00 00 00 00 00 00 00 00 00
       0.0 0.0 0.0 0.0
0000d0 00 00 00 00 00 00 00 00 00 00 00 00 00 00 00 00
       0.0 0.0 0.0 0.0
0000e0 00 00 00 00 00 00 00 00 00 00 00 00 00 00 00 00
       0.0 0.0 0.0 0.0
0000f0 00 00 00 00 00 00 00 00 00 00 00 00 00 00 00 00
       0.0 0.0 0.0 0.0
000100 00 00 00 00 00 00 00 00 00 00 00 00 00 00 00 00
       0.0 0.0 0.0 0.0
000110 00 00 00 00 00 00 00 00 00 00 00 00 00 00 00 00
       0.0 0.0 0.0 0.0
000120 00 00 00 00 00 00 00 00 00 00 00 00 00 00 00 00
       0.0 0.0 0.0 0.0
000130 00 00 00 00 00 00 00 00 00 00 00 00 00 00 00 00
       0.0 0.0 0.0 0.0
000140 00 00 00 00 00 00 00 00 00 00 00 00 00 00 00 00
       0.0 0.0 0.0 0.0
000150 00 00 00 00 00 00 00 00 00 00 00 00 00 00 00 00
       0.0 0.0 0.0 0.0
000160 00 00 00 00 00 00 00 00 00 00 00 00 00 00 00 00
       0.0 0.0 0.0 0.0
000170 00 00 00 00 00 00 00 00 00 00 00 00 00 00 00 00
       0.0 0.0 0.0 0.0
000180 00 00 00 00 00 00 00 00 00 00 00 00 00 00 00 00
       0.0 0.0 0.0 0.0
000190 00 00 00 00 00 00 00 00 00 00 00 00 00 00 00 00
       0.0 0.0 0.0 0.0
0001a0 00 00 00 00 00 00 00 00 00 00 00 00 00 00 00 00
       0.0 0.0 0.0 0.0
0001b0 00 00 00 00 00 00 00 00 00 00 00 00 00 00 00 00
       0.0 0.0 0.0 0.0
0001c0 00 00 00 00 00 00 00 00 00 00 00 00 00 00 00 00
       0.0 0.0 0.0 0.0
0001d0 00 00 00 00 00 00 00 00 00 00 00 00 00 00 00 00
       0.0 0.0 0.0 0.0
0001e0 00 00 00 00 00 00 00 00 00 00 00 00 00 00 00 00
       0.0 0.0 0.0 0.0
0001f0 00 00 00 00 00 00 00 00 00 00 00 00 00 00 00 00
       0.0 0.0 0.0 0.0

network_body._body_endoder.seq_layers.2.weight f4 [128, 128]
000000 a9 76 f1 bc e5 b0 19 3d 96 ab fc bc 90 56 9c bb
       -0.029475527 0.037522215 -0.030843537 -0.0047710612
000010 9a 63 fe 3d d0 10 f6 bc 3b 29 69 3c ad a0 c4 bd
       0.12421341 -0.030037314 0.0142310215 -0.09600959
000020 c6 de ac bd f1 0d c5 3d 36 e8 28 bd ea 88 00 bd
       -0.08440928 0.096218 -0.04123708 -0.03138057
000030 4e 7f 2c 3c 42 e0 3a 3c 32 71 6a 3d cc 85 72 be
       0.010528399 0.011406006 0.057236858 -0.23683852
000040 d7 0a 7b 3b 95 a1 68 3d e9 ac e7 3d 0f 84 8b bc
       0.0038306022 0.05679472 0.11312277 -0.017030744
000050 18 24 d2 3c 72 48 47 3d dc 03 d8 3d bf d6 8d bd
       0.025651976 0.048653074 0.10547611 -0.06925725
000060 2b b4 50 3c 3c b3 89 bd 49 a8 73 bb 66 12 45 3d
       0.012738268 -0.06723639 -0.0037179163 0.04811325
000070 d1 10 a3 bd 91 39 0f 3e 80 e5 e3 bd 6a 33 64 3d
       -0.07962192 0.13986804 -0.11127758 0.055713095
000080 10 68 21 3d 3c 79 9c bd e3 a1 e6 3d a5 0d 3c 3d
       0.039405882 -0.07640311 0.11261346 0.04591145
000090 0e 8e 7a bd b9 d4 26 bd e9 d3 38 bd a4 54 ee 3c
       -0.06117063 -0.040730212 -0.04512397 0.029093094
0000a0 c3 10 37 3d 02 67 46 3c 7c 89 11 bd 77 ef 41 3e
       0.04469372 0.01210952 -0.035531506 0.18939005
0000b0 2b 65 01 be 67 9f a4 bd bd 6f 5b 3c 08 96 10 3e
       -0.12636249 -0.08038216 0.01339334 0.14119732
0000c0 ec 71 0f bd 28 6a 9a 3c 79 77 cc 3d 84 4b 81 bd
       -0.035020754 0.018849447 0.09983725 -0.063132316
0000d0 e6 1d 2d bd 1d 58 7a bd da 0a e2 bd 0e e6 b0 bd
       -0.04226484 -0.061119188 -0.11037226 -0.086376294
0000e0 fb 2b f6 bc 0c a7 6d bc 31 1c c1 bd 62 01 9b bd
       -0.030050268 -0.014505159 -0.09429205 -0.07568623
0000f0 19 cd 41 3d 81 23 09 bd 05 a3 aa bc 3a 77 23 3e
       0.047314737 -0.033481125 -0.020829687 0.1596345
000100 27 cf 24 be ca 1d 6a 3d 6e 48 62 3d 15 26 54 bd
       -0.16094647 0.057157315 0.055244856 -0.05179413
000110 52 f5 8d bd 16 c8 b0 3b 93 44 d0 bd d5 50 95 3d
       -0.06931557 0.005394946 -0.101693295 0.07290808
000120 a3 0c a7 bd 5a 77 db 3d 33 31 49 bd 01 9a 33 bd
       -0.08156707 0.10716124 -0.049119186 -0.04384804
000130 5a da 80 bd ed 36 84 3d 0e b1 c3 3d f6 4c 1d 3d
       -0.06291647 0.06455789 0.09555255 0.038403474
000140 94 5e 12 3c a4 fa 42 3e d7 e0 81 3d a4 e9 a5 3c
       0.008933682 0.19040924 0.06341713 0.02025301
000150 13 df 5a bd e1 0d ed 3c 6e 58 ed 3b ee 5e ce 3c
       -0.053435396 0.028937282 0.0072432077 0.02519175
000160 a2 7b e1 bc 08 8c ba 3d 49 e4 a9 3d 30 6b de 3d
       -0.027524773 0.0910874 0.08295495 0.10860288
000170 2f c5 c5 bd ed 91 d9 bb 0d ea 8d bd 5f e8 91 3d
       -0.096567504 -0.00663971 -0.06929407 0.071243994
000180 c3 75 ca 3d 45 8f 2d 3d d5 93 ff bd 6a 61 46 3d
       0.098857425 0.04237296 -0.124793686 0.048432745
000190 09 b6 61 bd 11 61 4f 3d 6b 26 bf 3c 56 b5 b3 bc
       -0.055105243 0.05062968 0.023333749 -0.021937054
0001a0 82 69 ac bc 83 72 47 be 16 c7 62 3d aa 84 ad 3c
       -0.021046404 -0.19477277 0.055365644 0.021181423
0001b0 b4 cf f3 bd 77 e1 20 3d 6a f8 ab 3d dd bd 12 bd
       -0.119048506 0.03927752 0.083969906 -0.0358256
0001c0 0f fe 8a 3d 52 4c d3 bc 05 e0 43 bd c9 70 2d bd
       0.06786739 -0.025793228 -0.047821064 -0.04234389
0001d0 86 db b8 bb f8 69 79 3d 84 47 5b 3d a2 2d 3b 3d
       -0.0056414036 0.060892075 0.053535 0.045697816
0001e0 1a 1e 0e be 74 c0 c5 bc 0d 89 4a 3e 66 b7 dc bd
       -0.1387867 -0.02413962 0.19778843 -0.10777168
0001f0 09 52 02 be 39 f9 b5 bd 71 d8 b9 bd ae e6 9d 3c
       -0.12726606 -0.08885426 -0.09074486 0.019275036
000200 ea d7 b5 bd c6 86 95 bd 87 a0 97 bd 0f 17 9f bd
       -0.08879073 -0.073010966 -0.07403665 -0.0776807
000210 9c 46 df 3b c8 31 bd bd 36 29 ba bd 6b aa 28 3e
       0.006813837 -0.09238011 -0.090898916 0.1647126
000220 78 65 24 3d 74 4e 67 bd 62 9a 1a be a7 41 1f be
       0.04013583 -0.056471303 -0.15097955 -0.15552388
000230 7b 5d 0e be ea 13 a6 bd c3 08 0a bd 75 4c 17 be
       -0.13902847 -0.08109267 -0.033699762 -0.1477526
000240 ba 52 19 bd 4e 7d 8c 3d c0 dd 85 3d e8 3c 0e 3c
       -0.03743241 0.068598375 0.06536436 0.008681513
000250 5d 32 5e bd a8 fc ee bc de 78 f6 bb 87 d3 34 3d
       -0.05424725 -0.02917321 -0.0075217327 0.04414704
000260 61 c7 17 3d b8 76 79 3d b2 2d 17 3e 47 30 cb 3c
       0.037055377 0.060904235 0.14763525 0.024803294
000270 e7 ec 88 3d f2 ff 60 39 a3 71 2d ba ea 4c bb 3d
       0.066858105 0.00021457652 -0.00066163595 0.091455296
000280 b7 df 97 bb 2f ae c6 bc f5 cd 37 3c f8 0e 7a bd
       -0.004634823 -0.02425298 0.011218538 -0.06104943
000290 28 1a 20 3e f3 1d f7 bc c1 3e 45 bd 50 0e 15 be
       0.15634978 -0.030165648 -0.04815555 -0.14556241
0002a0 fc 47 23 bd ef c0 d9 3a a8 e5 4b be 61 3e 09 3c
       -0.03986357 0.0016613285 -0.19911826 0.008376689
0002b0 1d b9 4a bd 25 7b 7c bd cc 6e b4 bc 97 c7 a5 bd
       -0.049492944 -0.061640877 -0.022025488 -0.08094709
0002c0 27 84 01 3d f5 ae 59 bd 13 f0 31 be d3 e7 1a 3d
       0.03162017 -0.053145368 -0.17376737 0.03781874
0002d0 92 3d a8 bd d2 32 09 3d 9a 12 4d be 95 4a 2c bd
       -0.082148686 0.03349573 -0.20026627 -0.042063314
0002e0 a1 a4 a7 3d ab f4 6c bd a2 da 1d be 09 95 23 3d
       0.08185697 -0.05785052 -0.15415433 0.039937053
0002f0 eb be 25 bd 4e 05 61 bc 9e 16 28 3e 87 73 bf 3d
       -0.040465277 -0.013734175 0.16414878 0.09348207
000300 05 42 99 3d aa 44 00 3d 65 c2 de 3d a1 5e 9e 3d
       0.07483295 0.031315483 0.108769216 0.07732893
000310 09 fc ce bd 54 e2 70 bd c1 a2 d7 bd b4 3a bc 3c
       -0.10106666 -0.058809593 -0.1052909 0.02297721
000320 7a 0a c0 bc 8c ad 9b 3d ca c9 74 3e cd e3 bc 3d
       -0.023442496 0.07601461 0.23905101 0.09223137
000330 d3 4f 17 3c 74 33 02 3e c2 5b f4 bb c1 43 9a bd
       0.00923534 0.1271494 -0.0074572274 -0.07532454
000340 2f bc 58 3c 0d c1 2c 3d d4 87 fd 3d b4 18 ef 3c
       0.01322846 0.042176295 0.12379423 0.029186584
000350 72 24 0b b9 df d1 23 3d a2 92 ea 3d 13 e9 20 3c
       -0.0001326965 0.03999507 0.11453749 0.009821194
000360 22 7b 9b bb c5 47 f2 3d 93 57 68 3d eb 61 38 be
       -0.004744903 0.11830095 0.056724142 -0.18006103
000370 c2 37 eb bd 30 1d 9c 3d 6e 68 36 3b 6b cf 58 3c
       -0.11485244 0.076227546 0.002783324 0.013233046
000380 63 df d3 bc b3 51 fd bd 7a 81 40 3c 0a 25 ce 3d
       -0.025863355 -0.123690985 0.01174962 0.100656584
000390 4f 42 0a 3e b2 b0 1d 3d 0c f9 99 bd 91 08 72 3c
       0.13501857 0.038498588 -0.07518205 0.01477255
0003a0 55 48 ac 3d af 16 48 bd d0 54 a2 3d 8f bb 6f bc
       0.08412234 -0.048849758 0.07926333 -0.01463212
0003b0 6f 32 10 be 38 d6 69 bc 24 a6 5d bb 7f 81 0e bd
       -0.14081739 -0.014272265 -0.0033820951 -0.034791466
0003c0 bf e5 ad 3d 13 e5 56 bd 17 9e a9 3c bb 68 50 3c
       0.08491086 -0.052464556 0.020705266 0.012720282
0003d0 f9 61 5c bb ab ee 02 3d 98 2f 1f 3e 0d 47 b3 bd
       -0.0033627732 0.031965893 0.155455 -0.08753786
0003e0 c9 01 d3 bd 25 d5 2c bd 98 5a b3 bd f7 7a f1 3c
       -0.10303075 -0.042195458 -0.08757514 0.02947758
0003f0 f0 ea 0e bd 48 bd 29 be da 15 80 3d 0f 04 1b b9
       -0.034892023 -0.16576111 0.06254168 -0.00014783464

network_body._body_endoder.seq_layers.2.bias f4 [128]
000000 00 00 00 00 00 00 00 00 00 00 00 00 00 00 00 00
       0.0 0.0 0.0 0.0
000010 00 00 00 00 00 00 00 00 00 00 00 00 00 00 00 00
       0.0 0.0 0.0 0.0
000020 00 00 00 00 00 00 00 00 00 00 00 00 00 00 00 00
       0.0 0.0 0.0 0.0
000030 00 00 00 00 00 00 00 00 00 00 00 00 00 00 00 00
       0.0 0.0 0.0 0.0
000040 00 00 00 00 00 00 00 00 00 00 00 00 00 00 00 00
       0.0 0.0 0.0 0.0
000050 00 00 00 00 00 00 00 00 00 00 00 00 00 00 00 00
       0.0 0.0 0.0 0.0
000060 00 00 00 00 00 00 00 00 00 00 00 00 00 00 00 00
       0.0 0.0 0.0 0.0
000070 00 00 00 00 00 00 00 00 00 00 00 00 00 00 00 00
       0.0 0.0 0.0 0.0
000080 00 00 00 00 00 00 00 00 00 00 00 00 00 00 00 00
       0.0 0.0 0.0 0.0
000090 00 00 00 00 00 00 00 00 00 00 00 00 00 00 00 00
       0.0 0.0 0.0 0.0
0000a0 00 00 00 00 00 00 00 00 00 00 00 00 00 00 00 00
       0.0 0.0 0.0 0.0
0000b0 00 00 00 00 00 00 00 00 00 00 00 00 00 00 00 00
       0.0 0.0 0.0 0.0
0000c0 00 00 00 00 00 00 00 00 00 00 00 00 00 00 00 00
       0.0 0.0 0.0 0.0
0000d0 00 00 00 00 00 00 00 00 00 00 00 00 00 00 00 00
       0.0 0.0 0.0 0.0
0000e0 00 00 00 00 00 00 00 00 00 00 00 00 00 00 00 00
       0.0 0.0 0.0 0.0
0000f0 00 00 00 00 00 00 00 00 00 00 00 00 00 00 00 00
       0.0 0.0 0.0 0.0
000100 00 00 00 00 00 00 00 00 00 00 00 00 00 00 00 00
       0.0 0.0 0.0 0.0
000110 00 00 00 00 00 00 00 00 00 00 00 00 00 00 00 00
       0.0 0.0 0.0 0.0
000120 00 00 00 00 00 00 00 00 00 00 00 00 00 00 00 00
       0.0 0.0 0.0 0.0
000130 00 00 00 00 00 00 00 00 00 00 00 00 00 00 00 00
       0.0 0.0 0.0 0.0
000140 00 00 00 00 00 00 00 00 00 00 00 00 00 00 00 00
       0.0 0.0 0.0 0.0
000150 00 00 00 00 00 00 00 00 00 00 00 00 00 00 00 00
       0.0 0.0 0.0 0.0
000160 00 00 00 00 00 00 00 00 00 00 00 00 00 00 00 00
       0.0 0.0 0.0 0.0
000170 00 00 00 00 00 00 00 00 00 00 00 00 00 00 00 00
       0.0 0.0 0.0 0.0
000180 00 00 00 00 00 00 00 00 00 00 00 00 00 00 00 00
       0.0 0.0 0.0 0.0
000190 00 00 00 00 00 00 00 00 00 00 00 00 00 00 00 00
       0.0 0.0 0.0 0.0
0001a0 00 00 00 00 00 00 00 00 00 00 00 00 00 00 00 00
       0.0 0.0 0.0 0.0
0001b0 00 00 00 00 00 00 00 00 00 00 00 00 00 00 00 00
       0.0 0.0 0.0 0.0
0001c0 00 00 00 00 00 00 00 00 00 00 00 00 00 00 00 00
       0.0 0.0 0.0 0.0
0001d0 00 00 00 00 00 00 00 00 00 00 00 00 00 00 00 00
       0.0 0.0 0.0 0.0
0001e0 00 00 00 00 00 00 00 00 00 00 00 00 00 00 00 00
       0.0 0.0 0.0 0.0
0001f0 00 00 00 00 00 00 00 00 00 00 00 00 00 00 00 00
       0.0 0.0 0.0 0.0

action_model._discrete_distribution.branches.0.weight f4 [2, 128]
000000 ef 6d 1a bc b7 21 08 bb bf 42 5a bc cc a6 1f bc
       -0.009425624 -0.0020772049 -0.013321578 -0.009744357
000010 2f c4 1c bc 88 51 13 bb c3 a7 c8 3b 5f d9 0b bc
       -0.009568258 -0.0022479016 0.0061235144 -0.008535712
000020 06 8c b3 bb 6b b5 a6 3b 86 b2 0c 3c b2 b4 5d 39
       -0.0054793386 0.0050875447 0.008587485 0.00021143517
000030 63 f1 3b bc bf f9 c8 3b 46 ea 82 bb a0 34 69 bb
       -0.011471125 0.0061332877 -0.0039952127 -0.0035584345
000040 1b 19 a0 3b aa 6f b3 3a 4f 47 4c bc e4 29 36 3b
       0.0048858053 0.0013689895 -0.012468173 0.0027795965
000050 5f 39 2a bc d7 e9 8b bb df c2 d2 bb 11 07 92 bc
       -0.010389655 -0.0042698192 -0.006431922 -0.017825635
000060 53 96 fc 3b 33 5c 1d ba 0f b6 65 bb 65 07 cb 3b
       0.0077083497 -0.00060028135 -0.0035051142 0.00619595
000070 6b 1d 73 3c 3d b6 71 3c ed e0 1b 3c 03 4c e7 bb
       0.014838557 0.014752922 0.009514076 -0.007058622
000080 ce 0f 8d ba 2a 64 57 3b 17 55 ca 3a 7f 91 37 bb
       -0.0010762156 0.00328661 0.0015436736 -0.0028010306
000090 b2 90 27 b9 cc 0e 15 bc df 67 47 3c 5b 0e 46 3b
       -0.00015980264 -0.009097766 0.012170761 0.003022096
0000a0 fb bd 75 3c d6 40 81 3b 97 40 37 3b d3 dc fa bb
       0.014998908 0.0039444966 0.0027962083 -0.007655719
0000b0 53 12 3d 3b 7d b5 51 bc df 3b 3f 3c aa 89 ce 3a
       0.0028850033 -0.012799618 0.011671989 0.001575758
0000c0 ee 35 3d bc 9f 13 3b 3c a0 30 5e bc 83 e3 51 3b
       -0.011548502 0.011418252 -0.013561398 0.0032026477
0000d0 ef 61 87 3c 24 c1 1c 3c c6 68 02 3c b8 db cb bb
       0.01652619 0.009567533 0.00795955 -0.006221261
0000e0 57 a6 2e bc 0e 8c 8e 3b 6b 2c 64 bc 42 b8 fa 3a
       -0.010659776 0.004350192 -0.013926606 0.00191284
0000f0 95 c8 37 ba 83 11 0c bc b2 f1 38 bb 3f 4e ba ba
       -0.0007010785 -0.008549097 -0.0028220234 -0.0014213993
000100 6f 8d 4d 3c 03 a9 ed 3c a8 61 5b 3c 22 1d ee 3b
       0.012545927 0.029011255 0.013389982 0.0072666565
000110 5b f4 2a 3c a4 69 02 bb 50 32 81 3b 7c ad a6 3a
       0.010434235 -0.0019899393 0.0039427653 0.0012716497
000120 b6 36 49 ba 9e b3 0d 3a 5b 15 75 3b 76 87 b9 3b
       -0.0007675694 0.0005405488 0.0037396762 0.0056619
000130 bd 66 40 3b ab 5f 6f 3c 8a 0c 65 bb 03 8b 96 bb
       0.0029358112 0.014610211 -0.00349501 -0.004594208
000140 65 b6 f9 bb 55 6a e4 ba bb a4 f4 3a f8 59 64 bc
       -0.00762062 -0.0017426709 0.0018664816 -0.013937466
000150 2f 0e 52 bb de dd bb 3b d7 a9 f2 3b 45 e3 4e ba
       -0.003205191 0.0057332357 0.0074055004 -0.0007892142
000160 07 2a cc bb a1 2a 1c b9 6a 1a fe 3a 75 d9 f8 bb
       -0.006230596 -0.000148932 0.0019386534 -0.0075942823
000170 95 b2 a9 bb 4c 5f 0c 3c 5a 35 75 bc 5f df aa 3b
       -0.0051787593 0.008567642 -0.014966333 0.005214616
000180 07 51 8d bb 99 c6 99 3c c1 63 80 bb 37 33 56 bb
       -0.0043126377 0.018771457 -0.0039181416 -0.0032684335
000190 46 a9 c0 bb 85 a8 4c 3c 65 63 b8 3b 25 aa 19 bc
       -0.005879554 0.01249135 0.005627083 -0.0093789445
0001a0 23 6e bc 3a 8b c3 a0 bc 4a df 50 bc 6b fa 99 bc
       0.0014376085 -0.019624492 -0.012748549 -0.018796166
0001b0 cd 4f 60 bb 17 cc d1 b9 f8 ca bb bc 73 19 36 bc
       -0.0034227252 -0.00040015645 -0.022923931 -0.011114466
0001c0 db e5 90 39 d7 bc 0a 3b f2 45 83 bb 3d db d4 b9
       0.00027637076 0.0021169686 -0.004006141 -0.00040599136
0001d0 ab dd 20 3c 74 32 8b 39 9d c4 68 bc a3 da 3f ba
       0.009818475 0.00026549737 -0.0142070325 -0.0007318651
0001e0 95 8f 0d bc cb 45 03 bc c4 0e ca 3a b0 d5 48 bb
       -0.00864019 -0.008012245 0.0015415777 -0.0030644946
0001f0 d8 e4 48 3c 05 a3 af 3b bb 53 a6 3c 73 8f 0f bc
       0.012261592 0.0053600096 0.020303598 -0.008762228
000200 32 ed aa 3b 62 61 52 bb d9 70 22 3c fa 21 04 bc
       0.005216264 -0.0032101502 0.0099146 -0.008064741
000210 3e f8 19 3c 74 5a 3a bb fb f4 d7 3b e8 ba 73 bb
       0.009397564 -0.0028435262 0.0065904832 -0.0037190262
000220 c3 1e a5 3b 4d 83 1a 3c ff 9d 13 3a 23 3c e3 bb
       0.0050390675 0.009430719 0.0005631148 -0.006934659
000230 9d ba 8d bc 17 72 1a 3c 3e 09 a4 ba 22 e7 d6 b9
       -0.017300898 0.009426615 -0.0012514961 -0.00040989468
000240 01 91 8e 3b b4 f6 91 3a 7a fb 43 bb eb 6c 69 3b
       0.004350782 0.0011136145 -0.002990453 0.0035617899
000250 ab 64 5b bb d3 60 fe 3b db 4d 28 3c b7 40 91 3c
       -0.003347675 0.007763007 0.010272468 0.017731054
000260 bf d9 bc bb 2b 9d 89 bb ff 93 d6 3a f2 81 0c bc
       -0.005763262 -0.004199644 0.001637101 -0.008575903
000270 65 7c 40 bc 62 a8 65 3b e5 10 7e 3c 4f d5 92 3b
       -0.011748408 0.003504299 0.015506958 0.004480995
000280 09 ca 20 bc 97 ff 32 3b 83 d7 f5 ba 37 4e 1a bc
       -0.009813794 0.0027312988 -0.0018756244 -0.009418062
000290 87 25 66 bb cf 2a 3d bb 50 e3 54 bc 13 f7 46 3b
       -0.0035117583 -0.0028864627 -0.012993649 0.003035967
0002a0 55 ec 46 bb 82 4d 71 3c c7 63 ea 3b 82 d6 14 3c
       -0.0030353267 0.014727952 0.0071530077 0.009084346
0002b0 33 c3 1f bc ae da 80 3b 8d 7e 13 bc c8 71 6f bc
       -0.009751129 0.0039323187 -0.00900234 -0.01461453
0002c0 b7 9a 94 bb c2 98 60 bc d7 ff c7 bb 9f bf 2f bc
       -0.004535045 -0.013708295 -0.0061034965 -0.010726838
0002d0 2e 1b 92 3b 15 fd 5b bc ef 99 7f 3c 43 7b e6 bc
       0.0044588065 -0.013427039 0.0156006655 -0.028134948
0002e0 af 42 20 3b db 71 64 3c f7 31 b7 3c 8d e6 ed bb
       0.002445381 0.013943161 0.022362692 -0.00726015
0002f0 20 c2 50 bc fa ea 84 3c dd 9e b1 b9 6a 06 ed 3b
       -0.0127415955 0.016225327 -0.00033878433 0.0072334306
000300 e5 f0 84 39 55 0b b5 bb 8b 32 b4 bb 7a 12 26 3c
       0.00025356482 -0.0055250325 -0.0054991893 0.010136241
000310 f9 bd 02 bc 66 72 83 bc b6 97 c1 bb 82 35 39 bb
       -0.007979863 -0.01604576 -0.005907978 -0.0028260653
000320 67 19 1d 3c ea fe 7f 3c 1c 2d cb 3b 45 04 e8 ba
       0.009588576 0.015624741 0.006200446 -0.0017701468
000330 7f b4 a4 bb 9a a0 6f 3c 73 49 35 bc 73 c3 18 bc
       -0.0050263996 0.014625693 -0.011064875 -0.0093239425
000340 eb 2e cf bb 4f 89 f8 ba 33 75 17 bc f8 f1 6d 3a
       -0.0063227317 -0.001896182 -0.009244251 0.00090768887
000350 da 6f e0 bb 13 ea 24 39 dd 1a 59 3c 58 fc da 3a
       -0.0068492712 0.00015727458 0.013251034 0.0016707284
000360 bf bd 46 bc 80 cd 13 bc 12 75 0d bc a7 4f f0 3a
       -0.0121302 -0.009021163 -0.008633869 0.0018334285
000370 e7 42 73 bb cc ee 88 3c 8b 01 0e 3b f3 3e 5b bc
       -0.0037118734 0.01671543 0.00216684 -0.0133817075
000380 b2 7a 57 3c cd 3e 76 3b 63 6b 29 bc e3 89 2c 3c
       0.013151811 0.0037574053 -0.010340544 0.010530922
000390 12 5d 8b bc cf 41 e5 3b f7 5a c4 bb a4 44 a5 3a
       -0.017012153 0.0069963704 -0.005992289 0.0012608957
0003a0 0f a4 5e bc ab 2c 7a 3b 27 c4 a1 bc 22 ff 82 3c
       -0.013588919 0.0038173597 -0.019746853 0.015990797
0003b0 ca 22 8b 3b 7f 67 64 3c 7b dd 32 bc 47 65 af 3b
       0.0042460905 0.013940691 -0.010917063 0.0053526494
0003c0 2a 48 10 3c 15 76 fb b8 c6 a6 47 3c de 76 07 bc
       0.008806268 -0.00011990607 0.012185758 -0.008268086
0003d0 27 4f 20 bb b0 1e 60 bc 87 ab 89 bb a8 64 eb bb
       -0.002446124 -0.0136791915 -0.004201356 -0.00718363
0003e0 9a d4 5c bc 93 72 d5 ba 10 e8 ed 3a 8b d0 51 3b
       -0.013478423 -0.0016284756 0.0018150825 0.003201517
0003f0 4b 9e be 3a 4d a8 09 3c 19 24 97 bc 3b b6 3f bc
       0.0014543025 0.008401942 -0.01844983 -0.011701162

action_model._discrete_distribution.branches.0.bias f4 [2]
000000 00 00 00 00 00 00 00 00
       0.0 0.0

network_body.observation_encoder.processors.0.normalizer.running_mean f4 [2]
000000 a0 ac e0 3f ee 33 45 40
       1.7552681 3.0812945

network_body.observation_encoder.processors.0.normalizer.running_variance f4 [2]
000000 a7 c2 6e 45 16 c0 d8 45
       3820.1658 6936.0107

network_body.processors.0.normalizer.running_mean f4 [2]
000000 a0 ac e0 3f ee 33 45 40
       1.7552681 3.0812945

network_body.processors.0.normalizer.running_variance f4 [2]
000000 a7 c2 6e 45 16 c0 d8 45
       3820.1658 6936.0107

network_body._body_endoder.seq_layers.0.weight f4 [128, 2]
000000 e4 92 3d be 8b 89 84 be c2 07 2d 3f 0f a7 a5 be
       -0.18513066 -0.25886187 0.6758996 -0.32354018
000010 f3 ba 2c bf 2f 18 27 3f 3e 00 73 3f 01 80 af bf
       -0.6747276 0.65271276 0.94922245 -1.3710939
000020 8a 8e 93 be a7 58 07 3f 5e f0 0b bf 40 51 86 3f
       -0.28819686 0.5286965 -0.54663646 1.0493546
000030 5a ca 10 be 9e 3f ec be c4 21 97 3e a7 7a e8 bd
       -0.14139691 -0.46142286 0.2951795 -0.11351519
000040 6e ae 03 bf ea 53 fa 3e 51 66 d3 3e ab f9 48 3f
       -0.51438034 0.48892146 0.41289 0.78505963
000050 9f 6e a7 bd a2 a2 83 3e 42 e5 6f 3e dd f1 e4 bc
       -0.08175396 0.25710016 0.23427299 -0.02794736
000060 d4 57 f0 3e 34 96 81 bf 52 e0 34 bf f0 7f bf be
       0.46942008 -1.0123963 -0.70654786 -0.37402296
000070 a0 1c 95 bf 9b 94 a8 bd 0d de 20 3f 65 75 87 3f
       -1.1649361 -0.08231469 0.6283882 1.0582701
000080 97 47 a6 3f 4b 1c fa bd 43 75 e8 be 04 96 85 3f
       1.2990597 -0.12212428 -0.45401964 1.0436406
000090 80 ae 09 bf 85 ae 86 be 28 d1 3b bf 2e 3f 86 3f
       -0.5378189 -0.26305023 -0.7336602 1.0488031
0000a0 bb 4a 30 3f 23 21 00 3e 0d 7d 3f 3f d7 ad 25 3f
       0.6886403 0.1251264 0.7480019 0.64718384
0000b0 af 32 8f 3e e2 b8 0b 3f e1 7b 5b bf dc 8c 25 bf
       0.27968356 0.54578984 -0.857359 -0.6466806
0000c0 e3 6b 1e bc fa e9 ac 3e 24 cc 39 3f d4 4b 03 3f
       -0.009669277 0.3377226 0.7257712 0.5128758
0000d0 49 a2 e0 be e6 64 33 3f 47 62 40 be 65 9c 8d 3f
       -0.43873814 0.70075834 -0.1878749 1.1063353
0000e0 5a 00 20 3f 2d 79 97 3f 07 12 8f bf 06 72 ae bf
       0.62500536 1.1833855 -1.1177377 -1.3628547
0000f0 23 8b 54 bf 8b fd 37 3e 18 26 08 3e 38 78 df 3e
       -0.83024806 0.17967813 0.13295782 0.43646407
000100 eb 67 d4 be 8b 4d a5 be 7f 65 93 bf 4c e0 4d bf
       -0.41485533 -0.32285723 -1.1515349 -0.80420375
000110 db cb 34 be 5d 36 0d 3f 58 cd a3 bf 6e 7e 82 bf
       -0.1765589 0.55161077 -1.2797041 -1.0194833
000120 fe 36 6a bf 26 45 77 3f 8a e3 a3 3f b8 38 7e 3e
       -0.9149016 0.9658989 1.2803814 0.24826324
000130 4f cb 33 bf 16 7b 94 bf 33 56 1d 3f 6f 36 ec bf
       -0.702321 -1.1600063 0.61459655 -1.8454112
000140 d5 95 12 bf be 91 4a 3f 7f 92 13 bf 01 54 c4 be
       -0.57259876 0.79128635 -0.5764541 -0.3834534
000150 2f d9 fd bd 99 98 b9 be ad b8 eb be fb 88 70 bf
       -0.1239494 -0.36249235 -0.46039334 -0.93959016
000160 fa d5 91 3e ad 55 e1 3d bf 90 2f be a0 9d cd 3e
       0.28483564 0.110026695 -0.1714506 0.4015932
000170 7f 27 6d be 3c 15 b2 3f a2 5a a6 3e 2a bc 1a bf
       -0.23159598 1.391273 0.32491022 -0.60443366
000180 64 83 f5 bf 74 0e 7c 3e 0f 2f 69 bf d8 0d b2 3f
       -1.9180722 0.24614888 -0.9108743 1.3910475
000190 79 33 93 bf 22 85 65 be e6 c6 c1 3d 9c 5f 53 bf
       -1.1500083 -0.22414067 0.09461765 -0.82567763
0001a0 9b 20 e4 3f 6f 31 2f 3f b9 36 07 bf 68 41 9e 3d
       1.782245 0.68434805 -0.52817875 0.07727319
0001b0 b9 fe ef be 98 20 f0 3e 08 f0 89 3e 19 95 29 3e
       -0.46874025 0.46899867 0.26940942 0.16560782
0001c0 d6 e8 2e bf 89 08 db be 5c a1 7c 3f b7 e0 f5 3e
       -0.6832403 -0.4277995 0.98683715 0.48023006
0001d0 e0 f1 31 3e 79 d8 45 bf 58 1b 23 3f 18 11 67 3e
       0.17377424 -0.77283436 0.637136 0.22565114
0001e0 f2 86 b3 bd 9b 27 1c be 13 5d 11 bf 95 f5 93 3f
       -0.08765973 -0.15249483 -0.56782645 1.1559321
0001f0 37 b3 60 3f da 63 29 3f 5c 90 af be 89 f0 45 3f
       0.8777346 0.66167986 -0.34289825 0.7732015
000200 2b 32 63 bf 5a b9 80 bf ab f5 e8 3d d7 b7 a4 3e
       -0.88748425 -1.0056565 0.113749824 0.3217151
000210 5d 7d 1d 3f 58 e0 d5 3e 34 86 75 be 93 d6 70 3e
       0.61519414 0.41772723 -0.23976976 0.23519354
000220 a8 ed 0b bf 0f 13 e6 bf 4e e8 95 bf 4b d7 10 3e
       -0.5465951 -1.7974566 -1.1711519 0.14144628
000230 f5 19 b4 3e 02 b6 14 3f 83 98 c7 be 20 70 6e 3e
       0.35176054 0.5809022 -0.38983545 0.2328496
000240 18 20 b3 3e ed 44 9f be c2 44 9f bf 9d 00 77 bd
       0.34985423 -0.31107274 -1.2442858 -0.06030332
000250 ca ae 38 3e 66 04 c1 be e6 a3 46 be ff ef a4 3e
       0.18035427 -0.37698668 -0.1939846 0.32214352
000260 1e 1c 36 3f 70 09 39 bf 3a c8 57 3e e1 11 13 bf
       0.71136653 -0.72280025 0.21072474 -0.57449156
000270 0a 02 00 bf 35 cd 7a be 52 ff 1b bf 7a 5c 4d 3f
       -0.5000311 -0.24492343 -0.6093646 0.80219233
000280 9a ac 7f bf 17 f5 29 bf 8a fa 39 be 25 06 39 3f
       -0.99872744 -0.663896 -0.1816198 0.72275
000290 20 ee cf 3e 0b 2a ca be d5 6b f4 be da 58 33 bf
       0.40611362 -0.394852 -0.4773852 -0.7005745
0002a0 dc 2a 4f bf ff f5 f9 3d 72 12 23 bf be 14 85 bf
       -0.80924773 0.12205123 -0.6370002 -1.0396955
0002b0 64 e8 93 be 66 a7 11 3e e6 6f 33 bf 95 57 e5 be
       -0.28888237 0.14224014 -0.7009262 -0.44793382
0002c0 75 75 f2 be 40 5a 8d 3f 4d c7 30 bf 5f 93 a8 be
       -0.47355238 1.1043167 -0.6905411 -0.32924935
0002d0 00 36 a8 be b2 c6 90 3e dc 71 8f 3f 1a 1f b3 3f
       -0.328537 0.28276592 1.1206622 1.3993866
0002e0 24 15 af bb 78 af af 3f ce 57 67 bf 78 d0 25 be
       -0.0053430963 1.3725424 -0.90368354 -0.16192806
0002f0 48 a2 f9 3e 18 12 cb 3f 52 9a ce bc 30 ff 75 be
       0.48756623 1.5864897 -0.02522007 -0.24023128
000300 e6 cf d8 3e 22 61 92 bf 2c 77 7c bf 59 0c fa bb
       0.42346114 -1.1435893 -0.9861934 -0.0076308665
000310 1c f4 56 3e fc 6e 0f 3f 65 dc 97 3e 3a 30 3b 3f
       0.20991558 0.56028724 0.29660335 0.7312046
000320 55 ab 29 3e d6 d6 59 be dd 8d 13 bf c4 84 08 bf
       0.16569264 -0.2127336 -0.5763834 -0.53327584
000330 44 8b d6 bf 3e da 53 be 59 3c aa 3e 17 99 51 bd
       -1.676125 -0.20688722 0.33249167 -0.05117139
000340 0d 95 1e 40 24 28 00 3e ef 90 c6 bf 74 37 d0 bf
       2.4778473 0.12515312 -1.551298 -1.6266923
000350 25 80 a9 bf 30 5c 5c bf 07 8f b6 bf 38 09 6f 3f
       -1.3242232 -0.86078167 -1.4262398 0.9337344
000360 c2 71 10 3e 26 60 ac be b4 d1 00 3a 40 08 8c bd
       0.14105895 -0.33667105 0.00049140607 -0.06837511
000370 2e b1 9a 3f 8d 06 5f bf 72 59 cd 3e 8e 46 ec 3d
       1.2085321 -0.8711937 0.40107304 0.11536895
000380 1e 46 d4 be 3a 63 96 bf e4 1c 34 bf f6 51 c5 3e
       -0.41459745 -1.1749032 -0.70356584 0.38539094
000390 80 a1 bf be 5b 8a 09 3f 9b 65 2b bf 37 cc dc be
       -0.37427902 0.5372674 -0.6695191 -0.43124554
0003a0 0b 6d a4 be c1 dc 86 3e 99 42 b4 bf e9 b5 d6 3f
       -0.32114443 0.26340297 -1.4082824 1.6774265
0003b0 53 38 46 be 65 56 53 bd 4e 75 40 3f 95 66 fe be
       -0.19357423 -0.051596064 0.7517899 -0.4968764
0003c0 46 55 98 3e ff c3 5b 3f 82 c5 14 3c 99 f9 07 3d
       0.29752558 0.8584594 0.009080293 0.03319702
0003d0 bd 79 a1 be 09 f3 33 3f f3 91 df 3e cc 4c dd bd
       -0.3153819 0.7029272 0.43666038 -0.108056635
0003e0 8b d4 24 3f 7b a4 d0 be e3 67 e8 3e 68 e6 ce 3e
       0.64386815 -0.4075049 0.4539176 0.4041016
0003f0 c9 e2 d6 3d fd 2c cc 3e e1 94 91 3f b8 ea 30 3f
       0.104924746 0.39878073 1.1373559 0.6910815

network_body._body_endoder.seq_layers.0.bias f4 [128]
000000 00 00 00 00 00 00 00 00 00 00 00 00 00 00 00 00
       0.0 0.0 0.0 0.0
000010 00 00 00 00 00 00 00 00 00 00 00 00 00 00 00 00
       0.0 0.0 0.0 0.0
000020 00 00 00 00 00 00 00 00 00 00 00 00 00 00 00 00
       0.0 0.0 0.0 0.0
000030 00 00 00 00 00 00 00 00 00 00 00 00 00 00 00 00
       0.0 0.0 0.0 0.0
000040 00 00 00 00 00 00 00 00 00 00 00 00 00 00 00 00
       0.0 0.0 0.0 0.0
000050 00 00 00 00 00 00 00 00 00 00 00 00 00 00 00 00
       0.0 0.0 0.0 0.0
000060 00 00 00 00 00 00 00 00 00 00 00 00 00 00 00 00
       0.0 0.0 0.0 0.0
000070 00 00 00 00 00 00 00 00 00 00 00 00 00 00 00 00
       0.0 0.0 0.0 0.0
000080 00 00 00 00 00 00 00 00 00 00 00 00 00 00 00 00
       0.0 0.0 0.0 0.0
000090 00 00 00 00 00 00 00 00 00 00 00 00 00 00 00 00
       0.0 0.0 0.0 0.0
0000a0 00 00 00 00 00 00 00 00 00 00 00 00 00 00 00 00
       0.0 0.0 0.0 0.0
0000b0 00 00 00 00 00 00 00 00 00 00 00 00 00 00 00 00
       0.0 0.0 0.0 0.0
0000c0 00 00 00 00 00 00 00 00 00 00 00 00 00 00 00 00
       0.0 0.0 0.0 0.0
0000d0 00 00 00 00 00 00 00 00 00 00 00 00 00 00 00 00
       0.0 0.0 0.0 0.0
0000e0 00 00 00 00 00 00 00 00 00 00 00 00 00 00 00 00
       0.0 0.0 0.0 0.0
0000f0 00 00 00 00 00 00 00 00 00 00 00 00 00 00 00 00
       0.0 0.0 0.0 0.0
000100 00 00 00 00 00 00 00 00 00 00 00 00 00 00 00 00
       0.0 0.0 0.0 0.0
000110 00 00 00 00 00 00 00 00 00 00 00 00 00 00 00 00
       0.0 0.0 0.0 0.0
000120 00 00 00 00 00 00 00 00 00 00 00 00 00 00 00 00
       0.0 0.0 0.0 0.0
000130 00 00 00 00 00 00 00 00 00 00 00 00 00 00 00 00
       0.0 0.0 0.0 0.0
000140 00 00 00 00 00 00 00 00 00 00 00 00 00 00 00 00
       0.0 0.0 0.0 0.0
000150 00 00 00 00 00 00 00 00 00 00 00 00 00 00 00 00
       0.0 0.0 0.0 0.0
000160 00 00 00 00 00 00 00 00 00 00 00 00 00 00 00 00
       0.0 0.0 0.0 0.0
000170 00 00 00 00 00 00 00 00 00 00 00 00 00 00 00 00
       0.0 0.0 0.0 0.0
000180 00 00 00 00 00 00 00 00 00 00 00 00 00 00 00 00
       0.0 0.0 0.0 0.0
000190 00 00 00 00 00 00 00 00 00 00 00 00 00 00 00 00
       0.0 0.0 0.0 0.0
0001a0 00 00 00 00 00 00 00 00 00 00 00 00 00 00 00 00
       0.0 0.0 0.0 0.0
0001b0 00 00 00 00 00 00 00 00 00 00 00 00 00 00 00 00
       0.0 0.0 0.0 0.0
0001c0 00 00 00 00 00 00 00 00 00 00 00 00 00 00 00 00
       0.0 0.0 0.0 0.0
0001d0 00 00 00 00 00 00 00 00 00 00 00 00 00 00 00 00
       0.0 0.0 0.0 0.0
0001e0 00 00 00 00 00 00 00 00 00 00 00 00 00 00 00 00
       0.0 0.0 0.0 0.0
0001f0 00 00 00 00 00 00 00 00 00 00 00 00 00 00 00 00
       0.0 0.0 0.0 0.0

network_body._body_endoder.seq_layers.2.weight f4 [128, 128]
000000 3c d7 6d 3d 88 77 23 bd 30 79 fe 3c c0 06 ec 3d
       0.05806659 -0.039908916 0.031063646 0.11524725
000010 d7 26 b1 bd cb 8b 2b 3e 92 22 30 be 0b 33 a5 bd
       -0.08649986 0.16752546 -0.17200688 -0.08066376
000020 ac f1 2c 3d 9f 39 67 3c 35 5c 7c 3d 57 c6 10 3e
       0.042222664 0.014112859 0.061611373 0.1413816
000030 8f 2e 88 bc 51 5a 59 bd 28 30 74 bd 66 80 0f 3e
       -0.016623763 -0.053064648 -0.059616238 0.14013824
000040 e6 37 13 3e 76 a3 ff 3b b5 5e 02 b8 66 df 97 bd
       0.14376792 0.0078014685 -3.1082618e-05 -0.07415657
000050 e3 40 83 bd 71 a4 bb 3d 9d 74 68 bd 21 34 e2 3c
       -0.064088605 0.09162224 -0.056751836 0.027612748
000060 be a3 bf bd eb d3 f6 bb 62 55 4a 3d 2f ed 81 3d
       -0.09357403 -0.007532587 0.049397834 0.06344067
000070 cb 4b 12 3d 20 56 d5 3d 0f 48 df bc 02 35 31 3d
       0.035716813 0.10416818 -0.02725604 0.043263443
000080 9c f3 3e 3d d3 c1 77 3b d6 8e ca 3d 63 73 49 3e
       0.046619043 0.0037804737 0.09890525 0.19672923
000090 3f 2e ce 3d f9 43 40 3d 7e 62 45 3d 32 a7 ab bd
       0.100674145 0.046939824 0.048189633 -0.08381499
0000a0 63 96 dd bd f5 38 41 bd c8 59 ce 3d 6b 48 b8 bb
       -0.108196996 -0.04717346 0.10075718 -0.0056238673
0000b0 8e 6e c1 3c a0 eb ed bc b8 94 00 be 56 79 71 3d
       0.023612287 -0.029043019 -0.12556732 0.058953606
0000c0 ae 7b 86 3e 3f b6 0c bd 65 12 a6 bc bd 88 4b bd
       0.26266235 -0.03435349 -0.020272443 -0.04969095
0000d0 e6 51 a0 3c 26 d2 d0 bc f4 9c 3e 3e b1 9f 8d bc
       0.019570302 -0.025490832 0.1861456 -0.01728806
0000e0 09 94 c2 bb 16 42 45 bd 0f 55 a3 bd 83 af 2a bc
       -0.0059380573 -0.048158728 -0.07975208 -0.010417822
0000f0 20 4b e1 bd 7b 01 ed 3c 06 f2 45 3d c0 3c a5 bd
       -0.11000657 0.02893137 0.048326515 -0.08068228
000100 d4 7a 2c bd f8 22 98 bd 4c e6 99 bc 56 77 b5 bd
       -0.042109326 -0.07428545 -0.018786572 -0.08860652
000110 de 1d 08 3d 86 63 6b be 59 84 17 3e fa b0 b5 3a
       0.03323161 -0.22987184 0.1479658 0.0013861947
000120 94 b5 7b bd 0d ea 0d be 7b f5 74 3d ff 9e b3 3c
       -0.061452463 -0.13858815 0.05980442 0.021926401
000130 d1 e5 d0 3d ae 9a f5 3c a4 bd a2 bd 4b 09 05 bd
       0.10200084 0.029980984 -0.07946327 -0.032479566
000140 e9 c6 8c 3d 04 ad e1 bd 5a d4 a7 bd ed 46 8d 3c
       0.068738766 -0.11019328 -0.081948 0.017245734
000150 5d 27 fb 3d 10 a8 dc 3d ed f2 1b be 7c ca c9 bd
       0.12263367 0.10774243 -0.15229388 -0.09853074
000160 ae 47 fd bc 24 20 f6 3d 5e ad 0b 3e 9d a1 f3 bd
       -0.030917969 0.12017849 0.13640353 -0.1189606
000170 87 f6 20 bd 25 4f 5c bd 99 80 7c 3d 26 b4 8d 3d
       -0.039297607 -0.053786416 0.061646078 0.06919126
000180 76 17 8c bd 39 8e 38 bc f2 c7 2f bc 3f 05 5b bc
       -0.06840412 -0.011264377 -0.010728823 -0.01336795
000190 89 36 f2 bc 57 f6 4d bd c3 7d ae bc 4b f7 df bd
       -0.02956702 -0.050283756 -0.021300202 -0.10935839
0001a0 19 7b b6 bc a8 49 12 ba d0 1f 11 bc e2 78 c7 bc
       -0.022275494 -0.00055804336 -0.008857682 -0.024349634
0001b0 95 c4 30 3e ef 59 e0 3d 6f a4 34 3d 11 f9 c1 3d
       0.1726249 0.109546535 0.04410213 0.09471334
0001c0 c1 3a ed bd 5f 72 ec bd b4 81 cd bd 3d 81 dd bc
       -0.11583472 -0.11545252 -0.100345045 -0.027039165
0001d0 5d 79 07 3e a4 e6 3e 3d e3 51 ca 3c ad dd 34 3e
       0.1322989 0.046606675 0.02469725 0.17662688
0001e0 a1 04 cb bd 98 64 3c be 77 d2 3c bd 45 5a 02 be
       -0.09912992 -0.18397748 -0.046099152 -0.12729748
0001f0 69 e6 48 be 00 85 43 3d 77 0c 51 bd 66 0d 59 3d
       -0.19619144 0.04773426 -0.051037278 0.052991293
000200 f3 9c c9 3d 3a 67 80 3c 29 a3 fc bc b1 b9 75 bd
       0.09844389 0.015674222 -0.03083952 -0.059991542
000210 79 57 cd bd 6d 1d c8 3d 03 7b 0a be d8 2c 07 3d
       -0.1002645 0.097712375 -0.13523488 0.03300175
000220 c0 bd fd 3d de 49 e2 3d 33 40 32 3d 1f f4 ed bc
       0.123897076 0.11049245 0.043518256 -0.02904707
000230 06 3e 16 bc 05 25 ca bd 0a d0 40 bd eb 7d 0d be
       -0.009170061 -0.09870342 -0.0470734 -0.13817565
000240 31 6e cc 3d 26 fe c9 3d 96 e2 7e bd c7 25 d5 3d
       0.09981955 0.09862928 -0.062227808 0.10407596
000250 a5 b8 b7 bd 98 21 98 bd 85 2d d9 bd cd 2a 03 3c
       -0.08970765 -0.074282825 -0.10604385 0.00800581
000260 54 95 d7 3c bb 18 5e 3e 84 c3 64 bd 73 ce af bd
       0.026316322 0.21689121 -0.05585052 -0.08584299
000270 c2 1f ee bc 63 8f f1 ba f1 a1 2e 3c c5 98 0f 3d
       -0.029067878 -0.0018429573 0.010658727 0.0350578
000280 ba fb 9c bc 1e 3e b1 3b 93 bb 42 bd 86 c3 0d bd
       -0.019163001 0.0054090163 -0.047542166 -0.034610294
000290 f4 c0 b1 3c e1 26 e0 ba 17 8c a1 3d f4 0c b1 3d
       0.021698453 -0.001710143 0.07888048 0.08645049
0002a0 51 8b ef 3c 90 f1 00 bd 7a 89 65 bd f6 20 ee bd
       0.029241236 -0.031480372 -0.05603931 -0.116273805
0002b0 79 b8 f1 3c 94 f8 9e bd ad 30 96 bd ab 12 8d bd
       0.029506909 -0.07762256 -0.07333503 -0.06888326
0002c0 5d 38 ee 3d e0 9a e5 bd 8f 63 b2 bd 25 9c e2 bd
       0.11631844 -0.11211181 -0.087103955 -0.110649385
0002d0 d4 2b c5 bd 2c a0 f6 3d d5 73 9f bd 6d 10 0b 3e
       -0.096275 0.12042269 -0.07785765 0.13580485
0002e0 30 98 05 3d a9 8d 91 3d 30 70 16 3c 36 d8 3d 3d
       0.03261584 0.07107098 0.009182021 0.046348773
0002f0 f0 0a e1 bd ac c2 d0 3d cc c7 49 be ee 85 10 3e
       -0.10988414 0.10193381 -0.19705123 0.1411359
000300 36 0b d0 3d 1c d4 08 bd a6 5d 85 bd 9a 66 19 3e
       0.10158388 -0.03340541 -0.06512003 0.14980546
000310 b2 ab f5 bd a6 54 5d bd 3a f8 77 be bd dd f8 3c
       -0.11995639 -0.054035805 -0.24215785 0.03037917
000320 db f5 67 bd 7d 74 91 3d 4e 61 aa 3c 64 16 54 bd
       -0.05663095 0.071022965 0.020798352 -0.051779166
000330 ca b6 ec bd da a3 92 bd e5 f5 98 bc 69 a3 d3 3b
       -0.11558302 -0.071601585 -0.01867194 0.006458689
000340 3c de 58 3e cd 98 f3 3c 8c 3d b9 bd ce ba 64 bc
       0.21178526 0.029735947 -0.09044942 -0.013960553
000350 73 ec 31 3e 82 c8 f4 3b 8c 0e d5 3d 8f 1d ec 3c
       0.17375354 0.0074701915 0.10403165 0.028822688
000360 ac f2 82 3d 7b af e3 bd 7b 11 91 bd e8 70 81 bc
       0.06393942 -0.111174546 -0.07083412 -0.015800908
000370 d9 b1 15 3d 9f 50 5c bb 1d 70 6d 3d 64 09 e4 3c
       0.036546562 -0.003361739 0.057968248 0.027836509
000380 a9 68 45 be df ff 8a bd 56 10 a0 bd f5 5a 9c bd
       -0.19278206 -0.06787085 -0.07815616 -0.07634536
000390 f7 2e 1c bd fc 3e 84 3d 2f 3e 89 bd ce dd cd 3d
       -0.038130727 0.06457326 -0.06701314 0.100520715
0003a0 49 2a 29 3e 57 de a0 3d ff ac 58 bd 20 55 fe 3d
       0.16520037 0.07854908 -0.052899357 0.1241858
0003b0 26 ed 47 be 2b 7f 83 3d 25 26 83 bc 0e 57 7d 3e
       -0.19524059 0.0642074 -0.0160094 0.2474024
0003c0 fd a3 dd 3c dc e1 11 3e b3 58 17 bd 53 a2 cc 3d
       0.027055735 0.14246315 -0.036949825 0.099918984
0003d0 e7 8f 5d 3c e9 32 23 3e 7a 2d 76 be 27 57 3c 3d
       0.0135230785 0.1593739 -0.24040785 0.045981552
0003e0 44 51 5d 3d 8e d5 0a be 7d c5 52 bd 4c 4d 3c bd
       0.05403258 -0.13558027 -0.05145787 -0.045972154
0003f0 a6 1f cf 3d dc ee d4 3c 48 36 ca bd 31 eb 55 3d
       0.10113458 0.025992803 -0.098736346 0.05222625

network_body._body_endoder.seq_layers.2.bias f4 [128]
000000 00 00 00 00 00 00 00 00 00 00 00 00 00 00 00 00
       0.0 0.0 0.0 0.0
000010 00 00 00 00 00 00 00 00 00 00 00 00 00 00 00 00
       0.0 0.0 0.0 0.0
000020 00 00 00 00 00 00 00 00 00 00 00 00 00 00 00 00
       0.0 0.0 0.0 0.0
000030 00 00 00 00 00 00 00 00 00 00 00 00 00 00 00 00
       0.0 0.0 0.0 0.0
000040 00 00 00 00 00 00 00 00 00 00 00 00 00 00 00 00
       0.0 0.0 0.0 0.0
000050 00 00 00 00 00 00 00 00 00 00 00 00 00 00 00 00
       0.0 0.0 0.0 0.0
000060 00 00 00 00 00 00 00 00 00 00 00 00 00 00 00 00
       0.0 0.0 0.0 0.0
000070 00 00 00 00 00 00 00 00 00 00 00 00 00 00 00 00
       0.0 0.0 0.0 0.0
000080 00 00 00 00 00 00 00 00 00 00 00 00 00 00 00 00
       0.0 0.0 0.0 0.0
000090 00 00 00 00 00 00 00 00 00 00 00 00 00 00 00 00
       0.0 0.0 0.0 0.0
0000a0 00 00 00 00 00 00 00 00 00 00 00 00 00 00 00 00
       0.0 0.0 0.0 0.0
0000b0 00 00 00 00 00 00 00 00 00 00 00 00 00 00 00 00
       0.0 0.0 0.0 0.0
0000c0 00 00 00 00 00 00 00 00 00 00 00 00 00 00 00 00
       0.0 0.0 0.0 0.0
0000d0 00 00 00 00 00 00 00 00 00 00 00 00 00 00 00 00
       0.0 0.0 0.0 0.0
0000e0 00 00 00 00 00 00 00 00 00 00 00 00 00 00 00 00
       0.0 0.0 0.0 0.0
0000f0 00 00 00 00 00 00 00 00 00 00 00 00 00 00 00 00
       0.0 0.0 0.0 0.0
000100 00 00 00 00 00 00 00 00 00 00 00 00 00 00 00 00
       0.0 0.0 0.0 0.0
000110 00 00 00 00 00 00 00 00 00 00 00 00 00 00 00 00
       0.0 0.0 0.0 0.0
000120 00 00 00 00 00 00 00 00 00 00 00 00 00 00 00 00
       0.0 0.0 0.0 0.0
000130 00 00 00 00 00 00 00 00 00 00 00 00 00 00 00 00
       0.0 0.0 0.0 0.0
000140 00 00 00 00 00 00 00 00 00 00 00 00 00 00 00 00
       0.0 0.0 0.0 0.0
000150 00 00 00 00 00 00 00 00 00 00 00 00 00 00 00 00
       0.0 0.0 0.0 0.0
000160 00 00 00 00 00 00 00 00 00 00 00 00 00 00 00 00
       0.0 0.0 0.0 0.0
000170 00 00 00 00 00 00 00 00 00 00 00 00 00 00 00 00
       0.0 0.0 0.0 0.0
000180 00 00 00 00 00 00 00 00 00 00 00 00 00 00 00 00
       0.0 0.0 0.0 0.0
000190 00 00 00 00 00 00 00 00 00 00 00 00 00 00 00 00
       0.0 0.0 0.0 0.0
0001a0 00 00 00 00 00 00 00 00 00 00 00 00 00 00 00 00
       0.0 0.0 0.0 0.0
0001b0 00 00 00 00 00 00 00 00 00 00 00 00 00 00 00 00
       0.0 0.0 0.0 0.0
0001c0 00 00 00 00 00 00 00 00 00 00 00 00 00 00 00 00
       0.0 0.0 0.0 0.0
0001d0 00 00 00 00 00 00 00 00 00 00 00 00 00 00 00 00
       0.0 0.0 0.0 0.0
0001e0 00 00 00 00 00 00 00 00 00 00 00 00 00 00 00 00
       0.0 0.0 0.0 0.0
0001f0 00 00 00 00 00 00 00 00 00 00 00 00 00 00 00 00
       0.0 0.0 0.0 0.0

value_heads.value_heads.extrinsic.weight f4 [1, 128]
000000 ec ac 2f 3e 90 6e 9b bd 35 49 e5 bd c4 20 82 bd
       0.17155808 -0.075894475 -0.11195604 -0.06353906
000010 8a 88 49 be af 27 ed bd 99 52 3b be cb e9 31 be
       -0.19680992 -0.11579835 -0.18293227 -0.17374341
000020 9a ba 53 3e 38 51 97 3d 34 36 00 be 20 a4 ba 3d
       0.20676652 0.07388538 -0.12520677 0.091133356
000030 a0 db 2a 3e 00 70 fb 3d e8 c1 1e 3d 09 67 e8 bd
       0.16685343 0.12277222 0.038759142 -0.113477774
000040 52 ab cd bd a0 e6 7c 3d e0 77 74 3c d8 27 ae 3d
       -0.100424424 0.06174338 0.014921159 0.08503693
000050 b8 a0 d4 bd 75 a5 49 be 63 db 50 be 88 c5 1e be
       -0.10382217 -0.19692023 -0.2039619 -0.1550504
000060 ae e2 5b 3e 5c 03 85 3d 6e 63 42 be c2 5c 49 be
       0.2147319 0.064947814 -0.18983242 -0.1966429
000070 4a c9 05 3e 30 ac 46 3d f0 38 ad 3d 96 4f 09 3e
       0.13065067 0.048504055 0.084581256 0.13409266
000080 40 67 33 bd b0 16 e7 3c 6e 82 4f 3e 94 e5 17 be
       -0.04379964 0.02820906 0.20264599 -0.14833671
000090 94 08 40 bd 34 55 e5 bd fc e4 38 bd 70 a6 25 3d
       -0.04688318 -0.11197892 -0.04514025 0.04044193
0000a0 20 f5 f1 3b 96 e8 09 3e a4 83 12 be a1 04 fa bd
       0.0073839575 0.1346763 -0.1430803 -0.12207914
0000b0 46 96 14 be 94 af 4e 3e 28 9d c7 3d ff 0a ce bd
       -0.1451045 0.20184165 0.09746772 -0.10060691
0000c0 50 64 80 3d cc 9a a2 3d 6a 1f 08 be 69 07 1d be
       0.06269133 0.079396814 -0.13293234 -0.15334858
0000d0 1c 42 06 3d f0 17 5c 3e 86 6e 37 3e 46 67 e6 bd
       0.03277789 0.21493506 0.17913255 -0.112501666
0000e0 36 02 2e be 31 de 1b be ec 44 59 3e ae 69 d2 bd
       -0.16993031 -0.15221478 0.21217698 -0.10274063
0000f0 d4 ba 18 3e a7 b8 d5 bd a0 0a 30 3e 98 64 d3 bc
       0.1491502 -0.1043561 0.17191553 -0.025804803
000100 60 b2 51 bc 10 f5 1a 3c f8 5b 3e 3d 10 2d 03 bc
       -0.012798876 0.0094578415 0.046474427 -0.008006349
000110 1f 2a c8 bd 80 6f 63 3d ee 93 a8 bd 17 53 0a be
       -0.09773659 0.055526257 -0.0823134 -0.13508259
000120 d0 0e 98 bd c4 d1 35 3e 20 49 32 be 02 7e 0e be
       -0.074247 0.177558 -0.17410707 -0.13915256
000130 3c fe fc 3d b0 f7 17 be 98 b8 23 3e 24 bb 38 bd
       0.12353179 -0.14840579 0.15988386 -0.045100346
000140 a6 7b 58 3e 60 96 c3 bc 00 f1 4f bd c8 cf 33 3d
       0.21140918 -0.023875415 -0.050766945 0.043899328
000150 ba 94 06 3e e8 6d 6f 3d 54 65 58 3e 1c 68 53 3e
       0.13142672 0.058454424 0.21132404 0.20645183
000160 88 82 63 3d 42 e4 f5 bd 56 43 2a 3e d2 61 1e 3e
       0.055544406 -0.12006427 0.16627249 0.15467003
000170 f0 a6 32 be 36 a5 4e 3e 8a 37 da bd 7e ca 23 be
       -0.17446494 0.2018021 -0.106551245 -0.15995213
000180 00 8f b4 ba f0 31 4e 3d 64 93 1a be f0 f1 e7 3d
       -0.0013775527 0.050340593 -0.15095288 0.11325443
000190 68 59 b8 bd 9c fb 5c bd 24 e8 bb 3d 57 2c 3a be
       -0.09001428 -0.05395089 0.09175137 -0.18180977
0001a0 a7 46 45 be a0 ef c7 3c 76 8f 36 3e 90 48 b0 3d
       -0.19265233 0.024406254 0.17828164 0.0860759
0001b0 cc 9b 9c bd da a8 15 be 7c 06 75 bd d6 dc 0a 3e
       -0.076469034 -0.14615193 -0.059820637 0.13560805
0001c0 6c 3e 27 be 77 e6 31 be dc 0e 90 bd d4 df 2b be
       -0.16332406 -0.17373072 -0.07034084 -0.16784602
0001d0 30 a8 80 bc 0c d5 b9 3d 3a 27 0a be fe 25 8e bd
       -0.015705198 0.090738386 -0.13491526 -0.0694084
0001e0 1c cc 11 be ac 2d ca 3d 78 af 9d bc 4c 1b 20 3e
       -0.14238018 0.098719925 -0.01924871 0.15635413
0001f0 f8 78 05 3d 3d 4b 35 be 66 49 ac bd e4 ef 2f be
       0.032586068 -0.17704482 -0.08412437 -0.17181355
