results/flappy_run_07/FlappyBirdAgent/FlappyBirdAgent-11376.onnx (onnx, 71034 bytes, 8 tensors)

network_body.observation_encoder.processors.0.normalizer.running_mean f4 [2]
000000 b1 31 e3 3f 92 d9 2f 40
       1.774954 2.7476544

network_body._body_endoder.seq_layers.0.weight f4 [128, 2]
000000 17 ad 5d bd 9c c0 83 3f 5a 3d 64 be d4 0a e8 3e
       -0.05412015 1.0293155 -0.22289029 0.4532076
000010 0c 3f 5e be 7f 6b 7f 3f b4 13 0d 3f 0b 8c 3f bf
       -0.21703738 0.997734 0.5510819 -0.74823064
000020 84 37 c4 3e d3 69 37 bf e3 18 36 3f 55 11 a2 3f
       0.38323605 -0.7164585 0.71131724 1.2661539
000030 16 fb 39 be 13 15 1d 3e de 33 68 3f cf b6 fd be
       -0.18162188 0.1534007 0.90704143 -0.49553534
000040 7f 6e 71 bf ae 07 86 3f 8f 2d aa 3e 60 b2 4f 3e
       -0.9430923 1.0471094 0.33237883 0.20282888
000050 6c 8c 21 3f 85 54 2a 3f 8b 57 f1 be 99 90 a3 bf
       0.6310489 0.66535217 -0.47137102 -1.2778503
000060 a6 09 2f 3e e5 f3 1d bf 0f fd a6 be cc a1 c1 bd
       0.17093524 -0.6170028 -0.32614943 -0.094546884
000070 d8 4b 53 3e a7 99 4a bf 1e f0 4f bf ea 37 51 3f
       0.20634401 -0.79140705 -0.81225765 0.81725943
000080 25 e8 6e 3d 9f 1b 0e 3e 20 0b b3 be 7d b3 2f bf
       0.05832686 0.13877724 -0.34969425 -0.6863325
000090 20 de a6 be 06 15 7d 3f 97 80 59 bf b2 83 3e 3f
       -0.32591343 0.98860204 -0.8496184 0.744197
0000a0 87 81 ae 3f 84 2b 87 3d d4 e9 a9 3e 41 ed de 3e
       1.3633279 0.06600097 0.3318621 0.43540385
0000b0 6d ba 3d be 68 35 42 3f cf 32 79 3f b4 17 e3 bd
       -0.18528147 0.7586274 0.9734315 -0.110885054
0000c0 70 ce 35 bf 51 24 c1 3e 5c f6 63 bf 12 66 34 bf
       -0.71018124 0.3772302 -0.8904779 -0.70468247
0000d0 25 a8 73 bf c1 9b 8c be 75 5f 84 be c4 c1 11 3f
       -0.95178443 -0.2746258 -0.25854078 0.5693629
0000e0 cb df 16 3e 5c 34 0c 3f e1 82 87 bf 75 0c 70 3f
       0.14733808 0.54767394 -1.0586816 0.9376901
0000f0 97 36 41 3f 0b b0 e7 3d f1 f2 26 bf f4 e4 92 3f
       0.7547392 0.113128744 -0.6521445 1.1476121
000100 11 d2 02 bf 84 33 9c bf 49 02 11 bd 5d 8b 84 3e
       -0.51101786 -1.2203221 -0.03540257 0.25887576
000110 7c 04 a1 3d 92 81 b2 3e 06 53 bd 3e 10 36 fe 3d
       0.078621835 0.3486448 0.36977404 0.12412655
000120 f5 f7 3b bf ca ac 6b 3e a9 f0 09 bf c2 94 bc 3e
       -0.7342523 0.23015133 -0.53882843 0.36832243
000130 e3 16 6a be d9 0a 83 3d d7 2a 29 bf 2a 90 33 3e
       -0.22860293 0.063985534 -0.66080993 0.17535463
000140 4e a8 d5 3d be ed 60 bf 7a 61 5f 3d a0 b5 c8 3e
       0.10432492 -0.87862766 0.05453632 0.3920107
000150 f0 56 81 be 69 3b 97 3e 4b 06 a3 3f 0d 53 94 be
       -0.2526164 0.29537514 1.2736295 -0.28969613
000160 c3 48 58 be 3d f8 b5 3f af 0a 46 be bf e9 8c bd
       -0.21121506 1.4216381 -0.19340013 -0.06880521
000170 86 a9 41 3f 2d 20 b6 3e ce ac f2 bf 4e 62 e8 3d
       0.756493 0.35571423 -1.8958986 0.11346875
000180 e6 3f 2b bf 98 62 38 3f 07 f5 56 bf 6e 59 2f 3f
       -0.66894376 0.7202544 -0.8396763 0.68495834
000190 04 8d 39 3e 4d 55 46 3f 7f e9 a5 be 79 15 a0 bd
       0.181202 0.7747391 -0.32404706 -0.078165956
0001a0 f2 df 56 3e a5 27 4b 3e 13 f0 a6 bf 1b 22 17 bf
       0.20983866 0.19839342 -1.3042015 -0.59036416
0001b0 b5 c8 4b bf e8 02 24 be c5 bc f9 3e 27 a3 03 3e
       -0.7960313 -0.16016734 0.48776832 0.12855206
0001c0 75 f0 cd be 7a 6a e1 3e e2 7f 16 3f 3e 30 81 bf
       -0.40222517 0.44026548 0.58788884 -1.0092847
0001d0 85 1a a8 be 68 aa 87 3e 52 5d 05 3f 58 4a 81 3f
       -0.32832733 0.26497197 0.5209552 1.0100813
0001e0 9c bf eb be 2c cc b9 bf 42 16 90 3e 71 cd 99 bf
       -0.46044624 -1.4515433 0.2814198 -1.2015821
0001f0 3a de 34 bf 4f 20 c8 3e 04 e9 e8 bc b5 55 6b be
       -0.7065159 0.3908715 -0.028431423 -0.22981913
000200 1f 0a bf be ee e9 14 bf 9f 60 0c 3f 5a 9c 5e be
       -0.3731241 -0.5816945 0.5483493 -0.21739331
000210 3d ae 48 bf 3c 3d 40 3d 7b bf 1c bd 3a cd 91 be
       -0.78390867 0.046933398 -0.038268548 -0.28476888
000220 69 88 85 3f 03 c8 cf 3f c5 cc 89 3e 5b c8 aa bf
       1.0432254 1.6232914 0.2691404 -1.3342394
000230 b1 34 f8 3e 9e a6 ac 3f 49 ae 19 bf 66 83 0d 40
       0.484777 1.3488348 -0.60031563 2.211145
000240 4d ac 6b bf 06 01 dd 3e 44 7e 4e bf b9 d3 3d bf
       -0.92059785 0.43164843 -0.80661416 -0.7415119
000250 2f 95 45 bf e1 68 22 3e ee 59 c6 3f 10 38 53 3f
       -0.7718076 0.1586032 1.5496194 0.8250742
000260 2a 7c 83 3e d6 fc 88 bf 6e 9e 1e 3f 1a c1 1d bf
       0.25680667 -1.070216 0.61960495 -0.61622775
000270 e0 d4 e1 bc fe 65 46 3e cc 17 dd 3e 9b 45 6e bf
       -0.027567327 0.19374844 0.43182218 -0.9307496
000280 b2 7a 75 3d 14 f5 b8 bf ab 17 3a bf d0 ac ec be
       0.059931464 -1.4449792 -0.72692364 -0.46225595
000290 9c f7 f8 be 13 39 61 bd f1 3a 8e 3d 71 c1 0a bf
       -0.4862641 -0.05498607 0.06944836 -0.5420142
0002a0 73 02 15 3f 06 ad d9 3d 62 06 96 be 3b 22 4a 3e
       0.5820686 0.10628705 -0.29301745 0.1973962
0002b0 f8 60 85 3f c5 9e 43 be 46 fd 59 be 1e a8 1b bf
       1.0420218 -0.19103535 -0.21288022 -0.608034
0002c0 25 e1 03 3f c1 25 25 3f fe 1c 88 be 0d 32 c5 3d
       0.5151542 0.6451073 -0.2658462 0.09628687
0002d0 db bc a5 bd e0 f4 0a bf 7e 62 88 be 20 0a 8a 3e
       -0.08092662 -0.542799 -0.26637644 0.2696085
0002e0 a7 b7 a5 be 70 91 be 3d 07 34 93 bd 5f dc 86 bd
       -0.32366678 0.09305084 -0.07187658 -0.06585001
0002f0 7c 4b 24 3f b9 c6 7f bf 9f 38 4d 3e 10 ed a6 be
       0.6417768 -0.999126 0.2004113 -0.3260274
000300 2d e6 46 be 7b d6 eb be d4 8f 75 3f ba 9f 58 be
       -0.19423743 -0.46062073 0.9592259 -0.21154681
000310 1f 08 ab be a0 39 98 bf d8 e9 a8 bf 38 70 c0 3d
       -0.33404633 -1.1892586 -1.3196363 0.09396404
000320 3b 4f 32 3f de 3b c4 3e e7 0a c5 3d 3b 5a 5a 3f
       0.69652146 0.38326925 0.0962122 0.8529393
000330 df 5b dd bd 27 17 11 3f 3b 91 06 3f 32 6d 3d 3f
       -0.10808539 0.5667595 0.52565354 0.73994744
000340 e6 60 6b bf c2 1c 36 bf 18 d3 db 3f d5 b2 c6 be
       -0.9194473 -0.7113763 1.7173796 -0.38808313
000350 bd 1f 30 bf e0 3b e1 3e 2f ec 9f 3d cb 9c f8 3d
       -0.6879843 0.43990993 0.0780872 0.12139281
000360 9f 43 67 be 30 cb 80 3f f3 c6 28 3e de bb 1e 3f
       -0.22584389 1.0062008 0.16482143 0.6200541
000370 cd 8c c8 bf a3 8a 9f 3f 22 ff 92 3f 6d 6e 9d 3f
       -1.5667969 1.2464184 1.148411 1.2299324
000380 e6 6a bd be 12 60 42 bd 81 42 a1 3f 6e 5d b7 be
       -0.3699562 -0.0474549 1.259842 -0.3581347
000390 af 48 b5 3f d9 01 d3 be 9c 9f 01 bf ad d0 da 3e
       1.4162806 -0.41212347 -0.5063417 0.42737332
0003a0 93 59 c3 bc bb 32 3f bf 15 0d 00 3f 28 cc 1f 3f
       -0.023846423 -0.74686784 0.5001996 0.6242089
0003b0 1f 0b 74 bf 93 50 6d 3d 65 08 7a 3e 11 dc a1 bf
       -0.9532947 0.05793817 0.24417265 -1.2645284
0003c0 ca 85 86 3d 52 e4 72 be c4 00 34 3f f0 da d3 bc
       0.06568487 -0.2371991 0.7031367 -0.025861233
0003d0 10 34 07 3f 6a 08 ac be f0 7d 3f 3f 8b 5c aa 3f
       0.52813816 -0.3360017 0.7480154 1.3309492
0003e0 9c 90 25 bf 6f 1e 4d be 03 0f 6b be f9 bb 66 bf
       -0.6467378 -0.2003114 -0.22954945 -0.90130574
0003f0 e8 5b 95 3d 0a ed 51 3f 77 64 02 bf d8 fb 95 3f
       0.0729292 0.8200232 -0.5093455 1.1717482

network_body._body_endoder.seq_layers.0.bias f4 [128]
000000 68 08 f2 3c 33 10 73 3c 76 d0 cc bb 83 05 b7 bc
       0.029545024 0.014835405 -0.0062504364 -0.022341495
000010 70 66 d7 3a 1a 47 8c 3c 8f 15 ce 3c 19 61 3f bc
       0.0016433727 0.017123748 0.025156764 -0.011680865
000020 8e d8 01 3d 31 f4 44 3c 5e 31 c6 3c 14 ef a4 3c
       0.031700663 0.01202111 0.024193462 0.020133533
000030 b4 b5 91 bc b9 99 bb 3b ef 12 c0 bc 54 ff f9 3c
       -0.017786838 0.0057251123 -0.023446528 0.030517258
000040 12 93 9f bc d2 f5 03 3c b9 47 ff 3c a3 8e 0f 3d
       -0.019479308 0.008054214 0.03116213 0.03504814
000050 8e f2 04 bb 1d 48 05 3d 94 0e 9d 3c 41 df 46 bc
       -0.0020286175 0.032539476 0.01917199 -0.012138189
000060 98 da dc 3c da 72 e3 3c a8 ef b3 3c 3b 06 27 bc
       0.026959702 0.027764726 0.021964863 -0.010194357
000070 33 32 ff 3c f6 35 11 3d 69 ff bd 3b cd aa 8a 3b
       0.031151867 0.03545185 0.0057982695 0.004231787
000080 cb 79 f3 3c 3a 55 06 3c 28 4b ca 3c cc a2 bd bc
       0.029721161 0.0081990305 0.02469404 -0.023148917
000090 24 2e fa 3c a8 25 dc 3c 7d 7f ca 3a 42 55 d6 bc
       0.03053958 0.026873425 0.0015449371 -0.026163701
0000a0 7f dc 90 bc 80 ce e9 bc be 68 e4 3c 8a f8 90 bc
       -0.017683266 -0.02854085 0.027881976 -0.017696638
0000b0 10 50 07 3d 75 10 a9 3c 65 ed 10 3c 17 dc 19 3d
       0.033035338 0.02063773 0.008845662 0.03756341
0000c0 a6 d7 06 3d 55 4a 53 3c 0e e2 09 3d 86 33 bd 3c
       0.032920502 0.01289614 0.03366285 0.023095857
0000d0 14 91 ff 3c 0b 6e 01 3d 63 1c 05 3d a1 0f 9e bc
       0.031197108 0.031599086 0.032497775 -0.019294562
0000e0 69 a6 16 3d 7d 58 b2 bc 97 12 00 3d 17 a0 fe 3c
       0.036779795 -0.02177071 0.03126773 0.031082196
0000f0 8e ba 26 3c 45 1f b0 bc 48 45 c1 3c 10 fc c8 bc
       0.010176314 -0.021499285 0.023592606 -0.024534255
000100 59 ee 55 bc 62 c3 3b bc 14 21 6c bc 43 1c 93 bc
       -0.013057315 -0.011460157 -0.014412183 -0.017957812
000110 ca a3 d9 3c 9c 52 a7 bb 57 10 e1 3c 57 40 e9 3c
       0.026567359 -0.0051062834 0.027473612 0.028473062
000120 e7 9f 03 3d 7c d9 c3 ba e5 9a 11 3d 86 09 b0 bb
       0.032134917 -0.0014942135 0.03554811 -0.005372229
000130 66 3a 91 bc cd 1b 15 3c 64 99 0a 3d ce 35 b9 3c
       -0.017728042 0.0091008665 0.03383769 0.022608664
000140 59 7d ea bb 66 d1 f2 3a e6 53 7d bc 4b ca b4 bc
       -0.007156056 0.001852554 -0.0154618975 -0.022069117
000150 bc 1c a6 bc 21 a7 a6 3c 37 20 78 bc 43 fe 6e bc
       -0.020277373 0.020343365 -0.015144399 -0.014586988
000160 f3 d6 a3 3c 9e 16 c2 3c 12 33 a8 bb 4c ac ee 3c
       0.019999957 0.023692425 -0.005133041 0.029134892
000170 88 03 6a ba bc 8d d9 bc c6 a7 76 bc 39 9e 77 bc
       -0.0008926918 -0.026556842 -0.015054649 -0.015113407
000180 62 f7 e9 3c 0e d8 9f bc 8c 3b 4b bc a3 bb c6 3c
       0.028560344 -0.019512203 -0.012404334 0.024259394
000190 25 19 c1 3c bc be 16 3c 7a b2 9d bc 5b a2 c9 3c
       0.02357156 0.009200748 -0.019250143 0.02461355
0001a0 0d 99 ae 3c 82 8c 79 3a 1f 1b 0d 3d b7 c6 27 3b
       0.021313215 0.00095195335 0.034449693 0.002560062
0001b0 11 6b b4 3c cb 4a 47 bb a2 04 c9 3c cd 66 f2 3c
       0.02202371 -0.003040957 0.024538342 0.029590035
0001c0 b9 3f db 3b 38 47 6d 3b 3d 29 07 bc 00 af 65 3b
       0.006690946 0.003620578 -0.008249578 0.0035046935
0001d0 c8 43 e4 bc 8b fc e6 bb b7 1c d9 3c 1e 74 58 3c
       -0.027864352 -0.0070491484 0.02650295 0.013211278
0001e0 7f 2f ec bc 0c c5 ae bc 64 29 12 3c 6b ed aa 3c
       -0.028831242 -0.021334194 0.008921001 0.020865163
0001f0 d9 2b b4 bc cc d5 07 bd 24 a0 01 3d 28 9e d7 3c
       -0.021993564 -0.033162877 0.031646863 0.026320532

network_body._body_endoder.seq_layers.2.weight f4 [128, 128]
000000 1f 2c 02 3e c0 6d 04 bd 14 4a 0f 3d 40 50 e3 3d
       0.12712143 -0.03233123 0.034982756 0.11099291
000010 f5 57 c2 3d 10 41 83 be 99 50 36 bd 2e 52 95 3d
       0.09489433 -0.25635576 -0.044510458 0.07291065
000020 2e dd 84 bc b9 09 29 bc 2b 19 2e 3e 58 40 da bd
       -0.016218748 -0.0103172595 0.17001788 -0.10656804
000030 6b fa 05 3d e0 93 73 3d d8 c8 15 3d d7 aa 23 3e
       0.03270952 0.059467196 0.036568493 0.15983139
000040 55 56 ec 3d b1 8f 71 3c 4b a2 4f bd 11 1c 33 be
       0.11539904 0.014743731 -0.050691884 -0.17491175
000050 b5 68 c6 bb 87 48 2a 3e e1 5a 25 be 3a d8 f0 3b
       -0.0060549625 0.1662923 -0.16147949 0.007349995
000060 19 e4 7b 3c b6 ce 0c be a3 37 0a 3d 36 e7 4d 3e
       0.015374207 -0.13750729 0.033744466 0.20107731
000070 6c cd 00 bd 7a 07 46 3d 1d d2 da bb 21 0c 8b bd
       -0.031445906 0.048346974 -0.0066778795 -0.06789423
000080 f5 f8 cf 3a 06 ad d4 3d 16 de c6 bb 14 5e 1d 3e
       0.0015867042 0.10384564 -0.006068955 0.15367919
000090 98 2c 87 3d f4 af 58 bd b7 8b aa 3d 4f 00 8b bc
       0.066003025 -0.052902177 0.0832743 -0.01696792
0000a0 82 37 de bd 3f f2 90 3d 94 f8 9f 3d d3 26 29 3e
       -0.10850431 0.07077455 0.078110844 0.16518717
0000b0 78 a8 18 bd 20 54 9b 3c 91 9e 1b bb 2b 2b ec bd
       -0.03727004 0.018961012 -0.0023745636 -0.11531671
0000c0 1b 81 85 3d a1 21 09 be b7 66 f9 3d 91 88 4c be
       0.065187655 -0.13391735 0.121777944 -0.19973971
0000d0 69 99 24 3d 0a 20 5f 3d 81 3f f1 bc 2d c6 0d be
       0.040185366 0.054473914 -0.029449226 -0.1384513
0000e0 2b 0b 35 be 6f bb 0f bd 6d 65 2d 3e 5d d1 70 be
       -0.17680041 -0.03509086 0.16933222 -0.23517366
0000f0 99 fd 01 3d 0e 1e a1 3d f1 9d 70 bb 4f 74 fe 3c
       0.03173599 0.078670606 -0.0036715234 0.03106132
000100 7c 05 9c bd 0f 76 8a 37 6f 68 af bd 80 8d 9f bd
       -0.076182336 1.6505857e-05 -0.08564841 -0.07790661
000110 bf 41 f1 bd e9 a5 c5 3c 04 60 35 3d f0 c2 e0 3b
       -0.11780118 0.024126964 0.04428102 0.006859176
000120 89 2c 48 3d 0f bc 38 3d c6 db da bd 3a c0 de bc
       0.048870597 0.04510122 -0.1068645 -0.02719127
000130 99 a3 a5 bb 10 20 57 3e 10 cd 7a 3c f2 b9 35 bd
       -0.0050549028 0.21008325 0.01530768 -0.044366784
000140 52 83 25 3d 9d 73 f6 bd c5 7d b6 3b 28 4e 9f bd
       0.04040844 -0.1203377 0.005569192 -0.07778579
000150 fa 40 c6 3d 0a 9f 4f bc 4a 3c ac 3c b4 a6 30 3d
       0.09680362 -0.012672195 0.021024842 0.04312773
000160 cb bc fd 3c 8a 45 54 3d ad 6d 2c 3e 88 79 c7 bd
       0.030973813 0.05182413 0.16838713 -0.09739977
000170 b2 d0 49 be fa 4c cb 3d b0 f2 c1 3d 9e 15 f1 bd
       -0.19708517 0.099267915 0.09470117 -0.11771701
000180 df 1a 58 3d 36 47 45 3d fb 88 da 3d b8 fe 88 bd
       0.05276 0.048163615 0.10670658 -0.06689209
000190 2c bf f4 3c 05 44 25 bd 02 44 c8 bd 0a a9 a6 bd
       0.029876314 -0.04034807 -0.097785965 -0.081377104
0001a0 b0 7e e8 bc 11 71 56 bd 1e 24 62 be 15 4e d3 3d
       -0.028380722 -0.052353922 -0.2208409 0.10317627
0001b0 82 c2 0b 3d 2d 85 9c bd b7 60 29 bc 0a 71 62 3c
       0.034121044 -0.07642589 -0.010338 0.013820896
0001c0 89 2c 22 bd db 02 4d bd 8e f2 39 bc e2 9d fb bc
       -0.039593253 -0.05005155 -0.011349333 -0.030714933
0001d0 92 07 ab 3b 56 ce 09 3e 02 73 4a 3c b8 23 cf bc
       0.0052194083 0.13457617 0.012356522 -0.025285587
0001e0 8b 29 b1 3d 7b f8 eb bc 03 ad 29 3d a1 f8 7f bd
       0.08650502 -0.028805008 0.041424762 -0.06249297
0001f0 46 33 73 3d 4b 9b e3 bc 68 a3 75 be 1a db 19 3d
       0.05937507 -0.02778401 -0.23988116 0.037562467
000200 95 71 25 3d 60 9e b8 3d c6 32 0d be 69 2f c7 bd
       0.040391523 0.09014583 -0.137889 -0.0972584
000210 8f 6f 27 3e 17 5d 66 3c ae a2 ec 3c 73 13 8e bd
       0.1635115 0.01406028 0.028886165 -0.069373034
000220 5f e0 cf 3c a6 9a 55 3d 02 bb 6c 3e 10 d7 6f 3c
       0.025375543 0.052149437 0.23118213 0.014638677
000230 7f 6b 9b bc cc dd 22 be 8c 4b 02 be 26 3b d2 bd
       -0.018972157 -0.15904921 -0.12724131 -0.10265188
000240 35 65 a6 3b e7 bc d9 bc 55 3e 5a 3d 10 51 ba 3d
       0.005077983 -0.026579333 0.0532821 0.09097493
000250 91 3e 67 3d 46 31 75 3d 72 83 d6 b8 aa 61 20 bd
       0.056456152 0.059861444 -0.00010228799 -0.03915564
000260 5a 4f 1a 3e 9b 34 e3 ba a5 10 1a bd 12 b0 d3 bd
       0.15069333 -0.0017334403 -0.03761353 -0.10336317
000270 0e 29 2c 3c 53 e8 0f 3e b1 b6 19 bd 4d a3 83 3d
       0.010507835 0.14053468 -0.037527744 0.064276315
000280 e3 f2 f4 bd 55 f8 a1 ba a7 6c 6e bb 9f f9 b0 bd
       -0.119603895 -0.0012357334 -0.003638068 -0.086413614
000290 7e 39 ce 3d 39 e8 fa 3c 10 8a fc b9 2e 8d b7 bb
       0.100695595 0.03062831 -0.0004816805 -0.0056015467
0002a0 fb df 17 3d 1b 9d 06 be e6 f8 14 3e b5 67 e8 3d
       0.03707884 -0.13145868 0.14548072 0.113479055
0002b0 2b bf 1c be 25 9b a3 bd b0 12 de 3c d5 4c ef 3c
       -0.153073 -0.07988576 0.02710852 0.029211441
0002c0 1f b1 81 3e 37 2b 02 3e 0b ea a9 3d 0f 7e 14 3d
       0.25330445 0.12711798 0.08296593 0.03625303
0002d0 f2 af b0 bd 42 f0 69 3e 7b c0 9c bd f1 78 14 bd
       -0.08627309 0.22845557 -0.076539 -0.03624815
0002e0 bf 81 aa bd 35 6c ba bb f6 dc 6a bd b8 a8 3b 3d
       -0.08325528 -0.005689169 -0.05733963 0.0458152
0002f0 cc 3f b9 3d 10 28 1b bd de f5 8f 3d bb d2 15 bd
       0.090453714 -0.037880003 0.07029317 -0.03657792
000300 17 1f 0c 3c 72 16 c9 bd c7 6e f2 bd 51 a9 d2 3d
       0.008552334 -0.09818734 -0.11837535 0.10286201
000310 22 43 be 3d d1 c6 81 3b 75 f1 35 3d f9 7b 59 3e
       0.09290148 0.0039604683 0.044419724 0.21238698
000320 fc 69 06 3e e5 e5 0a 3e c8 f8 b8 bc 4c 45 10 bd
       0.13126367 0.1356426 -0.022579566 -0.035222337
000330 34 08 df bd 06 a1 0f bc 2c 0c 26 3e 3b 0e 5f 3d
       -0.108902365 -0.008766418 0.1621558 0.05445693
000340 11 4c af bd ea 03 cd bc 72 c8 9f 3d da d2 50 bc
       -0.085594304 -0.02502628 0.07801904 -0.012745583
000350 19 ce 4b bd 49 30 c3 bc 3a d6 20 3d 56 92 1d bd
       -0.049757097 -0.023826735 0.039266802 -0.038469635
000360 91 43 07 3e cd a7 85 bd 65 24 8b 3b 41 fc eb 3c
       0.13209368 -0.06526146 0.004246282 0.028806807
000370 9a e8 e0 bc 46 ba 8c 3d 90 d7 b7 3c 6a 3d 02 3e
       -0.027454663 0.06871466 0.022441655 0.1271874
000380 67 d6 72 3c b3 04 94 bd 5d 8b b9 3d ff 3b d1 3d
       0.014821625 -0.07227459 0.090597846 0.102165215
000390 1a 22 29 be 2a 85 af bc ca e5 28 bd ad ea 86 3c
       -0.16516915 -0.021425802 -0.04123477 0.016469324
0003a0 d9 4f 49 3b 8f 4e 23 3d 5b 0b 5c bd bb 4d 19 bc
       0.003071776 0.03986984 -0.053721767 -0.009356911
0003b0 91 2e ad 3d 6b 68 89 3d e4 a6 9c 3d d7 3d 15 3e
       0.084561475 0.06709369 0.07649019 0.14574371
0003c0 21 0d 51 bd 1b 52 9e bb cd 98 a3 3c a0 2e e3 3d
       -0.05103791 -0.004831565 0.019970322 0.110928774
0003d0 14 7b da bc 12 e5 95 3c 7f 05 3a 3d e3 54 2b 3e
       -0.026670016 0.018297706 0.045415398 0.167316
0003e0 d9 f1 f9 bd 15 67 08 be 21 de 3b 3d e3 87 d4 3d
       -0.12204332 -0.13320573 0.045866136 0.10377481
0003f0 ae ed 31 be 8d 7c ee bd 6a 3d e4 3d dd 21 3a 3d
       -0.17375824 -0.1164485 0.11144526 0.04544245

network_body._body_endoder.seq_layers.2.bias f4 [128]
000000 b1 b0 b0 bc df b2 1a 3d 8c 23 f9 bc 1f e2 1e 3d
       -0.021568628 0.03776824 -0.030412458 0.038789865
000010 d6 ca 97 bc 53 46 e8 3c 6d 2a b6 3c d5 77 38 b9
       -0.018529337 0.028353846 0.022237027 -0.00017592248
000020 01 06 a5 3c 8c b6 ee 3c 92 ad ce 3b d2 0c d1 3c
       0.020144464 0.02913978 0.0063073123 0.025518809
000030 80 42 0c 3d 4b c1 ae 3c a5 b4 d9 bc 0d 4e ec 3c
       0.034243107 0.021332404 -0.026575396 0.028845811
000040 87 de ac bc 99 6d bf 3c f0 12 91 bc a6 83 c1 bc
       -0.021102203 0.02336769 -0.017709225 -0.023622345
000050 59 81 81 3c d0 5f 83 3a e1 70 86 bb 4e 72 ad 3b
       0.015808748 0.0010023061 -0.0041028117 0.005293167
000060 59 50 9e 3c 43 18 e0 bb 6f 17 c8 bc 0b 0f 8a 3c
       0.019325422 -0.0068388297 -0.024425237 0.016852876
000070 18 c8 c7 3c 70 5e 9b bc cc a3 e0 3c d2 48 24 3d
       0.024387404 -0.01896593 0.027421854 0.04010851
000080 70 d4 83 bc 1b c0 d7 bc 98 fe db 3c dd e4 fb 3c
       -0.016092509 -0.02633672 0.026854798 0.030748779
000090 fe bb 00 3d 78 53 15 bc a2 6f c1 3c 4c 47 f7 3c
       0.031429283 -0.009114139 0.023612801 0.030185364
0000a0 ee 91 c0 bc ad 3a 80 bb 54 a8 9b bc 0b 37 0f 3d
       -0.023507085 -0.0039132447 -0.019001164 0.034964602
0000b0 88 38 98 bc e1 23 c7 ba f0 4c b0 bc 92 9a 10 3d
       -0.018581644 -0.0015193188 -0.021521062 0.03530366
0000c0 c4 fc dd 3c ed 69 00 3d 71 5f fb 3c 59 10 f7 bc
       0.027098067 0.03135102 0.030685158 -0.030159162
0000d0 73 3c e6 3c d5 8e ff 3c 5d 21 c0 bc 37 bd d8 3c
       0.028104996 0.031196037 -0.023453409 0.026457412
0000e0 c3 0e 2f 3c fb 46 fb bc 6d c3 1f 3d 00 a7 b1 3c
       0.010684672 -0.030673495 0.039004732 0.021686077
0000f0 e0 96 fd 3c 1c 0e 02 3d 40 9a a6 bc 5c 1f aa 3a
       0.030955732 0.031751737 -0.020337224 0.0012979317
000100 63 c1 0d 3d ce 79 27 bc 2f 71 c4 bc 96 4c 9b bc
       0.034608256 -0.010221912 -0.023979751 -0.018957417
000110 e4 fe a2 bc d5 6b 80 3a 0a 0a c1 bc bd d0 cf bc
       -0.019896932 0.0009797761 -0.023564357 -0.025368089
000120 1a bf 17 3d aa 00 97 bc 8e 44 98 3c 93 f4 24 3c
       0.037047483 -0.018432934 0.018587377 0.010068077
000130 81 61 a4 bc b9 65 70 bc 51 ab e2 bc b1 eb 9b 3c
       -0.020066025 -0.01467269 -0.02766958 0.019033285
000140 40 53 af 3c 86 78 00 3d 87 50 14 3d e5 5f 11 3d
       0.021402001 0.03136494 0.03620961 0.035491843
000150 47 f2 d3 bc 85 f4 ba bc 37 f1 71 bc 87 a8 2a 3d
       -0.025872363 -0.022821674 -0.014766983 0.041664626
000160 9b 19 68 3c 7a e7 84 3c a7 ec be 38 79 7c 88 3c
       0.014166261 0.016223658 9.103986e-05 0.016660916
000170 17 b8 ca 3c 0f 81 94 3c aa 88 eb b9 6e 2c ed 3c
       0.024745984 0.018127946 -0.00044924516 0.02895185
000180 c0 ef f4 3c 46 7d 15 bc aa 65 6a bc 0e 56 2a bc
       0.029899478 -0.009124106 -0.014306465 -0.010396494
000190 b2 03 f3 3c df 41 87 bc 4d b3 d3 bc a9 de 9c bc
       0.029664848 -0.016510902 -0.025842333 -0.019149141
0001a0 64 a8 8d 3c a4 d7 93 bc 39 ca c5 bc ee 8b a9 bc
       0.017292209 -0.018047161 -0.024144279 -0.020696606
0001b0 b8 ef 7c 3b 9e 98 cc b9 eb 38 24 bc e1 e6 88 3b
       0.0038595032 -0.0003902362 -0.010023336 0.0041779135
0001c0 10 69 cb bc bd d8 c6 3c e0 29 ac bc 47 99 0f 3d
       -0.024830371 0.02427327 -0.021016061 0.035058286
0001d0 13 95 90 bc f8 1f d6 3c a8 7e 98 bc c0 92 0a 3c
       -0.01764921 0.02613829 -0.018615082 0.0084578395
0001e0 ed 3b 8f bc 65 24 1b 3d 90 aa 8c 3c 46 1b dd bc
       -0.01748463 0.037876505 0.017171174 -0.026990544
0001f0 53 5e 5d bc f0 45 78 3c 79 eb c4 bc 21 7d b6 bc
       -0.013511258 0.015153393 -0.024038063 -0.022276463

action_model._discrete_distribution.branches.0.weight f4 [2, 128]
000000 05 0e f1 bc e6 96 d9 3c 46 b7 cc bb 4a 19 0a 3d
       -0.02942563 0.026561212 -0.006247434 0.033715524
000010 5e 53 59 bc ca ae 2e 3c ef e4 28 3c 7c 34 49 3c
       -0.013264505 0.01066179 0.010308488 0.01228058
000020 a2 b0 f0 3b 62 9e ae 3c a0 92 26 3c d2 5d 8d 38
       0.007345275 0.021315757 0.010166794 6.740879e-05
000030 dc 7a 2e 3c c8 4d f7 3b b1 34 0c bd 96 aa 13 3c
       0.010649409 0.007547114 -0.034229938 0.009012839
000040 e8 3e 2d bc dc c3 98 3a 39 38 51 ba aa 95 99 bc
       -0.01057408 0.001165505 -0.0007981095 -0.018748123
000050 3b ee 1c bc 87 f9 3e 3a 92 94 db 3b 9f 06 1a bc
       -0.009578283 0.0007285107 0.0067010606 -0.009400993
000060 10 39 21 3c 66 ab 02 bb 52 c2 14 bd 76 83 94 ba
       0.009840265 -0.0019938587 -0.03631813 -0.0011330682
000070 7f e1 e4 3b 41 2c 90 bc f1 98 6b 3c e4 a8 c5 3c
       0.006984889 -0.017599227 0.014379726 0.024128385
000080 97 9e b9 bb ae d0 55 bc 8a 50 4c 3c 14 0b 21 3c
       -0.0056646573 -0.013050241 0.012470374 0.009829301
000090 ae f8 f7 3b 62 ed aa bb 89 bd 8d 3c af c5 be 3c
       0.0075674867 -0.0052162865 0.017302291 0.023287622
0000a0 08 43 a7 bc 81 ae 76 bb 08 8f b1 bc 50 40 82 3c
       -0.020417705 -0.0037640634 -0.021674648 0.015899807
0000b0 15 ae 1c bc 6e 20 69 3b a3 1e ff bc d6 03 89 3c
       -0.009562989 0.0035572308 -0.031142538 0.016725462
0000c0 23 9d 80 3c cb ab ba 3c f8 56 07 3d 9e 11 0d bc
       0.015699929 0.022786995 0.033041924 -0.008610157
0000d0 da a9 71 3c 59 38 40 3d 29 18 e8 bb b7 89 21 3c
       0.014749968 0.046928737 -0.0070829582 0.009859494
0000e0 ef ff 71 3c 90 bb 01 bc 0b 03 05 3d d6 26 87 3c
       0.014770492 -0.007918254 0.032473605 0.01649801
0000f0 c3 aa 97 3c f8 e6 ba 3c 0b e3 f8 bc b2 3e 24 3b
       0.018514043 0.022815213 -0.0303817 0.0025061783
000100 6d bb b9 3c 4f de da ba af eb da bb e7 10 f8 bb
       0.02267238 -0.0016698333 -0.0066809277 -0.0075703743
000110 64 e9 dd bb 4c 5e 07 bc 10 bd 73 bd de 2c cb bc
       -0.006772207 -0.008262228 -0.059506476 -0.024801668
000120 ea d6 ea 3c 35 12 46 bc 2d a8 6d 3c 33 bc 6e 3b
       0.028666932 -0.012089302 0.014505428 0.0036428093
000130 02 b7 1a bc 11 11 1d bc ec a2 5e bc 75 a1 8e 3c
       -0.0094430465 -0.0095865885 -0.013588648 0.017410973
000140 5f d2 42 3c ca 52 b1 3c d7 79 b5 3c 6c f0 f3 3c
       0.011890977 0.021645922 0.022152824 0.029777728
000150 e2 17 f8 bc 95 66 80 bc 0a b2 ce bb 92 db a6 3c
       -0.030284826 -0.015673915 -0.006307845 0.020368371
000160 2e df 92 3b 85 db b9 3b b6 dd 12 bb 63 a6 23 3a
       0.0044821715 0.0056719207 -0.0022409982 0.000624275
000170 4e 93 c6 3c 4e 59 cc 3b e7 75 1a bb 33 b5 be 3c
       0.024240162 0.006236232 -0.002356881 0.023279762
000180 86 76 3b 3c a7 f9 47 bc d6 12 16 bb 37 61 bf bc
       0.011441832 -0.012205518 -0.002289941 -0.023361785
000190 b6 4b 84 3c 88 e4 23 bd 04 63 36 bc 68 fa 9b 3b
       0.016149383 -0.040012866 -0.011132006 0.0047600754
0001a0 c0 2c 4e 3b 28 97 01 bc de c3 a4 bc c5 27 12 bd
       0.0031459779 -0.007909574 -0.020112928 -0.03568246
0001b0 52 2a 3d 3b ad 84 50 3c 29 78 a7 3b 14 45 d9 bb
       0.0028864336 0.012726945 0.0051107598 -0.006630549
0001c0 db d6 ee bc f9 34 cf 3c 58 58 25 3b 0b 1b 4e 3c
       -0.029155185 0.025293814 0.002522966 0.01257969
0001d0 e1 24 80 bb 8c cb 65 3c 21 70 6b bb bd 63 01 3b
       -0.0039106463 0.01402558 -0.0035924988 0.0019743287
0001e0 30 82 52 39 5f 02 a5 3c 04 aa cb 3b 98 97 c0 bc
       0.00020075659 0.020142732 0.006215336 -0.023509786
0001f0 57 09 28 bb aa eb 9c 3a ad 9c 35 bc 36 8a 94 bc
       -0.0025640333 0.0011972089 -0.011084718 -0.01813231
000200 9c 73 db 3c a4 db e2 bc d5 f3 e3 3c a4 26 ed bc
       0.026788525 -0.027692623 0.02782623 -0.02894909
000210 bb c0 28 3c 21 5f 7e bc 48 01 d2 bc 47 5f 35 3c
       0.010299857 -0.01552561 -0.025635377 0.011070079
000220 95 2a 3b bc 1e da cd 3b 6c d3 f2 bb 93 65 2e bc
       -0.011423727 0.006282105 -0.0074104574 -0.010644334
000230 a2 2d b2 bc fc 91 c3 ba 9b 01 c5 3c 91 ba 7c bc
       -0.021750275 -0.0014920826 0.024048617 -0.01542534
000240 26 4b c9 3b 81 9d aa bc eb 81 e3 3c 50 2d 48 3c
       0.0061429916 -0.020827057 0.02777191 0.012217835
000250 28 c9 85 bc 1c 75 f4 3a 4e 85 5d bb e3 83 95 bc
       -0.01633127 0.0018650624 -0.003380138 -0.018251365
000260 19 1d 28 bc b3 36 02 3c dd 75 a5 3c 8c f2 65 bb
       -0.010260844 0.007947612 0.020197803 -0.0035087196
000270 0d ef 94 bc 9f da 2b 3c 80 fd 68 bc 4b 81 9f bc
       -0.018180395 0.010489135 -0.014220595 -0.019470831
000280 20 4e b4 3b cf 3e 89 3c e9 a7 96 bc 22 c1 0a bd
       0.0055024773 0.016753582 -0.018390613 -0.033875592
000290 4b 5a 4e bc 5e c5 b5 3b 2e a1 df bb cc 89 88 bb
       -0.01259477 0.0055472096 -0.006824634 -0.0041668173
0002a0 10 3f b1 3b 17 e5 d1 3b 3c 94 1c 3a 4f 12 ea bc
       0.005409129 0.0064054835 0.00059730164 -0.028573183
0002b0 cc 02 2e 3c 52 c7 31 3c 1a 4b 82 3c 43 5d aa bc
       0.010620784 0.010850744 0.015904952 -0.020796424
0002c0 67 c5 c6 bb af b7 d9 bc a4 11 9b bc 25 83 12 3d
       -0.0060660127 -0.026576845 -0.01892931 0.0357696
0002d0 36 62 2d bc 0b 3b e4 bb 5b 57 8f 3c 51 e9 b3 bc
       -0.010582497 -0.0069650463 0.017497709 -0.02196184
0002e0 42 02 68 bc 80 e4 15 3d 92 f1 06 bd 0a 54 bd bb
       -0.014160695 0.036594868 -0.032945223 -0.0057778405
0002f0 56 1b 6a bc 99 13 af bc 11 43 09 3d f8 b2 3a 3b
       -0.014288744 -0.02137165 0.033511225 0.0028488021
000300 e0 bd ef bc 6c 56 cc bb 28 d4 14 3d b1 f4 9b 3b
       -0.029265344 -0.006235888 0.03633514 0.004759394
000310 c9 5f f1 ba 12 25 84 bc c7 7a e7 3c d8 58 f0 3c
       -0.0018415387 -0.016130958 0.028256787 0.029339239
000320 61 12 d3 bc 58 b5 9d bb 87 65 d4 3b 45 35 7f bc
       -0.0257656 -0.0048128776 0.0064818296 -0.015576665
000330 a1 a8 32 3c eb 2f 42 bc eb 55 d1 3c 6d 8d 6c bc
       0.010904462 -0.011852245 0.025553664 -0.014438015
000340 d9 d9 76 bc 7c f6 89 bc e9 e6 72 bc e1 c2 a7 bc
       -0.015066587 -0.016841166 -0.014825561 -0.020478668
000350 be 97 9f 3c 23 94 7c 3c d2 f1 56 3c b3 38 15 bd
       0.019481536 0.015416178 0.013119178 -0.036431026
000360 f5 0b 9b bb 5b 74 3b bb d6 54 1a bc 6f a0 3f bc
       -0.00473165 -0.0028603289 -0.0094196405 -0.011695965
000370 c8 15 fd bb 62 be b3 bb db 03 1b 3c 39 55 42 bc
       -0.007723544 -0.005485342 0.009461368 -0.011861139
000380 8a 58 5b bc 6a 95 a1 3c 8d 29 99 ba d6 0f 0d 3d
       -0.013387809 0.019724566 -0.0011685357 0.03443893
000390 44 c7 d4 bb b1 6d 8d 3c a9 19 a4 3c 44 a6 54 3c
       -0.006493481 0.017264219 0.020031767 0.012979094
0003a0 28 39 ec bb da c7 87 3b 76 27 36 3c 0c 14 08 3d
       -0.007208962 0.004143697 0.011117807 0.033222243
0003b0 51 96 90 bb 8e f5 1c 3b b1 ea 1d 3c 3a 8d 17 bc
       -0.0044124504 0.0023950073 0.009638474 -0.00924998
0003c0 4d ac af 3c 59 9b 8b bb 6e e8 09 3c 63 de e2 bc
       0.021444464 -0.0042604622 0.008417232 -0.027693933
0003d0 74 c5 88 3c c2 79 a6 bc d0 c3 47 3c c1 e8 33 3b
       0.016695715 -0.02032173 0.012192681 0.0027451965
0003e0 5a 22 f6 3b 45 eb 73 bc d4 ac 83 38 04 eb a9 3c
       0.0075114192 -0.014887636 6.2787585e-05 0.020741947
0003f0 2a e1 d7 ba b0 4a 0a bc c3 d5 a5 3c 49 b1 30 3b
       -0.0016470302 -0.008440658 0.020243531 0.002696114

action_model._discrete_distribution.branches.0.bias f4 [2]
000000 1b 6f d5 3c 1a 6f d5 bc
       0.026053956 -0.026053954

49 f4 [2]
000000 ad 76 d8 3f 10 20 1e 40
       1.6911217 2.470707
