results/flappy_train_1/FlappyBirdAgent/FlappyBirdAgent-71961.onnx (onnx, 71034 bytes, 8 tensors)

network_body.observation_encoder.processors.0.normalizer.running_mean f4 [2]
000000 f8 6b c2 3f 6a 00 8b 3e
       1.51892 0.27148753

network_body._body_endoder.seq_layers.0.weight f4 [128, 2]
000000 82 40 af 3c fd 59 83 bf dd 05 22 3e c1 23 a5 3f
       0.021393064 -1.0261837 0.15822549 1.2901536
000010 46 77 2b be 59 d1 48 bf 52 a0 2b be d4 6a 92 bf
       -0.16744718 -0.7844444 -0.16760376 -1.1438851
000020 90 f6 98 bf 0d e1 d9 be 3d f7 45 3f a4 3f d8 3e
       -1.1950245 -0.42554513 0.7733038 0.42236054
000030 cd 8a 55 bf 79 de cf be 86 bd 1f 3e 12 9d 9a 3f
       -0.8341492 -0.4059942 0.15599641 1.2079184
000040 33 f3 30 3e 2c 72 ee be cb 1d f7 be 7a 9f 31 be
       0.17280273 -0.4657148 -0.48264918 -0.17345992
000050 5c 39 93 3f 47 39 6e 3e 34 7b 4d bf d3 28 33 3e
       1.150188 0.23264037 -0.8026612 0.17496042
000060 c2 0f c9 3e f4 6e f1 3e 63 85 e6 3e 35 50 86 3f
       0.39269835 0.47154963 0.4502364 1.0493227
000070 81 a6 03 be 76 74 09 3e 9b 98 24 bf 90 6f 02 bf
       -0.12856485 0.13423333 -0.6429536 -0.5095148
000080 7d f3 44 3f cf 7c 3d 3f cd 18 93 3f 3f 55 a2 bd
       0.76934034 0.7401857 1.1491944 -0.07926416
000090 82 29 8b 3f 6d d1 51 bf 1f 33 e0 be 38 51 82 3d
       1.0872042 -0.81960183 -0.43789002 0.063631475
0000a0 58 f6 64 bf d1 78 aa be cf ed 93 3d 30 4e 39 3f
       -0.8943839 -0.332953 0.07223093 0.7238493
0000b0 e7 8b e9 be 69 88 80 bf 18 8b ac bf 3e 1c c8 3d
       -0.4561455 -1.0041629 -1.3479948 0.09771012
0000c0 f3 71 9b bf eb 57 25 be 8a e3 16 3f ee 3b a9 bf
       -1.214415 -0.1614682 0.5894095 -1.3221414
0000d0 8b a6 53 3f a9 00 11 3f 29 86 53 bf d4 c6 37 3f
       0.82676 0.5664163 -0.8262659 0.7178776
0000e0 f3 f8 9a 3f 78 e8 d0 3f c5 c8 80 3f 25 cc 0d bf
       1.2107223 1.6320944 1.006127 -0.55389625
0000f0 5b a3 5c 3f 13 2b 55 3f 3f b0 fb be 56 1e 58 bf
       0.8618676 0.8326885 -0.49157903 -0.8442129
000100 04 0f 15 3f a9 27 48 3f 3d e7 ca be 18 99 a8 bd
       0.5822604 0.78185517 -0.39629546 -0.08232325
000110 b5 f4 16 3f 9b eb 94 be e9 9c 84 bd 11 9e 22 bf
       0.58967143 -0.29086003 -0.06475241 -0.6352244
000120 65 53 9e be e0 df 91 bf fe e1 dd be f7 a2 ca 3d
       -0.30923 -1.1396446 -0.4333648 0.09894364
000130 2d a1 bc bd 90 a9 7c 3d 5e 61 35 3f 52 d5 4e 3f
       -0.09210429 0.061685145 0.70851696 0.8079425
000140 4a cb 84 be fd 3c 11 3f e7 a7 c7 3f d9 1e 80 bf
       -0.25936347 0.56733686 1.5598115 -1.0009414
000150 30 76 f0 be ef 4b 79 3f a0 c0 1e bf 6a 16 c9 bf
       -0.4696517 0.9738149 -0.6201267 -1.5709965
000160 c9 5e 9e 3e 35 9d 35 3f 9d 35 23 3d 20 25 30 bf
       0.3093169 0.70943004 0.03984605 -0.6880665
000170 98 81 7c 3e 16 fe 96 bf 35 d7 b8 be 7a 7e 24 bf
       0.24658811 -1.1796291 -0.3610169 -0.6425549
000180 a7 9d 54 bd 95 d0 85 3f 4e bb ae 3f d2 cc d5 3e
       -0.05190816 1.0454279 1.3650911 0.41757828
000190 37 24 82 be 3b ef 1a 3f d5 54 52 be 9c c6 37 3d
       -0.25418255 0.60521287 -0.20540173 0.044867143
0001a0 4c f2 9b 3f 0b 75 a3 be c0 2f 85 3d 3a a7 22 3f
       1.2183318 -0.31925234 0.06503248 0.6353642
0001b0 9d ca 4b 3d 9b 5b c0 3f f4 17 c3 3e ae f4 a6 be
       0.049753774 1.5027956 0.38104212 -0.3260855
0001c0 a3 9b 0f 3f dd 49 10 3f 01 89 0a 3f 09 e9 c6 be
       0.5609686 0.56362706 0.541153 -0.38849667
0001d0 1e 1c bf 3f 6e 63 5b be 3d c1 8f 3f 5a 83 28 bd
       1.4930456 -0.21424648 1.1230847 -0.04114089
0001e0 34 f7 14 bf ec a5 0a 3f 3b 1f 53 3e ab 89 3a bf
       -0.581897 0.54159427 0.20617382 -0.72866315
0001f0 9c 8a 17 bd 46 96 75 bf 16 86 9d bd 62 64 a9 3e
       -0.036997423 -0.95932424 -0.076915905 0.33084399
000200 03 fa 68 bf c4 36 14 bf 73 fa 40 bf 81 f2 b7 be
       -0.9100649 -0.57896066 -0.75382155 -0.35927203
000210 ee 9f 79 bf 2a 76 f8 be a1 8b 31 be bf 95 ac be
       -0.9750966 -0.48527652 -0.1733842 -0.33707997
000220 60 3a 8b be b4 f4 90 bf 8c 77 d6 bb 56 38 4f 3f
       -0.27192974 -1.1324677 -0.006545013 0.80945337
000230 b5 20 51 3f 43 1c 37 bf c0 82 08 bf 5a a5 fd 3e
       0.8169053 -0.715275 -0.5332451 0.49540216
000240 34 74 09 bf 6e a9 17 bf 6b 58 82 bf 66 18 cd 3e
       -0.53692937 -0.59242904 -1.0183233 0.40057677
000250 6b 3a a7 bf 63 7c 86 3f 07 66 22 3d 54 32 00 3f
       -1.3064703 1.050671 0.039648082 0.50076795
000260 a2 23 6d bf 16 f8 9a 3f e2 e2 05 bf 4c ba 7c 3f
       -0.92632496 1.210696 -0.5229932 0.98721766
000270 b6 2a 3a 3f 1b 3d aa be 00 49 e0 3e 1e 43 e7 3f
       0.7272142 -0.33249745 0.43805695 1.8067358
000280 9f 70 85 3f 43 ca 93 be 5e 62 8c 3f fd 75 00 bf
       1.0424994 -0.2886525 1.0967519 -0.50180036
000290 21 e3 2d 3f 35 64 37 3f 38 9b 21 3f 30 e8 21 3d
       0.67924696 0.7163728 0.6312747 0.039528072
0002a0 60 ab ee 39 ec ba 5e be 9b 19 a4 bc 21 9f fc 3e
       0.00045522582 -0.21750993 -0.02003174 0.49340156
0002b0 4b 52 4c bf 4f b8 a2 bf 41 90 cf 3f d6 4f ea 3e
       -0.7981307 -1.2712497 1.6215898 0.45764035
0002c0 e0 d3 bb be 0d f0 1b 3e df 78 e1 3e fe 05 b9 3e
       -0.36685085 0.15228291 0.4403753 0.36137384
0002d0 81 ef 60 3e 3f 94 71 be 96 e8 dd 3e d5 6a 36 3f
       0.21966363 -0.23591708 0.4334151 0.7125676
0002e0 42 1d 4f be 84 9d ff 3d 48 fe cb 3d 14 ea f8 be
       -0.20226005 0.124812156 0.0996061 -0.48616087
0002f0 95 4d 3e bf ea 68 a6 3f 5a 17 c1 3f 08 5a fb 3e
       -0.7433713 1.3000767 1.5085251 0.49092126
000300 8d 5d c7 bf 35 b0 97 3d f1 1e 43 bf d9 ed c6 bf
       -1.5575424 0.07406656 -0.7621909 -1.5541335
000310 50 d5 0c bf dc 5f 27 bf 1b e0 5c 3e ff 2c 64 3e
       -0.5501299 -0.65380645 0.21569864 0.2228279
000320 4d a7 08 3f 4d 5b 6a 3f 0b 63 ff be 5e f8 20 bf
       0.5338028 0.91545564 -0.4988025 -0.6287898
000330 ed 6f 12 3f 5c 7f e7 bd 4d 7a b2 bf 60 0e 02 3f
       0.57202035 -0.11303589 -1.3943573 0.50803185
000340 84 8f 3b bf 88 d9 05 3f 4f 68 bc 3e aa 2f d4 be
       -0.7326586 0.5228505 0.3679833 -0.41442615
000350 a3 fb af 3f 64 51 84 be 26 89 f8 3d 1a ec ef 3e
       1.3748668 -0.25843346 0.12135534 0.4685982
000360 24 24 df be 85 ee 83 3f a0 50 92 bf 6d 19 cb be
       -0.4358226 1.0307165 -1.1430855 -0.39667836
000370 77 14 8f 3e 19 6c 7b 3f ad 2b a7 be c1 1d 90 3f
       0.279453 0.9821182 -0.3265051 1.125908
000380 19 8f ce be de 61 33 3f 33 4c 01 3d 28 f4 ef 3d
       -0.4034355 0.7007121 0.03156681 0.11716491
000390 d1 2b cb be 5d d2 26 3f b5 69 14 be 29 ed 1f bf
       -0.39681867 0.6516474 -0.14493449 -0.6247125
0003a0 d0 ad 26 bf fa ed 9a be f5 4d 56 3f 2c 87 65 bf
       -0.65108967 -0.30259687 0.83712703 -0.8965938
0003b0 39 c7 e0 3b 6b 7b 9e 3e 4f 40 32 3e 0b e9 af be
       0.0068596867 0.30953535 0.17407344 -0.34357485
0003c0 eb b8 a9 bd 84 2b 31 3e 48 a7 af 3e db e0 c5 3f
       -0.082872234 0.17301756 0.34307313 1.5459245
0003d0 ca bb aa 3f 47 dc 16 bd f6 fa 0e 3e bf 17 fa be
       1.3338559 -0.036831167 0.13962922 -0.48846242
0003e0 92 b2 5b 3e d2 8c ef be f4 24 2d 3f 6e 4c 72 bd
       0.21454838 -0.46787125 0.6763451 -0.05915492
0003f0 28 81 99 3f c5 87 a5 3f 15 a9 6c 3e 38 3e 7a 3f
       1.199254 1.2932059 0.23111375 0.9775119

network_body._body_endoder.seq_layers.0.bias f4 [128]
000000 91 a0 cd 3d ac 48 b9 3d 9d ea de 3d 26 3e 9b 3d
       0.10040391 0.09047064 0.10884593 0.07580213
000010 e5 20 d2 3d 26 fa 8e bd 88 47 7f bd e6 dc 03 bd
       0.102601804 -0.06981306 -0.062324077 -0.032193087
000020 bc 0b 37 bd 9e 7f e7 3d 47 86 ee 3d a5 fc af 3d
       -0.044688925 0.11303638 0.11646705 0.0859311
000030 d9 ee e0 bd 4e f2 71 3d 6c 2f d3 bd 63 d4 d5 bc
       -0.109830566 0.05906897 -0.103117794 -0.02610225
000040 62 4e bd 3d e3 54 f6 3d ed bb 01 3e bd 1e 84 bd
       0.09243466 0.120279096 0.12669344 -0.06451175
000050 9f c7 28 3d 9b 91 5c 3d 42 16 ad 3d 9e 0b a5 3d
       0.041206 0.053849798 0.08451511 0.080588564
000060 e4 d0 c2 3d a5 9b 00 3e eb c9 c4 bc 29 60 e4 3d
       0.09512499 0.12559374 -0.024022063 0.111511536
000070 f0 54 ea 3d d3 f9 f6 3d bb 62 d3 3d dc 86 71 3d
       0.11441982 0.12059369 0.10321566 0.058966503
000080 df 8d a5 bd 23 44 8d bd 48 f6 07 3e cb 8b 8f 3d
       -0.080837004 -0.06897762 0.13277543 0.07009085
000090 a8 24 a4 3d b9 fc c1 bb f0 4c e1 bd 93 d7 ea 3d
       0.08014804 -0.0059200195 -0.11001003 0.11466899
0000a0 93 42 f6 bd cd 11 e5 3d 60 25 b1 3d 7d e8 01 3c
       -0.12024417 0.11185036 0.08649707 0.007928965
0000b0 1c e7 71 3c 42 a6 1a 3c 96 30 73 bd ef 44 45 3d
       0.014764573 0.009439053 -0.059372507 0.048161443
0000c0 9a ab 72 3d 81 90 f4 3d c1 39 c9 3d e6 b4 fd 3d
       0.059245683 0.119416244 0.09825469 0.12388019
0000d0 01 0b ff 3d e6 8b c5 3d 7a 03 aa 3d 17 a9 ca 3d
       0.12453271 0.09645824 0.08301444 0.098955326
0000e0 6a 1f cf 3d fa 6e 03 3e ce 23 02 3e 9e 1f f9 3d
       0.10113414 0.12835303 0.12708971 0.121642336
0000f0 29 ff bb 3d 45 d9 c3 3d f7 4e ae bd 45 f9 cb bd
       0.09179527 0.09562925 -0.08511155 -0.09959654
000100 ad be 94 3d 8a 13 b2 3d e5 8a 94 3c 84 68 e3 bd
       0.07262931 0.08695133 0.018132636 -0.11103919
000110 06 ee 03 3e 8f e4 3e 3d 68 76 03 3e 21 de a0 3b
       0.12883767 0.04660469 0.12838137 0.0049092923
000120 dd 84 0f 3d d5 20 73 3d 29 bb e7 3d b6 ff dc 3c
       0.035038818 0.059357483 0.11314995 0.026977401
000130 7a 54 ba 3d b7 ab ad 3b 11 35 0b 3e 2d cf b4 3d
       0.09098144 0.005300011 0.13594462 0.08828578
000140 07 ae cd 3d bf 48 05 3e d3 64 b6 bd 57 93 a6 3d
       0.10042959 0.13016032 -0.089059494 0.081335716
000150 88 aa e1 bd 65 66 0b be a5 4d 59 3d 54 a5 d1 3d
       -0.110188544 -0.13613279 0.053052563 0.10236612
000160 ee fd 07 3e b3 d7 ac 3d 75 d3 db bd a8 49 6b bd
       0.1328046 0.08439579 -0.107336916 -0.05744329
000170 36 b8 09 3e 6e 3d a8 bc 2f 5f bd 3d d4 11 ea 3d
       0.13449177 -0.020537104 0.092466705 0.11429182
000180 ea 66 a9 3d 00 86 61 3d c1 b4 07 3d e0 b6 15 be
       0.082715824 0.055059433 0.033131365 -0.14620543
000190 3a d4 ea bd e8 f1 36 bc d5 14 08 3d d8 e0 bf 3d
       -0.1146626 -0.011166073 0.033222992 0.093690574
0001a0 bc 86 d2 3d 4f 46 6e 3d de e6 d3 3d 80 3d 0f be
       0.10279605 0.05817252 0.10346769 -0.13988304
0001b0 c8 a5 ca 3d 01 b2 97 3d 8c ab 98 3d c1 68 b9 3d
       0.098949015 0.074069984 0.07454595 0.09053183
0001c0 62 2d ad 3d 31 a6 0e 3e e1 ed b8 3d a8 a5 2a bd
       0.08455922 0.13930584 0.09029747 -0.04166189
0001d0 92 67 c8 3d 02 cd e2 3d 0c 08 ed 3d db 10 10 3e
       0.097853795 0.110742584 0.115738004 0.1406893
0001e0 8b 87 03 3e 0e 0a d1 3d e6 28 07 3e d5 3e f1 3d
       0.12844674 0.10206996 0.13199195 0.117795624
0001f0 30 28 07 bd 9d b6 17 3e c9 f2 a1 3d 2f e9 b6 3b
       -0.03299731 0.14815755 0.07907636 0.005581997

network_body._body_endoder.seq_layers.2.weight f4 [128, 128]
000000 93 aa fc 3b a5 62 3e bd f5 71 b3 3c dc 9f 52 3e
       0.0077107637 -0.046480794 0.021904925 0.20568794
000010 45 60 0d bc ec 08 cd bb b1 22 df bd 38 09 21 bd
       -0.0086289095 -0.006257167 -0.10895289 -0.039315432
000020 73 9b 92 bd 06 24 35 bc 72 8c 83 3d 88 9c d3 bd
       -0.07158556 -0.011055952 0.06423272 -0.1033259
000030 6a 99 79 3c 4f 6f 5c 3d bc 31 10 be 76 1a 76 3d
       0.015234331 0.05381709 -0.14081472 0.06008383
000040 ca 57 29 3d 08 d3 51 3a 64 86 5f 3c 88 c5 1b be
       0.041343488 0.00080041634 0.013642881 -0.15212071
000050 e7 c9 78 bb a4 92 af 3c e3 b0 25 3e f7 f4 84 3d
       -0.003796214 0.021432228 0.16180758 0.06492036
000060 59 25 91 3d 02 8c 8a bc a0 ef 3f bc 30 b1 e1 3d
       0.070872016 -0.016912464 -0.011714846 0.11020124
000070 8e 85 09 3e 2e c9 f0 3d a1 44 66 3c ad f4 b2 bd
       0.13429853 0.11757122 0.014054448 -0.087380745
000080 98 c2 83 3d 3d 9f a4 bd 1b 29 b0 3d 06 e4 0c 3c
       0.064336 -0.08038185 0.0860159 0.008599287
000090 2f b6 bc bd 62 55 57 bd a1 d2 69 bd ae da 1f 3e
       -0.09214436 -0.05257166 -0.057085637 0.15610763
0000a0 bf 29 74 3d 53 5a 62 3e 76 0e b9 3d a7 d8 9b bd
       0.059610125 0.22104768 0.09035961 -0.076096825
0000b0 8b 3f 3e 3d a9 ee 8c 3d 50 ad a9 3c 53 72 05 be
       0.046447318 0.06881458 0.020712525 -0.13031892
0000c0 1a fe 3b 3c 3a 9f 8e bc 16 52 eb bd fd 41 35 3e
       0.011474157 -0.01740991 -0.11490266 0.17700954
0000d0 09 1d e6 bd 38 4a 98 bd 13 2a 8d 3c ea 9e d7 bd
       -0.11236007 -0.07436031 0.017231977 -0.10528357
0000e0 06 81 8f 3c ef 11 2d 3e ab 7b 1c 3e 06 4a 9f 3d
       0.017517578 0.16901372 0.1528155 0.07777791
0000f0 c6 b3 89 bd 32 b1 93 bc b1 0e 70 3d f6 dd f9 3b
       -0.06723742 -0.01802883 0.05860776 0.0076253368
000100 72 b9 eb 3d c4 1d cd 3d 67 74 ea bd d3 bf 03 bd
       0.1150998 0.10015443 -0.11447983 -0.03216536
000110 41 5f bb bd cc ed 91 3d 98 4f 2f 3e c0 13 ce bd
       -0.091490276 0.07125434 0.17120206 -0.10062361
000120 6d 01 c9 3d bb 0e 7e bd 0c 2b 8f 3d 31 2d 80 3c
       0.09814725 -0.062025767 0.069906324 0.015646549
000130 0e 74 d7 3c 6c 06 bd bd 6d 64 ca 3d 14 8a 8f 3c
       0.026300456 -0.092297405 0.09882436 0.017521895
000140 61 87 23 bd 8a c6 d0 bd 46 63 ce bb 60 43 43 3e
       -0.03992403 -0.10194118 -0.0062984554 0.1906867
000150 6e 8f b8 bd 45 e2 b9 3d 39 fa b9 bc 5e e6 06 bd
       -0.09011732 0.090763606 -0.022702323 -0.03293454
000160 9f 30 3c 3e 6f 75 60 3d 56 b3 57 be e7 f0 c7 bc
       0.18377922 0.054799493 -0.21064505 -0.024406863
000170 2a b8 c5 bb fa e6 32 be 09 b5 63 3d 69 84 8e 3e
       -0.006033917 -0.17470923 0.05559257 0.27835396
000180 e7 53 a5 bd 55 d2 2c be 2c 83 56 3d 4f 1b 10 be
       -0.08072644 -0.1687711 0.05237119 -0.14072917
000190 2d 6b 0c 3e 67 7b ec bd cc d0 8d bd e1 9a b4 3d
       0.1371276 -0.11546975 -0.069245905 0.08818603
0001a0 be 85 1f 3e 21 22 bb 3d 65 97 c2 3d 3b 08 34 be
       0.15578362 0.09137369 0.095015325 -0.17581265
0001b0 d7 81 20 bd 85 63 e5 3c 25 1f c7 bd 10 bb ab 3d
       -0.039186325 0.028001556 -0.09722737 0.08385289
0001c0 83 3e f2 bd 4a db 24 bd b8 1a dd bd e7 12 d3 bd
       -0.118283294 -0.040248193 -0.10796112 -0.1030634
0001d0 08 26 7e 3d f3 24 8f bd 0e 6b 01 be 45 f1 28 3e
       0.06204799 -0.069894694 -0.12638494 0.16498287
0001e0 84 fd 1f 3e 18 24 07 bd 76 9e 36 3e b1 4d 3c be
       0.15624052 -0.032993406 0.17833886 -0.18389012
0001f0 78 26 9e bb 2c ec 40 bb 2e f9 84 3d d6 46 d4 3d
       -0.004826363 -0.0029437644 0.0649284 0.103650734
000200 84 5a 06 be 1b 73 08 bd d5 0e eb 3d 82 73 34 be
       -0.13120466 -0.033312898 0.11477438 -0.17622188
000210 e5 6e 4a bd b7 b3 3f bc 5f dc 95 bd aa f7 42 bd
       -0.049422164 -0.011700562 -0.07317423 -0.047599472
000220 8e 14 a8 bc 94 f3 ec bd 52 ff 15 be 9e 23 59 be
       -0.020517614 -0.11569896 -0.14648178 -0.21204993
000230 99 28 d5 bd ad 25 5e bd b2 67 0f 3e 35 bd e2 3d
       -0.10408134 -0.05423515 0.140044 0.110712446
000240 e0 3e a4 bd cd be f6 3d d7 f8 8e bd b8 e5 43 3d
       -0.08019805 0.12048111 -0.06981056 0.0478265
000250 8c 2b 85 3c fa dc ef bc 48 cf 07 3e f7 98 04 bb
       0.016256116 -0.029280175 0.13262665 -0.0020232776
000260 10 6b 0d be 61 15 0c 3d 9b 54 b0 3b b6 3e a5 bd
       -0.13810372 0.034200076 0.0053811795 -0.08068602
000270 43 14 0d bc d9 49 8d bd 87 76 47 be 1d a3 a5 bd
       -0.008610788 -0.06898851 -0.19478808 -0.08087752
000280 7b c0 ab 3c 94 37 e8 3d e0 1d 96 bc 1b 6d 46 3d
       0.020965805 0.11338726 -0.018324792 0.048443895
000290 9c 8a af bd 21 c0 ea bd 70 ea 06 3e da 5c 6a bd
       -0.085713595 -0.11462427 0.13175368 -0.057217456
0002a0 47 be b5 3d 0f bb 6f bd e7 67 ab bd 83 8d 0f 3c
       0.08874183 -0.058528002 -0.08369427 0.008761766
0002b0 c8 02 31 bd ac 52 7e bc 13 96 d1 bc b2 cc e2 bd
       -0.043215543 -0.01552264 -0.025584256 -0.11074199
0002c0 10 a8 0e bb 93 f0 7e bd 0c 2b c6 bc c8 00 97 bd
       -0.0021767654 -0.06224115 -0.024190448 -0.07373196
0002d0 0f 51 0c bd 71 58 e8 bd c4 8b 08 be d1 44 e1 bc
       -0.03425699 -0.11344994 -0.13334566 -0.027498635
0002e0 6a 53 78 bc a9 eb a7 bd be 6b 40 bd 49 a7 15 bd
       -0.015156606 -0.081992455 -0.04697775 -0.03653649
0002f0 12 20 a6 bd 3c 71 da 3d 62 35 b2 bd 2e aa ca 3d
       -0.08111586 0.10666129 -0.08701588 0.098957404
000300 80 81 f3 3d 45 32 1a be f5 c9 3c be 93 7b 1f 3d
       0.118899345 -0.15058239 -0.18436415 0.03893621
000310 72 5a 8b bd f6 4a a5 be 49 5e b9 bc 58 a1 27 3d
       -0.068043604 -0.32283753 -0.022627966 0.040925354
000320 a4 6a 0c be 06 15 4c 3e 54 a2 d7 bd 03 6c 96 bd
       -0.13712555 0.19929895 -0.105290085 -0.0734482
000330 16 4a 3b 3a aa 4d aa bd d2 e1 11 be 3c 33 0c be
       0.00071445236 -0.083155945 -0.142463 -0.1369142
000340 2b 8c f3 bd e0 09 b8 3c 32 d1 f1 bd 3f 89 db 3d
       -0.11891969 0.022465646 -0.11807479 0.10719537
000350 30 2c ba 3d eb 2a 82 3d 69 42 d5 3c b2 8c 1d be
       0.09090459 0.06355842 0.026032643 -0.15385702
000360 5c e9 0f be 55 22 70 ba f8 f7 42 bd c8 2b 04 bd
       -0.14053863 -0.00091603893 -0.047599763 -0.032268316
000370 01 8c 53 3c 3c f8 b4 bd 90 92 ca bd 04 66 52 be
       0.0129117975 -0.088364094 -0.09891236 -0.20546728
000380 78 97 7f be 22 17 08 bd 06 45 b0 3d fc 10 11 3e
       -0.24960124 -0.033225186 0.08606915 0.14166635
000390 13 1c 8c 3c e7 ca f8 3c 3f 54 4d bd 79 05 7e bd
       0.01710323 0.030370189 -0.05012917 -0.062016938
0003a0 1f 41 10 bd b7 77 0c 3d 66 7a c8 bd d9 a8 2e bd
       -0.035218354 0.034293856 -0.09788971 -0.042641494
0003b0 b4 a3 90 3d 2e 88 c3 bc 3c 53 54 bd d2 ca b1 bd
       0.07062474 -0.023868646 -0.05183719 -0.08681263
0003c0 75 4a ed 3c ef 0c 0f be 71 2c 13 be ec 87 f5 bd
       0.028966168 -0.13969778 -0.14372422 -0.11988816
0003d0 a6 b5 88 3d 9b f0 81 bd ed 78 18 be 30 81 8b be
       0.06675272 -0.0634472 -0.1488988 -0.27247
0003e0 92 0a a4 bd 28 16 4c be 75 0e 90 be 12 b2 8c 3c
       -0.080098286 -0.19930327 -0.2813603 0.017174754
0003f0 67 f6 e8 3d 85 1b 0a bb 0f 49 91 bd ca c5 04 3d
       0.113751225 -0.0021073532 -0.07094013 0.03241519

network_body._body_endoder.seq_layers.2.bias f4 [128]
000000 76 b4 ea 3d ac b3 cf bd 8b aa a6 3d c7 d6 fa 3d
       0.114602014 -0.101416916 0.08137997 0.12247997
000010 ad 11 f1 3d 6f 72 8b bd 99 71 eb bd 0a 1b ff 3d
       0.117709495 -0.06808936 -0.114962764 0.12456329
000020 34 d7 fc 3d 1d 50 09 3e e4 38 d9 3d 46 59 d5 bd
       0.12345734 0.13409467 0.10606554 -0.10417418
000030 f0 2e 7f bd 82 6f 9f bd d6 4a c8 3d be e5 b8 bd
       -0.062300622 -0.0778494 0.09779899 -0.09028195
000040 57 2f bb bd 22 0a b5 3d ea dc 97 bd 8a 7f cc 3d
       -0.09139889 0.08839823 -0.07415183 0.09985264
000050 e2 48 db 3d bf 0a c3 bd 79 4a a1 bd 68 c3 f2 3d
       0.10707261 -0.09523534 -0.07875533 0.11853677
000060 b7 b0 b4 3d 61 c9 f9 3d 73 92 a5 3d 10 46 f9 3d
       0.08822768 0.12196613 0.080845736 0.121715665
000070 c6 c2 e7 3d 4d 86 a6 3d 04 23 d5 3d 98 9a f1 3d
       0.11316447 0.081310846 0.10407069 0.117970645
000080 d0 9b b8 bd 1f 42 0c bd a0 19 fd 3d 73 52 92 bd
       -0.09014094 -0.034242745 0.12358403 -0.07144632
000090 35 9a cd 3d 89 52 96 3d 1f cd 98 bd 00 50 b6 bd
       0.10039178 0.07339961 -0.07460999 -0.089019775
0000a0 21 a7 e4 3d a8 a8 ff 3d 8e c6 f2 3d 83 09 b1 bd
       0.1116469 0.124833405 0.118542776 -0.08644392
0000b0 6b 00 a2 3d d7 fe d0 bd e3 4f ec 3d cc 0b df bd
       0.07910236 -0.10204857 0.11538675 -0.10890922
0000c0 87 a8 9d bd 0b 22 a4 3d 3d f6 88 3d 26 9e c9 bd
       -0.0769816 0.08014306 0.06687591 -0.098446175
0000d0 bc 03 aa bd 3e d4 bf 3d 20 9c e6 3d 16 4e 9b bd
       -0.083014935 0.09366654 0.11260247 -0.07583253
0000e0 e9 dd 9f bd 3f 2b cf bd f1 28 8e 3d 6b 4f 02 be
       -0.07805998 -0.101156704 0.06941403 -0.12725608
0000f0 d7 95 14 3d 22 51 c3 3d 0a 76 a4 bd 10 b2 c4 3c
       0.03627571 0.09536959 -0.08030327 0.024010688
000100 fd d0 f1 3d 5c b9 a7 3c 7b c3 9a 3d 9a c4 c7 3d
       0.118074395 0.020474128 0.07556816 0.09754296
000110 92 8c 88 bd 20 19 db bd 2f 1d d4 bd 79 bc cb 3d
       -0.06667437 -0.106981516 -0.10357129 0.09948058
000120 79 7e 95 3d 87 5c 9b 3d 3e a6 cd 3d c5 c5 ba bd
       0.07299513 0.075860076 0.10041474 -0.09119753
000130 72 76 cd 3d 8a 5d 9c 3d ac 70 97 3d 53 19 12 be
       0.10032357 0.07635029 0.07394537 -0.14267473
000140 f9 8e e5 bd 44 62 4a bd 77 12 e7 bd eb a1 df 3d
       -0.112089105 -0.04941012 -0.11282819 0.10919555
000150 50 d4 c9 bd a5 3a 8c bd ee af de bd 8b 6d d7 3d
       -0.098549485 -0.06847123 -0.108734 0.105189405
000160 b7 43 ba bc a4 6f 09 3e 95 f5 c1 3d 58 29 94 bd
       -0.022737367 0.13421494 0.09470669 -0.07234448
000170 4a f6 b8 bd e8 9f ac bd 1c e4 0a 3e 6c a3 d2 3d
       -0.09031351 -0.08428937 0.1356358 0.102850765
000180 4d da 9d 3d d4 56 c8 3d fc 0a fd bd dd 80 e3 3d
       0.07707653 0.09782186 -0.12355611 0.11108563
000190 be 88 e1 bd 94 c5 af bd 20 56 cf 3d 06 cd b8 3c
       -0.110124096 -0.08582607 0.10123849 0.0225587
0001a0 79 ed c7 3d 9b 47 e4 bd aa 6b b0 bd aa ed ea 3d
       0.09762091 -0.1114647 -0.08614285 0.11471112
0001b0 c4 81 c6 3d 22 4d a3 3d e5 31 c1 3d 4e cd 09 3e
       0.096927196 0.07973696 0.09433345 0.13457224
0001c0 fd 5a bd bd ff 61 8f bd 11 4b d2 bd 79 3e 7c 3d
       -0.0924587 -0.07001113 -0.10268224 0.061583016
0001d0 73 26 e3 3d c1 4f f0 3d df e1 11 3d 44 89 bf 3d
       0.11091318 0.11733962 0.035615798 0.09352353
0001e0 8e 97 2e 3d 62 18 20 3d 13 2a a3 bd d0 cb 83 3d
       0.042625003 0.039085753 -0.079670094 0.064353585
0001f0 a2 ff fc bd 24 3f d2 bd b6 ee 93 3d 8c af fb 3d
       -0.123534456 -0.10265949 0.07223265 0.12289342

action_model._discrete_distribution.branches.0.weight f4 [2, 128]
000000 9b 8f 0b 3d 6e d6 9e bd a1 d3 a2 3b 86 0b 93 3d
       0.0340725 -0.07755743 0.004969076 0.07179932
000010 fb 0d 8b 3d a3 ee 1b bd 1f 5e 9a bd 53 2a 35 3d
       0.06789776 -0.03806938 -0.075374834 0.044229817
000020 8d 3f 57 3d 8e 90 4d 3d 96 81 13 3d da bd d0 bd
       0.05255084 0.050186686 0.036012255 -0.10192461
000030 4f dd 43 bc 8e de fc bc 7d 18 6f 3d 59 f5 03 bd
       -0.01195462 -0.030867841 0.058372963 -0.032216404
000040 44 00 c7 bd 61 d9 fd 3c ec 9f e7 bc 41 7b ec 3c
       -0.097168475 0.030987443 -0.028274499 0.028867366
000050 6f 7f cc 3c ea 54 3b bd c3 21 0b bd 91 98 86 3d
       0.024963109 -0.045735277 -0.033967745 0.065720685
000060 d9 4c 0f 3d de 64 25 3d 95 8a 5a 3c 5a 30 39 3d
       0.034985397 0.040379398 0.013338705 0.045212127
000070 a7 c8 70 3d 0c ab 83 bb 72 e8 35 3d 97 54 7d 3d
       0.058785107 -0.004018193 0.04441113 0.06184825
000080 51 4d f1 bc cd 47 ae bb 37 1f a5 3d 8f c0 ec bc
       -0.029455813 -0.005318618 0.080625944 -0.028900413
000090 84 1f 52 3d 9c 94 91 3c 5b 21 cb bc d6 26 03 bd
       0.051299587 0.017771058 -0.024796179 -0.03201946
0000a0 7c 46 61 3d e6 ae a2 3d b9 27 74 3d a7 52 97 bd
       0.05499886 0.079435155 0.059608195 -0.073888116
0000b0 3b 7e d3 3c a4 98 a9 bd 84 34 2a 3d 10 5c d3 bd
       0.025817027 -0.08281067 0.04155399 -0.10320294
0000c0 1c 43 25 bd 01 ce 22 3d 2b 7a 07 3b 20 24 d5 bd
       -0.040347204 0.039747242 0.0020672183 -0.10407281
0000d0 1b 61 4a bd 5e 58 8e 3c 53 6e 9d 3d 09 ce ca bd
       -0.049409013 0.017376121 0.07687058 -0.09902579
0000e0 20 97 0b bd be 91 ec bd e3 aa 8f 3c dd 74 4b bd
       -0.03407967 -0.115512356 0.01753754 -0.049671996
0000f0 5c eb 08 bc cb 30 09 3d ed 84 9d bd 0d be e3 ba
       -0.008356895 0.0334938 -0.07691369 -0.0017375365
000100 72 ea 6c 3d 27 f3 75 3a 22 67 70 3d ab 16 14 3d
       0.057840772 0.0009382241 0.058692105 0.03615443
000110 8a b1 02 bd 29 cc b6 bd 52 34 8a bd 03 8f 03 3d
       -0.031907596 -0.08925659 -0.067482606 0.03211881
000120 bd 16 11 3c 91 d3 2c 3c 97 f9 14 3d d3 28 e2 bd
       0.008855519 0.010548488 0.03637084 -0.11042943
000130 7a 87 60 3d dd 0c 0b 3b d0 f0 c9 3b cf 87 8e bd
       0.0548167 0.0021217384 0.0061627403 -0.06959497
000140 e2 03 d0 bd 2d 2a 81 b9 5e 17 8b bd 8f 0e b5 3c
       -0.101569906 -0.0002463622 -0.06791566 0.022101669
000150 2a 07 5d bd b5 59 4e bc 11 1b c7 bd 33 5a 4a 3d
       -0.05396191 -0.01259463 -0.097219594 0.049402427
000160 c5 71 0a bc 54 e0 8e 3d a8 0e e9 3c de e1 12 bd
       -0.008449976 0.06976381 0.028449371 -0.035859935
000170 c4 ba 6e bd 84 30 f9 bc 76 03 a1 3d 96 05 d9 3c
       -0.058283582 -0.030418642 0.07861988 0.026491921
000180 e4 2d 43 3c bb 5d e9 3c 1b 59 88 bd 23 c7 ae 3c
       0.011912797 0.028487077 -0.066576205 0.02133519
000190 3d 21 ad bd f0 57 c0 bd a5 78 f1 3c 62 7a 1e b9
       -0.08453605 -0.09391773 0.029476473 -0.00015113645
0001a0 eb fc 20 3d 49 ef a6 bd 86 0a 1b bd 9e 3e b2 3d
       0.0393037 -0.08151109 -0.037851833 0.087033495
0001b0 5b 05 f1 3c d9 a4 ab 3b 98 5f bb 3c e6 02 9a 3d
       0.029421499 0.005238157 0.022872731 0.07520084
0001c0 9c 2c d4 bd 5f 0e eb bc c1 c3 c5 bd ee 58 a4 3b
       -0.10360071 -0.028693376 -0.09656478 0.005015484
0001d0 bf 5c 9c 3d c4 76 0e 3d c5 b8 ae 3c e9 2c 33 3d
       0.076348774 0.034781232 0.02132834 0.043744
0001e0 8a 4a ff 3a f5 8a 26 3c 7e ca ee bc ff 37 9e ba
       0.001947717 0.010164966 -0.02914929 -0.0012071131
0001f0 da 50 ab bd 92 c4 a9 bd 5f e7 44 3c bd d0 68 3d
       -0.083650306 -0.08289446 0.012018054 0.056839693
000200 c1 f5 03 bd 7f 7a d2 3d c1 04 e6 bb f7 26 85 bd
       -0.03221679 0.102772705 -0.0070196097 -0.065015726
000210 b7 3e 86 bd 27 dd d8 3c e8 02 a7 3d d1 34 5a bd
       -0.06554931 0.026472641 0.08154851 -0.053273026
000220 c2 55 4a bd 2c dc 84 bd d7 0e 0d bd df 77 c7 3d
       -0.04939819 -0.06487307 -0.03443798 0.097396605
000230 df d0 af 3b e4 3d 12 3d d7 89 6a bd e0 b8 8e 3c
       0.0053654755 0.035703555 -0.05726036 0.01742214
000240 e1 e4 d1 3d 52 59 03 bd ac 73 ac 3c 82 9f 23 bd
       0.10248733 -0.032067604 0.02105125 -0.03994704
000250 d0 cd 95 bc e9 8e 50 3d ed aa 1d 3d ad c0 87 bd
       -0.018286616 0.05091754 0.038493086 -0.06628547
000260 e3 f7 b5 bc 99 c6 1d bd 7b 39 37 bc e8 00 f4 bc
       -0.022212928 -0.038519476 -0.011183138 -0.029785588
000270 1b 3f 80 bd 3a eb c6 bb 71 63 b1 bc 57 77 80 bd
       -0.062620364 -0.0060705217 -0.021653863 -0.06272762
000280 af 9d 77 3d 2c 4f 04 3d 4a cb 78 bd 1c 86 46 3d
       0.060453113 0.032302067 -0.060740747 0.04846774
000290 59 31 27 bd e9 b5 e9 bc ab 60 08 3d 92 84 2f 3c
       -0.040818546 -0.028529124 0.033295315 0.01071276
0002a0 5b f5 24 bd 2b 3c 81 bd c7 d1 5d bd 30 fa ba 3d
       -0.04027305 -0.06310304 -0.054155137 0.09129751
0002b0 95 52 0e bd 8d 86 d7 3d 03 d4 36 bd 5d 08 c9 3d
       -0.034746725 0.105237104 -0.044635784 0.09816048
0002c0 71 02 64 3d 02 68 33 bd b6 2a 3f bc f1 93 ce 3d
       0.05566639 -0.04380036 -0.011667898 0.10086811
0002d0 9a f8 29 3d 61 da 19 bb e3 51 7b bd b1 b6 c4 3d
       0.04149685 -0.0023476111 -0.06135739 0.09605158
0002e0 f4 34 de 3c b9 ec d5 3d b5 f5 93 bb 85 2c 88 3d
       0.02712486 0.10445542 -0.0045153745 0.066491164
0002f0 5b 2d ad bb 26 5b 8d bc 07 0a 4c 3d 11 c5 80 ba
       -0.005284948 -0.017255377 0.04981425 -0.0009824355
000300 7b 16 84 bd 4c a6 26 3c 9e 79 60 bd 62 00 37 bd
       -0.064496 0.010171484 -0.054803483 -0.0446781
000310 a2 50 4e 3d f1 94 d1 3d 73 ff 8d 3d 68 fa b9 bc
       0.050369866 0.102334864 0.06933489 -0.02270241
000320 3e 96 1a bc 0b 0a 18 bb de 3b 34 bd 42 e5 bc 3d
       -0.009435235 -0.0023199345 -0.044002406 0.09223415
000330 38 cc 4d bd 2a 83 29 bc 5a 14 77 3b 1a 43 5b 3d
       -0.050243586 -0.010346213 0.003770134 0.05353079
000340 eb 9f a3 3d e8 bf 92 bb de 30 56 3d a0 8e e2 bc
       0.07989486 -0.0044784434 0.052292697 -0.0276559
000350 20 59 6e 3d 94 a8 08 3c 0e 41 c8 3d 10 8d 2d bd
       0.058190465 0.008340973 0.09778033 -0.042370856
000360 82 29 02 3c de cf 8a bd 8c 4d a1 bc 6d 2c b2 3c
       0.007944467 -0.06777929 -0.019690298 0.0217497
000370 2b 91 28 3d ca 47 07 3d f5 13 a7 bd 5d c0 41 bd
       0.041154068 0.033027448 -0.081581034 -0.047302593
000380 9c 76 d7 bb 54 7c ab bc 87 b8 58 3d 4a 34 18 bd
       -0.0065754186 -0.020933308 0.052910354 -0.03715924
000390 ac 07 9e 3d 5a 30 c8 3d 27 45 a0 bc 83 08 1b bc
       0.07716307 0.09774847 -0.019564224 -0.009462479
0003a0 e7 a0 bc bc 89 41 a4 3d 2c e2 dd 3c 6b a4 9a bd
       -0.023025943 0.08020312 0.027085386 -0.075508915
0003b0 f8 35 39 bd 41 5c af bb 47 b2 24 bd e1 68 a7 bd
       -0.045217484 -0.0053515737 -0.04020908 -0.08174301
0003c0 c2 bc bc 3d 44 0c c8 3c 68 7a b1 3d 4c de 00 bc
       0.0921569 0.024419911 0.08665925 -0.0078655
0003d0 00 4f 8e bd 8c 4f 2a bd 9b 94 35 bb 74 75 f1 bc
       -0.06948662 -0.041579768 -0.0027706984 -0.029474951
0003e0 c9 cf 47 3c 93 80 80 bc 73 f6 c3 3c c4 2d b5 bb
       0.012195536 -0.015686309 0.023921227 -0.0055291373
0003f0 6c c0 c3 3d a7 35 8f 3d 2c 61 84 bc 22 e3 46 bd
       0.09558186 0.06992655 -0.016159616 -0.048556454

action_model._discrete_distribution.branches.0.bias f4 [2]
000000 31 07 a8 3d 2f 07 a8 bd
       0.08204497 -0.08204495

49 f4 [2]
000000 bc c9 b5 3f c0 05 69 40
       1.420219 3.640976
