results/flappy_slow_v16/FlappyBirdAgent.onnx (onnx, 71034 bytes, 8 tensors)

network_body.observation_encoder.processors.0.normalizer.running_mean f4 [2]
00000000: 6fba 263f f98b c53f
0.65128225 1.5433341

network_body._body_endoder.seq_layers.0.weight f4 [128, 2]
00000000: 3dfc 15be c9a8 0d3d be38 b73e 121c 14bf
00000010: 1407 a23e 1263 c23d ebda 153f 3fb1 b73e
00000020: cb7c 94be 4337 903f a7ba 013e dd8a d93d
00000030: 641b 383f c2bb 6d3f f83d a4bf 027d 233f
00000040: 6240 853f 2b93 093f ca4d b0bf 159a d23e
00000050: 04df 14bd bea0 4b3f 7d8b 8fbf 9c23 ab3e
00000060: 7157 cdbd 8ea2 223f 82ef 17bf a03a c9be
00000070: 2e3b 493f 396b 8d3e 73a9 0e3e 188e fd3e
00000080: 19ec 94be 8ea5 ab3f 8554 c83f 9ace 65bf
00000090: 12a7 86be 51f8 54bf d27b 3d3d d28e 8fbf
000000a0: eae4 65bf 0310 8b3d db94 933e 444e 6e3f
000000b0: 4c22 873f de64 df3e 07fe 32bf 98db 25be
000000c0: 4de3 9c3e bfcf 9f3e 3b09 8bbf c1d6 03be
000000d0: 969a 80bf f755 96be 5925 80bf 996b a63f
000000e0: 5203 543c d94a 8c3f a390 c03d 4c22 c0be
000000f0: 6163 533f 2bad 16bf fd7f da3e a985 e83d
00000100: a348 003f f711 c1be 795b 153f 22c3 453f
00000110: fdcc babe dd40 3a3e b623 93be 92e5 babe
00000120: e3b0 adbf 01eb c3be 48e3 cf3d dc0a 3c3d
00000130: 4e99 693e 4135 c7be b403 723c 05bc b6bc
00000140: e465 363f cea6 18bf c419 3ebf 4743 833f
00000150: c00a 68bf f457 3c3f 4c52 8ebd 0d0c 053f
00000160: ab4b 813d cc4d 4ebd 3a05 95be a078 9e3e
00000170: b057 7d3f 6c77 a33e 046a d33e 046d 84bf
00000180: ab43 003f 5fae 34bf c936 893f 06ad 7d3f
00000190: 3edd e7be 46ab 19bf c034 a7be 02b0 4fbf
000001a0: 9522 963e 3d3f f23f 60ac 8a3c cca8 a13e
000001b0: 4249 303f e299 61bf 0f81 c2be 7183 f23d
000001c0: b6de d9be 299f bd3e 2124 263e 1adb f63c
000001d0: 37b0 80be ee53 b03e 837c 4ebf 7eb9 eabf
000001e0: 2902 e0ba 7a91 df3d b4f9 ab3e 8431 113f
000001f0: 9c17 723f 5023 303f 92cf 13be 12ac 6fbf
00000200: 3f4d d7be a184 26bf e441 34bf 065a 61bf
00000210: fabc cdbf ca55 c6be 46c4 313e 2c51 293f
00000220: 49c2 423f d787 0a3f a694 363f 211e 2d3f
00000230: ddc4 1ebd 9dca 28bf 5d45 54bf b480 5fbf
00000240: 4bc3 0bbd 35e7 963f 3b1d 2c3f 0f32 313f
00000250: 4921 953f eaaf 993e 094b 843c a26a 12bf
00000260: 3c43 d6be e43d c43d 6893 dbbf 1c42 5f3d
00000270: 2d2b f13d 79ab bcbe 43d1 e03f 3be2 1f3d
00000280: 636a 6fbf c521 93bd 2936 f23c 25e3 74bf
00000290: b58b d8bc d164 d13d 4ead c4be 6671 cd3d
000002a0: 1db7 693e c56c c43e 5717 d7be 1b2e 3dbe
000002b0: ede4 a6bf 28d1 f8be 41f5 383e bd97 eebe
000002c0: 22e3 203f 83b1 77bf b2f7 97bb 1676 2dbf
000002d0: 021a c2bd 1bf7 89bf 81dd 7fbe d66d 713f
000002e0: cc7d 523e 14ed 563f a927 07bd cdc3 783f
000002f0: 0311 8dbe 0e15 123e 31e9 84bf f752 ecbe
00000300: 3862 5cbf bbac b3bf e8bc 8bbd 367f ad3f
00000310: 2019 1c3d 9fc8 843e 40f6 95bf 1e23 93be
00000320: e010 acbf 7af2 c83e c582 cb3f 157d 17c0
00000330: efae 97be 8685 98bf 7e60 a8be 5f1d c13e
00000340: d372 d7be 0f67 62bf b01f ca3d 6a9f 303e
00000350: f155 063f 88ad 283f 8025 8cbe 6cfe 43bf
00000360: e3b6 cd3e a9df c93e a7fb ab3e 1c37 dcbe
00000370: f36f 98bf 859c 093f 1c61 5bbf 6696 b8be
00000380: 99ac 1abf 6960 60bf 1862 1c3f fa31 17bf
00000390: f844 d4be be56 f8be 1da9 a1be 6265 073f
000003a0: 75a3 173f c8aa ba3e 41e9 52bf 059e 69bf
000003b0: 33c9 eabe ed5f 46be a885 4cbf eb9e 61bf
000003c0: 619c 433f 080d afbe 16e2 113e 9696 2d3f
000003d0: b532 483f 7501 2ebf 4770 47bf d982 903f
000003e0: b2c0 183f 28bb 583f 7601 2a3f 6b79 553c
000003f0: 35dd 8fbf 0ce6 89bf a7bc 1abd 8f25 5c3e
-0.14647003 0.034584794 0.35785478 -0.5785533 0.31646025 0.094915524 0.5853717 0.35877416
-0.2900146 1.1266865 0.12668858 0.10622189 0.71916795 0.9286462 -1.2831411 0.6386262
1.0410273 0.53740185 -1.3773739 0.4113318 -0.036345497 0.7954215 -1.1214443 0.33425605
-0.10026444 0.6352929 -0.59349835 -0.3930254 0.78605926 0.27620867 0.13931827 0.4952247
-0.29086378 1.3409898 1.5650793 -0.89768374 -0.2629934 -0.831914 0.046260662 -1.121546
-0.8980242 0.06790163 0.28824505 0.93088174 1.0557342 0.43631643 -0.69918865 -0.1619705
0.30642167 0.31213185 -1.0862192 -0.12874891 -1.0047176 -0.2936246 -1.0011398 1.3001586
0.012940245 1.0960342 0.09402587 -0.37526166 0.82573515 -0.58857983 0.42675772 0.11353619
0.50110835 -0.3770902 0.583427 0.77250874 -0.3648452 0.18188806 -0.28738183 -0.36503273
-1.3569607 -0.3826523 0.10150772 0.045908794 0.22812387 -0.38907817 0.014771391 -0.022306452
0.7124922 -0.59629524 -0.74258065 1.0254906 -0.90641403 0.73571706 -0.06949291 0.51971513
0.06313261 -0.05036716 -0.2910555 0.30951405 0.98961926 0.3192705 0.4129182 -1.0345769
0.50103253 -0.7057857 1.0719844 0.9909214 -0.45285982 -0.6002697 -0.32657433 -0.8112794
0.2932326 1.8925549 0.016927898 0.31574094 0.6886178 -0.8812543 -0.3798909 0.11841477
-0.42552727 0.37035492 0.1622472 0.030133773 -0.2513444 0.34439033 -0.8065874 -1.8337858
-0.0017090488 0.10916419 0.33588946 0.5671618 0.94567275 0.6880388 -0.1443465 -0.93621933
-0.42051122 -0.65046126 -0.7041304 -0.8802799 -1.6073296 -0.38737327 0.17360029 0.66139483
0.76077706 0.54113525 0.7132057 0.676241 -0.038761962 -0.65934163 -0.8291834 -0.8730576
-0.034121793 1.1789309 0.672321 0.6921701 1.1650783 0.30017024 0.01614906 -0.5719396
-0.4184817 0.09582117 -1.715436 0.054506406 0.11775813 -0.36849573 1.7563862 0.03903411
-0.9352171 -0.071841754 0.029566841 -0.95659095 -0.026433805 0.10224307 -0.3841347 0.10031395
0.22823758 0.38364235 -0.42009994 -0.18474619 -1.3038613 -0.48597074 0.18062307 -0.46600142
0.6284658 -0.96755236 -0.004637682 -0.6775831 -0.09477617 -1.0778536 -0.24986841 0.9430822
0.205558 0.839555 -0.032996807 0.9717377 -0.2755204 0.14265844 -1.0383664 -0.46157047
-0.8608737 -1.4037088 -0.068231404 1.3554447 0.0381099 0.25934312 -1.1715775 -0.2873773
-1.344265 0.39247495 1.5899283 -2.3670094 -0.2962565 -1.1915748 -0.32886118 0.3771772
-0.4207979 -0.88438505 0.09869325 0.17248312 0.52474886 0.6588979 -0.2737236 -0.7656009
0.40178594 0.39428452 0.33590433 -0.43010795 -1.1909164 0.53754455 -0.8569505 -0.36052245
-0.60419613 -0.8764711 0.6108718 -0.59060633 -0.4145887 -0.4850368 -0.31574336 0.5288907
0.5923379 0.3645842 -0.8238717 -0.91256744 -0.45856628 -0.1937253 -0.79891443 -0.88133115
0.7641049 -0.3418963 0.14246401 0.678079 0.7820237 -0.67970973 -0.77905697 1.1289932
0.5966903 0.8466058 0.6640848 0.013029437 -1.1239382 -1.077333 -0.03777757 0.21498702

network_body._body_endoder.seq_layers.0.bias f4 [128]
00000000: 54a1 033e 1896 c4bd 10a0 23bd dafd 96be
00000010: ec9f f6bd 780f b93d f24f d2bd e699 f43c
00000020: b532 f3bd 2367 8a3d 89cb 28be 9c4f 0e3d
00000030: 36a8 20be db0f 563d ad5a 4bbe f292 08be
00000040: f339 bebd 043d 9cbc 1207 bebc dd55 9bbd
00000050: ef37 923d 2667 08be 3cff 51be df1c 0a3d
00000060: 6689 34be 2d7d 39bd 5681 403d c0db c9bd
00000070: da34 05be 30dc ddbd cbaa 49bd 491c 2abe
00000080: ca3c a9bd f345 57be d62c f33d 4c25 8b3d
00000090: db5a c83d 5640 8abd 5e6c d8bd b397 41be
000000a0: 0a10 30bd 1153 6bbd fd13 753d 5235 1dbe
000000b0: 787d b4bd 522f 003e b1dd 4bbe 6e58 22bd
000000c0: 8d79 b4bd 7b5c 18be c136 1c3c b6e0 9139
000000d0: f26e 9dbd 4a9a efbd 6e5f 61bd f3be 543d
000000e0: aac0 fa3d 22f9 03be 2417 1d3e aef4 54bc
000000f0: 7727 c3bd 2b70 5abe c796 2fbe 08f1 e8bc
00000100: 2a11 d03c eb83 763c 7021 853d 6d54 74be
00000110: 0312 84be 200d 5bbe a1df d13b 5018 c33c
00000120: acc9 ebbd 4087 4bbe cb20 13be 5002 90bd
00000130: 3435 ac3d 2075 863d 921c adbc 04fb 16be
00000140: 25dc 4dbc fd08 0bbd 37d5 4b3e e3c7 243d
00000150: 015a 17be 0e35 0d3d b968 2e3c 6ca4 84bd
00000160: a4d8 4abd a2b8 f23c 3457 54bd c49f 05be
00000170: f899 38be 865a ecbd 54c1 863d aa57 a83d
00000180: b697 dc3d 8f2e edbd 4cae 5abe d60f 803d
00000190: fce1 8a3d d472 15bd 34c5 e9bd 570e 90bc
000001a0: 5601 2ebd 48b6 71be a9f7 36be 410b c13d
000001b0: e764 3dbe bc3f acbd c824 483d 751c 443d
000001c0: d6e5 78bd be91 a0bd f905 36bd 6f93 23be
000001d0: ef60 31be 52d7 93bd 9af4 ab3d d3f1 6f3d
000001e0: 9ffe dfbd b943 14be a427 9fbd 9066 d7bd
000001f0: c181 5fbe 430e e0bd b3a9 943d ad48 973d
0.1285451 -0.095989406 -0.03994757 -0.29490548 -0.120422214 0.090361536 -0.102691546 0.02985854
-0.11874906 0.06757953 -0.16483893 0.03474389 -0.15689167 0.052261215 -0.19858809 -0.13337305
-0.09288397 -0.019072063 -0.02319673 -0.075847365 0.07139575 -0.13320598 -0.2050752 0.03371894
-0.17630538 -0.045285393 0.046998344 -0.09856367 -0.13008443 -0.10833013 -0.049235146 -0.16612352
-0.08263548 -0.21022777 0.11873786 0.06794223 0.09782954 -0.06750552 -0.105675444 -0.18905525
-0.042984046 -0.057452265 0.059833515 -0.15352371 -0.08812994 0.12518051 -0.19908787 -0.039635114
-0.088122465 -0.14879028 0.009534539 0.00027823978 -0.07687177 -0.1169935 -0.05502265 0.051939916
0.12243779 -0.12888005 0.15340859 -0.012997789 -0.09529012 -0.21331851 -0.1714736 -0.028435245
0.02539881 0.0150461 0.06500518 -0.23860331 -0.25794992 -0.21391726 0.0064048325 0.023815304
-0.11513075 -0.19875813 -0.14367978 -0.07031691 0.08408585 0.065653086 -0.021131787 -0.14744192
-0.012564694 -0.03394412 0.19905554 0.04022969 -0.14780428 0.034474425 0.010645085 -0.064766735
-0.04952301 0.029629055 -0.051840976 -0.13049227 -0.18027484 -0.115407035 0.06579843 0.082198456
0.10771124 -0.11581146 -0.21355551 0.062530205 0.06781384 -0.03648646 -0.11414567 -0.017584963
-0.042481743 -0.23604691 -0.17867912 0.09425975 -0.18495522 -0.08410594 0.048863202 0.0478787
-0.060766064 -0.07840298 -0.04443929 -0.1597421 -0.17322133 -0.072188035 0.083962634 0.05858023
-0.10937237 -0.14478959 -0.07771233 -0.10517609 -0.21826841 -0.1094022 0.0725893 0.07386909

network_body._body_endoder.seq_layers.2.weight f4 [128, 128]
00000000: 3258 93bd ea73 083d 377c bc3d 5d13 093e
00000010: b1a3 443d 2b5d 31be 3e0d eabd 87b3 4e3d
00000020: 32c2 483e d950 bbbd fa76 04bd 36a6 5a3c
00000030: 2b1f 173d 8c47 e939 4e64 b5bd b5ed b93d
00000040: 3ab1 8d3d 2d18 8d3e 5a61 f2bd bc37 ccbd
00000050: 0b59 d63c 29a7 38bd 14e2 9f3d 1a3e febc
00000060: 15eb 0b3d 4c42 d43d 8659 f0bc 26c4 73bd
00000070: 9ae7 a0bc b04e 503d 15b4 973d 34ec 673d
00000080: b3be 0c3e a0aa ccbc 03d3 4ebd c2d8 05bd
00000090: 96e6 33be 541c 243c bea3 b3bd ff2f 383e
000000a0: 36fc 9abb 8088 553d 8205 b9bc 24e4 2ebb
000000b0: e073 b3ba a3f7 563b a064 653d 95b8 dfbc
000000c0: a5a1 c2bc 88e8 80bd 83c7 67bd 75a1 073d
000000d0: 6d9a f3bd 5a63 afbd 19ca c63d 0bf7 163e
000000e0: 6369 fe3d 0bc1 323d 72fa db3d 449f 19bd
000000f0: f760 1e3e c185 54bd 448b 9b3d f658 6a3c
00000100: 21af 86bc 4d52 22be a997 92bd ced3 093e
00000110: 7975 4b3d a514 3e3d e59e 11be 6981 cb3d
00000120: 06b4 adbd 3f90 66bd cded fe3d b421 863d
00000130: 73b5 a5bc 390e 8f3e 4668 b23d 4e49 853d
00000140: e22d ed3d 430f 98bd 92f5 25be e109 8739
00000150: 4ef5 8d3c 3b48 e0bc 1e46 c5bd b439 df3d
00000160: 28d7 983d 5c27 d0bd 4067 17bd fafa 40bd
00000170: 9e94 a2bc f4cd 953d db31 253d fbd3 5a3d
00000180: 822e c43d ea9c bbbd 87ef 353e c819 1bbc
00000190: a560 82bd a366 e7bd d666 85bc 55a7 5dbd
000001a0: 19b7 d33d c3b0 b2bc fbc6 91bc b5a7 80be
000001b0: c29d 313d 7115 873e 4079 883b 5cdb a4bd
000001c0: 264e b0bc 2e2a 84bd e486 de3d eaf8 8a3d
000001d0: f909 933d a87e 263c 3d3f aabd 8d73 4dbe
000001e0: 367d 963d 1b68 8dbc a951 553e fed4 713d
000001f0: 590d 51be e1cc 1c3e aed7 04be 8a22 8fbd
00000200: f83e c1bd 73f8 243e e04c 083e 6d0f 1b3e
00000210: c6a2 7ebd 4cf9 403b 2d68 95bb c195 f3bd
00000220: e2df 883d 95a1 5dbd d992 c8bd 4f27 3e3d
00000230: 422e 91bd 96b6 e2bd 882b b83d 8215 2e3c
00000240: e628 c1bc 926f 59bd edde 92bc fc85 0bbe
00000250: 52a3 5bbc b0b1 213d f8e8 673d 0d6b abbd
00000260: e09d 07bb bc33 bdbd 410c 2ebe fd6c 1cbc
00000270: 5c56 c63d 5a23 053e e118 f93d 3e6f 6fbd
00000280: f699 77bd c954 16be e917 27be 1305 d4bd
00000290: d0e7 d23c 9ff6 fd3d 29b7 58bd 33b9 443c
000002a0: e20c c0bd fe4f 4dbe 4017 97bc ceee 0f3e
000002b0: d8a3 563e 0ab8 653c b697 053d 645a 843d
000002c0: fab7 2d3d b883 d2bd 7dbc e9bd 371f a0bc
000002d0: 83c1 25bd 7607 7a3c 663b 7d3d 449d ae3c
000002e0: 1daa 12be 8359 2b3e d303 02be 7a82 ffbb
000002f0: 1871 e93d b715 013e b706 ca3d 3591 273d
00000300: e418 dbbd 6129 55bc 18f6 2abe 7f2e 033e
00000310: 5ea4 313d 5b63 fabb ba76 15bc a3c3 33be
00000320: cc8c b4bd 1594 4d3d b221 dd3d 3dd6 7d3d
00000330: 7960 f2bc d79e c9bc ca63 803d 9b81 88be
00000340: 81e6 8fbd 4053 2a3d c9b5 e8bd 028b abbd
00000350: 006a 953d 7b70 babd e0fa 82bd 7ad0 523d
00000360: f208 bc3d 20fd 88bc 099f c53d 9544 143d
00000370: f4ee 52be 065c 033c d689 64bd b7af 003e
00000380: 3fef d6bc 6ebb 963b 447e b13d cc5e c5bd
00000390: 7750 a4bd 037d a13c 012a 63bd 977b d7bd
000003a0: 2c0b c1bd 974c d13d 0980 a73c d86c 87bd
000003b0: cedb b13b 7db9 613d 48c3 82bd 1d60 abbd
000003c0: 126b c8bc f9dc b23d ebd9 da3d 6c99 08bc
000003d0: 2ecb b2bd 9fc8 44be 5ce6 89bd 9317 22bd
000003e0: 0630 083e 4469 82bd dc20 e03d 471a 9dbd
000003f0: 8efc 23bd 9094 1ebe c8a9 15bd 1710 1cbd
-0.07194556 0.03331367 0.092033796 0.13386293 0.04800767 -0.17320697 -0.11428307 0.05046418
0.1960533 -0.0914628 -0.032340027 0.013345292 0.03689496 0.0004449453 -0.08857022 0.09078542
0.06918569 0.27557507 -0.118349746 -0.09971568 0.026165506 -0.04508129 0.07806793 -0.031035472
0.03415974 0.103642076 -0.029339563 -0.059513234 -0.019641686 0.050856292 0.07407395 0.056621745
0.13744621 -0.024983704 -0.050494205 -0.03267742 -0.1756843 0.01001652 -0.08771466 0.17987059
-0.004729773 0.05213213 -0.022585634 -0.0026686275 -0.001369115 0.0032801412 0.056004167 -0.027309695
-0.023758719 -0.06294352 -0.056586754 0.03311296 -0.11894689 -0.08563872 0.09706516 0.14742677
0.12422445 0.04364113 0.10741128 -0.037505403 0.15466677 -0.05188537 0.07594922 0.0143034365
-0.01644093 -0.15851708 -0.07157833 0.13459703 0.049672578 0.046406407 -0.1422077 0.099367924
-0.08481602 -0.056289908 0.12447701 0.06549397 -0.020228123 0.2794054 0.08711295 0.065081224
0.11581017 -0.07424786 -0.16206959 0.00025756567 0.017328884 -0.027378192 -0.096325144 0.10899678
0.07462913 -0.10163757 -0.0369637 -0.04711435 -0.019846257 0.07314673 0.04033075 0.053424817
0.09579183 -0.09160788 0.17767154 -0.009466596 -0.0636609 -0.11298873 -0.016284388 -0.05411466
0.103376575 -0.021812802 -0.017795077 -0.2512795 0.04336334 0.26383546 0.0041648448 -0.08049652
-0.02152164 -0.06453358 0.10865572 0.06785758 0.071796365 0.010162033 -0.08312843 -0.2006361
0.07348101 -0.017261555 0.20831932 0.059041016 -0.20415248 0.1531253 -0.129729 -0.0698901
-0.094358385 0.16110401 0.13310575 0.15142603 -0.06216695 0.0029445468 -0.004559538 -0.11893798
0.06683327 -0.054109175 -0.09793634 0.046424206 -0.07088901 -0.11069982 0.08992678 0.010625245
-0.023579072 -0.053084917 -0.017928565 -0.1362533 -0.013405638 0.039476097 0.05661866 -0.08370028
-0.0020693466 -0.09238383 -0.16996862 -0.009547469 0.096844405 0.13001767 0.121629484 -0.0584557
-0.060449563 -0.1468078 -0.16317715 -0.1035253 0.025745302 0.12400555 -0.05290905 0.012007046
-0.09377457 -0.20050046 -0.018443704 0.1405594 0.20960939 0.014020929 0.032615386 0.06462553
0.04241178 -0.102790296 -0.114129044 -0.019546134 -0.04046775 0.015260568 0.061824225 0.021315224
-0.14322706 0.16733365 -0.12696771 -0.0077975364 0.11398524 0.1260594 0.09864562 0.040909965
-0.10698107 -0.013010354 -0.1669544 0.12810706 0.043369643 -0.0076412386 -0.009122545 -0.17555098
-0.088159174 0.05019005 0.107974425 0.06197189 -0.029587017 -0.024611874 0.06269033 -0.2666138
-0.07026387 0.0415833 -0.11362798 -0.08376123 0.072956085 -0.09103485 -0.06395507 0.05146835
0.09181394 -0.016722262 0.09649474 0.036198217 -0.20598966 0.008017546 -0.055795513 0.1256703
-0.026237128 0.00459998 0.086666614 -0.09637222 -0.0802316 0.01971293 -0.05545998 -0.1052162
-0.09425959 0.102196865 0.020446794 -0.06612557 0.005427814 0.055108536 -0.06384903 -0.083679415
-0.024465118 0.087335534 0.10686096 -0.00833736 -0.0873016 -0.19217156 -0.06733391 -0.039573263
0.1329957 -0.06367734 0.109437674 -0.07671028 -0.040035777 -0.1548636 -0.03653887 -0.038101282

network_body._body_endoder.seq_layers.2.bias f4 [128]
00000000: ad18 d0bd 48a5 6bbd 8a50 4dbd 8f16 99bd
00000010: d7d3 36bd b866 bfbc 7a05 23bd e32e 80bd
00000020: 6ab3 8fbd bd92 d3bd 2539 68bd 249c d13d
00000030: ed97 b5bd 734c 75bd 75e7 c2bc 3f52 42bd
00000040: 4127 babd 0126 6bbd 5fc1 d9bd 8c7b b4bb
00000050: 1fd2 973d 5081 353e 1182 1abd b42f b23d
00000060: 97bd 20bd 9fca f6bd feb7 d43d b56b 193d
00000070: 39fa 563d f25e 99bd f4ee ee3d 9637 b43d
00000080: a11d b5bd 0868 43bd 7e49 0fbd c130 16bd
00000090: 1fa1 db3d df7a 7bbd 24af 40bd 44b5 61bd
000000a0: c063 3ebd d5fc 393e aeb5 df3c 32b9 49bd
000000b0: 8e98 63bd c571 13bd 0ca4 b23d cb7d 97bd
000000c0: bccc 9ebd c33b e23c 060c 8bbd 6582 053e
000000d0: 0320 3fbd 3b75 bbbd 450c febc f7e9 f03d
000000e0: 6dc8 0abd ff4b 9cbd a250 84bd cc9a d13d
000000f0: ef11 2d3e e28c d23d 2214 90bd 1238 a1bd
00000100: f7b1 cd3d e8c6 a2bd aecc 98bd 4f33 f1bc
00000110: 12e6 9cbd bda7 e3bc f3c2 83bd 1e59 86bd
00000120: 1ee5 9dbd 7dd0 9c3d 82b7 c2bd eb7b b6bc
00000130: b79e afbd 4024 adbd 5d04 663d ad32 a8bd
00000140: d5b2 0c3d 7867 15bd 6167 36bd ddec f6bd
00000150: f483 9bbc 4ae5 e93d ae2b eebd abdb b9bd
00000160: e7fb 9a3d 8c57 70bd e4e2 8fbd 0a98 8abd
00000170: 2d44 59bd 9693 a7bc 1521 993d fe88 2fbd
00000180: 58d4 783d e173 98bd c469 c1bd 4476 efbc
00000190: a043 26bd fc37 ab3d 015e 333d 0909 38bd
000001a0: 178e cb3d 7d48 f13d 7abc 873d 9f1c 46bd
000001b0: 2c4d d23d 8f2e 62bd fca6 75bd 417f 31bd
000001c0: 866a 60bd 7cf6 3dbd e8bc ce3d cd5f 393e
000001d0: 9ea8 debd b57a 5bbd c4cc 8e3d adb4 97bd
000001e0: 746a 1c3d 2c0f e43d ca93 25bd 406a 8f3d
000001f0: db12 9cbd e81a c33d e00d 0bbd 3079 98bd
-0.101609565 -0.05753067 -0.050125636 -0.07475006 -0.04463562 -0.02336441 -0.039800145 -0.06258943
-0.070166424 -0.103307225 -0.056695122 0.102348596 -0.08866868 -0.05988736 -0.023792008 -0.047441717
-0.09089518 -0.05740929 -0.10632586 -0.005507892 0.07413124 0.1772511 -0.037721697 0.08700505
-0.039243307 -0.12050366 0.10386656 0.037456233 0.052484725 -0.074888125 0.116666704 0.08799665
-0.08843542 -0.047706634 -0.034982197 -0.03666759 0.10724091 -0.061396476 -0.047042027 -0.05510451
-0.046481848 0.18162854 0.027308311 -0.04924888 -0.05556541 -0.03599717 0.08722696 -0.0739704
-0.07753894 0.027616387 -0.06789403 0.13038023 -0.046661388 -0.09153219 -0.03101171 0.11763375
-0.033882547 -0.076316826 -0.06460692 0.10234603 0.16901372 0.102807775 -0.0703509 -0.07872023
0.1004371 -0.079480946 -0.074609146 -0.029443411 -0.0766107 -0.027789945 -0.06433668 -0.065599665
-0.07709716 0.076569535 -0.095076576 -0.022275886 -0.08575194 -0.0845418 0.056156505 -0.08212791
0.034350235 -0.03647563 -0.044532184 -0.12056897 -0.018983819 0.114206865 -0.11629425 -0.090751015
0.07567578 -0.05867724 -0.07025698 -0.067672804 -0.053043533 -0.020456117 0.07477013 -0.042855255
0.06074938 -0.07443977 -0.09444001 -0.029231198 -0.040591836 0.083602875 0.04379082 -0.04493049
0.09939211 0.11781404 0.06627746 -0.04836714 0.102686256 -0.055220183 -0.0599737 -0.04333425
-0.05478909 -0.046377644 0.10094625 0.18102951 -0.10872005 -0.05358382 0.0697265 -0.07407508
0.03818746 0.11135706 -0.040424146 0.070026875 -0.07620784 0.09526616 -0.03394878 -0.0744499

action_model._discrete_distribution.branches.0.weight f4 [2, 128]
00000000: 1ec5 81bd 8e75 3bbe 1cab 42be b317 dbbc
00000010: efaf 19be fead 20be c993 15bd 8bf9 14bd
00000020: 20c5 11be 0bb2 dabc 98d3 15be 8275 a03d
00000030: cf0c 7ebd 7bce 28be 374b 1bbe 003e 44be
00000040: 4479 84bc 1777 c9bd 92f4 bdbd 7657 12be
00000050: 23c7 323c f7c6 273e 3970 4abe 3f98 b03c
00000060: f894 22be 2be2 36bd 058f 9a3d c97a 6e3c
00000070: 650b 953b 654b 2fbe 19cb b23d 4243 153d
00000080: e728 25be 32bb 19be a5d8 37bc c6d6 1dbe
00000090: be8c bc3d 8d93 a8bd 4962 3abe 975e a4bc
000000a0: fed1 72bd 3016 1b3e 06b4 713b f982 e6bd
000000b0: e33f 35be 7816 23be 4e0d 343d 1be9 13bd
000000c0: 8c4d 1dbd 00ce 26bc cce0 d1bc a758 1a3d
000000d0: 66e1 2cbe a1bc 31bc b687 94bc e89e 803d
000000e0: 86a4 14be b6d0 06be 4f56 70bd b05b 773d
000000f0: 1643 af3d e076 903d ee83 17be df1e 21be
00000100: 55eb 163d e799 0ebe 42c4 25bd 1b15 dcbd
00000110: 416e 2dbd 8c71 2bbe 1795 78bc 6a13 77bd
00000120: 7e2c 11bd 978e 4c3d 2bf6 b1bc 66df 1ebe
00000130: d0c3 b7bc 8801 6ab9 17b4 353d c73b cdbc
00000140: 7788 863b c2b8 1dbe a201 11bd 3174 04bd
00000150: 0870 08be abb5 913d 85b1 02bd 9601 54bd
00000160: 4078 823d 1729 26be a8e6 4abd bd75 a0bd
00000170: c98f 0fbe 11ba 18be ee6b 753d f705 69bd
00000180: 083e 503c 0c4f d6bd 27aa 1dbd 1f63 2ebe
00000190: ce12 46bd ab45 ee3c 23d9 a63c 474a 9bbc
000001a0: 939c b03d 92d3 753d 8725 e73c edcf 1fbe
000001b0: 09c3 5b3d aa67 86bd fc58 45bd 325d 15be
000001c0: bd67 dabd dba0 1cbd ce5b 2d3d bdfb 093e
000001d0: 94ae 3fbd 95a0 2fbe 9b4b 6f3c 32eb b8bc
000001e0: 99b6 cb3c 9ff1 693d 0e51 4a3b c689 d13c
000001f0: 29f6 00bd 72b4 743d 29fa 40be 1cef 4bbd
00000200: 36af 953d 73f9 2e3e afb9 303e fcaf b93c
00000210: aa01 2c3e 0d3e 163e e56d e33c 1726 143d
00000220: c5af 103e d91b cf3c 1152 113e 132a 8cbd
00000230: 5a10 253d a072 263e 357c 1a3e 0fc7 333e
00000240: 6135 a63c 333b f03d c90f e83d 4946 083e
00000250: ecc7 1d3a becd 1cbe 1316 3e3e d4c2 2dbd
00000260: 5fb4 283e 0a9b 493d c8bb 7abd f12c 483c
00000270: 3989 dabc 96e5 263e 796e b6bd 36ee 28bd
00000280: ae78 283e 3cab 183e 7a39 0839 6bd7 253e
00000290: b1a7 afbd 8a28 9d3d 2288 3f3e e17a 093d
000002a0: 5833 9a3d 16fa 18be 3b7b 51bc 111d d33d
000002b0: 645e 163e 9e4f 343e 4ec4 e9bc 005a d63c
000002c0: 98c3 643d 61f2 90b9 1fbf e83c 100a d3bc
000002d0: fa34 373e 9bee c13c f89b 5d3c 30ff 7fbd
000002e0: fd29 123e 8d7c f63d 5f5c 383d e622 21bd
000002f0: cb2f cebd eaf4 b3bd 3584 123e b74b 343e
00000300: abd8 5cbd 9a47 223e 874d b23c 3772 f53d
00000310: 0dbf 583d 96dc 333e 956c 0e3d 6e42 823d
00000320: e962 2f3d c81f 37bd cd71 9f3c 165f 293e
00000330: 63dc 043d f3fb a23c 0277 24bd f7f6 9e3c
00000340: 3879 a63a 6d7b 2a3e d2fd 3b3d 28ec 3e3d
00000350: 22e4 033e 0a3c b1bd 1154 6c3d fae4 eb3c
00000360: 9e59 3fbd f096 393e ae1e 293d 0c09 a53d
00000370: 92cb 263e c860 083e d30b 8cbd 3049 013d
00000380: 96ad c2bc 8a90 e63d e6d9 263d 29f1 223e
00000390: 5d78 273d 5869 68bd e0b0 febb fa0b c03c
000003a0: e64a 6cbd 50bd a5bd a286 15bd 6b61 1d3e
000003b0: 1bfd 5abd 4b68 983d 4315 f93c caf7 123e
000003c0: 97b2 d13d 08a8 5f3d 1247 89bd 795d 24be
000003d0: b6f8 703d 1f05 233e 5b55 61bc f2e0 943c
000003e0: 737b 18bc fe9c 1bbd 54f2 273c f406 1bbd
000003f0: fad5 283d 258b 0cbd e820 3a3e e04c 5a3d
-0.06336425 -0.18306562 -0.19010586 -0.0267447 -0.1500852 -0.15691373 -0.036517892 -0.036370795
-0.14235353 -0.026696226 -0.14631498 0.07834913 -0.062023934 -0.16485016 -0.15165411 -0.19164276
-0.016171105 -0.09837168 -0.09275164 -0.14291176 0.010911736 0.16384493 -0.19769372 0.021556972
-0.1587714 -0.044649284 0.0754681 0.014555641 0.0045484775 -0.17118604 0.08730144 0.036441095
-0.16128884 -0.15012816 -0.011221086 -0.15413961 0.09206532 -0.08231268 -0.18201555 -0.020064635
-0.059282295 0.15145183 0.0036880984 -0.1125545 -0.17700152 -0.1592654 0.043958 -0.03611098
-0.038404033 -0.01018095 -0.025619887 0.0376822 -0.16882858 -0.010848195 -0.018131118 0.06280309
-0.14515886 -0.13165554 -0.05867606 0.060390174 0.085577175 0.070539236 -0.14796421 -0.15734433
0.036845524 -0.13925897 -0.04047037 -0.10746213 -0.042341474 -0.16742533 -0.015172265 -0.06032125
-0.03544282 0.04994067 -0.021723827 -0.15514907 -0.022432238 -0.0002231655 0.0443612 -0.025052918
0.0041056233 -0.15402511 -0.035401948 -0.03233737 -0.13323987 0.071147285 -0.031907577 -0.051759325
0.06370592 -0.16226612 -0.049536377 -0.07834957 -0.14019693 -0.14914729 0.059917383 -0.056890454
0.012710102 -0.10464296 -0.038492348 -0.17029999 -0.048357777 0.029085955 0.02036721 -0.018956317
0.08623614 0.060016222 0.028216137 -0.15606661 0.053652797 -0.06562741 -0.048180565 -0.14586332
-0.10664318 -0.03823934 0.04232388 0.13474937 -0.04679735 -0.17151101 0.014605428 -0.022573087
0.024867343 0.057115193 0.0030871066 0.02557839 -0.031484757 0.0597424 -0.18845429 -0.04978858
0.073088095 0.17087345 0.17258333 0.022666924 0.1679751 0.14672108 0.027762363 0.036169138
0.14129551 0.025281833 0.14191462 -0.068439625 0.040298797 0.16254663 0.15086444 0.17556404
0.020289125 0.11730041 0.11331136 0.13308062 0.00060188654 -0.1531286 0.18563108 -0.04242213
0.16475056 0.049220122 -0.06121424 0.012217746 -0.026676761 0.16298518 -0.0890779 -0.0412428
0.16452286 0.1490907 0.00012991382 0.16195457 -0.085769065 0.07673748 0.18704274 0.033564452
0.07529324 -0.1493915 -0.012785728 0.10308278 0.14684445 0.17608497 -0.028535988 0.026165962
0.055850595 -0.00027646407 0.028411446 -0.025761634 0.17891303 0.023673346 0.013525955 -0.062499225
0.1427383 0.12035475 0.045009967 -0.039339922 -0.100677095 -0.08786948 0.14308245 0.17607008
-0.05391757 0.15847626 0.021765484 0.119846754 0.052916575 0.17564616 0.03477152 0.06360327
0.042818937 -0.044708043 0.019463444 0.16540179 0.03243674 0.01989553 -0.040152557 0.019404871
0.0012700921 0.16648646 0.04589636 0.046611935 0.12879995 -0.0865403 0.05769736 0.028795708
-0.046716325 0.18123984 0.041289024 0.08058366 0.16288593 0.13318169 -0.06838193 0.031563938
-0.023764413 0.112580374 0.040735148 0.15912308 0.04088627 -0.05674109 -0.00777255 0.02344321
-0.057688616 -0.08092749 -0.03650535 0.15369193 -0.053464036 0.07441767 0.030405646 0.14352337
0.102391414 0.054603606 -0.06703009 -0.16051282 0.05883094 0.15919922 -0.0137532605 0.018173669
-0.009306776 -0.037991516 0.010250647 -0.037848428 0.04121969 -0.034312386 0.18176615 0.05329597

action_model._discrete_distribution.branches.0.bias f4 [2]
00000000: 78ab 803d 79ab 80bd
0.06282705 -0.06282706

49 f4 [2]
00000000: 0724 c73f 7805 5540
1.555787 3.3284588
