results/flappy_slow_v11/FlappyBirdAgent/FlappyBirdAgent-4319.onnx (onnx, 71034 bytes, 8 tensors)

network_body.observation_encoder.processors.0.normalizer.running_mean f4 [2]
0	0x3fb80ace	1.4378297
1	0x402af2da	2.6710725

network_body._body_endoder.seq_layers.0.weight f4 [128, 2]
0	0x3ea1e343	0.316187
1	0xbf6db438	-0.92853117
2	0xbf4fbf49	-0.81151253
3	0xbea3e9cf	-0.3201432
4	0x3fd0db14	1.6316857
5	0xbf1b6582	-0.60701764
6	0x3d1bf773	0.038077783
7	0x3e06b41d	0.13154645
8	0x3e9c91da	0.30580026
9	0x3ed29424	0.41128647
10	0x3f6467f5	0.89221126
11	0xbe60c935	-0.21951754
12	0x3ed91edc	0.42406356
13	0xbf76b748	-0.96373415
14	0xbe96327a	-0.29335386
15	0xbe3286f8	-0.17434299
16	0x3f05479f	0.5206241
17	0x3f248d93	0.64278525
18	0x3fa19ce4	1.2626004
19	0x3eeb9523	0.4601222
20	0xbd81c4be	-0.06336354
21	0xbda7d0b1	-0.081941016
22	0x3f4cfd1c	0.80073714
23	0x3ec32533	0.38114318
24	0xbf30f166	-0.69118345
25	0x3ee6188c	0.44940603
26	0x3f3fe4b3	0.7495834
27	0xbd618eec	-0.05506794
28	0xbdc0fed5	-0.09423605
29	0x3d8a8170	0.067629695
30	0xbf435b6b	-0.7631137
31	0xbe2447bd	-0.16042991
32	0x40286e7b	2.6317432
33	0xbdaa3636	-0.08311121
34	0xbebde4f4	-0.3708874
35	0x3e69b842	0.22824195
36	0x3e9bbaff	0.30416104
37	0x3f97d683	1.1862339
38	0x3ddd7b56	0.1081454
39	0x3f8ccde0	1.1000328
40	0xbf92c8dd	-1.1467549
41	0x3cf465d0	0.029833704
42	0xbea1e90a	-0.31623107
43	0xbec3773c	-0.38176906
44	0xbe1f8657	-0.1557859
45	0xbf7a915b	-0.97878045
46	0xbf28b096	-0.6589445
47	0x3f895f62	1.0732234
48	0xbfcb6565	-1.5890318
49	0x3eb9c6c8	0.3628447
50	0x3f27c420	0.6553364
51	0x3db509e9	0.08839781
52	0xbf92a3c8	-1.1456232
53	0xbf463eac	-0.7743938
54	0xbd6c3d0e	-0.057675414
55	0xbf360ad8	-0.71110296
56	0x3e962954	0.29328406
57	0xbe3bf1ab	-0.18353908
58	0x3f49cbf8	0.78826857
59	0x3e0996b7	0.134364
60	0xbf2427ec	-0.64123416
61	0x3ebc5fd4	0.3679186
62	0xbe5a0631	-0.21291424
63	0xbe1e92af	-0.15485643
64	0x3ea7bcbb	0.32761177
65	0xbe310166	-0.1728569
66	0xbfa69143	-1.301308
67	0xbf5648ec	-0.8370502
68	0xbf1a0d93	-0.6017696
69	0x3f8e791b	1.1130708
70	0x3e469cc3	0.19395737
71	0x3efa0c87	0.48837683
72	0x3ebad055	0.3648707
73	0x3e8b9414	0.27261412
74	0x3f12417c	0.5713117
75	0x3e9c41f0	0.30519056
76	0x3f7d89c7	0.99038357
77	0xbecf9a2a	-0.40547305
78	0xbf14c4cc	-0.5811279
79	0xbe37b631	-0.17940594
80	0x3e0f4b6d	0.13993616
81	0xbe53a573	-0.20668583
82	0xbf7993f6	-0.97491395
83	0xbf3660f9	-0.7124172
84	0xbf8c0645	-1.0939413
85	0x3df8a186	0.12140183
86	0x3f5e3cc3	0.86811465
87	0xbfa6fa04	-1.3045049
88	0xbe82ac1b	-0.2552193
89	0x3f793e5f	0.97360796
90	0x3f038e56	0.5138906
91	0xbf42d7b9	-0.76110417
92	0xbf0be690	-0.54648685
93	0xbf2c0e56	-0.67209375
94	0xbfe6d140	-1.8032608
95	0xbfdcec31	-1.725958
96	0xbe16cfb8	-0.14727676
97	0xbe9202af	-0.28517672
98	0x3d501d8b	0.050809424
99	0xbf0e7e72	-0.5566169
100	0xbead2db8	-0.33823943
101	0xbf8a3799	-1.0798217
102	0xbd3d60b3	-0.046234798
103	0xbf2b746a	-0.6697451
104	0x3f51ded3	0.8198063
105	0x3ea2fae0	0.31832027
106	0x3f314722	0.69249165
107	0xbfcea49f	-1.6143988
108	0xbf769402	-0.9631959
109	0xbf12f489	-0.5740438
110	0x3e8bc11f	0.27295777
111	0xbf5803fd	-0.84381086
112	0x3e7235e9	0.23653378
113	0x3f78ea26	0.9723228
114	0xbf968c0f	-1.1761492
115	0x3f6ad5f3	0.9173271
116	0x3f2d44a7	0.6768288
117	0x3db60119	0.08886928
118	0x3f0152ec	0.50517154
119	0xbfa160ea	-1.2607701
120	0xbfc3be71	-1.5292493
121	0xbfae5d42	-1.362221
122	0x3f9f807d	1.2461087
123	0xbf3ccf99	-0.7375427
124	0xbf58defb	-0.8471524
125	0xbf20cd1c	-0.6281297
126	0xbe8e21dc	-0.27760208
127	0xbf0bb0fa	-0.5456692
128	0x3dac733e	0.08420418
129	0x3f7b0b9f	0.9806461
130	0xbf580ee6	-0.84397733
131	0x3e990703	0.29888162
132	0x3eac68aa	0.33673602
133	0x3db63f1b	0.08898755
134	0xbf053d3e	-0.52046573
135	0x3e1cfbc9	0.15330423
136	0xbe52cf64	-0.20586926
137	0x3f93c19e	1.1543462
138	0x3e4cc979	0.1999873
139	0xbdefd8a6	-0.11711244
140	0x3d77c203	0.06048776
141	0x3f0ac5a9	0.54207855
142	0xbf1c15f8	-0.6097102
143	0xbe795c3c	-0.24351591
144	0xbd788c9f	-0.06068098
145	0x3e1e0686	0.15432176
146	0x3dd1cf56	0.10244624
147	0xbe30c0f3	-0.17261104
148	0x3f11007e	0.56641376
149	0xbfd1dbb4	-1.6395173
150	0xbebdbfbf	-0.37060353
151	0x3f9105e0	1.1329918
152	0xbf1f5bef	-0.62249655
153	0x3f6a5467	0.9153504
154	0x3f0c160f	0.5472116
155	0x3fb5e90e	1.4211748
156	0xbd5d40ba	-0.054016806
157	0x3f3f5902	0.7474519
158	0x3e0f5209	0.13996138
159	0x3f54b761	0.83092314
160	0xbf4fecc2	-0.8122064
161	0xbea5bfd5	-0.3237292
162	0x3ed6edee	0.419784
163	0xbfb7cda8	-1.4359636
164	0x3d29a276	0.0414147
165	0xbe8361b3	-0.25660476
166	0xbfa91c84	-1.3211827
167	0xbf4d9776	-0.80309236
168	0x3c84bc21	0.016202988
169	0x3edc41e7	0.4301903
170	0x3e6a62b1	0.2288921
171	0xbf9ff440	-1.2496414
172	0xbf963a7b	-1.1736597
173	0x3f9307f9	1.1486808
174	0x3f24377d	0.6414717
175	0xbf476515	-0.77888614
176	0x3fbecb28	1.4905748
177	0x3d968f19	0.073515125
178	0x3f3d8297	0.7402739
179	0xbec8872e	-0.39165634
180	0x3e49f7d1	0.1972344
181	0xbecbee0b	-0.3983005
182	0xbfaf2de0	-1.3685875
183	0xbfb5b178	-1.4194784
184	0x3ed38a57	0.41316482
185	0x3fcdf20a	1.608949
186	0xbfd9fd77	-1.7030476
187	0xbe013a82	-0.12619975
188	0xbeb813b6	-0.35952538
189	0x3dd90d3f	0.105982296
190	0xbea8c19e	-0.32960218
191	0xbf26b0fa	-0.65113795
192	0x3eb635b8	0.3558786
193	0xbf1cb893	-0.6121914
194	0xbfbca17c	-1.4736781
195	0x3f56de17	0.8393263
196	0x3f78547e	0.97003925
197	0x3f5cb2b8	0.86210203
198	0x3df85225	0.12125043
199	0x3fc95ca1	1.5731393
200	0x3f710835	0.9415315
201	0x3f85cba0	1.0452766
202	0x3d0ad3c2	0.033893354
203	0xbebc7397	-0.36806938
204	0xbed06f2a	-0.4070981
205	0xbf0f017d	-0.55861646
206	0x3f5008fc	0.8126371
207	0x3f2e18fd	0.6800688
208	0xbcfd5332	-0.03092346
209	0xbfbab5bd	-1.4586712
210	0x3e627cd4	0.2211793
211	0xbef526ec	-0.47881258
212	0x3dc483a0	0.09595418
213	0xbf3881d7	-0.7207312
214	0x3f08327d	0.5320204
215	0x3db82c5b	0.08992835
216	0x3e320093	0.17383032
217	0x3dffdf69	0.12493784
218	0xbde2ea98	-0.110799015
219	0xbf310030	-0.6914091
220	0x3fa0b246	1.2554405
221	0x3fa7e2c4	1.3116078
222	0x3f276317	0.65385574
223	0x3f96eb3b	1.1790537
224	0x3ec9be6c	0.39403093
225	0xbfc40399	-1.5313598
226	0xbf626d3a	-0.88447917
227	0xbed69b66	-0.41915435
228	0x3f2709c3	0.6524927
229	0x3eda7f89	0.42675427
230	0xbf1e0fa6	-0.6174263
231	0x3eb36eb3	0.35045394
232	0xbf58e40b	-0.84722966
233	0x3fa7c044	1.310555
234	0xbf87cfaa	-1.0610249
235	0xbdb3d8b6	-0.08781569
236	0x3eb4e8e2	0.35333925
237	0x3e83469f	0.25639817
238	0x3ec080c6	0.37598246
239	0x3e16313e	0.14667222
240	0xbfb610f5	-1.4223925
241	0x3f6b6c33	0.91961974
242	0xbd4784db	-0.048710685
243	0x3db12ed8	0.08651513
244	0xbea167d9	-0.31524542
245	0x3e8eb4d6	0.27872342
246	0x3e977f8f	0.29589507
247	0x3e42b0e9	0.19012798
248	0xbefbb34a	-0.49160224
249	0x3f1161bb	0.5678975
250	0x3fbed59a	1.4908936
251	0xbfb5560f	-1.4166888
252	0x3e25ea4e	0.16202661
253	0x3f70894c	0.939595
254	0xbeadfdec	-0.3398279
255	0x3e4e73e9	0.20161404

network_body._body_endoder.seq_layers.0.bias f4 [128]
0	0x3c821a41	0.01588166
1	0xbd1e7c90	-0.03869301
2	0x3d322f22	0.04350198
3	0x3d17bbd4	0.03704436
4	0xbd2abe71	-0.041685525
5	0x3d08bea6	0.03338494
6	0x3d0c6db4	0.03428431
7	0x3ca5561e	0.020182665
8	0x3c0dddad	0.008658809
9	0x3d0ad1a7	0.033891346
10	0xbce8c9b4	-0.028416492
11	0xbbbbcaee	-0.005730978
12	0x3c619f67	0.013770915
13	0xbca3a90e	-0.019978072
14	0x3d1a17d6	0.037620388
15	0xbd144d18	-0.036206335
16	0x3d20f962	0.03930033
17	0x3d23097a	0.03980396
18	0x3ce1f5fa	0.027583111
19	0xbcb3e0fc	-0.021957867
20	0x3cd8fcea	0.026487786
21	0x3cab66ef	0.020923106
22	0x3cb05e29	0.021529274
23	0x3be78023	0.0070648356
24	0x3c296d22	0.010340961
25	0xbc4f0e90	-0.012637749
26	0x3ce36d77	0.027762158
27	0xbb844be0	-0.0040373653
28	0xbce3109b	-0.027717879
29	0x3d1aaff3	0.037765455
30	0xbd0ef5be	-0.034902327
31	0x3c386ab9	0.011255913
32	0x3d0b7234	0.03404446
33	0x3ca924fb	0.020647516
34	0xbcf5f9e4	-0.030026384
35	0x3d1c8ae9	0.038218413
36	0x3d296720	0.041358113
37	0x3cc504c8	0.024050131
38	0xbcc798dc	-0.024364881
39	0x3d13571a	0.03597174
40	0x3d2ee5c4	0.04269959
41	0x3d19acbf	0.03751826
42	0xbc5f203c	-0.013618525
43	0x3d0e4f4d	0.034743596
44	0xbc8e74b2	-0.017389629
45	0xbbf43b45	-0.0074533545
46	0xbb0c2cf0	-0.002138909
47	0x3ca7112b	0.020393929
48	0x3d058317	0.03259572
49	0xbcc63ca3	-0.024198836
50	0xbc07e52e	-0.008294387
51	0x3c9e9123	0.019356316
52	0x3b4b703f	0.0031042246
53	0x3d1a44d5	0.0376633
54	0x3cfaac59	0.03059976
55	0x3c904151	0.01760927
56	0x3d0f73d5	0.035022575
57	0x3c6c4310	0.014420286
58	0x3cd5222b	0.02601727
59	0x3ca5f269	0.020257192
60	0x3c55590a	0.013021717
61	0xbba4ae09	-0.0050256294
62	0x3c8aa46d	0.016924107
63	0xbb519e50	-0.003198523
64	0x3d0956c6	0.03353002
65	0xbcb59028	-0.022163466
66	0x3d15ca51	0.036569897
67	0xbd1c450d	-0.03815179
68	0x3ba198da	0.0049315514
69	0x3d20d684	0.039267078
70	0x3cfa01b0	0.030518383
71	0x3cca1fab	0.024673304
72	0xbd11fb36	-0.035639964
73	0x3c7a6167	0.015282012
74	0x3d0a351a	0.033742048
75	0xbd119e68	-0.03555146
76	0xbcd999e1	-0.026562633
77	0x3cf687d6	0.030094068
78	0x3cb710d1	0.022346886
79	0xbc895fa4	-0.016769238
80	0x3d06a7a9	0.032874737
81	0x3c8b6451	0.017015608
82	0x3cda8722	0.026675764
83	0x3cb511f4	0.022103287
84	0x3a848fa0	0.0010113604
85	0x3d2213a1	0.0395695
86	0x3c80505c	0.015663318
87	0x3c297cf8	0.010344736
88	0x3d06ca3e	0.032907717
89	0xbcecf84c	-0.02892699
90	0x3d13bdce	0.036069684
91	0x3cdbe858	0.026844189
92	0x3cc0eb93	0.02354983
93	0x3ce2f2f7	0.027703745
94	0xbd33fea2	-0.04394401
95	0xbcd886a0	-0.026431382
96	0x3cbe14b2	0.023203228
97	0x3c320840	0.010866225
98	0xbcb2c5d6	-0.021822851
99	0x3cedf525	0.029047558
100	0x3d0ff556	0.03514608
101	0xbc1c82fd	-0.009552714
102	0xbcbd4143	-0.023102408
103	0x3d1effe5	0.03881826
104	0x3bd16923	0.006390707
105	0xbceeab30	-0.029134363
106	0x3cd10079	0.02551292
107	0xbc956ead	-0.01824125
108	0xbd0caf04	-0.034346595
109	0xbcdebd4a	-0.02718987
110	0x3cb443f2	0.022005055
111	0x3d066218	0.032808393
112	0xbb971ca4	-0.0046115685
113	0x3c2adbc5	0.010428374
114	0x3d2605bb	0.04053281
115	0x3cdf738a	0.027276773
116	0xbcb6e2ad	-0.022324884
117	0xbc792f1a	-0.015208984
118	0x3d1e7a1a	0.038690664
119	0x3cd59234	0.026070692
120	0x3bf08f59	0.007341307
121	0x3cb72b51	0.022359522
122	0xbb082431	-0.0020773525
123	0x3d21b664	0.039480582
124	0x3c925817	0.01786427
125	0x3cc0856b	0.023501119
126	0x3cb83a26	0.022488665
127	0xbd0ec18e	-0.034852557

network_body._body_endoder.seq_layers.2.weight f4 [128, 128]
0	0xbdec381f	-0.11534142
1	0x3e04114d	0.12897225
2	0xbc109173	-0.00882374
3	0x3d24e801	0.04026032
4	0xbd848228	-0.06470138
5	0xbe15b8c7	-0.14621268
6	0xbb75a5cb	-0.0037482854
7	0xbd76cc36	-0.060253344
8	0xba7f6f17	-0.00097440317
9	0x3dd52f74	0.104094416
10	0x3e6d5e41	0.23180486
11	0x3d74b2b5	0.05974074
12	0xbcb989ac	-0.022648655
13	0xbdeac48b	-0.11463269
14	0x3b9f8ba3	0.004868941
15	0x3c290fd7	0.010318718
16	0xbcd12e6b	-0.02553483
17	0x3da9c3e5	0.08289317
18	0xbbc38766	-0.0059670685
19	0x3d888932	0.06666793
20	0x3e1fb860	0.15597677
21	0xbd8ddf16	-0.06927316
22	0xbe34d841	-0.1766062
23	0xbd5d8d6d	-0.054089952
24	0x3b033231	0.002001893
25	0xbe06c219	-0.1315998
26	0x3da1d94c	0.07902774
27	0xbd39b043	-0.045334112
28	0xbc8f2ae1	-0.017476501
29	0x3da06999	0.07832641
30	0xbd86f453	-0.0658957
31	0xbdb6d7ab	-0.08927854
32	0x3e661e7e	0.2247257
33	0xbd62ee48	-0.055403024
34	0xbdc8db07	-0.09807401
35	0xbd8bdb14	-0.06828895
36	0x3db38da5	0.08767251
37	0x3da21732	0.079145804
38	0xbdfb282d	-0.12263522
39	0x3d8a3e56	0.06750171
40	0xbce798ef	-0.028271167
41	0x3d1692de	0.036761157
42	0xbd79a282	-0.060945995
43	0x3cfdc039	0.030975448
44	0x3c641e0b	0.013923178
45	0xbd99c21d	-0.07507727
46	0x3d53bbb0	0.051692665
47	0x3de9ce5d	0.11416314
48	0x3d09060b	0.03345303
49	0xbd538944	-0.05164458
50	0xbc6a304c	-0.014293741
51	0xbd23f618	-0.040029615
52	0xbd672b41	-0.056437735
53	0x3d51f979	0.051263306
54	0xbdb4bddc	-0.08825275
55	0xbe33ff7a	-0.17577925
56	0xbcd8f02c	-0.02648171
57	0x3e370b56	0.17875418
58	0xbd64df0f	-0.055876788
59	0xbd2ad1c0	-0.04170394
60	0xbe4c0a4e	-0.19925806
61	0xbc2d83dd	-0.010590521
62	0xbdd1f0bf	-0.10250997
63	0xbc31c1dd	-0.010849443
64	0x3dc583c6	0.096442744
65	0x3e1aba62	0.15110162
66	0xbd7537cd	-0.05986767
67	0x3dc080cf	0.09399568
68	0x3db36418	0.08759326
69	0x3d413257	0.04716715
70	0x3d8a3ec4	0.06750253
71	0xbd253169	-0.040330324
72	0x3d47a3f2	0.048740335
73	0xbc54d22c	-0.012989562
74	0x3ca30d65	0.019903848
75	0xbcf24cf7	-0.029577715
76	0xbd6d3bad	-0.05791824
77	0x3c7224f2	0.014779316
78	0xbd6e7a37	-0.058222022
79	0x3dc38053	0.0954596
80	0xbd3d3dc1	-0.04620147
81	0xbdc38cf8	-0.09548372
82	0xbcf79249	-0.030221121
83	0xbd8f6a46	-0.07002692
84	0xbd4f6459	-0.05063281
85	0x3d1e91ae	0.03871315
86	0xbdf3ee9c	-0.119107455
87	0x3cac3911	0.021023305
88	0x3cbcd903	0.023052698
89	0x39068952	0.00012830392
90	0x3e4cb9ac	0.19992703
91	0x3d9d6cf3	0.07686796
92	0x3d12ac0e	0.035808615
93	0x3d16ac89	0.036785636
94	0x3c9e5ae2	0.019330446
95	0x3d80f0f1	0.06295956
96	0xbc50e0d8	-0.012748919
97	0xbdddeaaf	-0.10835778
98	0x3c57ba97	0.013167045
99	0x3e11a75c	0.14223999
100	0xbcabc3db	-0.020967415
101	0x3e147dde	0.1450114
102	0x3d29cf3c	0.0414574
103	0xbdd77f56	-0.10522334
104	0x3e027844	0.1274119
105	0x3b771a0d	0.0037704736
106	0xbe12458d	-0.14284344
107	0xbda0168a	-0.07816799
108	0x3d0619ad	0.03273933
109	0x3c86f715	0.01647524
110	0x3d5416f6	0.05177971
111	0xbc33a5d3	-0.010964829
112	0xbd91c44a	-0.07117517
113	0x3db924c5	0.09040216
114	0x3c92a2c9	0.017899888
115	0xbd3a59f0	-0.045495927
116	0xbcad1aa5	-0.02113087
117	0x3dae99a6	0.085254
118	0xbe1c906d	-0.15289469
119	0xbcd2a798	-0.02571468
120	0xbc626d7b	-0.0138200475
121	0x3b7cd066	0.0038576364
122	0x3bf2fc73	0.007415348
123	0x3d921ca6	0.071343705
124	0x3d86e212	0.06586088
125	0x3d8ddee3	0.06927278
126	0xbe708e31	-0.23491742
127	0x3da09b0a	0.07842071
128	0x3d418b78	0.04725215
129	0x3d6b525b	0.057451587
130	0x3dc4608b	0.095887266
131	0xbdbec703	-0.09315302
132	0x3e815cd8	0.25266147
133	0x3dbc97df	0.092086546
134	0x3d4e7a1f	0.050409433
135	0xbdf24942	-0.11830379
136	0x3cedc87d	0.029026264
137	0xbbd1b027	-0.006399173
138	0x3da65ffb	0.081237756
139	0xbdb3f9d5	-0.08787886
140	0xbb6aee88	-0.0035847742
141	0xbdc186b8	-0.09449524
142	0xbdddb36f	-0.1082524
143	0xbdb49488	-0.088173926
144	0xbe244430	-0.16041636
145	0x3e00d01c	0.12579387
146	0xbdb7b720	-0.08970475
147	0x3cc48932	0.023991201
148	0xbc1b8494	-0.009492058
149	0x3d9cdfaa	0.07659848
150	0x3d5cde5a	0.05392299
151	0x3b500da8	0.003174642
152	0x3c8a6231	0.016892524
153	0x3caa69d2	0.020802412
154	0x3d0758e5	0.03304376
155	0xbddf40cb	-0.1090103
156	0xbe34f54c	-0.17671698
157	0xbdcc5c5d	-0.099785544
158	0x3d58f4b7	0.052967753
159	0x3c9b4ac3	0.018956548
160	0x3df6b687	0.12046533
161	0xbdff7fc9	-0.12475545
162	0x3d2c969f	0.04213583
163	0x3d87756d	0.06614194
164	0xbcfcee84	-0.030875452
165	0xbda9b58d	-0.08286581
166	0x3a984ecc	0.0011620163
167	0xbe15f905	-0.14645775
168	0xbda17a97	-0.0788471
169	0xbe6976c6	-0.22799215
170	0x3c63ce7f	0.013904213
171	0x3d792064	0.060821906
172	0xbbc4934c	-0.0059990045
173	0x3cbca56f	0.023028104
174	0xbe1d8a90	-0.15384889
175	0xbdf5847f	-0.11988162
176	0x3d84bc48	0.06481224
177	0x3dff759f	0.12473606
178	0xbdb8cce9	-0.090234585
179	0x3d485a15	0.048914034
180	0xbe5a8d06	-0.21342859
181	0xbda0c246	-0.07849555
182	0x3dd3a8b6	0.103349134
183	0x3dc96569	0.098337956
184	0xbd92dd11	-0.07171071
185	0xbc433aa1	-0.011915834
186	0xbdd046dc	-0.10169765
187	0x3d4fca98	0.050730318
188	0x3d1e201d	0.038604844
189	0x3da63714	0.08115974
190	0x3d7a417b	0.061097603
191	0xbd10bbd7	-0.035335388
192	0xbc94f563	-0.018183416
193	0xbdd015d9	-0.10160417
194	0xbd85c56d	-0.065317966
195	0xbd08b67b	-0.033377152
196	0xbc226f5b	-0.0099142445
197	0x3d3c0510	0.045903265
198	0x3e312115	0.17297776
199	0xbd87f6a2	-0.06638838
200	0xbda43a94	-0.080189854
201	0xbdec8898	-0.11549491
202	0xbd1ee481	-0.038792137
203	0x3e10f6b6	0.14156613
204	0xbc92aa8b	-0.017903587
205	0xbca38ccc	-0.019964598
206	0x3da79b59	0.08183927
207	0x3b461d77	0.0030229965
208	0x3d8c2317	0.0684263
209	0x3dc483f8	0.095954835
210	0xbd151f17	-0.036406603
211	0xbd4e7b9b	-0.050410848
212	0xbd3e6e24	-0.046491757
213	0xbd05c0b6	-0.032654487
214	0xbd46f111	-0.048569743
215	0xbdef8a4d	-0.11696301
216	0x3d19e553	0.037572216
217	0x3ce9e8fa	0.028553475
218	0xbda3deb1	-0.080014594
219	0x3dbb2d36	0.09139483
220	0x3ce06b3e	0.027394887
221	0xbe16db7c	-0.14732164
222	0xbd71469e	-0.058905236
223	0xbd929d4e	-0.0715891
224	0xbd820991	-0.06349481
225	0xbcedb1e5	-0.02901549
226	0x3e8d2ac4	0.2757169
227	0xbdca7442	-0.09885456
228	0xbd154ccc	-0.036450192
229	0xbd4d20fe	-0.050080292
230	0x3cb77a4a	0.02239718
231	0xbcd24f70	-0.025672644
232	0x3db2b385	0.08725647
233	0xbc6ebf8f	-0.014572038
234	0x3ca376ea	0.019954164
235	0x3d1aa2af	0.037752803
236	0xbcc65849	-0.02421202
237	0xbdbacd06	-0.09121136
238	0xbc0ac476	-0.0084696915
239	0xbe105c47	-0.14097701
240	0x3d49f61a	0.049306966
241	0x3cd59c92	0.026075635
242	0xbdda88c6	-0.10670619
243	0xbd4e3bde	-0.050350063
244	0xbcf3f23f	-0.029778598
245	0xbe169f9b	-0.14709322
246	0xbd64705e	-0.055771224
247	0x3d07525e	0.033037536
248	0x3d57edf4	0.052717164
249	0x3ca1c8f7	0.019749148
250	0x3e26a2f5	0.162731
251	0xbd2a8f65	-0.041640658
252	0x3dba3bb8	0.09093422
253	0xbd958a7a	-0.07301803
254	0x3d0c0723	0.034186494
255	0xbcc1eb3e	-0.023671743

network_body._body_endoder.seq_layers.2.bias f4 [128]
0	0x3bfc7916	0.0077048643
1	0xbd17f285	-0.03709652
2	0xbd159293	-0.036516737
3	0x3cf0c41d	0.02939039
4	0x3d276b5a	0.040873863
5	0x3ceb0c4c	0.028692387
6	0xbcf3f275	-0.029778698
7	0xbd2cfbce	-0.042232327
8	0x3c7407c9	0.014894434
9	0x3ce9d448	0.028543606
10	0x3ca5c5de	0.020235952
11	0xbd157af5	-0.036494214
12	0xbd2488c2	-0.040169485
13	0x3d2fe56b	0.0429434
14	0x3cdb7baa	0.026792366
15	0xbd0e619c	-0.034761056
16	0x3ceda39d	0.029008681
17	0x3d2b6b9f	0.041850682
18	0xbc005461	-0.0078326175
19	0xbca4b25f	-0.020104585
20	0x3cf012bf	0.029305814
21	0x3d19f7ca	0.037589826
22	0x3cc7f34b	0.024408003
23	0xbc584b79	-0.013201588
24	0xbd121301	-0.035662655
25	0xbd4051ff	-0.046953198
26	0x3d307984	0.043084636
27	0xbd314ef7	-0.043288197
28	0xbb0c5ce3	-0.002141767
29	0xbd0f33f4	-0.034961656
30	0x3d1962fa	0.037447907
31	0x3cdd9b42	0.027051572
32	0xbcd36ed7	-0.025809688
33	0x3cd0c4c0	0.025484443
34	0x3cf36920	0.029713213
35	0xbd2458a4	-0.040123597
36	0x3b6ec614	0.0036433982
37	0xbc89ead2	-0.016835604
38	0xbd11c305	-0.035586376
39	0x3d2bbed3	0.04193003
40	0x3ce3949a	0.02778082
41	0x3cdef6c1	0.02721727
42	0x3d2e53dc	0.042560443
43	0x3cefc2c5	0.029267678
44	0xbcb9cc2d	-0.022680366
45	0x3c16f2df	0.009213178
46	0x3ce575a7	0.028010203
47	0xbd26f3c4	-0.040759817
48	0xbd100567	-0.035161402
49	0xbcf5d4bb	-0.030008664
50	0x3cec89e0	0.028874338
51	0xbd24fb25	-0.040278573
52	0xbc3877e9	-0.011259058
53	0xbd33c8f7	-0.043892827
54	0xbd12e424	-0.035862103
55	0x3d21a229	0.03946129
56	0xbd1bda82	-0.038050182
57	0x3d190b16	0.037364088
58	0xbd05900b	-0.032608073
59	0x3cf9ebff	0.03050804
60	0x3d0983b4	0.033572868
61	0xbcc121f9	-0.02357577
62	0x3cdc8193	0.026917255
63	0xbd19e90b	-0.037575763
64	0x3cc210bb	0.023689618
65	0x3c94f860	0.01818484
66	0x3ceee350	0.029161125
67	0x3d006099	0.031342123
68	0xbcb46a14	-0.022023238
69	0x3d0b44a6	0.034001015
70	0x3ce2674d	0.027637148
71	0xbcd16deb	-0.025565108
72	0x3d0b0daa	0.033948578
73	0x3b3f738f	0.0029213165
74	0x3ceda4a2	0.029009167
75	0xbce3dffa	-0.027816761
76	0xbd27e0a2	-0.04098571
77	0xbd0f6dcf	-0.03501683
78	0xbd27946d	-0.040913034
79	0xbcee4690	-0.029086381
80	0xbd02923e	-0.03187775
81	0xbd138386	-0.036014102
82	0x3d25ee9b	0.040510755
83	0xbd1f0ed7	-0.03883251
84	0xbce1b863	-0.027553743
85	0xbd06ca18	-0.032907575
86	0x3d15de70	0.036589086
87	0x3d0518d3	0.032494377
88	0xbd0063fc	-0.031345353
89	0xbd2e665a	-0.04257808
90	0x3ce934f0	0.028467625
91	0xbd2b3ee0	-0.04180801
92	0xb9a7bd12	-0.0003199359
93	0xbcc1f24b	-0.023675105
94	0x3d023cc1	0.03179622
95	0x3c4e2452	0.012581902
96	0xbc9e840c	-0.019350074
97	0xbcef8e72	-0.029242728
98	0xbceb87ee	-0.02875134
99	0xbd311355	-0.043231327
100	0xbd0baa07	-0.034097698
101	0x3cfcf2c4	0.030877478
102	0xbd346a6a	-0.044046797
103	0x3d2991d5	0.041398842
104	0x3c535f9f	0.012901216
105	0x3d0501cc	0.032472417
106	0xbcf220c9	-0.029556649
107	0xbd289920	-0.041161656
108	0x3d05d0cf	0.03266984
109	0x3c42faf4	0.011900652
110	0x396d1a66	0.00022611915
111	0xbd05656f	-0.032567438
112	0x3cbf57fc	0.023357384
113	0x3ae3c75a	0.0017378137
114	0x3cfc8076	0.030822974
115	0x3bce9979	0.0063049165
116	0xbd30bbba	-0.04314778
117	0xbd2659e9	-0.04061309
118	0xbb18677a	-0.0023255036
119	0x3cc903b5	0.0245379
120	0xbd3f20aa	-0.04666201
121	0x3d186c5e	0.037212722
122	0x3d10f964	0.035394087
123	0x3ce178eb	0.027523478
124	0x3cec8b73	0.028875088
125	0xbd28d751	-0.041220967
126	0x3d210618	0.039312452
127	0xbd050655	-0.03247674

action_model._discrete_distribution.branches.0.weight f4 [2, 128]
0	0xbb72d567	-0.0037053467
1	0xbcf5570c	-0.029948734
2	0xbd343935	-0.04399987
3	0x3b95831c	0.0045627486
4	0x3c842db8	0.016135082
5	0xbb05d899	-0.0020423292
6	0xbca61444	-0.020273335
7	0xbca4305d	-0.020042593
8	0x3b093623	0.002093681
9	0x3badd906	0.005305412
10	0x3a912e8a	0.0011076492
11	0xbd65646f	-0.056003984
12	0xbcd7a8a0	-0.026325524
13	0x3cc8a4f7	0.024492724
14	0x3b2ba0e3	0.0026188425
15	0xbb107f7f	-0.002204865
16	0x3c30d17a	0.010792131
17	0x3c322684	0.010873441
18	0xbb475511	-0.0030415694
19	0xbc368cc5	-0.0111419605
20	0x3a0e5387	0.00054293167
21	0x3c1b8034	0.009491015
22	0xbb66d1bf	-0.0035220233
23	0x3ae57212	0.0017505309
24	0xbd0db2d8	-0.034594387
25	0xbc309e9a	-0.010780001
26	0x3c713219	0.014721417
27	0xbccb3ef7	-0.024810297
28	0xbba4d2cf	-0.005030013
29	0xbcdbcaa7	-0.02683003
30	0x3c402639	0.011727863
31	0x3a318a11	0.00067725877
32	0xba98c519	-0.0011655419
33	0x3bbb8cd8	0.005723577
34	0x3c55221c	0.013008621
35	0xbd5190b7	-0.0511634
36	0x3c1a37b9	0.009412699
37	0xbafe753a	-0.0019413598
38	0xbc314687	-0.010820038
39	0x3c55e376	0.013054719
40	0x3b2f4eb2	0.0026749787
41	0x3c0910fc	0.008365866
42	0x3cc914b6	0.024546009
43	0x3b696c14	0.0035617398
44	0x3bbcd02c	0.0057621207
45	0xbb81b278	-0.0039580427
46	0x3c0969f7	0.00838708
47	0xbc5d4b90	-0.013506785
48	0xbcbea753	-0.023273146
49	0x3ab92273	0.0014124647
50	0xbae15731	-0.0017192123
51	0xbd181a6f	-0.037134584
52	0xbc096a6c	-0.008387189
53	0xbc92a998	-0.017903134
54	0xbb818c47	-0.00395349
55	0x3c232052	0.009956436
56	0xbd061343	-0.032733213
57	0x3c94e3e7	0.018175079
58	0xbca4935c	-0.020089798
59	0xbbecd1f9	-0.007227179
60	0x3c950c65	0.018194387
61	0x3799c7ce	1.8332063e-05
62	0x3b732dd2	0.0037106168
63	0xbcd043cc	-0.025422953
64	0x3be0696f	0.006848506
65	0x3bfbb151	0.00768105
66	0xbabe151f	-0.0014502144
67	0x3caae31e	0.020860251
68	0xbc46cc3d	-0.012133655
69	0x3bba4afc	0.0056852084
70	0x3a687e7d	0.0008868946
71	0x39e39d7a	0.00043414143
72	0x3baa8dd5	0.005204896
73	0xbc9c6167	-0.019089414
74	0x3b23175e	0.0024885754
75	0x3b4930a3	0.0030699156
76	0xbc47244d	-0.012154651
77	0xbcfbe519	-0.03074889
78	0xbcc3b1d3	-0.023888504
79	0xbc1ab6b9	-0.009442979
80	0xbc863fac	-0.016387783
81	0xbc7de8fd	-0.015497443
82	0x3c301641	0.010747493
83	0xbcf969ef	-0.03044602
84	0xbc112a84	-0.008860234
85	0xbc37f517	-0.011227868
86	0x3c3417b3	0.010991978
87	0xba07ce1d	-0.00051805546
88	0xbb185966	-0.0023246645
89	0xbd042267	-0.03225937
90	0x3b141aaf	0.0022598912
91	0xbcb8428b	-0.022492668
92	0xbc85e2c5	-0.016343484
93	0x3b2a5848	0.002599256
94	0x3c41a236	0.011818459
95	0xbc6967ba	-0.014245922
96	0xbc3d81ab	-0.01156656
97	0xbbad4126	-0.0052873073
98	0xbc15a3c4	-0.009133283
99	0xbce0084f	-0.027347712
100	0xbca24f2c	-0.019813143
101	0x3c648a7c	0.013949033
102	0xbd09b865	-0.033623118
103	0x3c815ecc	0.015792273
104	0xbb630627	-0.0034641118
105	0x3bf61963	0.0075103506
106	0xbbc55d99	-0.0060231206
107	0xbd1f954f	-0.03896075
108	0x3a16c312	0.00057511136
109	0x3a6dea2e	0.0009075728
110	0x3b333f20	0.0027350858
111	0xbd0330ba	-0.03202889
112	0x3bfd53e1	0.0077309464
113	0x39d77d52	0.00041101367
114	0x3c8c7817	0.017147107
115	0xbc08ab75	-0.00834166
116	0xbd16a215	-0.036775667
117	0xbcc2f789	-0.023799675
118	0x3c1ec1bd	0.0096897455
119	0x3bcdbae6	0.0062783835
120	0xbcc2e74e	-0.023791935
121	0x3c6a5d21	0.01430443
122	0x3c5bb34b	0.013409446
123	0x3c1672cf	0.009182646
124	0x3c837277	0.016045792
125	0xbc5b56ab	-0.0133873625
126	0x3c52e6d6	0.012872418
127	0xbc1f634d	-0.009728265
128	0xbba7acff	-0.0051170583
129	0x3cbfcd5c	0.023413353
130	0x3d29ba56	0.04143747
131	0xbbfe462c	-0.00775983
132	0xbca36827	-0.019947125
133	0xbb1829a0	-0.002321817
134	0x3c19d9ef	0.009390338
135	0x3d096d39	0.03355143
136	0x3a880ab7	0.001037917
137	0xbb8f0511	-0.0043646176
138	0xba932755	-0.0011226932
139	0x3cce9a45	0.025220046
140	0x3d03d198	0.032182306
141	0x3b1ae6b0	0.0023636036
142	0xbc735293	-0.01485123
143	0x3c6bc182	0.014389398
144	0xbc1a2aca	-0.009409616
145	0xbc3917a7	-0.011297143
146	0xbb34da07	-0.0027595775
147	0x3bb5fff8	0.0055541955
148	0xbc64fc86	-0.013976222
149	0xbc0106f0	-0.007875189
150	0xbbb9124f	-0.0056479345
151	0x3c368c6f	0.01114188
152	0x3d6c344d	0.057667065
153	0x3d43a0a8	0.047760636
154	0xbc1ce4ca	-0.009576032
155	0x3cfc0475	0.030763844
156	0x3bb2734e	0.0054458743
157	0x3caed41e	0.02134138
158	0xbc734a7b	-0.0148493005
159	0xbc7a2e52	-0.015269833
160	0x3c0af077	0.008480183
161	0xbb2fe70c	-0.0026840596
162	0xbb1d697a	-0.0024019168
163	0x3d068f79	0.03285167
164	0x3a430eb3	0.000744085
165	0x3b9f2b51	0.0048574586
166	0x3b8d2c92	0.0043082917
167	0xbc24f589	-0.010068306
168	0xbc751e4a	-0.014960835
169	0xbc0a5c78	-0.008444898
170	0xbc27d377	-0.010243288
171	0xbc8464c7	-0.016161336
172	0x3c2c6ded	0.010524255
173	0xbabc4f5c	-0.0014366913
174	0xba384252	-0.00070289255
175	0x3cb1a977	0.021687252
176	0x3c342795	0.010995765
177	0x3c3f4955	0.011675199
178	0xbbb8ae4d	-0.0056360126
179	0x3d3983dd	0.04529177
180	0xba85531c	-0.0010171863
181	0x3cc61978	0.024182066
182	0x3bef9cb0	0.00731238
183	0xbb0b14d5	-0.0021222134
184	0x3c9a6be9	0.018850284
185	0x39cd3ce4	0.00039146014
186	0x3bdb2391	0.0066875895
187	0xbc952c55	-0.018209616
188	0x3b68682c	0.0035462482
189	0x3c649bd2	0.013953166
190	0xbc781caa	-0.015143553
191	0x3c7180dd	0.014740196
192	0x3b6c61ff	0.0036069152
193	0x3c104056	0.008804401
194	0xbc2bd946	-0.010488814
195	0xbbbf6a17	-0.0058415043
196	0xbb30e54c	-0.002699214
197	0xbbf47876	-0.007460649
198	0xbc21349f	-0.009839206
199	0x3bdd2db1	0.0067498316
200	0xba9c540f	-0.0011926907
201	0x3b7a940b	0.0038235213
202	0xbc2a1079	-0.010379904
203	0x3c3f45e1	0.011674375
204	0x3ce91ddd	0.028456623
205	0x3cdc9ea0	0.026931107
206	0x3cc3e0ab	0.023910841
207	0x3c4402db	0.011963571
208	0x3b174e33	0.0023087382
209	0x3cb36678	0.021899447
210	0xbc7fe998	-0.015619658
211	0x388e9611	6.79904e-05
212	0x3bcbf5ad	0.006224355
213	0x3c4514a1	0.012028844
214	0xbc8ac2e2	-0.01693863
215	0xbbca8fe6	-0.006181705
216	0x3c301b20	0.010748655
217	0x3d01c881	0.031685356
218	0xbbac9ad9	-0.0052674827
219	0x3d06ccf3	0.0329103
220	0x3c90d68e	0.017680433
221	0x3c01d4fa	0.007924313
222	0xbc584c8a	-0.013201842
223	0xbc624f1a	-0.013812805
224	0xbc296c22	-0.010340722
225	0x3b9c3064	0.004766511
226	0x3c94bee0	0.018157423
227	0x3c60fd80	0.013732314
228	0x3c905b86	0.017621767
229	0xbc613a4b	-0.013746808
230	0x3d0f3a96	0.03496798
231	0xbc529d7e	-0.012854932
232	0xbb794d10	-0.0038040318
233	0xbc93d7ac	-0.018047176
234	0x3c15a3d8	0.009133302
235	0x3cf61241	0.030038001
236	0xbc3e879b	-0.011629011
237	0xbaea671b	-0.0017883511
238	0x3c26f7dd	0.010190931
239	0x3d197947	0.037469175
240	0x3b6e23e6	0.0036337315
241	0x3aeabd5d	0.0017909218
242	0xbc05ff52	-0.008178549
243	0x3c93bb6c	0.018033706
244	0x3d0eee71	0.034895364
245	0x3ccc68c9	0.02495231
246	0x3c5acf62	0.013355108
247	0xbbccafbd	-0.0062465356
248	0x3d16cac7	0.036814477
249	0xbbe6feca	-0.007049416
250	0xbc888d45	-0.016668925
251	0xbc121776	-0.008916726
252	0x3a142082	0.0005650596
253	0x3c98633e	0.01860201
254	0xbc88124a	-0.016610283
255	0x3c0b4a6f	0.008501633

action_model._discrete_distribution.branches.0.bias f4 [2]
0	0x3d0abc16	0.03387078
1	0xbd0abc17	-0.033870783

49 f4 [2]
0	0x3fc93583	1.5719455
1	0x402de121	2.7168658
