results/flappy_slow_v11/FlappyBirdAgent/FlappyBirdAgent-4319.pt (torch, 428727 bytes, 41 tensors)

network_body.observation_encoder.processors.0.normalizer.running_mean f4 [2]
00000000: ce0a b83f daf2 2a40
1.4378297 2.6710725

network_body.observation_encoder.processors.0.normalizer.running_variance f4 [2]
00000000: 19cb 2646 f31e f946
10674.774 31887.475

network_body.processors.0.normalizer.running_mean f4 [2]
00000000: ce0a b83f daf2 2a40
1.4378297 2.6710725

network_body.processors.0.normalizer.running_variance f4 [2]
00000000: 19cb 2646 f31e f946
10674.774 31887.475

network_body._body_endoder.seq_layers.0.weight f4 [128, 2]
00000000: 43e3 a13e 38b4 6dbf 49bf 4fbf cfe9 a3be
00000010: 14db d03f 8265 1bbf 73f7 1b3d 1db4 063e
00000020: da91 9c3e 2494 d23e f567 643f 35c9 60be
00000030: dc1e d93e 48b7 76bf 7a32 96be f886 32be
00000040: 9f47 053f 938d 243f e49c a13f 2395 eb3e
00000050: bec4 81bd b1d0 a7bd 1cfd 4c3f 3325 c33e
00000060: 66f1 30bf 8c18 e63e b3e4 3f3f ec8e 61bd
00000070: d5fe c0bd 7081 8a3d 6b5b 43bf bd47 24be
00000080: 7b6e 2840 3636 aabd f4e4 bdbe 42b8 693e
00000090: ffba 9b3e 83d6 973f 567b dd3d e0cd 8c3f
000000a0: ddc8 92bf d065 f43c 0ae9 a1be 3c77 c3be
000000b0: 5786 1fbe 5b91 7abf 96b0 28bf 625f 893f
000000c0: 6565 cbbf c8c6 b93e 20c4 273f e909 b53d
000000d0: c8a3 92bf ac3e 46bf 0e3d 6cbd d80a 36bf
000000e0: 5429 963e abf1 3bbe f8cb 493f b796 093e
000000f0: ec27 24bf d45f bc3e 3106 5abe af92 1ebe
00000100: bbbc a73e 6601 31be 4391 a6bf ec48 56bf
00000110: 930d 1abf 1b79 8e3f c39c 463e 870c fa3e
00000120: 55d0 ba3e 1494 8b3e 7c41 123f f041 9c3e
00000130: c789 7d3f 2a9a cfbe ccc4 14bf 31b6 37be
00000140: 6d4b 0f3e 73a5 53be f693 79bf f960 36bf
00000150: 4506 8cbf 86a1 f83d c33c 5e3f 04fa a6bf
00000160: 1bac 82be 5f3e 793f 568e 033f b9d7 42bf
00000170: 90e6 0bbf 560e 2cbf 40d1 e6bf 31ec dcbf
00000180: b8cf 16be af02 92be 8b1d 503d 727e 0ebf
00000190: b82d adbe 9937 8abf b360 3dbd 6a74 2bbf
000001a0: d3de 513f e0fa a23e 2247 313f 9fa4 cebf
000001b0: 0294 76bf 89f4 12bf 1fc1 8b3e fd03 58bf
000001c0: e935 723e 26ea 783f 0f8c 96bf f3d5 6a3f
000001d0: a744 2d3f 1901 b63d ec52 013f ea60 a1bf
000001e0: 71be c3bf 425d aebf 7d80 9f3f 99cf 3cbf
000001f0: fbde 58bf 1ccd 20bf dc21 8ebe fab0 0bbf
00000200: 3e73 ac3d 9f0b 7b3f e60e 58bf 0307 993e
00000210: aa68 ac3e 1b3f b63d 3e3d 05bf c9fb 1c3e
00000220: 64cf 52be 9ec1 933f 79c9 4c3e a6d8 efbd
00000230: 03c2 773d a9c5 0a3f f815 1cbf 3c5c 79be
00000240: 9f8c 78bd 8606 1e3e 56cf d13d f3c0 30be
00000250: 7e00 113f b4db d1bf bfbf bdbe e005 913f
00000260: ef5b 1fbf 6754 6a3f 0f16 0c3f 0ee9 b53f
00000270: ba40 5dbd 0259 3f3f 0952 0f3e 61b7 543f
00000280: c2ec 4fbf d5bf a5be eeed d63e a8cd b7bf
00000290: 76a2 293d b361 83be 841c a9bf 7697 4dbf
000002a0: 21bc 843c e741 dc3e b162 6a3e 40f4 9fbf
000002b0: 7b3a 96bf f907 933f 7d37 243f 1565 47bf
000002c0: 28cb be3f 198f 963d 9782 3d3f 2e87 c8be
000002d0: d1f7 493e 0bee cbbe e02d afbf 78b1 b5bf
000002e0: 578a d33e 0af2 cd3f 77fd d9bf 823a 01be
000002f0: b613 b8be 3f0d d93d 9ec1 a8be fab0 26bf
00000300: b835 b63e 93b8 1cbf 7ca1 bcbf 17de 563f
00000310: 7e54 783f b8b2 5c3f 2552 f83d a15c c93f
00000320: 3508 713f a0cb 853f c2d3 0a3d 9773 bcbe
00000330: 2a6f d0be 7d01 0fbf fc08 503f fd18 2e3f
00000340: 3253 fdbc bdb5 babf d47c 623e ec26 f5be
00000350: a083 c43d d781 38bf 7d32 083f 5b2c b83d
00000360: 9300 323e 69df ff3d 98ea e2bd 3000 31bf
00000370: 46b2 a03f c4e2 a73f 1763 273f 3beb 963f
00000380: 6cbe c93e 9903 c4bf 3a6d 62bf 669b d6be
00000390: c309 273f 897f da3e a60f 1ebf b36e b33e
000003a0: 0be4 58bf 44c0 a73f aacf 87bf b6d8 b3bd
000003b0: e2e8 b43e 9f46 833e c680 c03e 3e31 163e
000003c0: f510 b6bf 336c 6b3f db84 47bd d82e b13d
000003d0: d967 a1be d6b4 8e3e 8f7f 973e e9b0 423e
000003e0: 4ab3 fbbe bb61 113f 9ad5 be3f 0f56 b5bf
000003f0: 4eea 253e 4c89 703f ecfd adbe e973 4e3e
0.316187 -0.92853117 -0.81151253 -0.3201432 1.6316857 -0.60701764 0.038077783 0.13154645
0.30580026 0.41128647 0.89221126 -0.21951754 0.42406356 -0.96373415 -0.29335386 -0.17434299
0.5206241 0.64278525 1.2626004 0.4601222 -0.06336354 -0.081941016 0.80073714 0.38114318
-0.69118345 0.44940603 0.7495834 -0.05506794 -0.09423605 0.067629695 -0.7631137 -0.16042991
2.6317432 -0.08311121 -0.3708874 0.22824195 0.30416104 1.1862339 0.1081454 1.1000328
-1.1467549 0.029833704 -0.31623107 -0.38176906 -0.1557859 -0.97878045 -0.6589445 1.0732234
-1.5890318 0.3628447 0.6553364 0.08839781 -1.1456232 -0.7743938 -0.057675414 -0.71110296
0.29328406 -0.18353908 0.78826857 0.134364 -0.64123416 0.3679186 -0.21291424 -0.15485643
0.32761177 -0.1728569 -1.301308 -0.8370502 -0.6017696 1.1130708 0.19395737 0.48837683
0.3648707 0.27261412 0.5713117 0.30519056 0.99038357 -0.40547305 -0.5811279 -0.17940594
0.13993616 -0.20668583 -0.97491395 -0.7124172 -1.0939413 0.12140183 0.86811465 -1.3045049
-0.2552193 0.97360796 0.5138906 -0.76110417 -0.54648685 -0.67209375 -1.8032608 -1.725958
-0.14727676 -0.28517672 0.050809424 -0.5566169 -0.33823943 -1.0798217 -0.046234798 -0.6697451
0.8198063 0.31832027 0.69249165 -1.6143988 -0.9631959 -0.5740438 0.27295777 -0.84381086
0.23653378 0.9723228 -1.1761492 0.9173271 0.6768288 0.08886928 0.50517154 -1.2607701
-1.5292493 -1.362221 1.2461087 -0.7375427 -0.8471524 -0.6281297 -0.27760208 -0.5456692
0.08420418 0.9806461 -0.84397733 0.29888162 0.33673602 0.08898755 -0.52046573 0.15330423
-0.20586926 1.1543462 0.1999873 -0.11711244 0.06048776 0.54207855 -0.6097102 -0.24351591
-0.06068098 0.15432176 0.10244624 -0.17261104 0.56641376 -1.6395173 -0.37060353 1.1329918
-0.62249655 0.9153504 0.5472116 1.4211748 -0.054016806 0.7474519 0.13996138 0.83092314
-0.8122064 -0.3237292 0.419784 -1.4359636 0.0414147 -0.25660476 -1.3211827 -0.80309236
0.016202988 0.4301903 0.2288921 -1.2496414 -1.1736597 1.1486808 0.6414717 -0.77888614
1.4905748 0.073515125 0.7402739 -0.39165634 0.1972344 -0.3983005 -1.3685875 -1.4194784
0.41316482 1.608949 -1.7030476 -0.12619975 -0.35952538 0.105982296 -0.32960218 -0.65113795
0.3558786 -0.6121914 -1.4736781 0.8393263 0.97003925 0.86210203 0.12125043 1.5731393
0.9415315 1.0452766 0.033893354 -0.36806938 -0.4070981 -0.55861646 0.8126371 0.6800688
-0.03092346 -1.4586712 0.2211793 -0.47881258 0.09595418 -0.7207312 0.5320204 0.08992835
0.17383032 0.12493784 -0.110799015 -0.6914091 1.2554405 1.3116078 0.65385574 1.1790537
0.39403093 -1.5313598 -0.88447917 -0.41915435 0.6524927 0.42675427 -0.6174263 0.35045394
-0.84722966 1.310555 -1.0610249 -0.08781569 0.35333925 0.25639817 0.37598246 0.14667222
-1.4223925 0.91961974 -0.048710685 0.08651513 -0.31524542 0.27872342 0.29589507 0.19012798
-0.49160224 0.5678975 1.4908936 -1.4166888 0.16202661 0.939595 -0.3398279 0.20161404

network_body._body_endoder.seq_layers.0.bias f4 [128]
00000000: 411a 823c 907c 1ebd 222f 323d d4bb 173d
00000010: 71be 2abd a6be 083d b46d 0c3d 1e56 a53c
00000020: addd 0d3c a7d1 0a3d b4c9 e8bc eeca bbbb
00000030: 679f 613c 0ea9 a3bc d617 1a3d 184d 14bd
00000040: 62f9 203d 7a09 233d faf5 e13c fce0 b3bc
00000050: eafc d83c ef66 ab3c 295e b03c 2380 e73b
00000060: 226d 293c 900e 4fbc 776d e33c e04b 84bb
00000070: 9b10 e3bc f3af 1a3d bef5 0ebd b96a 383c
00000080: 3472 0b3d fb24 a93c e4f9 f5bc e98a 1c3d
00000090: 2067 293d c804 c53c dc98 c7bc 1a57 133d
000000a0: c4e5 2e3d bfac 193d 3c20 5fbc 4d4f 0e3d
000000b0: b274 8ebc 453b f4bb f02c 0cbb 2b11 a73c
000000c0: 1783 053d a33c c6bc 2ee5 07bc 2391 9e3c
000000d0: 3f70 4b3b d544 1a3d 59ac fa3c 5141 903c
000000e0: d573 0f3d 1043 6c3c 2b22 d53c 69f2 a53c
000000f0: 0a59 553c 09ae a4bb 6da4 8a3c 509e 51bb
00000100: c656 093d 2890 b5bc 51ca 153d 0d45 1cbd
00000110: da98 a13b 84d6 203d b001 fa3c ab1f ca3c
00000120: 36fb 11bd 6761 7a3c 1a35 0a3d 689e 11bd
00000130: e199 d9bc d687 f63c d110 b73c a45f 89bc
00000140: a9a7 063d 5164 8b3c 2287 da3c f411 b53c
00000150: a08f 843a a113 223d 5c50 803c f87c 293c
00000160: 3eca 063d 4cf8 ecbc cebd 133d 58e8 db3c
00000170: 93eb c03c f7f2 e23c a2fe 33bd a086 d8bc
00000180: b214 be3c 4008 323c d6c5 b2bc 25f5 ed3c
00000190: 56f5 0f3d fd82 1cbc 4341 bdbc e5ff 1e3d
000001a0: 2369 d13b 30ab eebc 7900 d13c ad6e 95bc
000001b0: 04af 0cbd 4abd debc f243 b43c 1862 063d
000001c0: a41c 97bb c5db 2a3c bb05 263d 8a73 df3c
000001d0: ade2 b6bc 1a2f 79bc 1a7a 1e3d 3492 d53c
000001e0: 598f f03b 512b b73c 3124 08bb 64b6 213d
000001f0: 1758 923c 6b85 c03c 263a b83c 8ec1 0ebd
0.01588166 -0.03869301 0.04350198 0.03704436 -0.041685525 0.03338494 0.03428431 0.020182665
0.008658809 0.033891346 -0.028416492 -0.005730978 0.013770915 -0.019978072 0.037620388 -0.036206335
0.03930033 0.03980396 0.027583111 -0.021957867 0.026487786 0.020923106 0.021529274 0.0070648356
0.010340961 -0.012637749 0.027762158 -0.0040373653 -0.027717879 0.037765455 -0.034902327 0.011255913
0.03404446 0.020647516 -0.030026384 0.038218413 0.041358113 0.024050131 -0.024364881 0.03597174
0.04269959 0.03751826 -0.013618525 0.034743596 -0.017389629 -0.0074533545 -0.002138909 0.020393929
0.03259572 -0.024198836 -0.008294387 0.019356316 0.0031042246 0.0376633 0.03059976 0.01760927
0.035022575 0.014420286 0.02601727 0.020257192 0.013021717 -0.0050256294 0.016924107 -0.003198523
0.03353002 -0.022163466 0.036569897 -0.03815179 0.0049315514 0.039267078 0.030518383 0.024673304
-0.035639964 0.015282012 0.033742048 -0.03555146 -0.026562633 0.030094068 0.022346886 -0.016769238
0.032874737 0.017015608 0.026675764 0.022103287 0.0010113604 0.0395695 0.015663318 0.010344736
0.032907717 -0.02892699 0.036069684 0.026844189 0.02354983 0.027703745 -0.04394401 -0.026431382
0.023203228 0.010866225 -0.021822851 0.029047558 0.03514608 -0.009552714 -0.023102408 0.03881826
0.006390707 -0.029134363 0.02551292 -0.01824125 -0.034346595 -0.02718987 0.022005055 0.032808393
-0.0046115685 0.010428374 0.04053281 0.027276773 -0.022324884 -0.015208984 0.038690664 0.026070692
0.007341307 0.022359522 -0.0020773525 0.039480582 0.01786427 0.023501119 0.022488665 -0.034852557

network_body._body_endoder.seq_layers.2.weight f4 [128, 128]
00000000: 1f38 ecbd 4d11 043e 7391 10bc 01e8 243d
00000010: 2882 84bd c7b8 15be cba5 75bb 36cc 76bd
00000020: 176f 7fba 742f d53d 415e 6d3e b5b2 743d
00000030: ac89 b9bc 8bc4 eabd a38b 9f3b d70f 293c
00000040: 6b2e d1bc e5c3 a93d 6687 c3bb 3289 883d
00000050: 60b8 1f3e 16df 8dbd 41d8 34be 6d8d 5dbd
00000060: 3132 033b 19c2 06be 4cd9 a13d 43b0 39bd
00000070: e12a 8fbc 9969 a03d 53f4 86bd abd7 b6bd
00000080: 7e1e 663e 48ee 62bd 07db c8bd 14db 8bbd
00000090: a58d b33d 3217 a23d 2d28 fbbd 563e 8a3d
000000a0: ef98 e7bc de92 163d 82a2 79bd 39c0 fd3c
000000b0: 0b1e 643c 1dc2 99bd b0bb 533d 5dce e93d
000000c0: 0b06 093d 4489 53bd 4c30 6abc 18f6 23bd
000000d0: 412b 67bd 79f9 513d dcbd b4bd 7aff 33be
000000e0: 2cf0 d8bc 560b 373e 0fdf 64bd c0d1 2abd
000000f0: 4e0a 4cbe dd83 2dbc bff0 d1bd ddc1 31bc
00000100: c683 c53d 62ba 1a3e cd37 75bd cf80 c03d
00000110: 1864 b33d 5732 413d c43e 8a3d 6931 25bd
00000120: f2a3 473d 2cd2 54bc 650d a33c f74c f2bc
00000130: ad3b 6dbd f224 723c 377a 6ebd 5380 c33d
00000140: c13d 3dbd f88c c3bd 4992 f7bc 466a 8fbd
00000150: 5964 4fbd ae91 1e3d 9cee f3bd 1139 ac3c
00000160: 03d9 bc3c 5289 0639 acb9 4c3e f36c 9d3d
00000170: 0eac 123d 89ac 163d e25a 9e3c f1f0 803d
00000180: d8e0 50bc afea ddbd 97ba 573c 5ca7 113e
00000190: dbc3 abbc de7d 143e 3ccf 293d 567f d7bd
000001a0: 4478 023e 0d1a 773b 8d45 12be 8a16 a0bd
000001b0: ad19 063d 15f7 863c f616 543d d3a5 33bc
000001c0: 4ac4 91bd c524 b93d c9a2 923c f059 3abd
000001d0: a51a adbc a699 ae3d 6d90 1cbe 98a7 d2bc
000001e0: 7b6d 62bc 66d0 7c3b 73fc f23b a61c 923d
000001f0: 12e2 863d e3de 8d3d 318e 70be 0a9b a03d
00000200: 788b 413d 5b52 6b3d 8b60 c43d 03c7 bebd
00000210: d85c 813e df97 bc3d 1f7a 4e3d 4249 f2bd
00000220: 7dc8 ed3c 27b0 d1bb fb5f a63d d5f9 b3bd
00000230: 88ee 6abb b886 c1bd 6fb3 ddbd 8894 b4bd
00000240: 3044 24be 1cd0 003e 20b7 b7bd 3289 c43c
00000250: 9484 1bbc aadf 9c3d 5ade 5c3d a80d 503b
00000260: 3162 8a3c d269 aa3c e558 073d cb40 dfbd
00000270: 4cf5 34be 5d5c ccbd b7f4 583d c34a 9b3c
00000280: 87b6 f63d c97f ffbd 9f96 2c3d 6d75 873d
00000290: 84ee fcbc 8db5 a9bd cc4e 983a 05f9 15be
000002a0: 977a a1bd c676 69be 7fce 633c 6420 793d
000002b0: 4c93 c4bb 6fa5 bc3c 908a 1dbe 7f84 f5bd
000002c0: 48bc 843d 9f75 ff3d e9cc b8bd 155a 483d
000002d0: 068d 5abe 46c2 a0bd b6a8 d33d 6965 c93d
000002e0: 11dd 92bd a13a 43bc dc46 d0bd 98ca 4f3d
000002f0: 1d20 1e3d 1437 a63d 7b41 7a3d d7bb 10bd
00000300: 63f5 94bc d915 d0bd 6dc5 85bd 7bb6 08bd
00000310: 5b6f 22bc 1005 3c3d 1521 313e a2f6 87bd
00000320: 943a a4bd 9888 ecbd 81e4 1ebd b6f6 103e
00000330: 8baa 92bc cc8c a3bc 599b a73d 771d 463b
00000340: 1723 8c3d f883 c43d 171f 15bd 9b7b 4ebd
00000350: 246e 3ebd b6c0 05bd 11f1 46bd 4d8a efbd
00000360: 53e5 193d fae8 e93c b1de a3bd 362d bb3d
00000370: 3e6b e03c 7cdb 16be 9e46 71bd 4e9d 92bd
00000380: 9109 82bd e5b1 edbc c42a 8d3e 4274 cabd
00000390: cc4c 15bd fe20 4dbd 4a7a b73c 704f d2bc
000003a0: 85b3 b23d 8fbf 6ebc ea76 a33c afa2 1a3d
000003b0: 4958 c6bc 06cd babd 76c4 0abc 475c 10be
000003c0: 1af6 493d 929c d53c c688 dabd de3b 4ebd
000003d0: 3ff2 f3bc 9b9f 16be 5e70 64bd 5e52 073d
000003e0: f4ed 573d f7c8 a13c f5a2 263e 658f 2abd
000003f0: b83b ba3d 7a8a 95bd 2307 0c3d 3eeb c1bc
-0.11534142 0.12897225 -0.00882374 0.04026032 -0.06470138 -0.14621268 -0.0037482854 -0.060253344
-0.00097440317 0.104094416 0.23180486 0.05974074 -0.022648655 -0.11463269 0.004868941 0.010318718
-0.02553483 0.08289317 -0.0059670685 0.06666793 0.15597677 -0.06927316 -0.1766062 -0.054089952
0.002001893 -0.1315998 0.07902774 -0.045334112 -0.017476501 0.07832641 -0.0658957 -0.08927854
0.2247257 -0.055403024 -0.09807401 -0.06828895 0.08767251 0.079145804 -0.12263522 0.06750171
-0.028271167 0.036761157 -0.060945995 0.030975448 0.013923178 -0.07507727 0.051692665 0.11416314
0.03345303 -0.05164458 -0.014293741 -0.040029615 -0.056437735 0.051263306 -0.08825275 -0.17577925
-0.02648171 0.17875418 -0.055876788 -0.04170394 -0.19925806 -0.010590521 -0.10250997 -0.010849443
0.096442744 0.15110162 -0.05986767 0.09399568 0.08759326 0.04716715 0.06750253 -0.040330324
0.048740335 -0.012989562 0.019903848 -0.029577715 -0.05791824 0.014779316 -0.058222022 0.0954596
-0.04620147 -0.09548372 -0.030221121 -0.07002692 -0.05063281 0.03871315 -0.119107455 0.021023305
0.023052698 0.00012830392 0.19992703 0.07686796 0.035808615 0.036785636 0.019330446 0.06295956
-0.012748919 -0.10835778 0.013167045 0.14223999 -0.020967415 0.1450114 0.0414574 -0.10522334
0.1274119 0.0037704736 -0.14284344 -0.07816799 0.03273933 0.01647524 0.05177971 -0.010964829
-0.07117517 0.09040216 0.017899888 -0.045495927 -0.02113087 0.085254 -0.15289469 -0.02571468
-0.0138200475 0.0038576364 0.007415348 0.071343705 0.06586088 0.06927278 -0.23491742 0.07842071
0.04725215 0.057451587 0.095887266 -0.09315302 0.25266147 0.092086546 0.050409433 -0.11830379
0.029026264 -0.006399173 0.081237756 -0.08787886 -0.0035847742 -0.09449524 -0.1082524 -0.088173926
-0.16041636 0.12579387 -0.08970475 0.023991201 -0.009492058 0.07659848 0.05392299 0.003174642
0.016892524 0.020802412 0.03304376 -0.1090103 -0.17671698 -0.099785544 0.052967753 0.018956548
0.12046533 -0.12475545 0.04213583 0.06614194 -0.030875452 -0.08286581 0.0011620163 -0.14645775
-0.0788471 -0.22799215 0.013904213 0.060821906 -0.0059990045 0.023028104 -0.15384889 -0.11988162
0.06481224 0.12473606 -0.090234585 0.048914034 -0.21342859 -0.07849555 0.103349134 0.098337956
-0.07171071 -0.011915834 -0.10169765 0.050730318 0.038604844 0.08115974 0.061097603 -0.035335388
-0.018183416 -0.10160417 -0.065317966 -0.033377152 -0.0099142445 0.045903265 0.17297776 -0.06638838
-0.080189854 -0.11549491 -0.038792137 0.14156613 -0.017903587 -0.019964598 0.08183927 0.0030229965
0.0684263 0.095954835 -0.036406603 -0.050410848 -0.046491757 -0.032654487 -0.048569743 -0.11696301
0.037572216 0.028553475 -0.080014594 0.09139483 0.027394887 -0.14732164 -0.058905236 -0.0715891
-0.06349481 -0.02901549 0.2757169 -0.09885456 -0.036450192 -0.050080292 0.02239718 -0.025672644
0.08725647 -0.014572038 0.019954164 0.037752803 -0.02421202 -0.09121136 -0.0084696915 -0.14097701
0.049306966 0.026075635 -0.10670619 -0.050350063 -0.029778598 -0.14709322 -0.055771224 0.033037536
0.052717164 0.019749148 0.162731 -0.041640658 0.09093422 -0.07301803 0.034186494 -0.023671743

network_body._body_endoder.seq_layers.2.bias f4 [128]
00000000: 1679 fc3b 85f2 17bd 9392 15bd 1dc4 f03c
00000010: 5a6b 273d 4c0c eb3c 75f2 f3bc cefb 2cbd
00000020: c907 743c 48d4 e93c dec5 a53c f57a 15bd
00000030: c288 24bd 6be5 2f3d aa7b db3c 9c61 0ebd
00000040: 9da3 ed3c 9f6b 2b3d 6154 00bc 5fb2 a4bc
00000050: bf12 f03c caf7 193d 4bf3 c73c 794b 58bc
00000060: 0113 12bd ff51 40bd 8479 303d f74e 31bd
00000070: e35c 0cbb f433 0fbd fa62 193d 429b dd3c
00000080: d76e d3bc c0c4 d03c 2069 f33c a458 24bd
00000090: 14c6 6e3b d2ea 89bc 05c3 11bd d3be 2b3d
000000a0: 9a94 e33c c1f6 de3c dc53 2e3d c5c2 ef3c
000000b0: 2dcc b9bc dff2 163c a775 e53c c4f3 26bd
000000c0: 6705 10bd bbd4 f5bc e089 ec3c 25fb 24bd
000000d0: e977 38bc f7c8 33bd 24e4 12bd 29a2 213d
000000e0: 82da 1bbd 160b 193d 0b90 05bd ffeb f93c
000000f0: b483 093d f921 c1bc 9381 dc3c 0be9 19bd
00000100: bb10 c23c 60f8 943c 50e3 ee3c 9960 003d
00000110: 146a b4bc a644 0b3d 4d67 e23c eb6d d1bc
00000120: aa0d 0b3d 8f73 3f3b a2a4 ed3c fadf e3bc
00000130: a2e0 27bd cf6d 0fbd 6d94 27bd 9046 eebc
00000140: 3e92 02bd 8683 13bd 9bee 253d d70e 1fbd
00000150: 63b8 e1bc 18ca 06bd 70de 153d d318 053d
00000160: fc63 00bd 5a66 2ebd f034 e93c e03e 2bbd
00000170: 12bd a7b9 4bf2 c1bc c13c 023d 5224 4e3c
00000180: 0c84 9ebc 728e efbc ee87 ebbc 5513 31bd
00000190: 07aa 0bbd c4f2 fc3c 6a6a 34bd d591 293d
000001a0: 9f5f 533c cc01 053d c920 f2bc 2099 28bd
000001b0: cfd0 053d f4fa 423c 661a 6d39 6f65 05bd
000001c0: fc57 bf3c 5ac7 e33a 7680 fc3c 7999 ce3b
000001d0: babb 30bd e959 26bd 7a67 18bb b503 c93c
000001e0: aa20 3fbd 5e6c 183d 64f9 103d eb78 e13c
000001f0: 738b ec3c 51d7 28bd 1806 213d 5506 05bd
0.0077048643 -0.03709652 -0.036516737 0.02939039 0.040873863 0.028692387 -0.029778698 -0.042232327
0.014894434 0.028543606 0.020235952 -0.036494214 -0.040169485 0.0429434 0.026792366 -0.034761056
0.029008681 0.041850682 -0.0078326175 -0.020104585 0.029305814 0.037589826 0.024408003 -0.013201588
-0.035662655 -0.046953198 0.043084636 -0.043288197 -0.002141767 -0.034961656 0.037447907 0.027051572
-0.025809688 0.025484443 0.029713213 -0.040123597 0.0036433982 -0.016835604 -0.035586376 0.04193003
0.02778082 0.02721727 0.042560443 0.029267678 -0.022680366 0.009213178 0.028010203 -0.040759817
-0.035161402 -0.030008664 0.028874338 -0.040278573 -0.011259058 -0.043892827 -0.035862103 0.03946129
-0.038050182 0.037364088 -0.032608073 0.03050804 0.033572868 -0.02357577 0.026917255 -0.037575763
0.023689618 0.01818484 0.029161125 0.031342123 -0.022023238 0.034001015 0.027637148 -0.025565108
0.033948578 0.0029213165 0.029009167 -0.027816761 -0.04098571 -0.03501683 -0.040913034 -0.029086381
-0.03187775 -0.036014102 0.040510755 -0.03883251 -0.027553743 -0.032907575 0.036589086 0.032494377
-0.031345353 -0.04257808 0.028467625 -0.04180801 -0.0003199359 -0.023675105 0.03179622 0.012581902
-0.019350074 -0.029242728 -0.02875134 -0.043231327 -0.034097698 0.030877478 -0.044046797 0.041398842
0.012901216 0.032472417 -0.029556649 -0.041161656 0.03266984 0.011900652 0.00022611915 -0.032567438
0.023357384 0.0017378137 0.030822974 0.0063049165 -0.04314778 -0.04061309 -0.0023255036 0.0245379
-0.04666201 0.037212722 0.035394087 0.027523478 0.028875088 -0.041220967 0.039312452 -0.03247674

action_model._discrete_distribution.branches.0.weight f4 [2, 128]
00000000: 67d5 72bb 0c57 f5bc 3539 34bd 1c83 953b
00000010: b82d 843c 99d8 05bb 4414 a6bc 5d30 a4bc
00000020: 2336 093b 06d9 ad3b 8a2e 913a 6f64 65bd
00000030: a0a8 d7bc f7a4 c83c e3a0 2b3b 7f7f 10bb
00000040: 7ad1 303c 8426 323c 1155 47bb c58c 36bc
00000050: 8753 0e3a 3480 1b3c bfd1 66bb 1272 e53a
00000060: d8b2 0dbd 9a9e 30bc 1932 713c f73e cbbc
00000070: cfd2 a4bb a7ca dbbc 3926 403c 118a 313a
00000080: 19c5 98ba d88c bb3b 1c22 553c b790 51bd
00000090: b937 1a3c 3a75 feba 8746 31bc 76e3 553c
000000a0: b24e 2f3b fc10 093c b614 c93c 146c 693b
000000b0: 2cd0 bc3b 78b2 81bb f769 093c 904b 5dbc
000000c0: 53a7 bebc 7322 b93a 3157 e1ba 6f1a 18bd
000000d0: 6c6a 09bc 98a9 92bc 478c 81bb 5220 233c
000000e0: 4313 06bd e7e3 943c 5c93 a4bc f9d1 ecbb
000000f0: 650c 953c cec7 9937 d22d 733b cc43 d0bc
00000100: 6f69 e03b 51b1 fb3b 1f15 beba 1ee3 aa3c
00000110: 3dcc 46bc fc4a ba3b 7d7e 683a 7a9d e339
00000120: d58d aa3b 6761 9cbc 5e17 233b a330 493b
00000130: 4d24 47bc 19e5 fbbc d3b1 c3bc b9b6 1abc
00000140: ac3f 86bc fde8 7dbc 4116 303c ef69 f9bc
00000150: 842a 11bc 17f5 37bc b317 343c 1dce 07ba
00000160: 6659 18bb 6722 04bd af1a 143b 8b42 b8bc
00000170: c5e2 85bc 4858 2a3b 36a2 413c ba67 69bc
00000180: ab81 3dbc 2641 adbb c4a3 15bc 4f08 e0bc
00000190: 2c4f a2bc 7c8a 643c 65b8 09bd cc5e 813c
000001a0: 2706 63bb 6319 f63b 995d c5bb 4f95 1fbd
000001b0: 12c3 163a 2eea 6d3a 203f 333b ba30 03bd
000001c0: e153 fd3b 527d d739 1778 8c3c 75ab 08bc
000001d0: 15a2 16bd 89f7 c2bc bdc1 1e3c e6ba cd3b
000001e0: 4ee7 c2bc 215d 6a3c 4bb3 5b3c cf72 163c
000001f0: 7772 833c ab56 5bbc d6e6 523c 4d63 1fbc
00000200: ffac a7bb 5ccd bf3c 56ba 293d 2c46 febb
00000210: 2768 a3bc a029 18bb efd9 193c 396d 093d
00000220: b70a 883a 1105 8fbb 5527 93ba 459a ce3c
00000230: 98d1 033d b0e6 1a3b 9352 73bc 82c1 6b3c
00000240: ca2a 1abc a717 39bc 07da 34bb f8ff b53b
00000250: 86fc 64bc f006 01bc 4f12 b9bb 6f8c 363c
00000260: 4d34 6c3d a8a0 433d cae4 1cbc 7504 fc3c
00000270: 4e73 b23b 1ed4 ae3c 7b4a 73bc 522e 7abc
00000280: 77f0 0a3c 0ce7 2fbb 7a69 1dbb 798f 063d
00000290: b30e 433a 512b 9f3b 922c 8d3b 89f5 24bc
000002a0: 4a1e 75bc 785c 0abc 77d3 27bc c764 84bc
000002b0: ed6d 2c3c 5c4f bcba 5242 38ba 77a9 b13c
000002c0: 9527 343c 5549 3f3c 4dae b8bb dd83 393d
000002d0: 1c53 85ba 7819 c63c b09c ef3b d514 0bbb
000002e0: e96b 9a3c e43c cd39 9123 db3b 552c 95bc
000002f0: 2c68 683b d29b 643c aa1c 78bc dd80 713c
00000300: ff61 6c3b 5640 103c 46d9 2bbc 176a bfbb
00000310: 4ce5 30bb 7678 f4bb 9f34 21bc b12d dd3b
00000320: 0f54 9cba 0b94 7a3b 7910 2abc e145 3f3c
00000330: dd1d e93c a09e dc3c abe0 c33c db02 443c
00000340: 334e 173b 7866 b33c 98e9 7fbc 1196 8e38
00000350: adf5 cb3b a114 453c e2c2 8abc e68f cabb
00000360: 201b 303c 81c8 013d d99a acbb f3cc 063d
00000370: 8ed6 903c fad4 013c 8a4c 58bc 1a4f 62bc
00000380: 226c 29bc 6430 9c3b e0be 943c 80fd 603c
00000390: 865b 903c 4b3a 61bc 963a 0f3d 7e9d 52bc
000003a0: 104d 79bb acd7 93bc d8a3 153c 4112 f63c
000003b0: 9b87 3ebc 1b67 eaba ddf7 263c 4779 193d
000003c0: e623 6e3b 5dbd ea3a 52ff 05bc 6cbb 933c
000003d0: 71ee 0e3d c968 cc3c 62cf 5a3c bdaf ccbb
000003e0: c7ca 163d cafe e6bb 458d 88bc 7617 12bc
000003f0: 8220 143a 3e63 983c 4a12 88bc 6f4a 0b3c
-0.0037053467 -0.029948734 -0.04399987 0.0045627486 0.016135082 -0.0020423292 -0.020273335 -0.020042593
0.002093681 0.005305412 0.0011076492 -0.056003984 -0.026325524 0.024492724 0.0026188425 -0.002204865
0.010792131 0.010873441 -0.0030415694 -0.0111419605 0.00054293167 0.009491015 -0.0035220233 0.0017505309
-0.034594387 -0.010780001 0.014721417 -0.024810297 -0.005030013 -0.02683003 0.011727863 0.00067725877
-0.0011655419 0.005723577 0.013008621 -0.0511634 0.009412699 -0.0019413598 -0.010820038 0.013054719
0.0026749787 0.008365866 0.024546009 0.0035617398 0.0057621207 -0.0039580427 0.00838708 -0.013506785
-0.023273146 0.0014124647 -0.0017192123 -0.037134584 -0.008387189 -0.017903134 -0.00395349 0.009956436
-0.032733213 0.018175079 -0.020089798 -0.007227179 0.018194387 1.8332063e-05 0.0037106168 -0.025422953
0.006848506 0.00768105 -0.0014502144 0.020860251 -0.012133655 0.0056852084 0.0008868946 0.00043414143
0.005204896 -0.019089414 0.0024885754 0.0030699156 -0.012154651 -0.03074889 -0.023888504 -0.009442979
-0.016387783 -0.015497443 0.010747493 -0.03044602 -0.008860234 -0.011227868 0.010991978 -0.00051805546
-0.0023246645 -0.03225937 0.0022598912 -0.022492668 -0.016343484 0.002599256 0.011818459 -0.014245922
-0.01156656 -0.0052873073 -0.009133283 -0.027347712 -0.019813143 0.013949033 -0.033623118 0.015792273
-0.0034641118 0.0075103506 -0.0060231206 -0.03896075 0.00057511136 0.0009075728 0.0027350858 -0.03202889
0.0077309464 0.00041101367 0.017147107 -0.00834166 -0.036775667 -0.023799675 0.0096897455 0.0062783835
-0.023791935 0.01430443 0.013409446 0.009182646 0.016045792 -0.0133873625 0.012872418 -0.009728265
-0.0051170583 0.023413353 0.04143747 -0.00775983 -0.019947125 -0.002321817 0.009390338 0.03355143
0.001037917 -0.0043646176 -0.0011226932 0.025220046 0.032182306 0.0023636036 -0.01485123 0.014389398
-0.009409616 -0.011297143 -0.0027595775 0.0055541955 -0.013976222 -0.007875189 -0.0056479345 0.01114188
0.057667065 0.047760636 -0.009576032 0.030763844 0.0054458743 0.02134138 -0.0148493005 -0.015269833
0.008480183 -0.0026840596 -0.0024019168 0.03285167 0.000744085 0.0048574586 0.0043082917 -0.010068306
-0.014960835 -0.008444898 -0.010243288 -0.016161336 0.010524255 -0.0014366913 -0.00070289255 0.021687252
0.010995765 0.011675199 -0.0056360126 0.04529177 -0.0010171863 0.024182066 0.00731238 -0.0021222134
0.018850284 0.00039146014 0.0066875895 -0.018209616 0.0035462482 0.013953166 -0.015143553 0.014740196
0.0036069152 0.008804401 -0.010488814 -0.0058415043 -0.002699214 -0.007460649 -0.009839206 0.0067498316
-0.0011926907 0.0038235213 -0.010379904 0.011674375 0.028456623 0.026931107 0.023910841 0.011963571
0.0023087382 0.021899447 -0.015619658 6.79904e-05 0.006224355 0.012028844 -0.01693863 -0.006181705
0.010748655 0.031685356 -0.0052674827 0.0329103 0.017680433 0.007924313 -0.013201842 -0.013812805
-0.010340722 0.004766511 0.018157423 0.013732314 0.017621767 -0.013746808 0.03496798 -0.012854932
-0.0038040318 -0.018047176 0.009133302 0.030038001 -0.011629011 -0.0017883511 0.010190931 0.037469175
0.0036337315 0.0017909218 -0.008178549 0.018033706 0.034895364 0.02495231 0.013355108 -0.0062465356
0.036814477 -0.007049416 -0.016668925 -0.008916726 0.0005650596 0.01860201 -0.016610283 0.008501633

action_model._discrete_distribution.branches.0.bias f4 [2]
00000000: 16bc 0a3d 17bc 0abd
0.03387078 -0.033870783

exp_avg f4 [128, 2]
00000000: c1c8 2f3a 0498 633a fa51 a039 f6f6 ac39
00000010: 65d0 1b37 6c0b 9638 94c6 9eb8 70d8 cdb7
00000020: 5998 f1b8 d877 24b9 be81 4fb8 1c64 1cb8
00000030: 3ddb efb9 41c1 01ba e98a 1fba 9af4 5eba
00000040: 33a6 22b8 03bd dfb7 5c0b 87b8 e72e d1b7
00000050: d8bd 5838 966c 1b38 9eaa 49b7 8b09 07b8
00000060: 5af4 37b9 872f 2eb9 f6cf 8cb8 3c1c 03b9
00000070: 0c94 59b9 98d3 66b9 9c86 7239 ba98 7539
00000080: 37f1 70b9 7ee8 d1b8 3f04 dfb8 a29c 1e38
00000090: dd13 20b8 8bd2 8437 2ae7 56b7 d0fe 78b6
000000a0: ff63 a537 1dce 0c39 fa44 d6b8 cae1 88b8
000000b0: 694b 87b9 2eeb deb9 02d3 a9b8 5e14 cfb7
000000c0: 9485 4638 d660 a338 d45d c5b8 524b deb8
000000d0: 9546 86b9 97b5 44b9 5cc4 9d39 52d1 be39
000000e0: b1dc b338 55a3 ac38 c0d2 04b9 0460 deb8
000000f0: 49c9 c938 182a 0539 98d6 283a 553f 6e3a
00000100: 15f0 3db9 d5b1 69b9 48e4 5ab9 6f41 dbb8
00000110: 142b 60b9 8830 08b9 1c86 a4b8 20c6 acb7
00000120: f2a7 89b7 4627 b237 f5b7 8438 74b3 2b38
00000130: 6913 f8b6 d6ec 0fb8 1a2f 1739 2373 9f39
00000140: 0697 0cb8 c9b8 e0b6 ed47 083a 640e 4c3a
00000150: 51a3 273a 6145 6f3a a50f 8ab9 cc4d 8fb9
00000160: 0d54 8fb9 58e7 1fb9 357d 9d39 2d85 ca39
00000170: 5413 0039 5c19 eb38 54cf 46ba e0ad 88ba
00000180: 2b14 bcb9 11b2 bfb9 07b0 fe39 4df4 113a
00000190: 1b4e 7c39 e414 8c39 ecc4 93b9 a018 91b9
000001a0: be0f 3cb8 b9b3 b4b8 f33f 9639 1bea dc39
000001b0: 2c9d eeb9 5260 e6b9 df58 8239 1af8 ad39
000001c0: 0d07 e9b8 bacb 9fb7 3897 13b8 465a dbb7
000001d0: 4f46 3db8 4429 52b8 a7fe 07ba 7fed 1dba
000001e0: 09f6 f5b7 b7b8 4b38 5d39 1b38 def0 f037
000001f0: 66ba cc38 643c 8739 52ce 8939 3145 bb39
00000200: b63b 01b9 0489 f037 6149 bb39 3ab2 c339
00000210: c1f5 f5b8 e428 83b8 6f6a be39 7ac2 e739
00000220: b83d c7b8 f0b7 1d36 b496 f8b8 baea b1b8
00000230: 45c9 7638 7765 ae38 8bb0 28b8 9089 c3b4
00000240: 3200 2d38 84f9 8838 5022 a1b6 b222 0837
00000250: c2a2 2bba 3c5b 38ba ece2 e3b8 977d ccb8
00000260: 16f3 8fb8 0810 72b8 359f c1b8 9c9c 4e37
00000270: 2627 46b9 c1e6 eab8 aa02 17b9 a3d9 dbb8
00000280: 56a5 35b7 ecf1 7a38 7dc5 c838 9d8d 1639
00000290: 05ed b1b7 925c 9136 44df 8737 5ecb df38
000002a0: 11b7 13b9 dbaa b4b8 fe78 fbb8 eb86 abb8
000002b0: 8838 8bb8 0065 90b4 93c7 3838 b2e6 8838
000002c0: 5094 d2b7 e092 e036 33a0 d136 9b0b d7b7
000002d0: 106a f939 3bd2 293a 0cb9 b1b8 72af 2ab8
000002e0: e3cb 9eb7 c858 9837 e7df 18ba 1c01 1aba
000002f0: 2a40 d339 56e5 f739 0f72 893a 39a6 b83a
00000300: 6b9b 66b9 0b37 84b9 e538 00b7 3c64 9237
00000310: 614d 88b6 6892 30b6 6612 02b9 cd1b 0a38
00000320: e7de 04b9 ba92 8cb7 2055 6239 c84e a039
00000330: aa18 5a37 26ab 93b8 d062 7eb8 6c0d ddb6
00000340: 9290 fb39 4b7a 1c3a 7c86 5239 11a4 5c39
00000350: b4df 3aba b4d9 54ba 31f8 a3b8 df75 85b8
00000360: d9cc 8bb7 a6e0 16b8 0d7b 153a da93 3f3a
00000370: 3683 84b7 411f 8837 1b3e 10b9 c840 a9b7
00000380: 67e0 8fb8 7e1f 5fb8 7547 2cb9 8fba 4cb9
00000390: 68bf 0cb8 a035 f637 1098 33b7 4ae8 2a38
000003a0: 082b 90b8 8d14 92b8 6251 4438 106a 1739
000003b0: 04a9 2cb9 1cf5 0eb9 37f1 9138 c209 8a38
000003c0: 286a 05b6 c2a0 0339 b8e7 57b8 dc21 7c36
000003d0: 7032 0035 e5b1 d1b7 49a9 8737 0787 3e38
000003e0: 8a03 95b8 46fb 2fb8 ffcc aab9 df8c bab9
000003f0: 5f77 74b8 6a2d 8bb6 4bbe 2439 1e57 3d39
0.0006705635 0.0008682015 0.00030578655 0.00032990397 9.287241e-06 7.154685e-05 -7.571015e-05 -2.4538691e-05
-0.000115201525 -0.00015684904 -4.9473478e-05 -3.7286532e-05 -0.00045748978 -0.00049497565 -0.0006086068 -0.00085050764
-3.8778595e-05 -2.6671687e-05 -6.4394175e-05 -2.4936582e-05 5.167522e-05 3.705601e-05 -1.20202585e-05 -3.2195396e-05
-0.00017543268 -0.00016611638 -6.714456e-05 -0.00012503652 -0.00020749884 -0.00022013334 0.00023129064 0.00023421916
-0.00022978043 -0.00010009202 -0.000106342595 3.781601e-05 -3.816547e-05 1.5833668e-05 -1.2809216e-05 -3.71032e-06
1.9716097e-05 0.00013428224 -0.00010217163 -6.527042e-05 -0.00025805391 -0.00042518362 -8.097851e-05 -2.4685807e-05
4.7331283e-05 7.790483e-05 -9.411169e-05 -0.000105998144 -0.0002561106 -0.00018759664 0.00030091673 0.0003639558
8.576492e-05 8.232022e-05 -0.00012667011 -0.00010603669 9.621919e-05 0.0001269955 0.00064406684 0.00090884167
-0.00018113882 -0.00022286859 -0.00020875141 -0.00010454922 -0.00021378353 -0.0001298805 -7.845109e-05 -2.0596257e-05
-1.6409878e-05 2.1237542e-05 6.328515e-05 4.0936706e-05 -7.3932356e-06 -3.4314427e-05 0.00014418029 0.00030412627
-3.3519253e-05 -6.697232e-06 0.0005198706 0.0007784127 0.00063948805 0.0009127465 -0.00026333067 -0.0002733305
-0.00027337708 -0.00015249604 0.0003003866 0.00038627666 0.00012214232 0.00011210397 -0.0007583995 -0.0010427795
-0.0003587318 -0.0003656303 0.00048577806 0.00055677147 0.0002406169 0.00026718446 -0.00028184743 -0.00027674902
-4.4837354e-05 -8.616545e-05 0.00028657875 0.00042136092 -0.00045512 -0.00043940783 0.00024861746 0.0003318198
-0.00011111619 -1.9049145e-05 -3.5188365e-05 -2.6148871e-05 -4.512659e-05 -5.0106333e-05 -0.00051877875 -0.00060244644
-2.9320845e-05 4.8571e-05 3.7008303e-05 2.8722392e-05 9.7621974e-05 0.000257942 0.00026284397 0.0003571897
-0.00012324643 2.8674032e-05 0.0003572209 0.00037326087 -0.000117282856 -6.254183e-05 0.00036318923 0.0004420465
-9.5005555e-05 2.3501889e-06 -0.00011853632 -8.483739e-05 5.8838417e-05 8.315866e-05 -4.021874e-05 -3.642167e-07
4.1246596e-05 6.531461e-05 -4.8021684e-06 8.11431e-06 -0.0006547385 -0.0007032638 -0.00010866471 -9.750871e-05
-6.86405e-05 -5.7712226e-05 -9.232612e-05 1.231502e-05 -0.00018897335 -0.00011200971 -0.00014401475 -0.00010483272
-1.0826936e-05 5.9829952e-05 9.573528e-05 0.0001435787 -2.1210415e-05 4.3321133e-06 1.619722e-05 0.00010671349
-0.0001408721 -8.614893e-05 -0.00011991149 -8.179046e-05 -6.638566e-05 -2.6895577e-07 4.4054887e-05 6.527956e-05
-2.5103014e-05 6.6928187e-06 6.247335e-06 -2.5635401e-05 0.00047572004 0.0006478165 -8.4744854e-05 -4.0694555e-05
-1.893001e-05 1.8161154e-05 -0.0005831704 -0.0005874799 0.00040292862 0.0004728238 0.0010486263 0.0014087624
-0.00021992407 -0.00025218012 -7.642641e-06 1.7451232e-05 -4.062124e-06 -2.6311263e-06 -0.0001240462 3.2927655e-05
-0.00012671539 -1.6757625e-05 0.00021584751 0.00030576275 1.2999555e-05 -7.041385e-05 -6.0650345e-05 -6.5878758e-06
0.00047982164 0.0005969151 0.0002007726 0.00021041954 -0.0007128671 -0.00081195985 -7.818675e-05 -6.3638894e-05
-1.666548e-05 -3.5972007e-05 0.0005702235 0.00073081034 -1.5796726e-05 1.6227017e-05 -0.00013756046 -2.0176536e-05
-6.8605696e-05 -5.3196673e-05 -0.00016429818 -0.00019524455 -3.3556862e-05 2.9350456e-05 -1.0704636e-05 4.0747494e-05
-6.87447e-05 -6.9656504e-05 4.6805835e-05 0.00014439994 -0.00016466161 -0.00013633486 6.9590686e-05 6.58217e-05
-1.9880335e-06 0.0001255302 -5.14758e-05 3.7570635e-06 4.775711e-07 -2.499758e-05 1.6172084e-05 4.5425284e-05
-7.105533e-05 -4.1957268e-05 -0.0003257766 -0.00035581642 -5.8285306e-05 -4.1478097e-06 0.00015711148 0.00018056898

exp_avg_sq f4 [128, 2]
00000000: a653 3a34 6031 9234 57d5 1333 5a35 2e33
00000010: 4fbb 3332 db35 fd31 0ce0 4d32 6c2b 4f32
00000020: 082e 2c32 5034 f931 3cac 5532 f622 6032
00000030: b121 4a33 5b0d cb33 aa59 4134 b53f 9534
00000040: 14b6 bb30 f236 4030 6222 9f31 ecda f231
00000050: deb9 5e32 4218 b032 d5cf 3d31 eae4 6931
00000060: 4376 2a32 7dc0 6b32 21bb 8231 0927 2832
00000070: ccad d432 1734 2b33 6448 5332 4f94 ab32
00000080: 69b4 4934 b2a7 8334 e8af e031 7538 b831
00000090: 6d02 e631 dce2 ad31 fcfc fd31 f376 a431
000000a0: 9007 ed32 8eae b332 a5b9 c032 b7ff 5233
000000b0: 9479 0834 2c46 6c34 fd70 3531 c18f 2830
000000c0: 4e92 8232 0a19 c032 9ea0 2c31 6e16 4e31
000000d0: 0a60 dd33 eef1 5334 8fa2 ad32 ed75 2a33
000000e0: c299 dc32 1a53 9b33 6669 b131 7dea 3a32
000000f0: 4476 5632 67b9 3132 c221 2634 e00f 7234
00000100: 6988 0e32 2277 8b32 c030 8f32 327d 0f33
00000110: 3de6 2533 5d33 fa31 ef9c 6931 ece2 8231
00000120: 538d 5931 1613 4131 78ac 4a32 6dc9 1932
00000130: be9c 6332 67ce 3733 058a 3e33 a9db 9733
00000140: f5c4 be31 4a29 1732 226d bd33 ac4c 0c34
00000150: e0b0 5b34 9aff a134 ccde 7d32 8a8e 0233
00000160: 62e4 d632 6f36 8831 734d 5d33 4296 1c34
00000170: 1d20 7532 c8d7 4333 ba24 0b35 47c2 7035
00000180: 1fda cc32 e863 5c33 1e67 5f33 ede5 e433
00000190: 7739 ab32 af96 3233 64b0 6233 413b 3234
000001a0: cbfc cc31 a418 1532 b256 6533 3cbd cc33
000001b0: 6997 dd33 8ea1 5b34 b194 2233 5779 8633
000001c0: 4230 ae31 8c95 cd31 57a8 8232 f8d6 9432
000001d0: 28e9 8031 610f 8332 a3fa 2234 4804 c934
000001e0: 1dec 0932 f4ff 9d32 ab83 1e31 3013 e031
000001f0: 8ec1 1d33 78fb 8533 fb4f 9332 19bc 0833
00000200: f2ad cc32 870f bc32 e053 e132 2230 1933
00000210: 19cb 6732 79ad 6032 d46d 6533 1454 8733
00000220: d090 8931 351d 6831 1630 b832 4e2a 2833
00000230: 6e9f 0032 02aa 5531 ec3d 1532 f21d 9932
00000240: 9702 d032 8913 0133 72fd dc31 fb0a 8932
00000250: 044a 3f34 893d 0135 3bd7 ff31 6459 b231
00000260: 9e21 6331 5a34 d030 86a4 2532 d83c 1f32
00000270: 713d a431 2263 a031 72f9 9531 db2f 4f31
00000280: 9237 4233 7309 6533 5f21 4532 3858 9632
00000290: 4e0d 9231 4539 1232 702b 6833 5aa6 1934
000002a0: ceb3 a931 4c44 3431 1872 2032 9614 9732
000002b0: 0760 9e31 4118 2d31 ff26 4932 acb1 a632
000002c0: 2d60 d733 f6f5 ec33 cf55 7d32 9343 7b33
000002d0: c9d7 6833 e796 dc33 8cfb 4c33 34a0 8a33
000002e0: 4caf 5031 927e ef30 6b84 c734 d7fd 1535
000002f0: d68a 0f33 6634 6333 6105 d734 5ab1 2c35
00000300: 5dcd 8a32 deaa ff32 6593 9431 c9dd bc31
00000310: 5ecd e231 8bdd 4531 113d 8632 34dd a332
00000320: 6ef4 ae32 9d7f 9e32 9f74 d932 4e0c 4833
00000330: 680d b132 9fb5 0633 1a22 f732 aa11 8632
00000340: fa23 4533 c36f a333 2fc3 4c32 e6dc b432
00000350: be2c 4e34 950c d534 fc7a a831 4890 4d32
00000360: c005 0d32 03cf 6632 d261 4034 af5b d934
00000370: 3c01 8432 55ca fc31 f4db 0333 8fe3 e332
00000380: 43ab 6732 103c d432 aca3 a332 cc23 1d33
00000390: 2db3 e032 7ffc ab32 4975 1a32 fe65 1732
000003a0: 3f2b 4a32 fddb e331 8890 6732 1062 aa32
000003b0: 78b6 c631 82ce d731 e334 5d31 272d 1032
000003c0: 3c02 7032 3e34 2f32 85ef c330 e586 c330
000003d0: b37d 6d32 f343 6932 aa18 2e32 6618 de31
000003e0: fd5d ff30 41e5 2031 c280 3633 f92a d433
000003f0: 253a 8d32 0d72 3c32 af40 0532 678e 0732
1.7353031e-07 2.7230544e-07 3.4420136e-08 4.0561055e-08 1.046176e-08 7.3693918e-09 1.1983513e-08 1.2058859e-08
1.0022184e-08 7.252801e-09 1.2437393e-08 1.3046465e-08 4.7062432e-08 9.4553535e-08 1.8007145e-07 2.7799766e-07
1.365779e-09 6.9927275e-10 4.631418e-09 7.0680155e-09 1.2964362e-08 2.0500128e-08 2.7621259e-09 3.4036085e-09
9.922192e-09 1.3722567e-08 3.804772e-09 9.787763e-09 2.4759082e-08 3.9861416e-08 1.2298276e-08 1.9974463e-08
1.8785217e-07 2.4522666e-07 6.5392562e-09 5.3615232e-09 6.694157e-09 5.0607536e-09 7.39203e-09 4.786551e-09
2.759387e-08 2.0917721e-08 2.2436163e-08 4.9127006e-08 1.2710217e-07 2.2004741e-07 2.6403193e-09 6.132233e-10
1.5200524e-08 2.2363128e-08 2.5120594e-09 2.9989695e-09 1.0308584e-07 1.973892e-07 2.0213774e-08 3.9688462e-08
2.5681292e-08 7.232866e-08 5.1633604e-09 1.0879941e-08 1.248333e-08 1.0344912e-08 1.5472236e-07 2.2543782e-07
8.296504e-09 1.6235905e-08 1.666956e-08 3.3408647e-08 3.8626457e-08 7.281797e-09 3.399517e-09 3.809296e-09
3.165799e-09 2.8096045e-09 1.1797162e-08 8.951571e-09 1.3248778e-08 4.279573e-08 4.436335e-08 7.0714414e-08
5.552119e-09 8.798745e-09 8.8208495e-08 1.3066409e-07 2.0460311e-07 3.0174562e-07 1.4777196e-08 3.0397622e-08
2.5016735e-08 3.9643093e-09 5.1526012e-08 1.4583296e-07 1.4268179e-08 4.5598227e-08 5.183498e-07 8.968968e-07
2.3847916e-08 5.1313606e-08 5.2015018e-08 1.06589006e-07 1.9933152e-08 4.15809e-08 5.2780152e-08 1.6599098e-07
5.9659206e-09 8.678544e-09 5.3397066e-08 9.533912e-08 1.0318656e-07 2.0454738e-07 3.78538e-08 6.261933e-08
5.0695528e-09 5.9832868e-09 1.5210544e-08 1.7327224e-08 3.751797e-09 1.52574e-08 1.5178607e-07 3.7442283e-07
8.0281355e-09 1.83936e-08 2.306687e-09 6.5214394e-09 3.6730448e-08 6.239037e-08 1.7149423e-08 3.183604e-08
2.3827827e-08 2.1893142e-08 2.623159e-08 3.5666865e-08 1.3492149e-08 1.3077959e-08 5.3418105e-08 6.301721e-08
4.003688e-09 3.3777046e-09 2.1442286e-08 3.9154024e-08 7.486831e-09 3.1092218e-09 8.687021e-09 1.7825162e-08
2.4215565e-08 3.005292e-08 6.431656e-09 1.5953892e-08 1.7815188e-07 4.814579e-07 7.4459456e-09 5.1906444e-09
3.3051957e-09 1.5148871e-09 9.641672e-09 9.268852e-09 4.7800133e-09 4.667883e-09 4.3648294e-09 3.0149667e-09
4.5219686e-08 5.332681e-08 1.1474497e-08 1.7502416e-08 4.250672e-09 8.51134e-09 5.4056216e-08 1.4309754e-07
4.9389888e-09 2.623227e-09 9.339168e-09 1.7588075e-08 4.6093223e-09 2.51886e-09 1.17086065e-08 1.940574e-08
1.0029212e-07 1.10343464e-07 1.4746049e-08 5.850195e-08 5.4212965e-08 1.0271997e-07 4.7726232e-08 6.4552665e-08
3.0367628e-09 1.7425512e-09 3.7162985e-07 5.587621e-07 3.3421053e-08 5.2900212e-08 4.0050784e-07 6.4333074e-07
1.6158703e-08 2.9763608e-08 4.3241237e-09 5.496734e-09 6.6008132e-09 2.8793206e-09 1.5627423e-08 1.9076289e-08
2.036742e-08 1.8451653e-08 2.5315158e-08 4.657732e-08 2.0611608e-08 3.136449e-08 2.8770092e-08 1.5607686e-08
4.5900357e-08 7.610608e-08 1.1918742e-08 2.1055211e-08 1.9201522e-07 3.9683496e-07 4.903425e-09 1.1965376e-08
8.208588e-09 1.3434831e-08 1.791698e-07 4.0486108e-07 1.5367384e-08 7.3571678e-09 3.070086e-08 2.652976e-08
1.348491e-08 2.4707361e-08 1.9050127e-08 3.6586968e-08 2.6158512e-08 2.0021842e-08 8.990647e-09 8.812547e-09
1.17677805e-08 6.6315793e-09 1.3478832e-08 1.9835198e-08 5.7833027e-09 6.2808008e-09 3.2189795e-09 8.39217e-09
1.3970347e-08 1.0198219e-08 1.4256193e-09 1.4226457e-09 1.3823796e-08 1.3577835e-08 1.0133741e-08 6.463824e-09
1.8580405e-09 2.341338e-09 4.249228e-08 9.879836e-08 1.6441001e-08 1.0968972e-08 7.756326e-09 7.890413e-09

exp_avg f4 [128]
00000000: 3020 97b9 fe11 e138 d2ef 77b9 6e75 0eb9
00000010: f384 ce38 ea17 35b9 22f1 31b9 1760 b838
00000020: b2dd 99b8 6e90 1db9 4427 8338 77da 62b7
00000030: 06f1 2b38 bed4 3238 4a90 4cb8 c81b 41b7
00000040: 102e 41ba 1b74 a1b8 8ca1 48b8 cef6 9537
00000050: e0a1 3eb8 48e0 86b8 b0be fbb8 67c9 fa37
00000060: 95b5 99b8 72c4 da36 0989 efb8 72ae 9fb8
00000070: 5f58 9738 bdbd 3fb9 9cfa 5838 e01b 2fb9
00000080: 3e2d 6cb7 50e1 b937 ecbd e838 e1be a9b8
00000090: 446f eab8 645e 1a37 8cf1 8038 88dd 70b9
000000a0: c449 e0b8 cc1a 84b9 4724 10b9 023a 17b9
000000b0: 3090 8f38 da7a 0fb9 a835 2db8 da43 27b8
000000c0: 471f 2ab8 2965 74b8 0d43 b8b8 340e 9fb8
000000d0: e6b7 96b8 613e b9b9 8a2c 07b9 a370 27b9
000000e0: 7e5a eeb8 7825 cbb6 65b3 dcb7 f961 63b8
000000f0: b286 5db8 4c24 0f37 beea a2b8 ae07 5fb8
00000100: f2a1 28b9 326f 89b7 edd9 21b9 9ec2 f637
00000110: 913d 7a37 ca2c 59b9 c425 12b8 c20a a4b8
00000120: 9a4a 1939 1adf 56b8 22de acb9 d252 ef38
00000130: 0233 9738 d25d 00b9 c8e3 d036 03fa 1137
00000140: 8a5f 30b9 6b5c 02b9 3576 99b8 6568 f6b8
00000150: a31d ae38 8369 71b9 c24e 39b8 0cd1 98b8
00000160: 6752 9db9 e12e af38 c2c8 90b9 05a2 aeb8
00000170: b976 96b7 4464 b1b8 481b f936 4e07 13b9
00000180: 868e 0bb8 15aa 88b7 2ebb e0b5 6466 c3b8
00000190: 749f 2ab9 3ee4 c2b8 52e8 a838 cb91 7fb9
000001a0: 4166 72b9 8493 dc37 ba36 bbb8 001d 7bb5
000001b0: 4957 e538 9a90 cb37 6839 0eb9 8b31 49b9
000001c0: 1b5f 81b8 d08d deb5 6e61 80b9 c81b a9b8
000001d0: 55cd 6638 2938 7436 9297 abb8 03fe 2e37
000001e0: 6f46 2bb7 1253 33b8 d40d f937 2ce4 c8b8
000001f0: 7ae9 dbb7 d2fe 23b9 1d53 b8b7 b617 2938
-0.00028824946 0.000107321874 -0.00023645096 -0.00013585921 9.847609e-05 -0.00017270414 -0.00016969864 8.791702e-05
-7.3369025e-05 -0.00015026491 6.2538806e-05 -1.3521515e-05 4.0994048e-05 4.263664e-05 -4.877177e-05 -1.1510165e-05
-0.00073692296 -7.6987046e-05 -4.7834168e-05 1.7877112e-05 -4.5450288e-05 -6.4313936e-05 -0.00012004131 2.9896108e-05
-7.329431e-05 6.5197755e-06 -0.00011421933 -7.614204e-05 7.2167015e-05 -0.00018285862 5.173181e-05 -0.00016699685
-1.407723e-05 2.2158638e-05 0.00011097998 -8.094102e-05 -0.00011178714 9.201092e-06 6.148507e-05 -0.0002297071
-0.00010694892 -0.00025196967 -0.00013746425 -0.00014422092 6.8456284e-05 -0.00013683308 -4.1296385e-05 -3.9879094e-05
-4.0560288e-05 -5.8268346e-05 -8.786293e-05 -7.584356e-05 -7.186811e-05 -0.00035332426 -0.00012891195 -0.00015968322
-0.0001136558 -6.0542334e-06 -2.630958e-05 -5.421226e-05 -5.281595e-05 8.531915e-06 -7.768486e-05 -5.3174495e-05
-0.00016082058 -1.6383452e-05 -0.0001543534 2.9416111e-05 1.4915496e-05 -0.00020711418 -3.4844285e-05 -7.822133e-05
0.00014619008 -5.1229355e-05 -0.00032971898 0.000114118346 7.209742e-05 -0.00012241982 6.2254003e-06 8.700884e-06
-0.00016820259 -0.00012432194 -7.317626e-05 -0.00011749639 8.302487e-05 -0.00023022857 -4.4180786e-05 -7.286863e-05
-0.00030006768 8.353382e-05 -0.00027615397 -8.327145e-05 -1.7936678e-05 -8.4586936e-05 7.4239542e-06 -0.00014021734
-3.3272918e-05 -1.6291664e-05 -1.6743777e-06 -9.317396e-05 -0.00016271864 -9.293154e-05 8.054137e-05 -0.00024373007
-0.00023117011 2.6294736e-05 -8.9270485e-05 -9.3546987e-07 0.00010935829 2.4266821e-05 -0.00013563561 -0.0001918731
-6.168914e-05 -1.6581562e-06 -0.00024486653 -8.0637226e-05 5.5027504e-05 3.6391523e-06 -8.1821476e-05 1.043035e-05
-1.0208793e-05 -4.275429e-05 2.9689552e-05 -9.5792435e-05 -2.6215555e-05 -0.0001563982 -2.1973212e-05 4.0314822e-05

exp_avg_sq f4 [128]
00000000: a441 ea32 f9b2 2c33 e1e3 c832 b537 2433
00000010: 109d 6632 11d6 c432 a90e 7b33 3f93 0c33
00000020: 0a9f 2d31 237f 8132 5d96 2c32 0366 2831
00000030: b47b 1131 532f 1831 1d0f cb32 a76e cd31
00000040: 5a91 c134 a148 9f32 4f7d 5432 e0fe 3732
00000050: 149f e031 3c8a 8a32 1b97 6333 543f a930
00000060: 2640 0132 bbb6 ec30 ab17 f933 c93f b431
00000070: 12fb 0033 5153 a832 19b6 2632 8f4b a232
00000080: 946d d631 73f5 bd32 faa0 8f32 5f3a 6032
00000090: c59e 4232 7cec f531 3615 a732 2bcf b033
000000a0: 2b01 3b32 27bb 0333 051c 1833 4e3d aa32
000000b0: 8209 6d31 c4e0 bf32 4d88 2c32 c904 5834
000000c0: c392 d932 4393 ac32 2944 1032 f66a 2b33
000000d0: c97c a631 1d09 1f33 304b e233 00f2 0532
000000e0: 0718 af32 4576 c531 8edb be31 3639 9833
000000f0: ba14 4a32 f32a 2131 c932 aa32 72fa 9131
00000100: d0e4 9733 edda 9732 4ac7 0733 c3f1 da32
00000110: 551d f231 7120 7c33 756e 9231 f425 8232
00000120: 7390 d632 7078 9131 279c 5d34 cf28 5032
00000130: 7058 8a31 865c f032 e244 dc31 1027 0631
00000140: 82d1 8533 dd12 de31 79cc f431 9024 6433
00000150: f65d 8631 d6ca 0833 927b 0832 cdd8 6d31
00000160: 35a4 0234 8f45 c232 36cb cf32 a790 5133
00000170: 0ad9 7e31 ad14 8034 c7f3 8532 8119 ac33
00000180: f912 2732 8944 3331 5289 d331 0ce0 5333
00000190: 3be7 7533 8fc4 e931 0146 7032 5fa8 7133
000001a0: ea90 2a32 7710 0432 ebd0 e833 d896 9931
000001b0: 8394 ae32 3122 c033 0488 c632 c326 a833
000001c0: 1d8c 0032 1774 d131 ef5c 8a33 2037 4032
000001d0: e59d a132 659e 4631 b52b 9132 40b5 9431
000001e0: c17f b831 e69e 9231 d4ef a131 1e3d 9132
000001f0: f305 8331 4cbe 5033 baaa 0133 8b6c 0932
2.7271035e-08 4.0209645e-08 2.3386692e-08 3.823489e-08 1.3423474e-08 2.291475e-08 5.8453825e-08 3.273021e-08
2.5265217e-09 1.5075392e-08 1.0045906e-08 2.4505205e-09 2.1170594e-09 2.2145812e-09 2.3639183e-08 5.978865e-09
3.6054809e-07 1.8543064e-08 1.2368516e-08 1.0709954e-08 6.537343e-09 1.6128176e-08 5.2989986e-08 1.2314367e-09
7.523374e-09 1.7223195e-09 1.1599271e-07 5.245941e-09 3.003067e-08 1.9595662e-08 9.703876e-09 1.8893642e-08
6.2406773e-09 2.2114113e-08 1.6720595e-08 1.3051788e-08 1.1328386e-08 7.1573236e-09 1.9451004e-08 8.233322e-08
1.0885098e-08 3.067103e-08 3.541574e-08 1.9818483e-08 3.4493444e-09 2.2337538e-08 1.0042709e-08 2.0118308e-07
2.5328864e-08 2.0090402e-08 8.397401e-09 3.991132e-08 4.8454223e-09 3.702836e-08 1.05376216e-07 7.796643e-09
2.0383608e-08 5.7469003e-09 5.5546883e-09 7.088458e-08 1.176266e-08 2.3452997e-09 1.98137e-08 4.2485278e-09
7.073106e-08 1.767827e-08 3.161339e-08 2.548848e-08 7.0464616e-09 5.8702827e-08 4.2617168e-09 1.5151251e-08
2.4978567e-08 4.2337476e-09 2.0639037e-07 1.2116472e-08 4.026383e-09 2.7981752e-08 6.4106738e-09 1.952177e-09
6.2314044e-08 6.463195e-09 7.1245805e-09 5.311864e-08 3.9105954e-09 3.1849446e-08 7.9443385e-09 3.4611276e-09
1.2166932e-07 2.2616204e-08 2.4190381e-08 4.8793165e-08 3.7085237e-09 2.3856902e-07 1.5594095e-08 8.014013e-08
9.724993e-09 2.6086886e-09 6.1565197e-09 4.9331035e-08 5.725381e-08 6.8035386e-09 1.3985756e-08 5.6265318e-08
9.928252e-09 7.687155e-09 1.0841344e-07 4.470035e-09 2.0323801e-08 8.946916e-08 2.3112086e-08 7.83016e-08
7.482439e-09 6.0958985e-09 6.44303e-08 1.1188405e-08 1.8814669e-08 2.890283e-09 1.6900097e-08 4.3279726e-09
5.3696287e-09 4.267224e-09 4.712982e-09 1.6908015e-08 3.813278e-09 4.8601848e-08 3.0190428e-08 7.999129e-09
