results/flappy_run_9/FlappyBirdAgent/checkpoint.pt (torch, 428727 bytes, 41 tensors)

network_body.observation_encoder.processors.0.normalizer.running_mean f4 [2]
00000000: 4b9b d43f 8868 3740
1.6609892 2.865755

network_body.observation_encoder.processors.0.normalizer.running_variance f4 [2]
00000000: 5ded fa46 f47a 6547
32118.682 58746.953

network_body.processors.0.normalizer.running_mean f4 [2]
00000000: 4b9b d43f 8868 3740
1.6609892 2.865755

network_body.processors.0.normalizer.running_variance f4 [2]
00000000: 5ded fa46 f47a 6547
32118.682 58746.953

network_body._body_endoder.seq_layers.0.weight f4 [128, 2]
00000000: 3343 82bf 31e7 15bf 4596 2bbf 7f0b aebf
00000010: 6277 1fbf dbef 21bf 04f5 823f 3100 553e
00000020: 9228 8dbe 6253 143e 7313 04bf 0652 853e
00000030: 6794 d83e 4732 f63e 327c ab3e 26e5 9b3e
00000040: e5b6 71be d9b9 063f 4f4b b6bf 742c a73e
00000050: b29c ab3f aa6d 823f dd74 763f de77 2f3f
00000060: f78d 7f3e df0e e2be 2b81 ebbe 890d 8ebf
00000070: e155 803f 9e3f 283f d425 cebe eab4 5c3f
00000080: 4668 d33f 9b80 1e3e 240f 9cbf 254c 093f
00000090: 54e8 e7bd bc93 1cbf edf1 323f 4131 843f
000000a0: 70db d83e cab6 1e3f cbc1 9fbf 8cf8 643e
000000b0: cce1 c6bd 3a7c 593c 2dfd 53be 7af5 103e
000000c0: 9e11 763e ff77 c4be 53c0 e8be 7fe0 f9be
000000d0: e735 323f ad09 c3be 4cb4 083e b1bb 2dbf
000000e0: 6397 d13e 93f9 023f f897 3e3f 28a0 7b3e
000000f0: e452 b0be b256 00be d88b 55bf 573a 703e
00000100: 3d7f 4bbe ea06 063f 4236 3fbe a604 4c3c
00000110: f318 9e3e 377a 6cbf 564f fb3e 09b4 793e
00000120: b786 2f3e f832 1dbe 8a53 12bf 5f03 213f
00000130: 5bb7 de3f 6e72 8a3e 2feb 1b3f a545 a0be
00000140: d783 a2bf a56e acbe 3f0a 36bf 9627 843f
00000150: 7eba 83bd 9ad5 33bf e8d8 893e 65dc 8d3e
00000160: 2dac 743d 8d36 f1be 9a85 003f 8fa7 ff3d
00000170: bf45 94be cbb9 d0bf b734 01be a190 c23c
00000180: 6d4b 98be 3c12 9e3f 09f2 96be 5562 033d
00000190: b3cc 1cbd 339b a83f 248f 4ebf 3656 28bf
000001a0: d52f 3e3f 68e2 bfbd 82ab 323e 6872 293e
000001b0: 6a2e a53d fb7e 3c3e c5d8 093d 208d 2a3f
000001c0: 4ddf a2be 5f58 6a3f eaca 51be ded6 8fbf
000001d0: 0d18 70be b29a 533e 82c5 ac3f 8a4d 883e
000001e0: bd09 903f 2a5d d53e 885e 8cbf e365 b7bd
000001f0: 7497 6c3f 805d 2d3e 82eb 98bf d19e 24bc
00000200: c87d 0f3e e199 323f 94e1 0abe 757c 31be
00000210: 8c98 fbbe b60c 593e c21b 833f cafa f53e
00000220: e84d 053f 5bd1 1a3d 97aa 67bf 356b b13e
00000230: 23c9 9b3f 76f7 e4be cda2 033f b99b 013f
00000240: d43d 393f 32d1 0dbf f624 b43e 71b4 92bf
00000250: 6901 a53e 8f29 e53f 2766 3a3f 0272 2fbf
00000260: 70be 6dba ff59 cabc 3fa5 60bf 8ee6 003e
00000270: 3421 053f 5a89 d2be 5aca 92be cbeb a4be
00000280: c5c4 85bf aebb 81bf dff7 0bbf 8963 743f
00000290: b557 64be d11f c9be 549e 883d 76a2 f4bd
000002a0: 2302 03bd b059 f0be bfaa 4f3f e1b8 cf3e
000002b0: 1fc6 8cbe 73f9 c0bf e199 a23f 202e 153f
000002c0: 07ca 57bf 1f16 54be 0fe7 f03b ec90 ed3e
000002d0: 894d bebf 1639 1ebe 9679 17bf 007f 8cbf
000002e0: 56fa 3c3e bcf7 05be 5cf9 be3e e6b4 a93d
000002f0: 72ec 263f 1d02 d73e e6ce c83e 1ea9 953f
00000300: d97e 363f fb3a cfbd 6ac7 0f3e 8c70 c53e
00000310: 16c9 f03e 3255 223f a3f7 05bd bc5f 72be
00000320: 0785 753e 44d5 7dbe 8132 fa3d 1d41 08bf
00000330: 511b 82be c71a b1bf ec59 c0be 71b9 ac3e
00000340: 2a2e ad3d ca21 d73e 50db b6bf 0298 493f
00000350: 62f6 403f 6846 063f a947 36bf 66c0 4d3f
00000360: d9b1 0ebe 847e 4d3f 2101 a4bf a9de b53e
00000370: 4314 e63b 92da 87bf fc1e b8bf ea49 a83d
00000380: bb31 58bf 788f e73d 43fe 50bf 2cfc 6d3d
00000390: 1d84 b83e bc5f 6abf 6530 56bf 7c3f c73e
000003a0: 4909 adbf 9647 84bf d6f9 46bf 0ca7 e33e
000003b0: 6f03 aa3f 5218 3c3e b28a b73f e2c0 c8be
000003c0: ad0a 0cbf 2410 0bbe 2760 1d3f bceb 51bf
000003d0: 70b8 bd3c b15d b83e 311f 213f bd79 41bf
000003e0: 6304 0ebf bd58 c53e c3de 8e3d 3d40 953e
000003f0: 017e e23d 7acd 35bf 2236 31be 675d 74be
-1.0176758 -0.58555895 -0.6702617 -1.3597258 -0.6229154 -0.63256615 1.0231023 0.20800854
-0.27570015 0.14484933 -0.5159218 0.2603914 0.42300722 0.48085234 0.3349319 0.30448264
-0.23604925 0.5262733 -1.4241732 0.32651103 1.3407195 1.0189717 0.9627207 0.6854228
0.24956499 -0.4415197 -0.45996985 -1.1097881 1.0026208 0.6572207 -0.40263236 0.8621355
1.6516197 0.15478747 -1.219212 0.5363181 -0.1132361 -0.61162925 0.699004 1.0327531
0.42354918 0.61997664 -1.2481016 0.22360438 -0.09711036 0.013274247 -0.20702048 0.14156142
0.24030158 -0.383728 -0.45459232 -0.4880409 0.696135 -0.3809332 0.13350028 -0.6786452
0.4093581 0.5116207 0.74450636 0.24572814 -0.3443824 -0.12533072 -0.8341651 0.23459755
-0.19872756 0.523543 -0.18673041 0.01245228 0.3087841 -0.92373985 0.49083966 0.24385084
0.17141233 -0.15351474 -0.5715872 0.6289577 1.7399706 0.27040428 0.60905737 -0.31303135
-1.2696484 -0.33678165 -0.71109384 1.0324581 -0.06432055 -0.70247805 0.269233 0.2770721
0.059734512 -0.4711193 0.5020386 0.12483131 -0.28959462 -1.63067 -0.12617765 0.023750605
-0.29745045 1.2349315 -0.29481533 0.0320762 -0.038281154 1.3172363 -0.80687165 -0.6575655
0.74291736 -0.093693554 0.17448238 0.16547549 0.080654934 0.18407814 0.033653993 0.6662159
-0.3181099 0.91541094 -0.20487562 -1.1237447 -0.23446675 0.2066448 1.3497775 0.26621658
1.1252972 0.4167264 -1.0966349 -0.0895498 0.924186 0.16930199 -1.1946871 -0.01004763
0.14012825 0.6976605 -0.13562614 -0.17332633 -0.49139822 0.21196255 1.0242846 0.480429
0.52072 0.037797313 -0.90494674 0.34652105 1.2170757 -0.44720048 0.5142029 0.5062824
0.7235997 -0.5539733 0.3518445 -1.1461316 0.32227638 1.7903308 0.7281212 -0.6853334
-0.000906921 -0.024701117 -0.87752146 0.1258795 0.5200379 -0.41120416 -0.28670007 -0.32211146
-1.0450674 -1.01354 -0.54675096 0.9546438 -0.22299083 -0.39282086 0.06670824 -0.119450495
-0.03198446 -0.46943426 0.8111991 0.4057074 -0.27494904 -1.5076126 1.270321 0.58273506
-0.84292644 -0.20711564 0.007351763 0.4639963 -1.4867412 -0.15451464 -0.591699 -1.0976257
0.1845487 -0.13082784 0.3729962 0.08286457 0.65204537 0.419938 0.3922035 1.1692235
0.71287304 -0.101186715 0.14040914 0.3856243 0.47028416 0.6341125 -0.032706868 -0.23669332
0.23976527 -0.24788386 0.12216664 -0.53224355 -0.25411466 -1.3836297 -0.37568605 0.3373523
0.08456071 0.42017967 -1.4285679 0.7874757 0.7537595 0.5245118 -0.71203095 0.803717
-0.13935031 0.8027117 -1.2812845 0.3552144 0.0070214584 -1.0613577 -1.4384456 0.08217223
-0.8445088 0.11306661 -0.8163797 0.058101818 0.36038294 -0.9155233 -0.83667594 0.38915622
-1.3518459 -1.0334346 -0.7772497 0.44463384 1.3282298 0.18368652 1.4339201 -0.39209658
-0.5470379 -0.13580376 0.6147484 -0.8200033 0.023159236 0.3600898 0.6293822 -0.7557638
-0.55475444 0.38544264 0.06976082 0.29150572 0.110591896 -0.7101666 -0.17305806 -0.23863755

network_body._body_endoder.seq_layers.0.bias f4 [128]
00000000: 26db 36bb ab4d 013d 1ded 643c beb4 383d
00000010: 54df bc3c 44db 183d 227f 203c 99e3 433d
00000020: 753c 3a3d f113 bb3c db75 343d 8b5a 423d
00000030: 312d 97bc 3631 fc3c ebb9 1a3d 62a2 453c
00000040: a83c 243d cba8 383c e757 153d a139 623d
00000050: 2625 8f3c d133 c3ba f5f2 a93c ab4a 2bbd
00000060: cb30 053d 0534 aebc a2a4 663d 3a1c 0f3d
00000070: 45b2 df3c 8b2f 573d 07d3 c83c 83a5 a6bc
00000080: dfaf 11bd 8172 17bd cea7 0b3d fbfe 243c
00000090: 5639 943c e81a c13c 3827 423d 9a90 703d
000000a0: dc36 a4bc 7553 e2bc b74e d03c deb6 483d
000000b0: 7e9a 2d3d 272a 913d fe06 123d 0ce6 1bbd
000000c0: 2698 1a3d 2be5 403d cfca 063d a5ae 7fbc
000000d0: 512b 6e3d 0d07 25bd 219d bbbb 3e93 313b
000000e0: d6f6 013c 0e36 a73c dd0d 14bd df40 5b3d
000000f0: ff0e 5b3d 8626 cc3c cb86 043d 0618 e23b
00000100: 7f2e 923c 590e 29bd 903d 2bbd e734 3f3d
00000110: e55e c5bb 3186 bdbc e97d 8a3d 54fd 293d
00000120: 24d9 2e3d fe8f 223d 2ec2 223d 1a33 2b3d
00000130: e714 52bd 2ff0 f1bc 0d7c 84bc c750 1a3d
00000140: 90c4 fa3a 45cd 343b 832d 5b3b f60e 0a3d
00000150: 2924 1b3d 9965 283d 158e c33c 738e 423d
00000160: 3b80 52bc 9617 1abd dc6b 8dbc fb4b 1f3d
00000170: 0f97 063d 9764 513d e976 503d 7155 0e3d
00000180: 9114 eb3c 7bfd 463d c483 343d 096e c9bc
00000190: f0f7 8c3c 509b 513d cdc0 673b 1b85 ba3b
000001a0: b2f2 be3c 29ea fa3b 2b3c 433d 5284 5f3b
000001b0: 5a3d debc 31e2 e83c 0c9c 183d f69f 81bc
000001c0: 7296 3b3d efb5 6a3c 8a79 373d 42f6 0dbc
000001d0: 02b5 863c ec1f 113d fc82 5d3d a8d6 a13d
000001e0: 31b8 12bd 8561 e33c 2608 d63c a89d 513d
000001f0: a7e9 afbc 0f3f af3b 0031 7a3c 7e15 bd3c
-0.0027901619 0.03156821 0.013972548 0.045094244 0.02305571 0.037318483 0.009795936 0.047824476
0.045467813 0.022836657 0.04405771 0.04744963 -0.018454166 0.030785184 0.03777496 0.012062641
0.04009691 0.011270712 0.036460783 0.05523074 0.017473768 -0.0014892762 0.020745734 -0.041819256
0.032517236 -0.02126504 0.05630935 0.03493903 0.027306685 0.052535575 0.024514688 -0.020342594
-0.035568114 -0.036974434 0.034095578 0.010070558 0.018093746 0.0235724 0.047400683 0.058731653
-0.02004569 -0.027627686 0.02542816 0.04900252 0.042383663 0.07088118 0.0356512 -0.038061187
0.037742756 0.04709355 0.032908257 -0.015605603 0.05814678 -0.040289927 -0.0057255183 0.002709582
0.007932385 0.020411517 -0.036146034 0.053528663 0.0534811 0.024920713 0.03235511 0.0068998365
0.017844437 -0.04127345 -0.041806757 0.04668131 -0.006023275 -0.023135277 0.06762297 0.04150136
0.04268755 0.039688103 0.039735965 0.04179678 -0.051289465 -0.029533474 -0.016172433 0.03767469
0.0019132067 0.002758817 0.0033443875 0.033705674 0.037876282 0.041112516 0.02387146 0.04749913
-0.012847955 -0.03762015 -0.017263345 0.03889082 0.032858904 0.05112132 0.05089465 0.034749452
0.02869633 0.04858158 0.044070974 -0.024588602 0.01720807 0.05117351 0.003536272 0.005692137
0.023309086 0.0076573086 0.047664803 0.0034105969 -0.027128864 0.028428169 0.037258193 -0.015823346
0.045797773 0.014325603 0.044793643 -0.0086646695 0.016443733 0.035430834 0.054079995 0.079022706
-0.03582019 0.027756462 0.026126932 0.051175743 -0.021473719 0.0053480933 0.015270472 0.023081537

network_body._body_endoder.seq_layers.2.weight f4 [128, 128]
00000000: 79e7 c6bd 0918 0a3e 73a4 ac3a 4394 413d
00000010: a2fd 6cbd 4966 38bd 4b28 54bd 9133 84bc
00000020: 914b f7bd b420 423e 17e5 823d e438 e53c
00000030: bc3f b5bc 3f40 61bd 601f 3a3d 6876 9abc
00000040: 3422 9d3d 72d7 253d 850c b63d a7f2 2bbe
00000050: 8bc3 78bb c73e 7abd eac3 1ebe 4a2b d1bd
00000060: 9853 833d 9af5 393d 90c2 febc 7f2f 013d
00000070: aaee bdbb 790a 0bbe 204e ba3d 79a3 913d
00000080: bc60 0fbc 784f 0f3d 3ca9 b7bd b970 223d
00000090: 1bff 323e 48fe cbbd ec4c 41bd 9f0b 113d
000000a0: 3448 edbc 08d2 c23d 13d3 c2bd 042b 0a3d
000000b0: 9364 c1bc d151 77ba 46b1 f1bd 5398 8cbd
000000c0: c648 6a3d 03f2 36bd 3030 d03c dd21 413d
000000d0: 7968 afbd 0f25 1f3d ffaa 863c c9e9 6f3d
000000e0: d2cb 1dbe 5a1f 50bd 7be4 ac3d e348 e83d
000000f0: f529 b33d 386a b4bd 5e8a 2fbd 7256 fdbd
00000100: c616 07bd 7499 46be dd7e 0c3d f634 2bbc
00000110: 3939 ca3d fb80 dd3b 9e54 75bd 562b 1bbe
00000120: f0b7 50bd 01ab 1ebd a088 23be 052e da3d
00000130: 69ad 84bd 3ad4 34bd f622 cbbd e45c a13c
00000140: fe8d 97bd 5a41 c83d 696a 9d3d c74e 283e
00000150: 97d8 373d af01 a43d c5a5 223e 3be7 72bd
00000160: d77d 79bd 5d14 60bd 925d dc3d 5540 083d
00000170: 42f9 043d cad4 ef3d 0160 4b3e 3033 15bd
00000180: f6d8 ff3b f19d c53c 38aa d7bd 5a70 a5bd
00000190: c6e6 7abe 3847 5ebd e4f7 e63d eb5b 33bb
000001a0: 4902 e33d 37df 09be 41f1 78bd 73b0 433e
000001b0: 4c23 7f3d 0baf c8bd 7fd5 713d d6d9 adbb
000001c0: 57d2 e8bd 175a cabd 658b 33be d23e 4ebd
000001d0: 149f 833d 6da2 f63d 68d4 be3d 17c3 5ebe
000001e0: 9e32 ac39 69ea 9bbd c76c e3bb 9f6d 113e
000001f0: ec69 a93d e626 b13d 65dd 0bbe 333c edbb
00000200: 2993 acbc 111d d43c fcc0 563b bd26 053e
00000210: 0c94 a8be d04f 4e3b d02e 9ebc d2ed 083e
00000220: 2442 27bc c270 ad3d 156f bdbc 4fb8 8a3d
00000230: 50bc 98bd 365b de3b 32fc e73d 3a0d 8d3d
00000240: 5d10 823c 76a2 093e ae1b 42bd 174c a33d
00000250: 91a3 dbbd 996b 9bbb 9ce1 2ebe 3123 febb
00000260: e515 32be 69cb 5cbd 37a9 c0bd ded4 60bd
00000270: b695 e93c 3dfe 8ebc 7cd2 1d3d b358 71bd
00000280: a454 f2bd 9b43 00bd 3802 2e3e 3072 bf3d
00000290: 3ca1 d0bd 5e3a 81bd b305 cb3d 4f82 89bd
000002a0: 03a5 eebd a55a b13c b3e8 a0bd 9459 92bd
000002b0: 85b3 8abc d7f1 b33d 526b 95bc 9075 01be
000002c0: 1320 64bd 1079 b33d df03 c8bd 4d52 eebd
000002d0: ee57 6e3d a6d4 7e3d 5cb0 89bd 61e7 0c3d
000002e0: 9c9c 3f3e 35e3 073e 8b97 973c 2a5d 7b3d
000002f0: 072c 4f3d 5cea 86bd e50d 4d3d 10b6 173e
00000300: aa31 1c3d f461 513b 21d1 a4bd 5f5a 90bd
00000310: 0e10 afbd d8c2 e5bd 560a 34bc 65a4 703d
00000320: 504a 1dbd 7efd 00be 3b26 833a a0a9 7b3d
00000330: b1fc 4f3d dabc 443d 0285 3d3e 582f c3bd
00000340: 3182 393d 5b3f a03d 340e 2bbd e61a ae3d
00000350: 2a9b e73c 2374 b9bd 420c 0e3d f54f 433e
00000360: f4af 51bc ea5b 2fbc 8fb0 02bd 4c98 0a3e
00000370: 1207 8abd 6745 613e 85de 763d d270 aa3d
00000380: 050f 463d 24e1 86bd 892d 2dbc 3b5c f93d
00000390: 356e 64bd 70cf 07be a545 e1bd 15c9 e83d
000003a0: e349 2abd 32c3 a1bd 43f6 5e3d 7995 edbc
000003b0: 30e7 c8bc d1d2 5f3c d350 f23d 5659 403d
000003c0: f442 febb 7904 ddbc 43e9 013e b93d be3d
000003d0: 3fe4 7cbc b300 e8bb 4e7d 943d ca36 e13d
000003e0: eb72 6bba 7545 d23d c339 613d 7a49 373e
000003f0: ec1f e0bd 0018 a43d e70f c63d ffe9 a33d
-0.09712119 0.13485731 0.0013171568 0.047260534 -0.05785907 -0.04501942 -0.05179624 -0.01613787
-0.1207496 0.18957788 0.06391352 0.02798123 -0.022125117 -0.05499291 0.045440078 -0.018855289
0.07672539 0.040488668 0.08889107 -0.16791783 -0.003795835 -0.061095025 -0.15504423 -0.10213335
0.064124286 0.04540024 -0.031098634 0.031539436 -0.0057962732 -0.13578214 0.090969324 0.07111258
-0.008751091 0.034987897 -0.08967826 0.039658282 0.17480128 -0.0996061 -0.0471925 0.035411473
-0.028965093 0.095127165 -0.095129155 0.03373243 -0.023607528 -0.0009434494 -0.1180139 -0.06864991
0.05719831 -0.044664394 0.025413603 0.047151435 -0.085648485 0.0388537 0.01643896 0.058572564
-0.15409783 -0.05081115 0.08442017 0.11342027 0.08748237 -0.08809322 -0.042856567 -0.12370004
-0.032980703 -0.19394475 0.034300674 -0.010449639 0.098741956 0.0067597604 -0.05989515 -0.1515325
-0.050956666 -0.0387373 -0.15970087 0.10653309 -0.06478388 -0.044147708 -0.09918778 0.019697614
-0.0740013 0.0977809 0.07686312 0.16436301 0.04488429 0.080081336 0.15883549 -0.05930255
-0.060911026 -0.05470692 0.107600346 0.033264477 0.032464273 0.11710508 0.19860841 -0.03642577
0.007807846 0.024123164 -0.105305135 -0.0807807 -0.24502096 -0.05426714 0.1127775 -0.002736802
0.1108442 -0.13464056 -0.060776953 0.19110279 0.06228952 -0.09799012 0.059041496 -0.005305509
-0.11368244 -0.098804645 -0.17533644 -0.05035288 0.06426826 0.12042699 0.09317857 -0.21754108
0.0003284411 -0.076130696 -0.0069404575 0.14201973 0.08272156 0.086499974 -0.13658674 -0.0072398423
-0.021066265 0.025892766 0.0032768836 0.13003059 -0.3292545 0.0031480677 -0.019309431 0.13371971
-0.01020864 0.084687725 -0.023124257 0.06773435 -0.07457793 0.0067857755 0.11327399 0.068872884
0.015876943 0.1344088 -0.04738968 0.07973497 -0.10724557 -0.0047430512 -0.1707825 -0.00775566
-0.17391165 -0.053904925 -0.09407275 -0.054890506 0.02851377 -0.017455215 0.03853081 -0.05892248
-0.1183255 -0.031314474 0.16993034 0.093479514 -0.10187003 -0.06309961 0.099131964 -0.067143075
-0.11652567 0.021649668 -0.07856884 -0.07145992 -0.016931305 0.08786362 -0.01823965 -0.12642503
-0.05569465 0.08763325 -0.09766363 -0.116367914 0.058189325 0.062214516 -0.06723091 0.034400348
0.18712085 0.13270266 0.018504879 0.061368145 0.050579097 -0.06587669 0.05006208 0.14815545
0.0381333 0.0031949254 -0.08047701 -0.07048487 -0.08547984 -0.11218804 -0.010988792 0.05875053
-0.038400948 -0.125967 0.00100059 0.061441064 0.050778095 0.048031665 0.1850777 -0.095305145
0.045290176 0.07824584 -0.041761592 0.08501224 0.02827223 -0.090553544 0.03467966 0.1907347
-0.012798298 -0.010703066 -0.03190666 0.13534659 -0.0673963 0.21999131 0.060270805 0.083223
0.048354167 -0.06585911 -0.010569938 0.12175795 -0.055769164 -0.13262725 -0.10999612 0.11366478
-0.04157437 -0.07898559 0.054434072 -0.029001938 -0.024524301 0.013661102 0.11831822 0.046960197
-0.0077594463 -0.026979672 0.12686639 0.092891164 -0.0154352775 -0.0070801615 0.072504625 0.10996778
-0.00089816627 0.10267154 0.054986726 0.17899123 -0.109435886 0.0801239 0.09671002 0.080036156

network_body._body_endoder.seq_layers.2.bias f4 [128]
00000000: a91c 19bd b920 333d 8433 52bd ad2c 5b3d
00000010: dcb0 4bbd 0bfb 473d bcdc 50bd 2468 273d
00000020: cea5 79bd cb33 51bd 029d bbbc 6ba2 023d
00000030: b41d e0bb 09fa 1f3d aeba ce3c 8779 f83c
00000040: 6cd9 1a3d 38fd 223d c372 46bd e591 a5bc
00000050: fde2 2abc 3c2b 1fbd 0ea2 a8bc 9e22 63bd
00000060: 2e95 2ebd 23b6 d4bc 35e0 39bd 4064 e0bc
00000070: a12a 3b3d 36c4 3cbd bc62 2e3d 6865 23bd
00000080: d792 ed3c ecce 24bd 597e c33c b160 d8bc
00000090: f35d 043d 92ac 09bd d91a 0b3d 85da 1f3d
000000a0: efe5 f0bc bd8c 0b3d 9187 213d 3806 cc3c
000000b0: 4ee2 5abb 398d be3c 5a45 503d eaa7 0b3d
000000c0: 024b bebc 67f6 1ebd d70b 5dbd 1c5e 033d
000000d0: a66d fcbb 050e 3e3d da76 59bd 3dd8 78bd
000000e0: 1037 2d3d 9e91 3bbd c191 153d 2dd5 14bd
000000f0: f2c3 65bd a998 5bbc 2081 c5bc f05f 18bd
00000100: 5609 343d 3a9c 04bd 2389 543d 821a 083d
00000110: 1835 263d fd38 1abd 73ec 5f3d ad2d 40bd
00000120: 3563 81bc ffa9 483d 0c1f 28bd e8e9 15bd
00000130: 1ce2 103d 10e8 cc3c 6389 163c 560f 2d3d
00000140: 66fa 383d 90b5 3dbd 5d3d 2cbd b3f5 0c3d
00000150: 4bd2 26bc 0b6f 53bd 234e 61bd b876 4cbd
00000160: 8060 fb3c 94b2 37bd 9e8b dfbc 6222 2b3d
00000170: 5825 80bd 57e9 743d b449 153d e571 dabc
00000180: c87b 3fbd aa7f 1cbd ae6c d9bc f598 1dbd
00000190: afe1 373d 3968 053d d007 3cbd 4251 293d
000001a0: 8e12 28bd 5395 2c3c 1d29 403d 35e7 063d
000001b0: f991 4b3d ca24 57bd 471e 2ebd afaf 2b3d
000001c0: 3843 c1bc b56e 723d e438 233d a2fc bd3c
000001d0: 1aef 29bd fbd2 5fbd d6c5 e13c f743 33bd
000001e0: 2131 2b3d 3314 683d 78e3 f93c 6d22 9b3c
000001f0: e516 673d 0193 3bbd 5a7b 133b 46d2 0ebd
-0.037380848 0.04373238 -0.05131866 0.053509403 -0.049729213 0.048823398 -0.05099176 0.0408708
-0.06094914 -0.051074784 -0.022902016 0.031893175 -0.0068394784 0.03905681 0.0252355 0.030331386
0.037805006 0.03979227 -0.04844929 -0.02021117 -0.010430095 -0.03885959 -0.020585086 -0.055452935
-0.042622738 -0.025965756 -0.045379836 -0.027391553 0.04569495 -0.04608556 0.04257463 -0.03989163
0.029000683 -0.0402364 0.023863958 -0.026413294 0.03231616 -0.03361184 0.03396115 0.039026756
-0.029406516 0.034069765 0.039435927 0.02490531 -0.0033399048 0.0232607 0.05084739 0.034095682
-0.023229126 -0.038809206 -0.05396637 0.03207217 -0.007703501 0.04640009 -0.05309186 -0.060753096
0.04228884 -0.04579317 0.036515955 -0.036336113 -0.05609507 -0.013403096 -0.024109423 -0.037200868
0.043954216 -0.03237555 0.051888596 0.033228405 0.040577978 -0.037652005 0.054668855 -0.04691856
-0.015794376 0.048990246 -0.041045234 -0.036600024 0.035371885 0.025013 0.009188029 0.042250954
0.045160674 -0.04631573 -0.042050708 0.034414005 -0.010181974 -0.05161957 -0.055006158 -0.049917907
0.030685663 -0.04484804 -0.027288254 0.041780837 -0.06257123 0.059792843 0.036447242 -0.026665637
-0.046748906 -0.038207687 -0.02654108 -0.03847595 0.044892963 0.032570098 -0.045905888 0.04133726
-0.04103332 0.010533649 0.04691421 0.03293534 0.049699757 -0.05252532 -0.042509343 0.04191559
-0.023591623 0.05918761 0.039849177 0.023191754 -0.04148779 -0.054644566 0.027560156 -0.04376599
0.0417949 0.05665989 0.030503973 0.018937314 0.05641832 -0.04579449 0.0022503943 -0.0348685

action_model._discrete_distribution.branches.0.weight f4 [2, 128]
00000000: 9672 06bc 3e57 b83b 33fa 0dbd 25c9 5d3c
00000010: 0f9a b1bc 288a 253c 2525 49bc 11b7 a93c
00000020: ffc6 1bbd 439f 5abc 7495 4f39 ac90 403c
00000030: d403 493b d985 d33c 2075 683b 860d d43c
00000040: 8d84 c13b 6065 043b 73c8 80bc f051 093b
00000050: 582c 9abc 1fd2 d3bc 347c c6bb 288d 76bc
00000060: 038d babc cd29 66bc 89bf d0bc 87df 13bb
00000070: 5b1b ce3c 12d9 7dbc dd42 4d39 6f4a 3cbd
00000080: d0bc aebb 61fd 08bc 085d 203a b550 5cbc
00000090: 6cc9 f53c d2af 83bc 197f be3c 3013 af3b
000000a0: 5a99 4339 9dd3 e13b 2afd 9c3c f8dc 0e3b
000000b0: 2fb9 11bc fb72 943c d507 9f3c 8435 023c
000000c0: 8633 763b bcbd 82bc 7732 22bd 9a0e ee3b
000000d0: 2fc7 b03b 7bc8 633c eebb fcbc 491f fcbc
000000e0: 7d8a 883c b125 9ebc 3421 333c 9270 46bc
000000f0: 876a 10bd 2183 0dbb 786c 6ebb 5eb7 a9bc
00000100: 5d25 7f3c f850 2bbc 5650 17bb 7ac1 5b3c
00000110: d6e6 9b3c 25eb 15bc 5e0e 433c 99d9 9abc
00000120: 0cca 233b cd9b f93c 1498 98bc cf44 07bb
00000130: 5afb 5c3b 4ee9 b03b 80ec f2bb 5ce9 6d3c
00000140: eebe 5a3c cda0 aabc 7d1f b4bb 1262 933c
00000150: 4ac1 853b 1e13 2abd b423 57bc e4e5 d8bc
00000160: fecd e43b 4565 1fbc ba6a d2bb e0ed 833c
00000170: 22fe b9bc 3bf6 3e3c e250 a83a 3ce5 7cbc
00000180: 0965 b8bc 6f62 c0bc ade0 9bbc 980b 7abc
00000190: 50eb bd3b 0889 2f3b e85c 02bd a2fa 8b3c
000001a0: 68bd fdbb 7f47 303c aca3 463c b604 a8ba
000001b0: b18e 613c 2fe0 e8bc d778 e5bb 5bc0 923b
000001c0: 7d3d 05b9 bb02 473c 8cc2 883c f083 37bb
000001d0: 0a36 21bc b721 24bd 11d4 a3bb 11d0 e3bc
000001e0: 16da c03c d011 753c 3be5 1e3c 4d49 ad3b
000001f0: 8631 15bb d400 d8bc a63e 14bc c93e e4bc
00000200: 7c18 d03c 233f 70bc ac50 f83c d1b9 85bc
00000210: c9ca 3a3c 26d9 c1bc 7c0b ac3c 5f7c 35bc
00000220: 90c8 4e3c 2c40 8e3c 2679 323c a44d 9d3b
00000230: 8850 d1bb 0a60 c5bc 4b92 07bc 835e fa3b
00000240: d66d 3dbc 90ef 8fbc 76f8 863c 5def 933a
00000250: 0da5 10ba 4641 223a be1f a739 00b1 ca3c
00000260: 640f c93c e458 403c c6d6 3f3d 8a30 e13b
00000270: 3733 9fbc b75e b93c 5cc7 7cbc 15e9 463d
00000280: 20bd 1cbc 6f7b 6a3c fdf9 82bc b455 b53c
00000290: b58c 0bbc e3c7 263c 5edf 08bc 6d43 2abc
000002a0: 6fbe a33c 9927 74bb ece1 33bb ef13 c73b
000002b0: dfcb ed3c 0555 eebb 8322 c0bc c479 afba
000002c0: 236d f23b b31a 2ebb acef 6c3c 5067 5e3b
000002d0: 04ab 433c a1e8 81bc 39d3 f83c 6a07 b73c
000002e0: c54d 08bc 17ba 1f3c 5f45 c8bc 80e6 3c3c
000002f0: b155 023d 2b70 3dba 7f40 843b d104 073d
00000300: c754 70bc 9902 893c a438 c2bb b088 abbb
00000310: a8ad 25bc 0638 813c 7d1d b5bc e2b8 7d3b
00000320: 81bc c23b b065 91bc 7c93 963c 4d3b 073c
00000330: f0cc b0bb 9d2f a73b b3ee 55bc 0855 08bd
00000340: 6723 34bc db3b 443d 1311 f83b 3e23 8cbc
00000350: 96d4 0f3b 42fd 093d ed6a b03c 3745 d43c
00000360: dc88 c7ba 4c55 8f3c 7f44 5e3c c5d9 6cbc
00000370: 54c9 0e3d f020 bebc 5510 ecbb 9a37 533a
00000380: be69 213c ff68 ed3c 27e1 25bb 7bef ee3c
00000390: 30b4 8ebc 99dc 0dbc 43e3 843c 7b5f 43bc
000003a0: 4b0a 7b3c 1197 4539 acd9 12bc 9923 bbbb
000003b0: 66b0 0abd c70b a73c 6d6d f73b 4d37 a5bc
000003c0: d21b 93ba 9c1e 03bc 6e51 57bc 7d13 07bc
000003d0: 42ed 3a3c dff4 cd3c 2703 263a 786d a13b
000003e0: 8042 89bc a0ab cbbb 4341 993b db8e 0bbb
000003f0: f849 50bc 339d 603d 3b59 8b3a fcc1 d43c
-0.00820603 0.0056256345 -0.034662437 0.013536726 -0.021679906 0.01010374 -0.012276922 0.020717176
-0.038031574 -0.013343635 0.00019796734 0.011753242 0.0030672448 0.02582066 0.0035470203 0.025885355
0.005905694 0.0020202026 -0.015720582 0.002095338 -0.018819973 -0.02585703 -0.0060572866 -0.015048303
-0.022772318 -0.014048052 -0.025481956 -0.0022563653 0.025159528 -0.015493648 0.00019575232 -0.045969423
-0.005332567 -0.0083611915 0.00061173784 -0.013446976 0.030003272 -0.016075049 0.023253964 0.0053428635
0.00018653777 0.0068916813 0.019163687 0.0021799188 -0.008894249 0.018121233 0.019412914 0.007947329
0.0037567331 -0.015959613 -0.03959891 0.0072649242 0.0053948383 0.013902779 -0.03085133 -0.030776637
0.016667599 -0.019305082 0.010933209 -0.0121118 -0.035257842 -0.0021593051 -0.003638057 -0.02071732
0.015572873 -0.010456316 -0.0023088655 0.013412828 0.01903097 -0.009150301 0.011905281 -0.018902587
0.0024992255 0.0304698 -0.018627204 -0.0020640378 0.0033719153 0.005398906 -0.007413447 0.014520969
0.013351185 -0.020828629 -0.0054969178 0.0179911 0.0040818797 -0.041522138 -0.013131071 -0.026476808
0.006982564 -0.009728734 -0.006421414 0.016104639 -0.022704188 0.011655386 0.0012841488 -0.015435513
-0.022509115 -0.023484437 -0.019028032 -0.015261553 0.0057958737 0.0026784558 -0.031826884 0.017087284
-0.0077435263 0.0107592335 0.012123983 -0.0012818787 0.01376693 -0.028427212 -0.0070029306 0.004478497
-0.00012706775 0.012146647 0.01669433 -0.0028002225 -0.009839544 -0.040071215 -0.0049996455 -0.027809175
0.023541491 0.01495786 0.0096982075 0.005288279 -0.0022765114 -0.026367582 -0.00904814 -0.02786197
0.0254023 -0.0146634905 0.030311905 -0.016323956 0.011400887 -0.023663115 0.02100157 -0.011077016
0.01262106 0.017364584 0.010893142 0.0048005152 -0.006387774 -0.024093647 -0.008274625 0.007640661
-0.011561831 -0.017570287 0.016475897 0.0011286546 -0.00055177585 0.0006189536 0.00031876372 0.024742603
0.024543472 0.011739943 0.046835683 0.0068722414 -0.0194336 0.022628171 -0.01542839 0.048562128
-0.009566575 0.014311655 -0.015988344 0.022135593 -0.008517434 0.010179493 -0.008354036 -0.010392052
0.019988267 -0.0037255047 -0.0027447892 0.0060753743 0.029027877 -0.0072733187 -0.023453956 -0.0013387729
0.007398264 -0.0026566207 0.014461439 0.003393609 0.011942629 -0.015857996 0.030374156 0.022342402
-0.008319323 0.009748957 -0.024447141 0.011529565 0.031820003 -0.0007226492 0.004036009 0.032963578
-0.01466865 0.016724871 -0.0059271622 -0.0052348003 -0.010112204 0.015773784 -0.022108788 0.0038714935
0.0059428816 -0.017748684 0.018380873 0.0082538845 -0.005395524 0.0051021115 -0.013057399 -0.033284217
-0.010994769 0.047908645 0.007570395 -0.017106649 0.002194678 0.03368879 0.021535361 0.02591191
-0.0015223282 0.017496727 0.013566135 -0.014456217 0.03485997 -0.023209065 -0.0072040954 0.00080572965
0.009851871 0.02898073 -0.0025311203 0.029166928 -0.017419904 -0.008658552 0.016221648 -0.01192462
0.015322278 0.0001884366 -0.00896303 -0.0057110307 -0.033859633 0.020391358 0.0075508864 -0.020167971
-0.0011223501 -0.008002903 -0.013141973 -0.008244392 0.011409106 0.025141178 0.0006332867 0.00492638
-0.016755342 -0.0062155277 0.0046769693 -0.0021294865 -0.012712948 0.054837417 0.0010631451 0.025971405

action_model._discrete_distribution.branches.0.bias f4 [2]
00000000: 4498 1b3d 4298 1bbd
0.03798701 -0.037987

exp_avg f4 [128, 2]
00000000: 2a61 0239 6909 ad39 11c1 1c3a 2b34 143a
00000010: 7ca6 7e39 b49b 0939 5494 0db8 9bde 26b9
00000020: 306f aa38 304e b5b5 1824 8839 0fd3 59b8
00000030: 8603 0036 ffc0 25b8 de16 1438 a4ca feb7
00000040: 398c 1139 369f e3b8 50b1 a439 6c7d a6b7
00000050: 2ff2 25b9 fdff d8b8 0006 aeb8 880e c6b8
00000060: d664 92b9 fbfb acb9 2008 f039 e72e 083a
00000070: f277 ebb7 e8f8 c9b8 bf21 2d39 2aa1 e0b8
00000080: b241 eab8 22b1 84b9 291d c639 e271 5638
00000090: 5d56 2339 a7b2 5a38 7c04 9338 a426 1eb9
000000a0: c146 6a38 05f7 44b8 1549 6e39 a4c6 ec37
000000b0: c7ee b138 a664 9c37 0234 dcb8 13b7 aab8
000000c0: b019 8339 7c3d 8f39 0bb9 e0b9 553c 03ba
000000d0: 27ed e439 a8c9 9c39 cada f438 5ca4 e338
000000e0: 30a1 c038 1f40 aab8 80cc 2537 4105 36b9
000000f0: 4a06 5d39 a2c8 0b39 1e6c ba38 007f 21b7
00000100: abef 4238 8abc deb7 3802 80b9 3f53 bab9
00000110: e3ae 5839 c8c2 9f39 30ed 5bb7 493b 4037
00000120: 48de cb38 1ad6 bc38 913e 0539 58b2 02b9
00000130: 777f 11b9 8a76 90b9 c281 9a38 f8b9 dbb6
00000140: 75fe fbb9 e221 0dba 228a 91b7 296d 93b7
00000150: 1516 1639 c67b 3139 e497 d738 567c 5cb8
00000160: acef 4839 ad6f 0f39 f24b 0439 2adf 06b9
00000170: 23a7 eb39 0ba7 233a d679 d1b9 ea16 58b9
00000180: 93af ae39 dfc8 b7b9 c05b 8239 bf78 1737
00000190: 03fc 2439 0198 18b9 d410 05ba c22b 1dba
000001a0: dbcf 8438 cf7f 37b9 ffc7 bab8 9c43 2737
000001b0: e44a 7cb7 e229 97b8 2826 5f38 8a27 89b8
000001c0: 7726 0239 f9b5 95b8 eb10 42b7 3eca 8cb7
000001d0: fcb4 a5b7 d4b6 01b9 93e8 cbb8 1c20 55b9
000001e0: be03 d4b8 9682 09b9 dee5 ba38 6f92 62b9
000001f0: 6e3e c137 c202 ecb7 a079 2239 b9d0 fb37
00000200: 0bf6 d538 0268 b6b8 0083 6eb9 2ee2 11b9
00000210: cafe 08b8 201d 2db9 c442 c9b8 61cf a2b8
00000220: e5fa 9237 28ad dab6 6c1a 99b9 04e5 97b9
00000230: 980a 2338 9cf1 a837 840e 5bb8 8337 9bb8
00000240: 8cc4 ba39 b35d df39 dda0 6739 95d4 ac39
00000250: f3ad df39 1201 27ba 365c 3639 cc17 8c39
00000260: 5adc 9ab9 a816 43b9 bef1 5bb9 e03d 9bb9
00000270: e6da 0ab9 c633 44b9 72a1 1d39 8ccb 7239
00000280: 1e8a 8bb8 9c57 31b9 5855 5339 1626 4cb9
00000290: 166a 9e38 0304 0539 d465 2939 8798 35b9
000002a0: 6357 3539 b756 7538 dc61 8bb8 5cad f2b8
000002b0: 05c1 1039 1163 8439 633a 83b8 17ae 15b9
000002c0: 872e a8b9 36b6 1cba dea5 a0b8 5288 e936
000002d0: 5f20 88b9 a671 25ba 2482 5a39 30cb 2a39
000002e0: ae55 5c38 d3d3 7438 b31e 0838 799b 5b36
000002f0: dae8 09b8 2bbd adb8 e28a 9b38 eba9 3db9
00000300: 80f7 8a34 de0a fdb8 9205 b037 76f7 d137
00000310: e0fb d136 0cf4 9eb8 8f16 18b9 aeb1 5bb8
00000320: b8dd 79b7 55fe 8338 058a f938 7139 fdb8
00000330: 3215 7db9 1860 b0b9 1550 b038 e361 4f37
00000340: 51a1 ce38 94bc 70b8 19bf 8f39 ec2e 96b9
00000350: b170 16b8 dcf1 58b9 66fb 9739 ddeb 48b9
00000360: b0a2 7eb6 971a de36 1dc3 f439 2475 88b8
00000370: a30e b639 5b1a c539 f399 c1b8 8002 9ab9
00000380: 9ae5 8039 fe7f bab8 9d8e ab39 9ce2 7239
00000390: fb5a 9a39 7656 a039 2962 2d39 07c7 8a39
000003a0: 3a7e 0639 8a6d aa37 e5f4 b139 f3aa 30b9
000003b0: 7a5b f3b8 54dd b4b9 60a7 1536 5e00 b2b8
000003c0: c677 b0b9 0fbf f2b9 503c 163a 0c01 593a
000003d0: a1e2 d838 bf1e 14b9 8812 9737 e8cb 6438
000003e0: ee2c e4b7 cbbb 5837 3b8f a638 14d1 2ab8
000003f0: 2798 8b37 0aa8 8c38 fc7a 7d39 4315 1e39
0.00012433963 0.00033004142 0.0005979697 0.00056535256 0.00024285348 0.00013123342 -3.375516e-05 -0.0001591392
8.126942e-05 -1.3508306e-06 0.00025966833 -5.1933395e-05 1.9075537e-06 -3.9518807e-05 3.5307246e-05 -3.0373521e-05
0.00013880515 -0.00010853859 0.00031412626 -1.9847146e-05 -0.00015825847 -0.00010347364 -8.298084e-05 -9.4440824e-05
-0.0002792242 -0.00032994137 0.0004578242 0.0005194977 -2.8070037e-05 -9.630789e-05 0.00016511137 -0.000107111715
-0.00011170226 -0.00025308976 0.0003778723 5.1127638e-05 0.00015577064 5.2141633e-05 7.0103415e-05 -0.00015082449
5.5855842e-05 -4.6960096e-05 0.00022724674 2.8225892e-05 8.4844934e-05 1.8643517e-05 -0.00010500105 -8.140332e-05
0.00025005406 0.00027320895 -0.00042862477 -0.00050062436 0.0004366424 0.00029904884 0.00011675579 0.00010854818
9.185297e-05 -8.118175e-05 9.88238e-06 -0.0001735883 0.00021078545 0.00013330815 8.8893095e-05 -9.625917e-06
4.6476413e-05 -2.6552258e-05 -0.00024415716 -0.00035538708 0.00020664516 0.00030471967 -1.3108642e-05 1.1457895e-05
9.7211974e-05 9.004418e-05 0.00012707176 -0.00012464204 -0.00013875762 -0.0002755414 7.3674615e-05 -6.548358e-06
-0.00048064036 -0.0005383772 -1.734967e-05 -1.7574597e-05 0.00014313341 0.00016926145 0.00010280291 -5.2567884e-05
0.00019162771 0.00013679145 0.00012616793 -0.00012862371 0.0004494722 0.0006242848 -0.0003995436 -0.00020607901
0.0003331868 -0.0003505414 0.0002486389 9.028415e-06 0.0001573414 -0.00014552475 -0.0005076055 -0.0005995595
6.3329666e-05 -0.00017499852 -8.906423e-05 9.969717e-06 -1.5037807e-05 -7.2080424e-05 5.320288e-05 -6.540034e-05
0.00012412095 -7.138769e-05 -1.156724e-05 -1.6783477e-05 -1.975381e-05 -0.00012370507 -9.7231146e-05 -0.00020325225
-0.00010109645 -0.00013113985 8.911987e-05 -0.0002160759 2.3036464e-05 -2.8134677e-05 0.00015494833 3.0018726e-05
0.000102024605 -8.697809e-05 -0.0002274625 -0.00013912536 -3.2662218e-05 -0.00016509416 -9.596863e-05 -7.763389e-05
1.7521388e-05 -6.5170643e-06 -0.0002920212 -0.00028971594 3.8872095e-05 2.0139669e-05 -5.2227188e-05 -7.401316e-05
0.00035623123 0.00042603686 0.00022089803 0.00032964782 0.00042663477 -0.0006370704 0.00017391224 0.0002672061
-0.00029537344 -0.0001860509 -0.00020975524 -0.00029610004 -0.00013242252 -0.00018711304 0.0001503283 0.00023154746
-6.653763e-05 -0.00016912672 0.00020154321 -0.00019469144 7.553787e-05 0.00012685363 0.0001615503 -0.00017318326
0.00017294059 5.849331e-05 -6.646264e-05 -0.0001157175 0.00013804816 0.00025250812 -6.257442e-05 -0.00014274601
-0.00032078123 -0.0005978079 -7.66029e-05 6.959811e-06 -0.0002596406 -0.00063111854 0.00020838581 0.00016288157
5.2531883e-05 5.837141e-05 3.2453518e-05 3.272404e-06 -3.2880205e-05 -8.284518e-05 7.416845e-05 -0.00018087744
2.5884583e-07 -0.00012066004 2.0983429e-05 2.5029974e-05 6.2580075e-06 -7.5794844e-05 -0.00014504253 -5.2379146e-05
-1.48931795e-05 6.29394e-05 0.000118989534 -0.000120746794 -0.00024135856 -0.0003364093 8.4072504e-05 1.23609525e-05
9.852893e-05 -5.7396086e-05 0.00027417464 -0.0002864519 -3.586774e-05 -0.00020689465 0.0002898827 -0.00019161352
-3.7943646e-06 6.619211e-06 0.00046684677 -6.5068045e-05 0.0003472465 0.00037594404 -9.2316324e-05 -0.00029375032
0.0002458513 -8.8930115e-05 0.00032721917 0.00023163337 0.00029440955 0.00030581997 0.00016535133 0.00026469698
0.00012826259 2.0316587e-05 0.0003394253 -0.00016848352 -0.00011604182 -0.00034497178 2.2300155e-06 -8.48777e-05
-0.00033658574 -0.00046300187 0.0005731033 0.0008278049 0.000103418955 -0.00014125834 1.8009232e-05 5.454934e-05
-2.720064e-05 1.2918327e-05 7.9421756e-05 -4.0725878e-05 1.6640943e-05 6.70702e-05 0.00024173775 0.00015075975

exp_avg_sq f4 [128, 2]
00000000: 13f0 4234 f8d5 0035 1b3f 6b35 10ff 0936
00000010: 7b5d b234 d907 8835 bca0 fe32 49cd 9b32
00000020: a6f4 bb32 3dad 5733 a90b 3b33 0b2a 9332
00000030: 016b 1332 5374 3831 8233 5f33 4d83 a032
00000040: 8580 e532 9b0e 6732 e751 8233 10dc 7b33
00000050: 026b 3934 8c8b 8f33 c0cb 4633 6dfb cb32
00000060: cce3 ba34 53f7 8d35 461e 3335 1336 f735
00000070: bd36 9933 b885 e832 bf42 8333 d7f6 5f32
00000080: 2929 5433 8f3c 1b33 6c26 a733 6cda f333
00000090: 23b1 7d33 b272 4434 0263 ca32 ee9f c032
000000a0: 7c6e d131 e019 6c31 f68f 8833 e5f8 7133
000000b0: b741 5f33 a20d 0934 02e1 f532 381f 8c33
000000c0: 5c84 3234 368e eb34 7116 d734 0673 a535
000000d0: 2828 3735 6954 fa35 33d3 9633 c342 3934
000000e0: 3446 ba32 1f37 5032 ecd1 8c33 9e0f 1833
000000f0: 0ced a033 8964 6f34 cb0e 1e32 8e0c 6032
00000100: 8103 1d31 c2d4 1831 b8db 6034 9b1f 1e35
00000110: 06dc cd34 1b8d 8535 3a2e c931 d676 3031
00000120: f6f0 9932 6c10 6e33 c04f 3e32 c678 6a32
00000130: f9e8 8633 f7ab 3f33 893d 2a33 12a4 a733
00000140: 6af5 3735 94b6 0236 2652 d133 fd81 a932
00000150: e6de 6934 b3ce 2c35 b6ac 1533 5efd 8b32
00000160: 9366 8733 0f83 2734 089f 5233 651b 8633
00000170: f7e5 2735 fdd9 da35 2a6e c034 a3f7 2f35
00000180: 4098 2b34 d8eb 9a33 a629 8733 f865 6733
00000190: 509b 2b33 aa61 6b32 25fd f834 3d96 c335
000001a0: a318 a533 dc8d ca33 a396 5b33 79e0 3e33
000001b0: 569f 6032 e8ca bc32 6720 ef31 f557 5531
000001c0: 4f81 7232 bdd1 1c32 5d4b a133 36a1 2734
000001d0: 0cb9 3f33 d736 c533 dcb9 c933 71f0 6c33
000001e0: 99bc 9833 84c6 0a33 7034 8233 05d1 e833
000001f0: 7edc aa31 76e0 0632 54d4 9e33 d170 dc33
00000200: bb92 4132 a0e3 b831 5fd8 9533 3953 7034
00000210: a7c4 7e33 2243 2634 4ee0 0e33 008b 5132
00000220: 63a6 d932 47c0 2a32 da2b f634 7bc3 7235
00000230: c0dc 6f34 39e9 b334 073c 4e33 0a54 8832
00000240: 3038 4a35 eb6f 1236 aadb 6634 7414 fd34
00000250: 86d4 1b35 1ab8 a134 d771 3534 9da0 f634
00000260: 395e 9b33 a169 3534 c383 3734 7e15 a034
00000270: 31e6 9a33 540b 7f34 05e4 7233 a7e4 2534
00000280: 0edc dc33 2a92 7934 baa2 fa32 f167 9632
00000290: de55 a333 fa19 4b34 41c6 8a33 a02e 4733
000002a0: 3b16 ea33 a48f 1534 ebe5 0334 5c34 2533
000002b0: 73aa 9634 d7dc 4835 c92b 4133 996f 0133
000002c0: d3b3 da34 6f25 a435 e5d0 4333 c745 6032
000002d0: ebb5 0535 a370 c035 71ed e833 ae57 f233
000002e0: 3962 9832 8c88 3f33 b872 4b32 4606 e731
000002f0: 6a0c e632 9e95 9132 cca4 2033 3b25 db32
00000300: ddf5 3333 dd97 2333 0368 5032 16d0 ac31
00000310: b81d 1733 630c 6732 7c36 4133 6939 8833
00000320: b143 c332 78a0 6733 d539 a633 29aa e433
00000330: d786 7934 7748 4635 22aa e832 c108 7032
00000340: 02d5 a732 ec5e dd31 d5f6 1834 8cba 8634
00000350: f305 5a34 a818 b833 d671 cd33 b9d1 c632
00000360: 9b0e 8d33 48d8 b932 9db9 5534 338b 2d34
00000370: d835 ef34 7b93 8635 ec53 4734 9c1a a434
00000380: 346a 3033 5758 0e33 e5eb 4134 23c4 d734
00000390: 6a9e a634 25a0 5535 3557 eb33 1221 9c34
000003a0: e394 8e33 0d41 7733 542b f533 e4f6 9933
000003b0: 2235 e833 c622 b033 61e6 8533 56e9 d633
000003c0: c2fa b234 0081 8a35 d199 c635 f3cf 9536
000003d0: 54f3 0c33 159b a532 6500 2633 47f3 d033
000003e0: 2c44 0333 af69 9732 0402 f832 a641 1d32
000003f0: d085 be33 6291 8e34 5ca0 2334 7f31 c334
1.8154996e-07 4.799508e-07 8.763615e-07 2.0563057e-06 3.32231e-07 1.0135074e-06 2.9642585e-08 1.8137728e-08
2.1880918e-08 5.0216148e-08 4.3549935e-08 1.7132171e-08 8.580856e-09 2.6841647e-09 5.196808e-08 1.868616e-08
2.6717553e-08 1.3449291e-08 6.068495e-08 5.8640637e-08 1.7268397e-07 6.68434e-08 4.6285777e-08 2.3746646e-08
3.4810944e-07 1.05773e-06 6.672675e-07 1.8418672e-06 7.1345745e-08 2.7069163e-08 6.112304e-08 1.3036433e-08
4.939753e-08 3.6143827e-08 7.7835324e-08 1.13553e-07 5.9067258e-08 1.8295648e-07 2.3560919e-08 2.242447e-08
6.095261e-09 3.4357228e-09 6.35918e-08 5.6338553e-08 5.1981e-08 1.2764079e-07 2.8624076e-08 6.524937e-08
1.6625694e-07 4.3875633e-07 4.00632e-07 1.2326934e-06 6.823125e-07 1.8651018e-06 7.023336e-08 1.7253755e-07
2.1685175e-08 1.21197266e-08 6.5574426e-08 3.540446e-08 7.493699e-08 2.2295184e-07 9.200174e-09 1.3041371e-08
2.2848499e-09 2.223985e-09 2.0941559e-07 5.890558e-07 3.8344314e-07 9.950339e-07 5.8551253e-09 2.5678921e-09
1.792112e-08 5.542863e-08 1.1077589e-08 1.3648053e-08 6.282239e-08 4.4627054e-08 3.9637175e-08 7.806388e-08
6.8529937e-07 1.9477784e-06 9.7472636e-08 1.9733301e-08 2.1780906e-07 6.437578e-07 3.4848846e-08 1.6296948e-08
6.3050855e-08 1.5600766e-07 4.9039073e-08 6.244844e-08 6.254699e-07 1.6305709e-06 3.5842942e-07 6.555294e-07
1.5981004e-07 7.2140836e-08 6.294003e-08 5.387662e-08 3.9955296e-08 1.37010066e-08 4.6377787e-07 1.4572357e-06
7.6878926e-08 9.432162e-08 5.1126914e-08 4.444198e-08 1.3074745e-08 2.1978352e-08 6.959499e-09 3.1045577e-09
1.4115655e-08 9.128084e-09 7.510855e-08 1.5611735e-07 4.4638952e-08 9.183503e-08 9.3935995e-08 5.5166712e-08
7.112357e-08 3.2311178e-08 6.063135e-08 1.0841362e-07 4.9727182e-09 7.850863e-09 7.3960706e-08 1.02650695e-07
1.1267441e-08 5.3809828e-09 6.977711e-08 2.2382018e-07 5.9317838e-08 1.5484378e-07 3.3265955e-08 1.2197006e-08
2.5337789e-08 9.939021e-09 4.5852977e-07 9.0436487e-07 2.2338918e-07 3.351104e-07 4.8017707e-08 1.58707e-08
7.533263e-07 2.182084e-06 2.1500333e-07 4.7139804e-07 5.805126e-07 3.0122538e-07 1.6898353e-07 4.5937932e-07
7.234889e-08 1.6895366e-07 1.7091138e-07 2.981796e-07 7.2130554e-08 2.3752847e-07 5.65524e-08 1.5450006e-07
1.0284576e-07 2.3243106e-07 2.917783e-08 1.7509565e-08 7.605898e-08 1.8915298e-07 6.462188e-08 4.6375703e-08
1.0900518e-07 1.3928963e-07 1.228397e-07 3.8464677e-08 2.8063695e-07 7.482717e-07 4.4976137e-08 3.013665e-08
4.0736504e-07 1.2229847e-06 4.5591964e-08 1.3054382e-08 4.9811086e-07 1.4337896e-06 1.0846532e-07 1.1284952e-07
1.7739795e-08 4.459484e-08 1.1842239e-08 6.723698e-09 2.678117e-08 1.694826e-08 3.7402785e-08 2.5511886e-08
4.1900297e-08 3.8089514e-08 1.2130843e-08 5.0295155e-09 3.5184456e-08 1.3448786e-08 4.4985867e-08 6.343436e-08
2.273177e-08 5.3929824e-08 7.740497e-08 1.0648029e-07 2.3238987e-07 7.38662e-07 2.7085722e-08 1.3971829e-08
1.9538223e-08 6.442738e-09 1.42459e-07 2.5095176e-07 2.0304996e-07 8.5726526e-08 9.566763e-08 2.3145605e-08
6.568481e-08 2.1635188e-08 1.9904697e-07 1.6162521e-07 4.4556396e-07 1.00267e-06 1.856385e-07 3.056674e-07
4.1074784e-08 3.3142296e-08 1.8060344e-07 4.018958e-07 3.103517e-07 7.9581724e-07 1.0958903e-07 2.9081326e-07
6.6394726e-08 5.7568332e-08 1.1416583e-07 7.169527e-08 1.0813007e-07 8.201964e-08 6.235201e-08 1.0007595e-07
3.3337534e-07 1.0319345e-06 1.4796916e-06 4.4647545e-06 3.2817596e-08 1.9279051e-08 3.8650246e-08 9.730007e-08
3.0562816e-08 1.7626773e-08 2.8871916e-08 9.1535295e-09 8.871905e-08 2.655534e-07 1.5238896e-07 3.6357594e-07

exp_avg f4 [128]
00000000: fe7f c2b8 420c 51ba bd1b 75b9 0cce 63b9
00000010: dd8e efb8 4801 dbb9 502c 30b8 811e 84b9
00000020: 10ce acb9 991e feb9 8ebd dbb9 3ca4 8db9
00000030: 3b8c f638 6b0a 18ba 09a8 83b9 2506 82b9
00000040: c03c 73b9 121d 04ba d1ac 43b9 2c85 aab9
00000050: 70d8 c6b8 1374 acb9 2a41 fdb8 38c1 3e39
00000060: 7b13 c0b9 78c4 9039 1416 43ba 58c6 8fb9
00000070: 38da 82b9 2b71 a7b9 eb17 8bb9 0509 c4b8
00000080: f9e1 efb7 56e4 9339 66de dcb9 20c3 3038
00000090: f9e2 07b9 cb9e 49b9 72d3 80b9 b001 a0b9
000000a0: e534 e139 4e56 4337 7d7d 71b9 b269 a7b9
000000b0: 5a0e c8b9 8cf4 ddb9 9f20 24ba 7351 1d3a
000000c0: bf03 34ba d2d3 e3b9 d145 97b9 ea64 8739
000000d0: aa68 7bb9 644b 5839 3407 26b6 02ac 01b9
000000e0: 80f4 42b9 cf42 b1b8 5177 b538 4270 d5b9
000000f0: afb2 a9b9 6d0d 6bb9 0051 16b9 6390 2bb9
00000100: 18bb 48b9 b02b 8539 60d1 a038 f437 3fb9
00000110: c056 3437 13c1 b739 920c 10ba eb50 3eb9
00000120: 2235 0fba ccd6 fab9 6423 7dba d954 b1b9
00000130: 039e 0b3a b36d 7839 e0aa a038 a42d 54b9
00000140: 8490 e4b8 7c0f cdb9 cbcf 62b8 ca8d c9b9
00000150: 58e1 bbb9 9cf1 90b9 1700 6cb9 af96 94b9
00000160: b112 5139 4176 2839 c4bf 2b39 4606 cfb9
00000170: bc7a 00b9 6337 3db9 4ea8 23b9 9653 b0b9
00000180: d74f 84b8 ca4d 08b9 a425 64b9 34f3 6e39
00000190: 3ed3 31b8 b41e b9b9 2a9c 45b8 ba2c 9cb8
000001a0: 7d80 25b9 caeb 05ba f4cb 14ba 5e25 f7b9
000001b0: abe7 ac38 07e4 38ba 59ca 2bba 4974 e137
000001c0: e003 ceb9 fc84 bbb9 6b7e 06ba ac45 0fb9
000001d0: 2ee9 adb9 3dd2 1aba 52ec 8db9 5a82 9fb9
000001e0: 5cdd af39 cca5 1fba e47c 81b9 ccbb 4eb9
000001f0: 7e83 8638 30d4 54b8 37cd 56b8 5c27 98b9
-9.274481e-05 -0.0007974544 -0.00023375354 -0.00021725165 -0.000114230184 -0.0004177189 -4.200294e-05 -0.0002519973
-0.00032959925 -0.00048469452 -0.00041912164 -0.0002701598 0.00011756314 -0.0005799892 -0.00025111463 -0.0002480011
-0.00023196917 -0.0005039732 -0.00018661028 -0.00032524148 -9.48169e-05 -0.00032892879 -0.00012076118 0.00018191792
-0.00036635608 0.000276122 -0.00074419496 -0.00027422863 -0.00024958118 -0.0003193704 -0.00026529966 -9.347688e-05
-2.8596247e-05 0.00028208148 -0.0004212737 4.2143394e-05 -0.00012959157 -0.00019228009 -0.00024571602 -0.00030518835
0.00042954754 1.1643e-05 -0.00023030299 -0.0003193147 -0.00038157665 -0.00042334606 -0.00062609644 0.00060012116
-0.0006867013 -0.00043454632 -0.00028852982 0.00025824393 -0.00023976216 0.0002062745 -2.474012e-06 -0.00012366477
-0.00018592365 -8.452462e-05 8.652977e-05 -0.00040710164 -0.00032367322 -0.00022416348 -0.0001433529 -0.00016361619
-0.00019143184 0.00025400287 7.668394e-05 -0.00018236024 1.0749034e-05 0.00035048331 -0.0005495037 -0.00018149956
-0.00054629345 -0.00047843752 -0.00096564577 -0.00033823287 0.0005325975 0.00023691989 7.6612225e-05 -0.00020234898
-0.00010898805 -0.00039112184 -5.407612e-05 -0.0003844335 -0.00035835314 -0.00027645833 -0.00022506747 -0.00028341028
0.00019938756 0.00016065782 0.00016379269 -0.0003948679 -0.00012252753 -0.00018045078 -0.0001560759 -0.00033631612
-6.309122e-05 -0.0001299895 -0.00021757797 0.00022788049 -4.2396823e-05 -0.00035308825 -4.71139e-05 -7.446991e-05
-0.00015783492 -0.00051086827 -0.00056761433 -0.00047139352 8.244751e-05 -0.00070530217 -0.00065532845 2.687624e-05
-0.0003929427 -0.000357665 -0.0005130532 -0.00013663498 -0.00033170864 -0.0005905962 -0.00027069688 -0.00030423963
0.00033543527 -0.00060900743 -0.00024697848 -0.0001971565 6.41411e-05 -5.0742354e-05 -5.1212697e-05 -0.00029021024

exp_avg_sq f4 [128]
00000000: 1c7b 9633 d5ee 1035 052f 2634 feb2 3c33
00000010: 0185 7332 2e7a 5333 da9b 9f31 4eb9 6e33
00000020: 7a6d 2333 fd29 8633 87b1 7c34 4e24 a233
00000030: 464c 0634 e783 cb34 1cd7 b033 28ec 1f33
00000040: fa2b ab33 1ea8 7233 ab0d 0833 cf0b 8833
00000050: 7b4c 0132 7c55 3033 ce07 ef32 2d35 a932
00000060: 8b1c bc33 5935 2234 3a8a f034 ecb0 6133
00000070: 433a 0e33 fa21 b733 3850 0233 729e fc31
00000080: 681d 1931 5462 be33 2582 7534 a413 9631
00000090: ec63 2932 0289 7732 6b7c e833 5031 4c33
000000a0: 9ed0 c134 ae21 7533 0028 f833 ee67 4233
000000b0: 00b7 7f33 4c63 b133 aab3 b134 47f6 7534
000000c0: 788a 5734 1dc9 8733 5f6e 2433 d287 4834
000000d0: 5bf5 8e33 f078 0833 e228 2e32 0b5f 0232
000000e0: d532 6832 44e4 5033 2453 c632 217b 3534
000000f0: 8033 df33 0a9b 2733 71de 6932 6a20 0733
00000100: 2415 7c32 69e7 1c33 0ad6 fd32 9146 1033
00000110: d1b1 4132 7a5f 6b34 fb9d 9334 7cc4 3233
00000120: 4267 be34 93f9 2b34 35a1 5735 dba8 c333
00000130: 6e0f 8533 c786 cc33 8e49 1933 d220 2133
00000140: 548f 1933 f04d 3e33 cb20 1e33 2101 9233
00000150: a70c bd33 87aa e833 a99e 1b34 6c56 be33
00000160: 47a1 3334 431d 1733 209b 8c34 4f16 b333
00000170: d3b9 6632 ef6f 9f32 13ec fd32 127a 8e33
00000180: bc9c d932 e430 6e32 7285 3133 0203 cd32
00000190: 4da7 6f32 cc78 a133 30e7 c733 cd2d 6132
000001a0: 8d85 9f32 9075 de33 7e0e 8934 9713 a333
000001b0: 0a6c 4033 e3b9 3d34 aa51 af34 aa32 a533
000001c0: 6df1 3c33 2ce5 c933 8a58 5d34 41d8 1c33
000001d0: a096 4533 6f39 ff33 42f3 1d34 0b22 c133
000001e0: 96b1 2634 ae02 2335 f3ea 3a33 d649 0433
000001f0: 5ddc 9232 d7c9 ae32 c0d8 2f33 ac91 9933
7.007313e-08 5.3991727e-07 1.547706e-07 4.3934953e-08 1.4174703e-08 4.9238388e-08 4.6452273e-09 5.5582227e-08
3.8050963e-08 6.247499e-08 2.3533913e-07 7.5503166e-08 1.250747e-07 3.7907668e-07 8.234767e-08 3.7234855e-08
7.970807e-08 5.6497917e-08 3.16774e-08 6.3351415e-08 7.526178e-09 4.105594e-08 2.7826811e-08 1.9698371e-08
8.759624e-08 1.5106833e-07 4.4804057e-07 5.2547804e-08 3.311494e-08 8.527782e-08 3.0340942e-08 7.3521784e-09
2.2281146e-09 8.86545e-08 2.286475e-07 4.3678074e-09 9.859814e-09 1.4408444e-08 1.08259734e-07 4.75423e-08
3.610084e-07 5.707414e-08 1.1555676e-07 4.526367e-08 5.953825e-08 8.260267e-08 3.3099542e-07 2.2906998e-07
2.007381e-07 6.32301e-08 3.8284607e-08 1.8675863e-07 6.65702e-08 3.177496e-08 1.0137429e-08 7.588606e-09
1.3515735e-08 4.863638e-08 2.3088042e-08 1.6901733e-07 1.03936145e-07 3.9023725e-08 1.3612962e-08 3.1461617e-08
1.4673137e-08 3.6532047e-08 2.955041e-08 3.3591792e-08 1.1274509e-08 2.1920815e-07 2.749583e-07 4.1622556e-08
3.5465388e-07 1.601641e-07 8.032833e-07 9.11111e-08 6.196102e-08 9.524006e-08 3.5689986e-08 3.7515584e-08
3.5753445e-08 4.4308706e-08 3.6817067e-08 6.79886e-08 8.8033e-08 1.08343606e-07 1.449322e-07 8.8632845e-08
1.6729346e-07 3.518404e-08 2.61899e-07 8.339395e-08 1.34300135e-08 1.8560938e-08 2.956043e-08 6.634595e-08
2.53334e-08 1.386454e-08 4.133239e-08 2.3866509e-08 1.3949671e-08 7.5191195e-08 9.3087124e-08 1.3107138e-08
1.8570768e-08 1.0359065e-07 2.5528783e-07 7.593842e-08 4.4801745e-08 1.7669622e-07 3.2655709e-07 7.692627e-08
4.3991736e-08 9.401478e-08 2.0614439e-07 3.6518262e-08 4.600463e-08 1.188481e-07 1.4710261e-07 8.993455e-08
1.552456e-07 6.072613e-07 4.3520185e-08 3.08008e-08 1.7096847e-08 2.0348052e-08 4.0942496e-08 7.151115e-08
