results/flappy_slow_v10/FlappyBirdAgent/FlappyBirdAgent-1629.onnx (onnx, 71034 bytes, 8 tensors)

network_body.observation_encoder.processors.0.normalizer.running_mean f4 [2]
00000000: 3261 dd3f 2c27 3c40
1.7295287 2.9398909

network_body._body_endoder.seq_layers.0.weight f4 [128, 2]
00000000: 929a 42bf 817c 2bbf a121 fabe 89da a8be
00000010: 2757 63bf 3d02 fc3e ff29 fabe 1483 b63e
00000020: ff1c 23bf 1b0e d3bf 4f73 02bf a428 4cbf
00000030: 8245 603f 8d1d b13f 332c 013f f80b 1d3e
00000040: 3d2d 483e 345a 9ebe c129 123e 88ea 1f3f
00000050: 36b2 13be 438b b5be 0aae af3e f4e9 493f
00000060: 7a48 8c3f 9eb7 28bf 9bfa 0cbe 31e2 0d3f
00000070: 9359 57be db58 a63f b602 803d 7fdd e23e
00000080: df90 92bd a335 85bf baf4 003f 4996 09bf
00000090: 090f a0be 35c0 0fbe d45a 13bf c24b 813f
000000a0: b7bc 933f 5396 28be 9f8e 7abd 2b1f 3bbf
000000b0: 0cb5 6e3e a2df 623d a915 1abf c7ce b43e
000000c0: 5dc0 063f 8308 98bf 3a6d 5e3f 6341 7bbf
000000d0: c15e 4e3e 7879 66bf 2793 41be 7653 08bf
000000e0: d56a 8d3e 455b 0bbf d834 03bf 2273 093f
000000f0: 134d 913f 7008 563f deaf 3dbf a907 243f
00000100: a907 123f b595 b1be 0362 9dbd 93e7 7bbd
00000110: dc46 913f 7eef e8bf 2b4a b53f 7f59 33bf
00000120: bff6 0f3e 3170 b43e 03eb c9bf e36b 883d
00000130: 9ef0 91bf 6c3d fcbe d722 9ebe 8c3e d43e
00000140: 0629 93be 9686 4bbf 1e29 023e 4514 3cbe
00000150: 34cd 103e 4d26 4cbf 7d9a f93d 183b 8b3f
00000160: ff31 203f fcb0 02bf db2a 9dbf 2e70 593f
00000170: 7af1 4bbf 0eed 4fbf 45e6 673f 4a8c cb3e
00000180: bb52 5b3f d24c 113f 9f48 2e3f 9122 eabc
00000190: 8bb3 573f 12a5 2a3f 818e 1e3f d95f 24bf
000001a0: 203b b53e 8251 7f3e d516 7bbf 5516 c3bd
000001b0: a55f d23f 70b2 ac3e d6fc 65bd 828c aabd
000001c0: 89a8 943f c3a4 24bf 7fec 853e 71e1 28be
000001d0: 1ca6 a0bf fd10 fc3e c49b d7be 9da7 993f
000001e0: 75f0 7a3f 201a debd 278a 953e 925b 153f
000001f0: 9783 b9bf 35a2 c13e ef83 14be 3e22 443f
00000200: 1608 85be fbe8 613f 9975 a9bf efd8 d5bd
00000210: c36a 9c3d 15a6 f0be 38f2 3e3f 0744 94bf
00000220: 4d2d 3e3e 7b1a a83e 5bca d53f 20bf e83e
00000230: 65f1 8c3d cb69 f93e 1838 07bf a009 913d
00000240: 0989 8d3e 8f44 86be cc81 903e 3971 84be
00000250: b435 ac3f 9522 083f 068b 4bbf 7018 20bf
00000260: cc52 06bf fedc 91be cb09 983f 8a61 073f
00000270: 8c6b 663e a5bc 61bf 59a7 693f eef2 0cbf
00000280: 5d89 10bf 9ff2 933e e843 883f e2d4 cb3e
00000290: 4928 063e 85b3 e63e 7b93 0cbf 6d96 3dbf
000002a0: 2c01 543f 062b f0bf bb92 4cbf 1152 ab3f
000002b0: 763c 15be 388b 3c3f 069b 543f 90a5 24bf
000002c0: e82e b4be d587 0f3f 5565 4abe 2068 0f3f
000002d0: 75a7 a6be bff2 233d b510 e83c 72bb 98be
000002e0: 4605 9fbf 10df d7be 753a 35be 3d28 213f
000002f0: aec5 2e3e d686 8a3f 7d65 62bf 2481 90bd
00000300: 27c2 943f d2c6 a6bf 89aa 553f 8e95 19bd
00000310: 4410 9a3c d0bd 033f b7fb f63e 8406 123f
00000320: 518b 84bf cd18 ad3d 22d1 153f 5409 17bf
00000330: 91bf 0f3e 0a10 c53f 9bf8 45be ac29 553f
00000340: d147 97bf 2a75 5ebe 1ecb a43e a2e5 0a3f
00000350: 4d25 a23e b737 0dbf 973c 1ebe 1085 8d3f
00000360: a59f 37bd d106 cf3d 4445 55be 6719 22bf
00000370: 7ec2 9ebd 6983 c03d aca8 45bf 05fe ba3e
00000380: d8f4 e53e 3134 8b3e c082 813f 5e8f a5be
00000390: c077 72bd 624c 303f 30d3 3a3f ed24 a8bf
000003a0: 01b0 2bbf 7bad 753f 83b2 a1bd 486c 1d3f
000003b0: 7261 cfbd e7fd 553f d8eb 0d3e ad68 073f
000003c0: 990a 323e 1864 30bd f9a8 8e3e a230 d13d
000003d0: 44d4 e13e 55b2 48bf dda5 a93f 7e0f 0fbe
000003e0: 0bb2 41be 854e 1d3f 88c1 763e 11a5 ddbe
000003f0: 19e2 52bf aa0d 663f e17e 3ebf 40a6 56bf
-0.76017106 -0.6698685 -0.48853782 -0.3297923 -0.8880486 0.49220458 -0.48860165 0.3564688
-0.6371612 -1.648868 -0.50957197 -0.7974951 0.8760606 1.3837143 0.5045807 0.15336597
0.19548507 -0.30928195 0.1427374 0.6246724 -0.14423451 -0.3545781 0.3431247 0.7887261
1.0959618 -0.6590518 -0.13767473 0.55423266 -0.21030264 1.2995867 0.06250517 0.44309613
-0.07156538 -1.0406994 0.50373423 -0.5374494 -0.3126147 -0.14038165 -0.5756047 1.0101244
1.1541966 -0.16463594 -0.06117117 -0.73094434 0.23311251 0.055389054 -0.601893 0.3531401
0.52637273 -1.1877598 0.86885417 -0.9814665 0.20153333 -0.90029097 -0.1890379 -0.5325235
0.2762057 -0.5443614 -0.5125251 0.53691304 1.1351646 0.83606625 -0.7409648 0.6407419
0.5704294 -0.3468453 -0.0768471 -0.061500143 1.134975 -1.8198087 1.4163259 -0.70058435
0.1405897 0.35241845 -1.5774845 0.06661203 -1.1401556 -0.4926561 -0.30885956 0.4145397
-0.28742236 -0.79502237 0.12710997 -0.18367107 0.14140779 -0.7974594 0.121876694 1.0877409
0.6257629 -0.51051307 -1.2278703 0.849368 -0.7966534 -0.8122109 0.9058574 0.3975547
0.8567311 0.56757843 0.6807956 -0.028580936 0.84258336 0.6665813 0.61936194 -0.6420875
0.3539667 0.24933437 -0.98081714 -0.09525744 1.6435438 0.33729887 -0.056149326 -0.08327581
1.1613933 -0.64313906 0.26156995 -0.16492249 -1.2550693 0.4923171 -0.42111027 1.2004277
0.9802316 -0.10844827 0.29206964 0.5834285 -1.4493283 0.37819067 -0.14503454 0.7661475
-0.25982732 0.88246125 -1.3239013 -0.104417674 0.07637551 -0.4700171 0.74588346 -1.158326
0.18571968 0.32832703 1.6702379 0.45458317 0.0688198 0.48713526 -0.5281997 0.07081914
0.27643612 -0.2622418 0.28224027 -0.25867632 1.3453889 0.5317777 -0.7950901 -0.6253729
-0.5247009 -0.28488916 1.1877989 0.5288321 0.22501963 -0.88178474 0.9127098 -0.5505818
-0.564596 0.28896043 1.0645723 0.39810854 0.13101305 0.45058838 -0.5491254 -0.74057657
0.8281429 -1.876313 -0.7991139 1.338442 -0.14573845 0.7364993 0.83049047 -0.6431513
-0.35192037 0.5606664 -0.19765218 0.5601826 -0.32549635 0.040026423 0.028328279 -0.2983051
-1.2423484 -0.4216237 -0.17698081 0.62952024 0.17067596 1.0822399 -0.8843611 -0.070558816
1.162175 -1.3029425 0.8346334 -0.037496142 0.018806584 0.51461506 0.48238918 0.5704119
-1.0355016 0.08451996 0.58522236 -0.5899861 0.1403792 1.539552 -0.19333117 0.8326671
-1.1818792 -0.21724382 0.32186216 0.5425664 0.31669083 -0.5516314 -0.154528 1.1056232
-0.044829983 0.10108722 -0.20827204 -0.6332001 -0.0775194 0.094000645 -0.772105 0.36521927
0.44913363 0.27188256 1.0118027 -0.32335943 -0.059196234 0.6886655 0.72978497 -1.3136269
-0.67065436 0.95967835 -0.078953765 0.6149335 -0.10126008 0.8359055 0.13859499 0.528941
0.17386855 -0.043064207 0.2786329 0.10214354 0.44107258 -0.78397113 1.3253742 -0.13970754
-0.18915574 0.61447936 0.24097264 -0.43289998 -0.8237625 0.898646 -0.7441235 -0.8384743

network_body._body_endoder.seq_layers.0.bias f4 [128]
00000000: 0000 0000 0000 0000 0000 0000 0000 0000
00000010: 0000 0000 0000 0000 0000 0000 0000 0000
00000020: 0000 0000 0000 0000 0000 0000 0000 0000
00000030: 0000 0000 0000 0000 0000 0000 0000 0000
00000040: 0000 0000 0000 0000 0000 0000 0000 0000
00000050: 0000 0000 0000 0000 0000 0000 0000 0000
00000060: 0000 0000 0000 0000 0000 0000 0000 0000
00000070: 0000 0000 0000 0000 0000 0000 0000 0000
00000080: 0000 0000 0000 0000 0000 0000 0000 0000
00000090: 0000 0000 0000 0000 0000 0000 0000 0000
000000a0: 0000 0000 0000 0000 0000 0000 0000 0000
000000b0: 0000 0000 0000 0000 0000 0000 0000 0000
000000c0: 0000 0000 0000 0000 0000 0000 0000 0000
000000d0: 0000 0000 0000 0000 0000 0000 0000 0000
000000e0: 0000 0000 0000 0000 0000 0000 0000 0000
000000f0: 0000 0000 0000 0000 0000 0000 0000 0000
00000100: 0000 0000 0000 0000 0000 0000 0000 0000
00000110: 0000 0000 0000 0000 0000 0000 0000 0000
00000120: 0000 0000 0000 0000 0000 0000 0000 0000
00000130: 0000 0000 0000 0000 0000 0000 0000 0000
00000140: 0000 0000 0000 0000 0000 0000 0000 0000
00000150: 0000 0000 0000 0000 0000 0000 0000 0000
00000160: 0000 0000 0000 0000 0000 0000 0000 0000
00000170: 0000 0000 0000 0000 0000 0000 0000 0000
00000180: 0000 0000 0000 0000 0000 0000 0000 0000
00000190: 0000 0000 0000 0000 0000 0000 0000 0000
000001a0: 0000 0000 0000 0000 0000 0000 0000 0000
000001b0: 0000 0000 0000 0000 0000 0000 0000 0000
000001c0: 0000 0000 0000 0000 0000 0000 0000 0000
000001d0: 0000 0000 0000 0000 0000 0000 0000 0000
000001e0: 0000 0000 0000 0000 0000 0000 0000 0000
000001f0: 0000 0000 0000 0000 0000 0000 0000 0000
0.0 0.0 0.0 0.0 0.0 0.0 0.0 0.0
0.0 0.0 0.0 0.0 0.0 0.0 0.0 0.0
0.0 0.0 0.0 0.0 0.0 0.0 0.0 0.0
0.0 0.0 0.0 0.0 0.0 0.0 0.0 0.0
0.0 0.0 0.0 0.0 0.0 0.0 0.0 0.0
0.0 0.0 0.0 0.0 0.0 0.0 0.0 0.0
0.0 0.0 0.0 0.0 0.0 0.0 0.0 0.0
0.0 0.0 0.0 0.0 0.0 0.0 0.0 0.0
0.0 0.0 0.0 0.0 0.0 0.0 0.0 0.0
0.0 0.0 0.0 0.0 0.0 0.0 0.0 0.0
0.0 0.0 0.0 0.0 0.0 0.0 0.0 0.0
0.0 0.0 0.0 0.0 0.0 0.0 0.0 0.0
0.0 0.0 0.0 0.0 0.0 0.0 0.0 0.0
0.0 0.0 0.0 0.0 0.0 0.0 0.0 0.0
0.0 0.0 0.0 0.0 0.0 0.0 0.0 0.0
0.0 0.0 0.0 0.0 0.0 0.0 0.0 0.0

network_body._body_endoder.seq_layers.2.weight f4 [128, 128]
00000000: d2f7 b83d 705d 1ebd 03c4 44bd 5b1f c93c
00000010: 2fd8 21bd 85b7 ddbc e0e8 e2bd d6b5 e03d
00000020: 0c45 06bc eff6 f13d 1b65 93bd d3c0 bcbd
00000030: 583f db3d aba1 09bd 57c5 bcbd 200b f03c
00000040: a1fa af3d 65b0 6fbc b73b 54bc 4fac adbd
00000050: 5856 dbbd 3c37 95bc 3449 e1bc 9310 ea3d
00000060: f217 bfbd 1f2c 7fbd b56f f8bd edc8 b2bd
00000070: 264f bbbd baf4 55bd 960a 85bc c3d0 ebbc
00000080: fe07 833b 385a 8ebc 598f 363d 3403 163d
00000090: cec5 c0bd 769b 95bc 94f4 173d 705c 44be
000000a0: 7c4b 0f3e 6120 5f3c d904 943c e278 4b3d
000000b0: bee2 5abc a264 27bd a9d5 1c3e 9fee 4cbd
000000c0: 56f1 d5bd 3e7b cebc 5afe e9bd c824 b93d
000000d0: f813 fcbd a9f3 1f3c 1548 843e 17f0 c83c
000000e0: f8a1 963e 017c 00bd c487 37bd 3f37 0cbd
000000f0: 9ed9 a53d 2cfe 29bd 8162 02be e680 3cb7
00000100: b733 32bd 9a74 52be a88f 86bd 6c5e e3bd
00000110: 158d 663e 642d 00bd 767e 29bd cda1 dcbc
00000120: 04c3 653d 1aaa 5ebe ae76 9dbc e3b4 823d
00000130: 1b37 a93d a3e1 b0bd e0b9 d8bd b9bb eb3c
00000140: 9967 02be cbc9 9bbd 31c1 7fbc 9dbd 5f3c
00000150: 76df 0fbd 9fbf 0e3d 6a4a 883d baab dabd
00000160: 04b7 54be 0c1a 3abd e8af a93c 9c6d c33d
00000170: c484 2c3e b2e3 993d 7fa5 a53c 3487 2fbd
00000180: 071f 253c 1507 c43d e989 ec3c ea64 1a3e
00000190: 9a78 f23c 251b 07be ad8d 93bc 55a1 8cbc
000001a0: 1cb4 a6bc 750d 4d3d 621d 383d 3142 cfbc
000001b0: f5a7 b0bc 136f 31bd 8455 0cbe d0c3 943c
000001c0: 140f ebbd 5fe7 8bbd 53ca 0a3d 0590 a1bd
000001d0: 9a48 f7bd 3fbb 41bd c4e2 79bd b6e4 33bd
000001e0: 1aca aebc 2deb b23c 3e33 ec3c c95e d93d
000001f0: 4047 2abd 0c53 08be b108 e2bd 9737 e0bd
00000200: ead7 823d f4c8 2abd 9f54 61bd db2c 43be
00000210: f060 7bbd b0cb e9bb 58c2 e43d a094 6e3d
00000220: c12f 22be 91f4 66be dd95 8eba a4bc 79bd
00000230: e0ed e23d 2054 a2bc a529 eb3d 050a ee3b
00000240: 6d20 073e b024 b1bd 8d15 97bd 34dc b63d
00000250: d2b6 ee3d 420d 9c3d 34e7 853d db9e b7ba
00000260: 6cd1 4e3d ab44 53bd 3d6c 073d e04e 2bbd
00000270: 4c4a 74bd 8b3c 093e dce3 4ebd c123 5ebd
00000280: 1955 4dbd 186a 353d 45c9 3fbd 15eb e53d
00000290: 4b82 b0bd 1eb7 8cbc 9d56 2a3e 419f 3bbd
000002a0: cb16 5dbd f9c3 07be 5e81 303d 50be fc3d
000002b0: b0f4 5e3e 3bbb b03d bd07 753d 677a 00be
000002c0: b361 213d 2d60 98bd 031b c0bc f88d 703d
000002d0: 254c a93d 9b0a c1bd 0766 1a3e 06a0 0e3d
000002e0: ab11 8f3d e869 4e3d 9c93 3b3d 1964 8b3d
000002f0: 19a7 a8bd 021d f9bc 1bd9 eabb bd15 1a3e
00000300: 2259 ecbd a3cd 4fbd 8884 5f3d 6d7f 643c
00000310: 1846 543d 0a60 433d eec6 1cbd c45e a73d
00000320: ceca e73c f830 53be d24f ca3c b4c7 74bd
00000330: 55ee c4bd ee56 44be e249 633e 3dbd 5a3d
00000340: 19d2 053d 5930 5abd dd98 febd 3e28 0dbe
00000350: 6c8d 203e a1ba 2b3e b116 0bbb 83cf ff3c
00000360: 9bf3 843d 18c8 90bd 8393 c43c 0813 f13d
00000370: 96a2 42bd ae2f 20be cc60 03be d095 4ebd
00000380: 637f 4ebd c6e0 753d c1a1 033d e77d 9d3d
00000390: 629d 683d f561 533d 8058 053d d2f8 923d
000003a0: 0494 55be 716b cbbb 3911 90bc bac1 e33c
000003b0: 49ab 5eba 58fe 8dbd 3560 cbbd dda6 fb3d
000003c0: f4ce 9dbd 6f34 8bbd 7b3e b43c 3567 d0bd
000003d0: f138 db3d 64f1 b9bd b110 b2bc 46e2 263d
000003e0: 9bc2 babc 2486 13bd f488 193d 0bed d9bd
000003f0: 50f2 02bd 5f22 d73d 08aa 96bd dd08 bf39
0.09031643 -0.038663328 -0.048038494 0.024551084 -0.03951281 -0.027065048 -0.11079574 0.109721825
-0.008195173 0.11814677 -0.07197019 -0.09216466 0.10705441 -0.033601444 -0.09217327 0.02930218
0.085927255 -0.014629458 -0.01295369 -0.08480131 -0.10709828 -0.018214814 -0.027500726 0.114289425
-0.09330739 -0.062297937 -0.121306814 -0.0872973 -0.09145956 -0.052235343 -0.0162404 -0.028786069
0.0039987555 -0.017377004 0.0445703 0.03662415 -0.09412728 -0.018262606 0.037098482 -0.19175887
0.13993639 0.01361856 0.018068718 0.04967583 -0.013359724 -0.040867455 0.1531588 -0.050032254
-0.10446422 -0.02520525 -0.11425467 0.090402186 -0.12308496 0.009762683 0.25836244 0.024528546
0.29420447 -0.03136826 -0.04480721 -0.034232374 0.08098148 -0.041502163 -0.12732889 -1.1235685e-05
-0.04350635 -0.20552292 -0.06570369 -0.11101994 0.22514756 -0.031293288 -0.04138037 -0.026932621
0.056094185 -0.21744576 -0.01922163 0.06382158 0.08262464 -0.08636787 -0.10582328 0.028776037
-0.12734832 -0.07606848 -0.015610025 0.013656047 -0.03512522 0.034850713 0.06654818 -0.106772855
-0.2077294 -0.045434996 0.020713761 0.09542391 0.16847521 0.075141326 0.020220516 -0.04285355
0.010078198 0.09571663 0.028874354 0.15077558 0.029598523 -0.13193949 -0.018011892 -0.017166773
-0.020349555 0.05006166 0.044949897 -0.025300117 -0.021564463 -0.04331882 -0.13704497 0.018159777
-0.11477485 -0.0683124 0.033884358 -0.07888798 -0.120743945 -0.047297712 -0.061007276 -0.043919288
-0.021336604 0.021840656 0.028833028 0.10613782 -0.041571856 -0.1331293 -0.11036814 -0.10948103
0.063888386 -0.04169555 -0.05501234 -0.1906008 -0.061371744 -0.007134877 0.11169881 0.05824721
-0.15838529 -0.22554232 -0.0010878403 -0.060970917 0.11080527 -0.019815505 0.114825524 0.007264378
0.13195963 -0.08649576 -0.07377157 0.08928719 0.11655964 0.07619716 0.06538239 -0.0014009135
0.05049269 -0.05157916 0.03306221 -0.041823268 -0.059641168 0.13402002 -0.050510272 -0.054233316
-0.050129984 0.044290632 -0.046822805 0.11226479 -0.086186014 -0.01717716 0.16634603 -0.045806173
-0.053976815 -0.13258351 0.043092124 0.12340987 0.21773028 0.086294614 0.059821833 -0.12546693
0.039399814 -0.07440219 -0.02345038 0.058729142 0.082664765 -0.09425851 0.15077983 0.03482058
0.06985792 0.05039397 0.04579507 0.068062015 -0.08234996 -0.03040934 -0.0071669943 0.15047355
-0.11540438 -0.05073322 0.05456975 0.013946396 0.05182466 0.04769901 -0.03827565 0.08172372
0.028294947 -0.20624149 0.024696264 -0.059760764 -0.09615771 -0.19173786 0.22196153 0.053403128
0.032671068 -0.053268764 -0.124315 -0.13784882 0.15678948 0.16770412 -0.0021223242 0.031226879
0.064917766 -0.07069415 0.02399612 0.11771208 -0.047518335 -0.15643188 -0.12829894 -0.05043584
-0.050414454 0.060028814 0.032136682 0.076900296 0.056790717 0.05160709 0.032555103 0.07176365
-0.20857245 -0.0062078764 -0.017586337 0.027802337 -0.00084941514 -0.06933278 -0.099304594 0.12287686
-0.07705489 -0.0679711 0.02200245 -0.10175935 0.1070422 -0.09079245 -0.021736475 0.040743135
-0.022797873 -0.0360166 0.037484124 -0.106409155 -0.03196937 0.10504603 -0.0735665 0.00036436963

network_body._body_endoder.seq_layers.2.bias f4 [128]
00000000: 0000 0000 0000 0000 0000 0000 0000 0000
00000010: 0000 0000 0000 0000 0000 0000 0000 0000
00000020: 0000 0000 0000 0000 0000 0000 0000 0000
00000030: 0000 0000 0000 0000 0000 0000 0000 0000
00000040: 0000 0000 0000 0000 0000 0000 0000 0000
00000050: 0000 0000 0000 0000 0000 0000 0000 0000
00000060: 0000 0000 0000 0000 0000 0000 0000 0000
00000070: 0000 0000 0000 0000 0000 0000 0000 0000
00000080: 0000 0000 0000 0000 0000 0000 0000 0000
00000090: 0000 0000 0000 0000 0000 0000 0000 0000
000000a0: 0000 0000 0000 0000 0000 0000 0000 0000
000000b0: 0000 0000 0000 0000 0000 0000 0000 0000
000000c0: 0000 0000 0000 0000 0000 0000 0000 0000
000000d0: 0000 0000 0000 0000 0000 0000 0000 0000
000000e0: 0000 0000 0000 0000 0000 0000 0000 0000
000000f0: 0000 0000 0000 0000 0000 0000 0000 0000
00000100: 0000 0000 0000 0000 0000 0000 0000 0000
00000110: 0000 0000 0000 0000 0000 0000 0000 0000
00000120: 0000 0000 0000 0000 0000 0000 0000 0000
00000130: 0000 0000 0000 0000 0000 0000 0000 0000
00000140: 0000 0000 0000 0000 0000 0000 0000 0000
00000150: 0000 0000 0000 0000 0000 0000 0000 0000
00000160: 0000 0000 0000 0000 0000 0000 0000 0000
00000170: 0000 0000 0000 0000 0000 0000 0000 0000
00000180: 0000 0000 0000 0000 0000 0000 0000 0000
00000190: 0000 0000 0000 0000 0000 0000 0000 0000
000001a0: 0000 0000 0000 0000 0000 0000 0000 0000
000001b0: 0000 0000 0000 0000 0000 0000 0000 0000
000001c0: 0000 0000 0000 0000 0000 0000 0000 0000
000001d0: 0000 0000 0000 0000 0000 0000 0000 0000
000001e0: 0000 0000 0000 0000 0000 0000 0000 0000
000001f0: 0000 0000 0000 0000 0000 0000 0000 0000
0.0 0.0 0.0 0.0 0.0 0.0 0.0 0.0
0.0 0.0 0.0 0.0 0.0 0.0 0.0 0.0
0.0 0.0 0.0 0.0 0.0 0.0 0.0 0.0
0.0 0.0 0.0 0.0 0.0 0.0 0.0 0.0
0.0 0.0 0.0 0.0 0.0 0.0 0.0 0.0
0.0 0.0 0.0 0.0 0.0 0.0 0.0 0.0
0.0 0.0 0.0 0.0 0.0 0.0 0.0 0.0
0.0 0.0 0.0 0.0 0.0 0.0 0.0 0.0
0.0 0.0 0.0 0.0 0.0 0.0 0.0 0.0
0.0 0.0 0.0 0.0 0.0 0.0 0.0 0.0
0.0 0.0 0.0 0.0 0.0 0.0 0.0 0.0
0.0 0.0 0.0 0.0 0.0 0.0 0.0 0.0
0.0 0.0 0.0 0.0 0.0 0.0 0.0 0.0
0.0 0.0 0.0 0.0 0.0 0.0 0.0 0.0
0.0 0.0 0.0 0.0 0.0 0.0 0.0 0.0
0.0 0.0 0.0 0.0 0.0 0.0 0.0 0.0

action_model._discrete_distribution.branches.0.weight f4 [2, 128]
00000000: 9b8a 823b 6e2e 093c 0c5a 2fbc ef4e af3b
00000010: 4a12 143c 57fe 1f3c 7380 b23a 5353 7fbb
00000020: d5b2 393c a039 7eba 9756 933b 1f20 81bc
00000030: 3930 3cbc a109 a23b 1978 103c 529e 643c
00000040: 807f 4fbc 2f7b c1b9 ca0a 333c 8d85 3a3c
00000050: 8f82 10bc bdff 163b 8725 62bb 4080 80bb
00000060: 907a f8ba b8bd b63b 4d62 e2bb 3c04 9dbb
00000070: d7db 1dbc 2d0b dbba 7aa6 fabb 074f 2b3c
00000080: 02d7 c7ba 8dfb 1dbc 4bfd 70bb f2c3 7e3b
00000090: 8ffd af3c 8732 22bb fbd0 993b fb09 d7bb
000000a0: 638c d83c 8395 733c ff0e 99bb 51fc a13b
000000b0: bc21 bdbb 8ad5 5bbc 95cf eabb 0bbe 39bc
000000c0: 3d8c e0bb eeaa 913c c40e 13bc 7fde 90bc
000000d0: 230e 11bb 1aff c3bb d60d 13bc 3083 3ebc
000000e0: abeb ce3b 3314 4439 ef18 463c 0f1b 103c
000000f0: 6bc1 83bb fb81 78ba f3eb 313c dfb2 c93a
00000100: e37b 26bc 187a ffbb fbc7 c03b 6645 44ba
00000110: 9647 08bb 0444 243c 1040 a0bb 1775 c1bb
00000120: 6713 d9bb 2f13 a3bc d9f8 2a3c 456f 3a3c
00000130: 1fe9 b1bb 5a7b 68bc cacd 78ba eaa4 5e3b
00000140: 938f bbbb 6731 66bb d7aa 70bc 9c98 0f3c
00000150: 482e 43bb a025 bcbb b38a 9ebb 4519 b5bb
00000160: d8fd 33bc 0d0b 323b 1582 88bc 820e 4e3b
00000170: cf73 67bb dbb3 83bc 0962 90bb 8e94 31bc
00000180: 32c0 a8bc e1f9 11bc 48da 793b 8d3a 9f3b
00000190: 4a33 863b 047a 31bc 9331 0ebc 0f0d e0bc
000001a0: 2920 353b 7a8a aebb e33e a7ba fc6b 9ebc
000001b0: 4a85 ed3b 2e97 a03b a729 6a3a b220 cb3b
000001c0: ef64 9f3b 6acf 873b dd46 f23b bde4 5f3b
000001d0: 861d 0bbc 60b0 e03b 6805 1abc bbb4 9ebb
000001e0: 1bd1 0bbc 4569 5ebc e54c 043c 0a35 9839
000001f0: ec6b af39 1d62 fcbb c333 173c 22f5 eb3b
00000200: eb33 9c3b 9eb4 b7bc 6b14 af3b a182 2bbb
00000210: 3093 f5bb 7792 3a3a 0d83 8d3b 5ccf a33c
00000220: 43e1 93bb 5a8b 0c3b 986a f53b 4d76 d13b
00000230: 0ab6 b6bb 5b89 32bc bb6f 81bc 8058 8a3b
00000240: 67e6 473c 0a61 4f36 7048 9bba 7731 f1bb
00000250: 438f ba3b ad20 523c a2af da3b 88f9 d6bb
00000260: 72f8 283c 634b b23a f64f 44bc 30a4 44bc
00000270: 3a57 79bc 32df 803c 084a 2d3c 1b42 d439
00000280: b2f7 5e3c 7839 03bc 57aa bebb a435 b3bb
00000290: fc68 183c e3eb 51b9 bd96 f6bb cb05 0cbc
000002a0: afc1 80ba da58 893a 68db 80bb 4b0c 3b3b
000002b0: 599d 28bc ef54 4cbb ea62 143b 3e30 883b
000002c0: a4ca b7bb 3362 ad3b dbca 173c c15b b33b
000002d0: daf2 53bc 1097 e13c 7f02 ed3b 2ab5 17bb
000002e0: 5359 443c f57a 59bc adf8 7e3b 2031 e9ba
000002f0: 8f0f 4e3c 83d9 563b d03e d83b 3228 843b
00000300: 5228 753c bf6e 083c 0387 373c 9881 17bc
00000310: dae6 c73b 0977 903a 27e8 ffbb 7edc b23b
00000320: e097 603b 96df 03bc 3466 2bbc cdd8 2fbc
00000330: a74b bdbb 8f9c 0fbc 206c f7b8 3b5e 293c
00000340: 61e0 33bc c5fb d83a 9b50 2b3b b5f7 7a3b
00000350: 13d8 a6bb 6a54 c6bb 88f4 253c 0b2b 5e3c
00000360: 054f 53bb 50e0 a93c 77f5 0b3c 5d5f 6db9
00000370: 5956 c0bb 6f4a cfbb 3f5d 0fbc d38f 453b
00000380: cf21 923c f21d 203c b246 deb9 76b8 a3bc
00000390: 2345 cdbb 3f6f 9d3b ca15 43bc 87a3 f73b
000003a0: 1f1e b4bc ea06 533c 53f4 d03a 4640 b93b
000003b0: dd75 f03a e743 5d3c e81d 88ba b7bd 453c
000003c0: 8631 9d3b 3f76 023c 9f44 103b f8a4 b33c
000003d0: f2e1 a4bb 309e f3b9 e0d7 a33a df70 24bc
000003e0: bb37 cf3a 85fb 0aba 4d55 033b 091b 84b9
000003f0: 2f07 2b3b 02e9 8cbb 13ab 8b3b f811 09bb
0.003983808 0.008372886 -0.010702621 0.005349986 0.009037564 0.009765229 0.0013618603 -0.0038959577
0.011334141 -0.0009697918 0.0044964063 -0.015762387 -0.011486107 0.0049449955 0.008817696 0.013953762
-0.012664676 -0.00036903608 0.010927865 0.01138438 -0.00882019 0.0023040615 -0.0034507231 -0.0039215386
-0.0018957425 0.0055768155 -0.006908691 -0.0047917645 -0.009634933 -0.0016711705 -0.00764924 0.010455853
-0.0015246572 -0.009642494 -0.0036772068 0.0038874117 0.02148321 -0.0024749355 0.004694102 -0.006562469
0.02643413 0.014867189 -0.004670977 0.0049434085 -0.0057718437 -0.013417611 -0.007165859 -0.011336814
-0.006852655 0.017781701 -0.008975688 -0.01768422 -0.002213367 -0.005981338 -0.008975467 -0.011627957
0.006314715 0.00018699541 0.012090906 0.008795514 -0.00402086 -0.0009479818 0.010859477 0.0015388391
-0.010161373 -0.007796537 0.0058832145 -0.0007487148 -0.0020794622 0.010025982 -0.0048904493 -0.005903851
-0.0066246274 -0.019906608 0.0104353065 0.011379068 -0.0054294015 -0.014189566 -0.0009491114 0.0033972808
-0.0057239025 -0.003512466 -0.014689169 0.008764412 -0.0029782224 -0.00574179 -0.0048383116 -0.005526694
-0.010985814 0.0027167231 -0.01666359 0.0031441753 -0.003531683 -0.016076973 -0.004406218 -0.010838641
-0.020599458 -0.008909673 0.003812449 0.0048592747 0.0040954696 -0.010832313 -0.008678812 -0.027349977
0.0027637577 -0.0053265663 -0.001275983 -0.0193386 0.0072485553 0.0049008345 0.0008932598 0.006198966
0.004864327 0.0041445987 0.0073937015 0.0034163438 -0.008490926 0.006856963 -0.009400703 -0.004843322
-0.008533741 -0.013574903 0.008074974 0.00029031216 0.0003345901 -0.0077021257 0.00922865 0.007200853
0.0047669313 -0.022424992 0.00534301 -0.002617039 -0.0074943528 0.0007117162 0.004318601 0.019996338
-0.0045129373 0.0021445365 0.0074895136 0.0063922764 -0.0055759 -0.010897006 -0.015800348 0.004221976
0.012200928 3.0901888e-06 -0.001184715 -0.007360633 0.0056933477 0.012825173 0.006673769 -0.006560508
0.01031314 0.0013602789 -0.011981955 -0.012002036 -0.01521855 0.015731428 0.010576732 0.00040485043
0.01360886 -0.008009307 -0.005818646 -0.005469041 0.009302374 -0.00020019668 -0.0075252936 -0.008546303
-0.0009823347 0.001047875 -0.0039324053 0.0028541263 -0.010291421 -0.0031178554 0.0022641965 0.0041561415
-0.0056088734 0.0052912473 0.009264673 0.0054735844 -0.012936318 0.027537853 0.0072329636 -0.0023148754
0.011984187 -0.013273944 0.0038905547 -0.001779113 0.012576952 0.0032783456 0.0065992847 0.004033112
0.014963226 0.008327185 0.011201623 -0.009247206 0.0061005177 0.0011021803 -0.007809657 0.0054584136
0.0034270212 -0.0080489125 -0.010461379 -0.010732842 -0.0057768407 -0.008765354 -0.00011798018 0.010337408
-0.010978789 0.0016554525 0.0026140574 0.0038294618 -0.005091676 -0.0060525434 0.010129102 0.013560067
-0.0032243144 0.020736843 0.00854241 -0.00022637607 -0.0058696684 -0.006326012 -0.008750259 0.003014554
0.017838387 0.0097727645 -0.00042395812 -0.019985419 -0.0062643453 0.0048045213 -0.01190705 0.007557336
-0.02198702 0.012880066 0.0015941955 0.005653414 0.0018345673 0.013504959 -0.0010384889 0.012069157
0.0047971634 0.007962762 0.0022013558 0.02192925 -0.0050318176 -0.0004646643 0.0012500249 -0.010036676
0.0015809456 -0.00053017616 0.0020039857 -0.00025197145 0.002609681 -0.0043002376 0.004262337 -0.0020915251

action_model._discrete_distribution.branches.0.bias f4 [2]
00000000: 0000 0000 0000 0000
0.0 0.0

49 f4 [2]
00000000: aaa6 d73f cef9 1b40
1.6847737 2.4371219
