results/flappy_genetic_5/FlappyBirdAgent.onnx (onnx, 534229 bytes, 10 tensors)

network_body.observation_encoder.processors.0.normalizer.running_mean f4 [2]
00000000: 1a5c 40c5 3b66 8cc2
-3077.7563 -70.19967

network_body._body_endoder.seq_layers.0.weight f4 [256, 2]
00000000: 0f4e 85bf d19b 963f 8514 e9be 3114 f63e
00000010: 5ef0 4dbf ad42 303e 2a2a 0a3e c499 25bf
00000020: 7aea 393f 0aaf 1340 4b45 f5be 3cf6 84be
00000030: 56a0 a3be 85a0 5b3e d284 063f 86a3 623f
00000040: 2f75 65bc 31d0 133f aef2 c23f 7708 67be
00000050: 057b 1bbe 2a9f 303f 7550 043f 5655 5dbd
00000060: 3a66 87bf f791 453f bab6 c1bd b06d 5d3e
00000070: 518e a43f d47b 253f dceb d3be 6736 a03e
00000080: d1fd 4ebf 6dc0 333f bb6e 803e c27b 66bf
00000090: 3673 1d3f 4a9c a63f 0d9a 9b3f 98a4 a03e
000000a0: 6333 b1be 6a49 9f3d 15e3 673f e895 64bf
000000b0: 9cff 583f 2224 0e3f f376 94bf 0b32 43bd
000000c0: 8811 e7be 1dd2 6d3f 9cd3 ad3f 147b b2bf
000000d0: d111 63be cc21 0fbf 1dce 17be c9ff 52be
000000e0: ddaa 34bf 0701 58bf 40a1 c9bd 75b9 4c3f
000000f0: f7a0 9abf 2fd5 d1bd c0e9 7c3f c8aa 56be
00000100: 1416 2d3e 41c9 613f fe13 bc3e 5c3e f63e
00000110: 8117 183d e1a0 3ebf eda6 a83f a184 70be
00000120: cf70 45bd 6485 75bf c131 aebe 9fb4 423f
00000130: e547 c83f a87e 863e 3f19 ccbf 4d20 513d
00000140: 5a0a 863f f899 2e3d e119 98bf 398a 013f
00000150: e0e7 69bc 7817 b63e c4dc c5be 6e31 a6be
00000160: c34c 913f 107b c2bf 8215 7c3f 620f 023f
00000170: 47a1 9cbf 32a9 6fbf c32f dd3e d659 01be
00000180: 4229 893e d5ee 393e c2a2 54be 94d1 663f
00000190: e574 bcbf 59f5 983f 2c73 f9bf 4980 66be
000001a0: cfa9 83be 6c84 3dbe bfdb 5dbf 226f 7cbe
000001b0: c45b 6fbf b244 4ebe d73b 0ebf 2992 07bf
000001c0: 8d60 babe 65fc 15bf 9bfc c1bf fe14 b0be
000001d0: 81e3 d53e b0a7 723e 685f fbbf 8eb6 8bbf
000001e0: ca58 3ebf 6724 893f 83fa babd fbd3 273f
000001f0: 69fd 03c0 1f34 0abf 1386 293e 1d0d 543f
00000200: 4f01 4dbf e850 acbe 32a6 483d 9312 6c3c
00000210: 165b 3cbe 6ebc 48bf dba3 443e 0d0b bcbd
00000220: 340c d9be fbea 0abf 82ad a6bf bf83 98be
00000230: f076 f9be d0a1 913b 0a80 c63e 9dd8 37be
00000240: 7339 993e 862e 1abf 225b 603b a00e b03e
00000250: 7158 683f fe08 4dbc 2a7b 80bf bb78 0ebf
00000260: 0e07 5ebd b4ef a0bf 113b b6bd 2616 753f
00000270: 3d91 723d 1d88 e43f 5326 9a3e 283c 9c3e
00000280: a865 e9bd 5ab1 513e f330 413f 0baa a83f
00000290: aea2 dfbd 3b32 28bf 226c 81bf 16e5 48bf
000002a0: e852 2bbe ea69 6cbe 97f7 a1be d6f8 2b3f
000002b0: ac3b 753e ca81 0f3f 0bc2 063f 9b4c 59be
000002c0: 1682 7e3e cf3f e9be c767 6ebe 28c5 12bf
000002d0: 2538 e1bd 3c3d 483f 5784 30be 96f0 27bf
000002e0: 5bca 3f3e ce65 b03f dcb6 37bf 7b13 21be
000002f0: 5034 b63e 2ed7 bd3e 8356 9bbf a55e 2f3e
00000300: a50b 673e a0d3 d33e 2b34 b1bf b203 223c
00000310: 262f e1be bc19 35bf 4a51 c93e 82ce f9bd
00000320: 758c 30be 497d f43e b96d 2f3e 17a6 513d
00000330: f022 4c3e 2364 4ebe 0cb0 2e3f 53d0 4b3e
00000340: a2fe 4ebf 6703 8cbe 0680 b13e 4ee1 4bbe
00000350: 2810 22be 5338 febe 7130 2d3d 8387 20bd
00000360: 7192 7fbf d7d4 353f 2b75 e4be 9c8c 8a3f
00000370: dab9 6dbf a2f2 87be 0925 873e ca67 9e3f
00000380: 1f54 3e3f ca55 f2be 3099 bcbb 9537 63be
00000390: 253c 0d3d ab66 a43f 8cf2 24bf 9e6a dc3f
000003a0: d95f b9be c780 13bf 3df0 b6be 197f 103e
000003b0: 8c15 023f 807e 913f 77e9 523f 2cfe 21bf
000003c0: a57b c83d c590 54bf 4041 3cbf fa5f 8bbf
000003d0: 7e7f cb3e e3e0 923d edbc bf3e 14f2 f13f
000003e0: 0861 873f 6f99 a53e 2240 a7bf e1da cf3e
000003f0: 93a9 ad3e ea62 09be d265 213f ae0c a1bf
-1.0414447 1.1766301 -0.45523468 0.4806228 -0.80444896 0.17212935 0.13492647 -0.6468775
0.7262341 2.3075585 -0.4790443 -0.25969112 -0.31958264 0.21447952 0.5254642 0.88530767
-0.0140049895 0.5773955 1.523031 -0.22561823 -0.15183647 0.68992865 0.5168527 -0.05403646
-1.0578072 0.7717585 -0.094586805 0.21623874 1.2855932 0.6464207 -0.41390884 0.31291506
-0.80856043 0.70215493 0.2508448 -0.9003259 0.6150392 1.3016446 1.2156388 0.31375575
-0.34609517 0.077776745 0.90580875 -0.8929124 0.8476503 0.55523884 -1.15988 -0.047655147
-0.45130563 0.9289873 1.3580203 -1.394381 -0.22174765 -0.55910945 -0.1482472 -0.20605387
-0.70573217 -0.8437657 -0.09845209 0.79970485 -1.2080373 -0.1024574 0.98794174 -0.20963585
0.16902953 0.88197714 0.36734003 0.4809445 0.03713179 -0.7446423 1.3175942 -0.23488094
-0.048203286 -0.9590666 -0.34022334 0.76056856 1.564694 0.26268506 -1.5945204 0.051056195
1.0471909 0.042627305 -1.1882898 0.50601536 -0.014276475 0.3556478 -0.38644993 -0.32459587
1.1351551 -1.5193806 0.9847032 0.5080472 -1.2236718 -0.93617547 0.43200502 -0.12631926
0.2678929 0.18157513 -0.20765212 0.9016354 -1.4723173 1.1949874 -1.9488273 -0.22509874
-0.2571549 -0.18507546 -0.8666343 -0.24651769 -0.934994 -0.20143393 -0.5556006 -0.529574
-0.36401787 -0.5858825 -1.5155214 -0.34391016 0.41775134 0.2369678 -1.9638491 -1.0915086
-0.7435423 1.0714234 -0.091298126 0.6555783 -2.062342 -0.5398578 0.16555052 0.8283251
-0.8008012 -0.33655477 0.04898662 0.014408725 -0.18394122 -0.7841252 0.19203131 -0.09181795
-0.42392123 -0.542648 -1.30217 -0.29788014 -0.48723555 0.0044443384 0.3876956 -0.17953725
0.29926643 -0.6022724 0.0034234007 0.34386158 0.9075995 -0.012514351 -1.0037587 -0.5565297
-0.054205947 -1.2573152 -0.08897985 0.9573692 0.05922054 1.7854038 0.30107364 0.30514646
-0.113963425 0.2047781 0.75465316 1.3176893 -0.109197006 -0.65701646 -1.0111125 -0.7847456
-0.16730845 -0.23087278 -0.3163421 0.6717657 0.23948544 0.5605742 0.52639836 -0.21220629
0.24854311 -0.45556495 -0.23281775 -0.57332087 -0.10997037 0.78218436 -0.17237984 -0.6560148
0.18729536 1.3781068 -0.71763396 -0.15730087 0.35586786 0.37078232 -1.2135776 0.17125948
0.22563036 0.41372395 -1.3844045 0.009888576 -0.43981284 -0.7074239 0.3931983 -0.12197591
-0.1724108 0.47751835 0.171317 0.051183786 0.19935203 -0.20155387 0.68237376 0.19903688
-0.8085729 -0.27346346 0.34667987 -0.19910166 -0.15826476 -0.49652347 0.042282525 -0.039191734
-0.99832827 0.7102789 -0.44620642 1.082416 -0.9286171 -0.26552302 0.26395443 1.2375424
0.7434711 -0.47331077 -0.005755566 -0.22189172 0.034481186 1.2843832 -0.644326 1.7220037
-0.36205938 -0.57618374 -0.35730162 0.14110984 0.5081413 1.136673 0.8238749 -0.6327846
0.09789208 -0.830334 -0.73537064 -1.0888665 0.39745706 0.071718 0.37448826 1.8902001
1.0576487 0.32343623 -1.3066447 0.4059668 0.33918437 -0.13416639 0.6304599 -1.2581995

network_body._body_endoder.seq_layers.0.bias f4 [256]
00000000: 5a5f 9e3b b2d8 92bb 6e0c 113b 8749 cc3b
00000010: f96e c13b 7e36 8cbb 7b68 c23b c3c1 053c
00000020: ced3 003c b75e fb3b 435b 153c 718b 7bbb
00000030: dc2e f93b 1d0e 133c 5c85 133c 80b3 8bbb
00000040: 93ad afba c346 6fbb 0808 1e3c 4e13 083c
00000050: f4d2 2bbb ae0a 803b 6dd5 123c d95b 11bc
00000060: f35b b1bb a02a 5b3b 9536 70bb d951 e0ba
00000070: 4697 28bb e801 eb3a bd02 76bb 26c6 1abc
00000080: f6c7 0f3b 8f17 023c 3391 adba 2128 f83b
00000090: e03d 58bb 34db 1c3c d3df 0c3c bf27 62bb
000000a0: 2c12 0b3c 9472 bcbb a293 0a3c 5c52 7dbb
000000b0: 5dd2 57bb cc94 fd3b 2515 22bc 605a 2ebc
000000c0: e505 f53b 11af 1e3c 2a22 d73b 0494 24bb
000000d0: bdbb 1a3b 1e27 dbba d2b2 1cbb 97d3 2dbb
000000e0: 7a20 1dbc 33f5 c4bb 0fd8 743b 5d88 faba
000000f0: 0a9d 173c 0edc 1c3c d069 12bc 0205 08bb
00000100: 8341 ccba dffe c6bb f077 f9bb 27a9 03bc
00000110: 03e0 44bb a2f5 89bb 1c0c 0f3b 4715 03bc
00000120: 19e9 80bb 70b2 cbbb a125 083c d34b aebb
00000130: 0f78 abba 7e44 aa3b ffb1 173c f303 1d3b
00000140: 83bd 5abb 8f5f 1a3c 5ff0 4f3a 93e5 12bc
00000150: 8bbb d9bb 881e 9439 1dd5 133c c2f2 e93b
00000160: 0391 a2b9 5651 8dbb 4ff5 dd3b d1a5 07bb
00000170: e0ec 1d3c 6310 89bb 1dac 2ebc 584d cebb
00000180: d92d 163c 04ad 7abb 107b b6bb f5b5 ef3b
00000190: f35d 1d3c be71 bb3b 2042 dc38 0acb e13b
000001a0: 7627 33b7 7e15 043b 4828 5438 58ef 2e3b
000001b0: 06c4 91bb e24f 72bb 15eb e3bb 81c6 163c
000001c0: daa7 9fbb e2e7 f4ba 83e8 4bb9 c810 113c
000001d0: af29 fcba 6662 7d3b 13f1 9ebb aab9 ccbb
000001e0: 4d21 b9ba 8d0d e43a bae8 183c 69eb c53b
000001f0: c5bc 79b8 53aa 813b 0bfc dabb 87cb 08bb
00000200: 6089 a1b9 c88a 903b 059a 523b aa14 f8bb
00000210: 4438 ff3b 11bf 14bb b516 103c 6b41 eabb
00000220: 25f9 06bc 16af e7bb e532 d0bb 04fb 833a
00000230: 41ab 433b ed95 003c e1cd aaba 6f1e 163c
00000240: f8a4 9abb 3be2 f13a ac6d de39 80a8 183c
00000250: 9921 a6bb e32f 0e3c 2055 f9bb 6e61 3cbc
00000260: d94f 5abb 8a19 c83b 2adf 27bc 6a49 023c
00000270: da45 a7bb 89d8 2a3a 6142 73bb a8b4 4cbc
00000280: 89df 013b b979 723b 63d9 d7bb f9c8 dcbb
00000290: dd0e e6bb e686 0dbb 4ef3 0b3a 6ab3 9ebb
000002a0: 10f7 603b 878b 2abc cd42 a5bb 3492 4cba
000002b0: 52cf 0d3c 1187 7b3b bcd3 ac3a 0f4f 163c
000002c0: 79bb feba cc13 c43a 042e 04bc c339 9bbb
000002d0: 727f 2cbb c66f 3bbc 2035 013c 7081 8cbb
000002e0: 60b7 d23a 594b 31bb 00a2 183c c94d 7d3b
000002f0: ec41 e239 bba1 d23b e344 e0b9 8b5a 123c
00000300: 9b83 85bb bab4 0f3c 6f0a e33b e86d 8c3b
00000310: 6c42 6cbb 3f93 e5bb 6774 403b bc1a 40bb
00000320: bbfd 9b3b dad6 373b 8ca9 1a3c e586 c13b
00000330: 820e 603a 91c4 8b3b 0ebf 70ba 4caf 9b3b
00000340: f9dc 273b 1aa2 18bc 48bc 82bb 295a 0d3c
00000350: 0e8a 843a d6c0 bbb9 5305 0b3c 528a a339
00000360: 8ea1 9f3b 1b33 f8ba 767a 8fba 7b89 d23b
00000370: 9abb 183c 26bd 0c3c 9c13 133c 5a80 093b
00000380: f37f c8bb 67cf 02bc 34be cbbb 1bc5 0f3c
00000390: d638 1abc 0962 0c3b dc6a 123c 424e 883b
000003a0: 0f6c 04bc f6c1 163c ef6d 62bb c158 83bb
000003b0: 7d0a fb3b 08b5 853b 079a 0d3c 60d1 723b
000003c0: a6ec 02bc 2b0e 9d3a 0727 a03b f63c 17bc
000003d0: ce14 1abc 8330 d7bb 92d8 f0bb aa61 f1bb
000003e0: 3f5c 20bb 218d 0e3c fcf3 19bc ac14 38bb
000003f0: c6d7 183c 4618 a8bb a7bd feba 4a87 133c
0.004833144 -0.0044813985 0.0022132653 0.006234351 0.0059031215 -0.004278957 0.005932865 0.008163872
0.007862998 0.007671203 0.009115997 -0.0038382674 0.007604463 0.008975533 0.009003963 -0.0042633414
-0.001340317 -0.0036510683 0.0096454695 0.008305384 -0.0026218267 0.003907523 0.0089620175 -0.008871996
-0.0054125725 0.0033442155 -0.0036653627 -0.0017114236 -0.0025724932 0.0017929645 -0.0037538253 -0.009446656
0.0021939254 0.007940187 -0.0013242125 0.007573143 -0.0032995865 0.0095737465 0.008598286 -0.0034508554
0.008488219 -0.0057509635 0.00845805 -0.0038653826 -0.0032931783 0.0077386852 -0.009892737 -0.010641664
0.0074775093 0.009685294 0.006565352 -0.0025112638 0.0023610436 -0.0016720032 -0.0023910296 -0.0026523822
-0.009590263 -0.0060106753 0.0037360226 -0.0019114126 0.00925375 0.0095739495 -0.0089363605 -0.0020754938
-0.0015583489 -0.0060728635 -0.0076131746 -0.0080359345 -0.0030040748 -0.00421019 0.0021827286 -0.008000678
-0.0039340374 -0.0062163398 0.008309753 -0.0053190975 -0.0013082045 0.005196153 0.009258746 0.0023958653
-0.0033377118 0.009422197 0.00079322414 -0.008965868 -0.0066446713 0.00028251507 0.009022978 0.0071395347
-0.0003100709 -0.0043126745 0.006773628 -0.00206982 0.009638995 -0.0041828617 -0.010661152 -0.006295841
0.009166204 -0.0038250098 -0.0055688694 0.007315392 0.009604919 0.0057203462 0.00010502734 0.006890659
-1.0678419e-05 0.0020154412 5.0582254e-05 0.0026692953 -0.0044484166 -0.0036973883 -0.006955514 0.0092026
-0.0048723044 -0.0018684829 -0.00019446206 0.008854099 -0.0019238497 0.0038663386 -0.0048505156 -0.006247719
-0.0014124304 0.0017399058 0.00933283 0.006040026 -5.954203e-05 0.003957072 -0.006682878 -0.0020873265
-0.00030810665 0.0044110753 0.003213526 -0.0075708227 0.00778869 -0.0022696892 0.008794476 -0.0071489117
-0.008238112 -0.0070704324 -0.0063537234 0.0010069315 0.0029856714 0.007848245 -0.0013031327 0.009162529
-0.004719373 0.0018454263 0.00042424852 0.009317517 -0.005069923 0.008678409 -0.0076090246 -0.011497838
-0.0033311753 0.00610656 -0.010246078 0.007952074 -0.0051047625 0.00065172516 -0.0037118422 -0.012494244
0.0019817075 0.0036998822 -0.006587194 -0.006737825 -0.007020815 -0.0021595298 0.00053386844 -0.004843165
0.0034326948 -0.0104092425 -0.0050433637 -0.00078037684 0.008655386 0.0038380066 0.001318566 0.0091741225
-0.0019434533 0.0014959513 -0.008067612 -0.0047371103 -0.002632108 -0.011440223 0.007886201 -0.004287891
0.0016076379 -0.0027052967 0.009315968 0.00386511 0.00043155195 0.006427971 -0.00042775934 0.00893272
-0.0040745265 0.008771116 0.006928734 0.004285563 -0.0036050333 -0.0070060785 0.0029366256 -0.002931281
0.0047604716 0.0028051645 0.009439837 0.0059059733 0.00085470837 0.004265376 -0.0009183743 0.0047511216
0.0025613888 -0.009315992 -0.00398973 0.008627453 0.0010111944 -0.00035811093 0.008485156 0.0003119284
0.0048715537 -0.0018936129 -0.001094653 0.0064250804 0.009322071 0.008590018 0.008976843 0.0020981045
-0.0061187684 -0.007984019 -0.0062177423 0.008775021 -0.009412965 0.0021420738 0.00893661 0.0041597197
-0.008082404 0.009201517 -0.0034550389 -0.004008383 0.0076611624 0.0040804185 0.00864268 0.0037051067
-0.007990992 0.0011982372 0.004887465 -0.009230843 -0.009404374 -0.0065670623 -0.007350036 -0.007366379
-0.0024469045 0.00870064 -0.009396549 -0.0028088493 0.009328788 -0.0051298467 -0.0019435183 0.009004423

network_body._body_endoder.seq_layers.2.weight f4 [256, 256]
00000000: 734f 81bd f421 efbb ee6e 2a3b f9d8 3cbd
00000010: b04c ebbd 9d1d 963d 452c ab3c 5334 bdbd
00000020: 9ca4 60bd 85d9 27bd 566c 483b c626 99bd
00000030: 39af b5bd 4ff0 42bd d1df b7bc a81b 4abd
00000040: 430f 063d d7e9 41be d0d2 483d 51f7 17be
00000050: dcde 163c 6875 bb3c 766c 593d bb93 123d
00000060: 9315 833d ca39 c03d be40 31bd 86d6 d43d
00000070: afe1 02bc dc02 cdbc 07b7 e8bd a20d 63bd
00000080: e13d 0f3d fce4 89bc 0073 5abd d5c5 123e
00000090: c818 b6bd 422a a6bc 5aec 24bb 2741 87bc
000000a0: 3876 f1bb 4ca2 15bd 7a6d 113d 80ab f1bd
000000b0: 0fd7 d5bd e201 d23b 6fe9 d03d 37e3 973c
000000c0: f1a9 95bc 3930 a8bd 81c4 5e3d a653 9ebb
000000d0: 4ad5 8fbc e509 50bd 0baf e13c 0347 28bd
000000e0: f5ad c63d 2a44 15be 936c e03d 0f55 d3bd
000000f0: 3664 6c3d 05d5 dabd 64d0 61bd 083c ac3c
00000100: 083a 58bd 6637 d43c e24b 073c d443 223d
00000110: 87e0 263c e6d9 08bc 9a43 8fbb 2d2e 6b3d
00000120: 3bde 31bd a285 2fbd d1e4 473d b364 233e
00000130: fb0c 9d3d 6a4c 18bc a5ec 5abd cfa1 9f3d
00000140: 7d3c 363d 3f77 e23a dd54 e9bd 43d2 233d
00000150: f659 16bd 6260 eebb 8177 1d38 9dc6 23bd
00000160: d9c1 78bd 4521 f9bd ac4e 0b3d 1111 02be
00000170: cf41 8b3a 854d 813d c49a b7bd e4b9 bc3a
00000180: db4d 503c fe6c 643d d7b0 ecbd 354b 32bd
00000190: 1b40 44bd 90a6 09bd 2d81 11bd d14f 2f3c
000001a0: f702 343d 17e4 4dbc 8d36 e43c b0c5 1a3c
000001b0: a868 d9bd 3a04 c9bd 3f86 6e3b 1436 e1bb
000001c0: a762 bebd 0bd7 77bd c56b e53c 7307 89bd
000001d0: e623 813a 3565 1cbc acca 523c f649 c83d
000001e0: 81db b73d cc39 ea3c 6666 b23b 6e7d 843d
000001f0: 6d80 52bc c7c2 31bd 24ec 37b9 6363 04be
00000200: 9ad0 e03c 98bd 1ebd 89de 46bd f240 2bbd
00000210: 4d87 0dbd e364 6f3c 3f1d c33b 1f42 cc3d
00000220: 00c1 1e3d ed1f e73d 1088 cc3d 0096 a33d
00000230: e7f1 cbbb b9ac 2c3d 64e8 a63d ea59 5abd
00000240: aca8 713c 8ae5 a6bd e16c ae3d c838 f9bc
00000250: da48 a5bc 449e 99bc 87c2 0fbd cafc 0a3e
00000260: 91be 7bbd c126 bc3d feef 353d 7227 3fbd
00000270: 8091 bd3c f00f 013d c341 f8bd 6c25 6cbd
00000280: 116d c7bc fb7c 8f3d 521f 16bc 202b f1bc
00000290: 5b7c b83d 9b7e b43a c9f1 6abc 2ef0 03bd
000002a0: 19f6 94bd d8d1 a73c ea3d e13c d081 db3d
000002b0: 8269 cebd a0ff 523d 1776 2b3e 1d9b 773a
000002c0: cc8f 313d 84b2 c93a 4db1 82bb f26b 543c
000002d0: f705 473d bb1d eebc 12eb 853d 8bff 983d
000002e0: e2e9 afbd c1c8 adbd c6f6 44bc f7eb 343d
000002f0: 3683 773a 5917 9abc dee4 cfbc 6a79 d53d
00000300: b6c0 273d 2038 773c 6e08 fd3c a8d9 bfbd
00000310: c695 3c3c 14c2 94bc 9821 e63d 3658 de3d
00000320: 4573 11bc 96ce b43c 6e59 8a3b b1e9 a3bc
00000330: 0437 503c 8b42 063c 73d1 c7bc 2264 613d
00000340: 4058 18bd 9d9e abbd aa13 b83c d9b3 4c3c
00000350: 2171 c1bd 38e6 9abc 3ef8 743d 5757 39bd
00000360: 4ff5 ccbd 0ab8 1fbd 2c27 743c 0598 f8bc
00000370: 3298 273d 2cd7 cfbc 3502 0d3c 5ece 823d
00000380: 02f5 573d ce1c f9bd a4f9 85bd 0609 863c
00000390: 1471 9d3a 5154 e5bb 9026 c63b e1a5 7f3d
000003a0: 5e64 5a3d adaf 8ebd d44e da3c 2642 eb3c
000003b0: f611 ccbc 2c88 453d 050c dfbd 082e 41bc
000003c0: ed62 22bd a13d 83bd dbda 03be 6da3 263d
000003d0: a413 9cbc 170a 8abb dd5f da3b 2104 e0bc
000003e0: 6933 55bd 1f9c 8abc 6e24 a23d 63c0 d53c
000003f0: 861a 44bc b09e 933c 7d9a 12bd 0830 9e3d
-0.06313982 -0.0072977487 0.002600606 -0.04610536 -0.11489236 0.07329867 0.020895133 -0.09238496
-0.054844484 -0.040978927 0.0030582151 -0.074780986 -0.08871312 -0.047592457 -0.022445591 -0.04934278
0.0327294 -0.18936859 0.04902917 -0.14840437 0.009208407 0.022883132 0.053081952 0.035785418
0.06400599 0.093860224 -0.043274634 0.103924796 -0.0079883775 -0.025025778 -0.11363035 -0.055432923
0.03497112 -0.016832821 -0.05333233 0.1433328 -0.088914454 -0.020283822 -0.002516529 -0.01651056
-0.007368829 -0.03653173 0.035504796 -0.11800289 -0.1044141 0.006408916 0.10200774 0.018540962
-0.018269511 -0.08212323 0.05438662 -0.004831749 -0.017557759 -0.050790686 0.027549287 -0.041083347
0.097011484 -0.14576784 0.10958209 -0.10318958 0.057712756 -0.106851615 -0.055130377 0.021024719
-0.052789718 0.025905322 0.008257838 0.039615467 0.010185367 -0.008352732 -0.0043720724 0.057417084
-0.043424826 -0.04285205 0.0488022 0.15956382 0.076684915 -0.009295562 -0.053448338 0.077945344
0.04449128 0.001727797 -0.113931395 0.039995443 -0.036706887 -0.0072746733 3.7543014e-05 -0.039984334
-0.060731743 -0.12164549 0.034010574 -0.12701823 0.0010624471 0.06313614 -0.08965066 0.0014398661
0.012713875 0.055768006 -0.11557167 -0.043528754 -0.0479127 -0.033606112 -0.035523582 0.010700182
0.04394814 -0.012566588 0.027858043 0.009446546 -0.10615665 -0.09815259 0.0036395935 -0.0068729017
-0.0929616 -0.060507815 0.02800549 -0.06690874 0.0009852618 -0.009545614 0.012865704 0.09779732
0.08977414 0.028592013 0.0054443358 0.06469236 -0.012848002 -0.043398645 -0.00017540209 -0.12928538
0.027443219 -0.03875503 -0.04855207 -0.041809984 -0.03455286 0.014611456 0.005954414 0.09973549
0.038758278 0.11285386 0.09986889 0.079875946 -0.0062239054 0.04215691 0.08149794 -0.053308405
0.014749687 -0.0814925 0.08516861 -0.030422583 -0.02017634 -0.018752225 -0.035097625 0.13572994
-0.061461035 0.09187079 0.044418328 -0.046668477 0.023140669 0.03150934 -0.12121918 -0.057652876
-0.024344 0.0700626 -0.009162741 -0.029439509 0.09008094 0.0013770642 -0.014339873 -0.032211475
-0.07273502 0.020485803 0.027495343 0.10718119 -0.10078718 0.051513314 0.16744266 0.0009445416
0.043350026 0.0015388285 -0.003988421 0.012965189 0.048589673 -0.029066911 0.06538977 0.07470616
-0.085895315 -0.084855564 -0.012021726 0.044170346 0.0009441854 -0.018809961 -0.025377687 0.104235485
0.040955268 0.015089065 0.030887809 -0.093676865 0.011510318 -0.01815895 0.11236876 0.10856669
-0.00887758 0.022071164 0.0042220866 -0.020008894 0.012708429 0.008194576 -0.024391865 0.055027135
-0.037193537 -0.083798625 0.022470314 0.012494051 -0.09445406 -0.018908605 0.059807055 -0.04524931
-0.100077264 -0.038993873 0.014901917 -0.030345926 0.04091663 -0.025371157 0.008606483 0.06387018
0.052723892 -0.12163697 -0.06541756 0.016361725 0.0012011849 -0.0069985767 0.0060470775 0.062414054
0.053318374 -0.06967101 0.026648916 0.028718065 -0.024910908 0.048225567 -0.108909644 -0.01179076
-0.039645124 -0.06408239 -0.12876455 0.0406832 -0.019052334 -0.0042126286 0.00666426 -0.027345719
-0.05205098 -0.016920147 0.07917105 0.026092714 -0.011969214 0.018020004 -0.035791863 0.07724005

network_body._body_endoder.seq_layers.2.bias f4 [256]
00000000: fbad a4ba cb18 75ba f5aa 1a3c d5c8 a0bb
00000010: c703 593a ec6b 133c 3833 04bc 47a2 8d3b
00000020: 4a6c 8f3b 973c 1d3c 7a7e dabb 6dc8 8c3b
00000030: a50a 0c3c df42 cdbb 3e28 fcbb cdd4 73ba
00000040: 1f33 0a3c 8bc1 003b 7995 eabb 0ac0 583b
00000050: 6e23 f53b 7ef9 47bb 9042 dbbb 0cc9 a43a
00000060: 8d4f a93b c77b 57bb 70be 07bb d4bd 8ebb
00000070: e29b f1bb 579d b93a 427d 22bc bd55 fa3b
00000080: 122a d9bb 51b5 043c a102 dcbb 15ab 95bb
00000090: 70b6 6a3a 0dc2 59bb aba7 a1bb 4a08 d0bb
000000a0: 9d14 b2bb 9db2 fd3b 2bcf 45bc 19e6 dfbb
000000b0: ac7e dc3b 1695 89bb 8238 6dbb f702 153c
000000c0: b6ae d8bb d8f2 ab3b 43fd 913b e52b d1bb
000000d0: 60dd 823b 380b f83b 4a8c 013c 7bda e9bb
000000e0: bee0 563b c4d7 0abb 9f47 013c 08a4 743b
000000f0: 8f2b fb39 76d8 c638 a037 fdbb db53 05bc
00000100: 9bdb 083c ca24 e8bb f8b8 093c 6bfb e7bb
00000110: fe0c 71bb 8950 1f3b def4 a93a daaf 183c
00000120: ddcf 833b 1d90 dcbb 5b34 bf3b 6cd6 1ebc
00000130: 3959 7ebb 23d9 f53b b2be 043c 22a6 dcbb
00000140: ea6f 99bb 177c cb3a 9ea9 b6bb ea2c f53b
00000150: 3d8d e9bb 0ac3 09bc 495b bcb9 9aa5 d3bb
00000160: 3b16 fc3b 46f1 cabb 7fca 65bb 5b1b 54bb
00000170: 150b b8bb 3584 98bb 3d59 8abb 8e32 45bb
00000180: f221 c3bb d237 ecbb d2a6 653b cb42 c4bb
00000190: 5d8a 413b 1ecf 8cb9 859a 82ba 1c12 0dbc
000001a0: 016c c23b e644 853a fa73 ba3a 5a23 28bc
000001b0: ee30 9b3a 9676 df3b cc34 173c 83fb a9bb
000001c0: f7cb 98bb e0f4 17bb ec27 e33b 3715 edbb
000001d0: 9021 123c d3fa 84ba fadd b23a 79d6 743b
000001e0: fa2a 1c3c 4196 cd3b 97d9 3139 e03d 93bb
000001f0: 1927 173c 92c5 e4bb eee0 9a3b 1daa 1b3c
00000200: e619 d53b b37b e43b a260 8cbb fe73 693a
00000210: a21a febb 67b4 1c3c 96a8 0c3c 152a ec3a
00000220: b2a7 6a3b 35ff d3b8 ecb1 24bc cb2c e9bb
00000230: 2e8d 503b 99d6 3dbb bbd9 a03b c697 903b
00000240: 3c68 24bb e857 fabb d6bb 8438 dd01 dc3a
00000250: ef28 d6bb 574a c9ba 048f c1bb 010d 0fbb
00000260: c2a9 dabb 5975 153c 59e6 e5bb ab99 81bb
00000270: f26d b9bb 5984 29bc fc4e ceba 8eb1 34bb
00000280: 3132 e1bb b20c 84bb 84d7 d0ba 9948 203b
00000290: 2711 3cb8 da3e 083b 6cd3 c43b 09f9 813b
000002a0: 32e9 ae3b 0be2 f1ba 4d71 c83b e50d cdbb
000002b0: 18cc a53b 74da 03bc ecb3 4d39 0eac 16bb
000002c0: 03e4 cc3b 0640 ea3a 4db4 69bb 181a 3fbb
000002d0: ff6a dcba 69e9 0139 a2ca dabb 073c fa3b
000002e0: 32af c4bb 8b8c 073c d7f9 8c3b 2908 0c3c
000002f0: b263 a3bb 352f b1bb 48e6 bc3b 348e 00bc
00000300: d679 ad3b e6db 743b a648 173c d755 54ba
00000310: b331 7abb 73bd a23a 42f1 15bc 42fc 9b3b
00000320: 444d f03a b301 a5bb e171 1b3c 8500 b2bb
00000330: d65d 173c 1353 2fbb d119 953b 7da3 bfbb
00000340: b010 06bc 7bbc b5bb c4ff 6cba 8b3d 92bb
00000350: a0a2 77bb 7c6e 69bb 9db5 063c 054c 053c
00000360: bf3c 55bb 1283 113c bcea 1dbc 8117 083b
00000370: 423f 9bbb cc08 293a aaca c9bb a821 09bc
00000380: ec51 803b 9037 013c 26e0 dcbb 22fb 1aba
00000390: ef4f a8bb e1b6 01bc d773 aebb b864 173c
000003a0: d257 1a3c 7a2e dd3b ffe7 01bc 8da0 22ba
000003b0: 2b32 103c 8bb0 06bc bb0c 27ba 9455 5bbb
000003c0: 585a 423a a21d a03b 63f7 ddbb c005 8dbb
000003d0: 5fc4 913b 5fa1 88bb 5333 e23b 9ec9 113c
000003e0: 80a7 25bc ccc0 f13b 0d07 c4ba f284 a8ba
000003f0: 8303 4d3b 71e5 2dba 1762 97bb e8ab 103c
-0.0012564057 -0.0009349703 0.009440173 -0.0049067535 0.0008278456 0.008997899 -0.008068852 0.0043223235
0.0043769227 0.009596965 -0.006667909 0.0042963536 0.00854746 -0.006264075 -0.007695227 -0.0009301424
0.00843504 0.001964661 -0.007158932 0.0033073449 0.00748103 -0.00305137 -0.0066912845 0.0012572124
0.005166954 -0.0032880174 -0.0020712875 -0.0043561254 -0.007373319 0.0014161271 -0.009917559 0.0076396153
-0.0066273296 0.00809987 -0.0067141806 -0.0045675137 0.0008953577 -0.0033227236 -0.0049333177 -0.0063486444
-0.005434586 0.0077422396 -0.0120733185 -0.0068328497 0.0067289677 -0.0041986806 -0.0036197011 0.009094945
-0.006612624 0.005247455 0.00445524 -0.0063834065 0.003993675 0.0075696968 0.007906983 -0.0071366406
0.0032787765 -0.0021185735 0.007890611 0.0037329216 0.00047906904 9.481695e-05 -0.0077275783 -0.0081376685
0.008353139 -0.0070844637 0.008405916 -0.007079532 -0.0036781426 0.0024309477 0.0012966653 0.00931927
0.004022582 -0.006731047 0.0058350987 -0.009694677 -0.0038810505 0.0075026914 0.008102106 -0.0067336718
-0.0046825306 0.0015524653 -0.005574419 0.007482161 -0.0071274326 -0.008408317 -0.00035926167 -0.00645895
0.0076930798 -0.006193313 -0.0035063324 -0.0032364938 -0.0056165555 -0.004654432 -0.004222064 -0.0030089947
-0.0059549743 -0.0072088027 0.003504206 -0.0059894077 0.0029531934 -0.00026857195 -0.0009964263 -0.008610275
0.005933285 0.0010167628 0.0014225238 -0.010262335 0.0011840144 0.0068195565 0.009228896 -0.0051874532
-0.0046629864 -0.0023186728 0.0069322493 -0.007235195 0.008919135 -0.0010145552 0.0013646476 0.003735928
0.009531731 0.006274015 0.00016961094 -0.00449346 0.00922563 -0.00698156 0.0047265207 0.009501007
0.0065033315 0.006972754 -0.0042839805 0.0008905529 -0.0077546397 0.009564496 0.008585116 0.0018017913
0.003580552 -0.000101088 -0.0100521855 -0.0071159354 0.003182243 -0.0028967021 0.004908768 0.004412624
-0.0025086543 -0.007639874 6.329238e-05 0.0016785223 -0.0065356414 -0.0015357238 -0.0059069414 -0.002182782
-0.0066730687 0.009122216 -0.007015985 -0.003955086 -0.0056588585 -0.010346496 -0.0015740092 -0.002757165
-0.0068724384 -0.0040298337 -0.0015933369 0.0024457334 -4.4838667e-05 0.0020789416 0.0060066488 0.003966455
0.0053378576 -0.0018454207 0.006117022 -0.00625776 0.0050597303 -0.008047689 0.0001961735 -0.0022990736
0.006252767 0.0017871864 -0.0035660446 -0.002915984 -0.0016816555 0.00012389351 -0.0066769877 0.0076365503
-0.00600233 0.008273254 0.004302244 0.008546867 -0.00498625 -0.005407239 0.0057647564 -0.007846404
0.005294065 0.0037362515 0.009233629 -0.00080999493 -0.0038176596 0.0012416079 -0.009151759 0.004760296
0.0018333574 -0.005035603 0.0094876 -0.005432191 0.009238681 -0.0026752397 0.0045501967 -0.0058483467
-0.00818269 -0.0055461503 -0.00090407976 -0.004462903 -0.003778614 -0.0035618832 0.008222011 0.0081358
-0.0032537428 0.008881347 -0.009638485 0.0020765963 -0.0047377655 0.0006448149 -0.0061581926 -0.008369841
0.003916016 0.007886782 -0.0067405878 -0.00059120555 -0.005136482 -0.007917137 -0.005323868 0.009240322
0.009420352 0.006749925 -0.007928847 -0.00062037335 0.0088010235 -0.008220802 -0.00063724414 -0.0033467757
0.0007413975 0.004886345 -0.0067738756 -0.004303664 0.004448458 -0.0041696276 0.006903091 0.008898167
-0.010110736 0.0073777195 -0.0014955715 -0.0012857004 0.003128261 -0.00066336157 -0.0046198475 0.008830048

network_body._body_endoder.seq_layers.4.weight f4 [256, 256]
00000000: 41a2 3a3c 21f6 cc3c 1c83 fdbc 37fb 053d
00000010: 147f 13be 4149 c1bd d77d 99bc 019b d6bd
00000020: 687f b23d 5328 2fbd d724 113d 4604 c13c
00000030: 4971 0fbb 32ef 25bd 5892 07bd dec6 663d
00000040: eb01 16bd 4930 8cbc 57cd 433d 670c 6d3d
00000050: 272e 2bbd a706 663c bb9c a9bc 7bc0 643a
00000060: 02c0 6cbd 2079 8bbb 0b6b c9bd 378e 60bd
00000070: 984e 213b daa9 7bbb 53e3 22bd e47b cf3d
00000080: 0d9e 04bb 12df 57bd c6d5 05bd 7685 0cbc
00000090: e7e9 813d 3db9 213d f18d 573d a142 6dbd
000000a0: 0623 1bbd 84c3 34bd 240c 2e3d e626 adbc
000000b0: 321d 7d3d b1c7 b3bd 10f7 b53d 9f82 23bd
000000c0: 7fe0 a3bd 4711 29bd 1bc2 4f3d 9b4b 043d
000000d0: 463f b0bc a5b6 54bd fd7c eebd 0b81 6b3d
000000e0: 7cba f43b 6a1a 42bd 014c cd3d 61ff de3d
000000f0: d9c2 023e 6200 ecbd 3fda a0bc 810f 083d
00000100: 2675 c7bd c623 36bd 2257 a93b 2208 94bd
00000110: aec0 0cbd 7915 10bc 7043 173c f609 acbd
00000120: 2ff5 913d 0dba a03b adfd 2c3d 00e9 16bd
00000130: 711a 9d3c 538f 0ebe 540e 83bd 1ba3 b3bd
00000140: ecce 463a 9708 783d bed4 a43d 66d1 bdbd
00000150: 76f2 a63b 7295 163c 6738 e5bc 81ba 59bd
00000160: b7a0 4fbc 3b7f 00bd 9255 82bc 8755 6abd
00000170: fa5d 61bd 2869 34bd d4b4 ba3b e703 c13d
00000180: fba0 b9bd cb5e 79bd 6a52 ddbd a541 65bd
00000190: eeb2 0cba 2c3b 87bd 672a a43c f674 16bd
000001a0: dafa 9fbc 65f7 f3bc 93dd d5bd c19d ce3d
000001b0: 4441 893c 51cf f5bd c704 093c 92fc 4a3c
000001c0: 24b3 963d bb1a 4b3d f992 8e3d 06d0 c8bd
000001d0: c294 3cbd b084 74bd 33f5 f8bd 05ce 683d
000001e0: 68a3 5a3b 87de bbbd dd3c 4a3d e0aa 84bc
000001f0: 2b5f 213d a6d5 cc3d cd44 00be 1a6a 833d
00000200: 1c0f 82bd b1b3 cfbd ee91 bd3c afdb 183e
00000210: 8acf 9e3d d40e 9b3d c2ed 27be 1310 543c
00000220: e745 b4bb 2a96 03be d06e 4f3d 883a 073d
00000230: 1999 94bd 615f 7cbd 1a98 3dbd 1adf 67bd
00000240: 2c6a a13d 7f74 443d 31c3 d4bb b963 eabc
00000250: 7cda 8bbd 65c9 26bd f5b8 d73d 2b5e 06bd
00000260: 7606 56bd f6ab c0bd 2420 6a3c e6ee c2bb
00000270: cd3a f83d 683a bbbc c20a 5cbd 67fe b4bd
00000280: 2422 c8bc 71a5 0ebd d9a4 e7bd 4dc4 bbbd
00000290: 3bc0 083c 2dbb 93bc 6fee 7cbd 5c5e 8c3c
000002a0: 76e1 a83c a0d7 45bc da5d 6abe df00 0a3a
000002b0: 6546 603c 6b08 993d 8657 19be 84f1 33bd
000002c0: 7975 e4bd bd8b 0cbd 4438 593d 98ab 9d3c
000002d0: 31bf 543d e4f8 d6bc 819e 253d 34b9 25be
000002e0: c789 153d 0886 283d 1f97 973d 439a 203c
000002f0: 7658 d93d 66c6 f63d 03b0 c4bd 5805 cb3d
00000300: 3313 80bd 99e9 2bbd 1f75 29bc f4e9 923d
00000310: aaf8 7bbd 584e a03d 6825 c23c f4c0 bebd
00000320: 5899 213d 4312 96bd 9931 933c eee3 693d
00000330: 6819 61bd 6267 cbbc dd58 113c edeb cc3b
00000340: b372 85bd 2191 2c3d 9cd3 ffbc 304f 013b
00000350: 28f3 353d 2476 efbc a5aa 77bd 92ae 1dbe
00000360: a7eb 953d cbdd 883d dce7 26bd 392e d1bd
00000370: 7e1b b0bd cd5c a03b 19e6 063e b54d 8c3d
00000380: 8f99 98bc 680e 01be 5d5b 9c3d 6e5e d73c
00000390: 912f bdbc 4ad5 70bd 318b b4bc 9ee9 a13d
000003a0: 2d9c 18bd 6a6e d7bd 43f7 093d 26ee 643b
000003b0: 28e5 b2bd 7981 51bd 8a5b 73bc f887 703d
000003c0: b1d3 a53b 3095 f33c aad5 953c 1fa4 743c
000003d0: 25b7 5b3d 031a 213d 6629 2abd c53e 85bc
000003e0: a672 2bbc 6e0d e1bc e297 1abd 703d 1fbc
000003f0: 033a 6b3c ecf1 7abd 8df1 0bbd a6c8 b7bd
0.011391223 0.025019707 -0.030946307 0.03271028 -0.14403945 -0.094378 -0.018736763 -0.104787834
0.08715707 -0.042763066 0.035435524 0.023561608 -0.0021887592 -0.040511318 -0.03309855 0.056342
-0.036622923 -0.017112868 0.04780325 0.057873156 -0.04179206 0.014039672 -0.020704618 0.00087261916
-0.0578003 -0.0042563826 -0.0983487 -0.054823127 0.0024613496 -0.00384008 -0.039767575 0.10131052
-0.0020235807 -0.05270297 -0.032674573 -0.008576741 0.063434415 0.039483298 0.0526256 -0.05792487
-0.037875198 -0.04413177 0.042492047 -0.021136712 0.06179542 -0.087783225 0.08885014 -0.03991949
-0.080018036 -0.041276243 0.050722223 0.032298665 -0.021514546 -0.051931996 -0.116449334 0.05749611
0.0074685197 -0.04738847 0.10024262 0.108885534 0.12769641 -0.115235105 -0.019635318 0.03321791
-0.09739141 -0.04446771 0.0051678577 -0.07228114 -0.03436344 -0.008794182 0.009232387 -0.084003374
0.07126843 0.0049049915 0.04223411 -0.0368433 0.019177647 -0.13921861 -0.06399217 -0.08771344
0.00075839343 0.060555067 0.0804839 -0.09268455 0.0050948216 0.009190904 -0.027980996 -0.05315638
-0.012672595 -0.031371336 -0.015909944 -0.05721047 -0.055021264 -0.044045597 0.005697826 0.094245724
-0.09063908 -0.060881417 -0.10806735 -0.055970807 -0.0005367239 -0.06603083 0.02003975 -0.036732636
-0.019528795 -0.029781053 -0.104426526 0.10088683 0.016754754 -0.12002433 0.008362955 0.012389319
0.07358387 0.04958604 0.069616266 -0.09805302 -0.046040304 -0.059696853 -0.12156143 0.0568371
0.0033361558 -0.09173303 0.04937445 -0.01619476 0.0393974 0.10001688 -0.12526245 0.06416722
-0.06350538 -0.10141695 0.023140874 0.14927553 0.07754429 0.075711876 -0.16399291 0.0129432855
-0.005501497 -0.12850252 0.05064279 0.033014804 -0.072557636 -0.061614398 -0.046287633 -0.05660925
0.07881579 0.04796266 -0.006492995 -0.028612005 -0.06828782 -0.04071941 0.10533325 -0.03280465
-0.052252255 -0.09407799 0.0142898895 -0.005948889 0.1212059 -0.022854999 -0.053721197 -0.08837586
-0.024430342 -0.034825746 -0.11310739 -0.09168301 0.008346613 -0.018033588 -0.061750825 0.017134838
0.02061532 -0.012075335 -0.22887364 0.0005264412 0.013688658 0.07472309 -0.14974794 -0.0439315
-0.11155219 -0.034312952 0.053032175 0.019246861 0.051940147 -0.026241727 0.040434364 -0.1618393
0.036508348 0.041143447 0.07401871 0.009802404 0.10612576 0.1204956 -0.09603884 0.099131286
-0.06253662 -0.041970823 -0.010342865 0.07173529 -0.06151644 0.07827443 0.023699477 -0.09314147
0.03945288 -0.07327702 0.017967986 0.057102136 -0.05495587 -0.02482957 0.008871284 0.0062537105
-0.06516018 0.042130593 -0.031228833 0.0019731037 0.044421345 -0.029231139 -0.060465474 -0.15398625
0.07320338 0.06682929 -0.040748462 -0.102138944 -0.08598994 0.004893875 0.13173713 0.06850759
-0.01862791 -0.12603152 0.07634614 0.026290145 -0.02309397 -0.05879716 -0.022039028 0.07905887
-0.037258316 -0.10519107 0.033683073 0.0034931987 -0.08735114 -0.051148865 -0.014853368 0.05872342
0.005060636 0.029734224 0.01829036 0.014931708 0.053641457 0.039331447 -0.041543387 -0.016265282
-0.010464346 -0.027472224 -0.037742503 -0.009719238 0.014357093 -0.06126587 -0.034165908 -0.089738175

network_body._body_endoder.seq_layers.4.bias f4 [256]
00000000: 13d6 d4bb 875e a93a 7b1d 323b baee cf3b
00000010: 0f64 88bb 2a15 31bb f91a 5d3b 59bc 80bb
00000020: ad11 b5bb b705 f23b 1472 ca38 b7f6 e0bb
00000030: 9d92 433a b3ff e0bb 0451 d6bb 48ec f1bb
00000040: 6ca3 d7bb f0d3 d03b a79c aebb fdb1 acba
00000050: 322f e1bb 0e9a 98bb b7f6 043c 1cb3 8abb
00000060: 3586 7abb a67f f83b d560 ddbb 983b dcbb
00000070: c8ba f5bb 5b11 86bb 7a0c ac3b 259b e23b
00000080: dcd4 99bb a7df 5f3a f855 a8bb 8387 62bb
00000090: 657c 98bb e0f3 263b 7067 333b 760b 633b
000000a0: d281 82bb 26b5 aebb 57f0 f73b 2e50 483b
000000b0: 25f6 303b a0a9 3f3b 4a9c 44bb a4e9 b9bb
000000c0: 10a9 ed3b 6bb6 f9bb 18ca a0bb 77fc 8cbb
000000d0: 5045 b63b 1536 323b 84b3 9e3b 4c14 d73b
000000e0: b9e8 33bb 159e 9dbb aa5c da3b c9cc a2bb
000000f0: 3a65 713b 4f51 dcbb 72d0 aa3b d3b1 de3b
00000100: 1add d6bb a729 ed3b 0086 173b d2eb f4bb
00000110: dd4c dc3b c2c1 a33a 37e3 01bc a228 8bbb
00000120: 5ded e73b cca3 023b 31f6 973a 1426 d439
00000130: 6b40 0e3c 96f4 e9bb bd06 01bc 1c4a dbbb
00000140: caa3 44bb 6ba7 a2bb 649a 053c 02b1 11bb
00000150: c527 97bb 21e1 cbbb 3b14 a8bb 9c7f a0bb
00000160: f2fd dd3b 7d24 a73b e591 f3bb 6b54 f8bb
00000170: f5eb da3b 8bbd 97bb 43e2 0abb b9b6 f3bb
00000180: af2a 29ba e22f 603b d742 783b 148c 723b
00000190: 6e06 a1bb b764 103b 1b85 043c 0246 bcbb
000001a0: ef55 efbb 4ae9 9cbb c8dc b4bb ac86 963b
000001b0: d6e5 bbbb c505 b0b9 2575 9abb 6836 a3bb
000001c0: 2f56 adbb 2a6f c2bb 5402 95bb fda9 45bb
000001d0: 7b37 7a3b 3e31 5fba b914 133b 7bb3 263b
000001e0: 2f7a 0f3c e7f0 9fbb d84c 073c 889d 36bb
000001f0: 572e e9bb 38df 203b 12da bcbb d03c bcbb
00000200: 650c ba3b f5a4 d73b 0c96 db3b c854 b0bb
00000210: 0d40 b1bb b25c a53b 62f5 ecbb 89af fc3b
00000220: 016e 9ebb 4fd6 ef3b 5e77 7eba 4fac a1bb
00000230: b423 183b 4412 9839 02ad 98bb a67a 71b8
00000240: 030c 223b 9d18 de3b 55e5 c03b 1b2a d8bb
00000250: 4686 ebbb 49a1 43bb da77 033b 18ae 8eba
00000260: 24a9 bebb 8c6c 823b 7c21 f8bb 1f72 8c3b
00000270: d422 11bb 7c69 9fbb 37d1 083b efeb b2bb
00000280: 0f59 c13b b23c 903b 28ff 03bc c794 ed3b
00000290: b8ef dabb 439a 383b 6bf8 d4bb a4e8 afbb
000002a0: 07ba 8bbb 76d5 b7bb 879d 083c 275e b8bb
000002b0: 117a 0e3c 9caf 90bb 08c0 08bc 3e4f ef3b
000002c0: 16b3 adbb b927 b6bb 29b0 bdbb a4ed 103c
000002d0: ae4b 4ebb 2526 3d3a f4ba edbb e837 9ebb
000002e0: b83b 0f39 dd31 24bb 94e1 9d3a 1583 88b9
000002f0: c5ae e7bb cc1d 063c 7684 d4bb b9c7 b9bb
00000300: aab6 b0bb e146 82bb 2139 123c a2fe 193b
00000310: 0a92 c2bb bcd5 b9bb 4f90 113c 270e b9bb
00000320: 1a98 713b 693d 8f3b bccc 403b 2dbb d73b
00000330: 032c e7bb 42e0 f23a 53d3 ecbb c346 debb
00000340: 4f7e 18b9 9cc6 873b c153 743b 1c19 8bbb
00000350: e93f bdbb 5c70 a73b 5887 ddba 6c8d 95bb
00000360: 648e e33b e64d 093c a5b0 e1bb 43fb fe3b
00000370: 0027 76bb 627b efbb e7a8 3e3b 9f6b d0bb
00000380: 4984 a5bb a4b1 d2bb 17e5 dcbb 85d5 82bb
00000390: 48b4 bbbb d353 fbbb 45ad 3b3b dcd2 6ebb
000003a0: 8916 89bb b7ea a0bb aa11 533b 2bae 8abb
000003b0: 8b18 9abb 0ac5 a4bb 517d 06bb cb02 70bb
000003c0: 544e e3bb 8735 dd3b e179 0a3c 79fa 3cbb
000003d0: 67b5 263b 41d2 89bb 578b 0e3c aa13 5839
000003e0: a7ce 09bc 13ac 8abb a032 543b 7ad9 163c
000003f0: ad92 7ab9 8780 e8bb c893 a6bb 54d0 083c
-0.006495246 0.0012921848 0.0027178216 0.006345597 -0.0041623185 -0.0027020671 0.0033738 -0.003928703
-0.0055257888 0.007385935 9.653359e-05 -0.006865348 0.0007460507 -0.006866419 -0.0065404195 -0.0073829032
-0.0065807607 0.006372921 -0.005328733 -0.0013175603 -0.006872081 -0.0046570366 0.008115462 -0.0042327773
-0.0038226966 0.0075835763 -0.006755928 -0.0067209713 -0.0074990727 -0.0040914244 0.0052505108 0.0069154673
-0.0046945643 0.00085401017 -0.0051372014 -0.0034565635 -0.004653501 0.002547495 0.0027374886 0.0034644282
-0.003982761 -0.005331653 0.0075664925 0.003056537 0.0027002182 0.0029245391 -0.0030000382 -0.005673604
0.00725282 -0.007620623 -0.004906904 -0.004302557 0.005562462 0.002719288 0.0048431773 0.006563699
-0.0027451946 -0.0048101046 0.0066638784 -0.00496826 0.0036834017 -0.00672356 0.005212837 0.0067961006
-0.006557119 0.0072376314 0.0023120642 -0.007474401 0.00672303 0.0012493657 -0.007927707 -0.004246787
0.0070778565 0.0019934056 0.0011593756 0.0004046416 0.008682351 -0.0071397526 -0.007875142 -0.006692184
-0.0030004852 -0.0049638054 0.008154485 -0.002223075 -0.004612895 -0.006221906 -0.005129365 -0.0048980247
0.0067746574 0.0051007853 -0.0074331635 -0.007578423 0.0066809603 -0.0046307496 -0.0021191991 -0.0074375537
-0.0006453199 0.0034208228 0.0037881637 0.0037009763 -0.0049140966 0.0022032687 0.008088375 -0.0057456503
-0.0073039453 -0.0047885524 -0.0055194832 0.004593691 -0.0057341857 -0.00033573635 -0.0047136717 -0.004980851
-0.005289815 -0.005933662 -0.0045473967 -0.0030161135 0.0038180042 -0.00085141126 0.0022442772 0.0025436569
0.008757158 -0.0048810127 0.008258067 -0.0027864892 -0.00711612 0.0024547111 -0.0057633007 -0.005744554
0.005677747 0.0065809437 0.0067012366 -0.0053812005 -0.005409247 0.0050464505 -0.0072314003 0.007711355
-0.004834891 0.0073192487 -0.0009707118 -0.004933871 0.002321464 0.00029005308 -0.004659296 -5.7573103e-05
0.0024726398 0.0067778365 0.0058867135 -0.0065968162 -0.0071876375 -0.0029850772 0.002006045 -0.0010885624
-0.005818503 0.003980225 -0.007572351 0.004286065 -0.0022146003 -0.0048648696 0.0020876655 -0.0054602544
0.005900509 0.0044017667 -0.008056439 0.0072504017 -0.0066814087 0.002816812 -0.0064993403 -0.005368309
-0.0042641195 -0.0056101633 0.008338339 -0.005626458 0.008696095 -0.0044154655 -0.008346565 0.0073031476
-0.0053008897 -0.0055589345 -0.005788822 0.00884572 -0.0031478214 0.0007215462 -0.0072549526 -0.004828442
0.0001365979 -0.0025054135 0.0012045377 -0.00026037605 -0.0070703947 0.008185815 -0.006485517 -0.0056695607
-0.005392869 -0.0039757346 0.008924753 0.002349772 -0.0059378194 -0.005671231 0.0088845035 -0.005647439
0.0036864341 0.0043713343 0.0029418906 0.0065835924 -0.007054807 0.0018529969 -0.0072273402 -0.006783338
-0.00014542903 0.004143549 0.0037281367 -0.0042449366 -0.005775441 0.00510983 -0.0016901297 -0.004563978
0.0069444645 0.008380389 -0.0068875127 0.0077814176 -0.0037559867 -0.0073084095 0.0029092373 -0.0063604857
-0.00505117 -0.006429868 -0.006741177 -0.0039927387 -0.0057282783 -0.0076699047 0.0028637212 -0.00364416
-0.0041835946 -0.0049107927 0.0032206574 -0.004232188 -0.004702633 -0.0050283717 -0.0020521472 -0.0036622758
-0.0069368277 0.0067507657 0.00845191 -0.0028835817 0.0025437714 -0.0042059724 0.008700213 0.0002060669
-0.008411086 -0.0042319386 0.0032378808 0.009207124 -0.00023896499 -0.0070954 -0.005083535 0.008350451

action_model._discrete_distribution.branches.0.weight f4 [2, 256]
00000000: 9a1e a5bb 638b 1c3b 34de 9b3a a7bd 453c
00000010: 40be 963a b5bf 0abb df29 edba ab1e a7bb
00000020: 9dd6 3a3b 1284 ef3b 6d44 78ba 269e 0138
00000030: 85ba 563b 021d f7ba e045 2abc df19 b5bb
00000040: 5f03 4fbb e958 f53b cad7 15bb 4a75 593b
00000050: 9610 f939 7a1e 2bbc b9ef 0d3c 7db2 093b
00000060: 8ddd e9bb 40df 933b 76ff 2a3b 3e11 0dbc
00000070: 3735 0ebb 3510 4fbb 24ab 043c 6dbb 383b
00000080: d94b fabb 2f8b da3a d501 d039 d402 7fba
00000090: 7ea4 b3ba f7cf 0dbb 43e0 a23b 6ad0 d73a
000000a0: 3c23 39bc 835e 73bb 42c5 2f3c 621e f23b
000000b0: 6bdb db3b d6ec 2a3c c30c 23bc 00e5 1f39
000000c0: f754 233c ed00 a43b 127a febb cb0c 98ba
000000d0: 21e9 063c e65d a13b f384 0f3b dd8a 143c
000000e0: 47f7 043c fb91 bcba 4205 613c 707a ffbb
000000f0: f072 edb8 786a 603b bbdc 333b 7c34 92ba
00000100: 2f93 8aba da86 513c 7866 c03a facf a63a
00000110: 03c7 043b 7a1b abba bab1 35bb 48aa 3abc
00000120: f82f 3fba a623 1b39 6d05 a73b d7d1 40bb
00000130: 58c4 133c 8072 19bc b14b 443b 1cbe f1bb
00000140: b208 793b 05d8 16bc a0eb 3536 c327 07bc
00000150: 3233 31bb 348c 513b 3279 08bb aa4e e63b
00000160: df46 9abb 2e11 803c df7e b73a 6239 3239
00000170: 5c14 843c 17a4 953a 6652 6f3a 056d 62bc
00000180: e0b9 d1b8 d65e daba b1c4 5e3c da2c 923b
00000190: 4a75 02bb 2de0 d0bb 6e89 5a3c b2ae 203a
000001a0: 33ba cfbb 820f 2bbc 7193 57bb 8dc3 13ba
000001b0: bcbe 89bb 25bc 753a ebe4 423b 2d3b 1fbc
000001c0: 51a5 33bb 827d 2dbc 52f8 153b 28d5 793b
000001d0: 5159 c93b e0a2 6c3b 69f4 cc3b fca3 a63b
000001e0: 9aaa 533c 156a 3fbc a888 043c 1f5a 033b
000001f0: 1650 4b3b be14 1abb 54ee fabb cdca bdb9
00000200: 8b4a 813c a9b1 01bb f565 c23b 8457 11bc
00000210: d25f c6bb 0236 743b ae52 8dbb b8c5 433c
00000220: 64d4 71bc 4685 d73b a019 103c 0b06 173b
00000230: 2684 8c3b d5cd 9a3b 676d 5cb8 518f 9b3b
00000240: 1a74 f33b a216 d63b 4612 393b 7edf d7bb
00000250: 3778 9a3b 6b33 8ebb 9e7b 7e3b 0fcc e83b
00000260: 9620 19bc e00d 623b 2362 13bb 65de 1d3b
00000270: ecc4 10bb 9351 8bbb a15a 403b 0eaa bd3a
00000280: 1194 91bb 2528 83bb 6c81 b1bb c45a c9ba
00000290: 9712 6b3a fe96 e13b ecea 1ebc 1e8f 7bbb
000002a0: 6ab9 773b 1e42 4f3a 7517 943c 1cbe abbb
000002b0: 5238 9f3c 18b9 58ba f81c 44bb a396 c53c
000002c0: f401 cc39 8bd9 8abb 8ca5 583b 6c0d 063b
000002d0: 5020 5f3b fb11 523a 4b1a 6cbc 82bc 55bc
000002e0: cd46 85bb 6a0c 9139 9c00 0c3b 64fe 173b
000002f0: ea8e 3ebb 7d03 413c 7dd6 5dbc 8655 fcba
00000300: b39b 203a 984d 70bb 05b1 1c39 2259 82ba
00000310: 70db e0bb 7d64 3ebc 5139 953c cece ddbb
00000320: df9e 2d3a 3291 95bb 204b 0d3c 15d8 693b
00000330: a81b d0bb c3fe 66bb 6a21 35bc 20c1 0c3a
00000340: 0e01 d2bb 2d2d 423c 90ed 2b3b ce28 2d3b
00000350: 33f2 9039 b261 673b 4cd7 01bc 8284 f0bb
00000360: 8d21 903c 8afc 913c 3659 aa3b 17a9 143c
00000370: debd 3ebc 0cbe 02ba 5fd3 7c3b 4df3 203b
00000380: 6441 613b 9a26 ba3a 3c0a 5b3b 03e2 d2bb
00000390: 44cf 2f3a f53b 3fbb 1dbb 0d3c d436 1f3a
000003a0: 88af 61bb 623d 803a 6f89 403b 631a f2b9
000003b0: 43ae 023b 30c3 653b 3ad1 14bc 3875 0cbb
000003c0: b3cc 7a3b 48f0 1a3b 5f8d 113c ade2 05bc
000003d0: b285 50bb 5f8e a0bb 3793 873c 806a d73b
000003e0: 62a1 e0b9 6723 c4bb c700 063b 1b61 5b3c
000003f0: 4d95 4e3c cbf5 0cbc 36ee dd39 60f4 35bb
-0.0050390484 0.0023886792 0.0011891783 0.012069142 0.0011500791 -0.0021171395 -0.0018094144 -0.0051000915
0.0028509267 0.007309445 -0.00094706455 3.0903284e-05 0.0032764983 -0.001885325 -0.010392636 -0.0055267657
-0.0031587703 0.0074874056 -0.0022864216 0.0033181482 0.00047505338 -0.010444278 0.008663111 0.0021010928
-0.0071370066 0.0045126975 0.0026092208 -0.008610068 -0.00216992 -0.0031595354 0.008097444 0.0028187886
-0.0076384363 0.001667356 0.00039674217 -0.00097278995 -0.0013705639 -0.002163885 0.0049705817 0.001646531
-0.011299904 -0.003713519 0.010728182 0.007388876 0.0067095063 0.010432443 -0.009951773 0.00015248731
0.009968988 0.005004993 -0.0077660168 -0.0011600492 0.008234293 0.0049245236 0.0021899312 0.009066311
0.008115596 -0.0014386767 0.013734164 -0.007796578 -0.000113224494 0.0034243148 0.0027444798 -0.0011154558
-0.0010572429 0.012788499 0.0014678976 0.0012726777 0.0020260222 -0.0013054453 -0.0027724341 -0.011393137
-0.00072932197 0.00014795232 0.0050970824 -0.002942195 0.00901898 -0.009365678 0.0029952342 -0.007377399
0.0037999568 -0.0092067765 2.7108254e-06 -0.008249226 -0.0027038571 0.0031974437 -0.002082419 0.0070284205
-0.0047081555 0.015633192 0.0013999603 0.0001699678 0.01612299 0.00114167 0.0009129405 -0.013819938
-0.000100005185 -0.0016660343 0.0135967 0.004460913 -0.0019906336 -0.00637438 0.01333843 0.0006129547
-0.0063393353 -0.010440709 -0.0032894278 -0.00056367443 -0.0042036455 0.0009374044 0.0029738497 -0.009718698
-0.0027411769 -0.010589005 0.0022883606 0.0038121436 0.0061446805 0.0036107823 0.006254722 0.0050854664
0.012919093 -0.011683007 0.008089222 0.002004273 0.0031023077 -0.0023510898 -0.0076578055 -0.00036199988
0.015782615 -0.0019789732 0.0059325644 -0.008870963 -0.006053903 0.0037263636 -0.0043128347 0.011948995
-0.0147601105 0.0065771667 0.008795172 0.0023044373 0.0042882143 0.004724244 -5.2553976e-05 0.0047473093
0.007429612 0.0065334598 0.0028239652 -0.0065879216 0.0047140378 -0.0043396256 0.0038831006 0.007104404
-0.009346148 0.0034493133 -0.0022488914 0.0024088856 -0.002209003 -0.0042516678 0.0029350894 0.0014470236
-0.0044426997 -0.0040025883 -0.0054170396 -0.0015362133 0.00089673087 0.0068844547 -0.009699564 -0.0038384865
0.0037799724 0.00079062756 0.018077591 -0.0052411687 0.019436035 -0.0008267327 -0.0029924493 0.02411968
0.00038911367 -0.004237359 0.0033057658 0.0020454777 0.003404636 0.00080135436 -0.014410566 -0.013045432
-0.004067278 0.00027665804 0.0021362668 0.00231924 -0.0029076883 0.011780617 -0.0135399075 -0.0019251562
0.00061267166 -0.0036667343 0.00014943264 -0.0009944777 -0.0068620965 -0.011620638 0.018215807 -0.006769038
0.00066231 -0.004564428 0.008623868 0.0035681773 -0.006350953 -0.0035247065 -0.01105533 0.0005369354
-0.006408817 0.011851591 0.0026234128 0.0026422027 0.00027646273 0.0035306034 -0.007924866 -0.007340015
0.017594123 0.017820615 0.005198623 0.009073517 -0.011641948 -0.00049874256 0.0038578135 0.002455908
0.0034371251 0.0014202178 0.0033422848 -0.006435634 0.0006706605 -0.0029180024 0.008650568 0.00060735387
-0.00344369 0.0009783919 0.0029378792 -0.00046177497 0.0019940294 0.0035058968 -0.009083087 -0.0021432173
0.0038268983 0.0023641754 0.008883803 -0.0081717195 -0.003181797 -0.0048997845 0.01654969 0.006573975
-0.0004284485 -0.0059856656 0.002044724 0.013389851 0.012608838 -0.0086035235 0.00042329886 -0.0027764067

action_model._discrete_distribution.branches.0.bias f4 [2]
00000000: b69b a63b b59b a6bb
0.00508448 -0.0050844797

54 f4 [2]
00000000: ff9b 3646 b983 6b43
11686.999 235.51454
