results/flappy_slow_v13/FlappyBirdAgent.onnx (onnx, 71034 bytes, 8 tensors)

network_body.observation_encoder.processors.0.normalizer.running_mean f4 [2]
0	0x3fd12e93	1.6342338
1	0x403fc46b	2.9963634

network_body._body_endoder.seq_layers.0.weight f4 [128, 2]
0	0x3ece820a	0.40333587
1	0xbfa3f81c	-1.2810092
2	0xbf59dfc2	-0.8510705
3	0xbfb001fd	-1.3750607
4	0xbf9bb90a	-1.2165844
5	0xbeeede5a	-0.46654016
6	0x3fb44198	1.4082518
7	0x3f758046	0.95898855
8	0xbed6182d	-0.4181532
9	0x3edd770c	0.43254888
10	0x3fbf888c	1.4963546
11	0x3f1e1b3d	0.6176031
12	0xbfadd095	-1.3579279
13	0xbf7490d0	-0.95533466
14	0xbfc542e6	-1.5411041
15	0x3e6ec2ca	0.23316494
16	0x3d8d4e44	0.068996936
17	0x3eeb4b86	0.45956057
18	0xbf275946	-0.65370595
19	0x3e43e398	0.19129789
20	0xbee695ae	-0.45036072
21	0xbd8baade	-0.068197
22	0xbf126b66	-0.57195127
23	0x3eb425b1	0.35185006
24	0x3eaa0d60	0.3321333
25	0x3e240c44	0.16020304
26	0xbf7db286	-0.9910053
27	0xbedc3816	-0.4301154
28	0xbd59fd58	-0.053220123
29	0xbea1271a	-0.31475145
30	0xbe0eb901	-0.13937761
31	0xbef7521e	-0.48304838
32	0x3ef9ad8e	0.48765224
33	0x3e0806d5	0.13283856
34	0x3fab625a	1.338939
35	0x3f7153a6	0.9426826
36	0xbecc3d29	-0.39890411
37	0xbf95a005	-1.1689459
38	0xbe734576	-0.23756966
39	0x3f59ac80	0.8502884
40	0xbe5bdf1f	-0.21471833
41	0x3e5558e0	0.20834684
42	0xbd8a7c12	-0.06761946
43	0x3ebb9efa	0.36644727
44	0xbf5c8157	-0.86134857
45	0xbe80c202	-0.25148016
46	0xbf4abdbd	-0.7919577
47	0x3f4f8396	0.8106016
48	0xbecefd1a	-0.40427476
49	0xbeb1380e	-0.3461308
50	0x3e4bca64	0.19901425
51	0xbeea43ce	-0.45754856
52	0x3e27af67	0.16375504
53	0x3e1a6db1	0.15080906
54	0x3f238000	0.6386719
55	0x3f0ade89	0.5424581
56	0x3ee59606	0.4484102
57	0x3efe3152	0.49647003
58	0x3f1af356	0.6052755
59	0x3e1a112a	0.1504561
60	0x3f21aee9	0.63157517
61	0xbd89c960	-0.06727862
62	0xbe8502a6	-0.25978583
63	0x3f19c284	0.6006243
64	0xbd4da2f6	-0.05020424
65	0x3f7144a5	0.9424537
66	0x3f8053ce	1.0025575
67	0xbfac8c82	-1.348038
68	0xbe931702	-0.2872849
69	0x3f37aa2b	0.7174403
70	0x3f565261	0.8371945
71	0xbdc20ff9	-0.09475703
72	0x3d74ecdb	0.059796195
73	0xbe0b9482	-0.1363087
74	0x3f0bfb55	0.5468038
75	0x3edb3e7e	0.42821115
76	0x3fb32420	1.39954
77	0xbf3e6ab9	-0.74381596
78	0xbe0abcc5	-0.13548572
79	0x3d8d406c	0.06897053
80	0x3f5cec5e	0.8629817
81	0x40007b68	2.0075321
82	0xbb0b7bd0	-0.0021283515
83	0xbfce01e7	-1.609433
84	0xbf00973b	-0.5023076
85	0xbe4891da	-0.19586888
86	0xbef2a579	-0.4739187
87	0x3ee04d5b	0.43809018
88	0x3dddb0e6	0.10824756
89	0x3f25a588	0.64705706
90	0x3dec4095	0.115357555
91	0xbec9cb25	-0.394128
92	0xbf26e788	-0.6519704
93	0xbf600de3	-0.8752119
94	0xbe7b2c6f	-0.24528669
95	0xbf912453	-1.133921
96	0xbddd462a	-0.10804398
97	0x3e8ebf5f	0.2788038
98	0x3f41dda2	0.7572881
99	0xbf1dfb76	-0.61711824
100	0xbfc08e35	-1.5043398
101	0x3f1749b8	0.5909686
102	0x3f0b8bba	0.5451008
103	0x3dd6bf2d	0.10485683
104	0x3f90518b	1.1274885
105	0xbe9081c3	-0.28224
106	0xbd89a489	-0.06720836
107	0x3f572bcd	0.8405121
108	0x3e714481	0.23561288
109	0xbf5d4d43	-0.8644602
110	0xbe9996ed	-0.2999796
111	0xbf42eb69	-0.7614046
112	0xbfc420dc	-1.5322528
113	0xbe992c32	-0.2991653
114	0xbc50d151	-0.012745217
115	0xbf8286b1	-1.0197355
116	0xbf2b7369	-0.66972977
117	0xbfa28510	-1.2696857
118	0x3d8e3dd4	0.069453865
119	0xbe8865c1	-0.26640132
120	0xbe18e520	-0.14931154
121	0xbf3363b6	-0.7007402
122	0xbf485841	-0.78259665
123	0xbf2ce300	-0.67533875
124	0x3ee6b9b9	0.4506357
125	0x3ef1eec1	0.47252467
126	0xbf1315a5	-0.574549
127	0xbf093441	-0.5359536
128	0x3ece3c77	0.40280506
129	0x3f06d86d	0.5267399
130	0x3e04cbb4	0.12968332
131	0x3f03ef19	0.5153671
132	0x3f8f9978	1.121871
133	0xbe9f42d6	-0.3110568
134	0xbe8841ad	-0.26612607
135	0x3fc264fa	1.5187066
136	0x3f3ddc99	0.7416473
137	0xbe8757c0	-0.26434135
138	0x3f3cfed3	0.7382633
139	0xbf7e1aaf	-0.99259466
140	0x3e338b03	0.17533498
141	0x3ec39d5f	0.38206002
142	0x3efa5eab	0.4890035
143	0xbf9964b1	-1.1983854
144	0xbf1c3bf0	-0.6102896
145	0x3f4097cf	0.7523164
146	0xbf527fe3	-0.8222639
147	0x3f7bbff1	0.98339754
148	0xbee5fb0e	-0.44918102
149	0xbfae3a84	-1.3611608
150	0xbf3237fa	-0.69616663
151	0xbe67d21c	-0.22638744
152	0xbf21f137	-0.6325869
153	0x3eaf1227	0.34193537
154	0xbf49a3aa	-0.78765357
155	0x3e645eaf	0.22301744
156	0xbf942cdd	-1.1576191
157	0xbe05975a	-0.13046017
158	0xbee8564c	-0.4537834
159	0x3f0d4b40	0.5519295
160	0xbf8b038f	-1.0860461
161	0x3f778563	0.96687907
162	0x3f1e1942	0.6175729
163	0x3fa0ecf2	1.257231
164	0xbe952e6c	-0.2913698
165	0xbdeeb9f0	-0.116565585
166	0xbf0cc085	-0.5498126
167	0xbea1d502	-0.31607825
168	0x3e9261eb	0.2859033
169	0xbf60be82	-0.8779069
170	0x3f1c185e	0.6097468
171	0xbe247269	-0.16059269
172	0xbf0ca7c4	-0.5494349
173	0xbf2a16e6	-0.6644119
174	0xbf563eb4	-0.8368943
175	0xbeab854a	-0.3350013
176	0x3e9354eb	0.28775725
177	0xbf0b369e	-0.54380214
178	0xbf9d47af	-1.2287501
179	0x3e1fb6ec	0.15597123
180	0x3fee878e	1.8635118
181	0x3f12b5ad	0.57308465
182	0xbfbaadcf	-1.4584292
183	0xbe8f6054	-0.2800318
184	0xbd688f64	-0.056777373
185	0x3e82c406	0.2554018
186	0x3ef92a19	0.4866493
187	0xbfb9602d	-1.4482476
188	0x3f5a25f7	0.8521418
189	0xbea4bea3	-0.32176694
190	0x3fa15e14	1.2606835
191	0xbfba50d3	-1.4555916
192	0xbef8a999	-0.48566893
193	0xbb734c0c	-0.0037124185
194	0x3f52f8ba	0.82410777
195	0x3d9b0513	0.07569327
196	0xbf3a21e0	-0.7270794
197	0x3fb65f0f	1.424776
198	0x3e66e2e7	0.22547494
199	0x3ea3a78e	0.31963772
200	0xbfc3123c	-1.523994
201	0xbf1c0216	-0.6094068
202	0xbf1807f5	-0.5938714
203	0x3d87a49a	0.06623192
204	0xbda2979c	-0.079390734
205	0x3de7f0b8	0.1132521
206	0x3f473349	0.7781263
207	0xbf027a0e	-0.5096749
208	0x3ebe5284	0.3717233
209	0x3fafd344	1.3736348
210	0xbf04e68a	-0.51914275
211	0xbf0fc152	-0.5615436
212	0x3f4c60b9	0.7983509
213	0x3f7ccdf9	0.9875179
214	0xbf0dce7e	-0.5539321
215	0xbf390c65	-0.7228454
216	0x3f9642d9	1.173915
217	0xbfaf4ea2	-1.3695872
218	0xbe8bbc4a	-0.2729209
219	0x3e5f9e49	0.21837725
220	0xbea1e1bd	-0.31617537
221	0xbe463364	-0.19355541
222	0x3f3c8e88	0.73654985
223	0x3e9faafc	0.31185138
224	0x3ee1bafa	0.44087964
225	0xbf42aae4	-0.7604201
226	0xbe793bf5	-0.24339278
227	0xbdce39d6	-0.10069625
228	0xbf153471	-0.58283144
229	0x3ed48333	0.41506347
230	0xbf0ff421	-0.56231886
231	0xbec9a10b	-0.3938068
232	0xbe9c928e	-0.30580562
233	0x3f135f9b	0.5756776
234	0xbb8a9a24	-0.004229801
235	0x3f079ded	0.5297535
236	0xbf4f838d	-0.81060106
237	0x3f31b3f9	0.6941524
238	0xbfa29418	-1.2701445
239	0xbf53ee4c	-0.8278549
240	0xbf4c0708	-0.7969823
241	0x3f3aaa40	0.7291603
242	0x3fdb2814	1.7121606
243	0x3ed8cd98	0.42344356
244	0xbf51a5b4	-0.8189347
245	0x3f3b9d90	0.73287296
246	0xbe240d05	-0.16020592
247	0x3e90f04f	0.2830834
248	0xbf53168b	-0.8245627
249	0x3fa2aa71	1.2708265
250	0x3e749fea	0.23889127
251	0x3f241e19	0.64108425
252	0xbf1e22b7	-0.6177172
253	0xbf4de5d9	-0.80428845
254	0x3ec9ab80	0.39388657
255	0xbe4170c7	-0.18890677

network_body._body_endoder.seq_layers.0.bias f4 [128]
0	0x3c8408a6	0.016117405
1	0x3aff378f	0.0019471514
2	0x378fb4b2	1.7131071e-05
3	0x3b2584ec	0.002525623
4	0xbbcfe69b	-0.006344629
5	0xbba88231	-0.005142473
6	0xbc1bff92	-0.009521382
7	0x3bcf5b58	0.0063280277
8	0xbbcdb233	-0.0062773465
9	0x3c0def97	0.00866308
10	0xbbdfca0e	-0.0068295067
11	0x3bc6b5b1	0.00606414
12	0xb902fa1f	-0.00012490943
13	0x39969a08	0.00028724992
14	0xbac6d0dc	-0.0015168446
15	0xbb3d3b17	-0.0028874332
16	0xbbc7dbb4	-0.0060991887
17	0xb94704c4	-0.00018979894
18	0x3ba4afb9	0.0050258306
19	0xbbe69abb	-0.0070374883
20	0xba51e617	-0.00080070033
21	0xbbbcf400	-0.0057663918
22	0xbb7b0259	-0.003830096
23	0x3c8575c7	0.016291512
24	0xbb12fbca	-0.002242791
25	0x3a22f384	0.0006216096
26	0x3ad0178d	0.0015876159
27	0xbb452048	-0.0030079056
28	0xbafdb761	-0.0019357019
29	0xbbd9122d	-0.006624481
30	0xba9a7955	-0.0011785427
31	0x390d3e61	0.00013470046
32	0x3b8bb107	0.0042630467
33	0x3bbbd350	0.0057319775
34	0xb9a33f2d	-0.00031136852
35	0x3a63c122	0.0008688142
36	0xbb28a3b5	-0.0025732343
37	0xba3aa4d4	-0.0007119898
38	0xbb66f583	-0.0035241551
39	0xbba0aef4	-0.0049036685
40	0xba9a75db	-0.0011784391
41	0xb8989fb5	-7.2776726e-05
42	0xbbd6a5a3	-0.006550507
43	0x3ba5c6d4	0.0050591026
44	0xba8e28db	-0.0010845916
45	0x3962f8aa	0.00021645674
46	0x3afdcd14	0.0019363486
47	0x3a04d3d0	0.0005066963
48	0xbb665407	-0.00351453
49	0x3b9545ac	0.0045554247
50	0x3bb3419d	0.005470468
51	0xbaef490d	-0.0018256024
52	0x3c98729d	0.01860934
53	0x3be07528	0.0068499036
54	0x3b7e0009	0.0038757345
55	0x3b68437f	0.0035440621
56	0x39fffe36	0.00048826792
57	0xba193dcb	-0.00058456947
58	0xbaedd26b	-0.0018144374
59	0x3be8ce5b	0.0071046776
60	0x3a016462	0.00049359177
61	0x3a8c72d0	0.0010715369
62	0xbb93515d	-0.0044957832
63	0xbb8d3e07	-0.0043103728
64	0xbbd6a401	-0.0065503125
65	0x3aff6b1c	0.0019486877
66	0x3b814743	0.0039452626
67	0xbbf8d3c2	-0.007593603
68	0x3bc9e923	0.0061618253
69	0x3a9d60cb	0.0012006996
70	0xbbac1949	-0.0052520377
71	0x3bc27686	0.0059345393
72	0x3c03229b	0.008003856
73	0x3c97fc12	0.018552814
74	0xbafe5dba	-0.0019406595
75	0xbc375991	-0.011190788
76	0x3b816d3a	0.0039497884
77	0xbbc2306e	-0.0059261834
78	0xbb38cbc0	-0.0028197616
79	0xbaa95a9b	-0.0012920679
80	0xba7c4980	-0.00096239895
81	0xbb67ad13	-0.0035350963
82	0x3b4189cc	0.0029531596
83	0xbb15f6bb	-0.0022882659
84	0x3a072004	0.0005154612
85	0x3b10b09a	0.002207792
86	0x3b043686	0.00201741
87	0xbb037816	-0.002006059
88	0x3b8a160e	0.004214055
89	0xbbc80d4a	-0.0061051
90	0xb928a356	-0.00016082576
91	0x3ba6514b	0.005075609
92	0x3b7523c1	0.0037405344
93	0x3ae44bac	0.0017417572
94	0x3a93f604	0.0011288528
95	0x3bc63565	0.0060488456
96	0xbb943c37	-0.0045237797
97	0xbb8bc257	-0.0042651105
98	0x3c907f9f	0.01763898
99	0xbb11f7c6	-0.0022272929
100	0x3bc3027f	0.0059512253
101	0x3b8bf978	0.0042716824
102	0x3ba04be1	0.004891858
103	0x3bb22985	0.0054370784
104	0x3b0901c1	0.0020905586
105	0xbb8316ea	-0.0040005343
106	0x3b7b4295	0.0038339247
107	0xbb16960e	-0.0022977623
108	0x3aaec0aa	0.0013332565
109	0xbc089b90	-0.00833787
110	0x3a5bf3f0	0.00083905365
111	0x3a1b23a7	0.00059180934
112	0x3b49bd82	0.0030783121
113	0x3b9a4c1e	0.004708781
114	0xbc1f2851	-0.009714202
115	0x3b082ae0	0.0020777509
116	0x3c105129	0.008808413
117	0xb9b8b360	-0.0003522886
118	0x3c97ed1a	0.018545676
119	0xbb44bc8f	-0.0030019616
120	0xbc3995eb	-0.011327247
121	0x3ab1c692	0.0013563207
122	0xbbb93bbc	-0.005652873
123	0xbaaabaab	-0.0013025602
124	0x3c8b427f	0.016999481
125	0x3b8ec5bf	0.0043570693
126	0xbb337ad2	-0.002738644
127	0x3a186a2c	0.00058141607

network_body._body_endoder.seq_layers.2.weight f4 [128, 128]
0	0x3ae36de4	0.0017351476
1	0x3abb37cc	0.0014283597
2	0x3df3cfc0	0.119048595
3	0xbd5034d9	-0.05083165
4	0xbcb31397	-0.021859927
5	0xbcbe4ecd	-0.023230935
6	0x3dfadf10	0.12249577
7	0xbc16efc5	-0.009212439
8	0x3bc01f9d	0.0058631436
9	0xbd0a20ea	-0.033722796
10	0x3c934754	0.017978348
11	0xbd8286ec	-0.063733906
12	0xbe6410e7	-0.22272073
13	0xbd5d969c	-0.05409871
14	0x3c1714db	0.009221281
15	0x3c3d9a39	0.011572414
16	0xbd905225	-0.07046918
17	0x3e176911	0.14786173
18	0x3d8a27fb	0.06745907
19	0x3dacac7d	0.08431337
20	0x3c582157	0.013191543
21	0x3dbf2c3d	0.0933461
22	0xbd2cc637	-0.04218122
23	0xbdb23073	-0.08700647
24	0x3ced65ad	0.028979147
25	0x3dc713ca	0.09720571
26	0xbd6b6a88	-0.057474643
27	0x3d5d4c09	0.05402759
28	0x3c0ed3ec	0.008717518
29	0xbe468eba	-0.19390383
30	0x399d16ae	0.0002996227
31	0x3e0450a6	0.1292139
32	0xbcebd317	-0.028787179
33	0x3c3d6288	0.011559136
34	0x3d04bd9f	0.0324074
35	0xbc7afda7	-0.0153192645
36	0xbc873856	-0.016506355
37	0xbe35249f	-0.17689751
38	0x3d0efb66	0.03490772
39	0xbe10a1ac	-0.14124173
40	0x3cf481e1	0.029847087
41	0x3dc873dd	0.09787724
42	0xbde12ca5	-0.109948434
43	0xbdd21c8e	-0.102593526
44	0x3d93ff80	0.07226467
45	0x3d78628e	0.060640864
46	0xbdaaa572	-0.083323374
47	0x3d02e671	0.031958047
48	0xbdcebe5a	-0.100949004
49	0x3d0e6dfd	0.03477286
50	0x3dd95f97	0.106139354
51	0xbdcdd8aa	-0.10051091
52	0xbdab9db6	-0.0837969
53	0x3e0432aa	0.12909952
54	0x3d0d897b	0.03455494
55	0x3cafc7e8	0.021457627
56	0x3cca5001	0.024696352
57	0x3b2e5392	0.0026600105
58	0x3e150f52	0.14556625
59	0x3e1d24e2	0.15346101
60	0xbcf4b558	-0.029871628
61	0xbc83c846	-0.016086709
62	0x3d62ddc0	0.05538726
63	0xbdc0f639	-0.09421963
64	0x3c950773	0.018192029
65	0xbc4bbf28	-0.012435712
66	0x3d8f94c2	0.07010795
67	0xbe1ad7ed	-0.15121432
68	0x3d46fed4	0.048582867
69	0xbd02f29f	-0.031969663
70	0x3d7e6da9	0.0621163
71	0x3c014e33	0.007892179
72	0x3de58339	0.11206669
73	0xbd4d6e7c	-0.050154194
74	0x3db7df7f	0.08978175
75	0x3d8fe777	0.0702657
76	0xbcea78ab	-0.028621992
77	0xbe1b686a	-0.1517655
78	0x3ccfd8b2	0.025371883
79	0x3c94319e	0.018090066
80	0xbd0783ea	-0.033084787
81	0xbe2f71d6	-0.17133269
82	0xbd95bf89	-0.07311923
83	0xbd387b4b	-0.045039456
84	0xbe38a579	-0.18031873
85	0xbde6cff9	-0.112701364
86	0x3d44cc4d	0.0480464
87	0x3c9d1c0f	0.019178418
88	0xbe1639e6	-0.14670524
89	0xbd578a3f	-0.052622076
90	0x3da1e167	0.0790432
91	0xbcaacbb0	-0.020849079
92	0xbcd3821e	-0.02581888
93	0x3dd6f405	0.10495762
94	0xbc0bf0c3	-0.008541289
95	0xbe25921c	-0.16169018
96	0xbe249902	-0.16073993
97	0x3d69a325	0.057040352
98	0xbdcad2bb	-0.09903475
99	0xbded966d	-0.11600957
100	0xbd240e04	-0.04005243
101	0xbb52728b	-0.003211173
102	0x3e54dd4f	0.20787548
103	0x3e2511e1	0.16120102
104	0x3dc89c3e	0.09795426
105	0xbd0de482	-0.03464175
106	0xbe14e3b6	-0.1453999
107	0x3be3da63	0.006953524
108	0x3d71bc4c	0.059017465
109	0x3d00e75e	0.03147065
110	0xbdbc5b87	-0.09197145
111	0xbc18ff52	-0.009338217
112	0xbe25227a	-0.16126433
113	0x3db0f24f	0.08639967
114	0xbc8942cd	-0.016755486
115	0x3dcf1553	0.10111489
116	0xbda830c3	-0.082124256
117	0x3d09abab	0.03361098
118	0x3c0179c6	0.007902568
119	0xbd8ea477	-0.06964963
120	0x3dcb36b9	0.09922547
121	0x3cf916d8	0.0304064
122	0xbcd3cfcc	-0.025855921
123	0x3da2a12f	0.079408996
124	0x3d015e30	0.031583965
125	0x3de91a6c	0.11381993
126	0xbdfd5ee4	-0.123716146
127	0xbdd15181	-0.10220624
128	0xbc9001f9	-0.017579066
129	0xbd5cb766	-0.05388584
130	0x3d2d324f	0.042284306
131	0x3c2e467c	0.010636922
132	0x3da1ba9c	0.07896921
133	0x3e70ba3f	0.23508547
134	0xbc945493	-0.018106734
135	0x3dc0b343	0.094091915
136	0x3d8abd60	0.06774402
137	0x3c3a1a51	0.011358813
138	0x3ddd9889	0.108201094
139	0x3ca6dc54	0.020368733
140	0xbe1f10c4	-0.1553374
141	0x3d9ce28a	0.076603964
142	0xbe322bff	-0.17399596
143	0x3e0b9348	0.13630402
144	0x3d0493ca	0.032367505
145	0x3cb36a50	0.02190128
146	0xbc8d629d	-0.017258937
147	0x3d09aeea	0.033614077
148	0xbdb482ce	-0.088140115
149	0xbd09790a	-0.033562697
150	0x3e04a04d	0.12951775
151	0x3c9cb19e	0.019127663
152	0x3d879385	0.06619934
153	0xbe2afc85	-0.16697891
154	0xbe29553d	-0.16536422
155	0x3c35719c	0.01107445
156	0xbdc7f0b6	-0.09762709
157	0xbd79e6b4	-0.06101103
158	0xbdee197c	-0.116259545
159	0xbd964f15	-0.073393025
160	0xbb919655	-0.00444297
161	0x3d93bf73	0.072142504
162	0x3c60e08f	0.013725414
163	0xbc61b847	-0.013776845
164	0xbd86bc39	-0.065788694
165	0x3d8a77f5	0.06761161
166	0x3df95e90	0.121762395
167	0x3c5fd27f	0.013661026
168	0xbd49a9af	-0.04923409
169	0xbd808c80	-0.06276798
170	0xbe1e45df	-0.15456341
171	0xbb3aab34	-0.0028483393
172	0x3e10c7b2	0.14138678
173	0x3e0d3d1f	0.13792847
174	0x3d2d2abf	0.042277094
175	0x3dfe346e	0.12412344
176	0xbd7e4e17	-0.06208619
177	0xbdae463c	-0.0850949
178	0x3c78bba9	0.01518146
179	0x3d24a31a	0.04019461
180	0x3c592c3f	0.013255178
181	0x3c55ae11	0.013041989
182	0x3ced30f0	0.028954
183	0x3d95276d	0.072829105
184	0xbcf80de9	-0.03028007
185	0xbd4e8320	-0.05041802
186	0xbc9403cb	-0.018068215
187	0x3da73126	0.08163671
188	0x3ce50f35	0.027961353
189	0x3d850d04	0.06496623
190	0x3e1e1510	0.15437722
191	0xbe04e379	-0.12977399
192	0x3e0086de	0.12551448
193	0x3d67a732	0.056555934
194	0x3cb2336d	0.021753037
195	0xbdf12480	-0.1177454
196	0xbde11645	-0.10990576
197	0xbd92e9e7	-0.071735196
198	0xbb7ef35d	-0.003890238
199	0x3aaeb283	0.0013328347
200	0xbd0ec9a7	-0.03486028
201	0x3b8d06b7	0.004303779
202	0x3e82e4e0	0.25565243
203	0xbc76dcf2	-0.015067326
204	0x3c573337	0.013134769
205	0x3af5093e	0.0018694771
206	0x3d750261	0.05981672
207	0xbc89c8a8	-0.016819313
208	0x3d55eb4a	0.052226342
209	0xbd344ba0	-0.044017434
210	0x3dad053e	0.084482655
211	0x3d558940	0.052132845
212	0x3db3df1c	0.08782789
213	0xbd61dcf9	-0.055142377
214	0x3da7f633	0.08201256
215	0x3d6251f8	0.055253953
216	0xbbf5fcb9	-0.0075069335
217	0xbce742dd	-0.028230125
218	0x3d266791	0.040626112
219	0xbc4a15a9	-0.012334266
220	0xbe0254f7	-0.12727724
221	0xbc05df72	-0.008170949
222	0x3dca77ee	0.09886156
223	0xbd86ecbc	-0.06588122
224	0x3ca0ece6	0.019644212
225	0x3c9fd392	0.019510064
226	0x3d419ba9	0.04726759
227	0xbd536de5	-0.051618475
228	0xbd7ec48d	-0.062199164
229	0xbd4fe3ca	-0.050754346
230	0xbd4cf201	-0.05003548
231	0xbd8e11b5	-0.06936971
232	0x3d5156ea	0.05110828
233	0xbdbf75a9	-0.09348614
234	0xbbb582fb	-0.0055392957
235	0x3db8cecf	0.090238206
236	0x3d27a899	0.04093227
237	0x3d8ee584	0.069773704
238	0xbc982f3c	-0.01857721
239	0x3d107f8c	0.03527789
240	0x3d63afa8	0.05558744
241	0xbd98da3f	-0.07463502
242	0x3d2381b9	0.039918635
243	0x3e3e2f72	0.18572786
244	0x3c1591d9	0.009129011
245	0xbc52aca9	-0.012858548
246	0xbd6edb38	-0.058314532
247	0xbd22f04d	-0.03977995
248	0xbdfb31dc	-0.12265369
249	0xbcf3d96b	-0.029766759
250	0xbd3c278a	-0.045936145
251	0x3c42082d	0.01184277
252	0xbb55874f	-0.003258187
253	0x3d5fd522	0.05464662
254	0xbdb0cb40	-0.08632517
255	0x3c58a8ee	0.01322387

network_body._body_endoder.seq_layers.2.bias f4 [128]
0	0xb92e529e	-0.0001662471
1	0xbb0f6e11	-0.0021885673
2	0xbc00f505	-0.007870917
3	0xba310414	-0.0006752622
4	0xbb0de6e4	-0.0021652514
5	0xba59df81	-0.0008311198
6	0xbb859018	-0.004076015
7	0x3a24cc1b	0.00062865176
8	0xbadb5949	-0.0016734983
9	0xba0c71ed	-0.00053575524
10	0x3b06ae53	0.0020550683
11	0xbaf8e3fa	-0.0018988841
12	0xbaabb6d9	-0.0013100757
13	0x3c4073de	0.011746375
14	0xbb713736	-0.003680659
15	0xbb561a4e	-0.0032669487
16	0x3b32c418	0.0027277526
17	0x3c05a5d7	0.008157215
18	0xbbb9b5b5	-0.005667413
19	0x3a6475f1	0.00087150844
20	0x3b544175	0.0032387648
21	0xbb9c2365	-0.0047649615
22	0x3af98d12	0.0019039235
23	0x382070e6	3.8252118e-05
24	0xbbb27cb7	-0.005446996
25	0xbad467d2	-0.0016205257
26	0xbad0eb77	-0.0015939315
27	0xbbd20486	-0.0064092306
28	0xbbf746a7	-0.007546264
29	0x3a15dc13	0.00057166925
30	0x3bbe100c	0.005800253
31	0x3b144e64	0.0022629732
32	0x3b151a29	0.0022751188
33	0xbb95c870	-0.004571013
34	0xbb19e996	-0.0023485175
35	0x3a1cb625	0.00059780694
36	0xb932fdf6	-0.0001707001
37	0xbb2e62ad	-0.0026609108
38	0x3961f5fc	0.00021549308
39	0x3b88f1cd	0.0041792155
40	0xbb9ef833	-0.004851365
41	0xbba23357	-0.004949968
42	0xbb9a9c0b	-0.004718309
43	0xbb5f1a25	-0.0034042683
44	0x3ae763ab	0.0017653605
45	0x38ac008c	8.201701e-05
46	0xba80f1a2	-0.0009837637
47	0xbab6c904	-0.0013945405
48	0x3bd5e810	0.006527908
49	0xbb86ed04	-0.00411761
50	0xbb8d7110	-0.0043164566
51	0xbb529214	-0.0032130526
52	0xbb02cfde	-0.0019960324
53	0xbacf8fcd	-0.0015835703
54	0xbc30a3ce	-0.010781242
55	0x3b0471f3	0.002020952
56	0xbb7d2e08	-0.0038632173
57	0xbba090ca	-0.0049000727
58	0x3b09621b	0.0020963016
59	0x396b877f	0.00022461823
60	0xbc23430d	-0.009964717
61	0x3bad87d7	0.0052957344
62	0x3a8c80de	0.0010719558
63	0x3a94c77a	0.0011350953
64	0x3b92b3ad	0.0044769854
65	0xbb811882	-0.003939689
66	0xbbae142f	-0.0053124647
67	0xbc225c5c	-0.0099097155
68	0xbbab70d7	-0.0052319574
69	0x3b2922ef	0.0025808176
70	0x3ab82b69	0.0014051023
71	0x39ebf930	0.00045008352
72	0xbaa26362	-0.0012389238
73	0xba89f55a	-0.0010525391
74	0xbb58bba2	-0.0033070822
75	0xbb5402b5	-0.0032350246
76	0x3b4fcad9	0.00317066
77	0xba99f6b5	-0.0011746498
78	0xbb6f25b9	-0.003649099
79	0x3ae135b2	0.001718214
80	0x3996d4b2	0.000287687
81	0x3b0c86fc	0.0021442762
82	0xbb20f052	-0.0024557305
83	0xbaa0af49	-0.001225927
84	0x3b3a0506	0.0028384342
85	0xbba61556	-0.0050684614
86	0xbb0e5164	-0.0021715993
87	0x39889eb1	0.00026058176
88	0x3a385b6c	0.0007032666
89	0x3b9cd93e	0.0047866395
90	0x3aa0c295	0.0012265021
91	0xbb620fc4	-0.003449426
92	0xba243a2e	-0.0006264773
93	0x3aa4d13b	0.0012574563
94	0xba0a8792	-0.0005284484
95	0xbb5f474a	-0.0034069591
96	0xba97dd83	-0.0011586401
97	0xbad3a409	-0.0016146909
98	0x3af60a6e	0.0018771419
99	0x3ba2e4a9	0.004971106
100	0x3bb8066b	0.0056159995
101	0xbb7dc495	-0.0038721908
102	0xbaa894e5	-0.0012861757
103	0xbb35208a	-0.0027637803
104	0x3b030f9f	0.0019998325
105	0xbbde9146	-0.0067922203
106	0xbb38be62	-0.002818965
107	0xbb4557f4	-0.0030112239
108	0x3c092f23	0.008373055
109	0xbb9e0ec3	-0.004823537
110	0x3c3a81d7	0.011383495
111	0x3b69810b	0.0035629894
112	0x3aea2445	0.0017863592
113	0xba7d86f4	-0.00096712937
114	0xbb30334f	-0.002688605
115	0x3ac7ccaa	0.001524349
116	0xbaab3e67	-0.0013064862
117	0x3a832606	0.0010005839
118	0x3b6600af	0.0035095622
119	0x39ae6844	0.0003326555
120	0x3af4e827	0.001868491
121	0xbbf980a0	-0.0076142102
122	0xbb2190bd	-0.002465292
123	0xbb081667	-0.0020765306
124	0xbb640e16	-0.0034798435
125	0x3bf46d5a	0.007459325
126	0xbb9014e5	-0.004397022
127	0xbaf78f76	-0.0018887359

action_model._discrete_distribution.branches.0.weight f4 [2, 128]
0	0xbb3229ba	-0.0027185516
1	0xbb4e60f2	-0.003149089
2	0x3c0a1b3d	0.008429346
3	0xba6b8f3b	-0.00089858816
4	0xbbaa2b0f	-0.0051931213
5	0xbbb79674	-0.005602652
6	0xbcb822e0	-0.022477567
7	0x3c803b01	0.015653135
8	0xbc864e91	-0.016394885
9	0xbb946aa7	-0.0045293155
10	0x3a232a14	0.00062242267
11	0xbc39ea36	-0.011347344
12	0xbb410728	-0.0029453728
13	0x3c813975	0.015774468
14	0xbbd49c61	-0.0064883684
15	0x3b3faa4d	0.0029245794
16	0x3b8d7590	0.004316993
17	0x3c8c5851	0.017131956
18	0xbb589325	-0.003304669
19	0x3bb65a63	0.005564974
20	0x3cb8e8ba	0.02257191
21	0x3c33b140	0.010967553
22	0x3c1440b4	0.00904863
23	0xbc138342	-0.009003462
24	0xbc04a53e	-0.008096037
25	0x39d04d1d	0.00039730305
26	0xbc55f80b	-0.013059626
27	0xbbb8b9fe	-0.0056374064
28	0xbbc8f047	-0.006132159
29	0xbcd58d6e	-0.026068415
30	0x3c7576bf	0.014981925
31	0x3c2c34e0	0.010510653
32	0xbb4c53c5	-0.003117786
33	0xbbabf2a1	-0.0052474295
34	0xbb684279	-0.0035440011
35	0xbbaf37bf	-0.0053472216
36	0xbbcfaed6	-0.0063379807
37	0x3b898d9f	0.0041977908
38	0xbba29ebc	-0.0049627703
39	0x3caff195	0.0214775
40	0xbc8879b9	-0.016659604
41	0x3b329abb	0.002725287
42	0xbbdaaa37	-0.006673123
43	0x3b1c8fb1	0.0023889358
44	0x3be2c787	0.006920758
45	0xbc0119d6	-0.007879695
46	0xba20de0d	-0.0006136604
47	0xbc609e42	-0.013709607
48	0x3c14aa46	0.0090737995
49	0x3b8fecb9	0.004392233
50	0x3c31d587	0.010854132
51	0xbc8581d6	-0.016297262
52	0x3ad250ec	0.0016045845
53	0xbbf9ea30	-0.0076267943
54	0xbbcd5713	-0.0062664836
55	0xba80614d	-0.0009794623
56	0x3c16733e	0.009182749
57	0x3c4f5f70	0.012657031
58	0xbc501a80	-0.012701631
59	0xbc675cf2	-0.014121281
60	0x3a9efdeb	0.0012130117
61	0xbb99c25e	-0.00469236
62	0x3c25454d	0.010087323
63	0xbaee35ea	-0.0018174027
64	0xbc19a3d4	-0.009377439
65	0x3b572db3	0.0032833635
66	0x3ba1e5a1	0.004940704
67	0xbc4b8230	-0.012421176
68	0x3bb586ec	0.0055397656
69	0x3c5127fe	0.012765883
70	0x3cd1a478	0.02559112
71	0x3ccc376a	0.024928767
72	0xbbdf6a8f	-0.0068181227
73	0xbb7df8ea	-0.00387531
74	0xbc23ecd9	-0.010005199
75	0xbc0bee30	-0.008540675
76	0xba820006	-0.000991822
77	0x3c0103bb	0.007874425
78	0xb9502ae8	-0.0001985241
79	0xbb5aaee1	-0.0033368396
80	0x3baef652	0.0053394223
81	0x3bf18e9b	0.007371736
82	0xbbb60f94	-0.0055560563
83	0xbc9b7d46	-0.018980633
84	0x3c2e62b9	0.0106436545
85	0x3b705a9a	0.0036675096
86	0xbbf65cef	-0.0075184028
87	0xbc5c9562	-0.01346335
88	0x3b15d6c1	0.00228636
89	0xbc9084b1	-0.017641397
90	0xbc0d34ec	-0.008618575
91	0x3c4284f9	0.011872523
92	0x3b90b14e	0.0044156676
93	0xbb98ddb7	-0.0046651023
94	0xbc5d95c5	-0.013524477
95	0xbc7d79ea	-0.015470961
96	0xbc64a0d1	-0.013954357
97	0xbc04417f	-0.008072256
98	0x3cd1648f	0.025560645
99	0x3c580819	0.013185524
100	0xbb6c8da7	-0.0036095174
101	0x3b2223c9	0.0024740568
102	0x3c40ff3e	0.0117796045
103	0xbbbd0e78	-0.005769547
104	0x3a66f5b5	0.0008810417
105	0x3ba166cc	0.0049255844
106	0xbbe98c61	-0.00712733
107	0x3c678d16	0.014132759
108	0xbbd12a63	-0.0063832267
109	0x3c431213	0.011906165
110	0x3c22d815	0.009939213
111	0x3d018e96	0.03163012
112	0x3c0730a4	0.008251343
113	0xbca795a3	-0.020457095
114	0xbb814af3	-0.003945702
115	0xbc219c76	-0.009863963
116	0x3bc6d503	0.0060678734
117	0xbc03115e	-0.007999746
118	0x3bc30211	0.005951174
119	0xbc58ae6f	-0.013225182
120	0xbaec2dfd	-0.0018019077
121	0xba8ba8e2	-0.0010655189
122	0xb993ca17	-0.00028188594
123	0xbc7713ce	-0.015080405
124	0x3ba3f5cb	0.005003666
125	0x3c643dda	0.013930762
126	0x3b10b247	0.0022078918
127	0x3b99739f	0.0046829726
128	0xbbb80bc5	-0.0056166374
129	0x3b87ab1e	0.004140272
130	0x3b98defa	0.0046652528
131	0x3b2055d9	0.0024465232
132	0x3c0e053e	0.008668242
133	0x3b80f0ec	0.00393497
134	0x3b1e00c3	0.002410934
135	0xbb0177d5	-0.0019755263
136	0xbaadfe67	-0.001327467
137	0xbbcccabc	-0.0062497538
138	0xbc9c4241	-0.019074561
139	0xbb5164c1	-0.0031950923
140	0x3bbfd449	0.005854164
141	0xbc93747b	-0.017999878
142	0x3b769f31	0.0037631507
143	0x3c2c1997	0.010504148
144	0xbc5e4e65	-0.013568495
145	0xbcb7de5a	-0.022444893
146	0xbc2ef313	-0.010678071
147	0xbbf85941	-0.0075789993
148	0x3b977063	0.004621552
149	0x3bb90361	0.0056461548
150	0x39f4d9c9	0.0004670157
151	0x3c39bab4	0.011336017
152	0xbba6e58e	-0.005093283
153	0x3b24a128	0.002512047
154	0x3aa90975	0.0012896495
155	0xba99f134	-0.0011744858
156	0xbadc99e0	-0.0016830526
157	0xbb65cd8a	-0.0035065138
158	0xbc95d25d	-0.018288786
159	0x3acf490d	0.0015814618
160	0x3beb3601	0.0071780686
161	0xbba55938	-0.005046036
162	0x3bc3ec68	0.0059791096
163	0xbc19a9db	-0.009378876
164	0x3c3bf22e	0.011471314
165	0x3c3602ca	0.011109063
166	0xbc19094c	-0.009340595
167	0xbb877985	-0.0041343593
168	0xbbac40c4	-0.005256744
169	0x3b499ee6	0.0030764877
170	0xbba5a91e	-0.0050555607
171	0x3bae8fc9	0.005327199
172	0xbbf088b8	-0.007340517
173	0x3cbce4c6	0.023058306
174	0xbc1457c0	-0.009054124
175	0x3b3a4def	0.00284278
176	0xbc8efb19	-0.017453717
177	0x3c009bb7	0.007849625
178	0x3c5889c3	0.013216439
179	0x3acfd673	0.0015856758
180	0x39cacee5	0.0003868259
181	0x3b295aac	0.0025841398
182	0x3b390c6e	0.0028236168
183	0xbbce874d	-0.00630275
184	0x3b77b630	0.0037797801
185	0x3c8b9ef0	0.01704356
186	0x3c6b0ba9	0.014346042
187	0xbab496c4	-0.0013777842
188	0xbb1fa443	-0.0024359382
189	0xbcae88e1	-0.021305503
190	0xbc18ef5e	-0.009334413
191	0xbb87b64d	-0.004141605
192	0xbbc16676	-0.005902107
193	0x3b7852bf	0.0037891117
194	0xbb0d0645	-0.002151863
195	0xbc813bcd	-0.015775586
196	0x3c52d334	0.012867738
197	0xbae8a9ed	-0.0017750837
198	0xbb92c688	-0.004479233
199	0xbba57c1e	-0.0050501963
200	0x3b98aed2	0.004659512
201	0xbb42f165	-0.0029745933
202	0xbaa0ad15	-0.0012258614
203	0xbb8de6ec	-0.0043305065
204	0xbc9f5a68	-0.019452289
205	0x3b8117a3	0.0039395853
206	0x3b2ecd42	0.0026672636
207	0xbc7f180b	-0.015569697
208	0x3cefd67d	0.02927708
209	0xbc2ea6ec	-0.010659914
210	0xbb16755a	-0.002295813
211	0xb972015e	-0.00023079428
212	0xbc81d150	-0.015846878
213	0x39454bf3	0.00018815677
214	0x386265d8	5.397745e-05
215	0x3b410c5e	0.0029456834
216	0x3cb7c882	0.022434477
217	0x3c081cc9	0.008307644
218	0x3c2688be	0.010164438
219	0xbb9dfdd7	-0.00482152
220	0x3ae7cc35	0.001768476
221	0xbc416c5d	-0.011805621
222	0x3aab57be	0.0013072414
223	0xb99bf85c	-0.00029748946
224	0x3bdd2bdd	0.0067496137
225	0x3c261d78	0.010138862
226	0x3b26d70e	0.0025457772
227	0xbc704e5f	-0.014667123
228	0xbc294a29	-0.010332623
229	0x3b8e8152	0.0043489123
230	0x3ba3e743	0.005001934
231	0x3b565764	0.0032705897
232	0x3cc015fe	0.023447987
233	0x3b2341b8	0.0024910998
234	0xbad7f4ba	-0.0016476132
235	0x3b188fc9	0.0023279062
236	0x3c21f86b	0.009885888
237	0x3bf895e4	0.0075862277
238	0xbbaa18b7	-0.0051909345
239	0xbc79bb6c	-0.015242439
240	0xbc647a00	-0.013945103
241	0xbaeae757	-0.0017921728
242	0x3b9682e1	0.0045932387
243	0x3c4a3bc2	0.012343349
244	0x3ce52c20	0.027975142
245	0xba07bf7c	-0.00051783747
246	0xbc22ebf4	-0.009943951
247	0x3b98501c	0.0046482217
248	0xbc7ed571	-0.015553818
249	0x3afaff1c	0.0019149515
250	0x3c42497f	0.011858343
251	0x3abf73c1	0.0014606641
252	0x3c0eaff8	0.008708946
253	0xbc0f483a	-0.0087452475
254	0x3b71e425	0.0036909666
255	0x3c046492	0.008080618

action_model._discrete_distribution.branches.0.bias f4 [2]
0	0x3b0b34e7	0.002124125
1	0xbb0b34e6	-0.0021241247

49 f4 [2]
0	0x3fb84e5f	1.4398917
1	0x4012323a	2.2843156
