results/flappy_genetic_2/FlappyBirdAgent.onnx (onnx, 534229 bytes, 10 tensors)

network_body.observation_encoder.processors.0.normalizer.running_mean f4 [2]
000000 de 03 dd 42 11 01 62 40
       110.50755 3.531315

network_body._body_endoder.seq_layers.0.weight f4 [256, 2]
000000 28 00 b9 3c f2 0a b4 3e eb 74 8d be 33 4b 1c 3e
       0.022583082 0.351646 -0.27628264 0.15263061
000010 16 ba 51 bf d5 cc a0 be a5 b7 74 3f 38 2c 26 bf
       -0.8192457 -0.31406274 0.9559272 -0.6491122
000020 d4 97 16 3f 76 38 e5 3e 62 17 b8 be 96 26 a2 be
       0.5882542 0.4476964 -0.3595534 -0.31670064
000030 a9 9b e4 be c8 3d 5c 3e 8e 82 b0 bd db 41 00 3f
       -0.4465001 0.21507943 -0.08618651 0.5010049
000040 1a 92 55 3e 40 86 7f be fa 2c 95 3f 6d 20 c6 be
       0.20856515 -0.24953556 1.1654351 -0.38696614
000050 ac 4f 7b 3f 9c cd ca 3e b8 4b 28 be 43 b3 aa be
       0.98168445 0.39609993 -0.16435134 -0.3333989
000060 23 14 5e 3e 89 c6 8d be bd b2 c7 bf 7a cb 82 be
       0.21687369 -0.27690533 -1.5601422 -0.25545865
000070 0d 82 85 be 1e f4 04 3f d5 3b f4 be 42 e6 95 be
       -0.26075783 0.51934993 -0.47701898 -0.29277235
000080 36 27 dc 3f 92 90 85 3e 6a c4 c9 be 35 ad 62 bf
       1.7199466 0.2608686 -0.39407665 -0.8854554
000090 ab 89 14 3f 96 d2 bb bd e1 ad af 3e a5 6e a2 bf
       0.58022565 -0.091710255 0.34312347 -1.2690016
0000a0 d1 02 2e be d6 47 58 bc 23 6d 0f bf 7d 2d 28 3f
       -0.16993262 -0.013200721 -0.56025904 0.6569441
0000b0 c2 04 e0 bd e3 cc 8a 3e 15 c6 92 3e 4f dd 74 3f
       -0.109384075 0.2710944 0.2866675 0.9565019
0000c0 60 cb 5e 3d f2 3c 31 bf e1 12 03 3f 29 98 62 3f
       0.054393172 -0.6923362 0.5120068 0.8851343
0000d0 6f 3f 82 be f4 38 9e 3e d9 e1 0e bf 66 72 9a 3f
       -0.2543902 0.30902827 -0.55813366 1.2066162
0000e0 48 a9 50 3f 01 f2 30 bf ce 65 51 bf 38 55 24 3f
       0.815083 -0.6911927 -0.81795967 0.64192533
0000f0 4f c6 7f 3f 6f e2 c7 3e e8 57 8e be 05 f4 56 be
       0.9991197 0.39039943 -0.27801442 -0.20991524
000100 3a 11 3c 3e 9a 75 86 3e dc b6 94 3e 01 a6 39 3f
       0.18365946 0.26261598 0.2904576 0.72518927
000110 b2 4d bc 3d 5c 8e ba 3d 9e 99 bf 3e 5c cc 08 3f
       0.09194507 0.09109184 0.37421888 0.5343683
000120 12 ea 1d bf b4 25 8e 3f af 55 b9 3e e0 2b 22 bf
       -0.6168529 1.1105256 0.36198184 -0.633482
000130 3b 89 45 be 41 a7 00 3f c1 7b 3b 3f a3 bc 77 3d
       -0.1929063 0.5025521 0.7323571 0.060482632
000140 29 bd 18 3f fe 02 5f 3f ca ab 8a 3e 7a 53 c5 be
       0.59663635 0.8711394 0.2708419 -0.3854025
000150 64 c7 a8 bf 19 a1 25 3e 6d 09 4d be 0d 68 50 bf
       -1.3185849 0.16174735 -0.20023127 -0.8140877
000160 59 f8 7f 3e ed 84 3a be f6 da 19 3f bc 11 2d 3f
       0.24997081 -0.1821477 0.6009973 0.67605186
000170 a1 dd 9f bf f4 fd 94 be 8f 0f d9 3d d2 70 26 3f
       -1.2489511 -0.291 0.10598671 0.650159
000180 cf 22 e5 be a2 8e 41 3f 35 dc 31 3f 67 a0 43 bf
       -0.4475312 0.75608265 0.69476634 -0.7641663
000190 be 71 ef 3f 6c 3c 99 be 85 5a 8f bf 1b 35 16 3f
       1.8706586 -0.2992891 -1.1199499 0.5867478
0001a0 76 ac a2 be 44 ae 16 3e bc 8f da 3e c1 0e ee 3d
       -0.31772202 0.14714915 0.42687786 0.11623908
0001b0 c5 81 f5 be 75 86 74 3e 22 78 63 3f 18 fb f0 be
       -0.4795057 0.23879416 0.88855183 -0.4706657
0001c0 5e 78 d6 3d 20 a0 1e 3f 6d 21 54 3d 83 7f 7b 3f
       0.10472177 0.6196308 0.05178969 0.9824144
0001d0 ec 4b 32 bf 62 ca 03 be 57 31 41 3d 58 1b 61 3f
       -0.696471 -0.12870172 0.047166195 0.8793235
0001e0 e4 b5 b8 be 41 1b 0a bf c4 c6 99 bc cf 55 b6 3f
       -0.36076272 -0.53947836 -0.018771537 1.4244937
0001f0 18 cf dc bc ae 24 5c 3e 98 f1 b3 3e f3 6e 5c be
       -0.026954219 0.21498367 0.3514526 -0.21526699
000200 c1 e0 48 bf 0a 76 a1 be 9c 66 24 3e 48 1c 2a bf
       -0.7846795 -0.3153537 0.16054767 -0.66449404
000210 54 69 51 3f 29 1a 8a be e0 e8 89 3f 9a 7b a6 be
       0.8180134 -0.26973084 1.0774193 -0.32516176
000220 38 b1 20 bf 23 1a 72 3e 7c ff db bf f4 44 81 3e
       -0.62770414 0.23642783 -1.7187343 0.2524792
000230 50 87 f4 bd f8 9e 7b be 85 a4 8b be 70 aa a8 bd
       -0.11939871 -0.2457236 -0.27273956 -0.082356334
000240 18 3a 81 be cf c6 5d bf 78 db 73 bf b1 0e 1d 3d
       -0.25239635 -0.8663148 -0.9525676 0.03834409
000250 59 57 69 3f d6 e6 12 bf 93 7a 7c be cc 78 c8 3e
       0.91148907 -0.5738348 -0.24656133 0.3915466
000260 d3 51 a6 3e 53 d9 cf be b8 40 8f 3e 4f d7 10 bf
       0.32484302 -0.40595493 0.27979064 -0.56578535
000270 94 36 c5 3e e2 ac 66 bf 51 7d 5f 3e 89 d9 a4 be
       0.38518202 -0.9010755 0.21825148 -0.32197216
000280 81 d2 f9 be b3 cc 0b 3e 65 dc 16 be d6 6b 16 bf
       -0.48793414 0.13652305 -0.14732511 -0.58758295
000290 d9 2d 03 3f 63 c4 c8 3f 8a ea e2 be 61 ce 85 bf
       0.5124183 1.5684932 -0.44319564 -1.0453607
0002a0 5e dc ae bc 78 01 3a bd 0f c4 4f be cd 29 c6 3d
       -0.021345314 -0.045411557 -0.20289634 0.096759416
0002b0 18 53 80 3f b3 03 2c 3f 86 a5 b8 3f 2b 68 88 3f
       1.0025358 0.67193145 1.4425514 1.065679
0002c0 26 93 38 bf 01 f8 7e 3f f7 32 1f be 2b d5 83 3f
       -0.7209953 0.99597174 -0.15546785 1.0299429
0002d0 8b ec 1a bf af 46 0b 3f 34 9b 28 bf d5 0d 3b 3e
       -0.60517186 0.5440473 -0.6586182 0.18266995
0002e0 a4 17 1f 3f cc 4b 55 3f e9 9c 8e 3d 95 c9 76 be
       0.6214545 0.8331878 0.06963522 -0.24100335
0002f0 23 35 90 3f db 5f 27 3e 34 ca aa 3e cc 58 5e be
       1.1266216 0.1634516 0.33357394 -0.21713561
000300 8c 96 1b be 06 88 9a bf f6 9b b2 3e 73 cc 2d be
       -0.15194148 -1.2072761 0.34884614 -0.16972522
000310 f2 ef 5c 3e e5 f9 f4 3e f6 3e 88 be a1 2c 8f 3e
       0.21575907 0.47846904 -0.26610535 0.27963737
000320 3d c9 94 3f a3 fe bb 3e 03 8e 90 3f 88 f1 0f bf
       1.1623913 0.3671771 1.1293339 -0.5622792
000330 1b 6c 76 bf af 79 36 3d 35 e9 9c 3e 17 76 6d bf
       -0.96258706 0.04454964 0.30646673 -0.92758316
000340 73 cf d7 3d f3 44 55 3f 67 c5 df bd fc ee 23 3e
       0.10537615 0.83308333 -0.109263234 0.16009134
000350 73 39 09 bf 5f 22 0c 3e fe e4 a2 be a8 dc 9f bf
       -0.53603286 0.13684987 -0.31815332 -1.2489214
000360 ed ba cd 3f 1a e7 98 3e 46 b4 d8 bc 5d 75 96 bf
       1.607267 0.29863816 -0.026453149 -1.1754566
000370 38 a2 db 3e 1d a6 38 3e e3 29 4b bf f1 1a f9 3e
       0.428972 0.18032117 -0.7936079 0.48653367
000380 bb bd 03 bf 25 cb 83 bd b6 4e 26 be df 34 43 3e
       -0.5146138 -0.06435231 -0.16240963 0.19063137
000390 b5 f4 6b bf 0b 75 00 3e 95 55 85 bf 80 80 2a bf
       -0.9217027 0.12544648 -1.0416743 -0.66602325
0003a0 f3 3a 74 3e cb fc 89 3f 71 67 45 be fc 58 64 3d
       0.23850612 1.0780271 -0.19277741 0.055748925
0003b0 84 28 8b 3e 37 f0 d6 3e d1 89 86 bd 54 49 31 3f
       0.27179348 0.41980144 -0.06569255 0.69252515
0003c0 c8 c7 12 bf 56 d8 38 bf df e4 81 3f 9e 6e 56 bf
       -0.5733609 -0.722051 1.0147971 -0.8376254
0003d0 f3 4a 0e 3e c3 d1 a6 3f 76 75 47 3f 60 57 ac bf
       0.13895778 1.3032764 0.77913606 -1.3464165
0003e0 8b 44 42 bd f0 9c 14 3f 02 60 0e 3d 6e fd 81 bf
       -0.04742865 0.5805197 0.03475953 -1.0155466
0003f0 82 02 25 be 36 8c 2a 3f f4 b4 8d bd 2f 88 02 3e
       -0.16114238 0.66620195 -0.0691928 0.12747262

network_body._body_endoder.seq_layers.0.bias f4 [256]
000000 00 00 00 00 00 00 00 00 00 00 00 00 00 00 00 00
       0.0 0.0 0.0 0.0
000010 00 00 00 00 00 00 00 00 00 00 00 00 00 00 00 00
       0.0 0.0 0.0 0.0
000020 00 00 00 00 00 00 00 00 00 00 00 00 00 00 00 00
       0.0 0.0 0.0 0.0
000030 00 00 00 00 00 00 00 00 00 00 00 00 00 00 00 00
       0.0 0.0 0.0 0.0
000040 00 00 00 00 00 00 00 00 00 00 00 00 00 00 00 00
       0.0 0.0 0.0 0.0
000050 00 00 00 00 00 00 00 00 00 00 00 00 00 00 00 00
       0.0 0.0 0.0 0.0
000060 00 00 00 00 00 00 00 00 00 00 00 00 00 00 00 00
       0.0 0.0 0.0 0.0
000070 00 00 00 00 00 00 00 00 00 00 00 00 00 00 00 00
       0.0 0.0 0.0 0.0
000080 00 00 00 00 00 00 00 00 00 00 00 00 00 00 00 00
       0.0 0.0 0.0 0.0
000090 00 00 00 00 00 00 00 00 00 00 00 00 00 00 00 00
       0.0 0.0 0.0 0.0
0000a0 00 00 00 00 00 00 00 00 00 00 00 00 00 00 00 00
       0.0 0.0 0.0 0.0
0000b0 00 00 00 00 00 00 00 00 00 00 00 00 00 00 00 00
       0.0 0.0 0.0 0.0
0000c0 00 00 00 00 00 00 00 00 00 00 00 00 00 00 00 00
       0.0 0.0 0.0 0.0
0000d0 00 00 00 00 00 00 00 00 00 00 00 00 00 00 00 00
       0.0 0.0 0.0 0.0
0000e0 00 00 00 00 00 00 00 00 00 00 00 00 00 00 00 00
       0.0 0.0 0.0 0.0
0000f0 00 00 00 00 00 00 00 00 00 00 00 00 00 00 00 00
       0.0 0.0 0.0 0.0
000100 00 00 00 00 00 00 00 00 00 00 00 00 00 00 00 00
       0.0 0.0 0.0 0.0
000110 00 00 00 00 00 00 00 00 00 00 00 00 00 00 00 00
       0.0 0.0 0.0 0.0
000120 00 00 00 00 00 00 00 00 00 00 00 00 00 00 00 00
       0.0 0.0 0.0 0.0
000130 00 00 00 00 00 00 00 00 00 00 00 00 00 00 00 00
       0.0 0.0 0.0 0.0
000140 00 00 00 00 00 00 00 00 00 00 00 00 00 00 00 00
       0.0 0.0 0.0 0.0
000150 00 00 00 00 00 00 00 00 00 00 00 00 00 00 00 00
       0.0 0.0 0.0 0.0
000160 00 00 00 00 00 00 00 00 00 00 00 00 00 00 00 00
       0.0 0.0 0.0 0.0
000170 00 00 00 00 00 00 00 00 00 00 00 00 00 00 00 00
       0.0 0.0 0.0 0.0
000180 00 00 00 00 00 00 00 00 00 00 00 00 00 00 00 00
       0.0 0.0 0.0 0.0
000190 00 00 00 00 00 00 00 00 00 00 00 00 00 00 00 00
       0.0 0.0 0.0 0.0
0001a0 00 00 00 00 00 00 00 00 00 00 00 00 00 00 00 00
       0.0 0.0 0.0 0.0
0001b0 00 00 00 00 00 00 00 00 00 00 00 00 00 00 00 00
       0.0 0.0 0.0 0.0
0001c0 00 00 00 00 00 00 00 00 00 00 00 00 00 00 00 00
       0.0 0.0 0.0 0.0
0001d0 00 00 00 00 00 00 00 00 00 00 00 00 00 00 00 00
       0.0 0.0 0.0 0.0
0001e0 00 00 00 00 00 00 00 00 00 00 00 00 00 00 00 00
       0.0 0.0 0.0 0.0
0001f0 00 00 00 00 00 00 00 00 00 00 00 00 00 00 00 00
       0.0 0.0 0.0 0.0
000200 00 00 00 00 00 00 00 00 00 00 00 00 00 00 00 00
       0.0 0.0 0.0 0.0
000210 00 00 00 00 00 00 00 00 00 00 00 00 00 00 00 00
       0.0 0.0 0.0 0.0
000220 00 00 00 00 00 00 00 00 00 00 00 00 00 00 00 00
       0.0 0.0 0.0 0.0
000230 00 00 00 00 00 00 00 00 00 00 00 00 00 00 00 00
       0.0 0.0 0.0 0.0
000240 00 00 00 00 00 00 00 00 00 00 00 00 00 00 00 00
       0.0 0.0 0.0 0.0
000250 00 00 00 00 00 00 00 00 00 00 00 00 00 00 00 00
       0.0 0.0 0.0 0.0
000260 00 00 00 00 00 00 00 00 00 00 00 00 00 00 00 00
       0.0 0.0 0.0 0.0
000270 00 00 00 00 00 00 00 00 00 00 00 00 00 00 00 00
       0.0 0.0 0.0 0.0
000280 00 00 00 00 00 00 00 00 00 00 00 00 00 00 00 00
       0.0 0.0 0.0 0.0
000290 00 00 00 00 00 00 00 00 00 00 00 00 00 00 00 00
       0.0 0.0 0.0 0.0
0002a0 00 00 00 00 00 00 00 00 00 00 00 00 00 00 00 00
       0.0 0.0 0.0 0.0
0002b0 00 00 00 00 00 00 00 00 00 00 00 00 00 00 00 00
       0.0 0.0 0.0 0.0
0002c0 00 00 00 00 00 00 00 00 00 00 00 00 00 00 00 00
       0.0 0.0 0.0 0.0
0002d0 00 00 00 00 00 00 00 00 00 00 00 00 00 00 00 00
       0.0 0.0 0.0 0.0
0002e0 00 00 00 00 00 00 00 00 00 00 00 00 00 00 00 00
       0.0 0.0 0.0 0.0
0002f0 00 00 00 00 00 00 00 00 00 00 00 00 00 00 00 00
       0.0 0.0 0.0 0.0
000300 00 00 00 00 00 00 00 00 00 00 00 00 00 00 00 00
       0.0 0.0 0.0 0.0
000310 00 00 00 00 00 00 00 00 00 00 00 00 00 00 00 00
       0.0 0.0 0.0 0.0
000320 00 00 00 00 00 00 00 00 00 00 00 00 00 00 00 00
       0.0 0.0 0.0 0.0
000330 00 00 00 00 00 00 00 00 00 00 00 00 00 00 00 00
       0.0 0.0 0.0 0.0
000340 00 00 00 00 00 00 00 00 00 00 00 00 00 00 00 00
       0.0 0.0 0.0 0.0
000350 00 00 00 00 00 00 00 00 00 00 00 00 00 00 00 00
       0.0 0.0 0.0 0.0
000360 00 00 00 00 00 00 00 00 00 00 00 00 00 00 00 00
       0.0 0.0 0.0 0.0
000370 00 00 00 00 00 00 00 00 00 00 00 00 00 00 00 00
       0.0 0.0 0.0 0.0
000380 00 00 00 00 00 00 00 00 00 00 00 00 00 00 00 00
       0.0 0.0 0.0 0.0
000390 00 00 00 00 00 00 00 00 00 00 00 00 00 00 00 00
       0.0 0.0 0.0 0.0
0003a0 00 00 00 00 00 00 00 00 00 00 00 00 00 00 00 00
       0.0 0.0 0.0 0.0
0003b0 00 00 00 00 00 00 00 00 00 00 00 00 00 00 00 00
       0.0 0.0 0.0 0.0
0003c0 00 00 00 00 00 00 00 00 00 00 00 00 00 00 00 00
       0.0 0.0 0.0 0.0
0003d0 00 00 00 00 00 00 00 00 00 00 00 00 00 00 00 00
       0.0 0.0 0.0 0.0
0003e0 00 00 00 00 00 00 00 00 00 00 00 00 00 00 00 00
       0.0 0.0 0.0 0.0
0003f0 00 00 00 00 00 00 00 00 00 00 00 00 00 00 00 00
       0.0 0.0 0.0 0.0

network_body._body_endoder.seq_layers.2.weight f4 [256, 256]
000000 72 79 13 3d fd c2 3e bd 1c c2 01 3d 30 ad 4d 3c
       0.03600449 -0.046572674 0.031679258 0.012553498
000010 a1 f6 90 bd f7 1d 13 3d 68 63 8c 3d 21 b7 70 bc
       -0.07078291 0.03591725 0.06854898 -0.014692099
000020 dc f8 19 bd 10 01 d6 bc c6 d6 42 bc 09 52 37 bd
       -0.037590846 -0.026123554 -0.011892026 -0.04475597
000030 60 1e e8 3d fb 63 1f be 17 1b 05 3e e3 53 22 3d
       0.113339186 -0.15565483 0.12998615 0.03963078
000040 86 4a 25 bb 8a dd 6d bd e0 f7 17 bd 1a 42 33 bc
       -0.0025221421 -0.058072604 -0.037101626 -0.010941053
000050 7a 67 77 bd e7 f8 b6 3b b3 fc 05 bc bd 63 4a 3d
       -0.060401417 0.0055838707 -0.008177924 0.049411524
000060 d3 d2 0f bd e5 9e 39 3c c9 37 ad 3d 90 a2 73 3c
       -0.035113167 0.011329387 0.08457906 0.014870301
000070 94 14 87 bd ab 4f 89 3d fb d7 82 bd f1 cb 97 3d
       -0.06595722 0.067046486 -0.06388851 0.074119456
000080 ef 2e 39 3d 17 88 dd bd 0b 6a 9b 3c 39 de cc bb
       0.045210775 -0.10816973 0.018971464 -0.006252077
000090 4a bf 0b 3d 6c e3 8d bd c7 64 26 bc 9b a9 de bd
       0.034117974 -0.06928143 -0.010155863 -0.108721934
0000a0 d7 39 a1 3d bf 6a e9 bc 3a d6 d4 3c ac ab 42 3c
       0.0787236 -0.028493283 0.025981057 0.01188175
0000b0 5b 7e bc bc 3a 36 79 3d aa 77 fe 3d 3e 2a ab bd
       -0.02300947 0.06084273 0.12425168 -0.083576664
0000c0 89 a5 65 bd 75 39 11 bd b9 df 71 bd a9 fe 94 bd
       -0.05606607 -0.035455186 -0.05905125 -0.07275135
0000d0 da 4d 35 bd d7 64 c2 3c 56 c6 06 bd 82 0a 31 bc
       -0.0442637 0.023729725 -0.03290399 -0.010805728
0000e0 7a 1c 96 3d f5 c2 bd 3d b3 ea 72 bd 04 dd c5 3c
       0.0732965 0.09265701 -0.059305858 0.02415324
0000f0 51 75 d1 3d b2 95 13 bd c8 c9 cf 3c 14 2a c9 3d
       0.102274545 -0.036031432 0.025364771 0.09822479
000100 98 32 d5 bb 79 da 4a bd 07 61 a3 3d 8e 6c c9 bd
       -0.0065062754 -0.049524758 0.07977491 -0.09835158
000110 46 6a 01 3e 0e 4c 80 3d 0e 21 52 bc 65 8d b5 bd
       0.12638196 0.06264506 -0.012825264 -0.088648595
000120 57 0b 23 bc 3f 32 41 bc e9 fd 04 bd 1e d5 67 3d
       -0.009951434 -0.011791765 -0.03246871 0.05659973
000130 d5 f9 20 3d 74 28 d5 3d 77 af eb 3c 74 2b e6 3c
       0.03930076 0.104081064 0.028770192 0.028096892
000140 24 f2 2c bd 47 3e 21 3c 8a 5c be bc 3c 36 91 3c
       -0.04222311 0.009841508 -0.023237485 0.017726056
000150 1c 58 7c 3d 90 39 d5 3d ae ff e2 3d c3 2c 12 bd
       0.061607465 0.1041137 0.11083923 -0.03568722
000160 22 aa d2 bd 30 b9 93 bc a7 8d 22 bc 05 99 ff 3d
       -0.102863565 -0.01803264 -0.009921468 0.12480358
000170 76 c2 ae 3a d1 42 d1 3c 36 0f 01 be 39 6c 37 3c
       0.00133331 0.025544556 -0.12603459 0.011195236
000180 94 5e 51 3d 98 71 01 bc 5d de e3 3c 6f 2a bb 3d
       0.051115587 -0.007900618 0.027815992 0.09138953
000190 04 00 5f bd 22 e4 af 3c 49 1e bf bd 0a 63 ca 3d
       -0.054443374 0.021471087 -0.09331948 0.098821715
0001a0 38 19 f6 3c 34 8d 6e bd 5e 2a a6 bd e8 74 c6 3c
       0.030041322 -0.05824013 -0.0811355 0.024225667
0001b0 2e 7e 4e 3d 08 80 3a 3b 9e 52 01 be 83 0f 51 3d
       0.050413303 0.002845766 -0.12629172 0.051040184
0001c0 15 17 b2 bd 95 0f 07 be 6d 3a bf bc 42 58 98 3c
       -0.08695809 -0.13189538 -0.02334329 0.018596772
0001d0 6d 38 80 bd 07 c7 6a bd ff 68 fb 3b 1d a0 50 3d
       -0.06260762 -0.057318714 0.0076724286 0.050933946
0001e0 1b 19 2e 3d 5a 74 82 3d 1c 8a c6 bc 3a 65 a4 3b
       0.04250441 0.063698485 -0.024235778 0.00501695
0001f0 57 07 c9 bd e8 1d f1 3b ed 93 39 bd 7f 80 47 3a
       -0.09815853 0.0073583014 -0.04530709 0.0007610395
000200 3d 9d 18 3d 37 50 b4 bd 20 76 88 3d 3a c9 81 3c
       0.03725933 -0.08804362 0.066631556 0.015843023
000210 ed 36 4d 3e 51 83 28 3d 69 44 08 3c 98 9e 49 bd
       0.20040484 0.041140858 0.0083170915 -0.049223512
000220 f3 aa ec 3c d0 f2 b0 3d 03 1d 94 3d a8 48 2a 3d
       0.028890109 0.08640063 0.07232096 0.041573197
000230 f9 b3 04 3c 6a d5 c4 3c 68 c4 6f 3d 15 15 f1 3d
       0.008099549 0.024027545 0.058536917 0.11771599
000240 9a 2f b8 bc 5a 91 21 3c b4 02 14 3e c4 37 e4 3c
       -0.022483636 0.009861315 0.14454156 0.027858622
000250 e9 9e 7b 3c b3 dd 90 3d 8a c7 25 bd ee 05 7f bc
       0.015357711 0.07073536 -0.0404735 -0.015565379
000260 23 ec c0 bd 09 91 2b 3c fa 0c e3 bc 98 99 89 3c
       -0.094200395 0.010471591 -0.027716149 0.016796872
000270 12 cf 33 bc 8d be 04 bd 4d dd d7 bc 19 8d 33 bd
       -0.010974662 -0.032408286 -0.026350642 -0.043835733
000280 ee 6c d4 3c a9 35 ca bd 2a a8 aa bb bf 41 fd 3c
       0.025930848 -0.09873516 -0.005208035 0.03091514
000290 a3 19 6a 3d 6b 23 bf bd 6e 80 5b bd 0e 19 23 3b
       0.057153355 -0.09332927 -0.053589277 0.002488676
0002a0 96 00 e6 bd c2 a0 92 3c be da 5e bc 1a 36 2e 3d
       -0.112305805 0.01789892 -0.013601957 0.042532064
0002b0 44 53 d7 3c 76 75 a7 ba c3 f3 a2 bc cf e4 42 3c
       0.026284821 -0.0012776095 -0.019891625 0.0118953725
0002c0 1a 40 fe bc 5a 31 af bd 18 6f 68 3d 9b 6f c7 39
       -0.031036425 -0.08554335 0.056746572 0.0003803939
0002d0 02 54 df bc 8b f6 b3 3a 56 1e 4d bd 3c 6a c1 bd
       -0.027261738 0.0013730092 -0.05007776 -0.09444091
0002e0 6d fd 50 3e 35 4a a7 3c dc 22 33 bc 96 ca cf bc
       0.20409174 0.020421127 -0.010933604 -0.025365155
0002f0 72 e1 82 3d d5 80 7d 3d c0 69 62 3c 7b fc de bc
       0.063906565 0.061890442 0.013819158 -0.027220001
000300 b2 1b f7 bd ad 99 62 bd 14 d5 c3 3c 73 81 5d be
       -0.12065829 -0.055322338 0.023905315 -0.21631412
000310 bf b7 12 3e 23 d1 43 3c 32 e8 65 3d 48 2d b8 bd
       0.14327906 0.011951718 0.05612964 -0.08993012
000320 4a 30 34 bd ae 5d 3a 3d 78 b4 9b 3d 5e ae 49 3d
       -0.043991365 0.045499496 0.07602781 0.049238555
000330 6b 39 93 bd f5 be ae 3d b8 8a 0a 3e c5 de 26 bc
       -0.07188686 0.08532516 0.1352948 -0.010184948
000340 c1 14 15 bd 14 ac 88 3b 9b 46 0b 3e d4 0d ca 3c
       -0.036396746 0.004170904 0.13601153 0.024664797
000350 ab 20 2d bd 17 98 3c bc cb 50 9f 3d 09 73 0c 3d
       -0.042267483 -0.01151087 0.07779082 0.034289394
000360 0f 6d f5 bc df 0f 0d 3d 06 f4 91 3d 7f 04 86 bd
       -0.02995923 0.034438964 0.07126622 -0.06543826
000370 29 33 87 3d 38 55 8b 3d ce b4 a3 3d ab 02 3a bd
       0.06601555 0.068033636 0.0799347 -0.0454127
000380 bd 29 1f bd 81 b0 88 3d da 19 91 3d c4 24 92 bd
       -0.038858164 0.066742904 0.07085009 -0.07135919
000390 a1 4d 76 3c bd 92 2f bc 47 f5 e2 bd f1 dc c2 3d
       0.015033157 -0.0107161375 -0.11081939 0.095147975
0003a0 be bf a7 bd 36 94 b8 bd 90 d6 af 3c 92 60 e7 3a
       -0.08190869 -0.09012644 0.021464616 0.0017652682
0003b0 db 47 36 3d 77 d3 e4 bd 38 1a b0 bc 19 bb ac bd
       0.04450212 -0.11173146 -0.021496877 -0.084341235
0003c0 ab 38 c3 bc 55 a6 f5 3d 00 7b 7d bd bd 64 c7 3d
       -0.023830732 0.11994616 -0.06188488 0.09736011
0003d0 99 5b 82 3d af eb 87 3b cf f1 18 bd 4e 1f 02 bc
       0.06365127 0.0041479687 -0.03733998 -0.007942034
0003e0 8a 06 cd 3d 55 87 0c bd a7 35 53 3d 4b b6 e9 3c
       0.10011013 -0.03430875 0.05156484 0.028529307
0003f0 d9 b6 25 bd 43 ee 88 bc 11 99 1c bd f8 53 e7 bc
       -0.04045758 -0.016715175 -0.038231913 -0.028238282

network_body._body_endoder.seq_layers.2.bias f4 [256]
000000 00 00 00 00 00 00 00 00 00 00 00 00 00 00 00 00
       0.0 0.0 0.0 0.0
000010 00 00 00 00 00 00 00 00 00 00 00 00 00 00 00 00
       0.0 0.0 0.0 0.0
000020 00 00 00 00 00 00 00 00 00 00 00 00 00 00 00 00
       0.0 0.0 0.0 0.0
000030 00 00 00 00 00 00 00 00 00 00 00 00 00 00 00 00
       0.0 0.0 0.0 0.0
000040 00 00 00 00 00 00 00 00 00 00 00 00 00 00 00 00
       0.0 0.0 0.0 0.0
000050 00 00 00 00 00 00 00 00 00 00 00 00 00 00 00 00
       0.0 0.0 0.0 0.0
000060 00 00 00 00 00 00 00 00 00 00 00 00 00 00 00 00
       0.0 0.0 0.0 0.0
000070 00 00 00 00 00 00 00 00 00 00 00 00 00 00 00 00
       0.0 0.0 0.0 0.0
000080 00 00 00 00 00 00 00 00 00 00 00 00 00 00 00 00
       0.0 0.0 0.0 0.0
000090 00 00 00 00 00 00 00 00 00 00 00 00 00 00 00 00
       0.0 0.0 0.0 0.0
0000a0 00 00 00 00 00 00 00 00 00 00 00 00 00 00 00 00
       0.0 0.0 0.0 0.0
0000b0 00 00 00 00 00 00 00 00 00 00 00 00 00 00 00 00
       0.0 0.0 0.0 0.0
0000c0 00 00 00 00 00 00 00 00 00 00 00 00 00 00 00 00
       0.0 0.0 0.0 0.0
0000d0 00 00 00 00 00 00 00 00 00 00 00 00 00 00 00 00
       0.0 0.0 0.0 0.0
0000e0 00 00 00 00 00 00 00 00 00 00 00 00 00 00 00 00
       0.0 0.0 0.0 0.0
0000f0 00 00 00 00 00 00 00 00 00 00 00 00 00 00 00 00
       0.0 0.0 0.0 0.0
000100 00 00 00 00 00 00 00 00 00 00 00 00 00 00 00 00
       0.0 0.0 0.0 0.0
000110 00 00 00 00 00 00 00 00 00 00 00 00 00 00 00 00
       0.0 0.0 0.0 0.0
000120 00 00 00 00 00 00 00 00 00 00 00 00 00 00 00 00
       0.0 0.0 0.0 0.0
000130 00 00 00 00 00 00 00 00 00 00 00 00 00 00 00 00
       0.0 0.0 0.0 0.0
000140 00 00 00 00 00 00 00 00 00 00 00 00 00 00 00 00
       0.0 0.0 0.0 0.0
000150 00 00 00 00 00 00 00 00 00 00 00 00 00 00 00 00
       0.0 0.0 0.0 0.0
000160 00 00 00 00 00 00 00 00 00 00 00 00 00 00 00 00
       0.0 0.0 0.0 0.0
000170 00 00 00 00 00 00 00 00 00 00 00 00 00 00 00 00
       0.0 0.0 0.0 0.0
000180 00 00 00 00 00 00 00 00 00 00 00 00 00 00 00 00
       0.0 0.0 0.0 0.0
000190 00 00 00 00 00 00 00 00 00 00 00 00 00 00 00 00
       0.0 0.0 0.0 0.0
0001a0 00 00 00 00 00 00 00 00 00 00 00 00 00 00 00 00
       0.0 0.0 0.0 0.0
0001b0 00 00 00 00 00 00 00 00 00 00 00 00 00 00 00 00
       0.0 0.0 0.0 0.0
0001c0 00 00 00 00 00 00 00 00 00 00 00 00 00 00 00 00
       0.0 0.0 0.0 0.0
0001d0 00 00 00 00 00 00 00 00 00 00 00 00 00 00 00 00
       0.0 0.0 0.0 0.0
0001e0 00 00 00 00 00 00 00 00 00 00 00 00 00 00 00 00
       0.0 0.0 0.0 0.0
0001f0 00 00 00 00 00 00 00 00 00 00 00 00 00 00 00 00
       0.0 0.0 0.0 0.0
000200 00 00 00 00 00 00 00 00 00 00 00 00 00 00 00 00
       0.0 0.0 0.0 0.0
000210 00 00 00 00 00 00 00 00 00 00 00 00 00 00 00 00
       0.0 0.0 0.0 0.0
000220 00 00 00 00 00 00 00 00 00 00 00 00 00 00 00 00
       0.0 0.0 0.0 0.0
000230 00 00 00 00 00 00 00 00 00 00 00 00 00 00 00 00
       0.0 0.0 0.0 0.0
000240 00 00 00 00 00 00 00 00 00 00 00 00 00 00 00 00
       0.0 0.0 0.0 0.0
000250 00 00 00 00 00 00 00 00 00 00 00 00 00 00 00 00
       0.0 0.0 0.0 0.0
000260 00 00 00 00 00 00 00 00 00 00 00 00 00 00 00 00
       0.0 0.0 0.0 0.0
000270 00 00 00 00 00 00 00 00 00 00 00 00 00 00 00 00
       0.0 0.0 0.0 0.0
000280 00 00 00 00 00 00 00 00 00 00 00 00 00 00 00 00
       0.0 0.0 0.0 0.0
000290 00 00 00 00 00 00 00 00 00 00 00 00 00 00 00 00
       0.0 0.0 0.0 0.0
0002a0 00 00 00 00 00 00 00 00 00 00 00 00 00 00 00 00
       0.0 0.0 0.0 0.0
0002b0 00 00 00 00 00 00 00 00 00 00 00 00 00 00 00 00
       0.0 0.0 0.0 0.0
0002c0 00 00 00 00 00 00 00 00 00 00 00 00 00 00 00 00
       0.0 0.0 0.0 0.0
0002d0 00 00 00 00 00 00 00 00 00 00 00 00 00 00 00 00
       0.0 0.0 0.0 0.0
0002e0 00 00 00 00 00 00 00 00 00 00 00 00 00 00 00 00
       0.0 0.0 0.0 0.0
0002f0 00 00 00 00 00 00 00 00 00 00 00 00 00 00 00 00
       0.0 0.0 0.0 0.0
000300 00 00 00 00 00 00 00 00 00 00 00 00 00 00 00 00
       0.0 0.0 0.0 0.0
000310 00 00 00 00 00 00 00 00 00 00 00 00 00 00 00 00
       0.0 0.0 0.0 0.0
000320 00 00 00 00 00 00 00 00 00 00 00 00 00 00 00 00
       0.0 0.0 0.0 0.0
000330 00 00 00 00 00 00 00 00 00 00 00 00 00 00 00 00
       0.0 0.0 0.0 0.0
000340 00 00 00 00 00 00 00 00 00 00 00 00 00 00 00 00
       0.0 0.0 0.0 0.0
000350 00 00 00 00 00 00 00 00 00 00 00 00 00 00 00 00
       0.0 0.0 0.0 0.0
000360 00 00 00 00 00 00 00 00 00 00 00 00 00 00 00 00
       0.0 0.0 0.0 0.0
000370 00 00 00 00 00 00 00 00 00 00 00 00 00 00 00 00
       0.0 0.0 0.0 0.0
000380 00 00 00 00 00 00 00 00 00 00 00 00 00 00 00 00
       0.0 0.0 0.0 0.0
000390 00 00 00 00 00 00 00 00 00 00 00 00 00 00 00 00
       0.0 0.0 0.0 0.0
0003a0 00 00 00 00 00 00 00 00 00 00 00 00 00 00 00 00
       0.0 0.0 0.0 0.0
0003b0 00 00 00 00 00 00 00 00 00 00 00 00 00 00 00 00
       0.0 0.0 0.0 0.0
0003c0 00 00 00 00 00 00 00 00 00 00 00 00 00 00 00 00
       0.0 0.0 0.0 0.0
0003d0 00 00 00 00 00 00 00 00 00 00 00 00 00 00 00 00
       0.0 0.0 0.0 0.0
0003e0 00 00 00 00 00 00 00 00 00 00 00 00 00 00 00 00
       0.0 0.0 0.0 0.0
0003f0 00 00 00 00 00 00 00 00 00 00 00 00 00 00 00 00
       0.0 0.0 0.0 0.0

network_body._body_endoder.seq_layers.4.weight f4 [256, 256]
000000 e5 1b a7 bc 03 51 96 3d 39 b6 4d be 17 45 00 be
       -0.020399043 0.073396705 -0.20089044 -0.12526356
000010 57 58 f4 bb 92 ac 64 3d 13 f6 48 3d d2 db e9 bc
       -0.00745682 0.05582864 0.0490628 -0.028547201
000020 ea 73 85 3d 70 f6 1f 3d fc 56 46 bc 83 6f bd bc
       0.065162495 0.03905338 -0.0121057 -0.023124462
000030 2d 1d 26 bd c4 39 fc bc 56 21 b1 bc e6 8b b1 3a
       -0.040555168 -0.030789264 -0.021622341 0.0013545721
000040 dc 93 ac bd 94 a3 d6 3d 45 6b 41 3d 22 83 c7 bc
       -0.084266394 0.10480419 0.04722144 -0.024354521
000050 d9 d4 5c 3d 25 13 8f bd 05 4a bf 3c 24 4b bb bc
       0.053913925 -0.069860734 0.023350725 -0.022862978
000060 6f dc 76 bd 9d 8a 26 bd e2 37 cd 3d b1 ca 14 3c
       -0.060268816 -0.040659536 0.100204244 0.0090815285
000070 af 35 df 3c 7a e2 0e bb 00 ce ea bb f6 cf 88 bb
       0.027247278 -0.002180247 -0.0071656704 -0.0041751815
000080 ce d1 d4 3a d4 95 5d bd 61 60 7a 3c e0 12 5a bc
       0.0016236843 -0.054097965 0.015281768 -0.013310164
000090 c9 08 dc bc 2f 9b 73 3c 8b 06 dc 3d 41 ad a6 bb
       -0.026859658 0.014868542 0.107434355 -0.0050865714
0000a0 2d d8 7f 3d 68 ca a0 3d 45 6a be bc 6d 4c 72 bb
       0.06246202 0.07851106 -0.023244033 -0.0036971823
0000b0 79 de 96 3d e3 e3 9c bd cb a2 84 bd 23 c7 b5 3c
       0.07366652 -0.076606534 -0.06476363 0.022189682
0000c0 b8 28 f0 bc 6b 2b 64 3c 8c 21 25 bc 43 f3 6d bd
       -0.029316291 0.013926367 -0.010078799 -0.05809332
0000d0 24 4b 9f 3d bd 0b 01 3d 18 b2 2c bd 18 fe 78 3d
       0.07778004 0.031505335 -0.04216203 0.060789198
0000e0 98 17 8c bd 46 f6 12 3c 9d ba 67 bd f6 19 05 be
       -0.06840438 0.008969849 -0.056574453 -0.12998185
0000f0 ba 41 9e bc da 4f 6c bd b9 0d 4a bd ba f8 2a 3c
       -0.01931845 -0.05769334 -0.049329493 0.010435278
000100 f4 62 03 be d2 f1 cc 3d a4 4d e0 bb d3 0c ff 3b
       -0.12830716 0.10007061 -0.006845193 0.007783511
000110 77 a0 12 3d a6 69 8f bd 87 0f ae 3b 21 79 38 3d
       0.035797562 -0.07002573 0.0053119096 0.045037393
000120 f8 0b 95 3d 70 35 37 3d 6d 1d e4 bd 15 87 04 bd
       0.072776735 0.044728696 -0.11138425 -0.032355387
000130 91 9d f1 3d a9 85 ff bb d5 6f ae 3d 18 57 49 ba
       0.117976315 -0.007797916 0.08517424 -0.00076805195
000140 fe 91 55 bd da 16 b1 3d 57 28 41 bd 7f a1 c7 bb
       -0.052141182 0.08646937 -0.04715761 -0.00609225
000150 42 81 28 bd 31 3b 43 3d ce 7f 45 3d 0a 7d 18 bc
       -0.041138895 0.04766387 0.048217587 -0.009307155
000160 77 17 90 bd 7e a3 15 3d db 68 93 3d 55 f4 41 bd
       -0.070357256 0.03653287 0.07197734 -0.047352154
000170 d0 03 66 3d 64 26 99 3d ef d2 e9 3d be 1a f5 bc
       0.05615598 0.074780256 0.114171855 -0.029919978
000180 81 0e 85 3d 93 74 bb bc d2 71 83 bd bc 6c 43 bd
       0.06496907 -0.022882735 -0.06418194 -0.04771112
000190 a8 22 61 bd b4 df 32 bd 71 fa 5b bd 39 85 c6 bc
       -0.05496469 -0.04367037 -0.053705636 -0.024233447
0001a0 d3 5d 1b bd 2f 79 28 3d 74 25 d0 bd fd 70 5c bd
       -0.037931275 0.041131195 -0.101633936 -0.05381869
0001b0 f9 21 4a bd 06 82 d0 bc 11 76 32 ba d2 b6 7a 3d
       -0.049348805 -0.025452625 -0.00068077544 0.061209507
0001c0 21 88 39 3d 06 bd 0e 3d 67 c4 cb 3b 9a 77 72 3c
       0.04529584 0.034848236 0.0062184813 0.014799023
0001d0 99 c0 a2 bc 4f df db 3d 6d 4b 15 3d c2 22 3d bc
       -0.019867228 0.10735952 0.036448885 -0.011543931
0001e0 46 44 de bb cd c4 0c be c1 fd b1 bd d4 57 c0 bd
       -0.006783041 -0.13746949 -0.08690978 -0.09391752
0001f0 87 14 b7 bc 47 70 1e bd 43 62 13 be 0b 1b 6c bd
       -0.022348655 -0.038681295 -0.14392953 -0.057642978
000200 18 11 1d 3e e1 36 a5 3d 67 ad 56 3d 7e 2a 52 bd
       0.15338552 0.08067108 0.052411463 -0.051310055
000210 1c 97 be bc 48 c7 01 bd df e6 d6 3d b0 33 a2 bc
       -0.023265414 -0.03168419 0.10493254 -0.019800037
000220 e9 43 18 3b 6c 2d 1e bd 4e 00 97 bb d2 8e 95 bd
       0.0023233837 -0.038617536 -0.0046081906 -0.073026314
000230 e6 83 40 bd 51 25 c6 bd f2 ca dc bd 89 aa 7e 3c
       -0.04700079 -0.09675086 -0.10780896 0.015543588
000240 c8 d9 ef 3c 0c 8a 14 3c 2a 88 34 bb 7e 34 8a 3c
       0.02927865 0.009066116 -0.002754698 0.016870733
000250 e4 60 c5 bd 09 dc 85 bd 83 f9 b2 3c e2 39 19 bd
       -0.09637621 -0.06536109 0.021847492 -0.037408717
000260 53 bb 80 bd 9a d6 62 bd 50 7e 89 bd 57 9e 2a 3d
       -0.06285729 -0.05538044 -0.06713545 0.04165491
000270 ff 2e b8 bc 68 67 3a 3d 33 f1 ac bd cc 4c 03 3c
       -0.022483347 0.045508772 -0.084444426 0.008013915
000280 03 6d 6e bd c9 4f c6 bd 08 f7 3d 3e 3f 79 3c bd
       -0.05820943 -0.096831866 0.18551266 -0.046014067
000290 71 5e 8f 3c e6 33 19 3d bb cd 80 bd 56 89 f8 3c
       0.017501088 0.03740301 -0.0628924 0.030338924
0002a0 66 96 2a bb c5 7c 0a bc 8c 9e 47 3c 1a dd 8b bd
       -0.0026029586 -0.008452599 0.012183797 -0.06829281
0002b0 50 36 81 3d 16 12 29 3b b0 4f c1 3d 7e 4d 2e 3d
       0.063091874 0.0025798134 0.09439027 0.04255437
0002c0 58 d9 08 3e 6e d9 39 bc c9 86 95 bc 69 63 8a bd
       0.1336416 -0.011343343 -0.018252747 -0.06757242
0002d0 a9 6b 95 3c 0b 9e 48 3c 30 03 c9 bd 58 8b d7 3c
       0.018239813 0.012244712 -0.09815061 0.026311561
0002e0 bd 62 83 3d f5 d2 bc 3d f3 13 09 bd 87 74 3a bd
       0.06415317 0.09219924 -0.03346629 -0.045521285
0002f0 c8 72 a1 3d fb 79 f4 3c 20 79 63 bc 60 a6 40 bd
       0.07883221 0.029843321 -0.013883859 -0.047033668
000300 b0 be 11 3b 90 57 0f 3d 7c 3e ff 3c 2a 10 99 3d
       0.0022238903 0.034995615 0.031157725 0.07473786
000310 ed 7c 5b 3c 52 ee b0 bc c7 4a e4 ba 3f 43 09 3d
       0.013396484 -0.021598015 -0.0017417305 0.033511396
000320 d8 3f a2 bd 80 4b 78 3b b3 41 64 3c c1 e4 83 bd
       -0.079223335 0.0037886798 0.01393168 -0.06440116
000330 53 56 3d bd b8 f1 f3 3d 41 0d 46 bd 85 e1 06 bc
       -0.046224903 0.119113386 -0.048352484 -0.008232479
000340 55 c5 05 3c 0f 45 a7 bd 9c 34 1a be 80 89 33 bd
       0.008164723 -0.08167469 -0.15059131 -0.043832302
000350 58 2a c3 bc e3 13 25 3d 25 fe 90 3b f6 bc 47 3d
       -0.023823902 0.04030217 0.0044248276 0.04876419
000360 c5 2e 26 3e 86 73 dd bd 38 d6 87 3d f5 a5 2b be
       0.16228779 -0.1081305 0.06632656 -0.16762526
000370 90 b3 e3 3d 5a 74 af 3d 1b 8b ac 3d c7 55 6e 3d
       0.11118233 0.08567114 0.0842497 0.058187272
000380 e4 a6 5d bd af c8 0d 3e ad 54 3b be 38 31 bc 3c
       -0.054114237 0.13846086 -0.1829402 0.022972688
000390 61 c6 85 3d 9c 1c b4 bb 5c 7d f7 3b 8a 6b 9b bd
       0.065319784 -0.0054965746 0.007552786 -0.07588871
0003a0 14 55 04 be c1 50 3b bc 62 da 25 3e f1 31 19 3d
       -0.1292308 -0.011432827 0.16196588 0.037401143
0003b0 1c 4c f8 3c af 64 f5 bc b5 5a fa 3b 93 83 85 3c
       0.03030973 -0.029955236 0.0076402077 0.016298091
0003c0 62 ad b7 bd 57 b4 21 3d 28 5c 34 bc ae 60 a6 3b
       -0.08968617 0.039478626 -0.0110083 0.005077443
0003d0 9d 35 2d bc 0e ab de bd cb 04 6d bd 08 8e 82 3d
       -0.010571864 -0.1087247 -0.0578659 0.063747466
0003e0 bf d5 82 3c e9 ac f3 bb 1a 9c 20 be 48 b3 a6 bd
       0.015971063 -0.007436384 -0.15684548 -0.08139664
0003f0 3e e1 3f 3d 57 74 1c bd d6 ee ab bd 09 ee bf bc
       0.046845667 -0.038196888 -0.08395164 -0.023428934

network_body._body_endoder.seq_layers.4.bias f4 [256]
000000 00 00 00 00 00 00 00 00 00 00 00 00 00 00 00 00
       0.0 0.0 0.0 0.0
000010 00 00 00 00 00 00 00 00 00 00 00 00 00 00 00 00
       0.0 0.0 0.0 0.0
000020 00 00 00 00 00 00 00 00 00 00 00 00 00 00 00 00
       0.0 0.0 0.0 0.0
000030 00 00 00 00 00 00 00 00 00 00 00 00 00 00 00 00
       0.0 0.0 0.0 0.0
000040 00 00 00 00 00 00 00 00 00 00 00 00 00 00 00 00
       0.0 0.0 0.0 0.0
000050 00 00 00 00 00 00 00 00 00 00 00 00 00 00 00 00
       0.0 0.0 0.0 0.0
000060 00 00 00 00 00 00 00 00 00 00 00 00 00 00 00 00
       0.0 0.0 0.0 0.0
000070 00 00 00 00 00 00 00 00 00 00 00 00 00 00 00 00
       0.0 0.0 0.0 0.0
000080 00 00 00 00 00 00 00 00 00 00 00 00 00 00 00 00
       0.0 0.0 0.0 0.0
000090 00 00 00 00 00 00 00 00 00 00 00 00 00 00 00 00
       0.0 0.0 0.0 0.0
0000a0 00 00 00 00 00 00 00 00 00 00 00 00 00 00 00 00
       0.0 0.0 0.0 0.0
0000b0 00 00 00 00 00 00 00 00 00 00 00 00 00 00 00 00
       0.0 0.0 0.0 0.0
0000c0 00 00 00 00 00 00 00 00 00 00 00 00 00 00 00 00
       0.0 0.0 0.0 0.0
0000d0 00 00 00 00 00 00 00 00 00 00 00 00 00 00 00 00
       0.0 0.0 0.0 0.0
0000e0 00 00 00 00 00 00 00 00 00 00 00 00 00 00 00 00
       0.0 0.0 0.0 0.0
0000f0 00 00 00 00 00 00 00 00 00 00 00 00 00 00 00 00
       0.0 0.0 0.0 0.0
000100 00 00 00 00 00 00 00 00 00 00 00 00 00 00 00 00
       0.0 0.0 0.0 0.0
000110 00 00 00 00 00 00 00 00 00 00 00 00 00 00 00 00
       0.0 0.0 0.0 0.0
000120 00 00 00 00 00 00 00 00 00 00 00 00 00 00 00 00
       0.0 0.0 0.0 0.0
000130 00 00 00 00 00 00 00 00 00 00 00 00 00 00 00 00
       0.0 0.0 0.0 0.0
000140 00 00 00 00 00 00 00 00 00 00 00 00 00 00 00 00
       0.0 0.0 0.0 0.0
000150 00 00 00 00 00 00 00 00 00 00 00 00 00 00 00 00
       0.0 0.0 0.0 0.0
000160 00 00 00 00 00 00 00 00 00 00 00 00 00 00 00 00
       0.0 0.0 0.0 0.0
000170 00 00 00 00 00 00 00 00 00 00 00 00 00 00 00 00
       0.0 0.0 0.0 0.0
000180 00 00 00 00 00 00 00 00 00 00 00 00 00 00 00 00
       0.0 0.0 0.0 0.0
000190 00 00 00 00 00 00 00 00 00 00 00 00 00 00 00 00
       0.0 0.0 0.0 0.0
0001a0 00 00 00 00 00 00 00 00 00 00 00 00 00 00 00 00
       0.0 0.0 0.0 0.0
0001b0 00 00 00 00 00 00 00 00 00 00 00 00 00 00 00 00
       0.0 0.0 0.0 0.0
0001c0 00 00 00 00 00 00 00 00 00 00 00 00 00 00 00 00
       0.0 0.0 0.0 0.0
0001d0 00 00 00 00 00 00 00 00 00 00 00 00 00 00 00 00
       0.0 0.0 0.0 0.0
0001e0 00 00 00 00 00 00 00 00 00 00 00 00 00 00 00 00
       0.0 0.0 0.0 0.0
0001f0 00 00 00 00 00 00 00 00 00 00 00 00 00 00 00 00
       0.0 0.0 0.0 0.0
000200 00 00 00 00 00 00 00 00 00 00 00 00 00 00 00 00
       0.0 0.0 0.0 0.0
000210 00 00 00 00 00 00 00 00 00 00 00 00 00 00 00 00
       0.0 0.0 0.0 0.0
000220 00 00 00 00 00 00 00 00 00 00 00 00 00 00 00 00
       0.0 0.0 0.0 0.0
000230 00 00 00 00 00 00 00 00 00 00 00 00 00 00 00 00
       0.0 0.0 0.0 0.0
000240 00 00 00 00 00 00 00 00 00 00 00 00 00 00 00 00
       0.0 0.0 0.0 0.0
000250 00 00 00 00 00 00 00 00 00 00 00 00 00 00 00 00
       0.0 0.0 0.0 0.0
000260 00 00 00 00 00 00 00 00 00 00 00 00 00 00 00 00
       0.0 0.0 0.0 0.0
000270 00 00 00 00 00 00 00 00 00 00 00 00 00 00 00 00
       0.0 0.0 0.0 0.0
000280 00 00 00 00 00 00 00 00 00 00 00 00 00 00 00 00
       0.0 0.0 0.0 0.0
000290 00 00 00 00 00 00 00 00 00 00 00 00 00 00 00 00
       0.0 0.0 0.0 0.0
0002a0 00 00 00 00 00 00 00 00 00 00 00 00 00 00 00 00
       0.0 0.0 0.0 0.0
0002b0 00 00 00 00 00 00 00 00 00 00 00 00 00 00 00 00
       0.0 0.0 0.0 0.0
0002c0 00 00 00 00 00 00 00 00 00 00 00 00 00 00 00 00
       0.0 0.0 0.0 0.0
0002d0 00 00 00 00 00 00 00 00 00 00 00 00 00 00 00 00
       0.0 0.0 0.0 0.0
0002e0 00 00 00 00 00 00 00 00 00 00 00 00 00 00 00 00
       0.0 0.0 0.0 0.0
0002f0 00 00 00 00 00 00 00 00 00 00 00 00 00 00 00 00
       0.0 0.0 0.0 0.0
000300 00 00 00 00 00 00 00 00 00 00 00 00 00 00 00 00
       0.0 0.0 0.0 0.0
000310 00 00 00 00 00 00 00 00 00 00 00 00 00 00 00 00
       0.0 0.0 0.0 0.0
000320 00 00 00 00 00 00 00 00 00 00 00 00 00 00 00 00
       0.0 0.0 0.0 0.0
000330 00 00 00 00 00 00 00 00 00 00 00 00 00 00 00 00
       0.0 0.0 0.0 0.0
000340 00 00 00 00 00 00 00 00 00 00 00 00 00 00 00 00
       0.0 0.0 0.0 0.0
000350 00 00 00 00 00 00 00 00 00 00 00 00 00 00 00 00
       0.0 0.0 0.0 0.0
000360 00 00 00 00 00 00 00 00 00 00 00 00 00 00 00 00
       0.0 0.0 0.0 0.0
000370 00 00 00 00 00 00 00 00 00 00 00 00 00 00 00 00
       0.0 0.0 0.0 0.0
000380 00 00 00 00 00 00 00 00 00 00 00 00 00 00 00 00
       0.0 0.0 0.0 0.0
000390 00 00 00 00 00 00 00 00 00 00 00 00 00 00 00 00
       0.0 0.0 0.0 0.0
0003a0 00 00 00 00 00 00 00 00 00 00 00 00 00 00 00 00
       0.0 0.0 0.0 0.0
0003b0 00 00 00 00 00 00 00 00 00 00 00 00 00 00 00 00
       0.0 0.0 0.0 0.0
0003c0 00 00 00 00 00 00 00 00 00 00 00 00 00 00 00 00
       0.0 0.0 0.0 0.0
0003d0 00 00 00 00 00 00 00 00 00 00 00 00 00 00 00 00
       0.0 0.0 0.0 0.0
0003e0 00 00 00 00 00 00 00 00 00 00 00 00 00 00 00 00
       0.0 0.0 0.0 0.0
0003f0 00 00 00 00 00 00 00 00 00 00 00 00 00 00 00 00
       0.0 0.0 0.0 0.0

action_model._discrete_distribution.branches.0.weight f4 [2, 256]
000000 27 73 8f bb f5 bf 4b 3b f0 a3 68 3b fd b1 ee 3b
       -0.004377741 0.0031089757 0.0035498105 0.0072844015
000010 20 0f 80 ba 15 f9 2d 3b dd 7a 61 3a 08 ea 29 3b
       -0.0009770133 0.002654617 0.0008601377 0.0025926847
000020 8d 57 0c 3c ff ff 4d bb 37 6d 16 bb 8e c4 80 3a
       0.008565796 -0.0031433103 -0.002295328 0.0009824203
000030 bb cf 59 bb ae 43 ba bb 80 9f 5a 3b 88 4c 97 3b
       -0.003323539 -0.0056843376 0.003335923 0.0046172775
000040 7d df 7e b9 41 42 a0 3b a3 4d 97 3b 5f c4 ce 3b
       -0.00024306584 0.0048907106 0.0046174093 0.0063100304
000050 dd 2d 8f bb b4 16 c1 bb f2 86 16 ba 62 38 61 3b
       -0.004369481 -0.005892599 -0.00057421543 0.0034365882
000060 1d f9 f2 ba 09 ba 1e bc ed 53 d0 3b 74 c3 02 bb
       -0.0018537376 -0.009687909 0.006357661 -0.0019952925
000070 9b 98 17 bb cf a5 fb bb 6c 4b 17 3b e1 fb 13 bb
       -0.0023131731 -0.007679678 0.0023085726 -0.0022580551
000080 8b e0 07 3b bc fc 80 3b ea f4 a4 3a 45 77 ed 3a
       0.0020733203 0.0039363783 0.0012585197 0.001811721
000090 02 a6 20 3a 73 37 08 bc 50 e5 26 bc 73 2c 33 bb
       0.0006128253 -0.008314001 -0.010186508 -0.0027339726
0000a0 97 b7 9c 3b af e5 d0 3b 73 d2 87 bc 68 a8 30 3c
       0.004782628 0.0063750367 -0.016579842 0.010782339
0000b0 11 97 21 bb 61 cb 2b bb 72 5c ae bb 3b 77 f2 3b
       -0.0024656693 -0.0026213753 -0.005321079 0.0073994673
0000c0 d8 40 a8 3b 05 86 6e 3c 77 dd b7 3b 7d 15 16 3c
       0.005134683 0.01455832 0.0056111175 0.009160397
0000d0 64 1e 26 bc 9e ca 39 3b de e9 49 bc d6 4f 92 3b
       -0.010139082 0.002834953 -0.012323825 0.0044650836
0000e0 fa b4 ce b9 4f bb aa 3b c2 ab bb bb 24 86 ba 3b
       -0.0003942622 0.005210317 -0.0057272622 0.0056922603
0000f0 7b 29 d8 3b dd fe 74 bb 3b 40 dd bb 27 69 c9 3b
       0.0065967417 -0.0037383356 -0.0067520416 0.0061465683
000100 6d 7e c3 3a 2f e9 01 3b 87 dd 1f bc 6b 93 b5 bb
       0.0014914997 0.0019822826 -0.009757406 -0.005541255
000110 85 6b 21 3b 27 b6 dc 3b 24 40 9e 3b 82 92 66 b9
       0.0024630737 0.0067355814 0.0048294235 -0.00021989088
000120 df 61 97 3b d3 e2 64 bb 95 cb 66 ba 2c 46 b3 ba
       0.0046198214 -0.0034925237 -0.000880414 -0.0013677529
000130 0b e3 e1 3a 63 a1 0d 3b ae e1 36 3c 3e 6e bf 3b
       0.0017233802 0.0021611087 0.011162205 0.0058419993
000140 ba 80 fa 3b d2 23 c0 3a 51 1b a4 ba d9 11 9a 3b
       0.00764474 0.0014659113 -0.0012520348 0.0047018346
000150 d7 6f e2 3a fb 01 99 3a bb db 4f bc f7 45 2c 3c
       0.0017275763 0.0011673564 -0.012686665 0.010514728
000160 d3 0c 53 39 26 57 90 ba f7 f6 06 bc 11 1d 90 bb
       0.00020127305 -0.00110123 -0.008237592 -0.0043979962
000170 db 71 0a bc b4 2b a7 39 12 c8 e9 ba 33 2f 14 bc
       -0.008449997 0.00031885284 -0.0017836115 -0.009044456
000180 65 9f 57 bc 8f 4f c9 3b 5d c3 fa bb cb c0 fb 3b
       -0.013160561 0.0061435173 -0.0076526836 0.007682895
000190 cd 89 59 ba 77 bd 56 38 f0 88 b4 3b 85 7b bc bb
       -0.0008298427 5.119803e-05 0.0055094883 -0.0057520294
0001a0 63 07 35 3b ff 6b 3d 3a 2f 70 7c 3a 70 79 d9 bb
       0.002762281 0.00072258705 0.0009629754 -0.006636791
0001b0 e4 23 26 3c 9e 0f b5 bb 1f 4c b4 3b f8 57 f2 3b
       0.010140393 -0.0055255434 0.0055022384 0.0073957406
0001c0 23 ac 90 ba 65 3d 14 3b ed 4c 38 3c 46 a4 b7 bb
       -0.0011037629 0.0022619602 0.011248809 -0.0056042997
0001d0 bf 89 50 3b 2e 41 8e bb f9 aa a0 bb 2a 99 0a 3b
       0.0031820384 -0.004341266 -0.004903194 0.0021148422
0001e0 55 3a 04 3c 6a 95 7a bb 9f 23 d1 bb ea da 3a 39
       0.008070548 -0.003823603 -0.00638242 0.00017819894
0001f0 30 fb dd 3b 81 6f 07 bb 5f d5 52 3b 68 46 f1 bb
       0.0067743286 -0.0020665827 0.0032170636 -0.0073631294
000200 02 53 04 3b 67 fb 4c 3b 78 a8 5d 3b 14 b4 92 ba
       0.0020191078 0.0031277777 0.003382234 -0.0011192583
000210 53 36 c5 ba 50 53 eb 3b 98 15 96 3b 93 9d 7a 3a
       -0.0015046097 0.0071815625 0.004580211 0.00095602236
000220 eb 24 3b 3b 64 e1 49 3b 98 96 15 bc ff e8 27 3c
       0.002855594 0.003080451 -0.009130143 0.010248422
000230 c0 09 ff bb 7a 55 f5 3b 13 45 52 ba 43 88 96 bb
       -0.0077831447 0.0074869962 -0.0008021157 -0.0045938804
000240 bd de 4b ba ec 7b 06 3b db 3d af 3a 47 87 11 3a
       -0.0007777026 0.002052064 0.0013369875 0.0005551469
000250 62 1d 0a bb 52 60 13 3c 80 56 6c 3b bb 4b 08 3c
       -0.0021074642 0.0089951325 0.00360623 0.008318837
000260 cb 05 27 bc 15 54 87 bb 08 74 bd 3b 7b fb c8 3b
       -0.010194252 -0.0041298964 0.0057816543 0.0061334944
000270 25 a0 12 3b 4e 75 ae 3a 38 26 e1 3b b5 29 65 3b
       0.0022373286 0.0013310106 0.006871011 0.0034967486
000280 53 d4 10 bc 2a 39 53 3c 87 a8 f4 ba 64 24 c1 bb
       -0.008839685 0.012892047 -0.0018665948 -0.0058942307
000290 b7 f2 07 ba d7 26 3c ba f3 6d c6 bb c2 3f 7b 3b
       -0.00051860086 -0.00071774184 -0.0060555874 0.0038337563
0002a0 67 16 81 bb 2a cc 1f 3c bb a7 06 bc 85 6b f8 3a
       -0.003939438 0.009753266 -0.008218701 0.0018952942
0002b0 33 d6 7a 38 23 f8 0f bc ac aa 0b bc df f2 83 3c
       5.9804133e-05 -0.008787188 -0.008524578 0.01610702
0002c0 5b 8c a4 3b c2 ff 13 bb c3 22 e1 bb 7e 01 84 bb
       0.0050216145 -0.0022582863 -0.006870599 -0.004028498
0002d0 74 f9 47 3b 39 4e a3 3b 9d 4d 26 bc 9d d5 86 bb
       0.0030513676 0.00498369 -0.01015034 -0.00411482
0002e0 04 6e be 3b 10 b5 16 bb 4a 99 5d bb fe f8 17 bc
       0.0058114547 -0.0022996105 -0.0033813291 -0.009275673
0002f0 09 6c c4 3b 64 e9 00 bc 8a c8 dd bb 66 25 8f 3b
       0.005994324 -0.007868145 -0.006768291 0.004368472
000300 45 ef cc bb ad cd 7f bb 35 25 ed 3a 63 52 38 3a
       -0.006254109 -0.0039032504 0.0018092754 0.00070313195
000310 59 f6 39 3b d7 0b d5 ba af 35 1e 3a 44 09 96 bb
       0.0028375594 -0.0016254139 0.0006035221 -0.0045787413
000320 4f e2 a4 ba ce 9f 25 bb d2 cf 94 bb 2d c1 c6 ba
       -0.0012579652 -0.0025272253 -0.0045413757 -0.0015163772
000330 f3 d4 38 bb b2 cf 3c 3b fb b8 94 3b 44 c6 15 3c
       -0.00282031 0.002881032 0.004538653 0.0091415085
000340 c4 4e 94 3c 22 de f9 3b f2 86 39 3c af 4c 07 bb
       0.018103965 0.0076253572 0.011323677 -0.0020645072
000350 b0 d5 e2 bb 67 92 f3 3a 5f aa c5 3b f8 22 f9 bb
       -0.006922446 0.001858306 0.0060322727 -0.0076030456
000360 b8 f8 a5 3a af 03 48 bc d7 0a 4f 3b 43 b8 da bb
       0.0012662625 -0.0122079095 0.0031592154 -0.0066747977
000370 f8 0e e5 bb 61 1f 8b bb e5 95 dd b9 77 fd 5c 3b
       -0.00699031 -0.004245684 -0.00042264085 0.0033720413
000380 1d dd 4d bc 5f 97 fe 3a 8d 6f 5c bb 9f cf 13 3c
       -0.012564925 0.0019423774 -0.0033635825 0.009021669
000390 e3 73 d1 bb 3b 61 15 bb 71 2e 2a 3c 2a 52 75 3a
       -0.0063919886 -0.002279355 0.010387049 0.00093582517
0003a0 24 78 38 3c 10 e2 d9 3b 87 63 3e 3c 04 14 98 bb
       0.0112591125 0.006649263 0.011620409 -0.004641058
0003b0 d5 71 49 bb fa a3 cc 3b 05 ac 8f 3b 4f ea 3c bb
       -0.0030738015 0.0062451335 0.00438452 -0.0028826182
0003c0 11 d2 31 3c 54 7e 25 bc d7 df 69 bb bb ee 30 3a
       0.010853306 -0.01010092 -0.0035686397 0.0006749441
0003d0 9a 2a a3 ba 30 e5 c8 ba 4b d4 c3 3b 0f 45 fb bb
       -0.0012448609 -0.0015327092 0.005976235 -0.0076681445
0003e0 8f 19 0e bc 87 2a 04 3c 8f 2d 3f 3a 1e 25 1c bc
       -0.008673086 0.00806678 0.00072928605 -0.009530334
0003f0 32 f2 f3 bb 7b fa df 3b a1 23 07 39 5c 52 af bb
       -0.0074446434 0.0068352795 0.00012887876 -0.005350394

action_model._discrete_distribution.branches.0.bias f4 [2]
000000 00 00 00 00 00 00 00 00
       0.0 0.0

54 f4 [2]
000000 8e eb 91 42 fc 79 fd 3f
       72.96007 1.9802852
