results/flappy_slow_v13/FlappyBirdAgent/checkpoint.pt (torch, 428727 bytes, 41 tensors)

network_body.observation_encoder.processors.0.normalizer.running_mean f4 [2]
000000 93 2e d1 3f 6b c4 3f 40
       1.6342338 2.9963634

network_body.observation_encoder.processors.0.normalizer.running_variance f4 [2]
000000 b1 5d 2a 46 f3 63 d6 46
       10903.423 27441.975

network_body.processors.0.normalizer.running_mean f4 [2]
000000 93 2e d1 3f 6b c4 3f 40
       1.6342338 2.9963634

network_body.processors.0.normalizer.running_variance f4 [2]
000000 b1 5d 2a 46 f3 63 d6 46
       10903.423 27441.975

network_body._body_endoder.seq_layers.0.weight f4 [128, 2]
000000 0a 82 ce 3e 1c f8 a3 bf c2 df 59 bf fd 01 b0 bf
       0.40333587 -1.2810092 -0.8510705 -1.3750607
000010 0a b9 9b bf 5a de ee be 98 41 b4 3f 46 80 75 3f
       -1.2165844 -0.46654016 1.4082518 0.95898855
000020 2d 18 d6 be 0c 77 dd 3e 8c 88 bf 3f 3d 1b 1e 3f
       -0.4181532 0.43254888 1.4963546 0.6176031
000030 95 d0 ad bf d0 90 74 bf e6 42 c5 bf ca c2 6e 3e
       -1.3579279 -0.95533466 -1.5411041 0.23316494
000040 44 4e 8d 3d 86 4b eb 3e 46 59 27 bf 98 e3 43 3e
       0.068996936 0.45956057 -0.65370595 0.19129789
000050 ae 95 e6 be de aa 8b bd 66 6b 12 bf b1 25 b4 3e
       -0.45036072 -0.068197 -0.57195127 0.35185006
000060 60 0d aa 3e 44 0c 24 3e 86 b2 7d bf 16 38 dc be
       0.3321333 0.16020304 -0.9910053 -0.4301154
000070 58 fd 59 bd 1a 27 a1 be 01 b9 0e be 1e 52 f7 be
       -0.053220123 -0.31475145 -0.13937761 -0.48304838
000080 8e ad f9 3e d5 06 08 3e 5a 62 ab 3f a6 53 71 3f
       0.48765224 0.13283856 1.338939 0.9426826
000090 29 3d cc be 05 a0 95 bf 76 45 73 be 80 ac 59 3f
       -0.39890411 -1.1689459 -0.23756966 0.8502884
0000a0 1f df 5b be e0 58 55 3e 12 7c 8a bd fa 9e bb 3e
       -0.21471833 0.20834684 -0.06761946 0.36644727
0000b0 57 81 5c bf 02 c2 80 be bd bd 4a bf 96 83 4f 3f
       -0.86134857 -0.25148016 -0.7919577 0.8106016
0000c0 1a fd ce be 0e 38 b1 be 64 ca 4b 3e ce 43 ea be
       -0.40427476 -0.3461308 0.19901425 -0.45754856
0000d0 67 af 27 3e b1 6d 1a 3e 00 80 23 3f 89 de 0a 3f
       0.16375504 0.15080906 0.6386719 0.5424581
0000e0 06 96 e5 3e 52 31 fe 3e 56 f3 1a 3f 2a 11 1a 3e
       0.4484102 0.49647003 0.6052755 0.1504561
0000f0 e9 ae 21 3f 60 c9 89 bd a6 02 85 be 84 c2 19 3f
       0.63157517 -0.06727862 -0.25978583 0.6006243
000100 f6 a2 4d bd a5 44 71 3f ce 53 80 3f 82 8c ac bf
       -0.05020424 0.9424537 1.0025575 -1.348038
000110 02 17 93 be 2b aa 37 3f 61 52 56 3f f9 0f c2 bd
       -0.2872849 0.7174403 0.8371945 -0.09475703
000120 db ec 74 3d 82 94 0b be 55 fb 0b 3f 7e 3e db 3e
       0.059796195 -0.1363087 0.5468038 0.42821115
000130 20 24 b3 3f b9 6a 3e bf c5 bc 0a be 6c 40 8d 3d
       1.39954 -0.74381596 -0.13548572 0.06897053
000140 5e ec 5c 3f 68 7b 00 40 d0 7b 0b bb e7 01 ce bf
       0.8629817 2.0075321 -0.0021283515 -1.609433
000150 3b 97 00 bf da 91 48 be 79 a5 f2 be 5b 4d e0 3e
       -0.5023076 -0.19586888 -0.4739187 0.43809018
000160 e6 b0 dd 3d 88 a5 25 3f 95 40 ec 3d 25 cb c9 be
       0.10824756 0.64705706 0.115357555 -0.394128
000170 88 e7 26 bf e3 0d 60 bf 6f 2c 7b be 53 24 91 bf
       -0.6519704 -0.8752119 -0.24528669 -1.133921
000180 2a 46 dd bd 5f bf 8e 3e a2 dd 41 3f 76 fb 1d bf
       -0.10804398 0.2788038 0.7572881 -0.61711824
000190 35 8e c0 bf b8 49 17 3f ba 8b 0b 3f 2d bf d6 3d
       -1.5043398 0.5909686 0.5451008 0.10485683
0001a0 8b 51 90 3f c3 81 90 be 89 a4 89 bd cd 2b 57 3f
       1.1274885 -0.28224 -0.06720836 0.8405121
0001b0 81 44 71 3e 43 4d 5d bf ed 96 99 be 69 eb 42 bf
       0.23561288 -0.8644602 -0.2999796 -0.7614046
0001c0 dc 20 c4 bf 32 2c 99 be 51 d1 50 bc b1 86 82 bf
       -1.5322528 -0.2991653 -0.012745217 -1.0197355
0001d0 69 73 2b bf 10 85 a2 bf d4 3d 8e 3d c1 65 88 be
       -0.66972977 -1.2696857 0.069453865 -0.26640132
0001e0 20 e5 18 be b6 63 33 bf 41 58 48 bf 00 e3 2c bf
       -0.14931154 -0.7007402 -0.78259665 -0.67533875
0001f0 b9 b9 e6 3e c1 ee f1 3e a5 15 13 bf 41 34 09 bf
       0.4506357 0.47252467 -0.574549 -0.5359536
000200 77 3c ce 3e 6d d8 06 3f b4 cb 04 3e 19 ef 03 3f
       0.40280506 0.5267399 0.12968332 0.5153671
000210 78 99 8f 3f d6 42 9f be ad 41 88 be fa 64 c2 3f
       1.121871 -0.3110568 -0.26612607 1.5187066
000220 99 dc 3d 3f c0 57 87 be d3 fe 3c 3f af 1a 7e bf
       0.7416473 -0.26434135 0.7382633 -0.99259466
000230 03 8b 33 3e 5f 9d c3 3e ab 5e fa 3e b1 64 99 bf
       0.17533498 0.38206002 0.4890035 -1.1983854
000240 f0 3b 1c bf cf 97 40 3f e3 7f 52 bf f1 bf 7b 3f
       -0.6102896 0.7523164 -0.8222639 0.98339754
000250 0e fb e5 be 84 3a ae bf fa 37 32 bf 1c d2 67 be
       -0.44918102 -1.3611608 -0.69616663 -0.22638744
000260 37 f1 21 bf 27 12 af 3e aa a3 49 bf af 5e 64 3e
       -0.6325869 0.34193537 -0.78765357 0.22301744
000270 dd 2c 94 bf 5a 97 05 be 4c 56 e8 be 40 4b 0d 3f
       -1.1576191 -0.13046017 -0.4537834 0.5519295
000280 8f 03 8b bf 63 85 77 3f 42 19 1e 3f f2 ec a0 3f
       -1.0860461 0.96687907 0.6175729 1.257231
000290 6c 2e 95 be f0 b9 ee bd 85 c0 0c bf 02 d5 a1 be
       -0.2913698 -0.116565585 -0.5498126 -0.31607825
0002a0 eb 61 92 3e 82 be 60 bf 5e 18 1c 3f 69 72 24 be
       0.2859033 -0.8779069 0.6097468 -0.16059269
0002b0 c4 a7 0c bf e6 16 2a bf b4 3e 56 bf 4a 85 ab be
       -0.5494349 -0.6644119 -0.8368943 -0.3350013
0002c0 eb 54 93 3e 9e 36 0b bf af 47 9d bf ec b6 1f 3e
       0.28775725 -0.54380214 -1.2287501 0.15597123
0002d0 8e 87 ee 3f ad b5 12 3f cf ad ba bf 54 60 8f be
       1.8635118 0.57308465 -1.4584292 -0.2800318
0002e0 64 8f 68 bd 06 c4 82 3e 19 2a f9 3e 2d 60 b9 bf
       -0.056777373 0.2554018 0.4866493 -1.4482476
0002f0 f7 25 5a 3f a3 be a4 be 14 5e a1 3f d3 50 ba bf
       0.8521418 -0.32176694 1.2606835 -1.4555916
000300 99 a9 f8 be 0c 4c 73 bb ba f8 52 3f 13 05 9b 3d
       -0.48566893 -0.0037124185 0.82410777 0.07569327
000310 e0 21 3a bf 0f 5f b6 3f e7 e2 66 3e 8e a7 a3 3e
       -0.7270794 1.424776 0.22547494 0.31963772
000320 3c 12 c3 bf 16 02 1c bf f5 07 18 bf 9a a4 87 3d
       -1.523994 -0.6094068 -0.5938714 0.06623192
000330 9c 97 a2 bd b8 f0 e7 3d 49 33 47 3f 0e 7a 02 bf
       -0.079390734 0.1132521 0.7781263 -0.5096749
000340 84 52 be 3e 44 d3 af 3f 8a e6 04 bf 52 c1 0f bf
       0.3717233 1.3736348 -0.51914275 -0.5615436
000350 b9 60 4c 3f f9 cd 7c 3f 7e ce 0d bf 65 0c 39 bf
       0.7983509 0.9875179 -0.5539321 -0.7228454
000360 d9 42 96 3f a2 4e af bf 4a bc 8b be 49 9e 5f 3e
       1.173915 -1.3695872 -0.2729209 0.21837725
000370 bd e1 a1 be 64 33 46 be 88 8e 3c 3f fc aa 9f 3e
       -0.31617537 -0.19355541 0.73654985 0.31185138
000380 fa ba e1 3e e4 aa 42 bf f5 3b 79 be d6 39 ce bd
       0.44087964 -0.7604201 -0.24339278 -0.10069625
000390 71 34 15 bf 33 83 d4 3e 21 f4 0f bf 0b a1 c9 be
       -0.58283144 0.41506347 -0.56231886 -0.3938068
0003a0 8e 92 9c be 9b 5f 13 3f 24 9a 8a bb ed 9d 07 3f
       -0.30580562 0.5756776 -0.004229801 0.5297535
0003b0 8d 83 4f bf f9 b3 31 3f 18 94 a2 bf 4c ee 53 bf
       -0.81060106 0.6941524 -1.2701445 -0.8278549
0003c0 08 07 4c bf 40 aa 3a 3f 14 28 db 3f 98 cd d8 3e
       -0.7969823 0.7291603 1.7121606 0.42344356
0003d0 b4 a5 51 bf 90 9d 3b 3f 05 0d 24 be 4f f0 90 3e
       -0.8189347 0.73287296 -0.16020592 0.2830834
0003e0 8b 16 53 bf 71 aa a2 3f ea 9f 74 3e 19 1e 24 3f
       -0.8245627 1.2708265 0.23889127 0.64108425
0003f0 b7 22 1e bf d9 e5 4d bf 80 ab c9 3e c7 70 41 be
       -0.6177172 -0.80428845 0.39388657 -0.18890677

network_body._body_endoder.seq_layers.0.bias f4 [128]
000000 a6 08 84 3c 8f 37 ff 3a b2 b4 8f 37 ec 84 25 3b
       0.016117405 0.0019471514 1.7131071e-05 0.002525623
000010 9b e6 cf bb 31 82 a8 bb 92 ff 1b bc 58 5b cf 3b
       -0.006344629 -0.005142473 -0.009521382 0.0063280277
000020 33 b2 cd bb 97 ef 0d 3c 0e ca df bb b1 b5 c6 3b
       -0.0062773465 0.00866308 -0.0068295067 0.00606414
000030 1f fa 02 b9 08 9a 96 39 dc d0 c6 ba 17 3b 3d bb
       -0.00012490943 0.00028724992 -0.0015168446 -0.0028874332
000040 b4 db c7 bb c4 04 47 b9 b9 af a4 3b bb 9a e6 bb
       -0.0060991887 -0.00018979894 0.0050258306 -0.0070374883
000050 17 e6 51 ba 00 f4 bc bb 59 02 7b bb c7 75 85 3c
       -0.00080070033 -0.0057663918 -0.003830096 0.016291512
000060 ca fb 12 bb 84 f3 22 3a 8d 17 d0 3a 48 20 45 bb
       -0.002242791 0.0006216096 0.0015876159 -0.0030079056
000070 61 b7 fd ba 2d 12 d9 bb 55 79 9a ba 61 3e 0d 39
       -0.0019357019 -0.006624481 -0.0011785427 0.00013470046
000080 07 b1 8b 3b 50 d3 bb 3b 2d 3f a3 b9 22 c1 63 3a
       0.0042630467 0.0057319775 -0.00031136852 0.0008688142
000090 b5 a3 28 bb d4 a4 3a ba 83 f5 66 bb f4 ae a0 bb
       -0.0025732343 -0.0007119898 -0.0035241551 -0.0049036685
0000a0 db 75 9a ba b5 9f 98 b8 a3 a5 d6 bb d4 c6 a5 3b
       -0.0011784391 -7.2776726e-05 -0.006550507 0.0050591026
0000b0 db 28 8e ba aa f8 62 39 14 cd fd 3a d0 d3 04 3a
       -0.0010845916 0.00021645674 0.0019363486 0.0005066963
0000c0 07 54 66 bb ac 45 95 3b 9d 41 b3 3b 0d 49 ef ba
       -0.00351453 0.0045554247 0.005470468 -0.0018256024
0000d0 9d 72 98 3c 28 75 e0 3b 09 00 7e 3b 7f 43 68 3b
       0.01860934 0.0068499036 0.0038757345 0.0035440621
0000e0 36 fe ff 39 cb 3d 19 ba 6b d2 ed ba 5b ce e8 3b
       0.00048826792 -0.00058456947 -0.0018144374 0.0071046776
0000f0 62 64 01 3a d0 72 8c 3a 5d 51 93 bb 07 3e 8d bb
       0.00049359177 0.0010715369 -0.0044957832 -0.0043103728
000100 01 a4 d6 bb 1c 6b ff 3a 43 47 81 3b c2 d3 f8 bb
       -0.0065503125 0.0019486877 0.0039452626 -0.007593603
000110 23 e9 c9 3b cb 60 9d 3a 49 19 ac bb 86 76 c2 3b
       0.0061618253 0.0012006996 -0.0052520377 0.0059345393
000120 9b 22 03 3c 12 fc 97 3c ba 5d fe ba 91 59 37 bc
       0.008003856 0.018552814 -0.0019406595 -0.011190788
000130 3a 6d 81 3b 6e 30 c2 bb c0 cb 38 bb 9b 5a a9 ba
       0.0039497884 -0.0059261834 -0.0028197616 -0.0012920679
000140 80 49 7c ba 13 ad 67 bb cc 89 41 3b bb f6 15 bb
       -0.00096239895 -0.0035350963 0.0029531596 -0.0022882659
000150 04 20 07 3a 9a b0 10 3b 86 36 04 3b 16 78 03 bb
       0.0005154612 0.002207792 0.00201741 -0.002006059
000160 0e 16 8a 3b 4a 0d c8 bb 56 a3 28 b9 4b 51 a6 3b
       0.004214055 -0.0061051 -0.00016082576 0.005075609
000170 c1 23 75 3b ac 4b e4 3a 04 f6 93 3a 65 35 c6 3b
       0.0037405344 0.0017417572 0.0011288528 0.0060488456
000180 37 3c 94 bb 57 c2 8b bb 9f 7f 90 3c c6 f7 11 bb
       -0.0045237797 -0.0042651105 0.01763898 -0.0022272929
000190 7f 02 c3 3b 78 f9 8b 3b e1 4b a0 3b 85 29 b2 3b
       0.0059512253 0.0042716824 0.004891858 0.0054370784
0001a0 c1 01 09 3b ea 16 83 bb 95 42 7b 3b 0e 96 16 bb
       0.0020905586 -0.0040005343 0.0038339247 -0.0022977623
0001b0 aa c0 ae 3a 90 9b 08 bc f0 f3 5b 3a a7 23 1b 3a
       0.0013332565 -0.00833787 0.00083905365 0.00059180934
0001c0 82 bd 49 3b 1e 4c 9a 3b 51 28 1f bc e0 2a 08 3b
       0.0030783121 0.004708781 -0.009714202 0.0020777509
0001d0 29 51 10 3c 60 b3 b8 b9 1a ed 97 3c 8f bc 44 bb
       0.008808413 -0.0003522886 0.018545676 -0.0030019616
0001e0 eb 95 39 bc 92 c6 b1 3a bc 3b b9 bb ab ba aa ba
       -0.011327247 0.0013563207 -0.005652873 -0.0013025602
0001f0 7f 42 8b 3c bf c5 8e 3b d2 7a 33 bb 2c 6a 18 3a
       0.016999481 0.0043570693 -0.002738644 0.00058141607

network_body._body_endoder.seq_layers.2.weight f4 [128, 128]
000000 e4 6d e3 3a cc 37 bb 3a c0 cf f3 3d d9 34 50 bd
       0.0017351476 0.0014283597 0.119048595 -0.05083165
000010 97 13 b3 bc cd 4e be bc 10 df fa 3d c5 ef 16 bc
       -0.021859927 -0.023230935 0.12249577 -0.009212439
000020 9d 1f c0 3b ea 20 0a bd 54 47 93 3c ec 86 82 bd
       0.0058631436 -0.033722796 0.017978348 -0.063733906
000030 e7 10 64 be 9c 96 5d bd db 14 17 3c 39 9a 3d 3c
       -0.22272073 -0.05409871 0.009221281 0.011572414
000040 25 52 90 bd 11 69 17 3e fb 27 8a 3d 7d ac ac 3d
       -0.07046918 0.14786173 0.06745907 0.08431337
000050 57 21 58 3c 3d 2c bf 3d 37 c6 2c bd 73 30 b2 bd
       0.013191543 0.0933461 -0.04218122 -0.08700647
000060 ad 65 ed 3c ca 13 c7 3d 88 6a 6b bd 09 4c 5d 3d
       0.028979147 0.09720571 -0.057474643 0.05402759
000070 ec d3 0e 3c ba 8e 46 be ae 16 9d 39 a6 50 04 3e
       0.008717518 -0.19390383 0.0002996227 0.1292139
000080 17 d3 eb bc 88 62 3d 3c 9f bd 04 3d a7 fd 7a bc
       -0.028787179 0.011559136 0.0324074 -0.0153192645
000090 56 38 87 bc 9f 24 35 be 66 fb 0e 3d ac a1 10 be
       -0.016506355 -0.17689751 0.03490772 -0.14124173
0000a0 e1 81 f4 3c dd 73 c8 3d a5 2c e1 bd 8e 1c d2 bd
       0.029847087 0.09787724 -0.109948434 -0.102593526
0000b0 80 ff 93 3d 8e 62 78 3d 72 a5 aa bd 71 e6 02 3d
       0.07226467 0.060640864 -0.083323374 0.031958047
0000c0 5a be ce bd fd 6d 0e 3d 97 5f d9 3d aa d8 cd bd
       -0.100949004 0.03477286 0.106139354 -0.10051091
0000d0 b6 9d ab bd aa 32 04 3e 7b 89 0d 3d e8 c7 af 3c
       -0.0837969 0.12909952 0.03455494 0.021457627
0000e0 01 50 ca 3c 92 53 2e 3b 52 0f 15 3e e2 24 1d 3e
       0.024696352 0.0026600105 0.14556625 0.15346101
0000f0 58 b5 f4 bc 46 c8 83 bc c0 dd 62 3d 39 f6 c0 bd
       -0.029871628 -0.016086709 0.05538726 -0.09421963
000100 73 07 95 3c 28 bf 4b bc c2 94 8f 3d ed d7 1a be
       0.018192029 -0.012435712 0.07010795 -0.15121432
000110 d4 fe 46 3d 9f f2 02 bd a9 6d 7e 3d 33 4e 01 3c
       0.048582867 -0.031969663 0.0621163 0.007892179
000120 39 83 e5 3d 7c 6e 4d bd 7f df b7 3d 77 e7 8f 3d
       0.11206669 -0.050154194 0.08978175 0.0702657
000130 ab 78 ea bc 6a 68 1b be b2 d8 cf 3c 9e 31 94 3c
       -0.028621992 -0.1517655 0.025371883 0.018090066
000140 ea 83 07 bd d6 71 2f be 89 bf 95 bd 4b 7b 38 bd
       -0.033084787 -0.17133269 -0.07311923 -0.045039456
000150 79 a5 38 be f9 cf e6 bd 4d cc 44 3d 0f 1c 9d 3c
       -0.18031873 -0.112701364 0.0480464 0.019178418
000160 e6 39 16 be 3f 8a 57 bd 67 e1 a1 3d b0 cb aa bc
       -0.14670524 -0.052622076 0.0790432 -0.020849079
000170 1e 82 d3 bc 05 f4 d6 3d c3 f0 0b bc 1c 92 25 be
       -0.02581888 0.10495762 -0.008541289 -0.16169018
000180 02 99 24 be 25 a3 69 3d bb d2 ca bd 6d 96 ed bd
       -0.16073993 0.057040352 -0.09903475 -0.11600957
000190 04 0e 24 bd 8b 72 52 bb 4f dd 54 3e e1 11 25 3e
       -0.04005243 -0.003211173 0.20787548 0.16120102
0001a0 3e 9c c8 3d 82 e4 0d bd b6 e3 14 be 63 da e3 3b
       0.09795426 -0.03464175 -0.1453999 0.006953524
0001b0 4c bc 71 3d 5e e7 00 3d 87 5b bc bd 52 ff 18 bc
       0.059017465 0.03147065 -0.09197145 -0.009338217
0001c0 7a 22 25 be 4f f2 b0 3d cd 42 89 bc 53 15 cf 3d
       -0.16126433 0.08639967 -0.016755486 0.10111489
0001d0 c3 30 a8 bd ab ab 09 3d c6 79 01 3c 77 a4 8e bd
       -0.082124256 0.03361098 0.007902568 -0.06964963
0001e0 b9 36 cb 3d d8 16 f9 3c cc cf d3 bc 2f a1 a2 3d
       0.09922547 0.0304064 -0.025855921 0.079408996
0001f0 30 5e 01 3d 6c 1a e9 3d e4 5e fd bd 81 51 d1 bd
       0.031583965 0.11381993 -0.123716146 -0.10220624
000200 f9 01 90 bc 66 b7 5c bd 4f 32 2d 3d 7c 46 2e 3c
       -0.017579066 -0.05388584 0.042284306 0.010636922
000210 9c ba a1 3d 3f ba 70 3e 93 54 94 bc 43 b3 c0 3d
       0.07896921 0.23508547 -0.018106734 0.094091915
000220 60 bd 8a 3d 51 1a 3a 3c 89 98 dd 3d 54 dc a6 3c
       0.06774402 0.011358813 0.108201094 0.020368733
000230 c4 10 1f be 8a e2 9c 3d ff 2b 32 be 48 93 0b 3e
       -0.1553374 0.076603964 -0.17399596 0.13630402
000240 ca 93 04 3d 50 6a b3 3c 9d 62 8d bc ea ae 09 3d
       0.032367505 0.02190128 -0.017258937 0.033614077
000250 ce 82 b4 bd 0a 79 09 bd 4d a0 04 3e 9e b1 9c 3c
       -0.088140115 -0.033562697 0.12951775 0.019127663
000260 85 93 87 3d 85 fc 2a be 3d 55 29 be 9c 71 35 3c
       0.06619934 -0.16697891 -0.16536422 0.01107445
000270 b6 f0 c7 bd b4 e6 79 bd 7c 19 ee bd 15 4f 96 bd
       -0.09762709 -0.06101103 -0.116259545 -0.073393025
000280 55 96 91 bb 73 bf 93 3d 8f e0 60 3c 47 b8 61 bc
       -0.00444297 0.072142504 0.013725414 -0.013776845
000290 39 bc 86 bd f5 77 8a 3d 90 5e f9 3d 7f d2 5f 3c
       -0.065788694 0.06761161 0.121762395 0.013661026
0002a0 af a9 49 bd 80 8c 80 bd df 45 1e be 34 ab 3a bb
       -0.04923409 -0.06276798 -0.15456341 -0.0028483393
0002b0 b2 c7 10 3e 1f 3d 0d 3e bf 2a 2d 3d 6e 34 fe 3d
       0.14138678 0.13792847 0.042277094 0.12412344
0002c0 17 4e 7e bd 3c 46 ae bd a9 bb 78 3c 1a a3 24 3d
       -0.06208619 -0.0850949 0.01518146 0.04019461
0002d0 3f 2c 59 3c 11 ae 55 3c f0 30 ed 3c 6d 27 95 3d
       0.013255178 0.013041989 0.028954 0.072829105
0002e0 e9 0d f8 bc 20 83 4e bd cb 03 94 bc 26 31 a7 3d
       -0.03028007 -0.05041802 -0.018068215 0.08163671
0002f0 35 0f e5 3c 04 0d 85 3d 10 15 1e 3e 79 e3 04 be
       0.027961353 0.06496623 0.15437722 -0.12977399
000300 de 86 00 3e 32 a7 67 3d 6d 33 b2 3c 80 24 f1 bd
       0.12551448 0.056555934 0.021753037 -0.1177454
000310 45 16 e1 bd e7 e9 92 bd 5d f3 7e bb 83 b2 ae 3a
       -0.10990576 -0.071735196 -0.003890238 0.0013328347
000320 a7 c9 0e bd b7 06 8d 3b e0 e4 82 3e f2 dc 76 bc
       -0.03486028 0.004303779 0.25565243 -0.015067326
000330 37 33 57 3c 3e 09 f5 3a 61 02 75 3d a8 c8 89 bc
       0.013134769 0.0018694771 0.05981672 -0.016819313
000340 4a eb 55 3d a0 4b 34 bd 3e 05 ad 3d 40 89 55 3d
       0.052226342 -0.044017434 0.084482655 0.052132845
000350 1c df b3 3d f9 dc 61 bd 33 f6 a7 3d f8 51 62 3d
       0.08782789 -0.055142377 0.08201256 0.055253953
000360 b9 fc f5 bb dd 42 e7 bc 91 67 26 3d a9 15 4a bc
       -0.0075069335 -0.028230125 0.040626112 -0.012334266
000370 f7 54 02 be 72 df 05 bc ee 77 ca 3d bc ec 86 bd
       -0.12727724 -0.008170949 0.09886156 -0.06588122
000380 e6 ec a0 3c 92 d3 9f 3c a9 9b 41 3d e5 6d 53 bd
       0.019644212 0.019510064 0.04726759 -0.051618475
000390 8d c4 7e bd ca e3 4f bd 01 f2 4c bd b5 11 8e bd
       -0.062199164 -0.050754346 -0.05003548 -0.06936971
0003a0 ea 56 51 3d a9 75 bf bd fb 82 b5 bb cf ce b8 3d
       0.05110828 -0.09348614 -0.0055392957 0.090238206
0003b0 99 a8 27 3d 84 e5 8e 3d 3c 2f 98 bc 8c 7f 10 3d
       0.04093227 0.069773704 -0.01857721 0.03527789
0003c0 a8 af 63 3d 3f da 98 bd b9 81 23 3d 72 2f 3e 3e
       0.05558744 -0.07463502 0.039918635 0.18572786
0003d0 d9 91 15 3c a9 ac 52 bc 38 db 6e bd 4d f0 22 bd
       0.009129011 -0.012858548 -0.058314532 -0.03977995
0003e0 dc 31 fb bd 6b d9 f3 bc 8a 27 3c bd 2d 08 42 3c
       -0.12265369 -0.029766759 -0.045936145 0.01184277
0003f0 4f 87 55 bb 22 d5 5f 3d 40 cb b0 bd ee a8 58 3c
       -0.003258187 0.05464662 -0.08632517 0.01322387

network_body._body_endoder.seq_layers.2.bias f4 [128]
000000 9e 52 2e b9 11 6e 0f bb 05 f5 00 bc 14 04 31 ba
       -0.0001662471 -0.0021885673 -0.007870917 -0.0006752622
000010 e4 e6 0d bb 81 df 59 ba 18 90 85 bb 1b cc 24 3a
       -0.0021652514 -0.0008311198 -0.004076015 0.00062865176
000020 49 59 db ba ed 71 0c ba 53 ae 06 3b fa e3 f8 ba
       -0.0016734983 -0.00053575524 0.0020550683 -0.0018988841
000030 d9 b6 ab ba de 73 40 3c 36 37 71 bb 4e 1a 56 bb
       -0.0013100757 0.011746375 -0.003680659 -0.0032669487
000040 18 c4 32 3b d7 a5 05 3c b5 b5 b9 bb f1 75 64 3a
       0.0027277526 0.008157215 -0.005667413 0.00087150844
000050 75 41 54 3b 65 23 9c bb 12 8d f9 3a e6 70 20 38
       0.0032387648 -0.0047649615 0.0019039235 3.8252118e-05
000060 b7 7c b2 bb d2 67 d4 ba 77 eb d0 ba 86 04 d2 bb
       -0.005446996 -0.0016205257 -0.0015939315 -0.0064092306
000070 a7 46 f7 bb 13 dc 15 3a 0c 10 be 3b 64 4e 14 3b
       -0.007546264 0.00057166925 0.005800253 0.0022629732
000080 29 1a 15 3b 70 c8 95 bb 96 e9 19 bb 25 b6 1c 3a
       0.0022751188 -0.004571013 -0.0023485175 0.00059780694
000090 f6 fd 32 b9 ad 62 2e bb fc f5 61 39 cd f1 88 3b
       -0.0001707001 -0.0026609108 0.00021549308 0.0041792155
0000a0 33 f8 9e bb 57 33 a2 bb 0b 9c 9a bb 25 1a 5f bb
       -0.004851365 -0.004949968 -0.004718309 -0.0034042683
0000b0 ab 63 e7 3a 8c 00 ac 38 a2 f1 80 ba 04 c9 b6 ba
       0.0017653605 8.201701e-05 -0.0009837637 -0.0013945405
0000c0 10 e8 d5 3b 04 ed 86 bb 10 71 8d bb 14 92 52 bb
       0.006527908 -0.00411761 -0.0043164566 -0.0032130526
0000d0 de cf 02 bb cd 8f cf ba ce a3 30 bc f3 71 04 3b
       -0.0019960324 -0.0015835703 -0.010781242 0.002020952
0000e0 08 2e 7d bb ca 90 a0 bb 1b 62 09 3b 7f 87 6b 39
       -0.0038632173 -0.0049000727 0.0020963016 0.00022461823
0000f0 0d 43 23 bc d7 87 ad 3b de 80 8c 3a 7a c7 94 3a
       -0.009964717 0.0052957344 0.0010719558 0.0011350953
000100 ad b3 92 3b 82 18 81 bb 2f 14 ae bb 5c 5c 22 bc
       0.0044769854 -0.003939689 -0.0053124647 -0.0099097155
000110 d7 70 ab bb ef 22 29 3b 69 2b b8 3a 30 f9 eb 39
       -0.0052319574 0.0025808176 0.0014051023 0.00045008352
000120 62 63 a2 ba 5a f5 89 ba a2 bb 58 bb b5 02 54 bb
       -0.0012389238 -0.0010525391 -0.0033070822 -0.0032350246
000130 d9 ca 4f 3b b5 f6 99 ba b9 25 6f bb b2 35 e1 3a
       0.00317066 -0.0011746498 -0.003649099 0.001718214
000140 b2 d4 96 39 fc 86 0c 3b 52 f0 20 bb 49 af a0 ba
       0.000287687 0.0021442762 -0.0024557305 -0.001225927
000150 06 05 3a 3b 56 15 a6 bb 64 51 0e bb b1 9e 88 39
       0.0028384342 -0.0050684614 -0.0021715993 0.00026058176
000160 6c 5b 38 3a 3e d9 9c 3b 95 c2 a0 3a c4 0f 62 bb
       0.0007032666 0.0047866395 0.0012265021 -0.003449426
000170 2e 3a 24 ba 3b d1 a4 3a 92 87 0a ba 4a 47 5f bb
       -0.0006264773 0.0012574563 -0.0005284484 -0.0034069591
000180 83 dd 97 ba 09 a4 d3 ba 6e 0a f6 3a a9 e4 a2 3b
       -0.0011586401 -0.0016146909 0.0018771419 0.004971106
000190 6b 06 b8 3b 95 c4 7d bb e5 94 a8 ba 8a 20 35 bb
       0.0056159995 -0.0038721908 -0.0012861757 -0.0027637803
0001a0 9f 0f 03 3b 46 91 de bb 62 be 38 bb f4 57 45 bb
       0.0019998325 -0.0067922203 -0.002818965 -0.0030112239
0001b0 23 2f 09 3c c3 0e 9e bb d7 81 3a 3c 0b 81 69 3b
       0.008373055 -0.004823537 0.011383495 0.0035629894
0001c0 45 24 ea 3a f4 86 7d ba 4f 33 30 bb aa cc c7 3a
       0.0017863592 -0.00096712937 -0.002688605 0.001524349
0001d0 67 3e ab ba 06 26 83 3a af 00 66 3b 44 68 ae 39
       -0.0013064862 0.0010005839 0.0035095622 0.0003326555
0001e0 27 e8 f4 3a a0 80 f9 bb bd 90 21 bb 67 16 08 bb
       0.001868491 -0.0076142102 -0.002465292 -0.0020765306
0001f0 16 0e 64 bb 5a 6d f4 3b e5 14 90 bb 76 8f f7 ba
       -0.0034798435 0.007459325 -0.004397022 -0.0018887359

action_model._discrete_distribution.branches.0.weight f4 [2, 128]
000000 ba 29 32 bb f2 60 4e bb 3d 1b 0a 3c 3b 8f 6b ba
       -0.0027185516 -0.003149089 0.008429346 -0.00089858816
000010 0f 2b aa bb 74 96 b7 bb e0 22 b8 bc 01 3b 80 3c
       -0.0051931213 -0.005602652 -0.022477567 0.015653135
000020 91 4e 86 bc a7 6a 94 bb 14 2a 23 3a 36 ea 39 bc
       -0.016394885 -0.0045293155 0.00062242267 -0.011347344
000030 28 07 41 bb 75 39 81 3c 61 9c d4 bb 4d aa 3f 3b
       -0.0029453728 0.015774468 -0.0064883684 0.0029245794
000040 90 75 8d 3b 51 58 8c 3c 25 93 58 bb 63 5a b6 3b
       0.004316993 0.017131956 -0.003304669 0.005564974
000050 ba e8 b8 3c 40 b1 33 3c b4 40 14 3c 42 83 13 bc
       0.02257191 0.010967553 0.00904863 -0.009003462
000060 3e a5 04 bc 1d 4d d0 39 0b f8 55 bc fe b9 b8 bb
       -0.008096037 0.00039730305 -0.013059626 -0.0056374064
000070 47 f0 c8 bb 6e 8d d5 bc bf 76 75 3c e0 34 2c 3c
       -0.006132159 -0.026068415 0.014981925 0.010510653
000080 c5 53 4c bb a1 f2 ab bb 79 42 68 bb bf 37 af bb
       -0.003117786 -0.0052474295 -0.0035440011 -0.0053472216
000090 d6 ae cf bb 9f 8d 89 3b bc 9e a2 bb 95 f1 af 3c
       -0.0063379807 0.0041977908 -0.0049627703 0.0214775
0000a0 b9 79 88 bc bb 9a 32 3b 37 aa da bb b1 8f 1c 3b
       -0.016659604 0.002725287 -0.006673123 0.0023889358
0000b0 87 c7 e2 3b d6 19 01 bc 0d de 20 ba 42 9e 60 bc
       0.006920758 -0.007879695 -0.0006136604 -0.013709607
0000c0 46 aa 14 3c b9 ec 8f 3b 87 d5 31 3c d6 81 85 bc
       0.0090737995 0.004392233 0.010854132 -0.016297262
0000d0 ec 50 d2 3a 30 ea f9 bb 13 57 cd bb 4d 61 80 ba
       0.0016045845 -0.0076267943 -0.0062664836 -0.0009794623
0000e0 3e 73 16 3c 70 5f 4f 3c 80 1a 50 bc f2 5c 67 bc
       0.009182749 0.012657031 -0.012701631 -0.014121281
0000f0 eb fd 9e 3a 5e c2 99 bb 4d 45 25 3c ea 35 ee ba
       0.0012130117 -0.00469236 0.010087323 -0.0018174027
000100 d4 a3 19 bc b3 2d 57 3b a1 e5 a1 3b 30 82 4b bc
       -0.009377439 0.0032833635 0.004940704 -0.012421176
000110 ec 86 b5 3b fe 27 51 3c 78 a4 d1 3c 6a 37 cc 3c
       0.0055397656 0.012765883 0.02559112 0.024928767
000120 8f 6a df bb ea f8 7d bb d9 ec 23 bc 30 ee 0b bc
       -0.0068181227 -0.00387531 -0.010005199 -0.008540675
000130 06 00 82 ba bb 03 01 3c e8 2a 50 b9 e1 ae 5a bb
       -0.000991822 0.007874425 -0.0001985241 -0.0033368396
000140 52 f6 ae 3b 9b 8e f1 3b 94 0f b6 bb 46 7d 9b bc
       0.0053394223 0.007371736 -0.0055560563 -0.018980633
000150 b9 62 2e 3c 9a 5a 70 3b ef 5c f6 bb 62 95 5c bc
       0.0106436545 0.0036675096 -0.0075184028 -0.01346335
000160 c1 d6 15 3b b1 84 90 bc ec 34 0d bc f9 84 42 3c
       0.00228636 -0.017641397 -0.008618575 0.011872523
000170 4e b1 90 3b b7 dd 98 bb c5 95 5d bc ea 79 7d bc
       0.0044156676 -0.0046651023 -0.013524477 -0.015470961
000180 d1 a0 64 bc 7f 41 04 bc 8f 64 d1 3c 19 08 58 3c
       -0.013954357 -0.008072256 0.025560645 0.013185524
000190 a7 8d 6c bb c9 23 22 3b 3e ff 40 3c 78 0e bd bb
       -0.0036095174 0.0024740568 0.0117796045 -0.005769547
0001a0 b5 f5 66 3a cc 66 a1 3b 61 8c e9 bb 16 8d 67 3c
       0.0008810417 0.0049255844 -0.00712733 0.014132759
0001b0 63 2a d1 bb 13 12 43 3c 15 d8 22 3c 96 8e 01 3d
       -0.0063832267 0.011906165 0.009939213 0.03163012
0001c0 a4 30 07 3c a3 95 a7 bc f3 4a 81 bb 76 9c 21 bc
       0.008251343 -0.020457095 -0.003945702 -0.009863963
0001d0 03 d5 c6 3b 5e 11 03 bc 11 02 c3 3b 6f ae 58 bc
       0.0060678734 -0.007999746 0.005951174 -0.013225182
0001e0 fd 2d ec ba e2 a8 8b ba 17 ca 93 b9 ce 13 77 bc
       -0.0018019077 -0.0010655189 -0.00028188594 -0.015080405
0001f0 cb f5 a3 3b da 3d 64 3c 47 b2 10 3b 9f 73 99 3b
       0.005003666 0.013930762 0.0022078918 0.0046829726
000200 c5 0b b8 bb 1e ab 87 3b fa de 98 3b d9 55 20 3b
       -0.0056166374 0.004140272 0.0046652528 0.0024465232
000210 3e 05 0e 3c ec f0 80 3b c3 00 1e 3b d5 77 01 bb
       0.008668242 0.00393497 0.002410934 -0.0019755263
000220 67 fe ad ba bc ca cc bb 41 42 9c bc c1 64 51 bb
       -0.001327467 -0.0062497538 -0.019074561 -0.0031950923
000230 49 d4 bf 3b 7b 74 93 bc 31 9f 76 3b 97 19 2c 3c
       0.005854164 -0.017999878 0.0037631507 0.010504148
000240 65 4e 5e bc 5a de b7 bc 13 f3 2e bc 41 59 f8 bb
       -0.013568495 -0.022444893 -0.010678071 -0.0075789993
000250 63 70 97 3b 61 03 b9 3b c9 d9 f4 39 b4 ba 39 3c
       0.004621552 0.0056461548 0.0004670157 0.011336017
000260 8e e5 a6 bb 28 a1 24 3b 75 09 a9 3a 34 f1 99 ba
       -0.005093283 0.002512047 0.0012896495 -0.0011744858
000270 e0 99 dc ba 8a cd 65 bb 5d d2 95 bc 0d 49 cf 3a
       -0.0016830526 -0.0035065138 -0.018288786 0.0015814618
000280 01 36 eb 3b 38 59 a5 bb 68 ec c3 3b db a9 19 bc
       0.0071780686 -0.005046036 0.0059791096 -0.009378876
000290 2e f2 3b 3c ca 02 36 3c 4c 09 19 bc 85 79 87 bb
       0.011471314 0.011109063 -0.009340595 -0.0041343593
0002a0 c4 40 ac bb e6 9e 49 3b 1e a9 a5 bb c9 8f ae 3b
       -0.005256744 0.0030764877 -0.0050555607 0.005327199
0002b0 b8 88 f0 bb c6 e4 bc 3c c0 57 14 bc ef 4d 3a 3b
       -0.007340517 0.023058306 -0.009054124 0.00284278
0002c0 19 fb 8e bc b7 9b 00 3c c3 89 58 3c 73 d6 cf 3a
       -0.017453717 0.007849625 0.013216439 0.0015856758
0002d0 e5 ce ca 39 ac 5a 29 3b 6e 0c 39 3b 4d 87 ce bb
       0.0003868259 0.0025841398 0.0028236168 -0.00630275
0002e0 30 b6 77 3b f0 9e 8b 3c a9 0b 6b 3c c4 96 b4 ba
       0.0037797801 0.01704356 0.014346042 -0.0013777842
0002f0 43 a4 1f bb e1 88 ae bc 5e ef 18 bc 4d b6 87 bb
       -0.0024359382 -0.021305503 -0.009334413 -0.004141605
000300 76 66 c1 bb bf 52 78 3b 45 06 0d bb cd 3b 81 bc
       -0.005902107 0.0037891117 -0.002151863 -0.015775586
000310 34 d3 52 3c ed a9 e8 ba 88 c6 92 bb 1e 7c a5 bb
       0.012867738 -0.0017750837 -0.004479233 -0.0050501963
000320 d2 ae 98 3b 65 f1 42 bb 15 ad a0 ba ec e6 8d bb
       0.004659512 -0.0029745933 -0.0012258614 -0.0043305065
000330 68 5a 9f bc a3 17 81 3b 42 cd 2e 3b 0b 18 7f bc
       -0.019452289 0.0039395853 0.0026672636 -0.015569697
000340 7d d6 ef 3c ec a6 2e bc 5a 75 16 bb 5e 01 72 b9
       0.02927708 -0.010659914 -0.002295813 -0.00023079428
000350 50 d1 81 bc f3 4b 45 39 d8 65 62 38 5e 0c 41 3b
       -0.015846878 0.00018815677 5.397745e-05 0.0029456834
000360 82 c8 b7 3c c9 1c 08 3c be 88 26 3c d7 fd 9d bb
       0.022434477 0.008307644 0.010164438 -0.00482152
000370 35 cc e7 3a 5d 6c 41 bc be 57 ab 3a 5c f8 9b b9
       0.001768476 -0.011805621 0.0013072414 -0.00029748946
000380 dd 2b dd 3b 78 1d 26 3c 0e d7 26 3b 5f 4e 70 bc
       0.0067496137 0.010138862 0.0025457772 -0.014667123
000390 29 4a 29 bc 52 81 8e 3b 43 e7 a3 3b 64 57 56 3b
       -0.010332623 0.0043489123 0.005001934 0.0032705897
0003a0 fe 15 c0 3c b8 41 23 3b ba f4 d7 ba c9 8f 18 3b
       0.023447987 0.0024910998 -0.0016476132 0.0023279062
0003b0 6b f8 21 3c e4 95 f8 3b b7 18 aa bb 6c bb 79 bc
       0.009885888 0.0075862277 -0.0051909345 -0.015242439
0003c0 00 7a 64 bc 57 e7 ea ba e1 82 96 3b c2 3b 4a 3c
       -0.013945103 -0.0017921728 0.0045932387 0.012343349
0003d0 20 2c e5 3c 7c bf 07 ba f4 eb 22 bc 1c 50 98 3b
       0.027975142 -0.00051783747 -0.009943951 0.0046482217
0003e0 71 d5 7e bc 1c ff fa 3a 7f 49 42 3c c1 73 bf 3a
       -0.015553818 0.0019149515 0.011858343 0.0014606641
0003f0 f8 af 0e 3c 3a 48 0f bc 25 e4 71 3b 92 64 04 3c
       0.008708946 -0.0087452475 0.0036909666 0.008080618

action_model._discrete_distribution.branches.0.bias f4 [2]
000000 e7 34 0b 3b e6 34 0b bb
       0.002124125 -0.0021241247

exp_avg f4 [128, 2]
000000 63 12 c7 b8 a5 38 22 b8 7c 16 9e b7 2c d8 ef 38
       -9.492484e-05 -3.8676564e-05 -1.8845538e-05 0.00011436673
000010 1d 49 b7 38 9c c9 91 39 b1 a4 49 b9 90 fa 76 b7
       8.7397384e-05 0.00027806766 -0.00019230206 -1.4721081e-05
000020 3b c7 87 38 ad 88 0f b8 54 a7 65 b6 4d 1c 09 b9
       6.474411e-05 -3.4221146e-05 -3.4221057e-06 -0.00013075881
000030 5f 8a 55 b8 2c 1e 77 38 f8 6d f6 37 78 0c 4f b8
       -5.0912025e-05 5.891749e-05 2.9376693e-05 -4.936426e-05
000040 f8 36 c9 37 03 63 50 37 e5 13 59 37 9c c8 a4 b8
       2.3986664e-05 1.2420819e-05 1.293884e-05 -7.857496e-05
000050 a5 60 a4 37 e5 42 2c 39 c6 92 9b b6 ac 6c c1 b7
       1.9595327e-05 0.00016428118 -4.6364466e-06 -2.3057997e-05
000060 b2 75 e8 37 c1 3d 7d b8 31 74 2e 39 23 87 d0 39
       2.7711361e-05 -6.0377413e-05 0.00016637218 0.00039773536
000070 de 70 ee b8 2b 10 62 b8 09 cf dd 37 c3 70 31 39
       -0.000113697475 -5.3897656e-05 2.6441661e-05 0.00016922042
000080 cf a7 c2 b7 50 1d df b7 8e 35 8b 38 e2 37 f2 b7
       -2.3204744e-05 -2.6597321e-05 6.638012e-05 -2.887467e-05
000090 4b 4a f2 b8 7c f6 91 38 33 d3 bb b8 60 e7 1f b6
       -0.000115532974 6.96005e-05 -8.956194e-05 -2.3827524e-06
0000a0 06 f4 4c 38 23 a4 cd 37 04 88 21 37 de 65 11 b7
       4.8864655e-05 2.4514336e-05 9.628016e-06 -8.666391e-06
0000b0 74 c6 a4 38 4d 4b 9c 39 0a 7b a9 38 b0 a3 1b b8
       7.857094e-05 0.00029810742 8.081466e-05 -3.7107326e-05
0000c0 8e 73 67 38 d6 7e de 38 b5 fb 05 b9 e0 2c 96 b8
       5.518231e-05 0.0001060941 -0.00012777637 -7.160916e-05
0000d0 f4 a6 8c 38 f1 3c 95 b7 3a ef 6e b7 62 09 0a 37
       6.706818e-05 -1.7790562e-05 -1.4241605e-05 8.227626e-06
0000e0 c8 49 44 b7 8e 08 a0 b7 90 e9 96 b5 5a e1 87 37
       -1.1699689e-05 -1.907747e-05 -1.1243847e-06 1.6198192e-05
0000f0 2c 49 1c b8 ab 4b 36 38 ee 81 84 38 1e 66 b5 b7
       -3.7261445e-05 4.3462653e-05 6.318452e-05 -2.1624433e-05
000100 2e 5e e1 38 e0 ac 6f b8 8b 48 86 b8 a2 6a f2 38
       0.000107463784 -5.7143043e-05 -6.40313e-05 0.00011559321
000110 c7 82 45 38 1c 52 10 b8 4d d9 2f b9 5b 90 c1 b8
       4.7090256e-05 -3.4408746e-05 -0.00016770251 -9.2298455e-05
000120 b3 36 b7 b8 78 5a ac 38 f0 1f 2d 38 6e 56 02 b8
       -8.7363085e-05 8.21845e-05 4.127616e-05 -3.107491e-05
000130 84 a6 56 38 bb a9 58 b8 44 c7 b8 37 90 88 5b 35
       5.1176656e-05 -5.1656487e-05 2.20273e-05 8.178258e-07
000140 db 20 c2 39 ce a7 ae b8 a2 c9 51 b8 46 0e 92 b8
       0.00037027043 -8.3282226e-05 -5.001727e-05 -6.964481e-05
000150 c0 68 3f 33 d1 ff 05 38 ac 8f f1 38 e4 ee 98 b8
       4.4565923e-08 3.194792e-05 0.000115185365 -7.292422e-05
000160 60 c3 42 39 8c 96 6b b8 58 ab c6 37 5b eb fd 38
       0.00018574065 -5.6168574e-05 2.3683227e-05 0.000121078185
000170 fe 78 42 37 94 f9 4a 39 5e 2b 01 39 63 cd 57 39
       1.1591472e-05 0.00019357196 0.00012318554 0.0002058051
000180 25 7e 82 37 90 85 8e 36 b8 06 a4 b8 87 cc e2 b8
       1.5555948e-05 4.2474785e-06 -7.821381e-05 -0.00010814616
000190 de cd ad b7 e5 cb bd b8 54 e9 5a b9 08 9d 7c 36
       -2.0719071e-05 -9.0502006e-05 -0.00020877022 3.764233e-06
0001a0 fc c5 0e b9 ba bc b5 b8 8d bd d5 38 4e a8 ee b7
       -0.0001361593 -8.6659056e-05 0.00010191938 -2.8450184e-05
0001b0 bb 57 b9 b8 c6 05 1d 38 a0 86 13 b8 c0 8b 91 b3
       -8.8378285e-05 3.7437094e-05 -3.517291e-05 -6.777509e-08
0001c0 a8 72 61 38 a9 6e 45 39 bb 76 e3 38 af 18 a0 38
       5.3750962e-05 0.00018828608 0.00010846319 7.633992e-05
0001d0 16 4f 85 b8 98 d5 c4 b8 cc de 21 36 6a e9 26 38
       -6.356665e-05 -9.385793e-05 2.4120554e-06 3.9794868e-05
0001e0 e4 df fb 36 14 25 98 38 b0 04 b6 38 bf bf a3 39
       7.506447e-06 7.254831e-05 8.6793094e-05 0.00031232645
0001f0 f8 c2 e5 b7 b4 db 86 38 a7 b3 79 b8 d8 5a fe b7
       -2.7389717e-05 6.430541e-05 -5.953354e-05 -3.0321462e-05
000200 b7 5c 10 b8 3b d4 0c b8 37 fa 90 38 0a 49 f0 b7
       -3.4418623e-05 -3.3576256e-05 6.913061e-05 -2.8644241e-05
000210 5d fc 8d b8 3a ef c8 b7 82 92 84 38 cb f4 58 b7
       -6.77041e-05 -2.3953256e-05 6.32154e-05 -1.2931599e-05
000220 82 a7 96 b8 f9 aa b5 37 39 2e 09 b9 b4 d6 2b b9
       -7.183758e-05 2.1656497e-05 -0.00013082557 -0.00016387814
000230 aa 0b 68 b8 f4 0e 12 b8 ff 86 a9 b8 30 4c 09 b8
       -5.5323973e-05 -3.482304e-05 -8.083693e-05 -3.27343e-05
000240 4f 98 22 39 9b d2 15 b8 bf 6f f4 38 74 a9 9a b8
       0.00015506263 -3.572051e-05 0.00011655641 -7.374855e-05
000250 dc ae cc b7 04 15 6f b8 71 1a 34 b6 27 c2 9a 38
       -2.440012e-05 -5.7001613e-05 -2.683748e-06 7.379456e-05
000260 b2 4b c5 38 3e 80 23 b8 51 da 5b 38 89 53 05 38
       9.4077914e-05 -3.8981663e-05 5.2416992e-05 3.178747e-05
000270 ca e0 00 b7 99 d3 1a 38 12 50 7f 38 bc fb 0a b8
       -7.681732e-06 3.6913527e-05 6.087131e-05 -3.313621e-05
000280 22 0f 27 38 19 18 0d b7 9e fe 20 b9 a8 0d 5b 38
       3.9829996e-05 -8.409866e-06 -0.00015353641 5.2226387e-05
000290 8c ef 4a 38 cf ea 38 39 98 14 48 38 a5 16 51 39
       4.838365e-05 0.0001763508 4.7702895e-05 0.00019940229
0002a0 c3 a7 7a b8 fd 97 f0 b8 92 ce 5b b8 b2 15 ba b7
       -5.9760885e-05 -0.00011472402 -5.2406052e-05 -2.218303e-05
0002b0 1a aa f1 b8 6e 2c d8 b8 e1 8e 21 b7 d2 3d a0 38
       -0.000115234594 -0.00010307958 -9.629614e-06 7.6409095e-05
0002c0 0b 3a d9 b8 e2 3d 3a 38 d0 23 94 b5 00 ad e8 38
       -0.00010358178 4.440349e-05 -1.1037282e-06 0.00011094846
0002d0 ce 5f 12 38 54 27 df b8 9f 04 1a 37 05 51 0f b9
       3.4898338e-05 -0.00010640794 9.180191e-06 -0.00013667725
0002e0 ec 85 4a 39 ce 88 6c b8 7a bb 06 b9 65 5e 2d b9
       0.00019314111 -5.6394194e-05 -0.00012849076 -0.0001653373
0002f0 98 a2 d3 b8 fb b4 af b7 6f ac 45 b9 4e 36 b3 b8
       -0.000100915495 -2.0945901e-05 -0.0001885162 -8.5455e-05
000300 02 6b 6c 36 9d 37 eb 38 74 c2 aa 37 0f 7b a8 b6
       3.5229027e-06 0.00011216032 2.0356129e-05 -5.021116e-06
000310 6f 44 03 39 bc 52 85 b8 a3 04 3e b8 5b 06 08 b8
       0.00012518627 -6.357345e-05 -4.530385e-05 -3.2430846e-05
000320 89 fa 3b 38 0c 04 91 38 51 3f 3f 38 b0 ed cd b8
       4.4817603e-05 6.9148926e-05 4.5596917e-05 -9.8194345e-05
000330 1b 50 8c 38 d5 1f f0 b7 4e 5b e2 b8 ee f8 16 b9
       6.690641e-05 -2.8625052e-05 -0.000107935266 -0.00014397848
000340 3c cf 35 39 ec 2b 6e b8 17 4c 3b 38 b6 ad 01 39
       0.00017338706 -5.6784527e-05 4.465514e-05 0.00012367111
000350 c1 10 ca 37 b7 36 89 b7 b0 13 ed 36 db 95 ef 37
       2.4088078e-05 -1.6357151e-05 7.0654423e-06 2.8560802e-05
000360 f0 c5 46 37 b6 0c f6 b8 f7 73 02 38 19 14 cf 37
       1.1847806e-05 -0.00011732562 3.1102416e-05 2.4685682e-05
000370 2e 60 00 b8 68 f9 24 b9 76 bc 47 b9 ea 6e de b8
       -3.0607152e-05 -0.0001573317 -0.00019048326 -0.00010606444
000380 e0 03 91 b8 5a fb 65 39 6d 75 67 36 95 da b2 b7
       -6.9148606e-05 0.00021932778 3.4490033e-06 -2.1321039e-05
000390 5d f8 24 b8 81 f3 e6 b6 33 da 37 38 23 7b d2 38
       -3.9331953e-05 -6.8828817e-06 4.3833814e-05 0.00010036516
0003a0 58 a4 2e 39 d6 81 6e b8 6a c0 04 b8 c7 4c ec b6
       0.00016655156 -5.686454e-05 -3.1650452e-05 -7.042286e-06
0003b0 9b 98 f4 38 66 63 89 b8 c4 f6 94 38 60 9e 25 39
       0.00011663252 -6.5511835e-05 7.1031536e-05 0.00015794626
0003c0 d1 49 03 38 cb 42 09 b7 4c 7d 54 b8 9a 7d da b8
       3.130158e-05 -8.181388e-06 -5.066143e-05 -0.00010418445
0003d0 0c ab 5e 37 00 90 34 b7 8d 99 c3 38 32 99 1a b7
       1.3272056e-05 -1.0762364e-05 9.326926e-05 -9.214784e-06
0003e0 4c 31 49 39 b7 47 ca b8 f8 a4 c2 38 94 b4 50 b8
       0.00019187218 -9.6454685e-05 9.281369e-05 -4.975924e-05
0003f0 df 04 3a 38 8c 72 30 39 5a fa 0b 38 c1 50 b6 b7
       4.4350392e-05 0.0001682734 3.337334e-05 -2.1733695e-05

exp_avg_sq f4 [128, 2]
000000 fb a7 95 31 b5 9a 77 32 58 d4 63 31 90 25 b1 31
       4.355568e-09 1.44124686e-08 3.315355e-09 5.1556484e-09
000010 b4 c5 92 32 39 52 42 33 d4 ed 8b 33 27 10 90 32
       1.7086542e-08 4.5243926e-08 6.5159526e-08 1.6771152e-08
000020 1e 9e 42 31 5a 56 27 31 db 39 15 32 0e c4 78 32
       2.8320595e-09 2.4350784e-09 8.686096e-09 1.4480078e-08
000030 61 ac 43 32 22 b1 24 32 0f a2 42 32 41 78 55 32
       1.1389688e-08 9.586332e-09 1.1329134e-08 1.2425574e-08
000040 77 01 fb 31 6a f6 ec 30 b3 a9 da 30 83 e4 06 31
       7.305228e-09 1.7241295e-09 1.5909819e-09 1.962946e-09
000050 02 5f 86 32 2c 7f c6 32 7e f9 05 31 00 81 95 30
       1.5642858e-08 2.3108065e-08 1.9495867e-09 1.0877841e-09
000060 0b 62 85 32 ce 84 06 32 25 99 3e 33 fd e7 08 34
       1.5527823e-08 7.830023e-09 4.4377106e-08 1.2750384e-07
000070 7c 77 0d 32 09 7b 7a 32 1e 03 fc 30 50 1e c7 31
       8.234448e-09 1.457989e-08 1.8336299e-09 5.7951084e-09
000080 c9 62 90 31 1c 4f f8 31 81 0b a1 33 50 01 9d 32
       4.202182e-09 7.2267436e-09 7.499239e-08 1.8277802e-08
000090 d0 4f 85 32 a3 10 43 33 cd 8e d4 32 2f 08 25 32
       1.5519532e-08 4.5417107e-08 2.4744987e-08 9.606125e-09
0000a0 1d 47 6a 31 43 ba 34 31 14 23 9b 30 62 df a4 30
       3.4091905e-09 2.6299325e-09 1.1287704e-09 1.199606e-09
0000b0 2b 25 99 33 5e 92 0f 34 0a df d1 31 34 47 c7 31
       7.1313785e-08 1.3371161e-07 6.108057e-09 5.799757e-09
0000c0 61 aa 90 32 01 bb 3b 33 b4 92 86 32 42 00 18 33
       1.6841286e-08 4.370941e-08 1.5666366e-08 3.5390492e-08
0000d0 77 c9 ae 32 23 02 e0 31 2a f5 04 32 03 ef 53 31
       2.0347882e-08 6.519501e-09 7.739155e-09 3.0840404e-09
0000e0 4f 83 50 32 6b 28 5c 31 1f 08 7f 31 e3 ed ca 30
       1.213705e-08 3.2037188e-09 3.7112e-09 1.4765046e-09
0000f0 f0 20 07 32 91 8e db 31 2d 07 de 31 6c 01 62 31
       7.865523e-09 6.389947e-09 6.461866e-09 3.2888137e-09
000100 01 2b 81 32 21 2a 44 32 9a 82 00 33 69 84 ca 32
       1.5037132e-08 1.14182805e-08 2.9921104e-08 2.3576108e-08
000110 c3 5b d0 31 0a 9f 73 31 8c 0f a0 33 97 74 11 33
       6.064029e-09 3.5451557e-09 7.4534086e-08 3.386648e-08
000120 24 e7 d0 31 67 9e b3 31 6e 37 bd 32 2a ba b8 31
       6.0798744e-09 5.227594e-09 2.2027702e-08 5.376269e-09
000130 2d 57 27 32 bf 28 98 32 1e 62 e8 31 f4 d1 0a 32
       9.740501e-09 1.7713658e-08 6.7632433e-09 8.080395e-09
000140 5a bc fc 33 a1 25 06 33 31 a5 ea 32 03 10 b1 33
       1.17689254e-07 3.123353e-08 2.7316306e-08 8.245117e-08
000150 ee 8f bd 30 72 d9 23 31 79 b0 83 32 2d 07 67 32
       1.3792467e-09 2.3843225e-09 1.5330658e-08 1.3447601e-08
000160 7c d9 bd 33 b4 e6 d3 32 2a 7a 31 32 17 8e b3 32
       8.8405585e-08 2.4668545e-08 1.0330533e-08 2.0902958e-08
000170 50 86 72 32 81 fd fe 32 ac 1f 88 33 0e 78 15 34
       1.4116793e-08 2.9684772e-08 6.3387546e-08 1.3920382e-07
000180 90 a3 82 31 23 1e a7 30 75 6c 90 32 41 a2 3c 32
       3.802093e-09 1.2159415e-09 1.6813127e-08 1.09799325e-08
000190 d8 c8 9b 31 75 2e a8 31 92 92 98 33 e8 d5 be 32
       4.533927e-09 4.894725e-09 7.1047126e-08 2.2216184e-08
0001a0 41 11 5a 32 c0 eb 44 32 81 0f 1b 33 ed 68 80 32
       1.2693193e-08 1.1462305e-08 3.610285e-08 1.4948876e-08
0001b0 25 93 8a 32 d6 bc 30 32 35 0c 05 31 d0 5b a4 31
       1.6132228e-08 1.0287485e-08 1.9360986e-09 4.783466e-09
0001c0 8a c5 f4 32 84 6b 6f 33 05 3f d0 32 d0 2c 6c 33
       2.8495169e-08 5.574431e-08 2.4243045e-08 5.498879e-08
0001d0 7d 33 3e 32 42 95 b9 32 a7 94 53 31 08 3d a8 31
       1.1071163e-08 2.160471e-08 3.078904e-09 4.896382e-09
0001e0 25 04 0c 32 2b 5a 68 32 73 fd 3e 33 33 24 c8 33
       8.150015e-09 1.3524679e-08 4.4468333e-08 9.31981e-08
0001f0 54 ad 80 32 8d 8e e6 31 fb 07 14 32 5b 39 7b 32
       1.4979982e-08 6.710087e-09 8.616548e-09 1.4623164e-08
000200 76 6f b2 31 bf 91 17 31 f4 48 d7 32 a2 2c 05 32
       5.1931535e-09 2.205624e-09 2.506247e-08 7.751767e-09
000210 5a 7c 56 32 e9 cb f8 31 3d 17 2f 33 76 02 4f 32
       1.2484714e-08 7.240932e-09 4.0766498e-08 1.2049545e-08
000220 c0 d2 65 32 ca e6 a2 31 88 86 26 33 21 b1 bf 33
       1.3377473e-08 4.741058e-09 3.8772242e-08 8.92635e-08
000230 b3 81 5b 31 70 4b 12 31 ae e0 9e 32 ac 4c 83 32
       3.194242e-09 2.1288677e-09 1.8495793e-08 1.5285273e-08
000240 74 0f db 32 df 26 c7 32 c6 c7 f9 32 0a 9d da 32
       2.5501983e-08 2.3184326e-08 2.9078262e-08 2.5449953e-08
000250 7c f7 8c 32 19 1a f5 32 b5 94 c1 31 ae 9e ec 31
       1.6410688e-08 2.8533622e-08 5.6339453e-09 6.886544e-09
000260 63 8c 30 32 3b ed 61 32 93 eb 14 31 f9 39 3d 31
       1.0276469e-08 1.3150664e-08 2.1670743e-09 2.7536073e-09
000270 9b 28 46 32 67 01 8c 32 c7 7f 1e 32 5d 64 04 32
       1.15343495e-08 1.6298783e-08 9.225864e-09 7.706231e-09
000280 1e 1b 78 31 21 2c 56 31 ca c6 9a 33 cc 49 c3 32
       3.6104164e-09 3.1166183e-09 7.207343e-08 2.2734547e-08
000290 69 b4 10 32 b1 e2 b3 32 b1 16 75 32 01 d2 18 33
       8.422924e-09 2.094143e-08 1.4266036e-08 3.5581255e-08
0002a0 35 31 d7 31 88 7f 73 32 5e d0 51 32 77 15 00 32
       6.2629177e-09 1.4173459e-08 1.2212778e-08 7.455461e-09
0002b0 4c bc f6 31 31 f6 e1 32 77 92 ac 32 60 64 19 33
       7.180949e-09 2.6305402e-08 2.009004e-08 3.571438e-08
0002c0 f1 ec d3 32 c5 32 60 32 bf 39 b3 32 f5 71 f7 32
       2.4671381e-08 1.305006e-08 2.0864602e-08 2.8806406e-08
0002d0 86 d9 43 32 37 77 30 32 6a 0d 74 32 68 3b a5 32
       1.1399953e-08 1.0271655e-08 1.4205719e-08 1.9235543e-08
0002e0 fa 53 a4 33 15 0a 43 33 45 60 a1 32 dd e7 43 33
       7.6521204e-08 4.5411145e-08 1.8786645e-08 4.5612854e-08
0002f0 00 a0 19 33 2e eb 94 32 5b 09 a3 33 28 9e b7 32
       3.5768608e-08 1.7336415e-08 7.591981e-08 2.1375925e-08
000300 ba f6 78 32 37 a9 bb 32 2d 02 e8 30 09 ab a5 30
       1.4491599e-08 2.1846615e-08 1.688084e-09 1.2053941e-09
000310 b0 aa e6 32 0b ea d4 32 8e de 03 31 93 95 16 31
       2.6853144e-08 2.4786479e-08 1.9189517e-09 2.1912896e-09
000320 aa f7 bf 31 d0 1e 10 32 ca aa 65 32 25 86 94 32
       5.5869878e-09 8.388909e-09 1.3368387e-08 1.729047e-08
000330 92 a5 ec 31 b5 0d b7 31 96 1a 9b 32 26 8d a7 32
       6.887327e-09 5.3275593e-09 1.8056465e-08 1.9505546e-08
000340 2b 6e 7a 33 1e be b7 32 bc d7 50 33 2c 34 f3 33
       5.8307858e-08 2.139046e-08 4.8624983e-08 1.1325059e-07
000350 0e 6a 32 33 6c 8a 4f 32 b3 9c 46 31 da 06 7c 31
       4.154031e-08 1.2080459e-08 2.8901865e-09 3.667472e-09
000360 1d 4f f2 31 11 e1 28 32 58 32 3f 31 6f d4 5d 31
       7.052121e-09 9.830061e-09 2.7822775e-09 3.2280487e-09
000370 99 f7 09 33 98 be 96 33 a0 d0 2c 34 6f 5d 68 33
       3.2122987e-08 7.019588e-08 1.6094646e-07 5.4101687e-08
000380 b1 f8 0a 34 df b0 3f 34 7c ac 07 31 77 b9 55 31
       1.2942725e-07 1.7852607e-07 1.9743132e-09 3.1101004e-09
000390 9b 3d b2 31 02 ad a8 31 fa 5f a4 31 71 23 45 32
       5.1874856e-09 4.9091122e-09 4.7839395e-09 1.1474968e-08
0003a0 04 1e 22 33 35 d3 b8 32 23 79 8d 32 6e 97 78 31
       3.7745863e-08 2.1516465e-08 1.6469647e-08 3.6174828e-09
0003b0 5b 1f 8f 32 2e 5e 7e 32 b7 05 4c 32 75 87 02 33
       1.666165e-08 1.480616e-08 1.1875662e-08 3.039118e-08
0003c0 49 85 6a 31 6b 0e 32 31 48 e1 8b 32 2e 83 6f 32
       3.4127245e-09 2.5910605e-09 1.6284176e-08 1.3941458e-08
0003d0 88 81 1b 32 1d 3f 44 32 db c6 55 32 dd 58 85 31
       9.051639e-09 1.1423052e-08 1.2443446e-08 3.880912e-09
0003e0 94 a1 ad 33 b6 9d 98 33 81 4f d5 32 35 3a 0b 32
       8.085331e-08 7.106739e-08 2.4832618e-08 8.1041e-09
0003f0 69 28 10 33 f6 be a0 33 5f 49 4a 33 32 e3 24 33
       3.3564366e-08 7.485316e-08 4.709852e-08 3.839086e-08

exp_avg f4 [128]
000000 fa 1d 48 b6 ec 7f 94 b6 9d c9 85 b8 e6 21 30 b9
       -2.981977e-06 -4.425636e-06 -6.3794876e-05 -0.00016797296
000010 04 96 c0 37 08 33 5d b7 92 91 20 38 03 1b 9c b8
       2.295804e-05 -1.3184508e-05 3.8282546e-05 -7.443691e-05
000020 40 af 75 38 54 29 0b 37 ad 2c e9 b7 df 03 17 b8
       5.8575766e-05 8.294668e-06 -2.7796568e-05 -3.600481e-05
000030 ec 55 f7 36 63 af 8c b8 13 9e 69 36 84 f6 2d b8
       7.3711763e-06 -6.7083885e-05 3.4811717e-06 -4.1476e-05
000040 80 61 dd b3 8f fe 27 38 ea fa 0e b7 8a de ac b7
       -1.03088496e-07 4.005298e-05 -8.52228e-06 -2.0607626e-05
000050 cb 42 48 37 90 b6 24 b7 5e 10 dd b7 12 dd 60 b8
       1.193648e-05 -9.817668e-06 -2.6352875e-05 -5.361165e-05
000060 35 23 84 b7 9c bb 25 38 21 37 b3 37 be 38 e5 37
       -1.575202e-05 3.951379e-05 2.1364134e-05 2.732535e-05
000070 40 83 de b7 18 4f 15 38 48 4f 59 b5 41 db c7 b6
       -2.652558e-05 3.559803e-05 -8.095417e-07 -5.9561867e-06
000080 b3 55 e2 b7 c1 16 bb b8 b3 ff 50 b7 b5 33 15 b9
       -2.6981206e-05 -8.921093e-05 -1.2457301e-05 -0.0001422901
000090 24 5b 34 b8 bb 07 05 38 01 bd bc 37 8d 1e 09 38
       -4.3000226e-05 3.171687e-05 2.2499358e-05 3.2691798e-05
0000a0 48 bb 71 39 92 f6 98 38 c2 26 8f 37 80 33 51 b5
       0.00023053319 7.293852e-05 1.7064976e-05 -7.793351e-07
0000b0 4a a1 d2 38 72 26 e2 b7 e7 cb ef b7 00 b3 9b 34
       0.00010043623 -2.6959202e-05 -2.858597e-05 2.900124e-07
0000c0 80 00 a9 b6 5e 84 23 b8 39 a0 d1 b7 25 15 0d b9
       -5.0366507e-06 -3.8985505e-05 -2.4989351e-05 -0.00013454685
0000d0 50 52 c9 b8 1a 08 27 37 bd 4a a9 b8 24 e2 d9 b5
       -9.599759e-05 9.955862e-06 -8.072469e-05 -1.6233575e-06
0000e0 ce 6e 79 b7 de 65 0a 38 1c 8f db 37 cc 41 55 b8
       -1.4867355e-05 3.2996635e-05 2.6173475e-05 -5.0844435e-05
0000f0 e8 1d 8f 36 03 55 84 b8 ee 32 aa 37 2a 1d dd 37
       4.2652136e-06 -6.310085e-05 2.0289295e-05 2.6358834e-05
000100 9e c4 6b b5 72 30 7d 37 ae 28 8b b8 fa 81 ae 37
       -8.783044e-07 1.5091255e-05 -6.635614e-05 2.0802941e-05
000110 b9 b9 10 b8 7e 07 80 38 d6 03 39 b8 2e 64 3b 37
       -3.4505243e-05 6.104911e-05 -4.411101e-05 1.11693935e-05
000120 8c 71 be b8 0e 4e 03 b9 7f 98 32 38 65 06 45 37
       -9.081056e-05 -0.00012522211 4.258053e-05 1.1743604e-05
000130 50 f3 0d b8 76 2c cf b7 82 aa 07 38 b2 f5 6e b8
       -3.3843622e-05 -2.4697027e-05 3.2345306e-05 -5.6972443e-05
000140 45 66 6e b8 c3 6f 93 b8 7f 11 61 b8 d6 d9 46 b8
       -5.6838868e-05 -7.0303235e-05 -5.3660475e-05 -4.7409754e-05
000150 49 c8 1c 37 c4 0d d1 b7 e1 95 4d 37 04 eb 5e 37
       9.344957e-06 -2.4921152e-05 1.2253849e-05 1.328695e-05
000160 d0 92 ae b8 f8 6a 24 38 96 38 ed 37 b9 d0 7b b8
       -8.3243125e-05 3.920027e-05 2.8278952e-05 -6.003745e-05
000170 c9 c0 57 38 53 05 96 37 e8 db c3 b8 13 df c8 b8
       5.143954e-05 1.7883873e-05 -9.339285e-05 -9.578294e-05
000180 08 5e c3 b7 1a 13 ff 37 a8 cb d9 b8 d4 2e 1b b8
       -2.3289598e-05 3.0407264e-05 -0.000103853 -3.6998492e-05
000190 7a 20 82 b8 80 87 29 b6 9d 95 51 37 d4 a3 58 b6
       -6.204932e-05 -2.5261834e-06 1.2492205e-05 -3.2281869e-06
0001a0 1e 3e 5f 38 1c 7f 32 37 5e e6 04 b7 ad 85 6e b7
       5.3225194e-05 1.0639222e-05 -7.92145e-06 -1.4217029e-05
0001b0 c4 b9 bf 38 34 d1 ca 37 16 04 bf 38 f4 9d 06 b9
       9.142191e-05 2.4177694e-05 9.108351e-05 -0.00012838078
0001c0 ee 37 62 b9 a9 37 1d b8 02 4f 21 37 d8 4b dd b7
       -0.00021573875 -3.7483554e-05 9.614743e-06 -2.638057e-05
0001d0 b0 7a a4 b5 6a 69 1c b8 c0 ba d3 b8 15 c8 20 b7
       -1.2254659e-06 -3.7291473e-05 -0.00010096049 -9.583328e-06
0001e0 88 5b 01 b8 37 85 7d b8 19 9d cc b5 97 34 60 38
       -3.0841242e-05 -6.0443967e-05 -1.5244906e-06 5.345474e-05
0001f0 13 4a 48 b9 db 19 4e 38 b0 1d 8c 36 86 db e4 38
       -0.00019101081 4.9138307e-05 4.175781e-06 0.000109127766
