results/flappy_trainingv3/FlappyBirdAgent.onnx (onnx, 534229 bytes, 10 tensors)

network_body.observation_encoder.processors.0.normalizer.running_mean f4 [2]
000000 52 e3 01 ca 94 a7 03 c5
       -2.1280845e+06 -2106.4736

network_body._body_endoder.seq_layers.0.weight f4 [256, 2]
000000 35 5b 06 bd 6b 62 5a bf 57 c5 2e bf 30 28 82 3e
       -0.032801826 -0.85306424 -0.68269867 0.25421286
000010 5e b6 23 bf 93 c2 a0 bf 65 da 62 bd 3f 62 df bd
       -0.63950145 -1.2559379 -0.05538406 -0.10907411
000020 b6 e0 32 bf e3 f4 3f 3a 7a 50 cc 3f ad 2b 93 3f
       -0.6987413 0.0007322563 1.596206 1.1497704
000030 96 e7 05 be 69 dd 85 bf 23 78 da be 40 07 3b bf
       -0.13076624 -1.0458194 -0.42669782 -0.7305794
000040 e9 3b 95 3e 3e 68 85 bf c8 5b 97 bf 5d 56 23 3f
       0.2914727 -1.0422437 -1.1824884 0.63803655
000050 5b 3a b0 be 79 49 fb be 82 3a 8e bf 32 d5 8f 3e
       -0.34419522 -0.49079493 -1.1111605 0.28092343
000060 08 63 38 bf 9e cb ba 3d a6 49 19 bf 26 b4 19 bd
       -0.7202611 0.09120868 -0.59878004 -0.03752532
000070 fe 5f fd be ff 84 db 3c d5 88 13 3f 9f 21 a0 bd
       -0.494873 0.026796816 0.57630664 -0.07818913
000080 dc bb 02 3e ad cc dd 3f cb 95 30 3f 5d ac 9f 3d
       0.12766975 1.7328087 0.68978566 0.077965476
000090 2f 21 47 bf c9 b1 5a be 55 2a 73 bf 83 b2 53 3f
       -0.7778501 -0.21356882 -0.9498647 0.8269426
0000a0 ff 66 01 bf 3b 1f 9e bc 6a ff 21 be 27 7c ff be
       -0.50547785 -0.019302001 -0.15820089 -0.49899408
0000b0 90 0a f0 3f 9b cb f7 3d db a6 cc bf ea 96 3d be
       1.8753223 0.120993815 -1.598842 -0.185146
0000c0 8a 1d 29 3f 7f ba 53 bf 48 07 56 be 40 0c 3f bf
       0.660607 -0.82706445 -0.20901215 -0.74628067
0000d0 fa f4 c3 bf 43 81 8f bf 1c 9b 60 bd d7 1f 04 bf
       -1.5309136 -1.1211323 -0.054835424 -0.51611084
0000e0 2a eb cc 3e b9 4a 17 3f c9 eb ab 3e 7b c5 83 3e
       0.40023166 0.5909839 0.33578327 0.25736603
0000f0 f2 05 90 be b8 71 96 3e fb 5d a2 3f bc 69 78 3f
       -0.28129536 0.29383636 1.268493 0.9703634
000100 a6 e3 65 bf 4f 28 f4 bd 74 ca b7 bd 96 9b 22 3f
       -0.8980049 -0.11921751 -0.08974162 0.63518655
000110 6c ee 2c be cb 20 fa 3e 37 09 19 be 12 eb b3 bf
       -0.16887826 0.48853144 -0.14944921 -1.4056113
000120 b2 09 70 3f 60 3a bd 3d ea 5a fc 3e f6 7f c3 3e
       0.93764794 0.0923965 0.49288112 0.38183564
000130 4c d1 7a 3f ac ca 72 3f 2a 30 e3 bd 1f c5 c8 3e
       0.9797561 0.948405 -0.11093171 0.3921289
000140 40 c6 f3 3e 0d 2d 6e 3c ad 37 92 bf 5d fb 0d be
       0.4761219 0.014537108 -1.1423241 -0.13865419
000150 52 70 24 bf 5a 0b 2e bf bf 6a 08 bf 42 6a 53 be
       -0.6423389 -0.6798607 -0.5328788 -0.20646003
000160 4a c5 a6 bf 33 67 6f bd ab 35 cd bf df 6a 89 be
       -1.3028958 -0.058448028 -1.6032003 -0.2683935
000170 84 50 84 bc 79 6a 84 3f bd c2 00 3e 52 6e ad be
       -0.016151674 1.0344993 0.12574287 -0.3387323
000180 b4 2e b3 3e 41 62 43 3f c5 3c 02 bf a3 27 25 3f
       0.3499657 0.763218 -0.50873977 0.64513606
000190 1a a6 f0 3d ae 1b 1c bf c7 0b bf 3e e3 0d e9 3d
       0.11750431 -0.60979736 0.37313673 0.11379602
0001a0 bc 11 73 3e e0 0e ec be 7b 78 5c bf 02 4d c5 bf
       0.23737234 -0.461051 -0.8612134 -1.5414126
0001b0 4e c0 94 3d a8 a8 74 3f 46 49 2d 3f be da 57 bf
       0.07263242 0.9556985 0.6768993 -0.8431815
0001c0 11 67 bf bf a1 01 05 3e f3 a0 12 3e 55 2d 8e 3e
       -1.4953328 0.12988903 0.1431921 0.2776896
0001d0 b0 4e 03 be be f4 b4 3e 24 93 35 bf c6 8b 17 bf
       -0.12822986 0.35342973 -0.70927644 -0.5919765
0001e0 1c 96 46 3f 9b 46 f4 be 81 e1 9c 3f 32 14 86 3f
       0.775728 -0.47710118 1.2256318 1.0474913
0001f0 4e dc 72 3f ac 7e f3 3e 9f 9a 06 bf 2d 9c fc be
       0.9486741 0.4755758 -0.52579683 -0.49337903
000200 1c 21 07 40 4e e9 37 bf 7e 56 1e 3f 04 90 7c 3e
       2.1113958 -0.7184037 0.61850727 0.24664313
000210 95 eb ca 3e d1 15 87 3f 82 57 54 3f 77 b8 3d be
       0.3963286 1.0553533 0.82946026 -0.18527399
000220 5c fd 91 be 3a 49 8a bf dc 0e 71 3f 54 e8 52 bf
       -0.2851361 -1.0803597 0.941633 -0.82385755
000230 38 4f 18 3e 3c f2 d5 3e ba fd 1d be de 73 b6 bf
       0.1487397 0.41786373 -0.1542882 -1.425411
000240 d0 b9 06 3f ea 6e 39 3f 1a 55 98 be af 0a 01 be
       0.5262728 0.72434866 -0.29752427 -0.12601732
000250 f5 cc d3 3d c4 18 a0 be d0 15 29 3f 2b 15 a8 be
       0.10341827 -0.31268895 0.6604891 -0.3282865
000260 49 29 b0 3e c7 aa 4e bf 2a 28 01 3d a4 4e c0 bf
       0.34406498 -0.80729336 0.031532444 -1.5023999
000270 cb 02 1a bf 8d 3c 5f bf b7 07 90 bf cd bf 21 3c
       -0.6016051 -0.8720177 -1.1252354 0.009872389
000280 14 5e 98 bf c6 20 d7 be 69 70 20 be bc de bb 3d
       -1.190371 -0.42017192 -0.15667881 0.091733426
000290 b3 d5 5f be 40 b3 ce 3e a2 c7 7e 3f 77 53 32 3f
       -0.21858864 0.40371132 0.99523365 0.6965861
0002a0 fb f7 b9 3f 0b 03 38 3f b7 2f 8a 3f 51 78 22 be
       1.4528803 0.71879643 1.0795811 -0.1586621
0002b0 2d 6d b3 3e 48 5c c3 bf e1 48 69 bf 5d fe 12 40
       0.35044232 -1.5262537 -0.9112683 2.296775
0002c0 f4 ae 6f 3d 84 ee 3e bf 17 a4 1b 3f d4 bb 6a bf
       0.058516458 -0.74582696 0.60797256 -0.9169285
0002d0 4f fd 50 bf 4e cb b1 3d ec fe e2 3e 22 34 4b 3f
       -0.8163652 0.086813554 0.44335115 0.79376423
0002e0 a6 6f 99 be c3 29 91 bf 83 48 b8 3d 8f 2b 88 3e
       -0.29967993 -1.134087 0.089982055 0.26595733
0002f0 62 30 6d 3f f9 bc 4e 3f 2f db ba be 20 49 6d 3f
       0.9265195 0.807571 -0.3649535 0.92689705
000300 10 ee 1f 3f 97 63 00 3f 88 8b d3 3e 2f 7f 12 bd
       0.6247263 0.5015196 0.4131739 -0.035765823
000310 5c 95 ba be 59 f1 9b 3e df a5 91 be 5e 61 1c be
       -0.36442077 0.3045757 -0.28446862 -0.15271518
000320 d6 5b 40 3f c4 bf b7 3f bf 7e 51 3d d3 7e 9f 3e
       0.7514013 1.4355397 0.051146265 0.31151447
000330 29 ba 77 3e 38 e7 33 be 1d 97 fe bd 27 6c 19 3f
       0.24192108 -0.17568672 -0.12431166 0.5993065
000340 ec e2 04 bf 78 b0 96 bf 7f 87 07 3e e8 ad 31 3f
       -0.51908755 -1.1772604 0.13235281 0.69405985
000350 1f 76 46 3f d0 02 1c 3e 0e 3e 34 3f c2 59 89 bf
       0.7752399 0.15235448 0.7040719 -1.0730517
000360 29 8d 66 bd d3 f8 86 be 1a 8e b6 3e ad 66 73 3e
       -0.056286965 -0.26361713 0.3565529 0.23769636
000370 ed 8e b0 3e 8f d7 f9 3d 68 33 2f bf cf 10 0c 3f
       0.34484044 0.12199318 -0.68437815 0.5471315
000380 4a 71 15 3e 92 2c 60 3e 81 9c 08 3f 75 bd 75 bf
       0.14593998 0.21892002 0.53363806 -0.95992213
000390 a4 ec db bf 3e eb 00 bf f8 de a2 3f cd 24 6e bf
       -1.7181592 -0.5035895 1.2724295 -0.93024904
0003a0 59 10 2b 3f 62 43 92 3f e6 e6 67 3f 00 c6 85 3b
       0.6682182 1.1426814 0.905867 0.0040824413
0003b0 5d 69 41 bf 4b f2 b6 3d 09 5a 81 be 17 b7 91 bf
       -0.75551397 0.089329325 -0.25264004 -1.1384
0003c0 8e cb 54 be e1 8d ee be ba fa a2 3f 8a 25 60 3f
       -0.20780775 -0.4659262 1.2732766 0.8755728
0003d0 22 5c a9 be 85 b5 bf 3f 10 80 cf 3e 1f f5 a4 3e
       -0.33078104 1.497727 0.4052739 0.32218263
0003e0 e1 b7 9c be 7f 04 d3 3e 2d cc ac bd 8a e3 49 3e
       -0.30609038 0.41214368 -0.08437381 0.19715706
0003f0 58 9c 52 be a0 7d 5d 3f 1b cc 28 3f c2 5e 3d 3e
       -0.20567453 0.86519814 0.6593644 0.18493178

network_body._body_endoder.seq_layers.0.bias f4 [256]
000000 c7 f1 15 3c fa 27 60 bc 9a 6e 05 3c a4 8f 47 3c
       0.0091518825 -0.013681406 0.008144045 0.012180243
000010 b2 99 65 3b c3 24 30 3c cb a1 5c 3c 72 0f 0b 3b
       0.0035034236 0.010750952 0.013466309 0.0021218923
000020 ca ad 6d 3c 93 5b 13 bc 95 65 4b bc 2a cd 2b 3c
       0.014506767 -0.008994001 -0.012414356 0.010485927
000030 fe 4b 58 bc 9d 99 6e bc 64 71 81 39 78 2c fe 3b
       -0.013201712 -0.014562991 0.0002468928 0.007756766
000040 58 73 48 3a d5 02 6e 3c e3 4e ea bb 33 e2 46 bc
       0.0007646582 0.014527042 -0.0071505173 -0.012138891
000050 26 d7 55 bc 3e 2e 0b 3c 3f df 2b 3c 5d 03 f9 ba
       -0.013051784 0.008494912 0.010490238 -0.0018998195
000060 91 1f 8e 3c 59 ef fe ba 9c e2 be 3b 28 a6 67 ba
       0.017349036 -0.0019449993 0.005825354 -0.000883671
000070 f6 aa 29 bc 31 fb ed 3b 19 19 89 bc 3a 98 20 3c
       -0.010355702 0.0072626104 -0.0167356 0.009801919
000080 70 a7 8b bc 85 65 5b bc 5c 06 1d 3a 5d f7 48 3c
       -0.017047614 -0.013390903 0.00059900223 0.012266007
000090 10 68 79 3c 9b 59 b2 bb 2d ea 82 3b e1 2d 0d 3c
       0.015222564 -0.0054428107 0.003995201 0.008616895
0000a0 e4 ae d1 3a ca 7d 2e bc e1 d2 e0 3b 2a 5d 16 bc
       0.0015997556 -0.010650108 0.006861076 -0.0091774855
0000b0 34 94 06 bc b5 4f 0c 3c 98 bf 3d bc 44 5b 30 bb
       -0.008214045 0.0085639255 -0.011581324 -0.0026909867
0000c0 09 f4 7b 3c ba 80 16 bc 57 d8 d0 3b 3f 59 7e 3c
       0.015378007 -0.009185964 0.006373446 0.015524208
0000d0 d2 bc 72 3c 69 ab f5 3b 95 c8 5a 3b e6 3f a1 3c
       0.014815526 0.0074972403 0.0033383716 0.01968379
0000e0 f8 4c 04 bc be d2 0d 3a fe 71 d6 bb 2a 12 26 3c
       -0.008074991 0.0005410126 -0.0065443506 0.010136167
0000f0 9b 5e e1 3b cd 62 5c 3c 60 37 58 3c 02 5f 4e bc
       0.006877733 0.01345129 0.013196796 -0.012595894
000100 57 35 3e 3c 33 09 d7 bb 88 13 d1 3b cb 43 b9 3b
       0.011609397 -0.006562376 0.006380502 0.0056538335
000110 3d 76 6e 3c a2 1b 45 3c c6 38 7a bc 95 67 dd 3b
       0.014554557 0.012030514 -0.015272325 0.0067567327
000120 ac 00 2f bb 21 7a 37 bc 4f 1e e3 3b 58 5d 1e 3c
       -0.0026703281 -0.011198551 0.0069311033 0.00966581
000130 7d c3 67 3c 51 a7 e0 3b 99 67 dc 3a 7d bb 1a bc
       0.014145729 0.006855883 0.0016815542 -0.009444115
000140 44 0c c6 3b 86 eb 81 bc 86 2d 56 bc d8 8b 62 ba
       0.0060439426 -0.015859377 -0.013072377 -0.0008642054
000150 2e f2 f8 ba 1b 2c 66 3c b0 e9 3f 3c 5d 6b 15 bc
       -0.0018993074 0.0140486015 0.01171343 -0.009119836
000160 44 60 3e bb 56 5c 74 3c 5d 7b 25 bb 8a ee 54 3c
       -0.0029049078 0.014914593 -0.0025250532 0.012996325
000170 b0 02 dc 3b ee ad 1b bc ee 67 57 3c ef ce 3c bc
       0.0067141876 -0.009501917 0.013147337 -0.011523946
000180 b6 46 07 3c 6e f5 59 3c 53 75 95 3a b2 8f 02 3c
       0.008256605 0.013303144 0.0011402763 0.00796883
000190 1f e6 2e 3c 76 70 70 bc 38 03 2f 3c 7d 2d 36 bc
       0.010674982 -0.01467525 0.01068192 -0.011119244
0001a0 14 1a c4 3b f9 da 18 3c 53 eb 70 3c 7d 5d 61 3c
       0.005984554 0.009329551 0.014704543 0.0137551995
0001b0 23 54 3c 3c e2 4e 53 bc b6 ec 83 3c cb 8d 23 bc
       0.011494669 -0.012897225 0.016104084 -0.009982537
0001c0 93 93 ee 3b 26 28 27 bb fa da 06 3c 6f 04 6c 3c
       0.007280776 -0.0025506108 0.008230919 0.014405354
0001d0 31 e6 50 3c f7 d5 31 3c fa e3 30 bb d8 eb ab 3b
       0.012750194 0.010854236 -0.0026991353 0.0052466206
0001e0 26 64 35 bc cc 47 6b 3c d8 e5 50 3c 06 c7 36 bc
       -0.0110712405 0.014360379 0.0127501115 -0.011155849
0001f0 3d 14 41 3c ca 77 65 3c 25 1e 0e 3b be f0 70 3c
       0.01178461 0.014005611 0.0021685448 0.014705835
000200 3a f1 2a bc 5c c9 72 3c 12 c2 14 3c fb 74 d5 3b
       -0.010433489 0.014818516 0.009079473 0.0065141893
000210 b5 57 48 3c e2 d2 b1 bb b9 c3 81 3c 31 46 3f 3b
       0.012227942 -0.0054267505 0.015840398 0.0029186124
000220 4c db 75 bc bf 91 bd bb 41 d8 7f bb 1b d3 9b bb
       -0.015005898 -0.0057851966 -0.003903881 -0.0047553903
000230 1d cf 89 3c 38 96 1b 3c 38 f1 c8 3b 46 81 0e 3c
       0.016822392 0.009496264 0.006132271 0.008697813
000240 85 8c 5b bc 9c ff 30 3c e7 b4 1d bb 90 35 59 3c
       -0.013400202 0.0108031295 -0.0024064125 0.013257399
000250 0f 9c 7f 3c 76 7c e4 bb 68 25 e4 ba f6 4e 27 3c
       0.015601172 -0.0069728447 -0.0017406167 0.010211697
000260 9d 31 6a bc 50 dd 5a bc dc 2b 67 bc 7e 60 66 3a
       -0.014294055 -0.013358429 -0.014109578 0.0008788182
000270 c6 a8 4d bc c9 c4 ab bb 2f 28 27 bc 6f af 57 3c
       -0.012552446 -0.0052419645 -0.010202452 0.013164385
000280 e7 25 82 3c 15 e2 3e bc d7 7b 8f 3c f3 c9 be bb
       0.015887214 -0.011650582 0.017515106 -0.005822414
000290 f4 48 c7 3b 91 8f 4e 3c 19 8d 97 3c 29 f1 3c bc
       0.0060816947 0.012607471 0.018499898 -0.011532106
0002a0 36 11 3f bc 17 e9 73 3c e9 3a 06 bc a8 b8 1d bc
       -0.011661818 0.014887116 -0.008192756 -0.009626545
0002b0 fb fd d8 3a 6d 9e 78 3c 33 8e 0e 3c 75 b7 6d 3c
       0.0016555184 0.01517449 0.008700895 0.014509072
0002c0 a1 24 36 3c 1b a0 72 3c 10 40 5c 3c e4 93 03 bc
       0.011117131 0.01480868 0.013443008 -0.008030865
0002d0 8e 2b 06 3b 33 36 72 3c 38 3f 52 bb 1c f5 80 3c
       0.0020472738 0.01478343 -0.0032081138 0.015741877
0002e0 98 c1 ff 3b 7c e7 f0 3b d0 50 1a 3c 98 2d 12 3c
       0.0078050606 0.007351814 0.009418681 0.008922003
0002f0 ad 07 60 3c 69 27 eb ba 53 ff 43 3c 20 d3 24 bb
       0.013673705 -0.0017940822 0.0119627295 -0.0025150254
000300 74 6e ff 3a b9 28 86 3c b2 87 7d 3c 0c 8e 31 3c
       0.0019487874 0.01637684 0.015474247 0.010837089
000310 37 c2 3b bc b3 0d 1a 3c c1 70 45 bb 31 bf 84 3b
       -0.011459879 0.00940268 -0.003012702 0.004051112
000320 3c 7d 3a 3c b3 ae 37 bc 01 3e 6a 3c ea b7 1d bc
       0.011382397 -0.011211085 0.014297009 -0.009626368
000330 34 6c a7 ba 5c 78 5d 3c 3d 3f 47 ba f0 34 8d 3c
       -0.0012773336 0.013517465 -0.0007600671 0.017237157
000340 65 32 4c bc 0e dc 6c 3c cf 51 ba 3a 78 ce 4f 3c
       -0.012463187 0.014456762 0.0014215055 0.012683503
000350 09 fc 64 bc c9 50 40 3c 91 8d 6a bb cb ab 82 3c
       -0.0139761055 0.011738011 -0.0035789947 0.015951058
000360 2d b2 66 3b 1e 59 92 3c 55 75 19 3b 26 38 dc 3b
       0.0035201416 0.01786476 0.0023415883 0.0067205606
000370 c1 b3 11 bc d0 56 00 3b 07 77 0a 3c 7a 67 f4 3b
       -0.008892954 0.0019582994 0.00845123 0.0074586244
000380 e0 ff 6f 3c 88 0c cb 3b 8c b6 45 3c 07 b0 d7 3a
       0.014648408 0.006196562 0.012067448 0.0016455658
000390 2f f1 47 3c be 40 e2 3b 2d a1 55 3c f1 ca 26 3b
       0.012203499 0.0069046905 0.013038916 0.0025450552
0003a0 66 ec 4f 3c 18 6a 6a bc b6 4a 1e 3c 92 c0 57 3c
       0.012690639 -0.014307521 0.009661367 0.013168471
0003b0 7c bc d2 3b 2d 30 21 3c 02 17 ff bb 13 72 0c 3c
       0.0064311605 0.009838146 -0.007784725 0.008572119
0003c0 df 0f 9a bb b0 33 00 bc 92 e1 92 bc 6a aa 59 bc
       -0.004701599 -0.007824823 -0.017929826 -0.013285259
0003d0 ee e5 cb 3b 54 4c 70 3c e6 4b 43 3c 2c 1e 63 3c
       0.006222478 0.014666636 0.011919951 0.013862174
0003e0 3d cf 4a bc 13 a8 08 bc 2c 12 02 bc f5 f6 02 bc
       -0.012378511 -0.008340853 -0.007938903 -0.007993449
0003f0 8d ee 2f bc 34 c0 08 3c bb b7 6a 3c 3c a2 69 bc
       -0.010738027 0.008346606 0.014326031 -0.014259871

network_body._body_endoder.seq_layers.2.weight f4 [256, 256]
000000 69 27 97 bc 75 76 b0 3d 59 18 d5 bd 81 e9 0d 3d
       -0.01845141 0.08616344 -0.104050346 0.034646515
000010 e2 4e f1 3b e3 d2 10 be af 5b fa ba a0 b3 76 3d
       0.00736414 -0.14142947 -0.001910081 0.060229897
000020 06 e9 8d bd 02 83 de 3d e9 e4 ef 3d c5 4e 12 3d
       -0.06929211 0.108648315 0.11713583 0.03571965
000030 69 b6 09 3d 81 8c 2a 3e 4b 7f 17 bd 06 e3 1e bd
       0.033621226 0.1665516 -0.03698663 -0.038790725
000040 91 6e fc bc fd a5 a1 bc 3b 26 39 bd 94 5c d7 3c
       -0.03081444 -0.01973247 -0.045202475 0.026289262
000050 ee 9a 49 3c 6b bc 1e bd 44 0b 77 bd 4f f1 b4 3d
       0.0123050045 -0.038753908 -0.060313478 0.088350885
000060 ed 85 26 3c 1b 30 45 bc 41 bc 7d 3d d2 f1 3f 3d
       0.010163766 -0.012035395 0.06194711 0.046861477
000070 38 bc e6 bb f5 e5 c1 3a 2d c7 30 bd 7d 1d 85 bd
       -0.0070414804 0.0014793264 -0.0431587 -0.06499765
000080 a3 57 ba bd 48 70 4e 3d 1a 90 9e 3d 6c 2d 65 bd
       -0.09098747 0.05040005 0.07742329 -0.05595152
000090 20 7d 8b bd f4 c6 95 3d 06 39 98 3d 45 94 1f bd
       -0.06810975 0.07313338 0.07432751 -0.03895976
0000a0 e3 54 7b 3c 5a e0 1f bd 6b 24 c1 3c cc d9 3c bd
       0.015340063 -0.039032318 0.023576936 -0.046106145
0000b0 3a 46 e4 bc bf 8a aa bd 95 28 74 bd 5b fe bc 3c
       -0.027865518 -0.08327245 -0.059609015 0.023070505
0000c0 37 99 25 bd 71 81 ec 3d a7 05 fc 3b 5a f0 b7 3b
       -0.04042932 0.115481265 0.0076911035 0.005613369
0000d0 21 10 03 3c b7 3c e9 3d af 80 22 3d 96 f2 16 3e
       0.007999451 0.113885336 0.039673503 0.14740977
0000e0 71 9e 2e 3e 78 a1 ea 3b a4 b5 5f bc 37 7c a7 3d
       0.17052628 0.007160362 -0.013654146 0.08177989
0000f0 cf a8 13 3d 4a 48 1a 3e 5b a5 c7 bd a2 b0 cc bc
       0.03604966 0.15066639 -0.09748336 -0.024986569
000100 b5 0d ae 3d f8 ae 2f 3d c1 62 d3 3c d3 7a da bd
       0.08498708 0.042891473 0.025803925 -0.10667958
000110 d4 75 ba bd 10 43 a4 bc d4 b5 56 bc 30 e9 d7 3d
       -0.09104505 -0.02005151 -0.013104875 0.10542524
000120 41 53 53 3c 67 c2 71 bd f1 45 a9 3c 71 cb d5 3d
       0.012898267 -0.059023287 0.020663233 0.10439194
000130 43 f9 b8 3d a3 37 b2 bc 7b 6f 2f 38 89 be 86 3c
       0.09031918 -0.021755045 4.1827076e-05 0.016448276
000140 b5 72 99 bd 84 f5 87 3b e5 8d 2c 3e e3 52 07 bd
       -0.07492582 0.004149141 0.16851003 -0.03303803
000150 bc 61 f9 bb a1 e2 6a 3b b0 43 ab 3c 60 95 c1 bd
       -0.007610528 0.0035840648 0.0209063 -0.09452319
000160 59 6f ad bc f3 c0 5a 3b 3d 50 13 3d 2f 38 00 3d
       -0.021171259 0.0033379167 0.035965193 0.03130358
000170 6e a3 be 3d 0f 1a 3d bd 85 45 e6 3b 5f c8 04 bd
       0.093085155 -0.04616743 0.0070273303 -0.03241765
000180 3a ed 51 3d 5d 7b 0b be a9 6b 2a bd fc f2 a3 3d
       0.051251628 -0.13621278 -0.04160658 0.0800533
000190 77 25 88 bc 1e de e4 3d 8b 82 ae bc 7d 23 48 3b
       -0.016619427 0.11175178 -0.021302482 0.003053873
0001a0 61 08 dc 3d 6a d9 78 bd 65 20 01 3d f2 46 97 3c
       0.10743786 -0.060754217 0.031525034 0.018466447
0001b0 61 35 c8 ba 5f 79 4b 3d fa 4e a3 bd ab 21 c7 bd
       -0.0015274697 0.049676295 -0.07974048 -0.097232185
0001c0 7b fc 5f 3d 3a 50 f4 bc 59 37 fd 3c f4 e6 6c bc
       0.054684144 -0.029823411 0.03091018 -0.01445936
0001d0 d4 f1 51 3c cd 8a b6 3d dc d1 ee bc 02 ea 55 bd
       0.012814004 0.08913193 -0.029152803 -0.05222512
0001e0 c6 61 01 be 33 4c a7 3d 54 f0 58 bd e3 9f a5 3c
       -0.12634954 0.08168831 -0.05296357 0.020217841
0001f0 2e 36 85 bc ea ba 87 bd 04 f7 b5 3c 97 1d a4 bd
       -0.016261186 -0.06627448 0.022212513 -0.08013456
000200 ee 5b db 3d 60 5c 53 bc 5a 86 02 3d 98 07 e3 3d
       0.107108936 -0.012900442 0.03186641 0.11085433
000210 3f cb f2 3b 77 c8 28 3d 17 23 c2 3c 24 bc dc bc
       0.0074094827 0.041206803 0.023698373 -0.026945181
000220 0d 04 22 bd ec cf 90 3c bf fc e6 3d 66 a2 e6 3b
       -0.039554644 0.01767727 0.11278676 0.0070384024
000230 49 2c dd ba db 22 83 bd 4b 5b 2a 3d 93 f4 7f bd
       -0.001687416 -0.064031325 0.04159097 -0.062489104
000240 7e c5 6d bc a0 c5 10 bc d0 cb 42 bd 2d ba d3 ba
       -0.014512418 -0.00883618 -0.047557652 -0.0016153507
000250 a4 6c a6 bc 93 f7 9b bc 7c 97 16 be f2 ff 0d bc
       -0.020315476 -0.019038951 -0.14706224 -0.008666979
000260 fb c1 0f bd e9 af 28 bd e1 e9 2e bd b8 37 3e 3d
       -0.035097104 -0.041183386 -0.042703513 0.046439856
000270 99 18 90 3d 22 3d 6a 3d c2 7a 87 3d 55 d7 39 3c
       0.07035942 0.057187207 0.06615211 0.011342843
000280 f0 0c 36 3d 3d 6c 7b bd 78 e7 ef bb 60 d8 6b bc
       0.044445932 -0.06138252 -0.0073212944 -0.01439485
000290 78 99 b5 bd 07 4c c9 bd a7 6c 41 3a a0 f0 09 3d
       -0.088671625 -0.09828954 0.0007378556 0.033676744
0002a0 3f fd 22 bc 63 1d 87 3b 7f d4 6a 3d 69 d9 da bc
       -0.009948074 0.004123376 0.05733156 -0.026714997
0002b0 43 1d ad bd 45 a1 db bc 85 aa 81 bc bb 93 77 3d
       -0.08452847 -0.026810298 -0.01582838 0.06044362
0002c0 68 df 6f bd bb f3 28 3d 77 06 a6 bd ac 90 76 bd
       -0.058562666 0.041248064 -0.08106702 -0.060196564
0002d0 83 49 d0 3d 14 be d7 bd bc b2 f4 3c cb f8 ba bd
       0.10170271 -0.105343014 0.029870383 -0.09129485
0002e0 8c 16 fa bc e0 31 68 3b 61 a5 19 bd b9 7a 1c bd
       -0.03052833 0.0035430118 -0.037511233 -0.038202975
0002f0 cb 64 0b bd ca 83 3e bd 4d 99 3c bd 0d 73 a0 3d
       -0.03403167 -0.046512403 -0.046044637 0.07834444
000300 64 71 13 be 2f f4 a0 3d 85 66 da bd 40 5d 54 bd
       -0.14398724 0.07859074 -0.10664085 -0.051846743
000310 75 99 6e 3d f2 cc d8 3d a6 d6 ce bc 4d 66 be 3d
       0.058251817 0.10585965 -0.025248837 0.09296856
000320 57 00 ee 3b 6f 04 ab bd a8 f5 8d 3d 12 c5 a6 bd
       0.007263224 -0.08350455 0.06931621 -0.08143057
000330 71 bd a3 bd d8 b8 4e 3d 21 62 d3 bc c6 53 d4 3d
       -0.079951175 0.05046925 -0.025803627 0.10367541
000340 40 3d ba 3c ad a5 a5 bc bc 9e e4 3a 7d b7 b1 bb
       0.022734284 -0.020220602 0.0017442326 -0.005423485
000350 a5 c5 2b 3d 86 cb cf 3b ba 22 ae bd 41 36 66 3c
       0.041936535 0.0063414006 -0.08502717 0.014051021
000360 69 b5 2e 3d 58 fb 16 bc 12 17 8b bc 89 d3 25 bb
       0.042653475 -0.009215198 -0.016978774 -0.0025303087
000370 31 01 08 3d 3a 10 18 bd e0 36 12 bd e5 d3 21 3d
       0.03320426 -0.03712485 -0.035696864 0.03950872
000380 fd 07 7a bd 59 de 42 3b bd 83 d3 bd d8 09 5b bc
       -0.061042774 0.002973458 -0.103278615 -0.013369046
000390 d8 24 43 3b cf fd be ba 7f 28 31 3d c3 9e 56 bd
       0.00297766 -0.001457149 0.04325151 -0.0523975
0003a0 f7 d3 ca 3d 39 90 93 bc d2 5f 9e bd 91 80 21 bd
       0.0990371 -0.018013107 -0.0773312 -0.03942925
0003b0 90 fb c3 3b e6 bd ad bb bd 1d dd bc 4a 09 b1 3b
       0.0059809163 -0.0053021787 -0.02699172 0.0054027187
0003c0 66 7a 1b bd 06 11 a1 3c 50 38 27 3e ae 1f f3 3c
       -0.037958525 0.019661438 0.16330075 0.029678192
0003d0 e4 ec ff bc f6 33 8a 3d 5d c2 24 be 54 e9 ab bc
       -0.031240888 0.06748192 -0.16089769 -0.020985283
0003e0 00 2d d7 b9 f3 e4 9e bb 7a 13 d1 bb 35 5b be bc
       -0.00041041523 -0.00484907 -0.0063804956 -0.02323685
0003f0 57 1d d6 3b 73 ef d3 3c ee ed 84 3d cc 61 76 bd
       0.0065342593 0.025871014 0.06490694 -0.06015186

network_body._body_endoder.seq_layers.2.bias f4 [256]
000000 08 39 52 bc 88 0c ee bb c1 b8 46 3c b0 b4 46 ba
       -0.01283098 -0.0072646774 0.01212901 -0.0007580025
000010 d6 49 21 bc 60 1a f6 39 51 ed 4e 3c 81 00 b1 3b
       -0.009844264 0.00046940427 0.012629823 0.0054016714
000020 a6 07 7c 3c 07 e0 27 bc 17 c2 be 3b b0 d6 4e bc
       0.015382683 -0.010246283 0.005821477 -0.012624428
000030 aa 87 5d 3c ed 0f 58 3c 89 81 72 bc d8 34 13 bb
       0.013521114 0.013187391 -0.014801391 -0.0022461917
000040 e5 0a 3b bc c8 f3 0e bb e6 fc 1a bc 8a a8 a4 3b
       -0.011416172 -0.0021812785 -0.00945971 0.0050249742
000050 37 50 69 bc d3 98 8d bb dc d2 53 3c e2 b0 5d bc
       -0.014240316 -0.0043211966 0.012928691 -0.013530942
000060 ba 18 3e 3c 53 ec 82 bb 90 5b 79 3c 1e e1 80 3c
       0.011602575 -0.003995457 0.015219584 0.015732344
000070 46 ea 29 3b 55 91 45 3c 9f 67 0f bb 41 32 0b bc
       0.0025926991 0.012058576 -0.0021881831 -0.008495868
000080 cc d3 a7 3c c1 ec 82 3b b7 0d 03 3b a3 aa 63 bc
       0.020486735 0.0039955084 0.0019997188 -0.013895663
000090 09 b0 25 ba 8a c7 7a bc ac 36 9e 3b e1 8c 66 bc
       -0.0006320482 -0.015306363 0.0048282947 -0.014071674
0000a0 3d 3c 48 3c 29 d0 25 bc c6 5b 41 3c ef 71 e8 3a
       0.012221393 -0.01012043 0.011801666 0.001773415
0000b0 19 5c 49 3c 17 76 62 bc 58 a7 4f bc 21 6b 21 bc
       0.012290024 -0.0138221 -0.012674175 -0.009852202
0000c0 25 7d 7f bb 07 f4 4f bc 4c 88 00 3c 9c 39 e1 bb
       -0.0038984504 -0.012692458 0.007844996 -0.0068733227
0000d0 5d 06 5d 3c e8 ee 29 3c f3 8a 38 bc 01 7b 78 3c
       0.013490287 0.010371901 -0.011263597 0.015166045
0000e0 2f 9b 32 3c 18 65 00 bc 23 26 09 bc 10 0d 42 bc
       0.010901256 -0.007836603 -0.008370909 -0.011843935
0000f0 00 d9 73 3c 7f a6 68 bc 9e a3 18 bc ec a7 06 3c
       0.01488328 -0.014199852 -0.009316353 0.008218747
000100 eb 0b 98 3c 98 6d e8 3b d1 45 58 bc c1 59 6d 3c
       0.01856037 0.0070931427 -0.013200239 0.014486731
000110 2b 41 6b bc 58 19 26 bc ac 89 eb bb cf 4e 80 3c
       -0.014358799 -0.010137878 -0.0071880426 0.015662579
000120 53 bc 42 3c 93 65 68 3c ee c2 64 3c fb 13 6e bc
       0.01188572 0.014184373 0.0139624905 -0.014531131
000130 0f a0 64 bb 72 0f 59 bc 75 a6 d4 bb 87 09 78 bc
       -0.0034885441 -0.013248311 -0.00648957 -0.01513899
000140 52 37 61 bc 30 b6 3d bc 5b a0 b8 bb 65 4e 68 bc
       -0.0137461 -0.011579081 -0.0056343502 -0.014178847
000150 85 36 9f b9 7c 35 22 3c b1 18 5f bc 76 26 5e bb
       -0.00030367463 0.009900447 -0.013616727 -0.0033897436
000160 f6 89 5d 3c a2 37 65 3c e1 ae 35 3c 8e 37 d1 3b
       0.013521662 0.013990315 0.011089058 0.0063847965
000170 ed b4 84 bc 2a 0d e7 3b 55 4a 65 bc 64 33 6c 3c
       -0.016199553 0.00705113 -0.013994773 0.014416549
000180 8e f7 82 ba 72 18 78 3c e8 d8 8c 3b 1b 26 47 bc
       -0.000999199 0.015142547 0.004298318 -0.012155081
000190 08 d8 66 bc 77 a8 81 bc 22 6e 47 3c 79 8a 7e 3a
       -0.014089592 -0.0158274 0.012172254 0.0009709965
0001a0 56 a6 64 3c 56 fc 15 bc b7 e3 ad bb 78 b2 67 3c
       0.013955673 -0.0091544 -0.0053066867 0.014141671
0001b0 28 69 29 3c a1 ab 75 3c 39 97 34 3a 08 7f 56 bc
       0.010340013 0.014994533 0.0006888989 -0.01309181
0001c0 62 8f 29 bc be 3e 39 3c 16 0d 91 3c 7f cc 84 3c
       -0.0103491265 0.011306463 0.017706435 0.016210793
0001d0 7d b9 f3 ba 9f b2 b3 3b 52 eb 95 3a 43 78 d9 3b
       -0.0018594709 0.00548394 0.0011437929 0.006636651
0001e0 7e 2d 56 3c 57 bc 9b 3a dd ff 26 3c 36 3d 61 bb
       0.01307237 0.0011881691 0.0101928385 -0.003436876
0001f0 e5 9a 6c 3c dd 28 60 3c 1b bb 4e bc 7c 4d 99 ba
       0.014441227 0.013681618 -0.012617852 -0.0011696066
000200 1e 9c 5b 3a f4 c7 73 bc 8d af 76 bc a8 13 37 bc
       0.000837745 -0.0148792155 -0.015056503 -0.01117412
000210 cc fd 7c 3c 11 1b 48 bc 0e e8 76 3c 98 f4 3d bc
       0.015441369 -0.012213484 0.015069975 -0.01159396
000220 09 5c 8c 3c 6b 95 4e 3c ae 6a 3a bc 72 ce 71 bc
       0.01713373 0.012608866 -0.0113779735 -0.014758693
000230 d6 21 84 bc ec 9b 20 3c e6 13 51 3c 81 6b 7d 3c
       -0.016129415 0.0098028 0.012761092 0.015467525
000240 b0 42 3b 3c 03 d3 30 bc a7 4e 72 3c b1 97 2f bc
       0.011429474 -0.010792497 0.01478926 -0.010717318
000250 7a 91 0c 3c cf ab 07 bc 2a 13 1b bc 1b 51 04 3a
       0.008579606 -0.008280708 -0.009465018 0.0005047486
000260 7a 89 50 3c ef ea 2c 3c 40 e0 46 bc 47 7e 38 bb
       0.0127280895 0.010554059 -0.012138426 -0.002815144
000270 09 f1 32 3c df f8 48 bc 2e 69 ed 3b 00 c3 81 bc
       0.010921725 -0.012266367 0.0072452044 -0.015840054
000280 b7 09 0a 3c 8f 37 69 bc bd cf 0e 3c 37 0b 5c 3c
       0.008425168 -0.014234438 0.008716521 0.013430408
000290 f6 bb 09 bc e1 10 aa 3b c3 73 67 3c 59 43 7c 3c
       -0.00840663 0.0051900004 0.014126721 0.015396916
0002a0 97 9f 25 bc 87 04 1a 3b 14 29 5f 3c c4 82 6d bc
       -0.01010885 0.0023501234 0.013620634 -0.014496509
0002b0 39 e9 e7 bb f0 fd 16 bc e9 be 5b bc d6 d5 71 bc
       -0.007077363 -0.009215817 -0.013412216 -0.014760455
0002c0 5d 3a 38 3c e3 e7 39 bc d5 6a 58 3c 7f bf 01 3c
       0.011244384 -0.01134679 0.0132090645 0.007919191
0002d0 31 25 cf 3b 4d cc 3e bc 08 e9 8c ba 8d 1a 11 3b
       0.0063215722 -0.011645389 -0.0010750601 0.002214107
0002e0 b5 25 62 bc fb 0c 55 3c 32 d7 d3 bb ea e3 1a 3c
       -0.013802935 0.013003583 -0.0064648623 0.009453753
0002f0 05 db 61 3c 29 9a 57 bc 62 5b 27 3c 48 4e 9b bb
       0.0137851285 -0.013159313 0.010214658 -0.0047395565
000300 65 2f 3d 3c 2f bd eb 3b ec b9 48 3c 4e c6 45 3c
       0.011546944 0.0071941833 0.0122513585 0.012071205
000310 de fd 69 bc e7 83 d9 3a 3a 0a 52 bc fc d2 86 3c
       -0.014281718 0.0016595096 -0.012819821 0.016458027
000320 c9 4d 1d 3c 9c 44 34 bc 37 2c 7e bc a6 52 5a bc
       0.009601065 -0.011002686 -0.015513471 -0.013325369
000330 1a 3d ec bb 3c e0 69 3c 90 95 85 bc e5 84 71 bc
       -0.0072094323 0.014274653 -0.016306669 -0.014741157
000340 1b 52 82 bc fc 6a 50 bc 27 00 67 3c 7e d1 31 ba
       -0.015908292 -0.01272082 0.014099157 -0.0006783231
000350 1b e8 13 3c 5c 39 17 3c 9a 78 77 3c e7 b0 fa 3b
       0.009027506 0.009229984 0.015104437 0.007650483
000360 61 30 74 3c 38 b5 b8 3b 6e a2 a2 3b 49 41 71 bc
       0.014904113 0.0056368373 0.004963211 -0.014725038
000370 ca d5 64 bc 45 72 48 3c 4d 1a 16 bb 5b 32 2b 3c
       -0.013966987 0.012234275 -0.002290386 0.010449017
000380 ac fd 62 3c 59 3b 6a 3c a4 b2 e1 bb 7d 8d 3d bc
       0.013854425 0.014296376 -0.0068877507 -0.011569378
000390 8a 96 4b 3c b8 25 ca 3b ac 5a 84 bc b7 70 7b bb
       0.012426028 0.006169047 -0.016156517 -0.0038366744
0003a0 82 12 d0 bb f1 1b 3a bc 38 78 59 3b 64 05 66 3c
       -0.0063498626 -0.011359201 0.0033183228 0.014039371
0003b0 dd fc 86 bc 6f db d5 3b 9d 71 08 3c cb 9c 5b bc
       -0.016477996 0.0065264027 0.008327869 -0.013404082
0003c0 10 92 52 bc 3c a8 8e ba ea 28 49 3c 1e 6c 51 bc
       -0.012852207 -0.0010883878 0.012277821 -0.012782125
0003d0 a1 16 32 bc be f6 63 bc 88 7c cd bb e5 49 77 3c
       -0.010869653 -0.013913808 -0.006270949 0.015093301
0003e0 8c df 7d bc 0a e0 62 3c 63 41 4f bc 22 b7 2f bc
       -0.015495192 0.01384736 -0.012649867 -0.010724815
0003f0 f0 91 58 bc 0e c8 11 3c 2e 5e 81 bc 53 ce 23 bc
       -0.013218388 0.008897794 -0.015791979 -0.009997922

network_body._body_endoder.seq_layers.4.weight f4 [256, 256]
000000 3c 07 0d bd fd 31 05 bd 38 1d a2 39 8d 9e cb bc
       -0.034430727 -0.032518376 0.00030920818 -0.024855876
000010 c2 39 73 3d 7c 75 3f 3c 7c a5 a6 3b 9b 10 e8 bd
       0.059381254 0.011685725 0.0050856452 -0.11331292
000020 9a 41 9f 3d 29 5c ca bd 34 86 c6 3c 6f 9f ca 3d
       0.077761844 -0.098808594 0.024233915 0.09893691
000030 d5 b7 0e 3d d2 20 0d 3c 0f 10 89 3c 12 c8 ea 3d
       0.034843285 0.008613782 0.01673129 0.11463942
000040 42 0a 34 3d 02 65 02 be 99 35 24 bd a0 4d 84 3d
       0.043955095 -0.12733844 -0.040090177 0.06460118
000050 60 cf e1 3c 13 54 3f bd 9d 30 0f bc 68 b4 b0 bc
       0.027564704 -0.04671104 -0.008739618 -0.0215704
000060 a9 39 8b bd 2c d7 da 3c 6f 43 39 bd 19 c2 dd 3d
       -0.06798107 0.02671393 -0.045230325 0.10828037
000070 b8 7f 7a bc 12 ee 19 be 69 f4 b8 bd 72 14 4b 3d
       -0.01528924 -0.15032223 -0.090309925 0.049580045
000080 71 9c 99 bd e7 fe 74 bd e3 fb 3c 3d be 66 d0 3c
       -0.07500542 -0.059813406 0.046138655 0.025439616
000090 c3 cd ce bd 52 69 5d bd a4 42 37 3d 38 aa 7c bd
       -0.1009784 -0.05405552 0.044741288 -0.06168577
0000a0 7a c7 e1 bc bb ca c4 bc 5f e2 b0 3c f5 5b 7c bd
       -0.027560938 -0.02402245 0.021592317 -0.061611135
0000b0 51 a3 45 bd d6 6e 9a 3c 7d 01 01 3d 89 70 c0 3b
       -0.048251454 0.018851679 0.03149556 0.0058727902
0000c0 af 7c c2 3b ca 8e b2 bc 1e 96 4c bd 07 36 27 3c
       0.0059352736 -0.021796603 -0.04994785 0.010205752
0000d0 4f b3 db bc ce 39 85 3d 88 f8 1e 3d 0c 52 81 3d
       -0.0268189 0.06505166 0.038811237 0.06314477
0000e0 f1 ee c1 bb 43 86 d4 bc 1f 12 e8 3d 33 05 7b 3c
       -0.0059183766 -0.025942927 0.11331581 0.015321064
0000f0 d9 a8 d3 bd fb 71 7b 3d a0 b1 60 bd 28 d1 3e bc
       -0.103349395 0.061387997 -0.054856896 -0.011646546
000100 81 72 0c 3d 1d 02 97 3d 75 1a 7a bd 6b ce 98 3d
       0.034288887 0.0737345 -0.061060388 0.07461246
000110 cd ee 9c 3d dc f0 fc bd 00 9b 3c bd 65 cd 55 bd
       0.07662735 -0.12350628 -0.046046257 -0.052197833
000120 c4 36 10 3d 0a 9f cd 3d dd 92 8e bc b0 cf 2b bd
       0.03520848 0.100401 -0.017404014 -0.041946113
000130 18 d2 0a bd 24 01 c7 bd 95 71 13 3d 68 1b 68 bd
       -0.033891767 -0.097170144 0.035996992 -0.05666676
000140 8a 61 57 3e 02 11 e5 3d 01 10 82 bd e3 4b dd b9
       0.21033302 0.111848846 -0.06350709 -0.00042208945
000150 30 64 56 3d ff 99 47 3d d1 5b 85 3d 32 77 1c 3d
       0.05234164 0.048730846 0.06511653 0.03819961
000160 8e ac f6 bd 1a fe 2e be 72 2a a7 3d a0 3c 83 3b
       -0.12044631 -0.1708912 0.08162393 0.00400503
000170 9d f6 bc 3c f1 60 2e bd 6d ba 69 bb 13 2c d4 bc
       0.023066813 -0.04257292 -0.0035664097 -0.025899922
000180 5e 05 05 be d0 19 8c bd f0 56 0f bd 64 db 97 3d
       -0.12990329 -0.06840861 -0.03499502 0.07414892
000190 38 a2 34 3c 7d 43 91 bc fd 0d 8b 3c d0 a3 71 bc
       0.011025004 -0.017732376 0.016974444 -0.014748529
0001a0 b8 b7 cb ba 69 23 9f bc dd 94 76 3d f1 0a 30 bc
       -0.0015542423 -0.019426065 0.06020056 -0.010744796
0001b0 ea e7 f2 bc 3f df c7 3d 7b 0a 20 bd 86 66 94 3c
       -0.0296516 0.09759378 -0.039072495 0.018115293
0001c0 c3 bd 12 3d 61 c3 43 bd 23 d3 96 3c b4 98 e2 bd
       0.035825502 -0.04779375 0.018411225 -0.11064282
0001d0 ca 29 3a bd 61 4e d5 bc 06 c2 79 bb 61 6f 88 3c
       -0.04545001 -0.02603835 -0.0038110032 0.016654672
0001e0 73 d7 5c 3d 3f e5 17 3d 80 24 2c 3d 3f 12 a0 3b
       0.053916406 0.03708386 0.042026997 0.0048849876
0001f0 16 92 9e bc 97 9a 97 bc 93 ef b9 3b 09 29 32 3d
       -0.019356769 -0.018506331 0.0056743114 0.043496165
000200 34 c8 9a 3d 65 a7 0f 3d e5 1e 7f 3b 3d 24 77 3d
       0.07557717 0.03507175 0.0038928327 0.060337294
000210 20 5c 81 3c f4 89 39 bd 62 30 0d be a3 de c4 3c
       0.015790999 -0.045297578 -0.13787988 0.024031943
000220 df e9 8e bd c4 24 2b 3d e9 5d 9f bd a9 6a 2f 3d
       -0.06978201 0.04178311 -0.07781584 0.04282633
000230 50 d6 47 bc 0e 93 4a bd ff e1 b2 bb 27 0b 2c 3d
       -0.012197092 -0.04945665 -0.0054590697 0.042002823
000240 88 31 0f 3d cf 3d ca 3d 10 c5 ae bd 2c 73 be 3d
       0.034959346 0.0987507 -0.085336804 0.09299311
000250 f4 34 50 3d 96 04 a5 bd de 9b db 3c d2 a8 3b bb
       0.05083175 -0.08057515 0.026807722 -0.002863456
000260 ff 5d 87 3c 92 20 86 3a 65 3d e5 3d 47 f9 4d bd
       0.016524313 0.0010233095 0.11193351 -0.050286558
000270 b0 bf 91 3d 4f ee 63 3d a1 4a 5c 3b 1a 54 2a bd
       0.071166396 0.05564719 0.0033613818 -0.04158411
000280 e8 e0 09 bd 6b 11 c1 bd 6b b2 c5 3d a1 b4 ea 3c
       -0.033661753 -0.0942715 0.09653171 0.028650584
000290 11 90 bf 3d 06 46 b0 3d 5e b8 9e 3c e8 f0 8c bd
       0.0935365 0.08607106 0.019375023 -0.06881887
0002a0 40 11 2c bc 66 f9 17 be 56 15 39 3d cf af 14 3d
       -0.01050216 -0.14841232 0.045186363 0.036300477
0002b0 5d eb 88 3d 2b 40 f2 3c eb 52 42 3d fc 7e 14 3d
       0.06685517 0.029571613 0.047442358 0.036253914
0002c0 c3 37 43 bc e9 2c 81 bd e2 93 ed bc 8e 9d b7 bd
       -0.01191515 -0.06307394 -0.02900118 -0.08965598
0002d0 64 8e 43 bd ea 38 ad bc 52 08 70 bd 62 26 01 be
       -0.047743216 -0.021145303 -0.058601685 -0.12612298
0002e0 b7 6c bf bc d9 49 4b 3d 1f b3 10 3d 89 a0 a1 bd
       -0.023367269 0.049630973 0.035327073 -0.07891948
0002f0 bf 2b 85 3d 8a 35 06 3d f2 be 40 3d d1 e5 22 3b
       0.065024845 0.032765903 0.0470571 0.002485622
000300 43 9b 5d 3c a0 ec 0c 3d 07 cd 03 3c e6 c0 80 bd
       0.013525787 0.03440535 0.008044488 -0.062867925
000310 82 02 a8 bc 7d f6 2f bd d7 44 e3 3c ea 43 6d bd
       -0.020509008 -0.04295968 0.027742786 -0.057926096
000320 8a 4f 08 bd b9 99 22 bd 01 bf e0 bd 8e a3 00 bc
       -0.03327898 -0.039697383 -0.10973931 -0.0078514945
000330 86 f5 c6 3d c7 44 9f bc 77 37 90 bd 41 0c b9 3c
       0.09714799 -0.019441975 -0.07041829 0.02258885
000340 77 3e 59 bc 83 46 ba bc 34 31 58 bd 32 f4 13 be
       -0.013259522 -0.0227387 -0.0527813 -0.14448622
000350 71 c1 03 bd 4c 18 7f 3c 71 36 86 be ce e0 85 3b
       -0.032166902 0.015569758 -0.2621341 0.0040856367
000360 12 d3 6c bd 94 c0 ac 3b ff a9 6c bd dc a4 1f bd
       -0.05781848 0.0052719805 -0.05777931 -0.03897558
000370 38 cf 68 3d 9c 1b 8f bd fb b1 c3 bd ab 6d 18 3d
       0.056838244 -0.06987688 -0.095554315 0.037213963
000380 8a 1e 19 3b 01 d9 5f 3d 96 49 29 bd 85 19 25 3e
       0.002336415 0.05465031 -0.041329943 0.16123016
000390 42 60 90 bb 3c aa 34 bb f4 97 85 bd fb a3 50 bd
       -0.004406006 -0.0027567288 -0.065231234 -0.050937634
0003a0 82 d9 b1 3d 4d 65 04 bd 60 08 43 bd 28 0c 3c bd
       0.086840644 -0.03232317 -0.04761541 -0.04591003
0003b0 a0 f0 12 3e a1 fc bb 3d eb e1 ab 3d 2a 15 28 3e
       0.14349604 0.091790445 0.083927 0.16414323
0003c0 ec 84 1c 3c 27 bd 3a 3e 20 5b 12 3d 86 fb 9d bd
       0.009553175 0.18236218 0.035731435 -0.0771399
0003d0 c7 d9 b7 3c 56 39 07 bd a8 1b 8f bd 5b 77 b8 3d
       0.022442712 -0.033013664 -0.06987697 0.0900714
0003e0 b2 1f b6 bc 35 22 96 3d 0a 5f ba bb b7 a6 27 bd
       -0.02223191 0.07330743 -0.005687599 -0.040930476
0003f0 df 4a 9c 3c fd 03 04 bd cb f3 f5 3d c4 90 5b 3d
       0.01907867 -0.032230366 0.120093904 0.053604856

network_body._body_endoder.seq_layers.4.bias f4 [256]
000000 e6 62 30 bc b7 c0 12 3c 12 29 70 bc 9e e3 6d bc
       -0.010765767 0.00895708 -0.014658229 -0.0145196
000010 f4 b8 62 3b 86 17 63 3c 53 6c 4f bb b6 c2 43 bc
       0.0034595104 0.013860589 -0.003165026 -0.011948278
000020 7f 5f 1d bc 5f d5 52 bc 2c 92 7d 3c 44 41 07 3c
       -0.009605288 -0.012868254 0.015476745 0.008255307
000030 ca 5d 99 3b 60 14 66 3b d5 22 70 bc 54 ec 3b bb
       0.00468037 0.003510736 -0.014656742 -0.0028674798
000040 33 29 21 3c cd c3 33 3c 24 50 26 3c fc 33 b5 bb
       0.009836483 0.0109719755 0.010150943 -0.0055298787
000050 5d c4 3c bc cb 9e 51 3c d8 0c bb 3b d7 fd 12 bc
       -0.011521426 0.012794207 0.005708318 -0.008971653
000060 73 9c 54 3c 7b f9 2e bc a7 83 5b bc 51 09 48 3c
       0.0129767535 -0.010679598 -0.013398088 0.012209252
000070 a6 6d 60 3c 99 81 24 bc 3c 7a e6 3b 8d 63 47 bc
       0.013698017 -0.010040664 0.0070336144 -0.012169731
000080 f5 4d 3e bc 8e 18 b5 bb 3e 6e ea bb 56 5b 50 bc
       -0.011615266 -0.005526609 -0.007154255 -0.012717089
000090 30 74 06 3c e3 99 13 3c 26 3d 12 3c e6 09 fe 3b
       0.008206412 0.009008857 0.008925712 0.007752645
0000a0 33 7c 3b bc 26 28 43 bc ad 02 6a 3c 6d df 15 bc
       -0.011443186 -0.011911428 0.0142828645 -0.009147507
0000b0 4c 3d 4e bc 25 76 db 3b c3 14 07 3c b9 21 4c bc
       -0.0125878565 0.0066974335 0.008244696 -0.012459212
0000c0 0e 30 b0 bb ce 5f 1a bc 1b 0a 36 3c c8 18 24 3c
       -0.0053768223 -0.009422256 0.011110808 0.010015674
0000d0 f7 46 4c bc d0 c5 4b bc 41 27 58 3c e5 b7 2f 3c
       -0.012468091 -0.012437299 0.013192953 0.010724996
0000e0 b3 22 32 3c 6b 14 16 bc a3 1e 29 bc 82 24 65 3c
       0.010872531 -0.009160141 -0.010322246 0.013985755
0000f0 58 80 69 bc a0 46 24 bc df 60 3f bc b2 7c 29 3c
       -0.014251791 -0.010026604 -0.011680811 0.010344671
000100 fe 3d 4f bc 97 76 a2 ba 9f 85 52 bc bf f7 2a 3c
       -0.012649057 -0.0012394962 -0.012849241 0.010435044
000110 cc 7b 46 bc 36 46 37 3c 90 1b 62 3c 3b 38 ea 3b
       -0.012114476 0.011186173 0.013800517 0.0071478165
000120 71 fe 1f 3c d0 08 83 3c 77 21 71 3c 1e 6b 12 3c
       0.009765253 0.015995413 0.014717451 0.008936672
000130 fe 66 5c 3c 4d 3a 0b bc dc 1f 22 bc 0e 50 57 bc
       0.01345229 -0.008497787 -0.009895291 -0.013141645
000140 b9 e6 3d bc 86 4f 4a 3b 56 7d 47 3c 2e 6d 35 bc
       -0.011590653 0.0030870154 0.0121758785 -0.011073394
000150 1a bf a6 3b 29 85 24 bc 1b 30 48 bc 3b 2e 4c bc
       0.005088699 -0.0100415135 -0.0122185005 -0.012462194
000160 17 68 43 bc cd 29 2d bc 7f b5 fd 3b 51 db 19 bc
       -0.011926672 -0.010569048 0.0077425833 -0.009390668
000170 ee 11 27 bc 05 c5 e8 3a d0 23 c9 ba 54 b7 49 bc
       -0.010197146 0.0017758912 -0.0015345756 -0.012311775
000180 da 58 40 3c 0d e8 48 bc 20 04 9e bb 93 f3 1c bc
       0.011739934 -0.0122623565 -0.004822269 -0.009579557
000190 18 1c 25 3c 29 20 14 bc 8b bd 02 bc 1d a2 1f 3c
       0.010077499 -0.009040871 -0.007979761 0.009743241
0001a0 1a fd c1 bb 45 db 38 bc 19 5d 52 bc 50 d7 e3 3b
       -0.0059200646 -0.011282747 -0.012839579 0.0069531575
0001b0 a3 49 4e 3c 3f c6 59 bc 49 30 e6 bb a3 33 d5 3b
       0.012590799 -0.013291894 -0.007024799 0.0065063997
0001c0 de a3 5f 3c 06 15 3e 3c db 2e 31 3c f1 f6 59 bc
       0.013649909 0.011601692 0.010814394 -0.013303504
0001d0 26 c6 0f 3b 1f d2 47 3c 31 ec 6b 3c 68 5d 53 bc
       0.0021938174 0.012196093 0.014399574 -0.012900688
0001e0 20 c9 1f 3c 8a 4d 8d bb 9e 99 83 3c eb eb 4a 3c
       0.009752542 -0.004312222 0.016064461 0.012385349
0001f0 30 b7 1a 3c f4 c4 22 bc c8 c3 36 bc fc 80 6e 3c
       0.009443089 -0.009934653 -0.011155076 0.014557119
000200 0a ba 52 3c 02 88 5b bc 69 d9 6d 3c 29 2f 07 3c
       0.012861738 -0.013399126 0.014517167 0.00825099
000210 b3 83 2b bc 1f 8f 27 3c 8b c7 74 3c 46 bf 18 bc
       -0.010468411 0.010226994 0.014940153 -0.009322947
000220 92 a2 2b bc 74 97 37 bc f2 ee 3e bc 68 3a 19 3c
       -0.0104757715 -0.011205543 -0.011653649 0.009352304
000230 7b 04 36 bb 46 a7 18 3c 6f 99 04 3c fa f1 67 bc
       -0.0027773667 0.009317225 0.008093222 -0.014156813
000240 bd 26 6d 3c 8f 55 39 bc d8 2e 61 3c 16 ef e6 3b
       0.014474568 -0.011311903 0.013744079 0.0070475442
000250 b5 5a 2b bc a7 61 4b bc 79 b8 39 bc d9 f2 49 bc
       -0.010458638 -0.012413419 -0.011335486 -0.012325966
000260 8b 2f 47 bc 8b 27 1d 3c f4 7c 0e bc 60 fe 0c bc
       -0.012157331 0.009591947 -0.008696783 -0.00860557
000270 59 e5 42 bc 39 73 f4 3b 93 dc 43 bc 75 22 75 3c
       -0.011895501 0.0074600247 -0.011954444 0.0149618285
000280 ef bd 2a 3c 2a d4 ca bb d8 4e 15 bc 13 a9 2e bc
       0.01042126 -0.0061898427 -0.009113036 -0.010660428
000290 a4 03 3c bc a4 4a 86 3c 54 1e 35 bc ba 23 60 3c
       -0.011475477 0.016393013 -0.011054594 0.013680393
0002a0 c9 6f 41 bc 16 63 6c bc 1d d3 2b 3c e0 7b 58 bc
       -0.011806437 -0.014427921 0.010487345 -0.013213128
0002b0 31 dd 4f bc 3e 34 2a bc a9 35 5a bc 96 d9 5a bc
       -0.0126870135 -0.010388432 -0.013318458 -0.013357541
0002c0 7a e9 2f 3c 39 40 34 3c a7 dd 47 3c 00 f5 2f 3c
       0.0107368175 0.01100164 0.012198842 0.010739565
0002d0 ac 11 2f 3c e9 a0 42 bc b8 a5 61 3c 71 59 39 bc
       0.010685366 -0.011879184 0.013772421 -0.011312828
0002e0 1d c3 53 bc 9a 01 46 bc 95 ee 4c 3c 0e 98 05 bc
       -0.012924937 -0.012085343 0.012508054 -0.008153928
0002f0 99 a6 0d bc e4 19 30 3c ca 4a 36 bc ae b7 58 3c
       -0.008645677 0.01074836 -0.01112623 0.013227386
000300 7a 22 05 bc ba 11 3d 3c 7e c6 68 3c 74 3c 56 3c
       -0.008125896 0.011539871 0.0142074805 0.013075937
000310 26 2c 5b 3c 1b 12 15 bc 2a 3b 5d bc 15 ca 27 bc
       0.013377225 -0.009098555 -0.013502875 -0.010241051
000320 46 9f 5a bc 06 4b 61 3c 8e ba 19 3c f5 64 22 3c
       -0.013343638 0.013750797 0.009382857 0.009911765
000330 13 fe 3d bc 7d bb 62 3c 52 fc 6c 3c 95 70 2c bc
       -0.011596221 0.013838646 0.014464455 -0.0105248885
000340 fe 3e da 3b 57 4e ae 3b 40 17 14 bc 3e a3 3a 3c
       0.0066603413 0.0053193974 -0.009038746 0.011391459
000350 10 3a 2a bc b9 23 6a 3c b7 4b 6b 3c c9 18 28 3c
       -0.01038982 0.0142907435 0.014361314 0.0102598155
000360 83 02 38 bc 5f ed 5f bc 59 8f a2 ba 9b 97 04 bc
       -0.011231068 -0.0136674335 -0.001240234 -0.008092786
000370 56 d0 4d 3c d6 5e 2c 3c 03 74 34 bc c8 c9 55 bc
       0.012561878 0.0105206575 -0.0110139875 -0.013048597
000380 cd 69 11 bc c4 d7 16 3c 28 d1 26 3c 49 36 0d 3c
       -0.0088753225 0.009206716 0.010181703 0.0086189
000390 e8 67 10 3c a2 76 6b 3c c7 1f 55 bc ca 4e 5b 3c
       0.008813836 0.014371546 -0.013008065 0.013385484
0003a0 74 fc fb 3b 46 a2 3d bc 1f 50 89 bb c4 a6 3d bc
       0.007690007 -0.0115743335 -0.0041904594 -0.011575405
0003b0 99 b7 13 bc 58 eb 7e 3c f8 5d 33 bc 44 0b 4d 3c
       -0.009015941 0.01555904 -0.010947697 0.012514893
0003c0 ea af 0e bc 9e 01 1a 3c 45 85 b8 3b 30 5f 5d bc
       -0.008708933 0.0093998 0.0056311213 -0.013511464
0003d0 22 78 40 3c 80 ff 0e 3c 06 01 4b bc 0a 9f 0d 3c
       0.011747392 0.008727908 -0.012390381 0.008643875
0003e0 3d f7 40 bc a2 9d 54 3c 90 7d 64 3c 6a 74 66 bc
       -0.011777696 0.012977036 0.013945952 -0.014065841
0003f0 e1 c7 07 3c 34 e1 06 3c 58 63 77 3c 73 27 25 3c
       0.008287401 0.008232404 0.015099369 0.010080206

action_model._discrete_distribution.branches.0.weight f4 [2, 256]
000000 36 95 08 bc 2c 3f 2c bb 56 7a eb bb a5 96 78 ba
       -0.008336356 -0.002628277 -0.0071862144 -0.0009482897
000010 55 11 ed 3b ed 7d 98 3c 6a ca 44 3b 5b fd 82 bc
       0.007234732 0.018614734 0.0030027875 -0.01598995
000020 55 96 9e bb 6b 0f 19 bc 69 80 ae 3c b8 9e 41 3b
       -0.0048396983 -0.009342055 0.021301465 0.0029544067
000030 18 56 c7 ba 2e e1 83 bb 28 ba e1 bb d8 5c 8e 3a
       -0.0015208153 -0.0040246462 -0.0068886466 0.001086141
000040 b7 09 0d 3c 85 bf 2d 3c 0f 65 0e 3c 19 d2 5a 3b
       0.008608273 0.010604744 0.008691086 0.0033389388
000050 91 b2 05 bc 3c c6 4c 3c 40 26 60 ba fe 50 4b bc
       -0.008160249 0.012498435 -0.00085506216 -0.012409447
000060 ed 3c 40 3c 2e 3c 51 3b 28 ca 13 bc 0d 18 bb 3c
       0.011733276 0.003192674 -0.009020366 0.022838617
000070 22 bd 78 3b 0b 3a f9 bb 8c 5f 21 bb 5d 70 1c bc
       0.0037954529 -0.007605796 -0.00246236 -0.009548274
000080 d8 71 35 bc 14 10 15 3b 0a e9 d1 bb 4c 9d 5a bc
       -0.011074506 0.002274518 -0.0064059542 -0.013343167
000090 f8 cb 72 3b 23 50 cf 3b 62 70 a6 3a 31 64 dd 3b
       0.0037047844 0.0063266917 0.0012698288 0.0067563285
0000a0 fe f4 7c bb 8d 7d ca bb 23 cd 1d 3c a1 b3 41 bb
       -0.0038598175 -0.0061795176 0.009631428 -0.002955653
0000b0 27 23 85 bc 20 01 f4 3a ae 71 3e bb 5b a3 18 bc
       -0.016252114 0.0018616058 -0.0029059458 -0.009316291
0000c0 2b 37 cc b9 dc 37 ab bb c6 30 47 3c 72 15 c0 3c
       -0.00038951015 -0.005225165 0.012157625 0.023447726
0000d0 bc ff 9a bb eb 07 7f bb 7a 18 7d 3c 01 a6 50 3c
       -0.004730193 -0.0038914632 0.01544773 0.012734891
0000e0 ab f6 60 3c ed c4 aa 3b 26 bd 8d bb 74 b2 51 3b
       0.013730685 0.0052114637 -0.0043255268 0.0031997235
0000f0 68 39 34 bb 69 28 3e bb 81 f0 e5 bb 69 96 93 3b
       -0.0027500037 -0.0029015786 -0.0070171957 0.0045040143
000100 ab 37 88 ba c2 35 53 bb a7 ed 69 bc cd af 34 3c
       -0.0010392567 -0.0032228087 -0.014277852 0.011028242
000110 0c 36 e0 bb c2 ae 38 3b 3c 24 14 3c 4a bf 1a bb
       -0.0068423804 0.0028180336 0.009041842 -0.0023612552
000120 f1 ff 0a 3c f7 d5 b1 3b 45 fc 5e 3c 9e fc f6 3b
       0.008483873 0.005427118 0.01360995 0.0075374385
000130 87 12 bf 3c a7 61 a3 ba df df 40 bc fc 10 7f bc
       0.023324264 -0.0012465016 -0.011772125 -0.015568014
000140 15 79 8c bb 65 2b 32 3c 29 c8 f0 bb 30 c4 86 bb
       -0.004286895 0.010874604 -0.0073480797 -0.004112743
000150 4e 09 ff 3a c6 d5 de bb b2 fa 88 bc 08 64 8b bc
       0.0019457729 -0.006800386 -0.016721103 -0.017015472
000160 e1 6d 24 ba 78 35 e4 bb 6a 89 21 3c c6 93 6f 3b
       -0.0006272477 -0.006964382 0.009859422 0.0036556586
000170 77 aa 84 bc 4e f6 17 bb 9d 86 ad bb 9e 83 51 bc
       -0.016194565 -0.002318758 -0.005295588 -0.012787728
000180 0b a9 05 3c 0b f4 96 bc 6e 6f a5 bb a0 0d 5b bc
       0.008157979 -0.018426916 -0.005048684 -0.013369948
000190 99 88 09 3c 5f ad b4 bb 7c fc 14 bc 24 03 aa 3b
       0.008394384 -0.0055138315 -0.0090934 0.0051883627
0001a0 10 b6 07 bc 7c bb a8 3a 67 d9 92 ba 45 63 f6 b9
       -0.008283153 0.0012873258 -0.0011203707 -0.00046994738
0001b0 7f 6c 9d 3c 4c 7a 0f bc d2 53 a1 3b be 48 d8 3b
       0.019216774 -0.008757185 0.0049233222 0.0066004684
0001c0 6a af 27 3c ab 0d 3e 3c 64 d1 79 3c cc 0e 08 bc
       0.010234693 0.011599938 0.0152476765 -0.008304309
0001d0 5e e4 2a 3b 2a da 69 3c f1 4b ae 3c 73 a7 5e bc
       0.002607606 0.014273206 0.021276446 -0.013589728
0001e0 a1 a7 49 3c 24 ea a8 bb 1a fc 58 3c 0c 67 95 3c
       0.012308032 -0.005154865 0.013243699 0.018237613
0001f0 dc c4 61 3c 12 98 0a 3b 14 22 5e bb 93 2b 5f 3c
       0.013779845 0.002114777 -0.0033894824 0.013621229
000200 1e de ba 3c 20 60 57 bc 17 20 b1 3c 41 27 0f 3c
       0.022810992 -0.013145477 0.021621747 0.008737386
000210 3f e4 fc ba 71 8f 8b 3b dd 44 42 3c 3a ef 9a bb
       -0.0019294097 0.004259043 0.011857239 -0.004728225
000220 bf 8e f5 bb fe 0f 49 bb 04 01 f0 bb aa 03 39 3c
       -0.0074938233 -0.0030679698 -0.00732434 0.0112923775
000230 fb 2e 02 3c a2 3c bf 3a df 42 bf 3a 2c db 03 bc
       0.007945771 0.0014590214 0.0014592073 -0.00804786
000240 12 25 7a 3c c3 86 3f bc 2b 51 31 3c 98 cd aa bb
       0.015267627 -0.011689845 0.010822575 -0.005212497
000250 0d c5 94 bc a7 f2 82 bc 23 e4 71 bc 13 72 91 bc
       -0.018160367 -0.015984846 -0.014763865 -0.01775459
000260 95 25 c7 bb a2 93 fe 3b f8 b5 2e b9 1c bf fb bb
       -0.006077478 0.007769064 -0.00016661722 -0.007682694
000270 e8 1f c5 b7 84 93 f2 3b d1 cb 0d bc a9 68 56 3b
       -2.3499088e-05 0.007402839 -0.008654551 0.003271619
000280 70 c9 a6 3c c6 d3 d9 bb 44 09 02 39 a5 ee a5 39
       0.020359725 -0.00664756 0.00012401218 0.00031649056
000290 4a 02 c8 bb 66 3f 92 3c 99 73 ae bb d5 2e 86 3c
       -0.0061037885 0.017852496 -0.005323839 0.016379753
0002a0 b1 7d 78 bc ec bb 06 bc 4a 6c 17 3c d5 bb 70 bc
       -0.015166686 -0.008223515 0.009242127 -0.01469322
0002b0 38 d9 77 bc 90 aa f0 bb dc 3b 45 bb 14 08 1d bc
       -0.015127473 -0.0073445514 -0.0030095493 -0.0095844455
0002c0 92 87 11 3c c4 fc 87 3c 22 de 99 3c 9e 53 13 3c
       0.00888242 0.01660002 0.018782679 0.008992104
0002d0 14 d4 a1 3c ec f0 f2 ba 34 38 c6 3c 8d 7d 40 bb
       0.019754447 -0.0018534935 0.024196722 -0.002937171
0002e0 ae d0 78 bc b1 e0 a8 bc 85 60 eb 3b 08 52 8e 3a
       -0.015186472 -0.020614954 0.007183137 0.0010858187
0002f0 6e 3a c8 bb 82 7e 11 3c 3f 25 97 bc cb 6b ca 3c
       -0.006110481 0.0088802595 -0.018450378 0.024709603
000300 48 71 a8 3b cc 6d 3f 39 b4 5c ad 3c 3c 52 aa 3b
       0.0051404573 0.00018256082 0.021162368 0.0051977914
000310 a5 fd 29 3c ae 69 b2 bb 73 a2 15 bc db 01 2e bc
       0.010375415 -0.005444727 -0.009132969 -0.01062056
000320 21 af 84 bc ee ed 79 3c 0c 6b 05 3b 5c ef df 39
       -0.01619679 0.015254481 0.0020357994 0.0004271221
000330 15 ff 7d bc 60 0a ab 3b d6 f8 76 3c bb 43 a0 bb
       -0.015502711 0.0052197427 0.015073976 -0.0048908866
000340 42 db d4 3b 49 6a 1a bc b7 07 f2 ba 91 53 c9 3b
       0.006495864 -0.009424754 -0.0018465434 0.006143995
000350 c2 31 f4 bb 2f be a6 3c c6 2b 8b 3c 85 79 30 3c
       -0.0074522207 0.020354358 0.016988646 0.01077116
000360 26 14 6d bb 3f 3a 8e bc 93 6b 39 bc bc 95 de bb
       -0.003617534 -0.017361758 -0.011317152 -0.006792752
000370 03 bf 95 3b b3 50 94 3a 90 6e 2e bc 2f 51 61 bc
       0.0045698895 0.0011315554 -0.010646477 -0.013752266
000380 3f 0f f5 bb f2 1f 5e 39 0a c1 76 3c 92 75 41 bb
       -0.007478624 0.0002118347 0.015060673 -0.002951954
000390 9e 6b db ba ff 98 8d 3c bd 0b 56 bc 7e 32 86 3c
       -0.0016740446 0.017284868 -0.013064322 0.016381498
0003a0 52 e1 db 3b e0 4e ef ba e7 30 93 3a d8 6e f3 bb
       0.00671021 -0.001825776 0.0011229784 -0.007428985
0003b0 11 39 87 bb d2 28 2d 3c c1 24 10 bc 21 5b 4c 3c
       -0.004126676 0.010568814 -0.008797825 0.012472899
0003c0 9e 5b 79 bc 78 31 84 3b 48 f1 83 ba 56 f1 d0 bb
       -0.015219597 0.0040342174 -0.0010066414 -0.0063764257
0003d0 c0 11 93 3c 9d a9 9c 3b 26 da 77 bc 60 68 0b 3a
       0.0179528 0.0047809617 -0.015127694 0.0005317982
0003e0 88 42 0b bc e2 7d 59 3c 75 18 80 3c 7a 78 ce bb
       -0.008499749 0.013274642 0.015636662 -0.006300983
0003f0 8c 96 96 bb 75 84 0d bc f7 18 3a 3c 12 92 66 3c
       -0.0045955833 -0.008637537 0.011358491 0.014072912

action_model._discrete_distribution.branches.0.bias f4 [2]
000000 0f 9d 27 3c 0c 9d 27 bc
       0.010230317 -0.010230314

54 f4 [2]
000000 f9 05 3e 4a 72 44 14 45
       3.1133422e+06 2372.2778
