results/flappy_slow_v14/FlappyBirdAgent/FlappyBirdAgent-2863.onnx (onnx, 71034 bytes, 8 tensors)

network_body.observation_encoder.processors.0.normalizer.running_mean f4 [2]
00000000: 6b85 bd3f e9f9 3740
1.4806341 2.8746283

network_body._body_endoder.seq_layers.0.weight f4 [128, 2]
00000000: bccb 59bd 748b da3c cb0c d0bd 1e57 4dbf
00000010: 4f8c 68bf 112f c8be 89fa 6bbf c1b4 7b3e
00000020: 412a 0e3f 85c5 ebbf a1d7 26be 6bd9 13be
00000030: 4d62 21bf 6b2c 1fbf 4eb0 b0bd 3692 8fbf
00000040: f442 803e 0d34 ea3e 540c 853f 9c86 333e
00000050: 23e7 2bbd e809 793f bb3c 513f 9b61 bcbe
00000060: 8709 7bbe ea91 cebe 0dd9 533f 8156 9b3f
00000070: 37f7 a2bd 5bcc c4be b303 03bf b080 823f
00000080: 5853 853f 7c08 e13e 0dd2 323f b48d 7bbe
00000090: 5758 693f e81d 843f 0755 08bf 50e8 07be
000000a0: f97a 803f 1a44 f0be 4550 233f 6292 033f
000000b0: 5ba1 773f 0ad8 0abf cbfc 6dbf baf8 343f
000000c0: 2772 503f 9996 c2bc 9243 86bf 00ad 463f
000000d0: a188 65bf 0d58 2dbe 4d9c 983b 7853 8fbf
000000e0: 329c 82bf fc45 8abf 2a38 76be 9704 5b3f
000000f0: 3e35 2d3f f9ed 49bf c1e6 3a3d 325e 03be
00000100: f94b c53c 8d42 f9be 8d09 3fbf 0d2c 693f
00000110: bf96 a5bf 7785 a1bd f840 3f3e 9018 943e
00000120: 48ab 963c 7ac3 8abe cffc 283f 868d 833f
00000130: a599 193f 9f11 9dbe 49c8 703d fe92 06bf
00000140: 7949 4d3f 70eb 88be 7bb0 10bf 20a9 fb3e
00000150: 49fe 35bf e4d1 69bf 3e33 09be da42 703e
00000160: ee79 90be 096d c5be 5952 f13e b51f 4f3e
00000170: 3be1 ecbe 702f 33bf 25a2 3abf ca33 9dbe
00000180: 85f3 e9be a302 87bf 7749 18bf f2c6 dcbf
00000190: af57 fc3d 77df 21be b1e3 953e 086e ae3e
000001a0: d55f a4be 5a41 943e e188 80bf 4c1d da3e
000001b0: 5cf5 8fbe a0a8 32bf 75f2 9f3f 4f05 a23c
000001c0: f041 9ebf a93e 48bd 300f 93be dfe4 023f
000001d0: 77cf 8fbf 5631 4ebf 3cd6 ad3e f3d0 53be
000001e0: 597e e0bd a9b6 4abf c2dc 11bf 3414 91bf
000001f0: 555e f4bc ed86 b93d 207e 563e 8c0f 483f
00000200: b064 683e 07f0 c5bf c3c9 d8be 47da 3a3f
00000210: 17b2 8dbf c23d 99be b39a 1a3c 4212 cb3e
00000220: ed03 0fbe fb35 0d3f 541f 3dbf 108c 1cbd
00000230: 5454 1b3f dc3c 263f 9f3a 573f 16dc 8bbf
00000240: 35c1 e0be fc64 89be 8810 9bbf 2959 483d
00000250: cb47 383f 1602 12be d448 26bf a05e 76bf
00000260: 0382 a53e 3438 1dbd 5ace 7abf 6877 bbbe
00000270: 7371 f93e a0d1 8a3f 7c12 5f3e 65ce 9e3f
00000280: e5ba c93e 01a1 e63e d677 053f cdeb 14bf
00000290: b61e 2d3f b535 98bd b016 893f 0512 f3be
000002a0: 9835 d7be ef51 393f 28bf a5bf 558b f6bd
000002b0: 7190 b03e c423 173e bfc8 293e 31a2 6f3f
000002c0: 60ae ac3f 0527 fdbe e409 e03e d131 e5be
000002d0: ec05 a9bf 4ae9 163f 791e 94bf 28fb 983f
000002e0: 6f7f 8f3d ec88 443f 7e1a 51bf 46ef f93e
000002f0: 1226 5d3e d75c 00bf 69e0 f43e 3dc5 a4be
00000300: 863b 643e 9cad 9f3a 78e8 07bf 70a4 423e
00000310: e539 bb3e ae83 3bbf a93e 4c3f 4773 e53f
00000320: fe38 50bf f99d 92bd 65f5 58bf 6171 39bf
00000330: dc44 94be ed13 553e 064e afbe 3f18 8d3b
00000340: fd49 3abd 1597 073f 1c30 753f 14bd 573f
00000350: 1e4a 933d 2238 8ebf 9ac7 1d3d 79e5 b4bf
00000360: 7802 cdbd 7ebf 223e 080a 9b3f 35d9 4a3e
00000370: 2e8e d1be 5e9a 6cbe bece 263f dfc8 b73d
00000380: c817 93be 48cf a1be 377f a53f 9c31 bf3f
00000390: 4f7f 40bf 64aa 043f be62 433f 5c5f 2bbf
000003a0: 5f77 693d 6183 803f 3eb9 81bf 7202 7bbe
000003b0: fee0 ab3e 475a a2be 7d7f b3bf b414 a13f
000003c0: ef95 503f 814e 813f 0bfb 5a3e fb3a 7a3f
000003d0: 1f1c ba3f e781 8a3d 64a3 13be 3fac b03d
000003e0: 79f1 6b3e 7b48 3abe 1e4f 143f fd19 ec3f
000003f0: 9933 343f 3f0e d33f bd9b 353f 7ba8 96be
-0.053172812 0.026677825 -0.1015869 -0.80211055 -0.90839094 -0.3909841 -0.9217916 0.24580671
0.55533224 -1.8419653 -0.16293193 -0.14438407 -0.6304062 -0.6217715 -0.086273775 -1.1216495
0.2505108 0.45742837 1.0394387 0.17531818 -0.041968476 0.9728074 0.8173329 -0.36793217
-0.24515353 -0.403457 0.8275307 1.2135774 -0.07957309 -0.3843716 -0.5117752 1.0195522
1.041606 0.43951786 0.6985176 -0.24565774 0.9115042 1.0321627 -0.5325474 -0.13272214
1.0037528 -0.46926957 0.63794357 0.5139524 0.96730584 -0.542359 -0.92963856 0.70692027
0.8142418 -0.023753451 -1.0489371 0.7760773 -0.89661604 -0.1692812 0.0046573044 -1.1197348
-1.0203917 -1.0802608 -0.24044862 0.8555388 0.67659366 -0.7887874 0.04563022 -0.12828901
0.024084078 -0.48683587 -0.7462395 0.9108284 -1.2936629 -0.078867845 0.18677127 0.2892499
0.01839222 -0.27102262 0.66010755 1.0277565 0.6000007 -0.30677506 0.058784757 -0.5256804
0.80190235 -0.26742125 -0.5651929 0.4915247 -0.71091133 -0.9133589 -0.13398454 0.23463002
-0.28218025 -0.3855975 0.4713314 0.20226939 -0.46265587 -0.6999426 -0.7290366 -0.30703574
-0.45693603 -1.054768 -0.594871 -1.7248213 0.12321412 -0.15807901 0.29275277 0.34068322
-0.32104364 0.2895611 -1.0041772 0.42600477 -0.28116882 -0.6978855 1.2495867 0.019777922
-1.2363873 -0.048887882 -0.28722525 0.5113048 -1.1235188 -0.8054403 0.3395251 -0.20685177
-0.10961599 -0.7918497 -0.56977475 -1.133429 -0.029830137 0.09058938 0.2094655 0.7814872
0.22694659 -1.5463876 -0.42341432 0.72989315 -1.1069974 -0.2992993 0.009436297 0.39662367
-0.13966341 0.5516049 -0.7387593 -0.03821951 0.6067555 0.64936614 0.84073824 -1.092654
-0.43897405 -0.26834857 -1.211442 0.048913155 0.7198455 -0.14258608 -0.64954877 -0.96238136
0.32325754 -0.038383678 -0.9797112 -0.36614537 0.48719367 1.0845222 0.21784395 1.2406737
0.39400402 0.4504471 0.5213598 -0.58172303 0.67624986 -0.07432119 1.0710049 -0.47474685
-0.42033076 0.72390646 -1.2948961 -0.12038294 0.344852 0.14759737 0.16580485 0.9360686
1.3490715 -0.49443832 0.43757546 -0.4476457 -1.3204932 0.5894972 -1.15718 1.1951647
0.07006728 0.76771426 -0.8168105 0.48815364 0.21596554 -0.5014166 0.4782746 -0.3218173
0.22288331 0.0012182477 -0.53089094 0.1900804 0.36567608 -0.732478 0.7978311 1.7925805
-0.81336963 -0.07159037 -0.8474944 -0.7243863 -0.28958786 0.20808382 -0.34239215 0.004305869
-0.045480717 0.5296491 0.95776534 0.84272885 0.07191871 -1.111088 0.038520433 -1.413253
-0.100102365 0.15893361 1.2112436 0.1980942 -0.40928787 -0.23105761 0.65159214 0.0897386
-0.2872908 -0.31603456 1.2929448 1.4937015 -0.7519426 0.51822495 0.76322544 -0.6694238
0.056998607 1.0040094 -1.0134656 -0.24512652 0.33570093 -0.317095 -1.4023281 1.2584443
0.8147878 1.0102082 0.21384828 0.9774625 1.4539832 0.06763058 -0.14417797 0.08626603
0.23041333 -0.18191712 0.57933223 1.8445431 0.7039123 1.6488723 0.7094076 -0.29425415

network_body._body_endoder.seq_layers.0.bias f4 [128]
00000000: de85 67bb a44f b6ba aa60 153b dc3b 7dbb
00000010: 1541 8c3b d8f1 9d3a 3fb6 c43a 28a7 50bb
00000020: 2ab2 2a39 1392 1139 78b2 5c3b fb57 193b
00000030: 5ddc 373b 8d75 913b ad60 61bb 343c 82bb
00000040: d33f f4ba c1f7 bdba a530 51bb 83b3 8ebb
00000050: 3f11 053b 71e8 993a b19d c13a c21a 94bb
00000060: 3fe8 dbbb 7a69 d4ba 7a51 5cbb 4bf4 813b
00000070: 3f69 83bb 458b 173b f5f9 33bb bc21 83bb
00000080: 0a60 0fbb 3655 393a 29ed 8bbb f14d 123b
00000090: fa77 e13a 5c4d 053b f8e9 47bb 28ae c0bb
000000a0: da23 7dba 1ac9 693b 5f59 3a3b 5bff 5c3b
000000b0: 2052 3abb 3954 413b 24a4 70bb 4d9d 90bb
000000c0: d10a e2bb 5cec 273a cd36 2dbb a903 9dbb
000000d0: fe67 243b 78dd 01bc af0a b8bb 9e1c 5739
000000e0: d014 95bb 5d22 83bb b3e7 8a3b 41a6 10bb
000000f0: 4960 0e3b 056f 423b 0256 313b 249a 35ba
00000100: fe7c 80bb 4882 b9b6 f1e0 48bb 6dc5 ef3a
00000110: e331 64bb 8481 38bb 2074 aa3a 49de a438
00000120: aea0 0cbb a2c5 41bb 6143 16bb 938e 953b
00000130: d807 483b 01b1 4e3b 1858 b5ba 08d5 723b
00000140: f774 d6ba 0b6a 0c3b 856a a03a 0019 bebb
00000150: ccf7 143b c394 35bb 61d7 803b e156 c1b9
00000160: a1ef 99bb 2d10 6abb a71f b5b9 c3ec babb
00000170: 4ca1 d239 63e6 49bb a34b 7ebb fa4d 003b
00000180: 73c3 d7b9 885f 2ebb 3498 0b3b 2fbe ab3a
00000190: da62 44bb 2459 1b3b 32b0 ccba a684 0bbb
000001a0: c92f 9b3a 75ff 99bb 26ba a8ba 7659 afbb
000001b0: 2179 68bb b658 15ba ac6a 2c3b d299 d63a
000001c0: 7e24 debb ee06 a0ba 49ce 13bb ed62 9bb9
000001d0: 8f19 ab3a cba3 3abb a7ab 8f3a 2f4e 55bb
000001e0: 627c 1a3a 32fd 0d3b 3856 b6ba 20f4 6a3b
000001f0: 5d79 0fbc 69e5 b03a 8b7c df3a dacc 893b
-0.0035327594 -0.0013909233 0.0022793212 -0.0038640415 0.0042802193 0.0012050224 0.0015007927 -0.0031837914
0.00016278835 0.00013882694 0.0033675712 0.0023398388 0.002805493 0.004439062 -0.0034389899 -0.003974462
-0.0018634744 -0.0014493392 -0.0031919864 -0.0043548956 0.002030447 0.0011742247 0.0014771727 -0.0045197913
-0.0067110355 -0.0016205751 -0.00336179 0.0039658896 -0.004010349 0.0023123783 -0.0027462218 -0.004001824
-0.0021877312 0.00070698874 -0.004270215 0.0022324289 0.0017201893 0.00203403 -0.0030504446 -0.005880136
-0.00096565264 0.0035672844 0.0028434617 0.003372154 -0.0028430298 0.0029499664 -0.003671893 -0.004413283
-0.006898262 0.0006405765 -0.002643037 -0.004791696 0.0025086398 -0.007926337 -0.005616508 0.00020514659
-0.0045496 -0.004001899 0.0042390465 -0.0022071751 0.002172487 0.0029668224 0.0027059321 -0.0006927571
-0.00392115 -5.5285964e-06 -0.0030651654 0.001829309 -0.0034819774 -0.002815337 0.0013004579 7.861533e-05
-0.0021458077 -0.0029567261 -0.0022928345 0.0045641153 0.0030522253 0.0031538608 -0.0013835458 0.0037053246
-0.0016361763 0.0021425511 0.0012238777 -0.00580132 0.0022730706 -0.0027707077 0.003931925 -0.00036876558
-0.0046977554 -0.0035715208 -0.00034546593 -0.0057044937 0.00040174497 -0.0030807487 -0.0038802407 0.0019577728
-0.00041153617 -0.0026607234 0.0021300437 0.0013102944 -0.0029966147 0.0023704255 -0.0015616475 -0.0021288781
0.0011839803 -0.0046996423 -0.0012872859 -0.0053512407 -0.003547259 -0.0005697118 0.0026308699 0.0016372746
-0.0067792526 -0.0012209096 -0.0022553375 -0.0002963761 0.0013053882 -0.0028478976 0.001096119 -0.0032547822
0.0005893168 0.0021665809 -0.0013911193 0.0035851076 -0.008756963 0.0013496104 0.0017050667 0.0042053284

network_body._body_endoder.seq_layers.2.weight f4 [128, 128]
00000000: 4328 5d3d 3e49 9e3d cb2c 3cbe 6a17 903d
00000010: 5ba1 473e d20f 4dbd 18c3 a6bc 8d36 9a3d
00000020: 81d4 02bd aedb dd3d c7d2 8f3d c2bf 0ebe
00000030: fc36 343d 54f8 79bd c4ac 58ba b36c bd3d
00000040: 812b 2f3c 2f24 d53d be72 253d 8aae 413d
00000050: 9b52 aa3d b15c 62bd 1a4f 57bd 100e 3cbd
00000060: 3bd5 b8bc 4dbf e13d e58d 183c 38b7 92bc
00000070: d75c 013e 6919 b33d f016 c2bc 5af9 17bd
00000080: 6279 363a 852d 473d 895b 14be 5c6e 4ebd
00000090: 1560 153c 4608 053e 3dc6 373d bd40 5a3d
000000a0: d9eb 1f3d edad efbc 4b1a bfbc 51d8 9f3d
000000b0: 6b01 21be 3ad1 42be f05c 06bd eb14 e5bd
000000c0: a9f6 58bd a955 d3bd 3101 a7bd 93e6 33bd
000000d0: 8db5 263e d6e6 0abe f97a 913d 11df ecbd
000000e0: 1155 1cbd 558b d1bc d9ff 063e 4688 383e
000000f0: 9098 ae3c 500f 523c d66a 053d a9c3 29bd
00000100: fed0 9d3c c562 7b3d 1f41 90bd d3e4 e13c
00000110: 22c1 6abc a89a c3bd e5d8 103e 5ef0 0b3c
00000120: fbfd 76bd fd62 a13d 0f73 a9bd e67f 1a3d
00000130: 7e50 153e 1488 083e 80cb 9abd 256a 353e
00000140: 88bc ec3d a93c 403e 81fc a3bd 4c36 8e3d
00000150: fd04 7c3c d06e 96bd 209c 9abc 7063 6abb
00000160: 8502 9c3c 712e 393e 97cc 543c 6218 8a3d
00000170: 77af c23c 49f9 25be 7a89 f83a 4288 943c
00000180: 11bd 1d3d 6fa4 143d a743 15bd 9433 3b3c
00000190: c1f2 073e 2f6c 90bd 742b a3bd 9685 523e
000001a0: c49c 053e 4fbe 4abc 140e 3c3c 9842 023c
000001b0: 5354 debd 3a26 653d a2df 383d 78cb 99bd
000001c0: 2165 c03d fe77 40bd 0e45 693d 423a d1bd
000001d0: cdbd aa3d d417 593d 8033 e1bd 0b60 df3d
000001e0: b23a 05bc f679 7d3d d3a5 4d3d 10c7 9b3d
000001f0: 3636 913d 8712 b23d 3ec6 e33d 1747 183d
00000200: eae1 113e 633b bcbd 5e9c 423b 79ff 913d
00000210: bd9c 76bd 4e13 b83b 9414 0cbd 00be e23d
00000220: 58cd 623c 9c21 f33d df6a 153d efe6 3a3e
00000230: 123f 373c 887d 8b3c 3828 29bd 8c80 2cbd
00000240: 6c96 8dbd 98b4 28be fb0e 853c 3c18 053d
00000250: 5510 4dbd 3714 a83c 1f99 d0bc bdf0 79bd
00000260: 9625 5e3d 8a11 13be d355 e83d 100a 033d
00000270: ada9 31ba 111e 8dbd 1833 a2ba 6784 26bd
00000280: b808 92bd be9c d0bc 9ac7 583d f6e8 a03d
00000290: 59c2 92bc 0e06 d0bc c6e8 edbc 209e 4e3d
000002a0: e1a3 b6bd 4cf6 373d 85bb 163e 8f01 083c
000002b0: 736a 09bd 7439 d6bd c82c b3bd b71a 79bd
000002c0: fc00 b23d 8908 1e3c 0f94 86be 4efc 9bbc
000002d0: e15d 18bd 7320 b1bd 7230 dcbd 19e2 cd3d
000002e0: 51be 893c a46f f1bd b9aa 00be 599f e13c
000002f0: 891f 273d afd9 2fbd 1070 6d3d 6aa8 c73d
00000300: df6f c83c ca6f f8bd facf 59bd 3d26 a8bd
00000310: 892f 33bc e51a 2c3e f8e9 333d ba61 eb3c
00000320: e77d d73d ce3d a83c 6693 f9bd 790c 9bbd
00000330: 7457 84bc 9cdb 3d3e ba53 07be e81b d43c
00000340: 9a2f 37bc 389b 1c3e bfbf c03c 0dd2 e7bd
00000350: 5dbd 633d e21c 8b3b a6fb 873d 0b91 64bd
00000360: 99be aebd 7080 403d e690 15be 28c3 e93d
00000370: 70ed 7bbd cb6d 1b3d 072c b13c cb79 1c3d
00000380: c70f 9c3d 6356 29bc 2b39 d6bd d2d1 e1bc
00000390: ff8d c5bc 520d 94bd c405 adbd eec1 f6bd
000003a0: f8c2 5abe a9cf 213e c339 8d3d 76ed 4bbd
000003b0: 874c b8bd 5079 0bbd 07e8 27be e348 f1bc
000003c0: 115a ca3c 8685 0b3e 8d5b 0cbe 6b80 7bbd
000003d0: ec5e 22be 1886 273d c62e 1e3d d9f0 493d
000003e0: efac debc 84c3 82bc 2bd2 a2bd 7f16 82be
000003f0: e614 c7bd cb61 673d b8fd 303c 0874 203d
0.053993475 0.077288136 -0.18376462 0.07035716 0.19495146 -0.050063916 -0.0203567 0.07529936
-0.03194094 0.10832916 0.070226245 -0.13940337 0.04399775 -0.06102784 -0.000826549 0.09249248
0.0106915245 0.10407292 0.04039263 0.047285594 0.08316537 -0.05526418 -0.05256567 -0.04591185
-0.022562614 0.11022816 0.009311174 -0.017909631 0.12633072 0.08745081 -0.023692578 -0.037103035
0.00069608365 0.048627395 -0.14488043 -0.050398216 0.009117146 0.12991437 0.04486679 0.053284395
0.03904328 -0.029257739 -0.023327967 0.07804931 -0.15723197 -0.19025126 -0.032803476 -0.111856304
-0.05296961 -0.10319073 -0.08154524 -0.043921065 0.16280194 -0.1356462 0.07103533 -0.11565984
-0.038167063 -0.025579134 0.13183536 0.18020734 0.021312982 0.012821034 0.03257259 -0.04144636
0.019264694 0.06137349 -0.07043671 0.027574932 -0.014328273 -0.09550983 0.14145239 0.008541195
-0.06030081 0.07880209 -0.08273899 0.03771963 0.14581487 0.1333316 -0.07558346 0.17716272
0.11559397 0.1877314 -0.08007146 0.0694395 0.015382049 -0.073453546 -0.018873274 -0.0035764836
0.01904417 0.18084122 0.012988231 0.06742932 0.023765309 -0.16208376 0.001896187 0.018131379
0.038510386 0.03628963 -0.03644147 0.011425871 0.13276197 -0.070518844 -0.079672724 0.20558771
0.13048083 -0.012374475 0.011477966 0.0079504475 -0.10855927 0.05594466 0.045135148 -0.07509512
0.09394289 -0.046989433 0.05695062 -0.1021619 0.08336983 0.05300124 -0.10996151 0.109069906
-0.00813167 0.06188389 0.05020697 0.076063275 0.07090418 0.0869494 0.11121796 0.03717717
0.14246336 -0.091910146 0.0029695253 0.07128806 -0.06020807 0.0056175357 -0.034199312 0.11071396
0.013842903 0.11871645 0.036478873 0.18252157 0.011184471 0.017027631 -0.04129812 -0.04211478
-0.06913456 -0.16475141 0.016242495 0.032493815 -0.050064404 0.020517452 -0.025463639 -0.0610206
0.054235063 -0.1436216 0.11344495 0.03199202 -0.0006777298 -0.068905 -0.0012374846 -0.040653612
-0.07130569 -0.025465365 0.05292473 0.07856934 -0.017914938 -0.025393512 -0.02904166 0.05044377
-0.08917976 0.04491262 0.1471997 0.008301153 -0.033548784 -0.10460177 -0.08748776 -0.060816493
0.08691594 0.00964559 -0.26284835 -0.019041207 -0.037198905 -0.08648767 -0.10751428 0.1005289
0.016814383 -0.11788872 -0.12565126 0.027541803 0.04080156 -0.04293221 0.0579682 0.09748919
0.024467407 -0.12130697 -0.053176858 -0.082104184 -0.010936626 0.16807134 0.043924302 0.028733123
0.10522061 0.020537283 -0.12186317 -0.07570738 -0.016154982 0.18540806 -0.13215533 0.025892213
-0.011180783 0.15293586 0.023528932 -0.11319361 0.055600513 0.0042453865 0.06639795 -0.055802386
-0.08532447 0.046997488 -0.14606056 0.11414176 -0.061505735 0.037946504 0.02162744 0.03820209
0.07620197 -0.010335538 -0.10460123 -0.02756587 -0.02411556 -0.07229103 -0.08448365 -0.12048708
-0.21363437 0.15801872 0.06895783 -0.049787007 -0.089989714 -0.03405124 -0.16397105 -0.0294537
0.02470115 0.13625154 -0.13706799 -0.061401766 -0.15856522 0.040899366 0.038618825 0.049301956
-0.02718207 -0.01596237 -0.079502426 -0.25407788 -0.09720783 0.056489747 0.010802679 0.039173156

network_body._body_endoder.seq_layers.2.bias f4 [128]
00000000: c204 94ba 1b4b 71bb 14c8 083b 53e5 02ba
00000010: b52c 273b 6c30 493b 7653 1abb 85f4 19bb
00000020: 8831 813b d10c 0a3b feac 3a3b 403a 8d3a
00000030: 4d5b 3dbb b793 91bb 882f 2bbb a99c 953a
00000040: 737e c03a bee5 043a 1b1a 01bb ae26 4cbb
00000050: 5157 d33a f4c9 9e3b 68a2 b43a dde0 4abb
00000060: ee4a d53a c766 5eba 81b6 38bb ffbc b23a
00000070: 7f06 413b 8cf5 0f39 2304 75b9 fbc8 04bb
00000080: 4787 cd3a 72bc 8e3b f5c5 37bb b1b6 95bb
00000090: 8202 8d3a da24 67bb 442a 463b 31f6 bb3a
000000a0: 92bf 983a 822f a5bb a23a 243a 8bd7 2b3b
000000b0: dad3 003b 0dc2 a9ba 96d6 93bb 7561 ff3a
000000c0: 3cad 653b 5f56 5e3a 2a1f 7ebb 33a2 8f3b
000000d0: e940 92b6 155d 1e3b 3bce 703b f6cf 36bb
000000e0: 9f33 17bb 4fa0 0abb 2bc5 e03a 7d9b 09bb
000000f0: 54b0 e2ba 4f1a 31bb 3d63 113b a8b1 8abb
00000100: f730 343b e089 2ebb 8ded 1dba 3b63 773b
00000110: f11b ecba d4bb d3b9 8d29 113b 65de 47bb
00000120: 928b 1ebb 11a5 4f3b 0e55 7f3a 0791 49bb
00000130: ee82 693b d97b ed3a 89f5 e23a 795f 25bb
00000140: 2d40 d53a 48d5 8a3a 7f8a 42bb 97d4 7aba
00000150: b0a3 9538 bef5 e33a 29f2 3e3a bc72 673b
00000160: 4331 29b8 ef3b cb3a 39c1 a33a 8dc6 8cbb
00000170: be88 513a df63 8f3a 9906 aa3a f1e9 023b
00000180: 03d4 133b 7a84 283b 0dbc 15bb 0efe 53bb
00000190: b7f7 ae3a 3c73 3abb 5571 09bb 4c8f 963a
000001a0: 0549 af3a a703 423b f711 2f3b cfec f73a
000001b0: 2dc9 5b3a ab84 73bb 9a3a cdba e769 003b
000001c0: 7f3a 8d3a eb2f 85ba 32a2 3bbb 5584 17bb
000001d0: 8869 caba 6dfd 3e3b 228a a53a 6886 ac3b
000001e0: 35ae 343b c199 7dbb 13f1 343b a4b9 033b
000001f0: 7563 0fbb e52b 693a b86f 48bb cc56 0ebb
-0.0011292922 -0.0036818448 0.002087121 -0.00049932784 0.0025508825 0.0030699028 -0.0023548282 -0.0023491692
0.003942672 0.0021064768 0.002848446 0.0010774806 -0.002889353 -0.004442658 -0.002612086 0.0011414486
0.0014686122 0.00050696346 -0.0019699398 -0.0031150985 0.0016124045 0.004845852 0.0013781311 -0.0030956783
0.0016272941 -0.0008483943 -0.0028184953 0.0013636647 0.0029453335 0.00013729016 -0.00023366562 -0.0020261395
0.0015680575 0.0043559605 -0.0028041576 -0.0045688977 0.0010758194 -0.0035269768 0.0030237595 0.0014340339
0.0011653772 -0.0050410638 0.00062648405 0.0026221003 0.0019657523 -0.0012951508 -0.0045116646 0.0019484
0.0035045883 0.0008481498 -0.00387759 0.0043833493 -4.3586956e-06 0.0024164368 0.0036744017 -0.002789495
-0.002307154 -0.002115268 0.0017148604 -0.002099722 -0.0017294982 -0.0027023738 0.0022184395 -0.004232604
0.0027495006 -0.0026632473 -0.00060244725 0.0037748355 -0.0018013698 -0.00040385 0.002215001 -0.0030497548
-0.0024192077 0.003168408 0.0009740152 -0.003075661 0.0035631019 0.0018118575 0.0017315607 -0.0025233908
0.0016269736 0.0010592127 -0.00296846 -0.00095684215 7.135363e-05 0.0017391962 0.00072840095 0.003531619
-4.033862e-05 0.0015505533 0.0012493498 -0.00429613 0.00079930935 0.0010939798 0.0012971937 0.0019975866
0.0022556789 0.0025713728 -0.0022847683 -0.0032347473 0.0013348971 -0.0028450033 -0.0020972092 0.0011486798
0.0013373202 0.0029604228 0.0026713589 0.0018915179 0.00083841645 -0.0037157934 -0.0015657723 0.0019594373
0.001077488 -0.0010161375 -0.0028630611 -0.0023119648 -0.0015442828 0.0029142753 0.0012629668 0.005265046
0.0027569656 -0.003869638 0.0027609512 0.0020099664 -0.002187935 0.00088947854 -0.0030584168 -0.0021719215

action_model._discrete_distribution.branches.0.weight f4 [2, 128]
00000000: 46b3 42bc b968 61bb e049 283c 307f 503a
00000010: e064 66b9 ca18 ca3a 07af 5bbb 3b24 13bc
00000020: f314 483c b861 e73a 9294 89ba 583b 92bc
00000030: ce1b e03a 31cd 573b 8e46 32bc 017b c13b
00000040: bf3e a9bb fb6e 81bb 286e b3bb 094c 15bc
00000050: 5b8d f43a 3d85 093c 9a2e 89b9 63ca f6bc
00000060: 43ba 2d3b 24b2 98bc 8be1 4dbc eae6 893c
00000070: 057b a83b 2f73 a7bc b752 80bb 1710 61bb
00000080: d181 ef3b 6a4b a1bb 5a1d 9b3b d8a3 9d3b
00000090: 8cda f43b f934 26bc 2abb 35bc b1ab a439
000000a0: 9168 113c 942b 53ba 525f a0bb e78e 72ba
000000b0: 8aee 93ba b0ed bdbc 82a9 45bb 5bd3 68bc
000000c0: 8e64 e23a 08b4 d33b 988f 203c 46be cdbb
000000d0: aa5a 8dbc 8668 8dbc 4146 273c 72d6 9dbc
000000e0: 29f2 7fbc e339 0fbb 43a4 a8bb 5e6e 46bb
000000f0: 8803 cabc 4f3b 1cbc 2c0d 5e3b ea06 bb3b
00000100: 241d ff3b 7b14 c7bb 000d 21b9 c6a0 d33b
00000110: 2107 7f3a b84a 513b 0290 863b c909 85bb
00000120: a06e 97bc d8f9 993b b153 3bbc 754f 57bb
00000130: 3959 d6bb 8e59 46b8 84dc 883c 284d 8fbb
00000140: 5114 07bc 6759 31ba baeb 25bc 3cb2 75bb
00000150: 5e8e e4ba 893d 803c 52df c6bc d90b 0e3c
00000160: 3680 9cbb 1402 b6bb 19fe 12bb 065a 9fbb
00000170: 38e2 283c 8311 713c 0473 8e3c c030 b43b
00000180: e74a 383c 5db5 88ba 5201 ec3b cd72 47bb
00000190: 3a6e ab39 2da7 ffbb df26 4bbc c8ae 253b
000001a0: 2250 873b 1062 453c bb2f 79bb e7d5 df3b
000001b0: 82e9 4c3c 05bf babb 325c 41bc 3fc1 5939
000001c0: ffce 423c d941 713b 8c80 c3bb 04f2 49bc
000001d0: 102c 16bc 5be4 183c 9695 52bb 0876 2b3c
000001e0: 0927 dd3b b5a6 82bc 841f e0bb 6ba2 8439
000001f0: 9e98 813a 49a1 1f3c 2642 523b 1c73 54bc
00000200: 47d8 ef3b 9cc9 29ba 0e8a 02bc 533b c9bb
00000210: e7c2 26ba 0379 17bc a284 b23a f0c5 953b
00000220: 8795 82bc 8631 94bb 1583 3ebc 771b 52bc
00000230: c884 e83b 8857 d13b 3e49 0bbc 5473 8a3b
00000240: f91e 7e3c 6f5b acbb e620 923c 321f af3b
00000250: 82f8 603a a46f b2ba d4f2 88bb 2358 893c
00000260: 3519 3dbb 2710 89ba dc71 113a 0ede da3a
00000270: b176 a0bc 874f 873b 58c3 1b3c 5b77 33bb
00000280: b507 0a3d 51d2 debb 5bb8 6f3c 4aa0 0d3c
00000290: 9c4a a83b 9a91 693c d279 133c 801e 683b
000002a0: 48c7 a43a c050 70ba 39e7 c6bb c553 12bc
000002b0: b812 18bb 5326 703b cbc3 163b 5afc e5bb
000002c0: 9c25 e1ba bd87 b23b 4217 813c 6bc9 74bc
000002d0: f9fd 9a3b 39dd 463b 1282 10ba 2490 8c3c
000002e0: 0e8c b33b d0d7 693c 5465 7ebc 36cb ba3c
000002f0: 6fcd d6bb 07fa f3b9 852c 793c 324f 093c
00000300: c29a a4bb 5d59 253b 5de7 173c 5ccb a0bb
00000310: a8bd 493c ead6 46bc 75d2 44bc 1a37 a63b
00000320: 487f a53c b296 b3bc 25f6 9d3b 451e ea3a
00000330: 5d98 58bc 1993 adbb 7215 25bb df98 633c
00000340: bcb5 c3bb b181 953b 0ecf 403c 1690 28bc
00000350: 4497 6b3b a7a3 eb3b a748 2a3c c6a0 9e3b
00000360: 96d2 083b d2c1 503c b49e 85bb 4aa6 193c
00000370: 9cdb 183b ad5b 073b 8537 1abc 9fe9 bdbb
00000380: f169 c6bb 158d 26bc 05e8 4c3c 3ee3 3d3c
00000390: 2860 09bb 9bc8 3e3b 9fe2 fb38 b5e3 e03b
000003a0: 2d5f 87b9 83ed 03ba beff acbc 2077 ddbb
000003b0: f53a 553c 314e 483b 64f9 46bc 1cb5 cabb
000003c0: fef5 b63b e557 4b3b 8adf 203a f08a 6abb
000003d0: ab9b 863a 4756 a7bb 9225 a33c 307d 2abc
000003e0: 87a2 8cbb 0cfd c93a 73db e9bb 1c03 74bc
000003f0: 93de 7fbb 06f7 153c f8be 453b a480 ee3b
-0.011883562 -0.0034394695 0.010271519 0.0007953523 -0.00021972088 0.0015418765 -0.0033521072 -0.008980806
0.012212026 0.0017653024 -0.0010496548 -0.017850563 0.001709813 0.00329287 -0.010881079 0.005904556
-0.0051649506 -0.0039499975 -0.005475778 -0.0091123665 0.001865785 0.008393583 -0.00026165397 -0.030125802
0.0026508726 -0.018639632 -0.012565981 0.016833741 0.005141618 -0.020440666 -0.0039161104 -0.0034341866
0.0073091765 -0.00492232 0.0047337236 0.0048107915 0.007472342 -0.010144466 -0.011091987 0.00031408438
0.008875028 -0.0008055505 -0.0048941756 -0.00092528615 -0.00112863 -0.023184627 -0.003016085 -0.014210547
0.0017272399 0.0064606704 0.00979986 -0.006278786 -0.017255146 -0.017261755 0.010209621 -0.019267295
-0.0156217 -0.0021854572 -0.0051465346 -0.0030278186 -0.024659887 -0.009535625 0.0033882363 0.0057076113
0.0077854563 -0.0060754395 -0.00015359 0.0064583747 0.00097285403 0.0031935405 0.0041065225 -0.0040600044
-0.018485367 0.004698973 -0.011433528 -0.0032853757 -0.006541398 -4.7290283e-05 0.016706713 -0.0043732114
-0.00824459 -0.0006765336 -0.010127002 -0.003749027 -0.0017437448 0.015654342 -0.02427641 0.008669817
-0.004776026 -0.005554447 -0.0022429286 -0.0048630266 0.010307841 0.014713648 0.017388828 0.0054989755
0.011248327 -0.0010430027 0.007202306 -0.0030433417 0.00032697787 -0.0078019113 -0.012399404 0.002528118
0.0041294256 0.012047306 -0.0038022834 0.006830919 0.0125068445 -0.005699041 -0.011801766 0.00020766722
0.011890172 0.003681293 -0.0059662517 -0.012325767 -0.009165779 0.009331788 -0.0032132617 0.010465153
0.006749038 -0.015948633 -0.0068396945 0.00025298013 0.0009887402 0.009743043 0.0032082885 -0.012966897
0.0073194834 -0.00064768805 -0.007967485 -0.006141105 -0.000636144 -0.00924516 0.001361985 0.004570715
-0.01594044 -0.004522505 -0.011627932 -0.012823931 0.007095907 0.0063886084 -0.008501349 0.004225174
0.015510314 -0.005259923 0.017837953 0.005344295 0.00085819524 -0.0013613594 -0.004179338 0.01676566
-0.0028854136 -0.0010457084 0.00055482774 0.0016698258 -0.019587846 0.0041293534 0.009507023 -0.0027384374
0.033698756 -0.006799974 0.014631356 0.008644173 0.0051358473 0.0142559055 0.009001212 0.003541857
0.0012571597 -0.0009167306 -0.0060700444 -0.008931105 -0.0023204517 0.0036643937 0.0023004885 -0.007018608
-0.0017177346 0.00544831 0.01575816 -0.0149406 0.004729983 0.0030344261 -0.0005512546 0.017158575
0.0054793423 0.014272645 -0.015527088 0.022801977 -0.0065552513 -0.00046534857 0.015208368 0.008380698
-0.0050233314 0.0025230267 0.00927147 -0.004907055 0.012313284 -0.0121362 -0.0120130675 0.0050724866
0.020202294 -0.021922443 0.0048206025 0.0017861804 -0.01321992 -0.0052970764 -0.0025189784 0.013891428
-0.005972592 0.0045625796 0.011768116 -0.010288259 0.0035948316 0.0071911397 0.010393298 0.004840943
0.0020877472 0.012741523 -0.004077757 0.009378025 0.0023324257 0.0020654008 -0.009412651 -0.005795672
-0.0060551097 -0.0101654725 0.01250649 0.011589823 -0.0020961855 0.002911127 0.00012010824 0.0068630823
-0.00025820118 -0.00050326454 -0.021118041 -0.0067585856 0.013014545 0.0030564184 -0.01214442 -0.0061861407
0.005583524 0.003102773 0.00061368255 -0.003578838 0.0010269781 -0.0051067206 0.019915376 -0.010405824
-0.0042918357 0.0015410497 -0.007136756 -0.014893319 -0.0039042577 0.009153133 0.003017364 0.0072785188

action_model._discrete_distribution.branches.0.bias f4 [2]
00000000: e047 2d3b e147 2dbb
0.0026440546 -0.0026440548

49 f4 [2]
00000000: cfc8 c03f 9b33 2140
1.5061282 2.5187747
