results/flappy_slow_v17/FlappyBirdAgent/FlappyBirdAgent-866.onnx (onnx, 71034 bytes, 8 tensors)

network_body.observation_encoder.processors.0.normalizer.running_mean f4 [2]
000000 88 48 b4 3f e2 38 37 40
       1.4084635 2.8628469

network_body._body_endoder.seq_layers.0.weight f4 [128, 2]
000000 13 50 cc be c5 d9 94 3f 53 85 4d bf 59 bf 96 3d
       -0.39904842 1.1628958 -0.8028156 0.073607154
000010 fa 70 f1 3e 3a b2 a9 3f 73 ca 49 bf b8 59 57 bf
       0.47156507 1.3257515 -0.7882454 -0.84121275
000020 2c 21 c3 be 2d 5d 70 bf 4c 1f 9b be dc e4 22 3f
       -0.38111246 -0.93892175 -0.30297315 0.6363046
000030 09 f2 ef be b7 4d 76 be a5 e9 4c 3f 7a c7 4f bf
       -0.46864346 -0.24053083 0.80044013 -0.8116375
000040 3e b5 18 3f 64 ef 4b 3f 51 a0 43 3e b1 f1 ec be
       0.59651554 0.79662156 0.19104125 -0.46278146
000050 2d f1 86 3f 78 c3 b0 bd cd 0a 61 bf bd af 1f 3f
       1.0542351 -0.08631033 -0.87907106 0.6237753
000060 4b 8d 05 3f 46 f9 0a 3e 72 15 47 bf 37 ac e7 3e
       0.5216872 0.13571653 -0.777671 0.45248577
000070 6b c9 1d bf f2 8b b1 3f 8e 2d 03 bf c8 ad ed be
       -0.61635464 1.3870833 -0.51241386 -0.46421647
000080 23 01 ed bf e5 ee fa 3e 49 71 b7 bf 32 ce d9 3e
       -1.8515972 0.49010387 -1.4331447 0.42540127
000090 b4 38 d7 3e 55 4b 7f bf 29 79 d6 be 9e 43 88 bf
       0.4203545 -0.9972432 -0.41889313 -1.0645635
0000a0 3f 31 56 3d 02 42 fe 3d 34 67 0b bf d8 08 98 3e
       0.05229306 0.12414934 -0.5445435 0.29694247
0000b0 89 9d 13 3d 57 a8 03 bb fe 77 98 be 29 77 31 3f
       0.03603891 -0.0020089352 -0.29779047 0.6932245
0000c0 57 b0 00 3f 71 65 83 3e 43 33 8f 3f 6b 51 eb 3e
       0.50269073 0.2566333 1.1187519 0.45960554
0000d0 cb 54 d1 be 82 e8 86 be ff fa 2f be 26 a4 81 bf
       -0.40885004 -0.26349264 -0.17185591 -1.0128219
0000e0 3c 3b 83 bf 29 c8 b5 be 3e de 82 bf 3b f0 38 3f
       -1.0252452 -0.35504273 -1.0224073 0.7224156
0000f0 8d ff 3f bf 6e 09 8d 3f 52 d3 1c bf ea c4 03 bf
       -0.74999315 1.1018503 -0.6125995 -0.5147234
000100 43 b6 9a 3f 74 95 4e be 12 85 e8 be e4 d6 9e 3e
       1.2086872 -0.201742 -0.45414025 0.31023324
000110 bb 44 ef be e4 7d 07 40 7c 45 e3 be 9c 77 a2 be
       -0.46732125 2.1170588 -0.4438895 -0.3173188
000120 e7 07 23 3f 31 47 78 3f ec a7 3d be 1e 4a 48 be
       0.63683933 0.9698363 -0.18521088 -0.19559523
000130 a6 0f 67 bf 9d 4e 66 3d 96 d9 60 bf 72 24 e5 3d
       -0.9025825 0.056227315 -0.8783201 0.11188592
000140 cc 37 ec be eb 7f a1 3f 0f 9a e8 3f ed b0 62 bf
       -0.4613632 1.2617162 1.8172015 -0.8855122
000150 24 92 98 be aa 33 fa bf 87 3e 71 3e 4a a9 ea 3f
       -0.29798996 -1.9547017 0.23559009 1.8332913
000160 0b 3d 74 3f 76 43 6f be d3 67 06 3e c4 5f 9e 3f
       0.95405644 -0.23365578 0.13125543 1.2372975
000170 74 6a 15 3f f4 d7 96 3d c9 a2 d1 3e ca 66 9e be
       0.5836556 0.073654085 0.40944508 -0.30937797
000180 f1 b7 a1 be a5 90 9b bf 7a 59 5f 3f 3d 73 d9 3e
       -0.3158565 -1.2153517 0.87245905 0.42470732
000190 40 c3 cf bd 09 85 ed be 94 8a eb bd 83 95 16 bd
       -0.10144663 -0.4639056 -0.11501041 -0.03676368
0001a0 8e af 08 bf 67 3d b0 3e 60 0b e5 3d 4d 2a d0 be
       -0.53392875 0.34421846 0.1118381 -0.40657273
0001b0 e5 51 a7 3e d1 f0 68 3f 80 a1 c3 be 13 e3 59 bf
       0.32679668 0.90992457 -0.38209152 -0.8511211
0001c0 20 17 10 3f 9f 51 46 bf ca 24 cf be b7 6d a4 bf
       0.56285286 -0.77468294 -0.40457755 -1.2845982
0001d0 1c 2d b7 3d 3f 54 91 3f 37 45 0a bf dc 62 64 3c
       0.08944151 1.1353835 -0.54011863 0.013939586
0001e0 d7 45 2e bf 34 88 1a 3f 21 5f 8b 3f 5b c1 cc 3e
       -0.6807532 0.6036408 1.0888406 0.3999127
0001f0 9c 5e 01 bf 72 c8 86 bd 4a b2 9f be 5e 4d 87 3e
       -0.5053499 -0.06581201 -0.3119071 0.26426214
000200 7b f1 55 bf 2c d4 b6 3f 7f 3a bc bc 8e e1 89 3f
       -0.83571595 1.42835 -0.022977112 1.0771959
000210 69 1a b5 bf f4 8f e4 bd 48 e1 7f 3f 07 b5 31 bf
       -1.4148685 -0.111602694 0.99953127 -0.6941685
000220 ea aa 8e 3e 6b 42 09 40 5d 3b b5 3d 7e 93 39 bf
       0.27864772 2.1446788 0.08849213 -0.7249068
000230 0f 42 82 3c ee 98 bb 3d b7 af 23 bf 7f a4 1d 3f
       0.01590064 0.091600284 -0.63939995 0.61579126
000240 22 a8 4b be 9a 40 a2 3e d2 b0 e4 3c d5 34 8c 3f
       -0.19888356 0.31689912 0.027916346 1.0953623
000250 0a 55 29 be 7e 14 65 3c 82 9a 71 3e 08 92 1b bf
       -0.16536346 0.0139819365 0.23594096 -0.607697
000260 2f 0a 9c be 58 e1 46 3f 50 1c 82 3f 72 30 9f 3e
       -0.3047652 0.776876 1.016489 0.31091648
000270 b8 05 a3 3f c0 2c 05 3f 62 9a fb 3e c8 35 08 3f
       1.273612 0.5202141 0.49141222 0.53207064
000280 d0 fb f1 3e 45 0b 78 3e 49 85 4c 3f 76 49 93 3d
       0.4726243 0.24223049 0.79890877 0.07191746
000290 52 3f 1f 3d 4c 4f cb be ec f1 14 3f 2e 99 28 bf
       0.038878746 -0.39708936 0.58181643 -0.65858734
0002a0 45 9e 91 3e 8c 64 44 3f 95 da a2 bf a6 68 d1 bd
       0.28441063 0.7671592 -1.2722956 -0.10225038
0002b0 df c2 66 be 6d fe b3 3d 97 22 19 3f d9 10 ac bc
       -0.22535275 0.08788762 0.59818405 -0.021004127
0002c0 51 b3 8c 3f 94 fd 8f be e0 78 5d be 43 a6 a8 bf
       1.0992223 -0.28123152 -0.21628141 -1.3175739
0002d0 1f 35 00 bf 90 ba 6e bd 2b db a1 bf 2a 17 bc 3f
       -0.50081056 -0.05828339 -1.264501 1.4694569
0002e0 b9 d3 c8 be 38 2e 63 bd ca 13 d1 bd 0b 92 7e bf
       -0.39224032 -0.055464 -0.102088526 -0.99441594
0002f0 0d 8c a9 3c af 15 0d bf 59 0e 2a 40 ac 37 67 be
       0.020696664 -0.5511121 2.6571257 -0.22579831
000300 7d fc ac be 11 eb 5a 3f 75 ca 42 3f bf 1f 80 3f
       -0.33786383 0.8551493 0.76090175 1.0009688
000310 54 42 04 40 d9 dd 7e 3e 0e 65 b4 be 45 2b 02 be
       2.0665483 0.24889316 -0.3523335 -0.12711819
000320 52 35 6e bf af ba 9d 3f a0 8b b6 3f 62 24 36 bf
       -0.9305011 1.2322596 1.426136 -0.71149266
000330 9a 90 de be 80 d6 b6 bf b4 c5 75 3f 00 13 81 3f
       -0.43469697 -1.428421 0.96004796 1.0083923
000340 49 67 83 3e c8 4f c4 be 06 4b f4 3e 31 c7 45 3d
       0.25664738 -0.38342118 0.47713488 0.048285667
000350 67 e6 a1 be 62 78 c3 bd 79 f8 b7 3e d5 1a 13 bf
       -0.31621096 -0.095444456 0.35931757 -0.5746282
000360 bf 50 f0 3e ca de 1f 3f 1c a0 dc bd f7 19 89 3f
       0.46936604 0.62449324 -0.10772726 1.0711049
000370 16 9c db be 2d 0d bd 3e e1 fd 39 bf d6 75 97 be
       -0.42892522 0.36924115 -0.72653013 -0.2958209
000380 41 ba 88 3f c4 dc 61 be 4b 7c 2f bf f0 15 7d bf
       1.068184 -0.22056872 -0.6854903 -0.988616
000390 b0 89 b9 3e e6 df 02 3d 34 c4 7b bf fe fd 84 be
       0.3623786 0.031951807 -0.9834626 -0.2597503
0003a0 42 38 05 3f 62 a7 dc 3b a2 ab 57 be 2e 2e 32 bf
       0.5203897 0.006733821 -0.21061566 -0.69601715
0003b0 d6 54 a5 3e 07 bb 33 bf 72 85 4b bf 7f 98 8b be
       0.32291287 -0.70207256 -0.79500496 -0.27264783
0003c0 7d aa fd be 81 7c e6 be 75 ec 0f 3f 38 7b 01 bf
       -0.49544135 -0.45016864 0.5622018 -0.5057864
0003d0 91 62 1e 3f 62 8f 2a bf cf 25 89 bf 2b 56 05 3f
       0.6186915 -0.66625035 -1.0714663 0.52084607
0003e0 61 7e 61 be 70 bb 39 3f 65 fa 38 bf 63 76 d3 be
       -0.22020866 0.7255163 -0.7225707 -0.4130126
0003f0 94 77 af 3e cd a5 4c be 7f 49 90 3e 7c e1 9a bf
       0.34270918 -0.19985123 0.28181073 -1.2100062

network_body._body_endoder.seq_layers.0.bias f4 [128]
000000 00 00 00 00 00 00 00 00 00 00 00 00 00 00 00 00
       0.0 0.0 0.0 0.0
000010 00 00 00 00 00 00 00 00 00 00 00 00 00 00 00 00
       0.0 0.0 0.0 0.0
000020 00 00 00 00 00 00 00 00 00 00 00 00 00 00 00 00
       0.0 0.0 0.0 0.0
000030 00 00 00 00 00 00 00 00 00 00 00 00 00 00 00 00
       0.0 0.0 0.0 0.0
000040 00 00 00 00 00 00 00 00 00 00 00 00 00 00 00 00
       0.0 0.0 0.0 0.0
000050 00 00 00 00 00 00 00 00 00 00 00 00 00 00 00 00
       0.0 0.0 0.0 0.0
000060 00 00 00 00 00 00 00 00 00 00 00 00 00 00 00 00
       0.0 0.0 0.0 0.0
000070 00 00 00 00 00 00 00 00 00 00 00 00 00 00 00 00
       0.0 0.0 0.0 0.0
000080 00 00 00 00 00 00 00 00 00 00 00 00 00 00 00 00
       0.0 0.0 0.0 0.0
000090 00 00 00 00 00 00 00 00 00 00 00 00 00 00 00 00
       0.0 0.0 0.0 0.0
0000a0 00 00 00 00 00 00 00 00 00 00 00 00 00 00 00 00
       0.0 0.0 0.0 0.0
0000b0 00 00 00 00 00 00 00 00 00 00 00 00 00 00 00 00
       0.0 0.0 0.0 0.0
0000c0 00 00 00 00 00 00 00 00 00 00 00 00 00 00 00 00
       0.0 0.0 0.0 0.0
0000d0 00 00 00 00 00 00 00 00 00 00 00 00 00 00 00 00
       0.0 0.0 0.0 0.0
0000e0 00 00 00 00 00 00 00 00 00 00 00 00 00 00 00 00
       0.0 0.0 0.0 0.0
0000f0 00 00 00 00 00 00 00 00 00 00 00 00 00 00 00 00
       0.0 0.0 0.0 0.0
000100 00 00 00 00 00 00 00 00 00 00 00 00 00 00 00 00
       0.0 0.0 0.0 0.0
000110 00 00 00 00 00 00 00 00 00 00 00 00 00 00 00 00
       0.0 0.0 0.0 0.0
000120 00 00 00 00 00 00 00 00 00 00 00 00 00 00 00 00
       0.0 0.0 0.0 0.0
000130 00 00 00 00 00 00 00 00 00 00 00 00 00 00 00 00
       0.0 0.0 0.0 0.0
000140 00 00 00 00 00 00 00 00 00 00 00 00 00 00 00 00
       0.0 0.0 0.0 0.0
000150 00 00 00 00 00 00 00 00 00 00 00 00 00 00 00 00
       0.0 0.0 0.0 0.0
000160 00 00 00 00 00 00 00 00 00 00 00 00 00 00 00 00
       0.0 0.0 0.0 0.0
000170 00 00 00 00 00 00 00 00 00 00 00 00 00 00 00 00
       0.0 0.0 0.0 0.0
000180 00 00 00 00 00 00 00 00 00 00 00 00 00 00 00 00
       0.0 0.0 0.0 0.0
000190 00 00 00 00 00 00 00 00 00 00 00 00 00 00 00 00
       0.0 0.0 0.0 0.0
0001a0 00 00 00 00 00 00 00 00 00 00 00 00 00 00 00 00
       0.0 0.0 0.0 0.0
0001b0 00 00 00 00 00 00 00 00 00 00 00 00 00 00 00 00
       0.0 0.0 0.0 0.0
0001c0 00 00 00 00 00 00 00 00 00 00 00 00 00 00 00 00
       0.0 0.0 0.0 0.0
0001d0 00 00 00 00 00 00 00 00 00 00 00 00 00 00 00 00
       0.0 0.0 0.0 0.0
0001e0 00 00 00 00 00 00 00 00 00 00 00 00 00 00 00 00
       0.0 0.0 0.0 0.0
0001f0 00 00 00 00 00 00 00 00 00 00 00 00 00 00 00 00
       0.0 0.0 0.0 0.0

network_body._body_endoder.seq_layers.2.weight f4 [128, 128]
000000 48 27 45 bd 33 d6 a4 3c c6 b6 1f bd f8 3e da bd
       -0.048133165 0.02012167 -0.038992666 -0.106565416
000010 de 7d 25 bd 69 ba 6a 3d 87 fc 07 be 97 97 2d bd
       -0.04040324 0.05730668 -0.13279925 -0.042380895
000020 e1 67 17 3d 85 12 c4 bc 4e ad 48 3d a3 39 d5 3d
       0.0369643 -0.023934612 0.0489934 0.10411384
000030 0b 93 dd 3d 75 6e 9c 3d 7e 14 8e 3c ef 72 8e bc
       0.10819062 0.076382555 0.017343756 -0.017388789
000040 df 4c 29 3d 7f 7c ba bd c6 f4 5f bd 2d 24 58 3d
       0.041333076 -0.09105777 -0.054676794 0.052768875
000050 15 a6 2e be 05 92 0f 3d 50 93 ad bd 96 87 f1 3b
       -0.17055543 0.035051364 -0.08475363 0.0073708994
000060 5c 43 61 bd 3a 90 41 bd 9e c6 8d bd 74 e4 94 bd
       -0.05499588 -0.047256686 -0.06922649 -0.072701365
000070 ef 05 9c bc 85 0c 2f bd 54 6e 8e 3d c0 38 91 bd
       -0.019045798 -0.04273655 0.06954637 -0.07090902
000080 d3 d9 26 bd c5 22 ef 3c e9 8a 14 be 02 94 20 be
       -0.040735077 0.029191384 -0.14506115 -0.1568146
000090 e3 64 e4 bd 8e 60 18 bc c1 21 50 3d 9c d9 ee 3a
       -0.11152055 -0.009300364 0.05081344 0.0018222812
0000a0 da d1 a7 bd 8f 01 80 3c 6a 07 2b be eb 11 89 bd
       -0.08194323 0.015625743 -0.16702047 -0.06692871
0000b0 d5 bb b4 3d be 0d 42 3d f2 5e 35 bd 0d 53 d6 bd
       0.088248886 0.047376387 -0.04428 -0.104650594
0000c0 11 84 e7 bd bc d9 84 3d 2c 5d 76 bc 4f 86 d0 bb
       -0.113044865 0.06486842 -0.015036862 -0.006363667
0000d0 89 16 df 3d 50 71 14 3e 62 36 15 bd 9a 58 ee bd
       0.1089297 0.1449635 -0.036428817 -0.11637993
0000e0 ea 75 c9 3a 3d 9f 8c 3c 2d 5d 30 bd 65 7a c3 3d
       0.0015370224 0.017165774 -0.04305761 0.09544829
0000f0 5d 1c ad bd f4 ae 9a 3d e2 0e 1b 3d 9a 2d 06 3e
       -0.084526755 0.07552901 0.03785599 0.13103333
000100 97 2d 3d bd 79 e9 51 be e0 cd 89 bd 4b b6 8c bd
       -0.046186056 -0.20499219 -0.06728721 -0.06870707
000110 52 a2 80 3a 95 d2 66 bd fd 4b b8 3d 56 89 8c 3d
       0.0009814 -0.05635317 0.089988686 0.06862132
000120 0c ce f0 bc b5 b8 23 bd 89 6d f6 3c 6b 90 e8 bd
       -0.029395126 -0.039971072 0.030081527 -0.113556705
000130 00 bc f0 bc 63 ae b8 3c 0d 7d fb bd 8c 16 43 bd
       -0.02938652 0.022544092 -0.12279711 -0.047628924
000140 a2 0f 1b be 98 7e 1a be af b8 c1 3d 83 c2 f5 bc
       -0.15142682 -0.15087354 0.09459054 -0.029999977
000150 d0 fa e2 3d b6 5b 99 bc bc 90 7f bd bc f1 e7 bd
       0.11082995 -0.018720489 -0.06239389 -0.11325404
000160 35 3a d2 3c 5e 57 4d bd f7 c1 a4 bd 9a 63 93 bc
       0.02566252 -0.050132148 -0.08044808 -0.01799183
000170 6c 6a 93 bd 14 96 0a be c2 b8 7e bd c8 0d 34 3e
       -0.07198033 -0.13533813 -0.062187918 0.17583382
000180 f0 73 45 3e 5d 05 86 3d 84 0a 8b bd 41 3e a2 3d
       0.19282508 0.06543992 -0.06789115 0.0792203
000190 6f 04 7d bd 58 e3 be 3d 4e 7a 55 bd 58 e7 b6 bd
       -0.061771806 0.09320706 -0.052118592 -0.08930844
0001a0 86 a5 6d bd 69 f4 88 3d da d2 04 bd 16 5e 38 bd
       -0.058019184 0.066872425 -0.032427646 -0.045011602
0001b0 29 17 8a bd 11 5c f5 3d 09 73 81 3d 3b d8 d8 bd
       -0.06742699 0.11980451 0.06320769 -0.10588118
0001c0 c3 65 4e bd f9 f8 ef bb e7 d8 48 be ad 5a 16 bb
       -0.050390016 -0.007323381 -0.19613992 -0.002294223
0001d0 1e 22 59 3d ac ad 9d 3c b0 b9 62 3e a5 82 e5 bd
       0.053011052 0.019247852 0.22141147 -0.11206559
0001e0 50 2a 13 be 20 23 07 3d 97 40 93 3d d7 eb e9 bd
       -0.1437161 0.032992482 0.07190054 -0.11421936
0001f0 45 aa dc bb cd c3 8c bd 2d ff 83 3d 13 5a be ba
       -0.006734165 -0.068732835 0.06445155 -0.0014522694
000200 7d 9d 58 3c 86 27 7a bd f7 f5 7c 3d 13 a6 67 39
       0.013221142 -0.06107285 0.061758008 0.00022091744
000210 44 80 fd bb c6 71 8c bd bc 71 b7 bd bc a9 7f bd
       -0.0077362377 -0.06857638 -0.0895724 -0.06241773
000220 1a 5b 2d be 33 49 ce bb 6f fb 2a 3d 4c 96 e7 bc
       -0.16929284 -0.006295347 0.041743692 -0.02826991
000230 b0 d8 d1 3c 60 91 b0 3d 9b 9e 41 3e 9e 8d 09 3e
       0.02561602 0.08621478 0.1890816 0.13432929
000240 98 d2 1d be 8d 0b cf 3d bb 1a 45 bc a3 61 30 bd
       -0.15412366 0.10109625 -0.012030299 -0.043061864
000250 6d a8 ac bb 54 9c 2f 3d 51 ce 41 3c 43 31 94 bd
       -0.0052691014 0.042873695 0.011828975 -0.072359584
000260 3e 75 15 bd 83 50 4a bd 5b 7d 90 bd f1 e9 9c 3d
       -0.036488764 -0.04939319 -0.0705516 0.07661808
000270 19 8b 28 be 6f 27 13 3e e1 2e 02 be be 19 13 bd
       -0.16459312 0.14370511 -0.12713195 -0.03591322
000280 2c 67 b7 3d 7b 19 31 be 63 40 14 3e 0c a0 8b 3b
       0.08955225 -0.17294876 0.14477687 0.0042610224
000290 8a 78 27 3e bd b0 3b 3d 0c d6 d1 3d 42 5a 61 3d
       0.16354576 0.045822848 0.10245904 0.055017717
0002a0 7b 4e 3a bc 82 56 a0 bd f2 64 3d 3b d5 9d df 3c
       -0.01137125 -0.07829 0.002889928 0.02729694
0002b0 4a 8e 80 bd 59 6e 1d 3c 47 e7 f0 bd 55 5b ed bd
       -0.062771395 0.009608828 -0.11762863 -0.11589686
0002c0 ef fd dd 3d cc aa 67 bd b6 56 75 3b 65 d1 70 bd
       0.108394496 -0.05655937 0.0037435717 -0.058793444
0002d0 2c 69 49 3e 40 da d0 3d 06 a3 3f bd 7f bd e4 bd
       0.19669026 0.10197878 -0.04678633 -0.11168956
0002e0 85 fb 8f 3c 49 6c 8f 3c af ba e6 bd 86 b9 84 3d
       0.017575989 0.01750769 -0.11266076 0.06480698
0002f0 51 02 2b 3d 5a 5e 1b be 66 23 ca bd 82 71 b5 3d
       0.041750256 -0.15172711 -0.09870033 0.088595405
000300 12 7c 48 bc 86 71 f9 bc 54 5b 67 3e 81 b2 3e 3d
       -0.012236612 -0.03044964 0.22593433 0.046556953
000310 4a dd 85 3d cd 49 b0 3c 07 aa 38 bd 2c 69 53 bd
       0.06536348 0.021519566 -0.045084026 -0.05161397
000320 66 7e b1 3d 9f f8 cd bd 67 bd 10 bc b7 8e f2 3c
       0.08666687 -0.10057186 -0.00883422 0.029609067
000330 f7 26 06 3e 09 db dc bd cd 4e c5 bd a3 77 91 3d
       0.13100801 -0.10783965 -0.09634171 0.07102897
000340 ba 65 fe bd 15 ae ce bd b6 b3 7a bd 17 de b4 3d
       -0.124217466 -0.10091797 -0.061206542 0.08831423
000350 20 fa 3d 3e 5c 96 44 3e 91 d1 e6 bb 62 b8 23 be
       0.18552446 0.19197983 -0.007044025 -0.15988305
000360 28 3a ba 3c 30 5d 9d bd a8 11 67 3d 71 ba 87 bd
       0.02273281 -0.0768379 0.056413323 -0.06627358
000370 a3 6c c4 bd da 23 1c 3e d2 6d 87 3c 35 81 0f be
       -0.09591033 0.15248051 0.016531859 -0.14014132
000380 00 37 4c 3d 64 87 09 bd 2e 35 a6 3d 3e 50 05 3e
       0.04985714 -0.033576384 0.08115612 0.13018891
000390 62 a9 f2 3c 5c 94 e3 3c 89 62 ec bd 41 67 0f 3d
       0.029621784 0.027780704 -0.115422316 0.03501058
0003a0 6f 59 40 bd c9 61 96 3d 4b f5 20 bd 5d d7 29 be
       -0.04696029 0.0734287 -0.03929643 -0.16586061
0003b0 29 02 0a bd ba ea 9d 3d e0 08 bc bd 5c 68 00 bd
       -0.033693466 0.07710786 -0.0918138 -0.031349525
0003c0 d2 de 96 3d 3f ba f5 bd 70 c7 19 bd c5 f2 94 3d
       0.07366718 -0.11998414 -0.037543714 0.07272867
0003d0 0d 8b 6e bd b8 ff 38 3b 9e ee 38 3e bd 1d 7b bb
       -0.058238078 0.0028228592 0.18059775 -0.0038317286
0003e0 b0 96 b1 bd 17 c0 f1 3c f4 77 cc 3d ec 11 0c 3e
       -0.086713195 0.02951054 0.09983817 0.13678712
0003f0 08 c4 f7 3d 8f 3a 3d bd c0 32 2d 3e 7c 3b 8a 3d
       0.12097937 -0.046198424 0.16913891 0.06749627

network_body._body_endoder.seq_layers.2.bias f4 [128]
000000 00 00 00 00 00 00 00 00 00 00 00 00 00 00 00 00
       0.0 0.0 0.0 0.0
000010 00 00 00 00 00 00 00 00 00 00 00 00 00 00 00 00
       0.0 0.0 0.0 0.0
000020 00 00 00 00 00 00 00 00 00 00 00 00 00 00 00 00
       0.0 0.0 0.0 0.0
000030 00 00 00 00 00 00 00 00 00 00 00 00 00 00 00 00
       0.0 0.0 0.0 0.0
000040 00 00 00 00 00 00 00 00 00 00 00 00 00 00 00 00
       0.0 0.0 0.0 0.0
000050 00 00 00 00 00 00 00 00 00 00 00 00 00 00 00 00
       0.0 0.0 0.0 0.0
000060 00 00 00 00 00 00 00 00 00 00 00 00 00 00 00 00
       0.0 0.0 0.0 0.0
000070 00 00 00 00 00 00 00 00 00 00 00 00 00 00 00 00
       0.0 0.0 0.0 0.0
000080 00 00 00 00 00 00 00 00 00 00 00 00 00 00 00 00
       0.0 0.0 0.0 0.0
000090 00 00 00 00 00 00 00 00 00 00 00 00 00 00 00 00
       0.0 0.0 0.0 0.0
0000a0 00 00 00 00 00 00 00 00 00 00 00 00 00 00 00 00
       0.0 0.0 0.0 0.0
0000b0 00 00 00 00 00 00 00 00 00 00 00 00 00 00 00 00
       0.0 0.0 0.0 0.0
0000c0 00 00 00 00 00 00 00 00 00 00 00 00 00 00 00 00
       0.0 0.0 0.0 0.0
0000d0 00 00 00 00 00 00 00 00 00 00 00 00 00 00 00 00
       0.0 0.0 0.0 0.0
0000e0 00 00 00 00 00 00 00 00 00 00 00 00 00 00 00 00
       0.0 0.0 0.0 0.0
0000f0 00 00 00 00 00 00 00 00 00 00 00 00 00 00 00 00
       0.0 0.0 0.0 0.0
000100 00 00 00 00 00 00 00 00 00 00 00 00 00 00 00 00
       0.0 0.0 0.0 0.0
000110 00 00 00 00 00 00 00 00 00 00 00 00 00 00 00 00
       0.0 0.0 0.0 0.0
000120 00 00 00 00 00 00 00 00 00 00 00 00 00 00 00 00
       0.0 0.0 0.0 0.0
000130 00 00 00 00 00 00 00 00 00 00 00 00 00 00 00 00
       0.0 0.0 0.0 0.0
000140 00 00 00 00 00 00 00 00 00 00 00 00 00 00 00 00
       0.0 0.0 0.0 0.0
000150 00 00 00 00 00 00 00 00 00 00 00 00 00 00 00 00
       0.0 0.0 0.0 0.0
000160 00 00 00 00 00 00 00 00 00 00 00 00 00 00 00 00
       0.0 0.0 0.0 0.0
000170 00 00 00 00 00 00 00 00 00 00 00 00 00 00 00 00
       0.0 0.0 0.0 0.0
000180 00 00 00 00 00 00 00 00 00 00 00 00 00 00 00 00
       0.0 0.0 0.0 0.0
000190 00 00 00 00 00 00 00 00 00 00 00 00 00 00 00 00
       0.0 0.0 0.0 0.0
0001a0 00 00 00 00 00 00 00 00 00 00 00 00 00 00 00 00
       0.0 0.0 0.0 0.0
0001b0 00 00 00 00 00 00 00 00 00 00 00 00 00 00 00 00
       0.0 0.0 0.0 0.0
0001c0 00 00 00 00 00 00 00 00 00 00 00 00 00 00 00 00
       0.0 0.0 0.0 0.0
0001d0 00 00 00 00 00 00 00 00 00 00 00 00 00 00 00 00
       0.0 0.0 0.0 0.0
0001e0 00 00 00 00 00 00 00 00 00 00 00 00 00 00 00 00
       0.0 0.0 0.0 0.0
0001f0 00 00 00 00 00 00 00 00 00 00 00 00 00 00 00 00
       0.0 0.0 0.0 0.0

action_model._discrete_distribution.branches.0.weight f4 [2, 128]
000000 67 18 f9 3b db 11 74 bc 71 b9 c1 bb 73 45 9b b7
       0.007601786 -0.014896835 -0.005911999 -1.850978e-05
000010 2f 35 17 bc 75 21 71 ba 5b 74 44 bc 62 6f 47 3b
       -0.009228989 -0.0009198406 -0.011990632 0.003043138
000020 85 8a fb ba e8 73 28 3c 3e af 48 3c 0f 4c 28 bc
       -0.0019191062 0.01028154 0.012248812 -0.01027204
000030 77 c6 aa b9 83 ef 83 b9 72 c0 5d 3c 72 de 87 3a
       -0.00032572795 -0.00025164717 0.013534652 0.0010365976
000040 7f 70 43 bc 98 eb 4b 3c ac d4 29 bc c3 09 12 3b
       -0.011928677 0.012446307 -0.010365646 0.002228365
000050 27 e8 e3 39 07 40 0b bc c7 8b 1e 3c 87 ca 60 bb
       0.0004346978 -0.008499152 0.00967688 -0.0034300403
000060 f2 65 dd b8 fb ef 3d bb e2 22 56 b9 f3 ae 8d 3b
       -0.0001055709 -0.002898215 -0.00020421625 0.004323834
000070 00 9e bf bb c7 f3 d8 3b 57 98 4f 3b 3d 08 86 bb
       -0.0058476925 0.0066208574 0.0031676495 -0.0040903375
000080 cc 10 b0 3b 53 b0 83 bb 73 13 b1 3b 33 d7 90 3b
       0.005373096 -0.004018822 0.00540393 0.004420185
000090 e8 df 4a bb 63 d3 6f 3b 58 12 76 3c 55 d7 76 ba
       -0.0030956212 0.0036594502 0.015019022 -0.0009416242
0000a0 c0 63 f5 bb 62 05 d3 3a ff 6c 09 3c 94 55 03 3c
       -0.007488698 0.0016099627 0.008387803 0.008016009
0000b0 05 72 6a 3c 0f 31 6f ba e3 f7 d8 bb f7 3e 14 ba
       0.014309411 -0.0009124437 -0.0066213473 -0.00056551344
0000c0 4f a9 be 3c 90 ab 29 3c 68 6e b4 bb c3 f3 89 bb
       0.023274092 0.010355845 -0.0055063255 -0.004209967
0000d0 16 1f 03 3c 78 87 87 3b 73 cd 67 39 ad f2 56 bb
       0.008003017 0.004136022 0.00022106413 -0.0032798455
0000e0 ca 06 57 3c 8d 49 e4 bb 8e 3a 80 bc 47 c4 70 b9
       0.013124177 -0.0069667757 -0.015652921 -0.00022961303
0000f0 d3 e9 27 3c 91 18 47 ba 65 ca 85 39 5a 3b 29 bc
       0.010248619 -0.0007594908 0.00025518532 -0.010329092
000100 8f 56 b7 3b 07 44 eb bb c8 21 8f bb 8d 0b 7a 3b
       0.0055950354 -0.0071797404 -0.0043680407 0.0038153857
000110 bc ce 15 bc 3c 53 1c bb 1f 1f 42 bb 2c 85 81 bc
       -0.009143528 -0.0023853322 -0.00296206 -0.015810572
000120 32 60 9e 3b 33 d6 01 3b 1a 1a 7a bc 7b 35 cf 3b
       0.0048332447 0.001981151 -0.015265012 0.006323514
000130 a9 c0 af 3b f3 1a 88 b8 2b a5 3f bb 5b d5 1a bb
       0.005363543 -6.490005e-05 -0.0029242735 -0.0023625705
000140 a3 ea c7 3b e5 1d 50 3b 0e 15 86 3b d8 3c ef b8
       0.006100969 0.00317561 0.0040918654 -0.00011407741
000150 15 82 3a 3b db cd 24 bb 35 fe d6 3b 22 1d db 3a
       0.0028458883 -0.0025147113 0.0065610656 0.0016717056
000160 87 10 d6 bb 53 e8 03 bc bf 65 01 3c b7 cf ca bb
       -0.006532732 -0.008050996 0.007897793 -0.0061893123
000170 07 87 59 3b e3 84 b4 3c 77 e5 52 bc b2 ce e9 bb
       0.0033192055 0.022036022 -0.0128720915 -0.0071352357
000180 23 3b 8c 3b 88 25 cc 3b 4f 32 9b 3b 3b 1b 89 bb
       0.0042795106 0.00623006 0.004736222 -0.0041841543
000190 01 32 43 3b db 3e 3f 39 21 53 02 3c 5f e7 7f 3c
       0.0029784443 0.00018238595 0.00795439 0.015619128
0001a0 6d ce ac 3a 71 76 98 3b 0c 13 8b 3b eb 36 ef 3b
       0.0013184078 0.004652791 0.004244214 0.007300248
0001b0 2b a7 76 39 67 b8 ac 3b 27 24 ed 3b d5 91 6c ba
       0.00023522663 0.005271006 0.0072369757 -0.0009024416
0001c0 65 81 b8 ba df d8 97 3b d7 f4 a0 b9 69 c3 c2 b9
       -0.0014076649 0.0046340073 -0.00030699998 -0.00037148155
0001d0 c7 9f 2e 3a 5d 67 ad bb 02 6a 41 3a 3d e4 e7 3b
       0.0006661382 -0.005291863 0.0007378162 0.0070767687
0001e0 38 cf e7 3a 37 84 d6 3b f7 22 02 3c 35 e8 18 3b
       0.0017685657 0.006546523 0.007942907 0.0023331766
0001f0 40 b6 46 3b 55 8c e7 bb 9b 84 fd bb 1a 12 73 3a
       0.0030321032 -0.0070662894 -0.007736755 0.00092724117
000200 cf e4 e1 3b bd a3 15 bc 07 9b 61 bc 87 9a d1 bb
       0.006893731 -0.0091332765 -0.013769872 -0.006396595
000210 80 0c 01 bc 6b 3c 42 3b 08 0c bc bb d0 2b 1c 3b
       -0.007876515 0.0029638063 -0.005738739 0.0023829825
000220 0a 23 8f ba b2 0b 76 bb 43 e2 d0 bb 51 91 b2 3b
       -0.0010920477 -0.0037543592 -0.0063746287 0.005449452
000230 d5 b4 fe 3a a5 f2 7f 3c c7 bf a0 ba 47 d4 24 3c
       0.0019432554 0.015621816 -0.0012264185 0.0100603765
000240 aa 85 f0 3b 18 7a fd bb 32 48 03 bc c5 fa 5e bb
       0.0073401527 -0.007735502 -0.008012818 -0.0034023982
000250 26 13 bc bb 4f 97 21 bc 1f 21 5b bc db 89 20 bc
       -0.0057395874 -0.009862735 -0.013374596 -0.009798492
000260 02 fc 1c 3c ca 65 fd bb a7 4e 5f bb f9 8d 8b 3c
       0.009581568 -0.0077330815 -0.003407398 0.017035471
000270 87 d9 81 ba 6b 75 08 ba 1f 7c a1 bc f5 55 d4 bb
       -0.0009906747 -0.0005205485 -0.019712506 -0.0064799734
000280 03 c9 d4 3b fa fd cd 3b a8 14 4a bc 24 ae 9b 3b
       0.006493689 0.00628638 -0.012334026 0.004750984
000290 51 6c 36 bc 1b 7e 16 bb c1 ed 00 3c aa 6c ef bb
       -0.011134223 -0.0022963348 0.007869185 -0.007306655
0002a0 f5 16 33 ba 50 b0 2e 3b fb 86 1b ba 8a 87 ff bb
       -0.0006831729 0.0026655383 -0.00059328944 -0.00779814
0002b0 87 a1 11 3c b1 7f 93 3c cf 3e 63 bb 1e 76 ac ba
       0.008888609 0.018005224 -0.0034674888 -0.001315776
0002c0 eb b7 a9 bb 65 68 fe bb 82 fd d4 3b 4b 20 d8 ba
       -0.0051793954 -0.0077639096 0.006499947 -0.0016489116
0002d0 d9 c0 3e bc 34 58 40 bb 30 13 38 3b 2a f1 c0 bb
       -0.011642658 -0.0029349448 0.0028087609 -0.005888124
0002e0 19 fd 9a 3b 90 ed b8 3b bc 77 9b bc 2f 04 0a 3c
       0.0047298786 0.005643554 -0.018977992 0.008423849
0002f0 fb 44 fb bb 7f 0a 2e 38 1c c6 b8 bb d9 4b 18 bb
       -0.007668135 4.1494608e-05 -0.005638851 -0.0023238568
000300 6b 7c 25 3b c3 9a 4e bc e7 c3 44 bc db 9c 4b bc
       0.002525116 -0.01261014 -0.012009597 -0.012427534
000310 5b 06 e9 3a cf 86 ec 3b 50 05 15 bc eb c3 e7 3b
       0.0017778383 0.007218219 -0.009095505 0.007072916
000320 88 76 b6 ba c7 d6 7f 3b 64 0e c8 ba fa 9a b7 bb
       -0.0013920823 0.003903793 -0.0015263078 -0.0056031914
000330 ff dc bc 3c 93 25 39 3c dd 20 5f bc e6 f1 40 3c
       0.023054598 0.011300462 -0.013618675 0.011776423
000340 e4 58 00 bb 39 9b 12 bb d6 70 11 ba 2d 85 ae 3c
       -0.0019584233 -0.0022370352 -0.0005548125 0.021303738
000350 bb 10 9a 3b 4b 61 f9 ba 73 61 4f bc a8 88 50 bc
       0.0047017015 -0.0019026188 -0.012657511 -0.012727894
000360 37 b0 88 ba b5 42 d8 3b 8b 0c 32 3c c9 3d 90 bc
       -0.0010428493 0.006599749 0.010867248 -0.017607586
000370 58 e9 47 3c db e4 50 3c df d6 ef 3b 9d 20 f4 ba
       0.01220163 0.012749876 0.007319316 -0.0018625442
000380 ff ea 42 3a c8 ee 06 3b 5c 2d 07 3c 55 ef 0b bc
       0.000743553 0.0020589102 0.008250561 -0.008540948
000390 45 8b 3a bb bb 6b 49 bb f5 57 13 39 82 f5 8d ba
       -0.0028464359 -0.0030734378 0.00014051779 -0.0010830613
0003a0 49 e7 85 bb 77 32 94 ba a6 b1 04 bc 8b c6 2c bc
       -0.004086409 -0.0011306544 -0.008098995 -0.010545383
0003b0 e0 69 d0 bb da 0f 7a bb 48 95 b3 3b 91 c2 3f 3c
       -0.0063602775 -0.003815642 0.005480442 0.011704103
0003c0 da dd 45 bb 10 7a c1 ba d7 87 9a 3b e0 a2 c1 bb
       -0.0030192048 -0.0014761109 0.0047159004 -0.005909309
0003d0 90 21 e3 3b a2 b4 09 bc 9b dd 90 b9 50 fd a5 3b
       0.006931491 -0.008404883 -0.0002763093 0.0050655976
0003e0 57 e7 e1 bb 07 e3 25 3c c0 97 88 3c 55 30 2d 3c
       -0.006894033 0.010124928 0.016673923 0.010570605
0003f0 99 89 1c 3c ab 10 7e bb bf a1 fe 3b 65 6c cd ba
       0.00955429 -0.003876726 0.0077707465 -0.0015672563

action_model._discrete_distribution.branches.0.bias f4 [2]
000000 00 00 00 00 00 00 00 00
       0.0 0.0

49 f4 [2]
000000 b3 71 bb 3f d6 ac 1f 40
       1.4644073 2.494924
