results/flappy_slow_v17/FlappyBirdAgent/FlappyBirdAgent-866.pt (torch, 148215 bytes, 19 tensors)

network_body.observation_encoder.processors.0.normalizer.running_mean f4 [2]
0	0x3fb44888	1.4084635
1	0x403738e2	2.8628469

network_body.observation_encoder.processors.0.normalizer.running_variance f4 [2]
0	0x44e868b3	1859.2719
1	0x45a8a625	5396.768

network_body.processors.0.normalizer.running_mean f4 [2]
0	0x3fb44888	1.4084635
1	0x403738e2	2.8628469

network_body.processors.0.normalizer.running_variance f4 [2]
0	0x44e868b3	1859.2719
1	0x45a8a625	5396.768

network_body._body_endoder.seq_layers.0.weight f4 [128, 2]
0	0xbecc5013	-0.39904842
1	0x3f94d9c5	1.1628958
2	0xbf4d8553	-0.8028156
3	0x3d96bf59	0.073607154
4	0x3ef170fa	0.47156507
5	0x3fa9b23a	1.3257515
6	0xbf49ca73	-0.7882454
7	0xbf5759b8	-0.84121275
8	0xbec3212c	-0.38111246
9	0xbf705d2d	-0.93892175
10	0xbe9b1f4c	-0.30297315
11	0x3f22e4dc	0.6363046
12	0xbeeff209	-0.46864346
13	0xbe764db7	-0.24053083
14	0x3f4ce9a5	0.80044013
15	0xbf4fc77a	-0.8116375
16	0x3f18b53e	0.59651554
17	0x3f4bef64	0.79662156
18	0x3e43a051	0.19104125
19	0xbeecf1b1	-0.46278146
20	0x3f86f12d	1.0542351
21	0xbdb0c378	-0.08631033
22	0xbf610acd	-0.87907106
23	0x3f1fafbd	0.6237753
24	0x3f058d4b	0.5216872
25	0x3e0af946	0.13571653
26	0xbf471572	-0.777671
27	0x3ee7ac37	0.45248577
28	0xbf1dc96b	-0.61635464
29	0x3fb18bf2	1.3870833
30	0xbf032d8e	-0.51241386
31	0xbeedadc8	-0.46421647
32	0xbfed0123	-1.8515972
33	0x3efaeee5	0.49010387
34	0xbfb77149	-1.4331447
35	0x3ed9ce32	0.42540127
36	0x3ed738b4	0.4203545
37	0xbf7f4b55	-0.9972432
38	0xbed67929	-0.41889313
39	0xbf88439e	-1.0645635
40	0x3d56313f	0.05229306
41	0x3dfe4202	0.12414934
42	0xbf0b6734	-0.5445435
43	0x3e9808d8	0.29694247
44	0x3d139d89	0.03603891
45	0xbb03a857	-0.0020089352
46	0xbe9877fe	-0.29779047
47	0x3f317729	0.6932245
48	0x3f00b057	0.50269073
49	0x3e836571	0.2566333
50	0x3f8f3343	1.1187519
51	0x3eeb516b	0.45960554
52	0xbed154cb	-0.40885004
53	0xbe86e882	-0.26349264
54	0xbe2ffaff	-0.17185591
55	0xbf81a426	-1.0128219
56	0xbf833b3c	-1.0252452
57	0xbeb5c829	-0.35504273
58	0xbf82de3e	-1.0224073
59	0x3f38f03b	0.7224156
60	0xbf3fff8d	-0.74999315
61	0x3f8d096e	1.1018503
62	0xbf1cd352	-0.6125995
63	0xbf03c4ea	-0.5147234
64	0x3f9ab643	1.2086872
65	0xbe4e9574	-0.201742
66	0xbee88512	-0.45414025
67	0x3e9ed6e4	0.31023324
68	0xbeef44bb	-0.46732125
69	0x40077de4	2.1170588
70	0xbee3457c	-0.4438895
71	0xbea2779c	-0.3173188
72	0x3f2307e7	0.63683933
73	0x3f784731	0.9698363
74	0xbe3da7ec	-0.18521088
75	0xbe484a1e	-0.19559523
76	0xbf670fa6	-0.9025825
77	0x3d664e9d	0.056227315
78	0xbf60d996	-0.8783201
79	0x3de52472	0.11188592
80	0xbeec37cc	-0.4613632
81	0x3fa17feb	1.2617162
82	0x3fe89a0f	1.8172015
83	0xbf62b0ed	-0.8855122
84	0xbe989224	-0.29798996
85	0xbffa33aa	-1.9547017
86	0x3e713e87	0.23559009
87	0x3feaa94a	1.8332913
88	0x3f743d0b	0.95405644
89	0xbe6f4376	-0.23365578
90	0x3e0667d3	0.13125543
91	0x3f9e5fc4	1.2372975
92	0x3f156a74	0.5836556
93	0x3d96d7f4	0.073654085
94	0x3ed1a2c9	0.40944508
95	0xbe9e66ca	-0.30937797
96	0xbea1b7f1	-0.3158565
97	0xbf9b90a5	-1.2153517
98	0x3f5f597a	0.87245905
99	0x3ed9733d	0.42470732
100	0xbdcfc340	-0.10144663
101	0xbeed8509	-0.4639056
102	0xbdeb8a94	-0.11501041
103	0xbd169583	-0.03676368
104	0xbf08af8e	-0.53392875
105	0x3eb03d67	0.34421846
106	0x3de50b60	0.1118381
107	0xbed02a4d	-0.40657273
108	0x3ea751e5	0.32679668
109	0x3f68f0d1	0.90992457
110	0xbec3a180	-0.38209152
111	0xbf59e313	-0.8511211
112	0x3f101720	0.56285286
113	0xbf46519f	-0.77468294
114	0xbecf24ca	-0.40457755
115	0xbfa46db7	-1.2845982
116	0x3db72d1c	0.08944151
117	0x3f91543f	1.1353835
118	0xbf0a4537	-0.54011863
119	0x3c6462dc	0.013939586
120	0xbf2e45d7	-0.6807532
121	0x3f1a8834	0.6036408
122	0x3f8b5f21	1.0888406
123	0x3eccc15b	0.3999127
124	0xbf015e9c	-0.5053499
125	0xbd86c872	-0.06581201
126	0xbe9fb24a	-0.3119071
127	0x3e874d5e	0.26426214
128	0xbf55f17b	-0.83571595
129	0x3fb6d42c	1.42835
130	0xbcbc3a7f	-0.022977112
131	0x3f89e18e	1.0771959
132	0xbfb51a69	-1.4148685
133	0xbde48ff4	-0.111602694
134	0x3f7fe148	0.99953127
135	0xbf31b507	-0.6941685
136	0x3e8eaaea	0.27864772
137	0x4009426b	2.1446788
138	0x3db53b5d	0.08849213
139	0xbf39937e	-0.7249068
140	0x3c82420f	0.01590064
141	0x3dbb98ee	0.091600284
142	0xbf23afb7	-0.63939995
143	0x3f1da47f	0.61579126
144	0xbe4ba822	-0.19888356
145	0x3ea2409a	0.31689912
146	0x3ce4b0d2	0.027916346
147	0x3f8c34d5	1.0953623
148	0xbe29550a	-0.16536346
149	0x3c65147e	0.0139819365
150	0x3e719a82	0.23594096
151	0xbf1b9208	-0.607697
152	0xbe9c0a2f	-0.3047652
153	0x3f46e158	0.776876
154	0x3f821c50	1.016489
155	0x3e9f3072	0.31091648
156	0x3fa305b8	1.273612
157	0x3f052cc0	0.5202141
158	0x3efb9a62	0.49141222
159	0x3f0835c8	0.53207064
160	0x3ef1fbd0	0.4726243
161	0x3e780b45	0.24223049
162	0x3f4c8549	0.79890877
163	0x3d934976	0.07191746
164	0x3d1f3f52	0.038878746
165	0xbecb4f4c	-0.39708936
166	0x3f14f1ec	0.58181643
167	0xbf28992e	-0.65858734
168	0x3e919e45	0.28441063
169	0x3f44648c	0.7671592
170	0xbfa2da95	-1.2722956
171	0xbdd168a6	-0.10225038
172	0xbe66c2df	-0.22535275
173	0x3db3fe6d	0.08788762
174	0x3f192297	0.59818405
175	0xbcac10d9	-0.021004127
176	0x3f8cb351	1.0992223
177	0xbe8ffd94	-0.28123152
178	0xbe5d78e0	-0.21628141
179	0xbfa8a643	-1.3175739
180	0xbf00351f	-0.50081056
181	0xbd6eba90	-0.05828339
182	0xbfa1db2b	-1.264501
183	0x3fbc172a	1.4694569
184	0xbec8d3b9	-0.39224032
185	0xbd632e38	-0.055464
186	0xbdd113ca	-0.102088526
187	0xbf7e920b	-0.99441594
188	0x3ca98c0d	0.020696664
189	0xbf0d15af	-0.5511121
190	0x402a0e59	2.6571257
191	0xbe6737ac	-0.22579831
192	0xbeacfc7d	-0.33786383
193	0x3f5aeb11	0.8551493
194	0x3f42ca75	0.76090175
195	0x3f801fbf	1.0009688
196	0x40044254	2.0665483
197	0x3e7eddd9	0.24889316
198	0xbeb4650e	-0.3523335
199	0xbe022b45	-0.12711819
200	0xbf6e3552	-0.9305011
201	0x3f9dbaaf	1.2322596
202	0x3fb68ba0	1.426136
203	0xbf362462	-0.71149266
204	0xbede909a	-0.43469697
205	0xbfb6d680	-1.428421
206	0x3f75c5b4	0.96004796
207	0x3f811300	1.0083923
208	0x3e836749	0.25664738
209	0xbec44fc8	-0.38342118
210	0x3ef44b06	0.47713488
211	0x3d45c731	0.048285667
212	0xbea1e667	-0.31621096
213	0xbdc37862	-0.095444456
214	0x3eb7f879	0.35931757
215	0xbf131ad5	-0.5746282
216	0x3ef050bf	0.46936604
217	0x3f1fdeca	0.62449324
218	0xbddca01c	-0.10772726
219	0x3f8919f7	1.0711049
220	0xbedb9c16	-0.42892522
221	0x3ebd0d2d	0.36924115
222	0xbf39fde1	-0.72653013
223	0xbe9775d6	-0.2958209
224	0x3f88ba41	1.068184
225	0xbe61dcc4	-0.22056872
226	0xbf2f7c4b	-0.6854903
227	0xbf7d15f0	-0.988616
228	0x3eb989b0	0.3623786
229	0x3d02dfe6	0.031951807
230	0xbf7bc434	-0.9834626
231	0xbe84fdfe	-0.2597503
232	0x3f053842	0.5203897
233	0x3bdca762	0.006733821
234	0xbe57aba2	-0.21061566
235	0xbf322e2e	-0.69601715
236	0x3ea554d6	0.32291287
237	0xbf33bb07	-0.70207256
238	0xbf4b8572	-0.79500496
239	0xbe8b987f	-0.27264783
240	0xbefdaa7d	-0.49544135
241	0xbee67c81	-0.45016864
242	0x3f0fec75	0.5622018
243	0xbf017b38	-0.5057864
244	0x3f1e6291	0.6186915
245	0xbf2a8f62	-0.66625035
246	0xbf8925cf	-1.0714663
247	0x3f05562b	0.52084607
248	0xbe617e61	-0.22020866
249	0x3f39bb70	0.7255163
250	0xbf38fa65	-0.7225707
251	0xbed37663	-0.4130126
252	0x3eaf7794	0.34270918
253	0xbe4ca5cd	-0.19985123
254	0x3e90497f	0.28181073
255	0xbf9ae17c	-1.2100062

network_body._body_endoder.seq_layers.0.bias f4 [128]
0	0x00000000	0.0
1	0x00000000	0.0
2	0x00000000	0.0
3	0x00000000	0.0
4	0x00000000	0.0
5	0x00000000	0.0
6	0x00000000	0.0
7	0x00000000	0.0
8	0x00000000	0.0
9	0x00000000	0.0
10	0x00000000	0.0
11	0x00000000	0.0
12	0x00000000	0.0
13	0x00000000	0.0
14	0x00000000	0.0
15	0x00000000	0.0
16	0x00000000	0.0
17	0x00000000	0.0
18	0x00000000	0.0
19	0x00000000	0.0
20	0x00000000	0.0
21	0x00000000	0.0
22	0x00000000	0.0
23	0x00000000	0.0
24	0x00000000	0.0
25	0x00000000	0.0
26	0x00000000	0.0
27	0x00000000	0.0
28	0x00000000	0.0
29	0x00000000	0.0
30	0x00000000	0.0
31	0x00000000	0.0
32	0x00000000	0.0
33	0x00000000	0.0
34	0x00000000	0.0
35	0x00000000	0.0
36	0x00000000	0.0
37	0x00000000	0.0
38	0x00000000	0.0
39	0x00000000	0.0
40	0x00000000	0.0
41	0x00000000	0.0
42	0x00000000	0.0
43	0x00000000	0.0
44	0x00000000	0.0
45	0x00000000	0.0
46	0x00000000	0.0
47	0x00000000	0.0
48	0x00000000	0.0
49	0x00000000	0.0
50	0x00000000	0.0
51	0x00000000	0.0
52	0x00000000	0.0
53	0x00000000	0.0
54	0x00000000	0.0
55	0x00000000	0.0
56	0x00000000	0.0
57	0x00000000	0.0
58	0x00000000	0.0
59	0x00000000	0.0
60	0x00000000	0.0
61	0x00000000	0.0
62	0x00000000	0.0
63	0x00000000	0.0
64	0x00000000	0.0
65	0x00000000	0.0
66	0x00000000	0.0
67	0x00000000	0.0
68	0x00000000	0.0
69	0x00000000	0.0
70	0x00000000	0.0
71	0x00000000	0.0
72	0x00000000	0.0
73	0x00000000	0.0
74	0x00000000	0.0
75	0x00000000	0.0
76	0x00000000	0.0
77	0x00000000	0.0
78	0x00000000	0.0
79	0x00000000	0.0
80	0x00000000	0.0
81	0x00000000	0.0
82	0x00000000	0.0
83	0x00000000	0.0
84	0x00000000	0.0
85	0x00000000	0.0
86	0x00000000	0.0
87	0x00000000	0.0
88	0x00000000	0.0
89	0x00000000	0.0
90	0x00000000	0.0
91	0x00000000	0.0
92	0x00000000	0.0
93	0x00000000	0.0
94	0x00000000	0.0
95	0x00000000	0.0
96	0x00000000	0.0
97	0x00000000	0.0
98	0x00000000	0.0
99	0x00000000	0.0
100	0x00000000	0.0
101	0x00000000	0.0
102	0x00000000	0.0
103	0x00000000	0.0
104	0x00000000	0.0
105	0x00000000	0.0
106	0x00000000	0.0
107	0x00000000	0.0
108	0x00000000	0.0
109	0x00000000	0.0
110	0x00000000	0.0
111	0x00000000	0.0
112	0x00000000	0.0
113	0x00000000	0.0
114	0x00000000	0.0
115	0x00000000	0.0
116	0x00000000	0.0
117	0x00000000	0.0
118	0x00000000	0.0
119	0x00000000	0.0
120	0x00000000	0.0
121	0x00000000	0.0
122	0x00000000	0.0
123	0x00000000	0.0
124	0x00000000	0.0
125	0x00000000	0.0
126	0x00000000	0.0
127	0x00000000	0.0

network_body._body_endoder.seq_layers.2.weight f4 [128, 128]
0	0xbd452748	-0.048133165
1	0x3ca4d633	0.02012167
2	0xbd1fb6c6	-0.038992666
3	0xbdda3ef8	-0.106565416
4	0xbd257dde	-0.04040324
5	0x3d6aba69	0.05730668
6	0xbe07fc87	-0.13279925
7	0xbd2d9797	-0.042380895
8	0x3d1767e1	0.0369643
9	0xbcc41285	-0.023934612
10	0x3d48ad4e	0.0489934
11	0x3dd539a3	0.10411384
12	0x3ddd930b	0.10819062
13	0x3d9c6e75	0.076382555
14	0x3c8e147e	0.017343756
15	0xbc8e72ef	-0.017388789
16	0x3d294cdf	0.041333076
17	0xbdba7c7f	-0.09105777
18	0xbd5ff4c6	-0.054676794
19	0x3d58242d	0.052768875
20	0xbe2ea615	-0.17055543
21	0x3d0f9205	0.035051364
22	0xbdad9350	-0.08475363
23	0x3bf18796	0.0073708994
24	0xbd61435c	-0.05499588
25	0xbd41903a	-0.047256686
26	0xbd8dc69e	-0.06922649
27	0xbd94e474	-0.072701365
28	0xbc9c05ef	-0.019045798
29	0xbd2f0c85	-0.04273655
30	0x3d8e6e54	0.06954637
31	0xbd9138c0	-0.07090902
32	0xbd26d9d3	-0.040735077
33	0x3cef22c5	0.029191384
34	0xbe148ae9	-0.14506115
35	0xbe209402	-0.1568146
36	0xbde464e3	-0.11152055
37	0xbc18608e	-0.009300364
38	0x3d5021c1	0.05081344
39	0x3aeed99c	0.0018222812
40	0xbda7d1da	-0.08194323
41	0x3c80018f	0.015625743
42	0xbe2b076a	-0.16702047
43	0xbd8911eb	-0.06692871
44	0x3db4bbd5	0.088248886
45	0x3d420dbe	0.047376387
46	0xbd355ef2	-0.04428
47	0xbdd6530d	-0.104650594
48	0xbde78411	-0.113044865
49	0x3d84d9bc	0.06486842
50	0xbc765d2c	-0.015036862
51	0xbbd0864f	-0.006363667
52	0x3ddf1689	0.1089297
53	0x3e147150	0.1449635
54	0xbd153662	-0.036428817
55	0xbdee589a	-0.11637993
56	0x3ac975ea	0.0015370224
57	0x3c8c9f3d	0.017165774
58	0xbd305d2d	-0.04305761
59	0x3dc37a65	0.09544829
60	0xbdad1c5d	-0.084526755
61	0x3d9aaef4	0.07552901
62	0x3d1b0ee2	0.03785599
63	0x3e062d9a	0.13103333
64	0xbd3d2d97	-0.046186056
65	0xbe51e979	-0.20499219
66	0xbd89cde0	-0.06728721
67	0xbd8cb64b	-0.06870707
68	0x3a80a252	0.0009814
69	0xbd66d295	-0.05635317
70	0x3db84bfd	0.089988686
71	0x3d8c8956	0.06862132
72	0xbcf0ce0c	-0.029395126
73	0xbd23b8b5	-0.039971072
74	0x3cf66d89	0.030081527
75	0xbde8906b	-0.113556705
76	0xbcf0bc00	-0.02938652
77	0x3cb8ae63	0.022544092
78	0xbdfb7d0d	-0.12279711
79	0xbd43168c	-0.047628924
80	0xbe1b0fa2	-0.15142682
81	0xbe1a7e98	-0.15087354
82	0x3dc1b8af	0.09459054
83	0xbcf5c283	-0.029999977
84	0x3de2fad0	0.11082995
85	0xbc995bb6	-0.018720489
86	0xbd7f90bc	-0.06239389
87	0xbde7f1bc	-0.11325404
88	0x3cd23a35	0.02566252
89	0xbd4d575e	-0.050132148
90	0xbda4c1f7	-0.08044808
91	0xbc93639a	-0.01799183
92	0xbd936a6c	-0.07198033
93	0xbe0a9614	-0.13533813
94	0xbd7eb8c2	-0.062187918
95	0x3e340dc8	0.17583382
96	0x3e4573f0	0.19282508
97	0x3d86055d	0.06543992
98	0xbd8b0a84	-0.06789115
99	0x3da23e41	0.0792203
100	0xbd7d046f	-0.061771806
101	0x3dbee358	0.09320706
102	0xbd557a4e	-0.052118592
103	0xbdb6e758	-0.08930844
104	0xbd6da586	-0.058019184
105	0x3d88f469	0.066872425
106	0xbd04d2da	-0.032427646
107	0xbd385e16	-0.045011602
108	0xbd8a1729	-0.06742699
109	0x3df55c11	0.11980451
110	0x3d817309	0.06320769
111	0xbdd8d83b	-0.10588118
112	0xbd4e65c3	-0.050390016
113	0xbbeff8f9	-0.007323381
114	0xbe48d8e7	-0.19613992
115	0xbb165aad	-0.002294223
116	0x3d59221e	0.053011052
117	0x3c9dadac	0.019247852
118	0x3e62b9b0	0.22141147
119	0xbde582a5	-0.11206559
120	0xbe132a50	-0.1437161
121	0x3d072320	0.032992482
122	0x3d934097	0.07190054
123	0xbde9ebd7	-0.11421936
124	0xbbdcaa45	-0.006734165
125	0xbd8cc3cd	-0.068732835
126	0x3d83ff2d	0.06445155
127	0xbabe5a13	-0.0014522694
128	0x3c589d7d	0.013221142
129	0xbd7a2786	-0.06107285
130	0x3d7cf5f7	0.061758008
131	0x3967a613	0.00022091744
132	0xbbfd8044	-0.0077362377
133	0xbd8c71c6	-0.06857638
134	0xbdb771bc	-0.0895724
135	0xbd7fa9bc	-0.06241773
136	0xbe2d5b1a	-0.16929284
137	0xbbce4933	-0.006295347
138	0x3d2afb6f	0.041743692
139	0xbce7964c	-0.02826991
140	0x3cd1d8b0	0.02561602
141	0x3db09160	0.08621478
142	0x3e419e9b	0.1890816
143	0x3e098d9e	0.13432929
144	0xbe1dd298	-0.15412366
145	0x3dcf0b8d	0.10109625
146	0xbc451abb	-0.012030299
147	0xbd3061a3	-0.043061864
148	0xbbaca86d	-0.0052691014
149	0x3d2f9c54	0.042873695
150	0x3c41ce51	0.011828975
151	0xbd943143	-0.072359584
152	0xbd15753e	-0.036488764
153	0xbd4a5083	-0.04939319
154	0xbd907d5b	-0.0705516
155	0x3d9ce9f1	0.07661808
156	0xbe288b19	-0.16459312
157	0x3e13276f	0.14370511
158	0xbe022ee1	-0.12713195
159	0xbd1319be	-0.03591322
160	0x3db7672c	0.08955225
161	0xbe31197b	-0.17294876
162	0x3e144063	0.14477687
163	0x3b8ba00c	0.0042610224
164	0x3e27788a	0.16354576
165	0x3d3bb0bd	0.045822848
166	0x3dd1d60c	0.10245904
167	0x3d615a42	0.055017717
168	0xbc3a4e7b	-0.01137125
169	0xbda05682	-0.07829
170	0x3b3d64f2	0.002889928
171	0x3cdf9dd5	0.02729694
172	0xbd808e4a	-0.062771395
173	0x3c1d6e59	0.009608828
174	0xbdf0e747	-0.11762863
175	0xbded5b55	-0.11589686
176	0x3dddfdef	0.108394496
177	0xbd67aacc	-0.05655937
178	0x3b7556b6	0.0037435717
179	0xbd70d165	-0.058793444
180	0x3e49692c	0.19669026
181	0x3dd0da40	0.10197878
182	0xbd3fa306	-0.04678633
183	0xbde4bd7f	-0.11168956
184	0x3c8ffb85	0.017575989
185	0x3c8f6c49	0.01750769
186	0xbde6baaf	-0.11266076
187	0x3d84b986	0.06480698
188	0x3d2b0251	0.041750256
189	0xbe1b5e5a	-0.15172711
190	0xbdca2366	-0.09870033
191	0x3db57182	0.088595405
192	0xbc487c12	-0.012236612
193	0xbcf97186	-0.03044964
194	0x3e675b54	0.22593433
195	0x3d3eb281	0.046556953
196	0x3d85dd4a	0.06536348
197	0x3cb049cd	0.021519566
198	0xbd38aa07	-0.045084026
199	0xbd53692c	-0.05161397
200	0x3db17e66	0.08666687
201	0xbdcdf89f	-0.10057186
202	0xbc10bd67	-0.00883422
203	0x3cf28eb7	0.029609067
204	0x3e0626f7	0.13100801
205	0xbddcdb09	-0.10783965
206	0xbdc54ecd	-0.09634171
207	0x3d9177a3	0.07102897
208	0xbdfe65ba	-0.124217466
209	0xbdceae15	-0.10091797
210	0xbd7ab3b6	-0.061206542
211	0x3db4de17	0.08831423
212	0x3e3dfa20	0.18552446
213	0x3e44965c	0.19197983
214	0xbbe6d191	-0.007044025
215	0xbe23b862	-0.15988305
216	0x3cba3a28	0.02273281
217	0xbd9d5d30	-0.0768379
218	0x3d6711a8	0.056413323
219	0xbd87ba71	-0.06627358
220	0xbdc46ca3	-0.09591033
221	0x3e1c23da	0.15248051
222	0x3c876dd2	0.016531859
223	0xbe0f8135	-0.14014132
224	0x3d4c3700	0.04985714
225	0xbd098764	-0.033576384
226	0x3da6352e	0.08115612
227	0x3e05503e	0.13018891
228	0x3cf2a962	0.029621784
229	0x3ce3945c	0.027780704
230	0xbdec6289	-0.115422316
231	0x3d0f6741	0.03501058
232	0xbd40596f	-0.04696029
233	0x3d9661c9	0.0734287
234	0xbd20f54b	-0.03929643
235	0xbe29d75d	-0.16586061
236	0xbd0a0229	-0.033693466
237	0x3d9deaba	0.07710786
238	0xbdbc08e0	-0.0918138
239	0xbd00685c	-0.031349525
240	0x3d96ded2	0.07366718
241	0xbdf5ba3f	-0.11998414
242	0xbd19c770	-0.037543714
243	0x3d94f2c5	0.07272867
244	0xbd6e8b0d	-0.058238078
245	0x3b38ffb8	0.0028228592
246	0x3e38ee9e	0.18059775
247	0xbb7b1dbd	-0.0038317286
248	0xbdb196b0	-0.086713195
249	0x3cf1c017	0.02951054
250	0x3dcc77f4	0.09983817
251	0x3e0c11ec	0.13678712
252	0x3df7c408	0.12097937
253	0xbd3d3a8f	-0.046198424
254	0x3e2d32c0	0.16913891
255	0x3d8a3b7c	0.06749627

network_body._body_endoder.seq_layers.2.bias f4 [128]
0	0x00000000	0.0
1	0x00000000	0.0
2	0x00000000	0.0
3	0x00000000	0.0
4	0x00000000	0.0
5	0x00000000	0.0
6	0x00000000	0.0
7	0x00000000	0.0
8	0x00000000	0.0
9	0x00000000	0.0
10	0x00000000	0.0
11	0x00000000	0.0
12	0x00000000	0.0
13	0x00000000	0.0
14	0x00000000	0.0
15	0x00000000	0.0
16	0x00000000	0.0
17	0x00000000	0.0
18	0x00000000	0.0
19	0x00000000	0.0
20	0x00000000	0.0
21	0x00000000	0.0
22	0x00000000	0.0
23	0x00000000	0.0
24	0x00000000	0.0
25	0x00000000	0.0
26	0x00000000	0.0
27	0x00000000	0.0
28	0x00000000	0.0
29	0x00000000	0.0
30	0x00000000	0.0
31	0x00000000	0.0
32	0x00000000	0.0
33	0x00000000	0.0
34	0x00000000	0.0
35	0x00000000	0.0
36	0x00000000	0.0
37	0x00000000	0.0
38	0x00000000	0.0
39	0x00000000	0.0
40	0x00000000	0.0
41	0x00000000	0.0
42	0x00000000	0.0
43	0x00000000	0.0
44	0x00000000	0.0
45	0x00000000	0.0
46	0x00000000	0.0
47	0x00000000	0.0
48	0x00000000	0.0
49	0x00000000	0.0
50	0x00000000	0.0
51	0x00000000	0.0
52	0x00000000	0.0
53	0x00000000	0.0
54	0x00000000	0.0
55	0x00000000	0.0
56	0x00000000	0.0
57	0x00000000	0.0
58	0x00000000	0.0
59	0x00000000	0.0
60	0x00000000	0.0
61	0x00000000	0.0
62	0x00000000	0.0
63	0x00000000	0.0
64	0x00000000	0.0
65	0x00000000	0.0
66	0x00000000	0.0
67	0x00000000	0.0
68	0x00000000	0.0
69	0x00000000	0.0
70	0x00000000	0.0
71	0x00000000	0.0
72	0x00000000	0.0
73	0x00000000	0.0
74	0x00000000	0.0
75	0x00000000	0.0
76	0x00000000	0.0
77	0x00000000	0.0
78	0x00000000	0.0
79	0x00000000	0.0
80	0x00000000	0.0
81	0x00000000	0.0
82	0x00000000	0.0
83	0x00000000	0.0
84	0x00000000	0.0
85	0x00000000	0.0
86	0x00000000	0.0
87	0x00000000	0.0
88	0x00000000	0.0
89	0x00000000	0.0
90	0x00000000	0.0
91	0x00000000	0.0
92	0x00000000	0.0
93	0x00000000	0.0
94	0x00000000	0.0
95	0x00000000	0.0
96	0x00000000	0.0
97	0x00000000	0.0
98	0x00000000	0.0
99	0x00000000	0.0
100	0x00000000	0.0
101	0x00000000	0.0
102	0x00000000	0.0
103	0x00000000	0.0
104	0x00000000	0.0
105	0x00000000	0.0
106	0x00000000	0.0
107	0x00000000	0.0
108	0x00000000	0.0
109	0x00000000	0.0
110	0x00000000	0.0
111	0x00000000	0.0
112	0x00000000	0.0
113	0x00000000	0.0
114	0x00000000	0.0
115	0x00000000	0.0
116	0x00000000	0.0
117	0x00000000	0.0
118	0x00000000	0.0
119	0x00000000	0.0
120	0x00000000	0.0
121	0x00000000	0.0
122	0x00000000	0.0
123	0x00000000	0.0
124	0x00000000	0.0
125	0x00000000	0.0
126	0x00000000	0.0
127	0x00000000	0.0

action_model._discrete_distribution.branches.0.weight f4 [2, 128]
0	0x3bf91867	0.007601786
1	0xbc7411db	-0.014896835
2	0xbbc1b971	-0.005911999
3	0xb79b4573	-1.850978e-05
4	0xbc17352f	-0.009228989
5	0xba712175	-0.0009198406
6	0xbc44745b	-0.011990632
7	0x3b476f62	0.003043138
8	0xbafb8a85	-0.0019191062
9	0x3c2873e8	0.01028154
10	0x3c48af3e	0.012248812
11	0xbc284c0f	-0.01027204
12	0xb9aac677	-0.00032572795
13	0xb983ef83	-0.00025164717
14	0x3c5dc072	0.013534652
15	0x3a87de72	0.0010365976
16	0xbc43707f	-0.011928677
17	0x3c4beb98	0.012446307
18	0xbc29d4ac	-0.010365646
19	0x3b1209c3	0.002228365
20	0x39e3e827	0.0004346978
21	0xbc0b4007	-0.008499152
22	0x3c1e8bc7	0.00967688
23	0xbb60ca87	-0.0034300403
24	0xb8dd65f2	-0.0001055709
25	0xbb3deffb	-0.002898215
26	0xb95622e2	-0.00020421625
27	0x3b8daef3	0.004323834
28	0xbbbf9e00	-0.0058476925
29	0x3bd8f3c7	0.0066208574
30	0x3b4f9857	0.0031676495
31	0xbb86083d	-0.0040903375
32	0x3bb010cc	0.005373096
33	0xbb83b053	-0.004018822
34	0x3bb11373	0.00540393
35	0x3b90d733	0.004420185
36	0xbb4adfe8	-0.0030956212
37	0x3b6fd363	0.0036594502
38	0x3c761258	0.015019022
39	0xba76d755	-0.0009416242
40	0xbbf563c0	-0.007488698
41	0x3ad30562	0.0016099627
42	0x3c096cff	0.008387803
43	0x3c035594	0.008016009
44	0x3c6a7205	0.014309411
45	0xba6f310f	-0.0009124437
46	0xbbd8f7e3	-0.0066213473
47	0xba143ef7	-0.00056551344
48	0x3cbea94f	0.023274092
49	0x3c29ab90	0.010355845
50	0xbbb46e68	-0.0055063255
51	0xbb89f3c3	-0.004209967
52	0x3c031f16	0.008003017
53	0x3b878778	0.004136022
54	0x3967cd73	0.00022106413
55	0xbb56f2ad	-0.0032798455
56	0x3c5706ca	0.013124177
57	0xbbe4498d	-0.0069667757
58	0xbc803a8e	-0.015652921
59	0xb970c447	-0.00022961303
60	0x3c27e9d3	0.010248619
61	0xba471891	-0.0007594908
62	0x3985ca65	0.00025518532
63	0xbc293b5a	-0.010329092
64	0x3bb7568f	0.0055950354
65	0xbbeb4407	-0.0071797404
66	0xbb8f21c8	-0.0043680407
67	0x3b7a0b8d	0.0038153857
68	0xbc15cebc	-0.009143528
69	0xbb1c533c	-0.0023853322
70	0xbb421f1f	-0.00296206
71	0xbc81852c	-0.015810572
72	0x3b9e6032	0.0048332447
73	0x3b01d633	0.001981151
74	0xbc7a1a1a	-0.015265012
75	0x3bcf357b	0.006323514
76	0x3bafc0a9	0.005363543
77	0xb8881af3	-6.490005e-05
78	0xbb3fa52b	-0.0029242735
79	0xbb1ad55b	-0.0023625705
80	0x3bc7eaa3	0.006100969
81	0x3b501de5	0.00317561
82	0x3b86150e	0.0040918654
83	0xb8ef3cd8	-0.00011407741
84	0x3b3a8215	0.0028458883
85	0xbb24cddb	-0.0025147113
86	0x3bd6fe35	0.0065610656
87	0x3adb1d22	0.0016717056
88	0xbbd61087	-0.006532732
89	0xbc03e853	-0.008050996
90	0x3c0165bf	0.007897793
91	0xbbcacfb7	-0.0061893123
92	0x3b598707	0.0033192055
93	0x3cb484e3	0.022036022
94	0xbc52e577	-0.0128720915
95	0xbbe9ceb2	-0.0071352357
96	0x3b8c3b23	0.0042795106
97	0x3bcc2588	0.00623006
98	0x3b9b324f	0.004736222
99	0xbb891b3b	-0.0041841543
100	0x3b433201	0.0029784443
101	0x393f3edb	0.00018238595
102	0x3c025321	0.00795439
103	0x3c7fe75f	0.015619128
104	0x3aacce6d	0.0013184078
105	0x3b987671	0.004652791
106	0x3b8b130c	0.004244214
107	0x3bef36eb	0.007300248
108	0x3976a72b	0.00023522663
109	0x3bacb867	0.005271006
110	0x3bed2427	0.0072369757
111	0xba6c91d5	-0.0009024416
112	0xbab88165	-0.0014076649
113	0x3b97d8df	0.0046340073
114	0xb9a0f4d7	-0.00030699998
115	0xb9c2c369	-0.00037148155
116	0x3a2e9fc7	0.0006661382
117	0xbbad675d	-0.005291863
118	0x3a416a02	0.0007378162
119	0x3be7e43d	0.0070767687
120	0x3ae7cf38	0.0017685657
121	0x3bd68437	0.006546523
122	0x3c0222f7	0.007942907
123	0x3b18e835	0.0023331766
124	0x3b46b640	0.0030321032
125	0xbbe78c55	-0.0070662894
126	0xbbfd849b	-0.007736755
127	0x3a73121a	0.00092724117
128	0x3be1e4cf	0.006893731
129	0xbc15a3bd	-0.0091332765
130	0xbc619b07	-0.013769872
131	0xbbd19a87	-0.006396595
132	0xbc010c80	-0.007876515
133	0x3b423c6b	0.0029638063
134	0xbbbc0c08	-0.005738739
135	0x3b1c2bd0	0.0023829825
136	0xba8f230a	-0.0010920477
137	0xbb760bb2	-0.0037543592
138	0xbbd0e243	-0.0063746287
139	0x3bb29151	0.005449452
140	0x3afeb4d5	0.0019432554
141	0x3c7ff2a5	0.015621816
142	0xbaa0bfc7	-0.0012264185
143	0x3c24d447	0.0100603765
144	0x3bf085aa	0.0073401527
145	0xbbfd7a18	-0.007735502
146	0xbc034832	-0.008012818
147	0xbb5efac5	-0.0034023982
148	0xbbbc1326	-0.0057395874
149	0xbc21974f	-0.009862735
150	0xbc5b211f	-0.013374596
151	0xbc2089db	-0.009798492
152	0x3c1cfc02	0.009581568
153	0xbbfd65ca	-0.0077330815
154	0xbb5f4ea7	-0.003407398
155	0x3c8b8df9	0.017035471
156	0xba81d987	-0.0009906747
157	0xba08756b	-0.0005205485
158	0xbca17c1f	-0.019712506
159	0xbbd455f5	-0.0064799734
160	0x3bd4c903	0.006493689
161	0x3bcdfdfa	0.00628638
162	0xbc4a14a8	-0.012334026
163	0x3b9bae24	0.004750984
164	0xbc366c51	-0.011134223
165	0xbb167e1b	-0.0022963348
166	0x3c00edc1	0.007869185
167	0xbbef6caa	-0.007306655
168	0xba3316f5	-0.0006831729
169	0x3b2eb050	0.0026655383
170	0xba1b86fb	-0.00059328944
171	0xbbff878a	-0.00779814
172	0x3c11a187	0.008888609
173	0x3c937fb1	0.018005224
174	0xbb633ecf	-0.0034674888
175	0xbaac761e	-0.001315776
176	0xbba9b7eb	-0.0051793954
177	0xbbfe6865	-0.0077639096
178	0x3bd4fd82	0.006499947
179	0xbad8204b	-0.0016489116
180	0xbc3ec0d9	-0.011642658
181	0xbb405834	-0.0029349448
182	0x3b381330	0.0028087609
183	0xbbc0f12a	-0.005888124
184	0x3b9afd19	0.0047298786
185	0x3bb8ed90	0.005643554
186	0xbc9b77bc	-0.018977992
187	0x3c0a042f	0.008423849
188	0xbbfb44fb	-0.007668135
189	0x382e0a7f	4.1494608e-05
190	0xbbb8c61c	-0.005638851
191	0xbb184bd9	-0.0023238568
192	0x3b257c6b	0.002525116
193	0xbc4e9ac3	-0.01261014
194	0xbc44c3e7	-0.012009597
195	0xbc4b9cdb	-0.012427534
196	0x3ae9065b	0.0017778383
197	0x3bec86cf	0.007218219
198	0xbc150550	-0.009095505
199	0x3be7c3eb	0.007072916
200	0xbab67688	-0.0013920823
201	0x3b7fd6c7	0.003903793
202	0xbac80e64	-0.0015263078
203	0xbbb79afa	-0.0056031914
204	0x3cbcdcff	0.023054598
205	0x3c392593	0.011300462
206	0xbc5f20dd	-0.013618675
207	0x3c40f1e6	0.011776423
208	0xbb0058e4	-0.0019584233
209	0xbb129b39	-0.0022370352
210	0xba1170d6	-0.0005548125
211	0x3cae852d	0.021303738
212	0x3b9a10bb	0.0047017015
213	0xbaf9614b	-0.0019026188
214	0xbc4f6173	-0.012657511
215	0xbc5088a8	-0.012727894
216	0xba88b037	-0.0010428493
217	0x3bd842b5	0.006599749
218	0x3c320c8b	0.010867248
219	0xbc903dc9	-0.017607586
220	0x3c47e958	0.01220163
221	0x3c50e4db	0.012749876
222	0x3befd6df	0.007319316
223	0xbaf4209d	-0.0018625442
224	0x3a42eaff	0.000743553
225	0x3b06eec8	0.0020589102
226	0x3c072d5c	0.008250561
227	0xbc0bef55	-0.008540948
228	0xbb3a8b45	-0.0028464359
229	0xbb496bbb	-0.0030734378
230	0x391357f5	0.00014051779
231	0xba8df582	-0.0010830613
232	0xbb85e749	-0.004086409
233	0xba943277	-0.0011306544
234	0xbc04b1a6	-0.008098995
235	0xbc2cc68b	-0.010545383
236	0xbbd069e0	-0.0063602775
237	0xbb7a0fda	-0.003815642
238	0x3bb39548	0.005480442
239	0x3c3fc291	0.011704103
240	0xbb45ddda	-0.0030192048
241	0xbac17a10	-0.0014761109
242	0x3b9a87d7	0.0047159004
243	0xbbc1a2e0	-0.005909309
244	0x3be32190	0.006931491
245	0xbc09b4a2	-0.008404883
246	0xb990dd9b	-0.0002763093
247	0x3ba5fd50	0.0050655976
248	0xbbe1e757	-0.006894033
249	0x3c25e307	0.010124928
250	0x3c8897c0	0.016673923
251	0x3c2d3055	0.010570605
252	0x3c1c8999	0.00955429
253	0xbb7e10ab	-0.003876726
254	0x3bfea1bf	0.0077707465
255	0xbacd6c65	-0.0015672563

action_model._discrete_distribution.branches.0.bias f4 [2]
0	0x00000000	0.0
1	0x00000000	0.0

network_body.observation_encoder.processors.0.normalizer.running_mean f4 [2]
0	0x3fb44888	1.4084635
1	0x403738e2	2.8628469

network_body.observation_encoder.processors.0.normalizer.running_variance f4 [2]
0	0x44e868b3	1859.2719
1	0x45a8a625	5396.768

network_body.processors.0.normalizer.running_mean f4 [2]
0	0x3fb44888	1.4084635
1	0x403738e2	2.8628469

network_body.processors.0.normalizer.running_variance f4 [2]
0	0x44e868b3	1859.2719
1	0x45a8a625	5396.768

network_body._body_endoder.seq_layers.0.weight f4 [128, 2]
0	0x3f57a2b6	0.8423265
1	0x3e5c7380	0.21528435
2	0xbe23a7c4	-0.15981966
3	0xbd913bad	-0.070914604
4	0xbf563c7c	-0.8368604
5	0x3f98b6db	1.1930803
6	0xbe15df48	-0.14635956
7	0xbdfd8292	-0.1237842
8	0x3e57ecaa	0.21086374
9	0x3eb02d14	0.34409392
10	0x3f2bb2f0	0.6706991
11	0xbf52b889	-0.8231283
12	0x3f0e9ba9	0.5570627
13	0x3e2a5762	0.16634896
14	0xbf1647dc	-0.587034
15	0xbf28769b	-0.6580598
16	0xbdb19f4a	-0.0867296
17	0x3f116eaa	0.56809485
18	0xbe7b527c	-0.24543184
19	0xbea6d452	-0.32583863
20	0x3f3a84ce	0.72858894
21	0xbfb8405d	-1.4394642
22	0x3f51e8bf	0.8199577
23	0xbea4a833	-0.32159576
24	0x3f7e070a	0.9922949
25	0x3f4f070b	0.8087012
26	0x3f13f4d8	0.57795477
27	0x3e4166ea	0.18886915
28	0xbe28c2ba	-0.16480532
29	0xbfab1262	-1.3364985
30	0x3fb69923	1.4265484
31	0xbf94df87	-1.1630715
32	0xbf8dcca0	-1.1078072
33	0x3f279c2c	0.65472674
34	0x3ea67982	0.32514578
35	0x3e8c79ad	0.2743658
36	0xbf3fea36	-0.7496675
37	0xbf8505ae	-1.0392358
38	0x3efaece5	0.4900886
39	0xbee7e0aa	-0.45288593
40	0xbf68e2c6	-0.9097103
41	0x3f15a745	0.5845836
42	0x3e0c6db0	0.13713717
43	0x3f936a7b	1.151687
44	0x3e9b9f7b	0.3039511
45	0x3e82867e	0.25493234
46	0xbebea86c	-0.3723787
47	0xbf4afe06	-0.7929386
48	0x3f7a2b76	0.97722566
49	0x3ef20bfd	0.4727477
50	0xbee128e3	-0.43976507
51	0x3e48f8fd	0.19626231
52	0x3ed3a15f	0.41334054
53	0xbf513488	-0.8172078
54	0x3f0d098a	0.5509268
55	0x3f2e51b6	0.6809343
56	0xbfa47fe4	-1.2851529
57	0x3f63527c	0.88797736
58	0xbfe91ae6	-1.8211334
59	0x3efdbda8	0.4955876
60	0x3daeffcc	0.08544883
61	0x3eddb63c	0.43303096
62	0xbe689b7c	-0.22715563
63	0xbf8c055e	-1.0939138
64	0xbf12b2ef	-0.5730428
65	0xbf77c9f2	-0.9679252
66	0x3e3e4e08	0.18584454
67	0x3eba0db5	0.36338583
68	0xbefc6afc	-0.49300373
69	0xbf141501	-0.5784455
70	0xbf0dbb44	-0.5536387
71	0x3ed9b884	0.42523587
72	0xbeb04716	-0.34429234
73	0x3f94063b	1.1564401
74	0xbfd4ba4e	-1.6619356
75	0xbfab4204	-1.3379521
76	0xbf13b132	-0.57692254
77	0xbf94952c	-1.1608024
78	0xbed4da98	-0.41573024
79	0xbf997929	-1.19901
80	0x3eb0753a	0.34464437
81	0x3f17fea5	0.5937293
82	0x3ea4697f	0.32111737
83	0x3ea7c86f	0.32770106
84	0x3f068399	0.5254455
85	0x3e779e1c	0.24181408
86	0xbe5654bc	-0.20930761
87	0x3ea6e52c	0.3259672
88	0x3f3517d1	0.70739466
89	0xbe518c7a	-0.20463744
90	0x3fa99bc6	1.3250663
91	0xbee535b8	-0.44767547
92	0xbf733bc6	-0.9501308
93	0xbf043a88	-0.5165181
94	0x3ed698f8	0.4191358
95	0xbe9e4d12	-0.30918175
96	0x3c8ab7b0	0.016933292
97	0x3eaa4eea	0.33263332
98	0xbf36f88c	-0.71473
99	0x3ebb8ea5	0.36632267
100	0x3f9e36f8	1.2360525
101	0xbf75149b	-0.95734566
102	0xbe128734	-0.14309388
103	0xbef77a14	-0.48335326
104	0xbf9ab6d8	-1.208705
105	0x3f6c93b0	0.92412853
106	0xbdeaf9bd	-0.11473415
107	0xc005e2a9	-2.0919592
108	0xbff992a0	-1.9497871
109	0x3f45a2e3	0.7720167
110	0x3edee56f	0.4353442
111	0xbec78330	-0.38967276
112	0x3e0d1354	0.13776904
113	0xbdccd893	-0.10002246
114	0xbec79b16	-0.3898551
115	0x3f048c40	0.51776505
116	0xbf6e574b	-0.9310195
117	0x3f118cb4	0.5685532
118	0x3f9684f9	1.175933
119	0xbe66f087	-0.22552691
120	0x3f01abac	0.50652575
121	0xbec1b029	-0.37829712
122	0x3d98929f	0.07449841
123	0xbf881d20	-1.0633888
124	0x3f10054c	0.5625808
125	0xbf2dc988	-0.6788564
126	0x3fa3adde	1.2787435
127	0x3efec7ce	0.49761814
128	0x3e4903e2	0.19630387
129	0xbf813aad	-1.0096031
130	0xbefdaf6c	-0.495479
131	0xbf10dd34	-0.5658753
132	0x3f03f500	0.51545715
133	0x3fb5b558	1.4195967
134	0x3eb23039	0.34802416
135	0x3dfa3513	0.12217154
136	0x3f4322a1	0.76224715
137	0x3ebf19f6	0.37324494
138	0xc008e0d3	-2.1387222
139	0xbf9da535	-1.2316042
140	0xbeb8da3a	-0.36103994
141	0xbf60a4d8	-0.8775153
142	0x3efb6498	0.49100184
143	0xbebae652	-0.36503845
144	0x3e958188	0.29200387
145	0x3f0ab468	0.5418153
146	0x3f45115e	0.76979625
147	0x3f624b11	0.8839579
148	0x3f1478fe	0.5799712
149	0xbebdfa40	-0.37104988
150	0xbfc16065	-1.5107542
151	0x3ee0989f	0.4386644
152	0xbfa283d1	-1.2696477
153	0x3f1570e9	0.5837541
154	0xbeed9ab5	-0.46407095
155	0xbdb35c6c	-0.087578624
156	0x3fda37c8	1.7048273
157	0xbf4fe398	-0.81206656
158	0x3ed78f6f	0.4210162
159	0x3e9495a1	0.29020408
160	0x3f5517d3	0.8323948
161	0xbe95184d	-0.29120103
162	0xbf10194c	-0.562886
163	0x3f120153	0.5703327
164	0xbf10da20	-0.5658283
165	0x3dbe9032	0.09304847
166	0x3f880597	1.0626706
167	0xbe92dceb	-0.28684172
168	0x3e250d25	0.16118295
169	0x3f100d8f	0.5627069
170	0x3f1ce070	0.61279964
171	0x3b42076c	0.0029606475
172	0xbe64a597	-0.22328793
173	0xbefd1e2e	-0.49437088
174	0xbeac6e31	-0.3367782
175	0x3e2ccf92	0.16876057
176	0xbdfeaea4	-0.12435654
177	0x3e8ab5b0	0.27091742
178	0xbec2cafd	-0.38045493
179	0xbf26f38b	-0.6521537
180	0xbeb076b8	-0.34465575
181	0x3dd9d80f	0.10636913
182	0x3ebe88f9	0.37213877
183	0x3f471687	0.7776875
184	0x3e26a7ac	0.16274899
185	0x3f2061ad	0.6264904
186	0x3e51ce8f	0.20488952
187	0x3f05d381	0.52275854
188	0x3f91b1f2	1.138243
189	0x3e034cfa	0.12822333
190	0xbe92e7c2	-0.28692442
191	0x3f073f3e	0.52830875
192	0x3f141c4c	0.5785568
193	0x3e870245	0.2636892
194	0x3f154b5f	0.5831813
195	0x3f559556	0.83430994
196	0xbe9ebfe2	-0.3100577
197	0x3f9bad9c	1.2162356
198	0x3f130b50	0.57439137
199	0xbeaf1c6a	-0.34201366
200	0x3ebc3b7f	0.36764142
201	0x3bc653db	0.006052477
202	0x3f4379b0	0.76357555
203	0xbdd02119	-0.10162563
204	0xbf23c8cf	-0.63978285
205	0xbebbc9de	-0.3667745
206	0xbd87065f	-0.06593012
207	0x3f667f08	0.90037584
208	0x3f119a1c	0.5687578
209	0x3e72692c	0.23672932
210	0xbf0737c7	-0.52819484
211	0xbea5cfe3	-0.32385167
212	0xbf2bb323	-0.67070216
213	0x3e4f0cd8	0.20219743
214	0xbf05148c	-0.5198448
215	0xbf999b87	-1.2000588
216	0xbc9fa117	-0.019485993
217	0x3f0bbe6c	0.54587436
218	0x3f5510a7	0.83228534
219	0xbd065be8	-0.032802492
220	0x3e9405fd	0.2891082
221	0x3ec2a296	0.38014668
222	0x3f15fff6	0.5859369
223	0xbeb8dfbf	-0.36108205
224	0x3ecbfcc3	0.3984128
225	0xbf7840da	-0.96973956
226	0xbfa23e98	-1.2675352
227	0xbf335cda	-0.70063555
228	0x3f59dba5	0.85100776
229	0xbf497e02	-0.787079
230	0xbefb3fbe	-0.4907207
231	0xc000d6a9	-2.0131018
232	0xbf965e78	-1.174758
233	0xbdcb2ec9	-0.09921033
234	0xbf21715b	-0.6306359
235	0xbe7084ae	-0.23488113
236	0x3f6072f9	0.87675434
237	0x3f7cbfa1	0.987299
238	0xbf154bc9	-0.58318764
239	0x3f415db5	0.7553361
240	0x3eb7ded7	0.359122
241	0xbe792a2e	-0.24332497
242	0xbf3f81f9	-0.748077
243	0x3f51ba5d	0.8192499
244	0x3ee5a686	0.4485361
245	0x3f9155aa	1.1354268
246	0x3f0746b2	0.5284225
247	0xbf82b57b	-1.0211633
248	0x3f48cc18	0.7843642
249	0xbf1c857f	-0.611412
250	0x3eb2f955	0.3495585
251	0x3f715235	0.9426606
252	0x3e157827	0.14596616
253	0x3f526ccd	0.82197267
254	0xbe328aa0	-0.17435694
255	0xbf380317	-0.71879715

network_body._body_endoder.seq_layers.0.bias f4 [128]
0	0x00000000	0.0
1	0x00000000	0.0
2	0x00000000	0.0
3	0x00000000	0.0
4	0x00000000	0.0
5	0x00000000	0.0
6	0x00000000	0.0
7	0x00000000	0.0
8	0x00000000	0.0
9	0x00000000	0.0
10	0x00000000	0.0
11	0x00000000	0.0
12	0x00000000	0.0
13	0x00000000	0.0
14	0x00000000	0.0
15	0x00000000	0.0
16	0x00000000	0.0
17	0x00000000	0.0
18	0x00000000	0.0
19	0x00000000	0.0
20	0x00000000	0.0
21	0x00000000	0.0
22	0x00000000	0.0
23	0x00000000	0.0
24	0x00000000	0.0
25	0x00000000	0.0
26	0x00000000	0.0
27	0x00000000	0.0
28	0x00000000	0.0
29	0x00000000	0.0
30	0x00000000	0.0
31	0x00000000	0.0
32	0x00000000	0.0
33	0x00000000	0.0
34	0x00000000	0.0
35	0x00000000	0.0
36	0x00000000	0.0
37	0x00000000	0.0
38	0x00000000	0.0
39	0x00000000	0.0
40	0x00000000	0.0
41	0x00000000	0.0
42	0x00000000	0.0
43	0x00000000	0.0
44	0x00000000	0.0
45	0x00000000	0.0
46	0x00000000	0.0
47	0x00000000	0.0
48	0x00000000	0.0
49	0x00000000	0.0
50	0x00000000	0.0
51	0x00000000	0.0
52	0x00000000	0.0
53	0x00000000	0.0
54	0x00000000	0.0
55	0x00000000	0.0
56	0x00000000	0.0
57	0x00000000	0.0
58	0x00000000	0.0
59	0x00000000	0.0
60	0x00000000	0.0
61	0x00000000	0.0
62	0x00000000	0.0
63	0x00000000	0.0
64	0x00000000	0.0
65	0x00000000	0.0
66	0x00000000	0.0
67	0x00000000	0.0
68	0x00000000	0.0
69	0x00000000	0.0
70	0x00000000	0.0
71	0x00000000	0.0
72	0x00000000	0.0
73	0x00000000	0.0
74	0x00000000	0.0
75	0x00000000	0.0
76	0x00000000	0.0
77	0x00000000	0.0
78	0x00000000	0.0
79	0x00000000	0.0
80	0x00000000	0.0
81	0x00000000	0.0
82	0x00000000	0.0
83	0x00000000	0.0
84	0x00000000	0.0
85	0x00000000	0.0
86	0x00000000	0.0
87	0x00000000	0.0
88	0x00000000	0.0
89	0x00000000	0.0
90	0x00000000	0.0
91	0x00000000	0.0
92	0x00000000	0.0
93	0x00000000	0.0
94	0x00000000	0.0
95	0x00000000	0.0
96	0x00000000	0.0
97	0x00000000	0.0
98	0x00000000	0.0
99	0x00000000	0.0
100	0x00000000	0.0
101	0x00000000	0.0
102	0x00000000	0.0
103	0x00000000	0.0
104	0x00000000	0.0
105	0x00000000	0.0
106	0x00000000	0.0
107	0x00000000	0.0
108	0x00000000	0.0
109	0x00000000	0.0
110	0x00000000	0.0
111	0x00000000	0.0
112	0x00000000	0.0
113	0x00000000	0.0
114	0x00000000	0.0
115	0x00000000	0.0
116	0x00000000	0.0
117	0x00000000	0.0
118	0x00000000	0.0
119	0x00000000	0.0
120	0x00000000	0.0
121	0x00000000	0.0
122	0x00000000	0.0
123	0x00000000	0.0
124	0x00000000	0.0
125	0x00000000	0.0
126	0x00000000	0.0
127	0x00000000	0.0

network_body._body_endoder.seq_layers.2.weight f4 [128, 128]
0	0xbca26ce4	-0.019827314
1	0xbdaed320	-0.08536363
2	0xbe4b09a1	-0.19827892
3	0x3d991fc7	0.07476764
4	0x3d53da4d	0.05172186
5	0xbd2fcb63	-0.042918574
6	0xbd9584c0	-0.07300711
7	0xbba70416	-0.0050969226
8	0xbc9f3070	-0.019432276
9	0xbc2d2da4	-0.010569964
10	0x3cc6e094	0.02427701
11	0x3c40a73c	0.011758622
12	0x3d7a72e0	0.06114471
13	0x3d397a9e	0.045282952
14	0xbbf721e6	-0.007541883
15	0x3c91e9cf	0.017811684
16	0x3d182e2b	0.037153404
17	0x3dc23bf1	0.09484089
18	0xbc2c3c3e	-0.01051241
19	0xbd3c68ed	-0.045998503
20	0xbdcb414c	-0.09924564
21	0x3da02efa	0.0782146
22	0x3de45b8b	0.11150273
23	0x3c08b3ad	0.008343619
24	0x3d64ca94	0.055857256
25	0x3c103196	0.008800885
26	0x3b866e44	0.0041025
27	0x3d5b2eed	0.05351155
28	0x3d9b9429	0.07596619
29	0x3bfa47da	0.00763796
30	0x3dd75304	0.10513881
31	0xbcd6d210	-0.026223212
32	0xbe228fe3	-0.15875201
33	0xbd50467f	-0.05084848
34	0x3d8a4ea8	0.06753284
35	0x3d43cbf4	0.047801927
36	0x3ccca14e	0.02497926
37	0xbe6c63ca	-0.23084942
38	0xbd88022f	-0.066410415
39	0xbcb0ba27	-0.02157314
40	0xbca3d7ef	-0.020000426
41	0xbdd0acd4	-0.10189214
42	0x3dc833e8	0.09775525
43	0x3d773e53	0.06036217
44	0xbc232dbc	-0.009959634
45	0x3d957448	0.072975695
46	0xbe2c63a2	-0.16834882
47	0x3e2eea7a	0.17081633
48	0x3d96de9d	0.07366679
49	0x3c4726ca	0.012155244
50	0x3db32e4e	0.08749066
51	0xbe6df26d	-0.2323701
52	0xbd522d72	-0.05131287
53	0x3c53b9e3	0.012922737
54	0x3e2ff98a	0.17185035
55	0xb97e15ae	-0.00024231404
56	0x3d95f2d8	0.073217094
57	0x3e142a00	0.14469147
58	0xbd3f4da8	-0.04670492
59	0x3e2a1c1b	0.16612284
60	0x3c929107	0.01789142
61	0x3d094319	0.033511255
62	0x3dc36167	0.095400624
63	0x3af0be7f	0.0018367319
64	0x3e3d2cb1	0.1847408
65	0x3d4f6217	0.050630655
66	0xbc8e1c0b	-0.017347356
67	0x3d1985f2	0.037481256
68	0x3e36ae72	0.17839983
69	0x3c64bcc5	0.013961022
70	0x3e45515e	0.1926932
71	0x3d7f4492	0.062321253
72	0xbd7ea75c	-0.062171325
73	0xbd96ff4d	-0.073729135
74	0xbd478035	-0.048706252
75	0x3df23bfa	0.11827846
76	0xbe07a90e	-0.13248083
77	0xbdb8b108	-0.09018141
78	0xbd7a5e5e	-0.06112515
79	0xbd9d4434	-0.07679024
80	0x3dddadf0	0.108241916
81	0x3e31ddfc	0.17369837
82	0x3cb2bd27	0.02181871
83	0x3dcc0c42	0.099632755
84	0xbe307c72	-0.17234972
85	0x3d4c89a2	0.049935944
86	0x3d84a952	0.06477608
87	0xbdf4f3cd	-0.11960564
88	0x3e3b9b7b	0.1832103
89	0x3c6dc4eb	0.014512281
90	0x3da718e2	0.08159043
91	0x3d91f0dd	0.07126019
92	0x3ca4c4ef	0.020113437
93	0xbd781446	-0.06056621
94	0xbde2ec84	-0.11080268
95	0xbd245a25	-0.04012503
96	0xbd88e37d	-0.06684015
97	0x3dca1f77	0.09869283
98	0x3dd1cfd2	0.10244717
99	0xbd9e5e9b	-0.07732888
100	0xbda0d103	-0.07852366
101	0x3dfcc105	0.12341503
102	0xbd843578	-0.06455511
103	0xbe284777	-0.16433512
104	0x3d1f2205	0.038850803
105	0x3d8c0537	0.06836932
106	0xbda4b61c	-0.08042547
107	0xbd2849a2	-0.041085847
108	0x39cbc457	0.00038865462
109	0xbbde66a8	-0.00678714
110	0x3c822ae5	0.015889594
111	0x3c4657b9	0.012105876
112	0xbba61175	-0.005067999
113	0x3def420b	0.116825186
114	0xbd6034f9	-0.05473802
115	0x3dc3853b	0.09546896
116	0x3d69cf9f	0.05708277
117	0xbdaa54c6	-0.083169505
118	0x3e59a084	0.21252638
119	0xbdfac00c	-0.12243661
120	0x3d375b5b	0.044764858
121	0x3c9f1ee5	0.019423911
122	0xbde9f0df	-0.11422896
123	0xbd511130	-0.051041782
124	0x3bf1642a	0.007366677
125	0xbe326bcf	-0.17423938
126	0x3df54bed	0.11977372
127	0x3d8152cc	0.063146204
128	0x3ca73337	0.020410163
129	0xbc85a4ab	-0.016313871
130	0xbe803e2c	-0.25047433
131	0x3e57bb59	0.21067561
132	0x3d277686	0.040884517
133	0x3e36fcc2	0.17869857
134	0x3df6fdff	0.12060165
135	0xbccc1d4d	-0.024916315
136	0xbced15c1	-0.028941037
137	0xbc7b107a	-0.015323753
138	0x3cb14699	0.021640109
139	0xbcbc2953	-0.022968924
140	0xbb9b9752	-0.0047482634
141	0xbd5b1981	-0.05349112
142	0xbded39f7	-0.115833215
143	0xbe475be7	-0.19468652
144	0x3cbbdb31	0.022931667
145	0xbd5ee95a	-0.05442176
146	0x3ddd4ccc	0.108056635
147	0xbe3a4d48	-0.18193543
148	0xbdc125f3	-0.09431066
149	0xbe184654	-0.14870578
150	0xbc12ada9	-0.008952537
151	0x3c4dcfbe	0.012561737
152	0x3c273d0f	0.010207429
153	0xbdc6254c	-0.096750826
154	0x3db7bfa7	0.08972102
155	0xbd4b8314	-0.049685553
156	0x3ca1bc4f	0.019743113
157	0x3d3cc810	0.046089232
158	0x3c5b3841	0.013380111
159	0x3d9317a7	0.07182246
160	0x3d0579fd	0.03258704
161	0x3d5ac34e	0.053408913
162	0x3ce93827	0.028469158
163	0xbca4196e	-0.020031657
164	0x3e764175	0.24048407
165	0xbdd74185	-0.10510544
166	0xbdc5afad	-0.09652648
167	0xbdbb0b9e	-0.09133075
168	0x3ad8ad5b	0.0016531156
169	0x3b22dd13	0.0024851009
170	0xbd73ba4a	-0.05950383
171	0x3c902b78	0.017598853
172	0x3d13bfc5	0.036071558
173	0x3d817de8	0.06322843
174	0xbab6a76b	-0.0013935392
175	0x3c8da6ba	0.017291415
176	0x3de75ca2	0.11296965
177	0x3daf53bb	0.08560892
178	0xbd2f412d	-0.042786766
179	0xbd8ae038	-0.067810476
180	0x3dec7733	0.11546173
181	0xbd0c1677	-0.03420111
182	0xbd7579bd	-0.05993055
183	0xbd792f40	-0.060836077
184	0x3dba6218	0.09100741
185	0x3d92375f	0.071394674
186	0xbdb0ffbd	-0.08642528
187	0x3e2cc094	0.16870338
188	0x3e58f271	0.21186234
189	0x3d41860d	0.04724698
190	0x3d4c2a2c	0.049844906
191	0x3db930ee	0.09042536
192	0x3cc91dcb	0.02455034
193	0x3dc2ba2c	0.09508166
194	0x3d64245a	0.05569873
195	0x3deb223e	0.114811406
196	0x3e24da0a	0.160988
197	0x3b32bc18	0.0027272757
198	0xbdb55c6d	-0.088555194
199	0xbd2c5344	-0.042071596
200	0x3d408b41	0.047007803
201	0xbdf03c18	-0.11730212
202	0x3e3acc07	0.18241893
203	0xbe339199	-0.1753601
204	0xbd887c61	-0.066643484
205	0xbc7228a0	-0.014780194
206	0xbd9187f3	-0.071060084
207	0xbc9bef5d	-0.019035036
208	0xbe12630c	-0.14295596
209	0xbe0b7800	-0.13619995
210	0x3e6fc469	0.23414768
211	0xbdc98161	-0.0983913
212	0xbdff86b8	-0.124768674
213	0x3dca10d9	0.09866495
214	0x3d175441	0.036945585
215	0x3e0cf552	0.13765457
216	0xbcad7965	-0.02117605
217	0x3c6b2323	0.014351639
218	0xbd2bba11	-0.041925494
219	0x3e5d0bb7	0.215865
220	0x3e07031b	0.13184778
221	0xbd7b6450	-0.061374962
222	0xbdcec38d	-0.10095892
223	0xbe579231	-0.21051861
224	0x3d6681b2	0.05627603
225	0x3d8a8be9	0.06764967
226	0x3da2470e	0.07923709
227	0x3d956ac4	0.072957546
228	0xbd12ba04	-0.03582193
229	0x3e5353b0	0.20637393
230	0xbcad3a08	-0.021145836
231	0x3dd9ae7a	0.10628982
232	0x3debd2c2	0.11514808
233	0x3db64892	0.089005604
234	0x3ce65bf7	0.028120024
235	0x3dee7b1b	0.11644574
236	0x3d87118f	0.06595146
237	0xbd037389	-0.032092605
238	0x3b67bb90	0.0035359599
239	0xbd6b2c27	-0.057415154
240	0xbe12e33f	-0.143445
241	0xbd93bb55	-0.07213465
242	0xbdb3ff15	-0.087888874
243	0xbe206256	-0.15662512
244	0xbe02709b	-0.12738268
245	0xbd9ca35d	-0.076483466
246	0xbc4d0648	-0.012513705
247	0x3e023eb6	0.12719235
248	0x3cd238eb	0.025661906
249	0x3d458690	0.048224032
250	0x3dae6d86	0.08516984
251	0x3a8e1a7f	0.0010841637
252	0x3dd25cf8	0.10271639
253	0xbe06f4fc	-0.13179392
254	0xbc868579	-0.016421067
255	0xbb84d9d7	-0.004054289

network_body._body_endoder.seq_layers.2.bias f4 [128]
0	0x00000000	0.0
1	0x00000000	0.0
2	0x00000000	0.0
3	0x00000000	0.0
4	0x00000000	0.0
5	0x00000000	0.0
6	0x00000000	0.0
7	0x00000000	0.0
8	0x00000000	0.0
9	0x00000000	0.0
10	0x00000000	0.0
11	0x00000000	0.0
12	0x00000000	0.0
13	0x00000000	0.0
14	0x00000000	0.0
15	0x00000000	0.0
16	0x00000000	0.0
17	0x00000000	0.0
18	0x00000000	0.0
19	0x00000000	0.0
20	0x00000000	0.0
21	0x00000000	0.0
22	0x00000000	0.0
23	0x00000000	0.0
24	0x00000000	0.0
25	0x00000000	0.0
26	0x00000000	0.0
27	0x00000000	0.0
28	0x00000000	0.0
29	0x00000000	0.0
30	0x00000000	0.0
31	0x00000000	0.0
32	0x00000000	0.0
33	0x00000000	0.0
34	0x00000000	0.0
35	0x00000000	0.0
36	0x00000000	0.0
37	0x00000000	0.0
38	0x00000000	0.0
39	0x00000000	0.0
40	0x00000000	0.0
41	0x00000000	0.0
42	0x00000000	0.0
43	0x00000000	0.0
44	0x00000000	0.0
45	0x00000000	0.0
46	0x00000000	0.0
47	0x00000000	0.0
48	0x00000000	0.0
49	0x00000000	0.0
50	0x00000000	0.0
51	0x00000000	0.0
52	0x00000000	0.0
53	0x00000000	0.0
54	0x00000000	0.0
55	0x00000000	0.0
56	0x00000000	0.0
57	0x00000000	0.0
58	0x00000000	0.0
59	0x00000000	0.0
60	0x00000000	0.0
61	0x00000000	0.0
62	0x00000000	0.0
63	0x00000000	0.0
64	0x00000000	0.0
65	0x00000000	0.0
66	0x00000000	0.0
67	0x00000000	0.0
68	0x00000000	0.0
69	0x00000000	0.0
70	0x00000000	0.0
71	0x00000000	0.0
72	0x00000000	0.0
73	0x00000000	0.0
74	0x00000000	0.0
75	0x00000000	0.0
76	0x00000000	0.0
77	0x00000000	0.0
78	0x00000000	0.0
79	0x00000000	0.0
80	0x00000000	0.0
81	0x00000000	0.0
82	0x00000000	0.0
83	0x00000000	0.0
84	0x00000000	0.0
85	0x00000000	0.0
86	0x00000000	0.0
87	0x00000000	0.0
88	0x00000000	0.0
89	0x00000000	0.0
90	0x00000000	0.0
91	0x00000000	0.0
92	0x00000000	0.0
93	0x00000000	0.0
94	0x00000000	0.0
95	0x00000000	0.0
96	0x00000000	0.0
97	0x00000000	0.0
98	0x00000000	0.0
99	0x00000000	0.0
100	0x00000000	0.0
101	0x00000000	0.0
102	0x00000000	0.0
103	0x00000000	0.0
104	0x00000000	0.0
105	0x00000000	0.0
106	0x00000000	0.0
107	0x00000000	0.0
108	0x00000000	0.0
109	0x00000000	0.0
110	0x00000000	0.0
111	0x00000000	0.0
112	0x00000000	0.0
113	0x00000000	0.0
114	0x00000000	0.0
115	0x00000000	0.0
116	0x00000000	0.0
117	0x00000000	0.0
118	0x00000000	0.0
119	0x00000000	0.0
120	0x00000000	0.0
121	0x00000000	0.0
122	0x00000000	0.0
123	0x00000000	0.0
124	0x00000000	0.0
125	0x00000000	0.0
126	0x00000000	0.0
127	0x00000000	0.0

value_heads.value_heads.extrinsic.weight f4 [1, 128]
0	0x3e2bb1c8	0.16767037
1	0x3d9cbc28	0.076530755
2	0xbe4a7918	-0.19772756
3	0x3b2aa2c0	0.0026036948
4	0x3e2c0e3c	0.16802305
5	0x3bc794a0	0.0060907155
6	0x3e03c1a0	0.12866831
7	0x3e1dceb4	0.15410882
8	0x3dd9bbdc	0.106315345
9	0xbbbf70e0	-0.005842313
10	0xbe34b238	-0.1764611
11	0x3dcae5f8	0.09907144
12	0x3d4d8580	0.050176144
13	0x3d06e778	0.03293559
14	0xbbaffac0	-0.005370468
15	0xbe17f068	-0.14837801
16	0xbe392d07	-0.18083583
17	0xbd300cec	-0.042981073
18	0xbd676848	-0.056495935
19	0xbdfe0e50	-0.12405074
20	0xbdecefcd	-0.11569176
21	0xbdab1254	-0.08353105
22	0x3e0cc39a	0.13746491
23	0x3da8d908	0.082445204
24	0xbd0b0c4c	-0.033947274
25	0x3e001d04	0.12511069
26	0xbd9e663c	-0.077343434
27	0xbd9acb92	-0.07558359
28	0x3da62894	0.081132084
29	0x3e37a7c8	0.17935097
30	0x3e148efc	0.14507669
31	0x3e4887c0	0.19583035
32	0xbe19d1d2	-0.15021446
33	0x3e25fe4e	0.16210291
34	0x3c51ca00	0.012804508
35	0x3d0c4558	0.03424582
36	0x3db850c0	0.08999777
37	0xbc56c590	-0.013108626
38	0x3e0bb0a6	0.13641605
39	0xbe2b10e1	-0.16705658
40	0xbcbb4570	-0.022860259
41	0x3e212580	0.15736961
42	0xbe12da7d	-0.14341159
43	0x3de3bf54	0.11120477
44	0xbe2912ac	-0.16511029
45	0x3e50c8b2	0.20389059
46	0xbe1b6513	-0.15175276
47	0xbc1ab1f0	-0.009441838
48	0x3e5bcc88	0.21464741
49	0xbe3a5a52	-0.18198517
50	0x3e58403c	0.21118253
51	0x3e2b20be	0.16711709
52	0x3dfe3444	0.124123126
53	0xbd808d90	-0.06277001
54	0xbdffa161	-0.124819525
55	0xbdfbdee1	-0.1229837
56	0xbe4b9bf2	-0.19883707
57	0xbdd6401e	-0.10461448
58	0x3d136208	0.03598216
59	0xbd6ebbfc	-0.058284745
60	0xbe46a1cc	-0.19397658
61	0xbe05d35b	-0.13068907
62	0x3dfa1890	0.12211716
63	0xbbb52660	-0.0055282563
64	0xbe37b78a	-0.17941108
65	0xbc112600	-0.008859158
66	0xbd97995e	-0.07402299
67	0xbe1f3df5	-0.15550978
68	0x3c9d7f48	0.019225731
69	0x3d46a248	0.048494607
70	0xbe08a97b	-0.13345902
71	0xbdb5f4e6	-0.08884601
72	0x3df29994	0.11845699
73	0x3b7583c0	0.0037462562
74	0x3cd06b58	0.02544181
75	0xbda5d62e	-0.08097492
76	0x3b153240	0.0022765547
77	0x3e271a8c	0.1631872
78	0x3e02d4e8	0.1277653
79	0xbe3fc6f6	-0.18728241
80	0x3e17c442	0.1482096
81	0xbd26db9c	-0.04073678
82	0xbe08e8b1	-0.13370015
83	0xbe20f10d	-0.15716954
84	0x3cda63f0	0.026658982
85	0xbdcc8722	-0.09986712
86	0x3e1ab3d0	0.15107656
87	0xbd3cf980	-0.04613638
88	0x3e062974	0.1310175
89	0x3dc67d68	0.09691888
90	0xbe2270a5	-0.15863283
91	0x3dc1603c	0.094421834
92	0x3d484f70	0.048903883
93	0xbe50adcb	-0.20378797
94	0xbdb54736	-0.08851473
95	0x3d95ec44	0.07320455
96	0xbe165538	-0.14680946
97	0x3e144d1c	0.1448254
98	0x3cdd10c8	0.026985541
99	0x3ddf8374	0.109137446
100	0xbd2160bc	-0.039398894
101	0x3d831950	0.06401312
102	0xbe1132aa	-0.14179483
103	0xbe510e4c	-0.2041561
104	0xbd3ab9c0	-0.0455873
105	0xbddae2b5	-0.10687772
106	0xbdc8cd42	-0.09804775
107	0xbe021d48	-0.12706482
108	0xbe1cef62	-0.15325692
109	0xbe556624	-0.20839745
110	0x3db34014	0.08752456
111	0xbb68eb40	-0.003554061
112	0xbe00f48f	-0.12593292
113	0xbe4bd6fa	-0.19906226
114	0xbe03ab7e	-0.12858388
115	0x3d87d388	0.06632143
116	0xbd35ae68	-0.04435578
117	0xbe0b118d	-0.13580914
118	0x3da3a144	0.07989743
119	0x3e5496bc	0.20760626
120	0xbd82b602	-0.063823715
121	0x3dfbce80	0.12295246
122	0xbe3eed20	-0.18645144
123	0xbe52b65b	-0.20577376
124	0xbe32551f	-0.17415284
125	0xbc018a00	-0.007906437
126	0xbd4bef00	-0.049788475
127	0xbe448cee	-0.19194385
