results/flappy_train/FlappyBirdAgent/checkpoint.pt (torch, 428727 bytes, 41 tensors)

network_body.observation_encoder.processors.0.normalizer.running_mean f4 [2]
1.1701665 0.8506094
00000000: 04c8 953f 8ac1 593f

network_body.observation_encoder.processors.0.normalizer.running_variance f4 [2]
66282.95 379623.25
00000000: 7a75 8147 e85c b948

network_body.processors.0.normalizer.running_mean f4 [2]
1.1701665 0.8506094
00000000: 04c8 953f 8ac1 593f

network_body.processors.0.normalizer.running_variance f4 [2]
66282.95 379623.25
00000000: 7a75 8147 e85c b948

network_body._body_endoder.seq_layers.0.weight f4 [128, 2]
0.5146484 1.9194554 0.9540332 -1.0459111 0.05806457 1.7116624 0.7281269 0.2807343
0.9241052 0.16951962 -0.5283891 -0.20854123 -0.26602784 0.059777323 -0.86133033 0.24303961
0.552745 1.1174781 1.1396389 0.08936156 -0.53621113 -0.7815262 0.30911702 0.2650874
0.53820366 1.4262298 0.097666 0.73711723 -0.23288776 1.3169588 -0.7562358 0.22857822
0.816835 0.45075142 -0.2767972 0.42368928 -0.63012713 -0.27327687 -0.7134518 -0.5379276
-0.7552778 -0.66910607 0.3117025 0.13467841 1.0813458 0.56417966 -0.2877143 -0.9950932
-0.18369983 0.940089 0.72650087 0.2705514 0.50251216 0.56996334 -1.5051405 -1.2909641
0.5760928 -0.20350195 -0.3052604 0.2917102 0.24988054 1.1327221 -0.60766345 0.24951005
-0.42087358 0.95429313 0.81126726 -0.47582817 -1.5261424 -0.90806323 0.4473224 -0.23767428
-0.19084479 0.8807459 -0.31065613 0.53606486 0.6939361 -1.7410457 -0.15187867 -1.688958
-0.6098252 0.5010639 0.6906317 -0.21071407 0.46736062 -0.34374124 1.081019 -0.17055917
1.7673277 1.7186968 0.041223813 -0.50426215 0.12535891 -0.07994117 0.020992134 -0.015785245
0.52035934 -0.029985141 -0.045588598 0.9274231 -0.6304835 0.13370058 -0.33424076 0.18073912
-0.2803545 0.57751006 -0.5149193 0.0422353 0.6428561 -0.38987222 -0.6089324 0.26896816
-1.7417927 0.9226286 -0.57336307 -1.3731165 -0.94435287 -0.42222065 -1.4316143 -0.24683471
0.97640437 -0.054899137 -1.5985106 -0.21416005 -0.8153127 0.5932201 1.7580241 -0.6751967
-0.11219276 0.26030755 0.68942297 -1.2432603 0.3220488 1.3686275 -0.24338128 1.1645294
1.288829 0.26404294 1.2680782 -0.7480661 0.6239128 -0.8362298 -0.9937273 0.54814404
-0.5503003 0.24456806 0.22504541 0.2580146 0.7892763 0.41872534 0.1651492 -1.1321224
-0.7459887 -0.035569604 -0.6058568 -0.21420397 -0.46225312 0.97590756 -1.1289315 -0.1257742
-0.036250886 0.6482594 -0.24791609 0.3098356 -0.81370133 -0.34627116 -0.19787298 0.7933829
-0.56243354 -1.3532145 -0.44696355 -0.5305495 0.97887725 -0.16084754 -0.5726134 0.2953405
0.97802395 -0.22196504 -0.39096084 0.3962898 -0.72084403 -1.796965 -0.8054046 0.83185637
0.91975653 1.0843714 -0.57523525 0.39589122 1.0163537 0.39450407 -0.42861685 -0.033221487
0.028334806 0.8768161 -0.4453179 0.8560358 -0.49747196 -0.012267783 -0.23829502 0.98181176
-0.39163944 0.16608164 0.033756964 -0.31437615 -0.4506127 -0.0630205 -0.94593775 -0.7718931
0.16667052 0.79814786 -1.0567828 0.43551457 0.33698118 -0.1334178 0.9375036 -0.115597345
-0.55332786 0.46234846 0.3512479 0.27252167 0.4088117 0.23349614 0.036827933 0.7282404
0.24096368 0.046032276 0.25203246 -1.5707555 1.4816593 0.79372877 0.08527951 -0.24061196
1.0822811 0.9408901 0.8427587 -0.5271568 -0.34696636 1.2496305 0.4801893 -0.106579565
0.23704503 0.35224023 0.011320112 0.1680704 0.021726277 -0.07310253 0.81411946 -0.9605941
-0.07719915 1.3720583 -0.017070722 0.6377794 0.8544425 -0.8026882 0.56295455 0.2337778
00000000: ffbf 033f b7b0 f53f 853b 743f 6ae0 85bf
00000010: 1dd5 6d3d c117 db3f 8666 3a3f 68bc 8f3e
00000020: 2992 6c3f 8d96 2d3e 8244 07bf d58b 55be
00000030: cd34 88be 11d9 743d 2580 5cbf 60df 783e
00000040: b280 0d3f 8609 8f3f b0df 913f 3203 b73d
00000050: 2245 09bf 1a12 48bf 9644 9e3e 89b9 873e
00000060: b7c7 093f b38e b63f 1d05 c83d b7b3 3c3f
00000070: 217a 6ebe 1b92 a83f ab98 41bf 6910 6a3e
00000080: 191c 513f e4c8 e63e 5db8 8dbe cded d83e
00000090: 0350 21bf f2ea 8bbe c7a4 36bf a0b5 09bf
000000a0: e359 41bf 894a 2bbf 7897 9f3e 23e9 093e
000000b0: 8a69 8a3f 146e 103f 4a4f 93be 6ebe 7ebf
000000c0: cf1b 3cbe aca9 703f f6fb 393f b785 8a3e
000000d0: a3a4 003f 1ee9 113f 72a8 c0bf 503e a5bf
000000e0: d17a 133f d162 50be 174b 9cbe 0a5b 953e
000000f0: afe0 7f3e 0afd 903f d58f 1bbf 907f 7f3e
00000100: be7c d7be 8e4c 743f 36af 4f3f c09f f3be
00000110: a258 c3bf d576 68bf 7107 e53e e360 73be
00000120: d16c 43be 9078 613f 520e 9fbe 8c3b 093f
00000130: cca5 313f 96da debf 1586 1bbe c72f d8bf
00000140: 811d 1cbf b945 003f 3dcd 303f 6ec5 57be
00000150: e449 ef3e dafe afbe d55e 8a3f 10a7 2ebe
00000160: cb37 e23f 42fe db3f 4dda 283d 5317 01bf
00000170: 165e 003e 32b8 a3bd b2f7 ab3c 0f50 81bc
00000180: 4536 053f 66a3 f5bc 1cbb 3abd 9a6b 6d3f
00000190: 5e67 21bf cee8 083e 9b21 abbe ad13 393e
000001a0: a08a 8fbe b3d7 133f c0d1 03bf ecfe 2c3d
000001b0: 3892 243f 559d c7be fee2 1bbf 32b6 893e
000001c0: 10f3 debf 6331 6c3f ecc7 12bf 48c2 afbf
000001d0: 1cc1 71bf 4e2d d8be 233f b7bf 3dc2 7cbe
000001e0: a3f5 793f ebdd 60bd ff9b ccbf c64c 5bbe
000001f0: 55b8 50bf 46dd 173f ef06 e13f b1d9 2cbf
00000200: 51c5 e5bd 0847 853e 067e 303f 2723 9fbf
00000210: 95e3 a43e 302f af3f f138 79be 4d0f 953f
00000220: 59f8 a43f a330 873e 6350 a23f 4381 3fbf
00000230: c0b8 1f3f 2813 56bf ea64 7ebf 2b53 0c3f
00000240: 7be0 0cbf 0d70 7a3e 4e72 663e 7d1a 843e
00000250: 030e 4a3f 2b63 d63e df1c 293e 63e9 90bf
00000260: 1ef9 3ebf 6fb1 11bd 6e19 1bbf 4958 5bbe
00000270: 71ac ecbe 14d5 793f d480 90bf f4ca 00be
00000280: cf7b 14bd 54f4 253f b7dd 7dbe c6a2 9e3e
00000290: bb4e 50bf 744a b1be 379f 4abe 241b 4b3f
000002a0: a5fb 0fbf 2236 adbf 68d8 e4be 18d2 07bf
000002b0: b397 7a3f 38b5 24be cb96 12bf df36 973e
000002c0: c75f 7a3f ce4a 63be 052c c8be 7fe6 ca3e
000002d0: 3c89 38bf f302 e6bf ff2e 4ebf 8af4 543f
000002e0: 2a75 6b3f afcc 8a3f 9e42 13bf 41b2 ca3e
000002f0: e117 823f 70fc c93e ab73 dbbe 4113 08bd
00000300: 651e e83c 0577 603f b500 e4be 2a25 5b3f
00000310: a5b4 febe d0fe 48bc 9c03 74be 0458 7b3f
00000320: f784 c8be 4e11 2a3e be44 0a3d e9f5 a0be
00000330: b5b6 e6be e410 81bd fa28 72bf c99a 45bf
00000340: adab 2a3e 6b53 4c3f a944 87bf c4fb de3e
00000350: cc88 ac3e ad9e 08be 3c00 703f 4dbe ecbd
00000360: e5a6 0dbf f0b8 ec3e c4d6 b33e f687 8b3e
00000370: c44f d13e 9d19 6f3e e3d8 163d f66d 3a3f
00000380: 2fbf 763e 578c 3c3d 660a 813e 840e c9bf
00000390: 03a7 bd3f cf31 4b3f 06a7 ae3d fb62 76be
000003a0: 3088 8a3f 2cde 703f 09bf 573f bff3 06bf
000003b0: 93a5 b1be e4f3 9f3f 5fdb f53e 6346 dabd
000003c0: efbb 723e d558 b43e fe77 393c a61a 2c3e
000003d0: 4efb b13c c7b6 95bd 226a 503f 7fe9 75bf
000003e0: 971a 9ebd 9b9f af3f e6d7 8bbc 8345 233f
000003f0: bebc 5a3f f97c 4dbf ca1d 103f 7363 6f3e

network_body._body_endoder.seq_layers.0.bias f4 [128]
0.041514385 0.075519346 0.07980712 0.12963496 0.13201396 -0.05565021 0.12417956 0.076998
0.110187046 0.042758908 0.14159343 -0.118508704 -0.073164634 0.003253235 0.08590017 0.037099205
0.00047042317 0.113303185 0.10916161 0.04640514 0.07033862 0.14561038 0.055716664 -0.045244303
-0.12401047 -0.047868174 -0.08802415 0.006988404 0.01486154 0.076007724 -0.10146442 0.085674524
0.034193397 0.15458833 0.10061383 0.12045226 -0.0006916587 -0.110713124 0.15535463 0.13039137
0.05066691 0.14019127 0.12028549 0.15030186 0.05705192 0.10847277 0.16831069 0.16653289
0.15489694 0.014230584 0.09242968 0.05597835 0.09355999 0.10840925 -0.03169112 0.08310503
0.09505851 -0.039158482 0.11632073 0.09769418 -0.038466692 0.09970381 0.070491284 0.11840244
0.09567822 0.108931586 -0.0099942675 -0.092040986 0.16205929 0.14397645 0.06936618 0.11258364
0.08521007 -0.14864844 0.112581626 0.026862489 0.012062728 -0.003497931 0.103599 0.11052325
0.039374843 0.118520185 0.102347605 -0.13430624 0.07124919 0.01941076 0.12436667 0.020737544
0.13884376 0.12587634 0.11212961 0.11117106 -0.049034182 0.12556557 0.09109701 -0.10752855
-0.124782324 0.10516513 0.079343066 -0.15200885 0.07939445 0.15139376 -0.0007438074 0.07167364
0.050334405 0.10295943 0.08511142 0.096003436 0.09805333 -0.13501124 0.095748395 -0.1599716
0.16061386 0.16655582 0.12890665 -0.10249882 0.097463444 0.13956217 -0.015885618 0.13171808
0.05692847 -0.1093472 0.14713603 0.1344641 0.02115401 -0.10706298 0.12175283 -0.034747098
00000000: fd0a 2a3d e3a9 9a3d ea71 a33d 07bf 043e
00000010: ab2e 073e 79f1 63bd da51 fe3d 21b1 9d3d
00000020: bfa9 e13d f723 2f3d defd 103e b1b4 f2bd
00000030: 57d7 95bd 3a34 553b 6eec af3d 56f5 173d
00000040: 21a3 f639 800b e83d 1f90 df3d 5113 3e3d
00000050: b20d 903d e31a 153e 2837 643d 1752 39bd
00000060: 34f9 fdbd 6b11 44bd 0146 b4bd fbfe e43b
00000070: d17d 733c f0a9 9b3d 94cc cfbd 2076 af3d
00000080: 600e 0c3d 674c 1e3e a00e ce3d adaf f63d
00000090: 6e50 35ba 90bd e2bd 4915 1f3e 5185 053e
000000a0: 1b88 4f3d 4d8e 0f3e 3d58 f63d bbe8 193e
000000b0: 46af 693d f926 de3d a359 2c3e 9987 2a3e
000000c0: 4e9d 1e3e 6527 693c c64b bd3d 8e49 653d
000000d0: 619c bf3d ab05 de3d 8cce 01bd f832 aa3d
000000e0: 09ae c23d a564 20bd 9039 ee3d e313 c83d
000000f0: 408f 1dbd 8331 cc3d bc5d 903d fa7c f23d
00000100: f1f2 c33d 8617 df3d ffbe 23bc fc7f bcbd
00000110: dff2 253e 906e 133e db0f 8e3d 4092 e63d
00000120: 9e82 ae3d 4c37 18be 3291 e63d b90e dc3c
00000130: c0a2 453c 8b3d 65bb b62b d43d 045a e23d
00000140: 8447 213d b6ba f23d 9f9b d13d 9387 09be
00000150: 18eb 913d 5003 9f3c f4b3 fe3d c8e1 a93c
00000160: 0f2d 0e3e bae5 003e 35a4 e53d a7ad e33d
00000170: 11d8 48bd 4394 003e 1291 ba3d ee37 dcbd
00000180: e08d ffbd d160 d73d 9e7e a23d 35a8 1bbe
00000190: 8f99 a23d f706 1b3e 12fc 42ba a1c9 923d
000001a0: 732b 4e3d 65dc d23d e54e ae3d 739d c43d
000001b0: 2fd0 c83d 6340 0abe bc17 c43d 98cf 23be
000001c0: f677 243e 9c8d 2a3e 1b00 043e e7ea d1bd
000001d0: ea9a c73d 63e9 0e3e 8e22 82bc 1be1 063e
000001e0: d42d 693d 6df1 dfbd d4aa 163e f5b0 093e
000001f0: 2d4b ad3c d643 dbbd 8c59 f93d f952 0ebd

network_body._body_endoder.seq_layers.2.weight f4 [128, 128]
-0.10541236 -0.14212781 0.058777343 -0.23537044 0.15767479 -0.01249894 -0.083549276 -0.025919573
-0.06458608 -0.036289535 -0.104146264 0.021208975 -0.030473135 0.1251413 -0.006387078 -0.039081324
0.059238102 0.027096078 -0.02126212 0.002638992 -0.0006415733 -0.08254387 0.066546686 -0.086581245
-0.009947386 0.0035962309 -0.16081408 -0.12081687 -0.034269195 -0.07351625 0.04047534 -0.12555191
-0.13821965 -0.05618771 -0.07730648 -0.060348663 -0.13817908 0.106032975 0.011142049 -0.12289682
0.09729576 -0.060496524 -0.18871658 -0.004320914 -0.07597202 -0.04702893 -0.049839873 0.07728956
-0.043110806 -0.11703594 -0.062261302 -0.00913464 0.041961506 0.0107026305 0.0056120153 -0.02574609
0.034592863 -0.1463056 -0.1817986 -0.19074084 0.14456825 -0.021269044 0.0417515 -0.0544737
0.008492534 0.09237979 -0.10897977 -0.0959101 -0.03959269 -0.06297802 -0.027622357 0.11902177
-0.0072920574 -0.023207065 0.05126305 0.07435876 0.07349146 0.0029179354 0.038920086 -0.20400731
-0.1450185 0.07467455 0.0028695508 -0.07333436 -0.12992015 -0.060555026 -0.10872245 -0.026895227
-0.048386935 -0.02573202 -0.1538979 -0.15220119 -0.043052595 0.02670045 -0.10246075 -0.10185951
-0.08165625 -0.030104103 -0.10355378 -0.011835197 -0.079373226 -0.1296353 -0.22041702 0.054247763
-0.07464362 -0.10918918 -0.031272803 -0.09091414 -0.012059212 -0.06186387 0.023538306 0.064662926
-0.007774429 -0.020162113 -0.011431269 0.05316817 -0.062464062 -0.1854451 -0.08676996 0.04035201
-0.04854121 0.17883085 -0.28478467 -0.16081135 -0.14511788 0.09804907 -0.14950198 0.19343045
0.12001383 -0.0402022 -0.08063022 -0.065702185 0.16633949 0.22268742 -0.112982355 -0.043412734
-0.02259935 -0.016965324 0.054938152 -0.09307299 0.08457257 -0.014334527 0.15815096 -0.078252144
-0.074392416 -0.01635341 -0.012839109 0.107127205 -0.04270965 -0.01745154 0.09039004 0.09498668
0.087003484 0.025066512 -0.041807782 -0.04337183 -0.024663515 -0.20835547 0.082516745 0.076977886
0.12758555 -0.12914626 0.07849214 -0.008645687 -0.03768851 -0.12764953 0.01785742 -0.05072896
0.03068464 -0.0730987 0.17858188 -0.13731419 -0.13885336 0.2005836 -0.04417746 -0.18539028
0.0034833348 0.15862037 -0.030958207 -0.009808133 -0.09679714 0.13798545 0.18919036 0.160552
0.030702146 0.208208 0.16525258 -0.10175118 0.18332927 0.09033376 0.16136295 -0.023719665
0.023304548 -0.005204715 0.04415005 -0.072245166 -0.11274113 -0.030273093 -0.09615004 -0.008157572
-0.061823208 0.030742303 -0.05796296 0.054230325 0.030273464 0.085739635 -0.018976988 0.0017409446
-0.004425807 -0.065544695 0.045520835 -0.06793127 0.14265835 0.17190278 0.026795257 -0.0045484295
0.07191979 0.12400808 0.018977808 -0.105575144 -0.08406094 0.13327335 -0.09272575 -0.014377294
0.06925089 -0.10446522 0.16417919 0.014078931 -0.0070595224 0.06377913 -0.055683125 -0.13603646
0.08943242 -0.16295886 -0.03030919 0.030027624 -0.019459909 0.04429273 -0.02450738 0.052684728
-0.13605314 0.01845923 0.016696936 0.02613104 0.08637668 -0.051954947 0.11675332 -0.070938386
-0.006219592 -0.081484385 -0.051528748 0.09036387 -0.059110153 -0.0020600157 0.2275064 -0.18024558
00000000: 6fe2 d7bd f489 11be 83c0 703d f304 71be
00000010: 8075 213e 5bc8 4cbc e21b abbd 4955 d4bc
00000020: b545 84bd 56a4 14bd a34a d5bd 72be ad3c
00000030: cca2 f9bc 0a25 003e b24a d1bb bd13 20bd
00000040: a7a3 723d 98f8 dd3c e62d aebc f0f2 2c3b
00000050: 412f 28ba c30c a9bd a149 883d 8251 b1bd
00000060: 5cfa 22bc beae 6b3b 72ac 24be d66e f7bd
00000070: db5d 0cbd b08f 96bd 78c9 253d ae90 00be
00000080: 7489 0dbe 1625 66bd dc52 9ebd 2930 77bd
00000090: d17e 0dbe d127 d93d 248d 363c 54b1 fbbd
000000a0: 0043 c73d 34cb 77bd eb3e 41be 7496 8dbb
000000b0: 3897 9bbd 68a1 40bd e524 4cbd fd49 9e3d
000000c0: f594 30bd 8ab0 efbd b505 7fbd 75a9 15bc
000000d0: d4df 2b3d 165a 2f3c ffe4 b73b 77e9 d2bc
000000e0: 3fb1 0d3d 23d1 15be 6a29 3abe 9151 43be
000000f0: b309 143e 6b3c aebc 9f03 2b3d d01f 5fbd
00000100: 4524 0b3c 9e31 bd3d c930 dfbd 846c c4bd
00000110: f22b 22bd 9ffa 80bd 4848 e2bc b0c1 f33d
00000120: 36f2 eebb be1c bebc 34f9 513d 6849 983d
00000130: b182 963d d53a 3f3b ab6a 1f3d 4be7 50be
00000140: bb7f 14be f8ee 983d 130f 3c3b 5330 96bd
00000150: ca09 05be 8c08 78bd e0a9 debd 6153 dcbc
00000160: 6131 46bd f5cb d2bc 6997 1dbe a1da 1bbe
00000170: eb57 30bd e7ba da3c f1d6 d1bd b89b d0bd
00000180: 643b a7bd e19c f6bc 0114 d4bd 6ae8 41bc
00000190: 6e8e a2bd 1ebf 04be 00b5 61be e732 5e3d
000001a0: c1de 98bd 949e dfbd e917 00bd 3131 babd
000001b0: 0094 45bc f864 7dbd 68d3 c03c ff6d 843d
000001c0: a3c0 febb 042b a5bc 384a 3bbc dec6 593d
000001d0: 51da 7fbd 52e5 3dbe 73b4 b1bd 2648 253d
000001e0: 26d3 46bd 6f1f 373e 4ccf 91be bbab 24be
000001f0: c899 14be f3cd c83d 0c17 19be a212 463e
00000200: d0c9 f53d 10ab 24bd 7521 a5bd de8e 86bd
00000210: e654 2a3e 2c08 643e 4b63 e7bd 8dd1 31bd
00000220: 4622 b9bc ddfa 8abc d406 613d 0d9d bebd
00000230: 6234 ad3d 5ddb 6abc 53f2 213e a942 a0bd
00000240: 0d5b 98bd 96f7 85bc 205b 52bc 8265 db3d
00000250: 50f0 2ebd 88f6 8ebc 6a1e b93d 6088 c23d
00000260: e22e b23d 4958 cd3c a33e 2bbd a9a6 31bd
00000270: 240b cabc 235b 55be 8afe a83d 95a6 9d3d
00000280: c9a5 023e eb3e 04be 7dc0 a03d a4a6 0dbc
00000290: 445f 1abd 8fb6 02be b949 923c 2cc9 4fbd
000002a0: 5b5e fb3c c5b4 95bd 2bde 363e 179c 0cbe
000002b0: 932f 0ebe ca65 4d3e 6df3 34bd f3d6 3dbe
000002c0: a948 643b 616d 223e 119c fdbc 4bb2 20bc
000002d0: 943d c6bd 0f4c 0d3e 1ebb 413e be67 243e
000002e0: 1183 fb3c 7a34 553e f937 293e ec62 d0bd
000002f0: abba 3b3e e800 b93d 543c 253e be4f c2bc
00000300: 2ee9 be3c 508c aabb afd6 343d 46f5 93bd
00000310: d2e4 e6bd 47ff f7bc 50ea c4bd 56a7 05bc
00000320: 553a 7dbd 48d7 fb3c 926a 6dbd 9e20 5e3d
00000330: 0e00 f83c 4398 af3d a175 9bbc 6830 e43a
00000340: 5c06 91bb 4c3c 86bd 0e74 3a3d 8d1f 8bbd
00000350: 0815 123e 4807 303e ba81 db3c fe0a 95bb
00000360: af4a 933d f3f7 fd3d 5977 9b3c c837 d8bd
00000370: 2428 acbd cf78 083e ffe6 bdbd be8e 6bbc
00000380: 69d3 8d3d dcf1 d5bd 971e 283e 51ab 663c
00000390: 9153 e7bb a29e 823d fd13 64bd 244d 0bbe
000003a0: 5828 b73d b0de 26be fa4a f8bc 7efc f53c
000003b0: 636a 9fbc 4b6c 353d b3c3 c8bc f1cb 573d
000003c0: 8451 0bbe d037 973c 03c8 883c c310 d63c
000003d0: 42e6 b03d b6ce 54bd 5d1c ef3d 2548 91bd
000003e0: b8cd cbbb 49e1 a6bd cf0f 53bd b110 b93d
000003f0: 7d1d 72bd 5401 07bb 70f7 683e 4c92 38be

network_body._body_endoder.seq_layers.2.bias f4 [128]
-0.07404402 -0.05392366 -0.053930786 0.10872259 0.052494265 0.15856399 -0.09325765 0.08854613
0.0839569 0.12736651 -0.05600572 -0.13296135 -0.05223723 0.14628583 0.09182531 -0.05850012
-0.12834875 0.10640379 -0.08714001 -0.12507047 -0.10573245 0.14090985 0.09614616 -0.08934255
0.07623915 0.11058755 -0.067109674 -0.082910575 -0.114966094 -0.12873058 -0.05194208 -0.052997578
-0.05145425 0.09164987 -0.080643125 -0.13650098 0.06953172 0.10954928 -0.12545912 -0.037614495
-0.123897135 -0.122092314 -0.08460016 0.072090045 -0.079421625 0.06887324 -0.022085972 -0.14742558
-0.08823936 0.07776406 -0.12903751 -0.11122754 -0.03596303 0.11134852 -0.113870054 -0.114404894
-0.1331207 -0.06168358 0.1120708 -0.0040554777 0.08847332 0.08169527 -0.088985 -0.1290029
0.07977693 0.1033047 0.08276135 0.062367167 -0.10132821 0.06259484 0.093128555 -0.12269848
0.059840463 0.10297046 0.0717899 0.11948013 0.14475998 0.118106715 0.106130205 0.083841234
-0.07366269 0.08460241 0.10568334 -0.13721359 0.11563326 0.022283088 -0.048633773 -0.053313583
-0.10757066 0.07681655 -0.11246557 0.1008984 -0.12217498 -0.038438603 0.11170828 0.09038512
-0.13215764 0.050125834 0.025171243 -0.12166013 -0.15032177 0.13603923 0.12512924 -0.14033154
-0.081644624 0.06237634 -0.059589136 -0.058052056 -0.058600366 0.07915043 -0.11230418 0.09370668
0.1406779 -0.13209213 -0.054773293 0.11229152 0.13192952 -0.14427581 0.14830986 -0.12998223
0.0738572 -0.105307594 -0.082501374 0.13610315 0.06914905 0.12960173 0.1122153 -0.1102616
00000000: 64a4 97bd 0edf 5cbd 87e6 5cbd f3a9 de3d
00000010: 3a04 573d 995e 223e defd bebd ac57 b53d
00000020: 98f1 ab3d 5e6c 023e 4166 65bd 0527 08be
00000030: b5f6 55bd f4cb 153e e80e bc3d d29d 6fbd
00000040: db6d 03be 3bea d93d 7676 b2bd 7912 00be
00000050: 418a d8bd ac4a 103e 47e8 c43d 3af9 b6bd
00000060: 4523 9c3d ba7b e23d cc70 89bd 05cd a9bd
00000070: 5873 ebbd f3d1 03be 38c1 54bd fd13 59bd
00000080: b1c1 52bd edb2 bb3d 3928 a5bd eac6 0bbe
00000090: a566 8e3d 5f5b e03d 5b78 00be a811 1abd
000000a0: c8bd fdbd 890b fabd d942 adbd f2a3 933d
000000b0: cea7 a2bd 6a0d 8d3d a4ed b4bc bbf6 16be
000000c0: d6b6 b4bd c342 9f3d 6922 04be 44cb e3bd
000000d0: f84d 13bd b10a e43d b434 e9bd 1d4d eabd
000000e0: cb50 08be eca7 7cbd 6085 e53d d0e3 84bb
000000f0: 8031 b53d da4f a73d c53d b6bd 5619 04be
00000100: 1662 a33d 6a91 d33d c87e a93d b774 7f3d
00000110: 2a85 cfbd b931 803d 2fba be3d 5749 fbbd
00000120: 461b 753d 2de2 d23d 9506 933d 00b2 f43d
00000130: f63b 143e efe1 f13d cb5a d93d f4b4 ab3d
00000140: 77dc 96bd 0744 ad3d 8270 d83d b881 0cbe
00000150: 21d1 ec3d 068b b63c 3534 47bd 585f 5abd
00000160: 024e dcbd ff51 9d3d 5954 e6bd d2a3 ce3d
00000170: e036 fabd cc71 1dbd 50c7 e43d d51b b93d
00000180: 5554 07be bf50 4d3d ec33 ce3c f228 f9bd
00000190: f3ed 19be de4d 0b3e e121 003e 12b3 0fbe
000001a0: 4c35 a7bd 557e 7f3d bd13 74bd fec7 6dbd
000001b0: f006 70bd 9f19 a23d bcff e5bd 4ae9 bf3d
000001c0: de0d 103e 2943 07be f659 60bd 19f9 e53d
000001d0: 8818 073e 0abd 13be 8ade 173e 101a 05be
000001e0: 7242 973d 82ab d7bd 7bf6 a8bd a05e 0b3e
000001f0: 049e 8d3d 51b6 043e 23d1 e53d d5d0 e1bd

action_model._discrete_distribution.branches.0.weight f4 [2, 128]
-0.05492895 -0.016701402 -0.008665075 0.021644738 0.015481203 0.058639076 -0.049994875 0.036544114
0.017094122 0.048491918 -0.020620864 -0.08885592 -0.014148038 0.054190844 0.018914325 -0.026924672
-0.08056236 0.0329411 -0.031986326 -0.06183491 -0.06741379 0.033144753 0.039613698 -0.048223794
0.01001666 0.022775127 -0.029302511 -0.028410153 -0.055690423 -0.06644067 -0.011317632 -0.018750468
-0.010176714 0.03569947 -0.040825233 -0.06989888 0.0108209085 0.018112982 -0.063353285 -0.01394613
-0.076924555 -0.08310598 -0.021438245 0.004453126 -0.041533027 0.010027706 -0.0021842064 -0.08515221
-0.051859062 0.004828846 -0.09496498 -0.031149138 -0.004696573 0.048312746 -0.07695772 -0.024044244
-0.088894814 -0.0065204506 0.046057012 -0.017664729 0.025827069 0.03296186 -0.0080692535 -0.086353704
0.0068422295 0.038145002 0.023432614 0.0016733382 -0.06749534 0.0019329239 0.009507446 -0.09140373
-0.0011239463 0.025236322 0.0035613296 0.037897196 0.054302752 0.025583476 0.04098905 0.016169576
-0.036113653 0.007884729 0.03343286 -0.085601695 0.027459012 0.008356263 -0.008884869 -0.022349618
-0.058725473 0.009440354 -0.10298497 0.054214336 -0.07751177 -0.0018066984 0.011940084 0.028498925
-0.057237193 -0.0015084317 0.0045472905 -0.0625933 -0.080194846 0.05912772 0.05492463 -0.058519274
-0.027292468 0.0035309081 -0.024231799 -0.016688 -0.025810882 0.012776771 -0.08263836 0.024207205
0.053000037 -0.08950274 -0.017824678 0.024462491 0.06942309 -0.08683498 0.04122391 -0.09240113
0.020663869 -0.03037719 -0.028301049 0.042370364 0.0054862658 0.05022115 0.030845093 -0.050355874
0.050598644 0.013815615 0.017856257 -0.04094087 -0.03161036 -0.06863119 0.07435089 -0.025224982
-0.015735405 -0.04370189 0.02588637 0.084397174 0.03018764 -0.058014102 -0.0349599 0.008996346
0.07483392 -0.034245044 0.021526366 0.05559073 0.06337226 -0.06100961 -0.0239743 0.033900812
-0.014816595 -0.026873523 0.018965244 0.028708711 0.05544766 0.069890805 0.023772309 0.014492741
0.023659175 -0.035962105 0.06655304 0.07110241 -0.0058084177 -0.024113456 0.085993715 -0.0046183984
0.05537365 0.08921271 0.029897071 0.0010271443 0.020102363 -0.004205199 0.0041530365 0.09456779
0.050636027 -0.025483547 0.066107124 0.021198021 0.012140709 -0.03952647 0.07409897 0.032132424
0.09325407 0.040824298 -0.03751343 0.013692727 -0.011583915 -0.024690336 0.018254997 0.07002263
-0.02804344 -0.038677134 -0.0036997944 -0.0065438976 0.05479459 -0.0044637066 -0.012339607 0.07709077
-0.016187709 -0.025144365 0.0011065939 -0.03431387 -0.050664835 -0.043185912 -0.039716437 -0.014196999
0.018714076 -0.004027185 -0.0125448825 0.061474666 -0.02981608 -0.012647164 0.018755952 0.017087238
0.06075145 0.0021054174 0.07715932 -0.03652784 0.06347057 0.010786822 -0.029249374 -0.0040826164
0.054653365 -0.0055375765 0.005526896 0.06474482 0.07925094 -0.070352234 -0.04399372 0.054910716
0.028592402 0.008815394 0.0144299725 0.026314856 0.011884319 -0.011958204 0.098396905 -0.028917054
-0.06002781 0.08085697 0.03385739 -0.035646994 -0.057740778 0.066170014 -0.043989327 0.080901794
0.0032969774 0.032092687 0.039745312 -0.06648212 -0.017060269 -0.027175318 -0.042957503 0.060455482
00000000: 2efd 60bd 61d1 88bc f5f7 0dbc 4e50 b13c
00000010: dfa4 7d3c 872f 703d 6dc7 4cbd 48af 153d
00000020: f908 8c3c 769f 463d 16ed a8bc 18fa b5bd
00000030: 2ccd 67bc 38f7 5d3d 37f2 9a3c 2191 dcbc
00000040: e1fd a4bd 3fed 063d 1804 03bd 9a46 7dbd
00000050: 3e10 8abd cbc2 073d f941 223d 5086 45bd
00000060: eb1c 243c e792 ba3c d20b f0bc 69bc e8bc
00000070: a41b 64bd 0c12 88bd 976d 39bc 959a 99bc
00000080: 3bbc 26bc 9c39 123d 5c38 27bd 2527 8fbd
00000090: 2e4a 313c ad61 943c 5ebf 81bd 4f7e 64bc
000000a0: 9f8a 9dbd 7833 aabd 429f afbc 87eb 913b
000000b0: 891e 2abd 3f4b 243c e724 0fbb 4864 aebd
000000c0: 2b6a 54bd 4c3b 9e3b 007d c2bd 7a2c ffbc
000000d0: b6e5 99bb 96e3 453d 029c 9dbd 6ff8 c4bc
000000e0: 7c0e b6bd 81a9 d5bb 47a6 3c3d 9fb5 90bc
000000f0: 4a93 d33c 0403 073d e734 04bc 36da b0bd
00000100: c834 e03b ef3d 1c3d c1f5 bf3c ea53 db3a
00000110: ff3a 8abd 2a5a fd3a 1ec5 1b3c e131 bbbd
00000120: 6151 93ba 67bc ce3c 3265 693b 173a 1b3d
00000130: 906c 5e3d 7094 d13c 22e4 273d 0f76 843c
00000140: e9eb 13bd f32e 013c e5f0 083d f14f afbd
00000150: b9f1 e03c b5e8 083c d791 11bc 8c16 b7bc
00000160: 1f8a 70bd b7ab 1a3c c9e9 d2bd da0f 5e3d
00000170: 7ebe 9ebd bdce ecba 58a0 433c 9476 e93c
00000180: 8c71 6abd 92b6 c5ba 7001 953b eb30 80bd
00000190: 323d a4bd e82f 723d a6f8 603d e8b1 6fbd
000001a0: 7494 dfbc cf66 673b c481 c6bc 46b5 88bc
000001b0: 5871 d3bc a955 513c 4d3e a9bd 304e c63c
000001c0: 9116 593d 364d b7bd 0f05 92bc 9065 c83c
000001d0: b12d 8e3d 8ad6 b1bd 67da 283d ce3c bdbd
000001e0: 4647 a93c 96d9 f8bc 9ad7 e7bc 8c8c 2d3d
000001f0: 22c6 b33b b1b4 4d3d d9ae fc3c f641 4ebd
00000200: 8640 4f3d e45a 623c 4947 923c 9db1 27bd
00000210: dd79 01bd 828e 8cbd 4845 983d 9fa4 cebc
00000220: 89e7 80bc c100 33bd a70f d43c 6dd8 ac3d
00000230: 124c f73c 32a0 6dbd 1d32 0fbd 6965 133c
00000240: 8742 993d 8844 0cbd 1058 b03c 1bb3 633d
00000250: 51c9 813d 36e5 79bd c065 c4bc 94db 0a3d
00000260: 4ec1 72bc dd25 dcbc 005d 9b3c 882e eb3c
00000270: 161d 633d e922 8f3d 25be c23c f672 6d3c
00000280: e3d0 c13c 004d 13bd f64c 883d 249e 913d
00000290: 8a54 bebb 9589 c5bc 791d b03d ef55 97bb
000002a0: 7bcf 623d 27b5 b63d b4ea f43c 3ea1 863a
000002b0: b6ad a43c c4cb 89bb 3216 883b c2ac c13d
000002c0: b967 4f3d dfc2 d0bc 2c63 873d 79a7 ad3c
000002d0: d3e9 463c 82e6 21bd 33c1 973d 4a9d 033d
000002e0: fdfb be3d 6137 273d afa7 19bd 7657 603c
000002f0: 76ca 3dbc 6343 cabc 818b 953c 0668 8f3d
00000300: 5bbb e5bc ea6b 1ebd 4078 72bb 316e d6bb
00000310: 4b70 603d 4944 92bb 102c 4abc c4e1 9d3d
00000320: 169c 84bc 8efb cdbc 210b 913a b38c 0cbd
00000330: ee85 4fbd b6e3 30bd b4ad 22bd 889a 68bc
00000340: 434e 993c 7af6 83bb 0d89 4dbc dccc 7b3d
00000350: da40 f4bc 0d36 4fbc 15a6 993c 89fa 8b3c
00000360: 83d6 783d 0bfb 093b b505 9e3d 379e 15bd
00000370: dcfc 813d 36bb 303c 629c efbc 78c7 85bb
00000380: 35dc 5f3d 8f74 b5bb f71a b53b ef98 843d
00000390: 514e a23d d514 90bd c232 34bd 0fea 603d
000003a0: 9d3a ea3c 716e 103c b16b 6c3c 4192 d73c
000003b0: 72b6 423c 58ec 43bc 5184 c93d 75e3 ecbc
000003c0: b9df 75bd 5798 a53d 0cae 0a3d 9502 12bd
000003d0: 9881 6cbd 2584 873d 272e 34bd d7af a53d
000003e0: 1a12 583b 9f73 033d fbcb 223d c727 88bd
000003f0: fac1 8bbc c69e debc 35f4 2fbd 2ba0 773d

action_model._discrete_distribution.branches.0.bias f4 [2]
0.077493295 -0.07749329
00000000: ceb4 9e3d cdb4 9ebd

exp_avg f4 [128, 2]
-1.8327883e-05 0.00019040152 -7.9720245e-05 -8.463036e-05 -4.1459403e-05 9.563979e-05 -4.7140587e-05 0.00022249953
-2.229336e-05 0.00013608138 -0.00012005973 0.00024338547 -3.255636e-05 0.0002819624 5.0587485e-05 0.00010702423
-3.0261006e-05 0.00019976009 1.26275845e-05 -2.6140471e-05 -0.00016037065 0.00014208758 9.3169365e-07 -8.578677e-05
-1.4521259e-05 -2.0214055e-05 -2.6309022e-05 -4.8026313e-06 7.2561306e-06 0.00017794126 -4.2509124e-05 9.753708e-05
-1.134284e-05 9.769804e-05 6.820714e-05 0.0003064362 -8.2045815e-05 0.00031539114 -0.000106387146 0.0004549603
-0.00014649496 0.0004030208 -8.180534e-06 0.00018634585 -1.6074126e-05 0.00013299017 -0.00024254306 0.00036214222
-5.987934e-05 -0.00018234586 -3.3854521e-06 1.51236845e-05 -2.267485e-05 -4.7047e-05 -0.00029765343 0.00041402262
2.321817e-05 -0.00020960679 5.4689404e-05 0.00016044431 -2.0030675e-06 -0.0002444026 6.251612e-05 0.00023666966
-5.1026043e-05 -1.878724e-05 -3.599825e-05 -0.000116846335 -0.00016193309 0.00033709675 -9.853757e-06 -4.759412e-05
-6.077152e-05 2.314844e-05 2.3460585e-05 -7.529275e-05 -0.00015717263 4.5005083e-05 -0.00018248423 0.00020323491
6.796385e-05 0.00010970532 -4.3595515e-05 2.2540364e-05 2.1883752e-06 -0.00012439127 -8.659612e-06 -7.8718425e-05
-9.172578e-05 0.000525406 -0.000117938 0.0003104118 -3.427925e-05 0.00033422222 -2.5385263e-05 0.0003676941
-2.675227e-05 0.00016173178 -4.4543558e-05 -2.3010578e-05 -3.7575e-05 0.00017885127 3.1967873e-05 0.00015558214
2.9333913e-05 0.00023213023 -4.140176e-05 0.0003106952 -1.5291738e-05 -0.00010913014 9.533683e-05 0.00020424521
0.00015631224 0.00047183846 -0.000228578 0.0003392905 -2.9196548e-05 0.0003254997 -3.2556105e-05 0.00021192718
7.1810573e-06 -2.4530895e-05 -8.204929e-05 0.00025977535 5.3143398e-05 7.266321e-05 -8.5903914e-05 -0.00021355486
3.6352092e-05 0.00015318053 -8.6550084e-05 -4.4285942e-05 -2.8525932e-05 -6.953909e-05 -3.9846578e-05 -0.00017106398
-4.6276633e-05 0.00029639687 -8.767213e-05 -0.0003693917 -5.3737498e-05 3.5658632e-06 -2.9597068e-06 0.0003106749
5.46717e-06 0.00015272127 1.6706937e-05 -0.00029128502 -2.96039e-05 0.00021720084 -6.583273e-05 0.000270241
-7.846254e-05 0.00018563804 -0.00010826688 0.00023771301 4.49787e-05 0.00017262176 -4.082807e-05 0.00023355396
-3.6460362e-05 4.4751047e-05 6.386385e-05 0.00023362103 -9.384769e-05 0.00029673654 -3.1017727e-05 -0.00016689891
-0.00020523244 0.00021975022 -0.00011688577 0.000252385 -1.1151147e-05 -9.3972616e-05 -7.097474e-05 7.256863e-05
-1.6946418e-05 -0.00010993733 9.67925e-05 0.0002765175 -0.00014698178 0.00017694714 5.872174e-05 0.00027695912
-9.857567e-06 -8.868204e-05 3.400488e-05 0.0002560708 -1.1682256e-05 0.00016715816 -6.301921e-05 1.883578e-05
-3.354776e-05 -0.00014947182 3.773142e-05 0.00036996114 -7.090162e-05 0.00023515962 -5.50195e-05 -0.00029596157
-2.4583467e-05 9.1912196e-05 -0.00010594219 0.0002622773 -1.5645845e-05 8.777974e-05 -0.00015055027 0.00038313936
-2.921414e-05 5.313937e-05 -2.9125822e-05 0.0002906148 2.8887662e-05 -7.620202e-05 -1.1401673e-05 -7.912246e-05
8.042449e-05 0.00023333702 -1.4875914e-06 -0.00019975255 -4.135677e-05 0.00017378604 -3.4529163e-05 -0.00023764723
7.791925e-06 0.00019042994 -0.00020437609 0.00016778166 -4.2185886e-05 0.00039225916 -4.2422704e-05 8.113971e-05
-3.733259e-05 0.00046569563 -2.8357113e-05 -0.00024869177 -4.4726832e-05 -0.00019073795 -1.2274701e-05 2.0154679e-05
-4.121719e-05 0.00011027853 -1.8747873e-05 -0.00015069249 -7.599463e-05 0.00029384822 -6.1365194e-05 -0.00013310666
-4.2838736e-05 1.4667377e-05 -5.459298e-05 -0.00017298067 -6.136889e-05 -2.971464e-05 5.788692e-06 -5.0854782e-05
00000000: d4be 99b7 85a6 4739 7b2f a7b8 947b b1b8
00000010: b2e4 2db8 3992 c838 d2b8 45b8 c34e 6939
00000020: a002 bbb7 11b1 0e39 94c8 fbb8 4a35 7f39
00000030: 208d 08b8 5ad4 9339 e62d 5438 3272 e038
00000040: 04d9 fdb7 b176 5139 10db 5337 3c48 dbb7
00000050: 2b29 28b9 58fd 1439 8019 7a35 6ce8 b3b8
00000060: 55a0 73b7 5a91 a9b7 32b2 dcb7 4a26 a1b6
00000070: b079 f336 be95 3a39 d34b 32b8 d28c cc38
00000080: 204d 3eb7 3ce3 cc38 6e0a 8f38 2ca9 a039
00000090: 0310 acb8 155b a539 2a1c dfb8 bd87 ee39
000000a0: 719c 19b9 894c d339 203f 09b7 d565 4339
000000b0: ecd6 86b7 4773 0b39 2853 7eb9 e8dd bd39
000000c0: f426 7bb8 1834 3fb9 a031 63b6 bbbb 7d37
000000d0: df35 beb7 5554 45b8 5e0e 9cb9 2d11 d939
000000e0: a4c4 c237 e5c9 5bb9 4d62 6538 f13c 2839
000000f0: 706c 06b6 2923 80b9 161b 8338 872a 7839
00000100: cc04 56b8 4a99 9db7 d4fc 16b8 660b f5b8
00000110: 95cc 29b9 5cbc b039 9051 25b7 cc9f 47b8
00000120: ece4 7eb8 e52e c237 39cd c437 7de6 9db8
00000130: b5ce 24b9 d7c3 3c38 3d59 3fb9 751b 5539
00000140: d087 8e38 9811 e638 54da 36b8 1015 bd37
00000150: 00dc 1236 076f 02b9 c048 11b7 a215 a5b8
00000160: e75c c0b8 66bb 093a 7b55 f7b8 c4be a239
00000170: 10c7 0fb8 8c3a af39 70f2 d4b7 11c7 c039
00000180: 106a e0b7 8b96 2939 48d4 3ab8 d706 c1b7
00000190: d999 1db8 068a 3b39 3e15 0638 c323 2339
000001a0: 1912 f637 fc67 7339 cda6 2db8 cee4 a239
000001b0: c246 80b7 ccdc e4b8 92ef c738 a82a 5639
000001c0: bfe7 2339 1661 f739 71ae 6fb9 cde2 b139
000001d0: 1ceb f4b7 d5a7 aa39 da8c 08b8 c538 5e39
000001e0: d0f4 f036 b2c7 cdb7 e111 acb8 7532 8839
000001f0: 4ae6 5e38 c462 9838 5027 b4b8 b2ed 5fb9
00000200: c378 1838 169f 2039 3982 b5b8 abbf 39b8
00000210: f94a efb7 84d5 91b8 f020 27b8 a35f 33b9
00000220: 2819 42b8 b765 9b39 9edc b7b8 eaaa c1b9
00000230: 3364 61b8 104d 6f36 609f 46b6 14e2 a239
00000240: a272 b736 ce23 2039 e025 8c37 9db7 98b9
00000250: e455 f8b7 68c0 6339 ae0f 8ab8 22af 8d39
00000260: 418c a4b8 d5a7 4239 570d e3b8 9a42 7939
00000270: 83a7 3c38 cd01 3539 ce3e 2bb8 2ae6 7439
00000280: 04ed 18b8 12b3 3b38 a5ee 8538 2bf8 7439
00000290: 18d0 c4b8 4e93 9b39 0819 02b8 9601 2fb9
000002a0: aa33 57b9 c06c 6639 9220 f5b8 8b52 8439
000002b0: d015 3bb7 2a13 c5b8 46d8 94b8 fd2f 9838
000002c0: 2828 8eb7 288e e6b8 14fd ca38 8df9 9039
000002d0: 1f1f 1ab9 e38a 3939 fd4b 7638 d334 9139
000002e0: ee61 25b7 cffa b9b8 76a0 0e38 3e41 8639
000002f0: e8fe 43b7 2d47 2f39 2e29 84b8 8801 9e37
00000300: a2b5 0cb8 89bb 1cb9 ce41 1e38 58f7 c139
00000310: 04b1 94b8 2e95 7639 bdc4 66b8 4a2b 9bb9
00000320: 9838 ceb7 fcc0 c038 482d deb8 4382 8939
00000330: 323f 83b7 6416 b838 08dd 1db9 18e0 c839
00000340: e310 f5b7 f7e1 5e38 3a53 f4b7 a85d 9839
00000350: c853 f237 a6ce 9fb8 d049 3fb7 8cee a5b8
00000360: 92a9 a838 eeab 7439 40a9 c7b5 ab74 51b9
00000370: 7e76 2db8 563a 3639 68d3 10b8 f130 79b9
00000380: 10ba 0237 26ae 4739 ca4d 56b9 8cee 2f39
00000390: c0f0 30b8 22a8 cd39 08ef 31b8 8d29 aa38
000003a0: 9095 1cb8 9c28 f439 70e0 edb7 d862 82b9
000003b0: 1299 3bb8 d400 48b9 70ef 4db7 d811 a937
000003c0: 9fe0 2cb8 5645 e738 c044 9db7 3503 1eb9
000003d0: 4e5f 9fb8 a40f 9a39 30b1 80b8 8c92 0bb9
000003e0: bead 33b8 e813 7637 c4fa 64b8 2562 35b9
000003f0: 2cb3 80b8 b443 f9b7 7c3c c236 e84c 55b8

exp_avg_sq f4 [128, 2]
1.4209044e-07 4.754562e-07 3.4377055e-07 1.2258994e-06 9.042852e-08 2.2243208e-07 2.2801996e-07 5.713649e-07
3.1074902e-07 7.710995e-07 2.6203338e-06 9.6708245e-06 4.4871416e-07 6.75088e-07 7.119256e-07 8.6825e-07
9.834215e-08 2.573429e-07 1.9348529e-07 6.1528687e-07 5.5364944e-07 8.8790347e-07 2.7398027e-08 2.9540388e-08
2.7325301e-08 6.352512e-08 1.745409e-08 1.9369603e-08 1.4136178e-07 2.5722056e-07 2.5030008e-07 7.534006e-07
4.9682523e-08 1.0108387e-07 1.0172924e-06 1.3343201e-06 6.202212e-07 2.0777059e-06 1.8541151e-06 9.866303e-06
1.249378e-06 7.193708e-06 5.3202814e-07 1.8444744e-06 5.99224e-08 1.2954e-07 4.1594913e-06 1.1180257e-05
1.402789e-07 2.8797896e-07 1.8147936e-08 2.0609802e-08 4.87182e-08 6.167964e-08 3.3150573e-06 1.0493517e-05
2.0097345e-07 2.2101556e-06 5.194228e-07 9.725785e-07 2.5653225e-07 5.0084634e-07 2.2782817e-06 2.990044e-06
8.330547e-08 9.6404406e-08 1.3075498e-06 7.2647726e-06 9.3544975e-07 2.7809e-06 5.453933e-07 2.9878677e-06
6.196745e-08 1.2378085e-07 4.4968708e-08 6.873151e-08 8.9587576e-07 1.2730492e-06 6.4361393e-07 1.7680001e-06
3.6084185e-07 3.0991464e-07 5.4071603e-07 2.2282334e-06 1.025123e-06 5.7684656e-06 5.9038456e-07 3.7673005e-06
5.741462e-07 1.9818096e-06 5.680967e-07 2.3497778e-06 3.2595244e-06 1.1545139e-05 3.8731064e-06 1.20441e-05
3.7844998e-07 1.2872598e-06 3.839586e-08 5.5986817e-08 1.6568758e-07 4.977408e-07 1.4656337e-07 2.5969123e-07
2.9178776e-07 6.324384e-07 3.2143137e-07 9.2444986e-07 4.1175344e-08 2.8615295e-07 1.6862975e-06 1.9012679e-06
4.5334946e-06 5.7594402e-06 2.077183e-06 6.7670417e-06 5.8920347e-07 1.425777e-06 5.43432e-07 8.1890266e-07
5.6633542e-08 1.7348697e-07 3.4771017e-07 1.7508023e-06 2.1754106e-07 1.6044683e-07 1.0401964e-06 6.362687e-06
2.0523753e-07 3.8310284e-07 3.86413e-07 1.1354879e-06 1.06151475e-07 1.243983e-07 9.7842e-08 1.8459293e-07
1.0020284e-06 2.358479e-06 2.8425868e-06 1.90887e-05 3.2383622e-07 6.324668e-07 6.9558206e-07 1.3773289e-06
1.8934095e-07 3.8830333e-07 3.9022123e-07 9.41123e-07 2.0127656e-07 6.1735807e-07 5.601286e-07 2.8798215e-06
8.999529e-07 3.4456773e-06 1.1688385e-06 3.779331e-06 1.5083516e-07 1.2898602e-07 1.9294323e-07 1.050899e-06
3.0805996e-08 5.4620244e-08 7.5097023e-07 1.091299e-06 7.326325e-07 1.9739734e-06 1.179707e-07 2.1633257e-07
7.4735397e-07 2.3953405e-06 9.425801e-07 3.30412e-06 4.4456488e-07 2.6121502e-06 2.3202988e-07 4.079767e-07
8.6886007e-07 5.1436027e-06 1.5992015e-06 2.2420186e-06 2.8961497e-07 1.0915655e-06 5.421264e-07 8.453609e-07
1.3906595e-07 2.1180642e-07 7.3516077e-07 1.0501067e-06 2.2738419e-07 4.6862849e-07 1.1941509e-06 3.662456e-06
1.2547915e-07 1.6489707e-07 5.5308186e-07 1.0631096e-06 3.4775024e-07 1.4800776e-06 3.4158077e-07 5.351213e-07
7.8033764e-08 1.497094e-07 2.835929e-07 8.8572915e-07 1.1014092e-07 2.9588156e-07 1.2247885e-06 5.383308e-06
2.436208e-08 7.168297e-08 7.9758905e-07 1.3417334e-06 5.402232e-07 3.2308446e-06 3.7923925e-07 2.263772e-06
6.397956e-07 7.1408994e-07 2.5459929e-07 6.7332314e-07 1.2247503e-07 3.1313886e-07 2.682422e-07 4.4839615e-07
8.427877e-07 3.1201328e-06 7.7663935e-07 1.3506077e-06 6.2030705e-07 1.4952847e-06 7.0036407e-07 2.8940326e-06
7.1841396e-07 1.9480935e-06 2.4819567e-06 1.45975855e-05 2.1390787e-07 4.0599144e-07 4.5746802e-07 2.3733364e-06
7.0867436e-08 1.625698e-07 2.4238503e-07 4.2580817e-07 8.063329e-07 2.5170223e-06 1.1982048e-06 4.761879e-06
4.592469e-08 6.2289516e-08 2.480507e-07 3.341908e-07 3.3000453e-07 1.3830029e-06 1.29812e-08 3.737233e-08
00000000: 8691 1834 3442 ff34 778f b834 9589 a435
00000010: 9b31 c233 aad5 6e34 a6d5 7434 e65f 1935
00000020: 05d5 a634 8efd 4e35 fed8 2f36 e03f 2237
00000030: cee6 f034 b237 3535 281b 3f35 b011 6935
00000040: 2b30 d333 f028 8a34 d5c0 4f34 312a 2535
00000050: 809e 1435 4358 6e35 e658 eb32 00c0 fd32
00000060: f9b8 ea32 4e6b 8833 f3ed 9532 3562 a632
00000070: 3bc9 1734 2018 8a34 fb60 8634 4c3d 4a35
00000080: 8362 5533 7213 d933 e789 8835 e416 b335
00000090: 477d 2635 b76e 0b36 e9da f835 7387 2537
000000a0: 4db0 a735 7b61 f136 b2d0 0e35 a88f f735
000000b0: b0ae 8033 af17 0b34 c291 8b36 d792 3b37
000000c0: 929f 1634 879b 9a34 bce3 9b32 6f09 b132
000000d0: 3a3e 5133 be74 8433 4078 5e36 500d 3037
000000e0: 29cb 5734 2f52 1436 776e 0b35 8b89 8235
000000f0: 86b9 8934 e671 0635 95e4 1836 91a8 4836
00000100: abe5 b233 e206 cf33 127f af35 ecc3 f336
00000110: 9e1b 7b35 809f 3a36 2467 1235 2d83 4836
00000120: f712 8533 9fe8 0434 9e23 4133 8c99 9333
00000130: 1d7c 7035 a3dd aa35 d0c4 2c35 054c ed35
00000140: bab9 c134 5862 a634 b925 1135 c288 1536
00000150: f596 8935 be8e c136 eb7a 1e35 bbd1 7c36
00000160: 071f 1a35 3bff 0436 4f7f 1835 e0b0 1d36
00000170: 34be 5a36 ffb1 4137 bbf5 8136 0411 4a37
00000180: c52d cb34 e9c5 ac35 b2e8 2433 2876 7033
00000190: dbe7 3134 7d9c 0535 085f 1d34 b16b 8b34
000001a0: 01a7 9c34 d6c4 2935 3191 ac34 b627 7835
000001b0: c5d8 3033 90a0 9934 be54 e235 112f ff35
000001c0: 6c1e 9836 3741 c136 bb65 0b36 7210 e336
000001d0: c129 1e35 535d bf35 5de0 1135 90d2 5b35
000001e0: 3d3d 7333 bc47 3a34 ecac ba34 1cfd ea35
000001f0: 3b95 6934 4a47 2c34 e09c 8b35 117f d536
00000200: 435f 5c34 41ad cd34 3374 cf34 1167 9835
00000210: 64f5 e333 5892 0534 351d d233 8534 4634
00000220: 6f7d 8635 5c46 1e36 45c3 3e36 ac20 a037
00000230: b6db ad34 cac6 2935 09b8 3a35 a9dc b835
00000240: a54d 4b34 0178 d034 997f d134 7ba1 7c35
00000250: 7b1e 5834 86b8 2535 bf5b 1635 f542 4136
00000260: 4b94 7135 493c 6736 fce0 9c35 6aa0 7d36
00000270: 41f5 2134 687f 0a34 d52b 4f34 9d0c 8d35
00000280: 8d4f 0433 9897 6a33 4896 4935 c078 9235
00000290: 1faa 4435 9b78 0436 1457 fd33 0b49 6834
000002a0: c69d 4835 a3bf 2036 9c05 7d35 59bc 5d36
000002b0: 88ac ee34 664c 2f36 e323 7934 e407 db34
000002c0: 9c3b 6935 3697 ac36 25a4 d635 9675 1636
000002d0: 617c 9b34 e881 9235 a486 1135 c2ec 6235
000002e0: 2852 1534 e86c 6334 dd57 4535 64f1 8c35
000002f0: e426 7434 cf97 fb34 b646 a035 84c8 7536
00000300: 72bb 0634 900e 3134 7f77 1435 2bb0 8e35
00000310: 6eb2 ba34 14a7 c635 8162 b734 41a5 0f35
00000320: 8493 a733 cebf 2034 b640 9834 d8c2 6d35
00000330: 9c86 ec33 a7d9 9e34 6a63 a435 43a2 b436
00000340: c844 d132 21f0 9933 e719 5635 9c15 b435
00000350: db03 1135 7dd1 5836 3f9a cb34 4feb 1736
00000360: 6bbe 2b35 e3af 3f35 dcaf 8834 6abe 3435
00000370: ae81 0334 7a1d a834 ed02 9034 19bb f034
00000380: ee3b 6235 7963 5136 407a 5035 8746 b535
00000390: 2d83 2635 97b1 c835 a700 3c35 1a37 4236
000003a0: 08d9 4035 febb 0236 b18f 2636 27e8 7437
000003b0: 8cae 6534 0af7 d934 ed99 f534 9c45 1f36
000003c0: c92f 9833 d98e 2e34 2521 8234 a19a e434
000003d0: c672 5835 1dea 2836 01d2 a035 3bc8 9f36
000003e0: bb3e 4533 06c4 8533 d42b 8534 d56a b334
000003f0: 7a2b b134 9e9f b935 ec03 5f32 5083 2033

exp_avg f4 [128]
0.00023870822 1.4846984e-05 0.00019370252 0.00021736836 0.00021414948 -0.00013204769 0.00015565642 1.6180093e-05
0.00016921837 0.00011806066 5.9805137e-05 -2.449276e-05 5.6369452e-05 2.9851475e-05 0.00017924819 7.828476e-06
8.306603e-05 0.00021773897 8.133169e-05 -9.549879e-05 -8.017574e-05 0.00035743412 9.026218e-05 -2.6279333e-05
-4.0499777e-05 -7.3702904e-06 -3.1040727e-05 1.0227144e-05 0.00018397415 0.00018617047 -0.00019419518 0.00014146273
7.314209e-05 0.0003063329 8.0282625e-05 0.00025373674 0.00012257825 -9.8638186e-05 -0.00010765492 -7.763804e-05
2.2047025e-06 0.00025800033 0.0002471175 0.0003647234 0.00045838786 -2.5817542e-05 0.00067332236 0.0006349685
0.00029477052 4.895153e-05 5.419231e-05 -1.04998035e-05 0.0002004129 0.00012997093 5.6793746e-05 5.040301e-05
0.00030613443 -1.481775e-05 2.1862594e-05 0.00014737823 8.905243e-05 9.202049e-05 -4.011197e-05 0.00025128643
0.00014606668 3.1988835e-05 3.716107e-05 -6.0508242e-05 0.0003786856 0.00032786446 3.880498e-05 0.00032218406
1.6510348e-05 -0.00027946846 0.00023172065 -0.00010112893 -2.288186e-05 3.8239916e-05 6.7317626e-05 2.9115414e-05
7.0648755e-05 0.00017559865 0.00013734656 -0.00010003701 -1.4725876e-05 1.1197772e-06 0.0002497036 8.924169e-05
0.00037290918 0.00020603529 -9.7407246e-05 0.00020570119 -0.00013446092 0.0002132919 0.00016940353 -0.00019440457
-2.3670711e-05 0.00031106567 4.981654e-05 -0.00013602595 8.1684935e-05 8.044918e-05 -1.2605451e-05 -1.0697651e-05
0.000100547724 0.0003067271 0.00023948433 0.00026964644 0.0001318257 -0.00022261482 0.00018590208 -0.00014467243
0.0003830333 -0.00016278747 0.00030805235 -0.00013297994 0.00040148728 0.00039006633 -9.264882e-05 0.00031966413
0.00013298065 -0.00012712597 0.0003985768 0.00011043076 9.547077e-05 -8.6171814e-05 0.00010674595 -2.0562147e-06
00000000: c04d 7a39 5017 7937 a01c 4b39 60ed 6339
00000010: 508d 6039 4876 0ab9 b437 2339 7cba 8737
00000020: 3670 3139 5697 f738 47d7 7a38 cd75 cdb7
00000030: 3d6e 6c38 8e69 fa37 92f4 3b39 0c57 0337
00000040: bc33 ae38 dc50 6439 9e90 aa38 8646 c8b8
00000050: 0624 a8b8 ff65 bb39 244b bd38 7072 dcb7
00000060: 4ede 29b8 504e f7b6 ba31 02b8 4095 2b37
00000070: 2fe9 4039 c136 4339 dfa0 4bb9 9d55 1439
00000080: dc63 9938 4e9b a039 685d a838 f807 8539
00000090: 5988 0039 f9db ceb8 ccc4 e1b8 9bd1 a2b8
000000a0: 80f4 1336 3844 8739 8d8f 8139 5938 bf39
000000b0: c753 f039 c092 d8b7 e681 303a 0474 263a
000000c0: 6e8b 9a39 4e51 4d38 8d4c 6338 5028 30b7
000000d0: ee25 5239 ce48 0839 d235 6e38 d267 5338
000000e0: ab80 a039 c099 78b7 9065 b737 8b89 1a39
000000f0: a9c1 ba38 20fb c038 e63d 28b8 18bf 8339
00000100: 7a29 1939 c02b 0638 65dd 1b38 3bca 7db8
00000110: 528a c639 39e5 ab39 88c2 2238 d0ea a839
00000120: b47f 8a37 9f85 92b9 0afa 7239 2e15 d4b8
00000130: 6cf2 bfb7 cc63 2038 e02c 8d38 e03c f437
00000140: 4329 9438 e720 3839 b004 1039 f6ca d1b8
00000150: 280f 77b7 404b 9635 a6ea 8239 4427 bb38
00000160: 0683 c339 2d0b 5839 1e47 ccb8 7eb1 5739
00000170: 14fe 0cb9 1ca7 5f39 eaa1 3139 14d9 4bb9
00000180: 7790 c6b7 8716 a339 1af2 5038 30a2 0eb9
00000190: 444e ab38 d3b6 a838 007c 53b7 107a 33b7
000001a0: 26dd d238 37d0 a039 161e 7b39 555f 8d39
000001b0: b13a 0a39 b66d 69b9 b6ee 4239 36b3 17b9
000001c0: dcd1 c839 eeb1 2ab9 1682 a139 8870 0bb9
000001d0: b67e d239 d181 cc39 754c c2b8 9898 a739
000001e0: b970 0b39 1e4d 05b9 13f8 d039 1097 e738
000001f0: 7b37 c838 24b7 b4b8 ccdc df38 80fd 09b6

exp_avg_sq f4 [128]
9.119766e-07 1.0173063e-06 4.3739587e-07 1.3633953e-06 1.4986178e-06 3.2407072e-06 1.6783617e-06 5.1438735e-07
6.4177596e-07 7.173327e-07 6.964122e-07 9.4280956e-08 8.2305796e-08 3.032823e-08 5.3891046e-07 2.5736344e-07
2.1636366e-07 2.3398966e-06 1.0327191e-06 2.832583e-06 2.250016e-06 2.8131174e-06 3.17608e-07 4.275706e-06
4.160394e-07 4.8013774e-08 8.1381586e-08 4.03346e-06 8.391496e-07 1.1622305e-06 8.515567e-07 2.645249e-06
1.2893592e-07 4.7227904e-06 1.9836402e-06 1.945109e-06 1.5537678e-07 1.3638588e-07 1.4104464e-06 9.626929e-07
3.5515836e-07 2.600354e-06 2.8433276e-06 3.0420676e-06 4.053211e-06 1.1345525e-06 1.3681749e-05 1.434636e-05
2.2520762e-06 6.377001e-08 3.2443484e-07 2.4607874e-07 1.0273843e-06 1.0914276e-06 1.0872836e-07 1.778706e-06
6.7864653e-06 2.7166545e-06 1.4713818e-06 1.3664996e-06 2.0084723e-07 8.7519265e-07 2.1296303e-07 5.109026e-06
6.169163e-07 6.484202e-07 1.2255705e-07 3.2306062e-07 4.919526e-06 9.112641e-06 5.505998e-07 2.5881554e-06
3.167712e-07 2.0334473e-06 1.1762137e-06 9.0007774e-07 1.0887929e-06 1.2075503e-06 4.5196035e-07 5.153303e-07
9.238879e-08 1.7972793e-06 1.1187043e-06 4.5962048e-07 1.0956512e-06 1.1121539e-06 2.1322592e-06 2.4325965e-07
4.074107e-06 3.1752393e-06 6.472372e-07 1.559628e-06 2.956563e-07 1.8775065e-06 1.0443347e-06 2.0727045e-06
2.6533655e-07 2.323607e-06 6.092348e-07 1.038502e-06 1.14802994e-07 8.0900367e-07 9.2665196e-08 1.9190636e-06
1.06923515e-07 2.4871147e-06 2.0925313e-06 1.913236e-06 1.2862276e-06 1.2667908e-06 7.826625e-07 8.1832405e-07
4.055324e-06 2.061043e-06 3.2651028e-06 1.2629914e-06 4.0148834e-06 7.794129e-06 5.482675e-07 2.3633088e-06
3.406684e-07 6.595868e-07 4.1600306e-06 2.8945012e-06 1.1091424e-07 5.82252e-07 1.0348361e-06 4.022283e-08
00000000: 8ece 7435 618a 8835 3bd3 ea34 e8fd b635
00000010: 1e24 c935 ed7a 5936 1244 e135 6e14 0a35
00000020: 8246 2c35 ba8e 4035 15f1 3a35 8177 ca33
00000030: 17c0 b033 3e42 0233 a5a9 1035 c32b 8a34
00000040: 9751 6834 1e07 1d36 f59b 8a35 6817 3e36
00000050: fbfe 1636 fdc8 3c36 b683 aa34 0978 8f36
00000060: 055c df34 b437 4e33 00c4 ae33 2857 8736
00000070: ec41 6135 f0fd 9b35 8896 6435 0885 3136
00000080: a371 0a34 7678 9e36 ae1e 0536 b888 0236
00000090: a5d5 2634 7771 1234 924e bd35 e035 8135
000000a0: 98ac be34 be81 2e36 ffcf 3e36 5326 4c36
000000b0: d100 8836 ed46 9835 aa8a 6537 26b1 7037
000000c0: 6022 1736 eff1 8833 fc2d ae34 ce1c 8434
000000d0: a8e4 8935 2b7d 9235 0c7e e933 dfbb ee35
000000e0: 4bb7 e336 c54f 3636 4b7c c535 9268 b735
000000f0: 77a8 5734 c8ee 6a35 d5aa 6434 336e ab36
00000100: 2a9a 2535 190f 2e35 3a98 0334 1d71 ad34
00000110: 6812 a536 7fe2 1837 eecc 1335 2cb0 2d36
00000120: b410 aa34 5c76 0836 65de 9d35 df9c 7135
00000130: a422 9235 1d13 a235 f5a4 f234 3b55 0a35
00000140: 4667 c633 0c3a f135 6326 9635 c2c1 f634
00000150: 4a0e 9335 5145 9535 ef17 0f36 5a99 8234
00000160: 50b4 8836 3216 5536 cdbd 2d35 6954 d135
00000170: b1ba 9e34 a2fe fb35 112b 8c35 cb18 0b36
00000180: 9473 8e34 44ef 1b36 4c8a 2335 a862 8b35
00000190: 9d89 f633 4f2a 5935 3bff c633 43c9 0036
000001a0: d39d e533 4ee8 2636 6a6d 0c36 2565 0036
000001b0: 72a2 ac35 9a06 aa35 2818 5235 cdaa 5b35
000001c0: f812 8836 7350 0a36 0a1e 5b36 0e84 a935
000001d0: 96b7 8636 87c3 0237 a82c 1335 5699 1e36
000001e0: 1ce5 b634 760e 3135 6496 8b36 273f 4236
000001f0: c02f ee33 0e4c 1c35 b3e4 8a35 78c1 2c33
