results/flappyBirdRun_v1/FlappyBirdAgent/FlappyBirdAgent-983.onnx (onnx, 71034 bytes, 8 tensors)

network_body.observation_encoder.processors.0.normalizer.running_mean f4 [2]
000000 3d 82 d8 3f 36 d3 4c 40
       1.6914746 3.2003913

network_body._body_endoder.seq_layers.0.weight f4 [128, 2]
000000 5b 14 74 3f 0f ff e5 3e 70 f9 81 bf 2e 25 bf 3e
       0.9534356 0.44921157 -1.0154247 0.37333053
000010 5f d4 81 3e 34 48 05 3e 11 f2 a1 3f e2 62 12 3e
       0.2535734 0.13015825 1.2651998 0.14295533
000020 e9 c1 24 bf 7a 0e fd 3c 6e f9 e7 bc 15 2a c6 bf
       -0.64358383 0.030890692 -0.02831718 -1.5481592
000030 de 07 b7 3e 2e 9b 8d be 46 2f 9f 3c d8 9e 9d bf
       0.3574819 -0.27657455 0.019431721 -1.23141
000040 6e c2 3f bf b7 2c 24 bf 66 3f 84 bd 39 7f a3 be
       -0.7490605 -0.6413073 -0.06457405 -0.31933
000050 55 31 2b 3f 9e d3 2c be 73 9e 57 3e d5 6f 8e bf
       0.6687215 -0.168776 0.21056537 -1.1127878
000060 30 82 6b 3e 16 de b0 be 73 9c 23 3f 6c 8e fc be
       0.22998881 -0.34544438 0.639106 -0.4932741
000070 f3 9e bb 3e 8f 40 d1 bf f6 e6 85 bf b7 7a b2 3e
       0.36644706 -1.6347827 -1.0461109 0.3485925
000080 00 c6 28 bf b1 2a 62 3d 2a 0d 08 40 2c 3c 7a bf
       -0.65927124 0.055216495 2.1258035 -0.97748065
000090 f1 91 1f be b9 dd dd be c0 9a 40 3f c5 dd 71 3e
       -0.15583016 -0.43333223 0.7523613 0.23619755
0000a0 9c c9 05 bf 61 f7 4f bf ec b0 bf 3e bc f1 01 be
       -0.52260756 -0.81236845 0.37439668 -0.1268987
0000b0 12 f6 c2 be 68 94 88 be 3d e3 be 3d dd 9e fb be
       -0.38078362 -0.26675725 0.09320686 -0.4914464
0000c0 af e1 36 3f 6c f3 1e be b9 6c 5e 3f 9a 49 fe 3d
       0.71438116 -0.15522546 0.8688465 0.12416382
0000d0 32 9d ae 3e a0 63 e1 3e d6 fe ab 3f 8a 76 91 3d
       0.34104306 0.4402132 1.3437145 0.07102688
0000e0 ba 57 2e bf 64 9b 30 bd bf bb dd be 69 55 87 3f
       -0.6810261 -0.043116942 -0.433073 1.057294
0000f0 f9 f9 d7 3e f8 5c 51 3f d3 39 25 bf 09 17 61 3f
       0.42182902 0.81782484 -0.6454136 0.87925774
000100 a2 a0 b2 be 1f ee a8 be 87 ad 08 bf 52 cf 5c bf
       -0.34888178 -0.32994172 -0.5338978 -0.86253846
000110 50 37 98 3f 56 3e f4 be 14 cd 1b bf 43 9f f8 3e
       1.189188 -0.4770381 -0.608598 0.48559007
000120 38 8d d5 3e 29 ef db 3e 65 d4 f1 be db 6c a5 be
       0.41709304 0.42955902 -0.47232357 -0.32309613
000130 f7 2b 69 3e 64 2c 84 3f 54 7d 6d 3f 7f 99 f3 3e
       0.22770678 1.0326047 0.9276936 0.47578046
000140 11 e9 66 bf 33 f2 90 3d 5d 0c f2 3e 66 02 05 3e
       -0.9019938 0.07077446 0.47275057 0.12989196
000150 80 c3 89 3d c3 c3 fb 3e 91 49 1a bd 6b 2d 2a 3f
       0.06726742 0.49172792 -0.037667815 0.6647555
000160 79 a9 60 bf 64 09 da 3e d9 f4 16 be 64 82 4e 3e
       -0.87758595 0.4258529 -0.1474184 0.20166928
000170 77 f4 b6 bd bd a1 da be 4d 69 33 be d0 e6 14 3f
       -0.08933347 -0.42701522 -0.17520638 0.5816469
000180 29 85 57 3f 6b eb 7c bd b7 f1 83 3d b2 27 01 be
       0.8418756 -0.06174795 0.06442588 -0.12612799
000190 47 21 91 3f 81 6f b4 3f 36 3c 28 bf 83 81 27 3f
       1.133828 1.4096528 -0.65716875 0.65431994
0001a0 f2 ee ad 3e 6e b1 51 bf ca fd 37 bf 45 9c 1a 3f
       0.33971363 -0.8191136 -0.71871626 0.603947
0001b0 cc f2 76 3f 80 3d 7b 3f 06 02 eb be 8b 38 6b 3f
       0.9646423 0.98140717 -0.4589998 0.9188315
0001c0 18 e4 4f bd 7f 0e 8a be 5a 17 b9 3d bd a4 13 3d
       -0.050754637 -0.26964185 0.09037657 0.03604578
0001d0 38 7c 3e 3e 08 f2 6b 3e 27 39 04 bf 56 cb a1 bf
       0.18602073 0.23041546 -0.5164971 -1.2640178
0001e0 ae 6b 4c 3f 4e 36 01 3f f5 39 09 bf 74 6f 99 3f
       0.79851806 0.5047349 -0.5360406 1.1987138
0001f0 0e 7d 07 3f f8 f8 bf 3f 76 83 94 3e 43 d0 1f 3e
       0.52925193 1.4997854 0.29006547 0.1560679
000200 c0 66 08 3f f1 62 e3 3e f4 33 69 3e 68 31 33 3f
       0.53281784 0.44411424 0.22773725 0.6999726
000210 59 8c 66 3e 13 7e 1d bf 20 dc 2e bf 84 90 97 3d
       0.22514476 -0.615205 -0.68304634 0.07400611
000220 e6 ef 0d 3e 09 09 31 bf a6 fa 7a bf 9e f1 10 bf
       0.13861045 -0.6915441 -0.9803871 -0.5661868
000230 13 bc 9f 3f 14 19 c4 bf 8a 2a 55 bf c4 7d 85 be
       1.2479271 -1.5320153 -0.83268034 -0.26072514
000240 58 c1 e1 3d 57 f0 83 be aa b0 c7 3e 54 28 bb 3f
       0.110232055 -0.25769302 0.3900197 1.4621682
000250 0a 64 c8 be c4 a4 af 3d a4 26 c1 3e f0 f8 28 bf
       -0.39138824 0.085763484 0.37724793 -0.6600485
000260 dc a9 18 3e 90 b3 1c bf ea ec f3 bf 5d ec 77 be
       0.14908546 -0.6121149 -1.9056675 -0.24211259
000270 f9 f4 b7 3d 9d 8c 24 3f 27 aa 82 3f bc 0e 96 be
       0.08982272 0.6427706 1.0208176 -0.29308116
000280 12 38 3a bf a7 9e 16 bf e3 67 57 3f 86 08 81 be
       -0.72741807 -0.58835834 0.84142894 -0.25201815
000290 e0 ac 83 bf 81 3f 59 3f f6 d9 f9 be d7 d2 ab bf
       -1.0287132 0.84862524 -0.48799103 -1.3423718
0002a0 c3 26 03 bf f1 ec 62 3e 01 66 15 3e af 3a 1c bd
       -0.5123102 0.22160698 0.14589693 -0.038141903
0002b0 9c 56 72 bf 4a c1 71 bf dd 32 86 3f 34 35 48 3f
       -0.94663405 -0.9443556 1.0484272 0.7820618
0002c0 bf e8 53 bf 37 1c cd 3e 25 1a 8b 3e e5 5b ee 3e
       -0.8277702 0.4006059 0.27168384 0.46554485
0002d0 70 70 89 bf 3f d4 ad 3b 87 f2 96 bf 85 fe 31 bf
       -1.0737438 0.0053048427 -1.1792763 -0.6952899
0002e0 dc c7 46 be 7f 46 01 bf c5 71 82 bf 72 98 d2 3d
       -0.19412178 -0.50498194 -1.019097 0.10282983
0002f0 eb b0 88 be 20 88 34 3f 65 ac 69 bd d8 77 78 bf
       -0.26697478 0.7052021 -0.057049174 -0.9705787
000300 8d 10 14 be d3 cc cc 3e 25 98 38 3f 26 68 6e 3f
       -0.14459439 0.40000018 0.72107154 0.9312767
000310 5a 43 1b bf fe 1a 2a 3f 9b 21 8e be d0 27 af 3e
       -0.60649645 0.66447437 -0.27760014 0.34210062
000320 9c 76 0d bf de 77 03 be 36 ee 75 3f 28 53 da bf
       -0.5525911 -0.12838694 0.96066606 -1.7056627
000330 a7 af 77 3e c0 82 1a bf 59 5f 0c 3e d5 73 76 3f
       0.241881 -0.6035576 0.13708247 0.96270496
000340 f5 33 bc 3d 48 46 09 3f 4d 84 d1 3e 22 01 2c 3f
       0.091895975 0.53622866 0.4092125 0.6718923
000350 9f b0 26 bf ed 70 02 3f 9b 28 2c bf a4 44 8f 3f
       -0.6511325 0.5095356 -0.6724946 1.1192822
000360 3b 3c 11 3f e9 f5 ed bf da 9d 75 bf 5c b3 f1 3e
       0.5673253 -1.8590671 -0.9594399 0.47207153
000370 e9 5a d6 3e 63 11 6b bf 2f 46 bd 3e 75 a6 1b bf
       0.41866234 -0.91823405 0.36967608 -0.6080087
000380 eb 1e a3 be 3a 99 b9 3d 71 83 d9 bd 3e d9 24 3f
       -0.31859526 0.09062429 -0.106207736 0.64393985
000390 30 83 c6 bf 3d 09 58 be 56 e8 7c 3d 20 81 97 3f
       -1.5508785 -0.21097274 0.06174501 1.1836281
0003a0 48 ba 10 3f 93 af 86 bf f4 5d 84 be 92 86 00 3e
       0.5653424 -1.0522331 -0.2585293 0.12551335
0003b0 7f 8e 84 3e 50 d6 27 3f da f0 dc 3e f0 c6 a6 3e
       0.25889966 0.6556139 0.43152505 0.32573652
0003c0 75 c9 54 be 34 a2 eb 3e d2 26 1a bc ec 62 37 3f
       -0.20779975 0.4602219 -0.00940867 0.7163532
0003d0 29 ee 46 bf 8a fd 26 3f 23 4b 1e 3e ff e0 27 bf
       -0.77707154 0.6523062 0.1545835 -0.6557769
0003e0 e8 cb 8c 3f 8d 06 5e 3f eb 6c f9 be 0d 1a 1d 3d
       1.0999727 0.86728746 -0.4871591 0.038354922
0003f0 99 9a ea be 2c 43 65 3c 1f 85 8f bf bb 91 52 3e
       -0.45821074 0.013993066 -1.12125 0.20563404

network_body._body_endoder.seq_layers.0.bias f4 [128]
000000 00 00 00 00 00 00 00 00 00 00 00 00 00 00 00 00
       0.0 0.0 0.0 0.0
000010 00 00 00 00 00 00 00 00 00 00 00 00 00 00 00 00
       0.0 0.0 0.0 0.0
000020 00 00 00 00 00 00 00 00 00 00 00 00 00 00 00 00
       0.0 0.0 0.0 0.0
000030 00 00 00 00 00 00 00 00 00 00 00 00 00 00 00 00
       0.0 0.0 0.0 0.0
000040 00 00 00 00 00 00 00 00 00 00 00 00 00 00 00 00
       0.0 0.0 0.0 0.0
000050 00 00 00 00 00 00 00 00 00 00 00 00 00 00 00 00
       0.0 0.0 0.0 0.0
000060 00 00 00 00 00 00 00 00 00 00 00 00 00 00 00 00
       0.0 0.0 0.0 0.0
000070 00 00 00 00 00 00 00 00 00 00 00 00 00 00 00 00
       0.0 0.0 0.0 0.0
000080 00 00 00 00 00 00 00 00 00 00 00 00 00 00 00 00
       0.0 0.0 0.0 0.0
000090 00 00 00 00 00 00 00 00 00 00 00 00 00 00 00 00
       0.0 0.0 0.0 0.0
0000a0 00 00 00 00 00 00 00 00 00 00 00 00 00 00 00 00
       0.0 0.0 0.0 0.0
0000b0 00 00 00 00 00 00 00 00 00 00 00 00 00 00 00 00
       0.0 0.0 0.0 0.0
0000c0 00 00 00 00 00 00 00 00 00 00 00 00 00 00 00 00
       0.0 0.0 0.0 0.0
0000d0 00 00 00 00 00 00 00 00 00 00 00 00 00 00 00 00
       0.0 0.0 0.0 0.0
0000e0 00 00 00 00 00 00 00 00 00 00 00 00 00 00 00 00
       0.0 0.0 0.0 0.0
0000f0 00 00 00 00 00 00 00 00 00 00 00 00 00 00 00 00
       0.0 0.0 0.0 0.0
000100 00 00 00 00 00 00 00 00 00 00 00 00 00 00 00 00
       0.0 0.0 0.0 0.0
000110 00 00 00 00 00 00 00 00 00 00 00 00 00 00 00 00
       0.0 0.0 0.0 0.0
000120 00 00 00 00 00 00 00 00 00 00 00 00 00 00 00 00
       0.0 0.0 0.0 0.0
000130 00 00 00 00 00 00 00 00 00 00 00 00 00 00 00 00
       0.0 0.0 0.0 0.0
000140 00 00 00 00 00 00 00 00 00 00 00 00 00 00 00 00
       0.0 0.0 0.0 0.0
000150 00 00 00 00 00 00 00 00 00 00 00 00 00 00 00 00
       0.0 0.0 0.0 0.0
000160 00 00 00 00 00 00 00 00 00 00 00 00 00 00 00 00
       0.0 0.0 0.0 0.0
000170 00 00 00 00 00 00 00 00 00 00 00 00 00 00 00 00
       0.0 0.0 0.0 0.0
000180 00 00 00 00 00 00 00 00 00 00 00 00 00 00 00 00
       0.0 0.0 0.0 0.0
000190 00 00 00 00 00 00 00 00 00 00 00 00 00 00 00 00
       0.0 0.0 0.0 0.0
0001a0 00 00 00 00 00 00 00 00 00 00 00 00 00 00 00 00
       0.0 0.0 0.0 0.0
0001b0 00 00 00 00 00 00 00 00 00 00 00 00 00 00 00 00
       0.0 0.0 0.0 0.0
0001c0 00 00 00 00 00 00 00 00 00 00 00 00 00 00 00 00
       0.0 0.0 0.0 0.0
0001d0 00 00 00 00 00 00 00 00 00 00 00 00 00 00 00 00
       0.0 0.0 0.0 0.0
0001e0 00 00 00 00 00 00 00 00 00 00 00 00 00 00 00 00
       0.0 0.0 0.0 0.0
0001f0 00 00 00 00 00 00 00 00 00 00 00 00 00 00 00 00
       0.0 0.0 0.0 0.0

network_body._body_endoder.seq_layers.2.weight f4 [128, 128]
000000 ab e6 9d bd d9 f5 48 bd 15 91 a0 3c ac 36 8b bc
       -0.07710012 -0.049062584 0.01960043 -0.016993843
000010 da 53 99 3d 71 07 c7 bd 95 65 53 3d b3 76 9b 3d
       0.074866965 -0.09718216 0.051610548 0.075909995
000020 d4 68 ba bb 86 fa 9d bd 69 92 3f bc 71 7d 8d be
       -0.005688766 -0.07713799 -0.011692622 -0.27634767
000030 8f 0a 18 3e 12 a1 20 3d 6c fa e1 3d 28 97 14 be
       0.14847778 0.03921611 0.11034092 -0.14510787
000040 b2 f4 42 bd d7 e1 e8 bd 58 ed 97 3c 0a b2 27 3a
       -0.04759664 -0.113712005 0.018545792 0.00063970743
000050 53 04 cd bd 67 d2 64 bc 44 71 03 3e 79 93 d1 bd
       -0.100105904 -0.013966179 0.12836176 -0.10233206
000060 3d f4 08 3d aa ca 98 bd 9b d0 dd 3d ee 0c 95 bd
       0.03343605 -0.0746053 0.10830804 -0.07277857
000070 01 2f ef 3c 50 64 5a 3c 64 01 c7 3d 7d f5 d1 3d
       0.029197218 0.01332958 0.09717062 0.10251901
000080 06 11 06 bd 1a 58 cb 3d 2a cc b2 3c 7f bc bc 3d
       -0.03273108 0.099289134 0.021825869 0.0921564
000090 fd d7 0c be bc 6b 95 3d 1d 57 be bd 9e c1 63 3d
       -0.13754268 0.07295939 -0.09293959 0.05560457
0000a0 7a f2 a5 bd 4f c1 53 bd 5c 6e 01 3e c6 c6 ba 3d
       -0.08102889 -0.051698025 0.12639755 0.09119944
0000b0 12 3b e2 3d a2 75 aa 3d 00 e3 00 bc 0a f2 14 be
       0.11046423 0.08323218 -0.007866621 -0.14545456
0000c0 66 d0 49 bb 63 70 98 bc c4 7b 87 bd 89 0f 66 3d
       -0.003079438 -0.018608278 -0.06615403 0.05616716
0000d0 d1 2e 2c 3e 11 dc c2 3c 98 f6 3b bd 00 ee 79 bd
       0.16814734 0.023786576 -0.045889467 -0.06101799
0000e0 51 e2 95 3d 44 0a e3 3d aa 8a c7 38 ef 45 99 3d
       0.07318557 0.110859424 9.514888e-05 0.07484042
0000f0 46 d2 b3 bd 1e 28 9d 3c 4d 1a de 3d c4 f7 ba bd
       -0.08780341 0.019184168 0.1084486 -0.09129289
000100 93 01 d9 bd 5b d6 58 bd c9 45 78 3d 0f 07 c9 3c
       -0.105960034 -0.0529388 0.060613427 0.024539499
000110 8d c2 11 3d 4f 5d be bd f6 d9 ba 3d d8 a4 94 3d
       0.03558593 -0.09295141 0.09123604 0.07258004
000120 0b d9 cf 3d af af bc bb fc 62 a4 3d 90 0c 0c 3e
       0.101488195 -0.005758248 0.08026692 0.13676667
000130 9f 55 b4 bc 4b 25 06 3e 0a fa 61 3c f3 46 2a be
       -0.022013484 0.13100164 0.013792524 -0.16628627
000140 7f f2 2e 3d 83 83 87 bd 12 d2 5d 3d 82 61 4b be
       0.04271173 -0.06616881 0.054155417 -0.19861415
000150 bb 44 42 bd 3a 20 dc bd 83 ce a0 3d 14 ef 83 3d
       -0.047428828 -0.10748334 0.07851889 0.06442085
000160 60 91 c0 bb 05 0a ea 3c 91 8a d1 3d 17 82 86 bd
       -0.005876705 0.02856923 0.102315076 -0.065677814
000170 7c 73 5d 3d 2d 76 e0 bd 28 64 86 bd cf dc d7 bc
       0.054065213 -0.1096004 -0.06562072 -0.026350407
000180 86 fe 5e 3d d6 a8 45 bd 77 98 5b bd 10 88 3c bd
       0.05444195 -0.048256718 -0.0536122 -0.046028197
000190 e6 b1 e6 3b 7b a8 08 3d ce 09 00 3d 8a 89 08 be
       0.00704025 0.0333638 0.03125935 -0.13333717
0001a0 cb ec 64 bd 6e 5b 00 3e be a7 3e bc c7 57 ba bc
       -0.055889886 0.12534878 -0.011636673 -0.022746934
0001b0 8a b5 b3 3d 43 0f a8 bd a0 35 f7 bc 0f a9 ed bd
       0.0877486 -0.08206036 -0.030176938 -0.11604511
0001c0 36 12 0a 3e fe bd 97 bd 3f 4a 09 3d ca 9c 6c be
       0.1348351 -0.07409285 0.033518072 -0.23106685
0001d0 04 bc 0c 3e d6 c3 df bd 4b 72 3e 3c 60 47 c2 bd
       0.13743597 -0.109260246 0.011623929 -0.0948627
0001e0 c3 3d 94 bd 60 89 e6 3d 6c ed af 3c 13 a1 66 bd
       -0.072383426 0.11256671 0.021475516 -0.056305956
0001f0 1f c8 37 3d 15 99 90 3b 2b 60 04 3e 9e 19 e8 3d
       0.044868585 0.00441278 0.1292731 0.11333011
000200 dd 84 62 bb c0 1e b4 3d 21 28 cc 3d 6b 18 b5 bc
       -0.0034564056 0.087949276 0.099685915 -0.02210637
000210 a4 f5 b8 bb 83 20 07 bd c1 17 17 3e 52 c4 df bd
       -0.005644517 -0.03298999 0.14755155 -0.10926117
000220 b0 84 15 be a0 2a f9 3c 14 ee 98 3d c7 47 37 3c
       -0.14601398 0.030415833 0.07467285 0.011186547
000230 7b 61 af 3c 85 b2 9f bd 51 04 d0 bc 4b 34 93 3d
       0.021408787 -0.07797722 -0.025392683 0.071877085
000240 72 d1 6a 3b 82 1f ad 3d ba d1 c3 bc 79 56 19 3d
       0.0035830406 0.08453275 -0.023903716 0.037435982
000250 27 de f0 bc bc a8 76 3d 42 cb e9 bd 0a 4e a7 3d
       -0.029402805 0.06021951 -0.114157215 0.08169182
000260 e1 57 92 3e 48 7a cc 3d e1 cb a5 3c 8d dd 63 bd
       0.2858267 0.09984261 0.020238819 -0.05563121
000270 a2 b1 90 3c 61 ba cc 3d af 68 34 3d 7b 41 ab 3d
       0.017662827 0.099964865 0.044045147 0.08362099
000280 63 47 ac 3d 1c f3 8e 3c a6 9f b1 bd e3 05 3f 3d
       0.084120534 0.017449908 -0.08673029 0.046636473
000290 b8 8f a9 3c f4 19 cf 3d 6d f5 08 bc ce 4c e4 3d
       0.020698413 0.10112372 -0.008359295 0.11147462
0002a0 be bf a8 3c 0d 5c ed bb 2d 4c a0 bd b8 28 84 bd
       0.020599242 -0.0072436393 -0.078270294 -0.06453079
0002b0 85 f7 80 bd 99 49 e6 bc 7b 18 54 bd de ae e7 3d
       -0.062972106 -0.028111266 -0.05178116 0.1131265
0002c0 8a 1a d1 3b c7 de 7b be 71 5b c1 3c dc 89 f2 bc
       0.0063813375 -0.24596702 0.023603173 -0.029606752
0002d0 c1 46 8f bd bf c9 4d bd 15 e3 63 bd 3f d5 17 3d
       -0.06995917 -0.05024123 -0.055636484 0.0370686
0002e0 ad 52 e0 3d e2 9b b7 3b 91 cb 6d bd 45 87 ea 3d
       0.10953269 0.0056032995 -0.058055464 0.11451582
0002f0 3c 49 9a bd cb 63 d5 3d ca bd 8d bc 5c b6 35 be
       -0.075334996 0.104194246 -0.017302413 -0.17745346
000300 84 22 25 3d 84 24 f3 3d 64 c5 91 bd 57 e2 2e 3c
       0.04031612 0.11872199 -0.071177274 0.010674081
000310 0a 6c 54 be e1 d2 cc bd a4 58 74 bd cf 53 08 3e
       -0.20744339 -0.100011595 -0.059654847 0.1331322
000320 a0 2c 0c be d3 3a e1 3d 60 1d 23 3d 47 78 a3 3b
       -0.13688898 0.10997548 0.039822936 0.0049887034
000330 a3 d6 bf 3c 2d a3 92 bd 26 dc 89 bd e1 01 08 3c
       0.023417776 -0.071600296 -0.06731443 0.008301229
000340 42 35 df 3d f7 63 19 be 9a 07 5e bc 20 45 f1 bd
       0.1089883 -0.1497954 -0.013551617 -0.11780763
000350 56 c2 48 bd c0 93 5c 3c 3a 33 8c bd 5c cd 46 3e
       -0.04901346 0.013462961 -0.06845708 0.19414276
000360 93 e6 d1 3c 13 cf 28 be c1 e9 c5 3c 2f 1c 76 bd
       0.025622642 -0.16485243 0.024159314 -0.06008547
000370 ad ce 2d ba 80 e6 2f 3c 54 a7 5a 3d 12 57 2f 3e
       -0.00066302234 0.010736108 0.053382233 0.17123058
000380 4f b9 07 3b e7 5e ab 3d 81 28 52 bd a2 00 7f 3c
       0.0020709818 0.083677106 -0.05130816 0.015564116
000390 6a 4d 85 3d 09 f7 a5 bd f1 df 09 3e 64 f0 0f 3d
       0.06508906 -0.08103759 0.13464333 0.035141364
0003a0 e6 db f7 bd d8 33 da 3d 9b 6a 2c bd 8e c2 d5 3d
       -0.12102489 0.1065442 -0.042093854 0.10437499
0003b0 99 16 d3 bb 7f d0 6b 3d 35 4a 05 be be b1 f5 3d
       -0.006441903 0.057571884 -0.13016589 0.11996792
0003c0 58 3d e8 bd 67 e3 64 3c bf e7 bc bc 80 ad 8f bd
       -0.113398254 0.013970233 -0.023059724 -0.070155144
0003d0 ff 08 19 be 76 0e 0a 3c 5f 54 0e 3e b2 46 a4 3d
       -0.14944838 0.008426299 0.13899373 0.080212966
0003e0 60 c0 3e 3e 7a d5 59 3d ad 22 16 be 5c 46 9c 3d
       0.18628073 0.053182103 -0.14661665 0.076306075
0003f0 6d ca 81 bd 04 f6 9e bd e6 3e ab 3c 56 e4 34 bd
       -0.06337438 -0.077617675 0.020904016 -0.04416307

network_body._body_endoder.seq_layers.2.bias f4 [128]
000000 00 00 00 00 00 00 00 00 00 00 00 00 00 00 00 00
       0.0 0.0 0.0 0.0
000010 00 00 00 00 00 00 00 00 00 00 00 00 00 00 00 00
       0.0 0.0 0.0 0.0
000020 00 00 00 00 00 00 00 00 00 00 00 00 00 00 00 00
       0.0 0.0 0.0 0.0
000030 00 00 00 00 00 00 00 00 00 00 00 00 00 00 00 00
       0.0 0.0 0.0 0.0
000040 00 00 00 00 00 00 00 00 00 00 00 00 00 00 00 00
       0.0 0.0 0.0 0.0
000050 00 00 00 00 00 00 00 00 00 00 00 00 00 00 00 00
       0.0 0.0 0.0 0.0
000060 00 00 00 00 00 00 00 00 00 00 00 00 00 00 00 00
       0.0 0.0 0.0 0.0
000070 00 00 00 00 00 00 00 00 00 00 00 00 00 00 00 00
       0.0 0.0 0.0 0.0
000080 00 00 00 00 00 00 00 00 00 00 00 00 00 00 00 00
       0.0 0.0 0.0 0.0
000090 00 00 00 00 00 00 00 00 00 00 00 00 00 00 00 00
       0.0 0.0 0.0 0.0
0000a0 00 00 00 00 00 00 00 00 00 00 00 00 00 00 00 00
       0.0 0.0 0.0 0.0
0000b0 00 00 00 00 00 00 00 00 00 00 00 00 00 00 00 00
       0.0 0.0 0.0 0.0
0000c0 00 00 00 00 00 00 00 00 00 00 00 00 00 00 00 00
       0.0 0.0 0.0 0.0
0000d0 00 00 00 00 00 00 00 00 00 00 00 00 00 00 00 00
       0.0 0.0 0.0 0.0
0000e0 00 00 00 00 00 00 00 00 00 00 00 00 00 00 00 00
       0.0 0.0 0.0 0.0
0000f0 00 00 00 00 00 00 00 00 00 00 00 00 00 00 00 00
       0.0 0.0 0.0 0.0
000100 00 00 00 00 00 00 00 00 00 00 00 00 00 00 00 00
       0.0 0.0 0.0 0.0
000110 00 00 00 00 00 00 00 00 00 00 00 00 00 00 00 00
       0.0 0.0 0.0 0.0
000120 00 00 00 00 00 00 00 00 00 00 00 00 00 00 00 00
       0.0 0.0 0.0 0.0
000130 00 00 00 00 00 00 00 00 00 00 00 00 00 00 00 00
       0.0 0.0 0.0 0.0
000140 00 00 00 00 00 00 00 00 00 00 00 00 00 00 00 00
       0.0 0.0 0.0 0.0
000150 00 00 00 00 00 00 00 00 00 00 00 00 00 00 00 00
       0.0 0.0 0.0 0.0
000160 00 00 00 00 00 00 00 00 00 00 00 00 00 00 00 00
       0.0 0.0 0.0 0.0
000170 00 00 00 00 00 00 00 00 00 00 00 00 00 00 00 00
       0.0 0.0 0.0 0.0
000180 00 00 00 00 00 00 00 00 00 00 00 00 00 00 00 00
       0.0 0.0 0.0 0.0
000190 00 00 00 00 00 00 00 00 00 00 00 00 00 00 00 00
       0.0 0.0 0.0 0.0
0001a0 00 00 00 00 00 00 00 00 00 00 00 00 00 00 00 00
       0.0 0.0 0.0 0.0
0001b0 00 00 00 00 00 00 00 00 00 00 00 00 00 00 00 00
       0.0 0.0 0.0 0.0
0001c0 00 00 00 00 00 00 00 00 00 00 00 00 00 00 00 00
       0.0 0.0 0.0 0.0
0001d0 00 00 00 00 00 00 00 00 00 00 00 00 00 00 00 00
       0.0 0.0 0.0 0.0
0001e0 00 00 00 00 00 00 00 00 00 00 00 00 00 00 00 00
       0.0 0.0 0.0 0.0
0001f0 00 00 00 00 00 00 00 00 00 00 00 00 00 00 00 00
       0.0 0.0 0.0 0.0

action_model._discrete_distribution.branches.0.weight f4 [2, 128]
000000 55 12 e2 3b 45 38 ce ba 67 3b 16 3b e1 04 b6 39
       0.006899158 -0.0015733322 0.002292359 0.0003471738
000010 8a c7 10 bb 32 4c cc bb 7d 0d 41 bb 1a 73 49 bb
       -0.002209159 -0.006234669 -0.0029457503 -0.0030738772
000020 c3 7f 89 3a 87 6c 49 3a ed 33 6c bb d7 3a 18 bc
       0.0010490346 0.00076837133 -0.0036041692 -0.009291372
000030 43 a8 21 3c a3 20 2f bc f7 80 8f 3a e3 f0 aa 3b
       0.009866777 -0.010688934 0.0010948469 0.005216704
000040 f5 c7 45 3c e5 ea 47 3b 0e e3 93 3b 28 d7 1d bc
       0.012071599 0.0030504998 0.004513151 -0.009633817
000050 c7 fb 00 bb 74 08 bd bb 3a 4e b8 3b 6b cc 26 3c
       -0.001968132 -0.00576883 0.0056245597 0.010180573
000060 71 ff 06 bc 5e 4c 18 bc 71 2b 2d bc b7 7c 93 ba
       -0.008239613 -0.009295551 -0.010569439 -0.0011252378
000070 dc 32 2d bc d1 2a 3b bc 4b 3b 9a bb f4 b1 22 bc
       -0.010571208 -0.011423782 -0.0047067753 -0.009930123
000080 da 74 59 3c 87 11 33 3c d6 7e 8c 3c 90 8c ee bb
       0.0132724885 0.010929472 0.017150324 -0.00727994
000090 d7 fa 32 3c 29 34 81 3b e9 2c 19 bb 64 b1 3a bc
       0.010924063 0.0039429856 -0.0023372716 -0.011394832
0000a0 0f 4d 01 3c b9 c5 8a 3c bc fb 20 bc 6c c7 80 ba
       0.007891907 0.016939985 -0.009825643 -0.0009825057
0000b0 cd 55 5c bc f5 01 e8 ba 0a c9 71 bc b6 9d 89 3b
       -0.013448191 -0.0017700779 -0.014757404 0.004199709
0000c0 90 21 d9 bb 66 fa 1c bc 8b 1d 7e bc bc 30 be ba
       -0.0066263154 -0.009581184 -0.015509973 -0.0014510374
0000d0 da 85 14 bc b3 f1 8d bc ea 0a bf 3b 2f 68 ae 3b
       -0.009065116 -0.017327165 0.0058301585 0.0053224782
0000e0 2f d3 a9 bb 4d 32 25 bb b8 a4 1d 3a 04 c2 b5 3b
       -0.0051826457 -0.0025206984 0.000601362 0.00554681
0000f0 19 50 94 3b 3a c8 4f bc 8a c6 58 bc 02 ea 5b 38
       0.00452615 -0.012682015 -0.013230929 5.2431606e-05
000100 5b 4f 82 3c b5 21 75 bc f1 e5 b8 3b 1e 48 35 3a
       0.01590698 -0.01496165 0.0056426455 0.00069153483
000110 aa 66 6f bc d0 a2 a3 ba 5e 6c 44 bb 81 02 cc bb
       -0.014611879 -0.0012484435 -0.0029971818 -0.0062258844
000120 c2 b5 45 bc 07 dc 1a 3c ad 60 45 3b 4f 67 a2 3c
       -0.01206726 0.009451873 0.0030117438 0.019824652
000130 db 31 86 3b ec d8 49 bc 08 af e1 3b 87 19 75 3c
       0.0040952987 -0.012319785 0.0068873204 0.0149596995
000140 1e 7e 00 ba d4 87 33 bc 7f bd d4 bc 73 d4 24 bc
       -0.00049016054 -0.010957677 -0.025969265 -0.0100604175
000150 e8 33 50 bb 64 de 99 bb 7f bb b0 bb 7f 5a c9 bb
       -0.003176922 -0.0046957005 -0.005393445 -0.006144821
000160 d8 31 a2 3b 19 0f 93 39 2e 73 1f 3c 1f 83 96 3b
       0.0049497895 0.00028049274 0.009732051 0.0045932676
000170 62 d6 d9 3a ba 7d 02 bc 83 a6 13 bb 2f 65 42 3b
       0.0016619677 -0.007964546 -0.0022529669 0.002966236
000180 ec 31 96 3b c3 33 54 bb 86 0f 10 3c e0 19 57 bb
       0.004583588 -0.0032379485 0.008792764 -0.003282182
000190 d2 9c 65 bc 32 6c 55 3c c0 61 c1 3b 0e 8b 42 3c
       -0.01401444 0.013026284 0.0059015453 0.0118739735
0001a0 f9 b2 b1 3b 08 f2 92 bc 2c f9 19 b8 17 f3 bf 3b
       0.0054229465 -0.017937675 -3.6710102e-05 0.005857836
0001b0 a5 a9 e4 3b 7d c5 55 bc 98 7a fc 3b b6 01 11 3a
       0.006978231 -0.013047573 0.007705044 0.0005531566
0001c0 c3 67 ba 3c e8 53 15 bb a4 f0 21 3b 8a 36 cd bb
       0.022754556 -0.0022785608 0.0024710083 -0.006262605
0001d0 10 47 11 3c bf 01 21 3c 4f 07 46 3a f3 45 14 3c
       0.00886704 0.009827076 0.00075541897 0.00904988
0001e0 6b 8f 0d 3c c8 d3 5f 3c e1 cb 03 bb 16 46 97 ba
       0.008640151 0.013661332 -0.0020110535 -0.0011541273
0001f0 3a 6e 8d bb 20 a2 c0 3c b6 c1 13 bc 6d 56 d2 3b
       -0.0043161185 0.023514807 -0.009018352 0.006418994
000200 9a 48 01 bc 80 46 29 39 1d 3b 68 3b 0b 40 87 3b
       -0.007890845 0.00016143359 0.0035435625 0.0041275076
000210 1e 84 1f bb 1a c0 ca 3b 89 cd a8 ba 95 e5 1a 3c
       -0.0024340223 0.006187451 -0.0012878637 0.009454151
000220 11 5d 1f 3c f8 39 68 ba 76 89 16 bc 95 08 e2 3b
       0.009726779 -0.00088587357 -0.009188047 0.0068979957
000230 2f c9 98 3b da d4 2d 3c 07 d1 91 3a b5 bb d7 bb
       0.004662655 0.01060983 0.0011124917 -0.0065836557
000240 03 66 88 3c 5a 63 37 3b 0c b8 0b 3b a3 85 d9 bc
       0.016650205 0.0027982802 0.0021319417 -0.02655298
000250 13 b0 a4 3a 33 66 ec ba f1 e1 a6 3b bf 5c 43 3b
       0.0012564681 -0.0018035829 0.0050928523 0.002980992
000260 e3 dc f6 3b b4 7e a2 3b 35 1d 12 bb 53 83 82 3b
       0.007533656 0.004958952 -0.002229524 0.00398294
000270 af ed 86 3a 3f d5 9c 3b 5b 5c 52 3b b0 bd d0 3b
       0.0010294224 0.004786163 0.0032098505 0.0063702688
000280 e7 55 2f bb cc 47 0c 3b 8b 6e 49 bc fc b2 92 bb
       -0.0026754083 0.00214051 -0.012294422 -0.004476903
000290 a2 91 0f 3c 30 37 e3 bb be a9 a6 ba 85 b5 57 3c
       0.008762749 -0.006934069 -0.0012715382 0.013165836
0002a0 a5 02 3c bb 9f 3f 8b 3c 57 ea a3 3a b2 a9 1e 3b
       -0.00286881 0.01699811 0.0012505752 0.0024210033
0002b0 3d ef 2d 3b 9d 6f 5e bc 13 be 8f 3b 0b 4a fd ba
       0.0026540302 -0.013576415 0.0043866723 -0.0019324435
0002c0 9b 12 50 3b 0a 55 d9 ba ea eb bb bb 63 92 61 3c
       0.003174937 -0.001658113 -0.0057349103 0.0137678115
0002d0 79 47 19 bc fb a5 e8 3b 03 77 1d bc 08 35 55 3c
       -0.009355419 0.0070998645 -0.009610894 0.013013132
0002e0 db 41 24 bc 4d b6 ce 3b e5 e7 96 3b 5f 0b 42 bc
       -0.010025467 0.006308353 0.0046052807 -0.011843531
0002f0 0c 98 a9 ba eb e1 c5 bb ff f7 f8 3b 1b 72 09 3c
       -0.001293899 -0.0060388944 0.007597923 0.008389021
000300 50 df 01 3b 4f 87 47 3c 74 25 c1 bb ee 2e 9a bc
       0.0019816943 0.012178256 -0.0058943573 -0.018821206
000310 71 6c c8 3b ba 9d 42 3b 7b 33 fe 3b b7 dc 2d 3b
       0.006116443 0.0029696063 0.007757602 0.0026529261
000320 d8 72 ee bb 63 b6 7e 3c 85 cf b0 3b d6 3d 1d bc
       -0.007276874 0.015546414 0.005395832 -0.009597262
000330 57 6c 95 bb 9a 35 c3 3a 53 2e 71 bb 83 1d 84 bb
       -0.0045600343 0.0014893294 -0.0036801293 -0.0040318384
000340 6c 2e b0 3b f0 0c 3c bb 72 c3 bb 3a bd 92 a6 3b
       0.0053766277 -0.0028694235 0.0014325215 0.0050834105
000350 dd 3c 25 3c 25 0f 9b bc df dc 50 3c cf 0e 8f 3c
       0.010085312 -0.01892812 0.012747972 0.017463116
000360 da b2 b3 bb bd a1 51 bb 95 34 d3 3b 47 a8 e7 3a
       -0.0054839673 -0.0031987273 0.0064454773 0.0017674052
000370 c2 a5 af 3a 2b 3b 85 3b f0 38 b0 3b cf 72 1d 3c
       0.001340084 0.0040658913 0.005377881 0.009609892
000380 9d a2 ce 3b bb dc e3 3b 82 87 40 3a ec 86 3d 3c
       0.006306006 0.0069538034 0.0007344411 0.011567812
000390 d7 d0 d3 ba 8c b4 10 3c 15 1c f6 3b 2d e3 9c bb
       -0.0016160262 0.008832108 0.007510672 -0.0047878237
0003a0 b0 05 d4 bb 0c 1e 41 bc e4 9e b0 3b d3 7a 35 bc
       -0.0064704046 -0.011786949 0.005390035 -0.011076647
0003b0 80 72 59 39 72 85 89 bb 0e d3 a0 3c e8 da 50 3c
       0.00020737387 -0.004196816 0.019631889 0.012747504
0003c0 78 bd 7b 3b 5f 51 41 bc 96 f7 0f 3c 08 f9 2e bb
       0.0038412493 -0.011799186 0.008787056 -0.0026698727
0003d0 43 32 90 3b 0c 80 32 3b 37 ab 18 ba 8a d2 04 bb
       0.004400523 0.0027236966 -0.0005823853 -0.0020267093
0003e0 c8 34 15 3c db 66 af bc ba 55 3d bb f7 dc b8 3b
       0.009106822 -0.02141135 -0.0028890208 0.0056415754
0003f0 31 d3 06 3b 07 04 36 3b ba 04 45 3b 0b 31 cf bb
       0.0020572657 0.0027773397 0.0030062632 -0.006322985

action_model._discrete_distribution.branches.0.bias f4 [2]
000000 00 00 00 00 00 00 00 00
       0.0 0.0

49 f4 [2]
000000 bb c6 e0 3f 52 9d 0a 40
       1.7560648 2.165852
