results/flappyBirdRun_v2/FlappyBirdAgent.onnx (onnx, 71034 bytes, 8 tensors)

network_body.observation_encoder.processors.0.normalizer.running_mean f4 [2]
0	0x3fd7e720	1.6867409
1	0x40300f17	2.750921

network_body._body_endoder.seq_layers.0.weight f4 [128, 2]
0	0x3c0daa9d	0.008646634
1	0x3fa1300b	1.2592787
2	0xbf642b32	-0.8912841
3	0xbf1abe7f	-0.60446924
4	0xbe2cbe7c	-0.16869539
5	0x3e5b13b6	0.21394238
6	0x3c8787d8	0.016544268
7	0xbd8d8184	-0.06909469
8	0x3f81d409	1.0142833
9	0x3fc34dbc	1.5258098
10	0xbf740fa2	-0.95336354
11	0xbd59a65d	-0.053137172
12	0x3f089966	0.5335907
13	0x3f88d2f6	1.068938
14	0xbea2667d	-0.31718817
15	0xbf244d80	-0.64180756
16	0x3eb0cda4	0.3453189
17	0xbf0b9a46	-0.5453228
18	0x3fa187bd	1.2619549
19	0x3df2c0bb	0.11853167
20	0x3f166a6d	0.5875614
21	0xbfac3dc7	-1.3456353
22	0xbe67c2af	-0.2263286
23	0xbed9d9c1	-0.42548946
24	0xbf92b21a	-1.1460602
25	0x3ee57ff7	0.44824192
26	0xbee62c9f	-0.44955918
27	0x3f3cf92d	0.7381771
28	0xbf069609	-0.52572685
29	0xbf7916a4	-0.9730017
30	0x3e656da2	0.22405103
31	0xbf35ed68	-0.7106538
32	0x3f5b8a95	0.85758334
33	0x3fc5b734	1.5446534
34	0xbe58454b	-0.21120183
35	0xbec1f069	-0.3787873
36	0xbd030c3b	-0.031994086
37	0xbd16f044	-0.03685023
38	0xbe8dda88	-0.2770579
39	0xbe179a52	-0.14804962
40	0x3f8c90cc	1.0981688
41	0xbf1667b9	-0.5875202
42	0xbe791453	-0.2432416
43	0xbf0dd1fd	-0.5539854
44	0xbe97e068	-0.29663396
45	0x3dbf08b2	0.093278304
46	0x3f98fbd4	1.1951852
47	0xbee6dce1	-0.45090392
48	0x3fb01233	1.3755554
49	0xbf138b1d	-0.57634145
50	0xbf4e99ef	-0.80703634
51	0x3e66e941	0.22549917
52	0xbf2e5fde	-0.6811503
53	0xbf65633b	-0.8960454
54	0x3f2ee513	0.6831829
55	0x3eb7161e	0.35759062
56	0x3ec75ac9	0.3893645
57	0xbf8076fa	-1.0036309
58	0x3f0662f0	0.52494717
59	0x3f0479d0	0.5174837
60	0xbd9b0fd0	-0.07571375
61	0x3dad1205	0.084507026
62	0xbf0d3221	-0.55154616
63	0xbe7ce78f	-0.24697708
64	0x3ea5adac	0.32359064
65	0xbf6ccecb	-0.9250304
66	0x3ddc8d42	0.1076913
67	0x3f4947a6	0.7862495
68	0xbf8d3c3a	-1.1034005
69	0x3f936e06	1.1517951
70	0xbf89edf7	-1.0775746
71	0x3edfdbaa	0.43722278
72	0x3fa2afc4	1.270989
73	0xbf53ff59	-0.82811505
74	0x3e9cad5e	0.3060102
75	0x3f00230c	0.5005348
76	0xbe4e07e7	-0.20120202
77	0x3f4064af	0.7515363
78	0xbd6b864d	-0.057501126
79	0xbefc2736	-0.49248666
80	0x3eedc846	0.4644186
81	0xbe1c0f76	-0.15240273
82	0xbf5bf779	-0.8592449
83	0x3e7e00e4	0.24805027
84	0xbe652b0f	-0.22379707
85	0x3e7370b9	0.23773469
86	0xbf0e5894	-0.5560391
87	0x3fa5a9ca	1.294244
88	0x3fad2154	1.3525796
89	0xbe69582e	-0.22787544
90	0x3f29a2b6	0.662639
91	0x3d87dd93	0.06634059
92	0xbeb96a68	-0.36213994
93	0xbe41fd7f	-0.18944357
94	0xbf267100	-0.65016174
95	0x3d725351	0.059161488
96	0x3f9a8377	1.207137
97	0x3f63f19f	0.8904056
98	0x3f09415c	0.53615355
99	0x3f9f9183	1.2466282
100	0xbf520158	-0.820333
101	0x3ed95910	0.42450762
102	0xbfbd590d	-1.4792801
103	0xbfb27ee5	-1.3944975
104	0x3e355864	0.177095
105	0xbdfec349	-0.124395914
106	0xbf099a0e	-0.53750694
107	0x3f36b606	0.71371496
108	0xbec2b750	-0.3803048
109	0x3e4b3216	0.19843325
110	0x3f62f24c	0.88650966
111	0xbf851b14	-1.0398889
112	0xbe2e2109	-0.1700479
113	0xbee706ba	-0.4512232
114	0xbf9e3b6c	-1.2361884
115	0xbf6ecee5	-0.93284446
116	0x3f80c311	1.005953
117	0xbe0c9cb7	-0.13731657
118	0x3f0661d3	0.5249302
119	0x3bf4c3b0	0.007469617
120	0xbf412a69	-0.7545534
121	0xbf456b1d	-0.77116567
122	0x3fc511af	1.5396022
123	0x3ee1395e	0.4398908
124	0x3d5050ab	0.05085818
125	0x3ec2cec3	0.38048372
126	0xbfa60312	-1.2969687
127	0xbf011203	-0.5041811
128	0x3f59ec62	0.85126317
129	0xbf15699f	-0.5836429
130	0x3d19ca3a	0.037546374
131	0x3e9df848	0.30853486
132	0xbbe329cd	-0.0069324733
133	0x3fbd71cf	1.4800357
134	0xbf697bf9	-0.9120479
135	0x3e993e2d	0.2993025
136	0xbf84a68d	-1.0363327
137	0x3c0a0e78	0.008426301
138	0xbd82df31	-0.06390227
139	0xbe286e7f	-0.16448401
140	0xbe20fcf7	-0.15721498
141	0x3f0814ab	0.53156537
142	0xbf1c8015	-0.6113294
143	0xbffd004a	-1.9765713
144	0xbece80fc	-0.40332782
145	0x3dd9508a	0.10611065
146	0xbedd9c96	-0.43283528
147	0xbedc017d	-0.42969885
148	0x3e9680b2	0.29395062
149	0xbec4f21d	-0.38465968
150	0xbf66b73d	-0.9012335
151	0x3e0fa734	0.14028627
152	0xbf0a8715	-0.5411237
153	0x3f93aac0	1.1536484
154	0xbea72d25	-0.3265163
155	0x3e98eaf0	0.29866743
156	0xbf09b6c8	-0.5379453
157	0xbeabd133	-0.33558044
158	0xbf2e9eb7	-0.6821093
159	0xbf7a3ed6	-0.9775213
160	0xbf88c1a9	-1.06841
161	0x3f383bf6	0.71966493
162	0xbe0a2ad1	-0.13492896
163	0xbe8f823c	-0.28029048
164	0x3f7040d8	0.93848944
165	0xbf21a7ce	-0.63146675
166	0x3ee6d0a2	0.4508105
167	0x3f376106	0.7163242
168	0x3eea0251	0.45704892
169	0x3f38ff58	0.72264624
170	0xbe911b11	-0.28340963
171	0xbe6c8d70	-0.23100829
172	0x3c7e8541	0.0155347
173	0xbe4a3edc	-0.19750541
174	0xbf454953	-0.7706501
175	0xbf51cafa	-0.8195034
176	0xbe0b0283	-0.13575177
177	0xbea484f6	-0.3213269
178	0x3eafc727	0.3433163
179	0xbe87715d	-0.26453677
180	0xbfc9d048	-1.5766687
181	0x3f36c4a7	0.7139382
182	0x3f693f6d	0.91112405
183	0x3e948454	0.29007208
184	0xbd6cfa8f	-0.05785614
185	0x3f0f577b	0.5599286
186	0xbd3661f6	-0.044527017
187	0x3f0de09a	0.5542084
188	0xbeaacda4	-0.33360016
189	0xbde79460	-0.11307597
190	0xbe1fffa4	-0.15624863
191	0xbd069f5a	-0.032866813
192	0xbdd0a12a	-0.101869896
193	0x3f2283f1	0.63482577
194	0xc003853a	-2.0550065
195	0xbdd2e43c	-0.102974385
196	0x3f74ded0	0.95652485
197	0x3fa6ba34	1.3025575
198	0xbe92c5c3	-0.28666505
199	0x3eed28d6	0.46320218
200	0xbf604bcc	-0.87615657
201	0xbf677ac1	-0.9042168
202	0xbe663e06	-0.22484598
203	0x3edd36c0	0.43205833
204	0xbf926769	-1.1437808
205	0x3fe58fd7	1.7934521
206	0x3f1cfe0f	0.6132516
207	0xbf0e12c2	-0.5549737
208	0x3e8d5bf4	0.27609217
209	0xbe7f4ea0	-0.24932337
210	0xbf97a1fc	-1.1846309
211	0x3fa307c7	1.2736748
212	0xbf81644d	-1.0108734
213	0x3e4c4e70	0.19951797
214	0x3ef676ef	0.48137614
215	0xbf39e7cc	-0.7261932
216	0x3f169180	0.58815765
217	0xbe86c17f	-0.263195
218	0xbfaadd09	-1.3348705
219	0x3ee1f046	0.44128627
220	0x3ea6775c	0.3251294
221	0x3ee924d5	0.45535913
222	0xbe6aea01	-0.22940828
223	0x3ec70e75	0.38878217
224	0x3f801b8e	1.0008409
225	0xbcd3ee83	-0.025870567
226	0x3e108692	0.14113835
227	0x3ec79b8f	0.3898587
228	0x3e9e9722	0.3097468
229	0x3f2fd951	0.68690974
230	0x3f56f7bb	0.83971757
231	0xbe1375a4	-0.14400345
232	0xbf0d7f2a	-0.5527216
233	0x3e5e33d5	0.2169946
234	0xbf87f563	-1.0621761
235	0x3e12ceb1	0.14336659
236	0xbd6368b2	-0.055519767
237	0x3f6f8afc	0.9357145
238	0x3e19002e	0.14941475
239	0xbf017623	-0.5057089
240	0xbf7dd5b9	-0.9915424
241	0xbe8bd181	-0.27308276
242	0xbee4656c	-0.4460863
243	0xbda68351	-0.08130515
244	0xbf635533	-0.8880188
245	0x3dd560c5	0.10418848
246	0x3f90c63c	1.1310496
247	0xbf256bbe	-0.64617527
248	0x3f199e00	0.60006714
249	0x3f1c3cb1	0.6103011
250	0x3eca04af	0.39456698
251	0x3fbe88ac	1.4885459
252	0x3e9464f2	0.28983265
253	0x3f8ccdc4	1.1000295
254	0xbf4f295f	-0.809225
255	0x3db01186	0.08597092

network_body._body_endoder.seq_layers.0.bias f4 [128]
0	0x3d28d9eb	0.041223448
1	0x3cb5916c	0.02216407
2	0xbd66030a	-0.056155242
3	0x3d505d57	0.050870266
4	0x3d5b352a	0.053517498
5	0xbcd856e1	-0.026408615
6	0x3d29e803	0.04148103
7	0x3cd5498e	0.02603605
8	0xbd1e574f	-0.038657483
9	0x3d55c548	0.052190095
10	0x3b871a3f	0.004123002
11	0xbced9d47	-0.02900566
12	0x3cfe793f	0.031063674
13	0x3c050834	0.008119632
14	0x3cb7e01c	0.02244573
15	0x3d3aeeb4	0.0456378
16	0x3d2dfb73	0.04247613
17	0x3c5402a9	0.012940087
18	0xbd50a523	-0.050938737
19	0xbcd133eb	-0.025537452
20	0x3d50f897	0.051018324
21	0xbce5afbf	-0.028037904
22	0x3ceba13d	0.028763408
23	0x3d6261e5	0.05526914
24	0x3d5649eb	0.052316587
25	0xbc8be13e	-0.017075177
26	0x3cb928d8	0.022602484
27	0x3d3d3ff7	0.04620358
28	0x3d13f7ff	0.03612518
29	0x3d3e63aa	0.046481766
30	0x3d3d683b	0.04624198
31	0xbc4244e3	-0.011857244
32	0x3d0ce5c2	0.0343988
33	0xbba800eb	-0.0051270626
34	0x3d0b2e36	0.033979617
35	0x3c845fe5	0.016159007
36	0x3d57b5f1	0.052663747
37	0xbcd1c6a1	-0.025607409
38	0x3d2cf530	0.042226017
39	0x3d07a8b3	0.03311987
40	0x3d5679bd	0.052362192
41	0x3d0525e8	0.032506853
42	0xbd38c3ec	-0.04510872
43	0x3d0b6660	0.03403318
44	0x3d5246a1	0.05133689
45	0x3d4119c5	0.047143716
46	0xbd167fdf	-0.03674304
47	0x3c817f42	0.015807752
48	0x3d4dbffa	0.05023191
49	0x3d5599bf	0.052148577
50	0x3d0add8d	0.033902694
51	0x3cb13999	0.02163391
52	0x3d06e063	0.032928836
53	0xbc9a484a	-0.018833298
54	0xbcd3a874	-0.02583716
55	0x3c817ac2	0.015805606
56	0xbd2c68f1	-0.042092267
57	0x3cdf516e	0.027260508
58	0xbb09b27a	-0.0021010921
59	0x3d5b3076	0.053513013
60	0x3d1a7cf7	0.037716832
61	0x3ccd7e11	0.025084527
62	0xbcfb1edb	-0.030654361
63	0x3cfd2840	0.030902982
64	0x3d6bc029	0.057556305
65	0xbc75e2d3	-0.015007692
66	0x3d255a13	0.040369105
67	0x3c83c207	0.01608373
68	0x3cce537f	0.025186298
69	0xbc0f5c7e	-0.008750079
70	0x3d00379f	0.031303044
71	0x3cc8f9c1	0.024533154
72	0x3cde5ab3	0.027142858
73	0xbcacaad7	-0.021077557
74	0x3d5691c3	0.052385103
75	0xbca1b8ce	-0.019741442
76	0x3bb1ca94	0.0054257605
77	0xbd1fd80b	-0.039024394
78	0xbbc8a2f0	-0.0061229393
79	0x3cdadeb1	0.026717516
80	0x3cd08672	0.025454734
81	0xbd3eac00	-0.04655075
82	0x3d5c60ff	0.05380344
83	0xbc42b85a	-0.011884773
84	0xbc5e1bc6	-0.013556426
85	0xbce1dcd7	-0.027571125
86	0x3c667851	0.014066772
87	0x3cd32626	0.025775027
88	0x3c99a651	0.018756064
89	0xbc2bd2e5	-0.010487293
90	0x3d0375e8	0.032094866
91	0x3d539be9	0.05166236
92	0xbd08e215	-0.033418734
93	0xbcd53b8d	-0.026029373
94	0x3bf96d0b	0.007611876
95	0x3d2f03be	0.04272818
96	0xbcf8adef	-0.030356376
97	0x3cc0caed	0.023534263
98	0x3d52548a	0.051350154
99	0xbd2d526c	-0.04231493
100	0x3d075b86	0.033046268
101	0x3d3e0062	0.046387084
102	0x3cf3070d	0.029666448
103	0xbc9a9a89	-0.018872516
104	0x3d4a32b4	0.04936476
105	0x3d183a5e	0.03716504
106	0x3d3853bb	0.045001727
107	0x3d2768e6	0.040871523
108	0x3d3d4610	0.046209395
109	0x3bd5f552	0.0065294886
110	0x3d274d0d	0.040844966
111	0xbcfa3cc5	-0.030546555
112	0x3d5074c9	0.050892625
113	0xbd60de70	-0.054899633
114	0xbc6f0a29	-0.014589825
115	0x3d5513a5	0.052020688
116	0x3d1e5416	0.03865441
117	0x3c9e5e81	0.019332172
118	0x3ce4ac8c	0.027914308
119	0xbcc68e8e	-0.024237897
120	0x3cd1d34c	0.02561345
121	0xba96a82c	-0.0011494211
122	0xbcd2968d	-0.025706554
123	0x3d2fd788	0.042930156
124	0xbcea894e	-0.028629925
125	0x3d3beba7	0.045879032
126	0x3cfa02bc	0.030518882
127	0x3c156fa4	0.0091208555

network_body._body_endoder.seq_layers.2.weight f4 [128, 128]
0	0xbe248587	-0.16066562
1	0x3d815e0e	0.06316768
2	0x3d9f4f1f	0.07778763
3	0x3c323080	0.010875821
4	0xbd7f7e3f	-0.062376257
5	0xbd945706	-0.07243161
6	0xbdba19e8	-0.090869725
7	0xbd9fcc79	-0.07802672
8	0xbe051461	-0.12996055
9	0x3cd31bef	0.025770156
10	0xbd21cd42	-0.03950239
11	0x3e41dad0	0.18931127
12	0x3d854a2e	0.06508289
13	0xbcd402b4	-0.025880195
14	0xbe05a409	-0.13050856
15	0xbcfe4f9a	-0.031043816
16	0x3dbfe780	0.09370327
17	0xbdc38d56	-0.09548442
18	0x3dc90a03	0.09816363
19	0x3d87c5ae	0.06629501
20	0xbe7651c9	-0.24054636
21	0xbb4841bf	-0.0030556766
22	0x3bd422c3	0.0064738705
23	0xbe01ee6b	-0.12688605
24	0xbc059b91	-0.008154766
25	0x3cccc957	0.02499835
26	0xbdcead70	-0.10091674
27	0xbd28d44b	-0.041218083
28	0xbc88f6a7	-0.016719176
29	0x3c6ef3ad	0.014584464
30	0x3d58596c	0.052819654
31	0x3e0e0ad1	0.13871314
32	0x3de503c9	0.111823626
33	0x3d831fd7	0.06402557
34	0xbdc23547	-0.09482818
35	0xbe0dd55f	-0.13850926
36	0x3d7860ca	0.06063918
37	0xbd2b8dfb	-0.04188345
38	0xbe0ef3c5	-0.13960178
39	0xbe2a7afa	-0.16648474
40	0x3e4762ba	0.19471255
41	0xbcd4acca	-0.025961298
42	0xbd7ed87b	-0.06221817
43	0x3da730a1	0.08163572
44	0xbc28a52c	-0.010293286
45	0xbd9ac358	-0.0755679
46	0x3d3b9e9c	0.04580556
47	0xbdaa4b78	-0.08315176
48	0xbdf59000	-0.119903564
49	0x3e53ced8	0.20684373
50	0xbe806349	-0.2507575
51	0xbcfcfa43	-0.030881053
52	0xbe31e927	-0.17374097
53	0x3d2eb3fc	0.042652115
54	0xbce6787b	-0.028133621
55	0xbe0371ef	-0.12836431
56	0xbdce31ff	-0.1006813
57	0x3cfc4f0d	0.030799413
58	0xbcddcad7	-0.02707426
59	0x3d28775b	0.04112945
60	0x3c8b6e91	0.017020496
61	0xbd558210	-0.05212599
62	0xb821798e	-3.8498598e-05
63	0xbe2c9cb1	-0.16856648
64	0x3e36a5a3	0.17836623
65	0xbd910024	-0.07080105
66	0xbe084d2b	-0.13310687
67	0xbd111020	-0.03541577
68	0x3d6dc5c6	0.05804994
69	0xbd5e5a90	-0.054285586
70	0xbd5cf651	-0.053945843
71	0xbcff1983	-0.031140095
72	0xbcd9b23a	-0.026574243
73	0xbdb0c433	-0.08631172
74	0xbdcb7950	-0.09935248
75	0x3d0af073	0.033920716
76	0xbdffbd15	-0.124872364
77	0xbd3cedc8	-0.046125203
78	0xbe0fb5fb	-0.14034264
79	0xbe37d7ed	-0.17953463
80	0xbd90a9e5	-0.07063655
81	0x3cf2718a	0.029595155
82	0x3cdd4fda	0.027015615
83	0x3ce3ff93	0.027831828
84	0xbcdd0c65	-0.02698345
85	0xbd85edd3	-0.06539502
86	0x3df7619a	0.12079163
87	0x3d599461	0.05312002
88	0xbdb875bd	-0.09006832
89	0xbdbb3a07	-0.09141927
90	0xbb67c711	-0.0035366456
91	0xbd20b1d7	-0.0392321
92	0xbe04c14a	-0.12964359
93	0xbd733a2a	-0.05938164
94	0x3bbc0d12	0.005738863
95	0xbe0106cc	-0.12600249
96	0xbe0803ff	-0.13282774
97	0xbd02b6ae	-0.0319125
98	0xbd23f334	-0.04002686
99	0xbd88216e	-0.06647001
100	0xbe0a21d5	-0.13489468
101	0x3d8822a4	0.06647232
102	0x3d931dc6	0.07183413
103	0x3d19a8e6	0.03751459
104	0x3dfce5fc	0.123485535
105	0x3d8feb7d	0.07027338
106	0xbe2f2a1f	-0.17105912
107	0x3dea194f	0.114306085
108	0xbdeccc43	-0.11562397
109	0x3cf3b907	0.029751314
110	0xbc1d2c90	-0.009593144
111	0x3cc3264c	0.023821972
112	0x3dff67db	0.12470981
113	0x3e16a3d6	0.14710936
114	0xbc8e02d0	-0.017335325
115	0xbdbe0601	-0.09278489
116	0xbe3dff18	-0.18554342
117	0x3d2a61e1	0.04159725
118	0xbe0201e1	-0.12696029
119	0x3d2a4f8a	0.04157976
120	0xbd1ef0a3	-0.038803708
121	0x3dd8a5e1	0.10578514
122	0x3c1d6f55	0.009609063
123	0xbd069ff9	-0.032867406
124	0xbe182df4	-0.1486128
125	0xbda08bea	-0.078391865
126	0xbced304e	-0.028953698
127	0x3e0f6eb1	0.14007069
128	0xbdeb8564	-0.115000516
129	0x3dc22c0a	0.09481056
130	0x3da8d532	0.08243789
131	0xbe014815	-0.12625153
132	0xbc5f33a7	-0.013623155
133	0xbca2f4d0	-0.019892126
134	0xbe117ca3	-0.14207701
135	0xbe0b77bb	-0.13619892
136	0x3dd94708	0.10609251
137	0xbd098216	-0.033571325
138	0xbd8c2136	-0.06842272
139	0xbcccea92	-0.025014196
140	0xba718800	-0.0009213686
141	0x3db4ecdb	0.08834239
142	0xbdb0efbb	-0.08639475
143	0x3d30566e	0.043051176
144	0xbde55ba2	-0.11199118
145	0x3d81a32f	0.06329953
146	0x3d494207	0.049135234
147	0xbd8ae6af	-0.06782281
148	0xbdb7ee81	-0.08981038
149	0x3ca0e8ff	0.019642351
150	0xbd4d173e	-0.050070994
151	0x3d00259d	0.03128587
152	0xbc8ee78b	-0.017444393
153	0x3cff908f	0.03119686
154	0x3df1cc6b	0.11806568
155	0xbda9927a	-0.08279891
156	0xbe51559a	-0.2044281
157	0xbc6db997	-0.01450958
158	0xbcd7f6b5	-0.026362756
159	0xbdade78e	-0.08491431
160	0x3dee2372	0.116278544
161	0xbdad5272	-0.08462991
162	0xbd94700b	-0.07247933
163	0xbd5cbed8	-0.05389294
164	0x3d17ff10	0.03710848
165	0x3d6a7a61	0.057245616
166	0xbcb1cead	-0.021704996
167	0x3d6dc3a9	0.058047924
168	0xbd20a1e4	-0.03921689
169	0xbdd58d16	-0.10427301
170	0xbcf5fcaa	-0.030027706
171	0xbdb8626e	-0.09003149
172	0x3da2453b	0.07923361
173	0xbddc791d	-0.10765288
174	0xbb8209e4	-0.003968464
175	0xbce6e453	-0.028185045
176	0x3dece692	0.11567415
177	0x3c07862b	0.008271734
178	0xbe0add6a	-0.13561025
179	0x3b50df78	0.003187148
180	0x3d08954e	0.033345513
181	0xbbc9a36c	-0.0061535146
182	0xbbb0a59e	-0.005390837
183	0xbe35e94e	-0.1776478
184	0x3e05e151	0.13074233
185	0xbe1c2297	-0.1524757
186	0x3c344d1a	0.011004711
187	0x3d32db14	0.04366596
188	0xbdb03af9	-0.08604998
189	0xbe04e088	-0.12976277
190	0xbccf9cbb	-0.02534329
191	0xbd3b37cd	-0.045707513
192	0x3bd25181	0.0064184074
193	0xbe0d2bcc	-0.13786238
194	0xbd392c5f	-0.04520833
195	0x3b44c072	0.0030021933
196	0xbc7a5741	-0.015279592
197	0xbdfa6e27	-0.12228041
198	0xbe155021	-0.14581348
199	0xbda5303e	-0.08065842
200	0xbd013015	-0.031539995
201	0x3d8ca4f1	0.068673976
202	0xbe10ecf2	-0.14152887
203	0xbe210209	-0.15723433
204	0xbe31ab28	-0.17350447
205	0x3da2fd97	0.07958525
206	0xbe0e8893	-0.13919286
207	0x3d80bd55	0.06286112
208	0xbde3acc8	-0.1111694
209	0xbe5caeac	-0.21551007
210	0x3daacd51	0.08339942
211	0x3d16270f	0.036658343
212	0xbb38823d	-0.00281538
213	0xbbde2c29	-0.0067801666
214	0x3e0bf3fb	0.1366729
215	0xbc28736f	-0.010281428
216	0xbd4ec8e5	-0.050484557
217	0xbd1bdc00	-0.038051605
218	0x3d73de4f	0.059538182
219	0xbd9837ff	-0.074325554
220	0x3d088040	0.033325434
221	0xbcf802cb	-0.03027477
222	0xbc8acdeb	-0.016943892
223	0xbcc8c663	-0.02450866
224	0x3bf86ad8	0.007581096
225	0x3e1e021b	0.1543049
226	0x3c596076	0.013267627
227	0xbce74917	-0.028233094
228	0xbd40c57b	-0.047063332
229	0xbcc8a372	-0.024492
230	0x3d77c852	0.060493775
231	0xbdc4c77b	-0.096083604
232	0xbc76a3de	-0.015053717
233	0x3df0f68e	0.117657766
234	0xbdab6d89	-0.083705015
235	0xbdc1352f	-0.09433972
236	0xbd37b2e6	-0.044848345
237	0xbd112417	-0.03543481
238	0xbbb85f95	-0.0056266286
239	0xbdfc60fb	-0.12323185
240	0xbd968806	-0.07350163
241	0xbe06f92b	-0.13180988
242	0x3dd5ad7d	0.10433481
243	0x3c2554d4	0.010091025
244	0xbe03da09	-0.12876143
245	0xbdc8f6c1	-0.098126896
246	0x3bdc0e66	0.0067155836
247	0xbd511fb6	-0.051055633
248	0xbd8effd5	-0.0698239
249	0x3c4ad5bb	0.012380059
250	0x3d4dd9f3	0.05025668
251	0xbd745675	-0.059652764
252	0xbd444e3a	-0.047926165
253	0x3e1523dd	0.14564462
254	0xbd855ddb	-0.06512042
255	0x3b43b92a	0.0029865005

network_body._body_endoder.seq_layers.2.bias f4 [128]
0	0xbd5ac4c4	-0.053410307
1	0xbd4ea78c	-0.050452754
2	0xbafded22	-0.0019373039
3	0x3d400f3b	0.046889525
4	0x3d271129	0.04078785
5	0x3d08e26e	0.033419065
6	0x3d24b7a3	0.040214192
7	0x3d03e157	0.032197323
8	0xbd403534	-0.04692574
9	0xbcc50f86	-0.024055254
10	0xbd5e4d3f	-0.054272886
11	0xbce2be4f	-0.027678637
12	0x3cfb0235	0.0306407
13	0x3cade552	0.021227513
14	0xbcce2306	-0.025163185
15	0xbd6391e4	-0.055559054
16	0xbce2318e	-0.02761152
17	0xbd3a756f	-0.04552215
18	0x3cf7c1d2	0.030243788
19	0xbc4bbc09	-0.012434968
20	0x3cde3b61	0.027127923
21	0x3cbdb6b6	0.023158412
22	0x3cd116c7	0.025523556
23	0x3c385aa1	0.011252076
24	0xbd2c7ae7	-0.042109396
25	0x3cf73328	0.03017576
26	0xbce41fa8	-0.027847126
27	0x3d346b8c	0.044047877
28	0xbd3bdf68	-0.045867354
29	0xbcbc953b	-0.023020377
30	0xbd000ed1	-0.03126413
31	0xbccde4d3	-0.025133526
32	0xbd6a80b1	-0.057251636
33	0x3d39d68c	0.045370623
34	0xbc594801	-0.013261796
35	0xbd59ff2a	-0.05322186
36	0x3d4084d3	0.04700167
37	0x3cc64ce3	0.024206584
38	0x3cb96a71	0.022633763
39	0xbcbf3a4d	-0.02334323
40	0xbd3479d2	-0.04406149
41	0xbc5df749	-0.013547727
42	0xbbf1ba28	-0.007376928
43	0xbce351d7	-0.027748985
44	0xbd5a7826	-0.05333724
45	0x3bab3be7	0.005225647
46	0xbd6e7d1f	-0.058224794
47	0x3cd60027	0.02612312
48	0x3d38c0e0	0.045105815
49	0x3d1ab490	0.037769854
50	0x3cc27b6f	0.023740498
51	0x3d03efff	0.0322113
52	0xbd109fbd	-0.03530859
53	0x3ce557ab	0.027995905
54	0xbd5200ee	-0.051270418
55	0xbd51da10	-0.05123335
56	0x3d2ff007	0.042953517
57	0x3d203eb5	0.039122302
58	0xbd4d9ad2	-0.050196476
59	0x3ce3044a	0.027712006
60	0x3ccadf2d	0.024764622
61	0x3ad3eb66	0.0016168177
62	0x3d2a7334	0.041613773
63	0x3ce2ae97	0.027671142
64	0x3cf4eae0	0.029897153
65	0xbd38108d	-0.04493766
66	0x3d572c3f	0.05253243
67	0xbcc12a2d	-0.023579681
68	0xbcd5a5d4	-0.02608005
69	0xbd0c06b9	-0.0341861
70	0xbd2911f7	-0.0412769
71	0x3cd647c3	0.026157266
72	0x3d0c4231	0.034242813
73	0x3d342f4e	0.043990426
74	0xbcf4085b	-0.02978914
75	0xbccd80ec	-0.025085889
76	0xbd481215	-0.04884537
77	0x3cbf885d	0.023380453
78	0xbd067f49	-0.032836232
79	0xbd704243	-0.058656942
80	0xbd64ad94	-0.0558296
81	0x3cf20e49	0.029547827
82	0x3cbbb20b	0.022912046
83	0xbce2c9f0	-0.027684182
84	0x3cdf182e	0.02723321
85	0x3d23d219	0.039995287
86	0xbcccfb75	-0.025022248
87	0xbce56d2e	-0.028006162
88	0x3d428b14	0.047495916
89	0xbd409b5e	-0.04702317
90	0xbcbe3869	-0.023220258
91	0x3d42ba4a	0.04754094
92	0xbd36f863	-0.044670474
93	0x3d34278d	0.04398303
94	0xbd38a439	-0.04507849
95	0x3c83a664	0.016070552
96	0xbd37abdb	-0.04484163
97	0x3cc5467a	0.024081457
98	0x3b3d2bd9	0.0028865247
99	0xbd16dd2b	-0.036832016
100	0x3d52651d	0.05136596
101	0x3d355385	0.044269104
102	0x3d0c9835	0.034324843
103	0xbcdfefc2	-0.027336005
104	0x3c4891d9	0.012241804
105	0xbd58c9cd	-0.052926827
106	0xbcc8d8ac	-0.02451738
107	0x3bf6c692	0.0075309956
108	0x3cdb35ae	0.026758995
109	0x3ccc1176	0.02491067
110	0x3cd63784	0.026149519
111	0xbd29e2b0	-0.04147595
112	0xbd44cdb2	-0.04804773
113	0xbcd43f25	-0.025909016
114	0xbd57add9	-0.05265603
115	0xbd016548	-0.03159073
116	0xbd5b1277	-0.053484406
117	0x3cc9a976	0.024616938
118	0x3d4cedf3	0.050031614
119	0x3d388898	0.04505214
120	0xbd5f188a	-0.05446676
121	0x3cbec7eb	0.023288688
122	0x3d4ea8a6	0.050453804
123	0x3d48f94a	0.049065866
124	0xbd62d743	-0.05538107
125	0x3d0de742	0.034644373
126	0x3d12e6ec	0.035864756
127	0xbd2e3f25	-0.042540688

action_model._discrete_distribution.branches.0.weight f4 [2, 128]
0	0xbc4a5817	-0.012350104
1	0xbc86f55c	-0.016474418
2	0xbb2177b6	-0.0024638004
3	0x3c5e439c	0.013565924
4	0x3c07975e	0.008275835
5	0x3cb7324f	0.022362856
6	0x3ca5a1e0	0.02021879
7	0x3c700498	0.014649533
8	0xbd65018e	-0.055909686
9	0xbc76c662	-0.015061947
10	0xbcba77ec	-0.022762261
11	0xbcd17f92	-0.025573526
12	0x3c8d822f	0.01727399
13	0x3c2d50fc	0.01057839
14	0xbb838353	-0.004013458
15	0xbcb425f1	-0.021990748
16	0xbc708c8a	-0.014681945
17	0xbce7c06d	-0.028289998
18	0x3c15475a	0.00911125
19	0x3b1fe5db	0.002439848
20	0x3ca53a8c	0.020169519
21	0xbb5dc8f8	-0.003384171
22	0x3ca743af	0.020418016
23	0x3b952c4c	0.0045523997
24	0xbd14f167	-0.03636303
25	0x3c303b96	0.010756394
26	0xbc25f2e7	-0.010128713
27	0x3c9f320c	0.019433044
28	0xbba3cdd7	-0.0049989033
29	0xbc2f498f	-0.01069869
30	0x3bb00b72	0.005372458
31	0xbc5655a2	-0.01308194
32	0xbcd51c55	-0.026014486
33	0x3c895c6c	0.016767703
34	0x3c0d6b7e	0.008631585
35	0xbc471a63	-0.012152287
36	0x3d00fa13	0.03148849
37	0xbb724b98	-0.0036971327
38	0x3a34ce2e	0.0006897178
39	0xbbc27fa0	-0.0059356242
40	0xbd16c7da	-0.036811687
41	0xbc2cc184	-0.010544185
42	0x3a06147c	0.0005114747
43	0xbb788f5f	-0.0037927253
44	0xbd354d1d	-0.044262994
45	0xba63e9bc	-0.0008694192
46	0xbcac0f6e	-0.021003451
47	0x3b832122	0.0040017525
48	0x3cabc9a9	0.020970182
49	0x3ca632ef	0.020287959
50	0x3b118d43	0.0022209443
51	0x3c3b179d	0.011419204
52	0xbcbd2457	-0.023088617
53	0x3a8015b3	0.0009772092
54	0xbc93eaea	-0.018056352
55	0xbc9dcfc9	-0.019264119
56	0x3c8caf97	0.017173572
57	0x3c0c960f	0.008580699
58	0xbd0d797a	-0.034539677
59	0xba1da966	-0.0006014317
60	0x3ba40adc	0.0050061774
61	0x3c4cc505	0.012498145
62	0x3bd83665	0.006598281
63	0x3c0bd9dc	0.008535828
64	0x3baa08b6	0.0051890267
65	0xbd170984	-0.03687431
66	0x3cb5d495	0.022196094
67	0x3a2afd38	0.0006522718
68	0xbb67aa5c	-0.0035349345
69	0xbc5898ab	-0.013219993
70	0xbcb2e115	-0.021835843
71	0x3c8729fa	0.016499508
72	0x3c13f2d7	0.0090300655
73	0x3c59901b	0.013278986
74	0xbc34c71c	-0.0110337995
75	0xbc759b6f	-0.014990672
76	0xbcff7bbc	-0.03118693
77	0x3c0d7bd0	0.008635476
78	0xbcdcab97	-0.02693729
79	0xbc2205b5	-0.009889056
80	0xbce4e6c4	-0.027942069
81	0x3c4afca0	0.012389332
82	0x3c887462	0.016657058
83	0x387a01ed	5.960644e-05
84	0x3c1e85b1	0.009675429
85	0x3c74507b	0.014911766
86	0x3c02e2e7	0.007988668
87	0xbba10ee0	-0.0049151033
88	0x3b58c60f	0.0033077036
89	0xbcb7d6f9	-0.022441374
90	0x3bac4682	0.0052574286
91	0x3cc76051	0.02433792
92	0xbc904880	-0.017612696
93	0x3c966b38	0.018361673
94	0xbca9d164	-0.020729728
95	0x38d11fc4	9.9718134e-05
96	0xbce16996	-0.027516168
97	0x3b94945e	0.0045342883
98	0xbc3b70b6	-0.011440447
99	0xbc507882	-0.012724044
100	0x3c9b9cd7	0.018995686
101	0x3d081ffe	0.033233635
102	0x3bc6f2c4	0.0060714204
103	0xbcc99be3	-0.024610465
104	0xbb08f16e	-0.0020895856
105	0xbcdf184c	-0.027233265
106	0x3c13d64e	0.009023262
107	0xbc017632	-0.007901715
108	0x3ac0c77e	0.0014707891
109	0x3bfb57d7	0.0076703834
110	0x3c4dd381	0.0125626335
111	0xbcbb4dda	-0.022864271
112	0xbd137832	-0.0360033
113	0xb9470418	-0.00018979644
114	0xbd02b31e	-0.0319091
115	0xbb5dcc3f	-0.0033843664
116	0xbd0780fb	-0.03308199
117	0x3bdbbd59	0.0067059216
118	0x3c919627	0.017771794
119	0x3c976dbe	0.018484946
120	0xbade1cac	-0.0016945801
121	0xbc6593bf	-0.014012276
122	0x3c88a5d6	0.01668064
123	0x3c8a36e1	0.016871871
124	0xbc7ea5c5	-0.015542452
125	0x3a94e047	0.0011358344
126	0x3c87e613	0.0165892
127	0xbcb7548f	-0.022379188
128	0x3cdfffa6	0.027343582
129	0x3cb0f383	0.02160049
130	0xbb024585	-0.0019877863
131	0xbcacb1c5	-0.02108086
132	0xbbb19b69	-0.0054201377
133	0x3b82cfa4	0.003992038
134	0xbc3f13ac	-0.011662405
135	0xbc85e7af	-0.016345827
136	0x3d0f2621	0.034948472
137	0xba19e154	-0.00058700633
138	0x3ccbe573	0.024889683
139	0x3a5e25e2	0.0008474273
140	0xbc0d279b	-0.0086154
141	0x3be84095	0.007087777
142	0x3c2c0761	0.010499806
143	0x3cb0a4af	0.021562902
144	0x3bb428f2	0.005498045
145	0x3c07352a	0.008252421
146	0xbc8c7703	-0.017146593
147	0xbacf7439	-0.0015827484
148	0xbaf74184	-0.001886413
149	0xbc3089e7	-0.010775066
150	0xbc9f1c23	-0.019422596
151	0x3beb67ef	0.0071840207
152	0x3cc82e81	0.024436237
153	0x3a12bf05	0.0005597922
154	0x3c8352d0	0.016030699
155	0xbc953b69	-0.018216806
156	0x3ccef700	0.025264263
157	0x3b488085	0.0030594182
158	0x3c9fe921	0.019520344
159	0x3b540ab7	0.003235502
160	0x3cccc84d	0.024997855
161	0xbcfea0e5	-0.03108258
162	0x3c214d95	0.009845157
163	0x3d1cea51	0.0383094
164	0xbcd84533	-0.026400184
165	0xbc3ec61e	-0.0116439145
166	0xbbb7f5e8	-0.005614031
167	0x3c7571bf	0.014980732
168	0x3d0e3730	0.0347206
169	0xbc23cb4d	-0.009997201
170	0x3a572f4a	0.0008208646
171	0x3b5a1423	0.0033276163
172	0x3cd894bf	0.026438115
173	0xb91bfc2a	-0.0001487589
174	0x3ccd841a	0.025087405
175	0x3ac7cd25	0.0015243633
176	0xbbcb5d58	-0.006206196
177	0xbc2a75f5	-0.0104041
178	0xbc3b9664	-0.01144943
179	0xba2680ab	-0.00063515705
180	0x3cb48b8a	0.022039194
181	0xbbcb6dd3	-0.0062081604
182	0x3cdb2837	0.026752574
183	0x3d019c67	0.031643298
184	0xbcaa4c63	-0.020788377
185	0xbceb46d7	-0.028720303
186	0x3ccddf23	0.025130814
187	0xbc74f543	-0.014951053
188	0xbc0943b9	-0.008377963
189	0x3c42e10e	0.0118944775
190	0xbc0f8331	-0.008759306
191	0xbbf0e42c	-0.007351419
192	0xbc3caa24	-0.011515174
193	0x3c0e4b4a	0.0086849425
194	0xbc78666e	-0.01516114
195	0x3bf5a000	0.00749588
196	0x3c0e5d75	0.008689274
197	0x3bee15e1	0.0072657918
198	0x3cb355d0	0.021891505
199	0x3bb3ae2c	0.0054834094
200	0xbbb309a0	-0.005463794
201	0x3b102981	0.0021997395
202	0x3bc9ca31	0.0061581363
203	0x3b7e015f	0.0038758141
204	0x3d1bb4b6	0.038014136
205	0x3b295ba8	0.0025841985
206	0x3c005417	0.007832549
207	0x3d05e1ff	0.03268623
208	0x3d231855	0.039818127
209	0xbc0f72d5	-0.008755405
210	0x3b5329a7	0.0032220872
211	0x3c51c9b2	0.012804436
212	0x3a5ecab0	0.0008498831
213	0xbc5c7377	-0.013455263
214	0x3c47a0c1	0.012184323
215	0x3c7b7894	0.015348572
216	0xbcc0f53d	-0.023554439
217	0x3cf25f7b	0.029586544
218	0x3c5ad27b	0.0133558465
219	0xbc838df8	-0.016058907
220	0x3cd8f6d4	0.026484884
221	0xbca70f39	-0.020393
222	0x3cc68c47	0.024236811
223	0xba139e9a	-0.00056312385
224	0x3ce585b2	0.028017852
225	0x3a5fed02	0.0008542092
226	0xbb80e646	-0.0039337007
227	0x3c0d66ad	0.008630437
228	0xbcc244cf	-0.023714451
229	0xbc98646d	-0.018602574
230	0xbb5f0379	-0.003402917
231	0xbbdeda71	-0.0068009426
232	0xbb355e27	-0.0027674527
233	0x3d075c5a	0.033047058
234	0x3ca532e5	0.02016587
235	0xbb13d36a	-0.0022556433
236	0xbc1f7560	-0.009732574
237	0xbb079eda	-0.0020694048
238	0xbc0eb1bd	-0.008709368
239	0x3bb15d03	0.005412699
240	0x3cc3761f	0.023860035
241	0x3c48bbeb	0.012251834
242	0x3c95e824	0.01829917
243	0x3c4bcd18	0.012439035
244	0x3d0ef315	0.03489979
245	0x3b101606	0.0021985783
246	0xbc0562c6	-0.008141225
247	0xbcd58bfc	-0.026067726
248	0x3c4ae814	0.012384433
249	0xbcb10ed9	-0.021613525
250	0xbc52ff0f	-0.0128781935
251	0xbca3c544	-0.019991525
252	0x3c8a6991	0.016896041
253	0xbc02e1a7	-0.00798837
254	0xbbe89f7b	-0.0070990897
255	0x3c9f92a6	0.019479107

action_model._discrete_distribution.branches.0.bias f4 [2]
0	0x3d0ab63d	0.033865202
1	0xbd0ab63c	-0.0338652

49 f4 [2]
0	0x3fe92d0c	1.8216872
1	0x40223384	2.5343943
