results/flappyBirdRun_v3/FlappyBirdAgent/FlappyBirdAgent-14085.pt (torch, 428727 bytes, 41 tensors)

network_body.observation_encoder.processors.0.normalizer.running_mean f4 [2]
1.1598111 1.5302161
00000000: b174 943f 1fde c33f

network_body.observation_encoder.processors.0.normalizer.running_variance f4 [2]
53137.7 184427.33
00000000: b391 4f47 d51a 3448

network_body.processors.0.normalizer.running_mean f4 [2]
1.1598111 1.5302161
00000000: b174 943f 1fde c33f

network_body.processors.0.normalizer.running_variance f4 [2]
53137.7 184427.33
00000000: b391 4f47 d51a 3448

network_body._body_endoder.seq_layers.0.weight f4 [128, 2]
-0.21213196 0.2947816 0.8306717 -0.3100662 0.2041123 0.6201285 0.20520435 1.4817046
0.2446746 -0.3731325 -1.0240008 0.59458613 0.2776071 -0.072827555 0.98724556 0.010148719
0.024927286 0.22446227 0.32376918 0.58633524 1.1281278 1.4931382 0.6857116 0.804203
0.28769267 -0.088957004 0.3110484 -0.34518984 0.8668859 -1.1746036 0.877475 1.2758026
-0.8440886 2.0635047 -0.090088785 0.77154094 -0.858251 0.711176 -1.1358175 0.93338794
-1.0271348 0.897457 0.774179 0.34865326 0.56999665 1.2414829 0.062036946 -0.3357387
0.46116808 -1.2173654 -1.1189797 1.1746372 0.3566047 1.2120674 0.61247665 0.034800597
0.28789988 -1.4978994 0.051963296 0.5386124 0.4759831 0.5496474 -0.18094705 0.6753106
-0.59463453 -1.0850357 0.52334285 -1.1961412 1.1987095 -0.042721115 -0.021905318 0.012104616
0.6194778 -0.2037838 1.1706448 -0.47882372 -0.6511405 -0.32546103 -0.041040484 -1.5115954
0.52814126 -0.13613634 -0.9261738 0.4459605 0.05847294 -0.27672982 0.023960618 1.2710228
0.59053814 0.21665105 -0.06472382 -0.4480693 -0.06892531 -0.78996843 -0.84143925 0.9093543
0.7099796 0.9354612 -0.07543789 0.4508865 0.5221495 0.07523807 1.9022933 0.6053241
-0.68276274 0.2847383 0.19965227 -0.061722536 1.2066962 -0.6417009 0.1546094 0.54048055
0.6035203 -0.62901485 -0.9452512 0.13307266 -0.03994746 0.7232376 -1.4773552 0.0453799
-0.39189044 -0.4603392 0.4247614 -0.93895346 0.020413324 0.7056813 1.334644 -0.927721
0.47171634 -0.14304566 0.542988 -0.3108706 1.0692073 1.8220669 -0.092960276 0.27817768
-1.7016486 -0.5124454 -1.0507011 -0.7828544 0.005437962 -0.10007894 -0.123817585 -0.45058253
-0.84887034 0.41559386 -0.35477483 -0.28189892 -1.4500457 0.35639045 -0.33208543 -0.14008223
-1.2471677 0.7254854 0.13492848 0.5439963 -0.630124 0.55267566 -0.14185087 0.040944934
0.43966353 0.022608649 -0.66217023 -0.32034385 0.078262776 0.7679335 0.064792395 0.7519799
-0.19027166 0.012898094 1.3803258 0.012895495 -0.20480454 1.5782516 0.42692542 -0.07821821
0.9576052 -0.53079593 0.8866279 0.91994166 0.30158225 -0.2388315 0.57797074 0.31517592
0.21181463 0.91560906 1.9261348 -0.49020723 0.5970991 0.075919464 1.5394281 -0.10173467
-0.48745337 -0.39832047 -0.4482808 -0.52903146 0.8313033 -1.1037024 0.15063778 -1.387009
0.23257227 -1.1367314 0.72548234 -0.20382379 -0.4114863 -0.39278904 -0.9387441 -0.5934552
-0.59619856 0.040971935 -0.4387978 -1.0062944 0.48179173 -0.06739865 -0.16481622 0.7720382
-0.2945985 1.1954377 -0.18186657 -0.08769908 -0.08130069 1.044793 0.62407094 0.42205217
1.1255181 -1.7108531 -0.38135576 -0.73559844 0.36732817 -0.20130293 -0.33410314 0.117492765
0.5372596 -0.6794074 0.8170503 1.5015746 0.6447584 -0.16005798 1.0330544 -0.34728774
0.74963516 -0.55616957 0.9797943 -0.24386723 1.503159 -0.374678 0.6566315 0.16999461
-0.44491673 -0.11222481 0.26392856 -0.1962154 -2.1251044 -0.20968701 -0.6655373 0.22451536
00000000: 1f39 59be 9ded 963e e7a6 543f ffc0 9ebe
00000010: d102 513e bec0 1e3f 1721 523e 7fa8 bd3f
00000020: fa8b 7a3e 390b bfbe 7512 83bf cc36 183f
00000030: 8522 8e3e 9d26 95bd 20bc 7c3f d046 263c
00000040: 4f34 cc3c 70d9 653e 13c5 a53e 111a 163f
00000050: 7e66 903f 271f bf3f cc8a 2f3f 3fe0 4d3f
00000060: 744c 933e 172f b6bd bc41 9f3e b9bc b0be
00000070: 3cec 5d3f 6959 96bf 34a2 603f 804d a33f
00000080: 3116 58bf 7610 0440 7880 b8bd b583 453f
00000090: 56b6 5bbf a10f 363f 7862 91bf 83f2 6e3f
000000a0: 2779 83bf bebf 653f 9830 463f ae82 b23e
000000b0: 4deb 113f e9e8 9e3f 741a 7e3d f1e5 abbe
000000c0: 391e ec3e a1d2 9bbf ba3a 8fbf 835a 963f
000000d0: e494 b63e 0625 9b3f 45cb 1c3f 128b 0e3d
000000e0: 9d67 933e 2bbb bfbf 77d7 543d 81e2 093f
000000f0: 0fb4 f33e b1b5 0c3f 2f4a 39be 28e1 2c3f
00000100: f839 18bf 73e2 8abf ccf9 053f 281b 99bf
00000110: 506f 993f 56fc 2ebd c872 b3bc 7052 463c
00000120: 1996 1e3f b3ac 50be b0d7 953f 6228 f5be
00000130: 25b1 26bf d4a2 a6be 111a 28bd f57b c1bf
00000140: 4434 073f 5367 0bbe ba19 6dbf ef54 e43e
00000150: 5281 6f3d 88af 8dbe 0f49 c43c e0b0 a23f
00000160: 822d 173f c6d9 5d3e ec8d 84bd 5769 e5be
00000170: b728 8dbd 5f3b 4abf 9068 57bf 72cb 683f
00000180: 39c1 353f 637a 6f3f 2e7f 9abd 98da e63e
00000190: 97ab 053f 6b16 9a3d 597e f33f 85f6 1a3f
000001a0: 8ac9 2ebf 38c9 913e a571 4c3e c5d0 7cbd
000001b0: 0575 9a3f 8346 24bf ed51 1e3e ef5c 0a3f
000001c0: 4e80 1a3f 1e07 21bf fcfb 71bf 3344 083e
000001d0: f39f 23bd 1926 393f fa19 bdbf 46e0 393d
000001e0: dda5 c8be 94b1 ebbe 547a d93e 415f 70bf
000001f0: d839 a73c 88a7 343f 9dd5 aa3f 207f 6dbf
00000200: ce84 f13e 907a 12be 4301 0b3f 6e2a 9fbe
00000210: c9db 883f 7d39 e93f f561 bebd 4e6d 8e3e
00000220: 9fcf d9bf 9f2f 03bf 607d 86bf 2569 48bf
00000230: ee30 b23b 30f6 ccbd 1394 fdbd c1b2 e6be
00000240: 914f 59bf b8c8 d43e 0ca5 b5be 0e55 90be
00000250: 199b b9bf cf78 b63e 1a07 aabe b771 0fbe
00000260: 31a3 9fbf 69b9 393f b12a 0a3e 5743 0b3f
00000270: ce4f 21bf 277c 0d3f 5b41 11be e0b5 273d
00000280: 941b e13e c635 b93c fd83 29bf 1c04 a4be
00000290: 3c48 a03d 4a97 443f e0b1 843d c181 403f
000002a0: 93d6 42be 8752 533c 84ae b03f a047 533c
000002b0: 48b8 51be 2604 ca3f f895 da3e de30 a0bd
000002c0: 9d25 753f 3ee2 07bf 0cfa 623f 4c81 6b3f
000002d0: fd68 9a3e 3f90 74be e4f5 133f bd5e a13e
000002e0: efe5 583e 5b65 6a3f 968b f63f 71fc fabe
000002f0: 7ddb 183f aa7b 9b3d fb0b c53f 445a d0bd
00000300: 7d93 f9be a9f0 cbbe 1085 e5be 9b6e 07bf
00000310: 4bd0 543f 1f46 8dbf ca40 1a3e 8389 b1bf
00000320: 6d27 6e3e 6a80 91bf 36b9 393f 2fb7 50be
00000330: 55ae d2be a51b c9be 8951 70bf aeec 17bf
00000340: 78a0 18bf 30d2 273d 1baa e0be 41ce 80bf
00000350: 68ad f63e 4e08 8abd 95c5 28be 4ca4 453f
00000360: 9dd5 96be 1a04 993f 3b3b 3abe 939b b3bd
00000370: fa80 a6bd c7bb 853f 1dc3 1f3f 3917 d83e
00000380: fa10 903f 3cfd dabf 1041 c3be 2e50 3cbf
00000390: 7012 bc3e 5b22 4ebe 910f abbe 0ca0 f03d
000003a0: d889 093f a5ed 2dbf 352a 513f 9933 c03f
000003b0: e30e 253f 3de6 23be 203b 843f b3cf b1be
000003c0: 17e8 3f3f 2161 0ebf cdd3 7a3f 55b8 79be
000003d0: 8467 c03f cbd5 bfbe 0119 283f 1113 2e3e
000003e0: 20cc e3be 1fd6 e5bd a521 873e b1ec 48be
000003f0: b601 08c0 31b8 56be a760 2abf 5be7 653e

network_body._body_endoder.seq_layers.0.bias f4 [128]
-0.09275936 0.0452228 -0.09993328 0.07082389 0.08106186 0.04004515 0.10019912 -0.028931472
-0.1094366 0.06488762 0.03961188 -0.036524642 -0.07989174 0.107457794 0.09659596 0.017018706
0.057527132 0.01664007 0.05891788 0.009569953 0.028257022 -0.00096848846 0.021321561 0.018184153
0.09951932 0.06895913 0.07822831 0.076473914 0.10135252 -0.11806095 -0.085596606 -0.050983775
0.061636075 0.08252596 -0.010414394 0.11115928 -0.052617565 0.07208266 -0.021687984 0.09827168
-0.07688864 -0.022342473 0.08933009 0.05855092 -0.06596396 0.084719025 0.032141 0.09093341
0.005111187 -0.09223607 -0.07796111 0.06485319 0.08710778 0.095928706 0.0051872954 -0.08568015
-0.0654648 0.08228981 -0.0839331 -0.00857649 -0.03051324 0.07078851 -0.06285445 0.09769861
0.04161875 -0.023008035 0.07934981 -0.093283646 0.080683984 -0.0336401 -0.04637211 -0.02864426
0.07111427 0.06971743 0.07132616 0.0012027102 0.07865471 -0.093157575 0.0843937 -0.09649542
0.046694912 0.037465815 -0.07617865 -0.067821205 0.082535826 0.10234533 0.06183656 0.05113621
-0.006207051 0.020535836 -0.079201594 -0.013344603 -0.06633349 0.08241829 -0.068363085 0.07315546
0.06745295 0.0958012 0.12315396 0.089649625 0.097675234 -0.051793486 -0.013261861 0.08816582
0.062471285 0.08183723 -0.07332554 -0.07905307 0.06690983 0.08677651 0.046151213 -0.078838125
0.06094316 -0.020145208 -0.04066749 -0.030088078 -0.044067048 0.06753366 0.0762117 0.08191184
0.07033569 0.059972107 0.032639414 -0.025331324 0.06662327 0.091056965 0.07488727 -0.07313352
00000000: 9ff8 bdbd 8b3b 393d d2a9 ccbd 1e0c 913d
00000010: c303 a63d 6206 243d 3235 cd3d b201 edbc
00000020: 4c20 e0bd cde3 843d 1140 223d dd9a 15bd
00000030: 489e a3bd d512 dc3d 1ad4 c53d d06a 8b3c
00000040: 92a1 6b3d c250 883c e053 713d 4bcb 1c3c
00000050: 457b e73c 29e2 7dba 8eaa ae3c eff6 943c
00000060: c9d0 cb3d 723a 8d3d 2a36 a03d 5b9e 9c3d
00000070: e991 cf3d f0c9 f1bd 464d afbd 5dd4 50bd
00000080: 1c76 7c3d 5f03 a93d 22a1 2abc 7aa7 e33d
00000090: 8485 57bd 13a0 933d 00ab b1bc aa42 c93d
000000a0: cb77 9dbd 9007 b7bc b2f2 b63d 17d3 6f3d
000000b0: 1d18 87bd 2b81 ad3d 48a6 033d 4c3b ba3d
000000c0: bf7b a73b 44e6 bcbd 13aa 9fbd c0d1 843d
000000d0: 9065 b23d 4576 c43d 30fa a93b 1379 afbd
000000e0: 6912 86bd 8f87 a83d 1ee5 abbd 6884 0cbc
000000f0: e7f6 f9bc 91f9 903d d5b9 80bd 3516 c83d
00000100: 6c78 2a3d 597b bcbc 2782 a23d 7f0b bfbd
00000110: a53d a53d 34ca 09bd aef0 3dbd 5ea7 eabc
00000120: 5ca4 913d 03c8 8e3d 7313 923d 42a4 9d3a
00000130: b815 a13d 66c9 bebd 9bd6 ac3d 649f c5bd
00000140: 2a43 3f3d c175 193d 8d03 9cbd d8e5 8abd
00000150: 8b08 a93d 6e9a d13d 5548 7d3d 3474 513d
00000160: 8564 cbbb c53a a83c 7234 a2bd 52a3 5abc
00000170: dad9 87bd ecca a83d f201 8cbd 88d2 953d
00000180: c624 8a3d 6b33 c43d 2538 fc3d 399a b73d
00000190: f409 c83d 6825 54bd 4748 59bc 4890 b43d
000001a0: e4e1 7f3d 479a a73d b32b 96bd 93e6 a1bd
000001b0: 0508 893d e2b7 b13d 0e09 3d3d e275 a1bd
000001c0: 899f 793d 9007 a5bc f492 26bd 467b f6bc
000001d0: a67f 34bd 164f 8a3d e114 9c3d 65c1 a73d
000001e0: 290c 903d 50a5 753d e8b0 053d a383 cfbc
000001f0: c871 883d 137c ba3d 7f5e 993d 07c7 95bd

network_body._body_endoder.seq_layers.2.weight f4 [128, 128]
-0.15565784 0.07348842 -0.02931912 -0.01671374 -0.092575796 -0.013682479 0.010586174 0.0189301
0.049385082 0.05208631 -0.014500702 -0.16011906 -0.042342555 -0.05467552 0.08762595 0.13754508
-0.0016903722 0.043403897 -0.008677863 0.029378315 -0.016216738 -0.18115787 0.021736903 -0.045031942
0.03873254 -0.12424061 -0.01847623 -0.014416247 0.12054971 -0.08884453 -0.050683 -0.1152402
0.135569 0.19925942 0.06452773 0.115002446 -0.08311296 0.08509268 0.0072139683 0.05071514
0.038565192 0.004762657 0.16307423 -0.071893185 -0.01631211 0.0789012 0.029624442 0.074737
0.010623144 -0.026233196 -0.0031146249 0.060862347 -0.023066986 -0.045348622 -0.01043583 -0.092956886
-0.02552941 0.012238988 -0.15444273 0.05360635 -0.0067137377 -0.011293253 -0.025753666 0.134889
0.024926698 0.010818397 0.12903441 -0.047931194 0.009949804 0.084646635 0.023251131 -0.025130766
-0.052803464 0.02614443 0.14185245 0.005777275 0.032256506 -0.090824366 -0.046254694 -0.1808401
-0.14160468 0.10199417 -0.10705677 -0.007745952 -0.124685 -0.023247289 -0.020909894 -0.010205856
0.023373974 -0.021051174 0.14768955 0.13496737 -0.047573946 0.122531824 0.07507332 -0.05087836
-0.12828106 -0.15346016 -0.077875815 0.23346458 -0.007060878 -0.055624824 -0.04329407 -0.070306756
0.01152531 0.021854043 -0.0301413 -0.15426499 -0.16551891 -0.032882165 0.0710374 0.03956528
-0.045574896 -0.103956535 -0.0841976 0.032660864 -0.0776598 0.0843757 -0.027423164 0.12843984
0.015483203 0.037129536 0.06570158 -0.038641434 0.076731615 0.09420468 -0.050796997 0.057871714
-0.011738159 -0.11066749 0.09158038 -0.011078023 0.05697504 -0.04963751 -0.021339718 -0.09785806
0.10471009 0.12682077 -0.2742144 -0.25982606 0.28386244 -0.018403133 -0.0770523 0.057668466
-0.095313676 -0.11411655 -0.038059387 0.05209293 -0.007707648 -0.0328911 -0.16886733 -0.108159184
-0.089617066 -0.02981593 0.029517548 -0.020877589 -0.03061476 0.056001704 0.12178154 -0.035710156
-0.0027980492 -0.06508286 -0.19202727 -0.18467729 0.039118677 0.1443748 -0.14457981 -0.11265109
0.074567296 0.022246227 -0.13123576 -0.17408949 0.04017703 -0.08632542 -0.16835532 -0.028169153
-0.081267156 -0.14360029 -0.11939126 -0.018426836 -0.06603988 0.032537557 -0.044220075 -0.058372825
-0.043256342 -0.36099777 0.02107577 -0.042189468 -0.04024656 0.046341654 0.21776226 0.0031597477
0.023839528 0.06198072 -0.017665345 0.20576893 -0.13499099 -0.09645103 -0.05206892 -0.047830306
0.073073395 -0.0229181 -0.07331438 -0.043820553 -0.03329893 0.010668517 -0.00036337183 -0.07256663
0.08299296 0.03672716 -0.1378615 -0.020960256 -0.075598665 -0.028608354 0.035865195 -0.15147153
-0.008692371 -0.101276554 -0.009360825 0.0044734976 0.1193415 -0.16979925 0.008783141 -0.0924022
-0.14663917 -0.019424323 -0.025655482 -0.12374905 -0.062332295 -0.030547427 -0.082310125 -0.0122102415
-0.04676548 -0.10364512 -0.051247817 -0.0009925227 -0.11903893 -0.21584588 -0.112755515 0.0057634544
-0.027955744 -0.04354669 0.091806546 -0.11340735 0.04201295 -0.14051574 0.16090728 0.043670062
0.089575596 0.0070988317 -0.020536207 0.08761069 0.07940309 -0.06451792 0.073600195 0.024224678
00000000: c564 1fbe 1981 963d a72e f0bc 41eb 88bc
00000010: 6198 bdbd 7a2c 60bc a271 2d3c 4c13 9b3c
00000020: 0348 4a3d 7458 553d 5a94 6dbc 40f6 23be
00000030: 636f 2dbd 70f3 5fbd 3c75 b33d 9ed8 0c3e
00000040: 7b8f ddba 49c8 313d 982d 0ebc cbaa f03c
00000050: f7d8 84bc 7381 39be 9711 b23c 6a73 38bd
00000060: 03a6 1e3d dc71 febd 765b 97bc 1f32 6cbc
00000070: c4e2 f63d 1ff4 b5bd fa98 4fbd 0e03 ecbd
00000080: 9ad2 0a3e a90a 4c3e 1d27 843d 6786 eb3d
00000090: 2137 aabd 1245 ae3d 2763 ec3b aeba 4f3d
000000a0: 89f6 1d3d 1010 9c3b eefc 263e bc3c 93bd
000000b0: f9a0 85bc f496 a13d f5ae f23c b60f 993d
000000c0: b20c 2e3c 00e7 d6bc bc1e 4cbb cc4a 793d
000000d0: faf6 bcbc 7abf 39bd 0bfb 2abc 2e60 bebd
000000e0: 0e23 d1bc 0986 483c 3c26 1ebe 5592 5b3d
000000f0: eafe dbbb 5607 39bc 5af9 d2bc 5820 0a3e
00000100: 1333 cc3c a53f 313c 9921 043e 8053 44bd
00000110: 8104 233c 375b ad3d 2879 be3c 09df cdbc
00000120: 7248 58bd d82c d63c c541 113e 4c4f bd3b
00000130: 661f 043d 2002 babd 9075 3dbd 262e 39be
00000140: d100 11be 52e2 d03d 9440 dbbd c1d1 fdbb
00000150: d95a ffbd 1971 bebc 3a4b abbc 7636 27bc
00000160: c77a bf3c 8373 acbc ee3b 173e e334 0a3e
00000170: e6dc 42bd f7f1 fa3d 0ac0 993d d465 50bd
00000180: 1c5c 03be a924 1dbe 5b7d 9fbd 5711 6f3e
00000190: f05e e7bb dbd6 63bd 1f55 31bd fdfc 8fbd
000001a0: a7d4 3c3c 4007 b33c e3ea f6bc a4f7 1dbe
000001b0: ca7d 29be 73af 06bd 0e7c 913d 340f 223d
000001c0: beac 3abd 2ae7 d4bd cb6f acbd 66c7 053d
000001d0: 1a0c 9fbd 2bcd ac3d 8ba6 e0bc bc85 033e
000001e0: 43ad 7d3c 2415 183d 8d8e 863d 7b46 1ebd
000001f0: 7725 9d3d 62ee c03d 8310 50bd e40a 6d3d
00000200: 6851 40bc a3a5 e2bd 7f8e bb3d 9980 35bc
00000210: a95e 693d b450 4bbd a2d0 aebc ce69 c8bd
00000220: 3e72 d63d 4edd 013e d465 8cbe ec07 85be
00000230: 6b56 913e 2bc2 96bc 99cd 9dbd c535 6c3d
00000240: d133 c3bd f0b5 e9bd 29e4 1bbd 655f 553d
00000250: 7090 fcbb d1b8 06bd 8feb 2cbe 9082 ddbd
00000260: 2789 b7bd 8a40 f4bc c9ce f13c 7a07 abbc
00000270: cecb fabc 0b62 653d 9a68 f93d d044 12bd
00000280: 7a5f 37bb 2a4a 85bd cca2 44be 0b1c 3dbe
00000290: e83a 203d fdd6 133e bb0c 14be 9db5 e6bd
000002a0: bdb6 983d b83d b63c ab62 06be 8444 32be
000002b0: ab90 243d 62cb b0bd 5665 2cbe ffc2 e6bc
000002c0: 656f a6bd f40b 13be 6883 f4bd e0f3 96bc
000002d0: eb3f 87bd 1a46 053d 1c20 35bd 5818 6fbd
000002e0: 902d 31bd b3d4 b8be 18a7 ac3c ddce 2cbd
000002f0: 94d9 24bd bfd0 3d3d 12fd 5e3e c513 4f3b
00000300: 1d4b c33c 7fdf 7d3d eab6 90bc 17b5 523e
00000310: 143b 0abe 1e88 c5bd 3846 55bd b6e9 43bd
00000320: 81a7 953d bdbe bbbc da25 96bd 2e7d 33bd
00000330: 7564 08bd 01cb 2e3c f182 beb9 d09d 94bd
00000340: 37f8 a93d 386f 163d 912b 0dbe d8b4 abbc
00000350: 79d3 9abd 115c eabc 62e7 123d 5a1b 1bbe
00000360: 726a 0ebc 156a cfbd 255e 19bc 6b96 923b
00000370: 5169 f43d dbdf 2dbe 2ae7 0f3c 5d3d bdbd
00000380: 9428 16be c21f 9fbc 722b d2bc 2470 fdbd
00000390: 2650 7fbd 993e fabc 3692 a8bd 770d 48bc
000003a0: 298d 3fbd e543 d4bd 3be9 51bd 8917 82ba
000003b0: afca f3bd b406 5dbe 5dec e6bd 5cdb bc3b
000003c0: 7203 e5bc 045e 32bd 1205 bc3d 1d42 e8bd
000003d0: c515 2c3d 5ce3 0fbe e1c4 243e 61df 323d
000003e0: 6973 b73d 519d e83b 8c3b a8bc 3c6d b33d
000003f0: 169e a23d f921 84bd b3bb 963d d572 c63c

network_body._body_endoder.seq_layers.2.bias f4 [128]
0.06827503 -0.11055816 -0.052932557 0.091388874 -0.06745409 -0.09252412 -0.08802237 -0.05131493
0.05031821 -0.062481117 0.08085577 0.10702154 0.10795942 -0.031596914 -0.06585723 -0.070734814
0.07829793 -0.054775596 0.08335024 -0.080322556 -0.036296763 -0.058516648 -0.09354677 0.091880076
-0.075114615 0.1037521 0.03815959 -0.037922088 0.070266925 -0.08160591 -0.053191032 0.0794061
0.08029826 -0.05219161 0.05156218 0.03783873 0.06592684 -0.09133037 0.0565948 -0.073884726
-0.09071027 -0.058596745 -0.078073636 -0.031306673 0.0589464 0.07468184 -0.079950005 0.06263098
0.0755106 -0.087863214 -0.06603334 -0.07724758 0.06928616 0.06674904 -0.09321818 0.08064262
-0.10389193 -0.07784677 -0.04336843 -0.09409498 0.064635515 -0.087310255 0.09925286 -0.055231933
-0.09762991 -0.093353495 0.045239333 -0.10317854 -0.07457025 0.06435586 -0.02561168 0.02799624
-0.07473125 -0.08513449 0.08882655 -0.080297105 -0.08827596 -0.08117939 -0.08733092 -0.10198222
-0.061523553 0.0830913 0.059614424 -0.0832223 0.08298548 0.07826926 -0.047610085 -0.10116661
0.081459686 0.07578761 0.057613295 -0.08047846 0.07720242 0.07211236 0.061401535 -0.09404586
-0.04711141 -0.099144764 -0.040488318 0.061165243 0.06093069 -0.07586292 -0.08983822 0.052023638
-0.052585833 -0.06298117 0.062755145 0.019610299 0.05902148 -0.083421 -0.09544835 -0.09466136
0.09583059 -0.081009485 -0.05132942 -0.077189356 0.05514632 0.09365574 -0.042538557 -0.0806038
0.058906056 -0.08516654 -0.0869955 -0.08465658 0.0663522 0.022004904 -0.019388743 -0.04402346
00000000: c7d3 8b3d 516c e2bd cfcf 58bd 172a bb3d
00000010: 5f25 8abd 497d bdbd 1345 b4bd 9b2f 52bd
00000020: 781a 4e3d 33ec 7fbd b697 a53d 1c2e db3d
00000030: d419 dd3d c46b 01bd 28e0 86bd 6add 90bd
00000040: aa5a a03d 605c 60bd 88b3 aa3d 2780 a4bd
00000050: eaab 14bd 27af 6fbd 7395 bfbd 9f2b bc3d
00000060: b1d5 99bd fb7b d43d 3b4d 1c3d 3154 1bbd
00000070: 1be8 8f3d 0021 a7bd d7de 59bd aa9f a23d
00000080: 6a73 a43d dfc6 55bd dd32 533d c9fc 1a3d
00000090: a704 873d 6b0b bbbd f3cf 673d e050 97bd
000000a0: 4ec6 b9bd 2403 70bd 12e5 9fbd 6d3b 00bd
000000b0: c871 713d cbf2 983d d4bc a3bd ac44 803d
000000c0: 4da5 9a3d a1f1 b3bd 7d3c 87bd fb33 9ebd
000000d0: e7e5 8d3d b8b3 883d 2ce9 bebd f527 a53d
000000e0: 4bc5 d4bd 216e 9fbd 18a3 31bd deb4 c0bd
000000f0: a05f 843d b8cf b2bd 1545 cb3d e13a 62bd
00000100: 31f2 c7bd 1e30 bfbd e14c 393d 454f d3bd
00000110: 4ab8 98bd 01cd 833d 96cf d1bc 5f58 e53c
00000120: b30c 99bd fe5a aebd b2ea b53d cf72 a4bd
00000130: 07ca b4bd 6141 a6bd 8eda b2bd 0edc d0bd
00000140: 1f00 7cbd c62b aa3d 412e 743d 7470 aabd
00000150: 4bf4 a93d a24b a03d cb02 43bd 7130 cfbd
00000160: 56d4 a63d 8936 9b3d ebfb 6b3d e4d1 a4bd
00000170: 4d1c 9e3d a5af 933d 2d80 7b3d 1e9b c0bd
00000180: e5f7 40bd 690c cbbd 14d7 25bd 6888 7a3d
00000190: 7692 793d 055e 9bbd 1afd b7bd bd16 553d
000001a0: 3e64 57bd 46fc 80bd c585 803d c7a5 a03c
000001b0: 82c0 713d a1d8 aabd 6d7a c3bd d1dd c1bd
000001c0: d442 c43d 4de8 a5bd cc3e 52bd 7415 9ebd
000001d0: 1ce1 613d 95ce bf3d e93c 2ebd 9b13 a5bd
000001e0: 7a47 713d cc6b aebd b22a b2bd 6e60 adbd
000001f0: aae3 873d a143 b43c 24d5 9ebc f251 34bd

action_model._discrete_distribution.branches.0.weight f4 [2, 128]
0.014372631 -0.06666676 -0.010359791 0.017319774 -0.02002106 -0.04496557 -0.06591518 -0.010774526
0.0041077863 -0.018602299 0.02156948 0.03575181 0.059960827 -0.0017320581 -0.0077253873 -0.02534181
0.03529074 -0.02301076 0.024288055 -0.0069408743 -0.010719348 -0.041172694 -0.04789254 0.034607053
-0.021378797 0.02763882 0.0032356295 -0.005397316 0.023837931 -0.0761094 -0.017896941 0.03080312
0.051101245 -0.028312543 0.0037240412 0.0023495622 0.016286308 -0.074635796 0.022576483 -0.027895764
-0.055737793 -0.012764082 -0.081118725 -0.008224208 0.0005073087 0.02330063 -0.0255328 0.017889814
0.014541881 -0.057441123 -0.023826202 -0.06521812 0.03746454 0.029861974 -0.07216812 0.028243443
-0.037084125 -0.05752115 -0.001515641 -0.060105603 0.025415884 -0.023247637 0.035825953 -0.0114711365
-0.045382477 -0.053320173 0.017778857 -0.07911033 -0.037038933 0.02345254 -0.011385295 -0.0076783905
-0.061640427 -0.06373243 0.032349806 -0.037954897 -0.085155524 -0.075430185 -0.029593024 -0.023090767
-0.028449334 0.038495667 0.0050592776 -0.035805486 0.027609877 0.0024621813 -0.0029199272 -0.060340405
0.03807953 0.03571764 0.024562657 -0.04396056 0.027334986 0.022892369 0.0126409745 -0.055723343
-0.00013435939 -0.012306641 -0.015188825 0.0015813621 0.0145644955 -0.047093183 -0.07850151 0.017663993
-0.023372449 -0.036497056 0.005421712 -0.001682402 0.005015315 -0.013787862 -0.08164961 -0.06098529
0.02703827 -0.049578905 -0.024702411 -0.031866618 0.0113776205 0.036742855 -0.013351883 -0.07605628
0.013740786 -0.079217084 -0.068302885 -0.07124637 0.035985295 0.0138747785 0.004444311 -0.01981869
-0.0075507583 0.054539066 0.007568665 -0.025891887 0.01452506 0.054785542 0.075615026 0.0066173947
-0.015708692 0.0022359544 -0.037313074 -0.026672635 -0.045851048 0.014058972 0.038624886 0.031228682
-0.030746644 0.0074926843 -0.03884201 0.019568777 -0.004045418 0.040821824 0.055770915 -0.028458437
0.020003 -0.046754364 0.0010886509 0.003675421 -0.036924195 0.06879428 0.010412645 -0.023166586
-0.062696554 0.046118505 -0.009229329 0.0017732062 -0.018338487 0.06282116 -0.007950399 0.018506885
0.051826596 0.021256363 0.07749829 0.012664203 -0.017187491 -0.03241302 0.029310286 -0.0014224298
-0.01432544 0.06412626 0.029142763 0.07039094 -0.03549507 -0.014966267 0.06825243 -0.05045401
0.045639805 0.033477325 0.01810082 0.0757277 -0.02958084 0.03369812 -0.02004807 0.017845245
0.046235245 0.059572756 -0.0056077065 0.06750485 0.02528317 -0.010888368 -0.008307132 -0.005177881
0.05803106 0.04836669 -0.026956497 0.06988295 0.06295148 0.06626268 0.030559385 0.041034084
0.018418737 -0.032835834 -0.004948972 0.038065244 -0.043193024 -0.025954207 0.0101103075 0.055927888
-0.03810809 -0.03624384 -0.011616631 0.02905883 -0.022376494 -0.017446833 -0.006674192 0.05156184
0.009386251 0.023723533 0.0014993788 -0.017296344 -0.023012877 0.023724845 0.07175462 0.00024691457
0.0150887845 0.0456783 -0.010275155 0.0035644106 -0.0050866087 0.03977271 0.066130616 0.05202629
-0.030209668 0.041805394 0.020785397 0.018242547 -0.0131625235 -0.020076685 -0.0015730688 0.071030416
-0.019892704 0.06921746 0.077559225 0.07552592 -0.023016058 0.011181375 0.0039636693 0.007951122
00000000: 2f7b 6b3c 9588 88bd 1dbc 29bc 33e2 8d3c
00000010: 3503 a4bc d12d 38bd 8afe 86bd a387 30bc
00000020: 9c9a 863b d963 98bc 7ab2 b03c 7d70 123d
00000030: 7c99 753d 3a06 e3ba 3f25 fdbb a199 cfbc
00000040: 068d 103d 1081 bcbc bef7 c63c 4670 e3bb
00000050: 34a0 2fbc b3a4 28bd f82a 44bd 20c0 0d3d
00000060: 9622 afbc cf6a e23c db0c 543b f8db b0bb
00000070: c447 c33c 3fdf 9bbd 9b9c 92bc d356 fc3c
00000080: 8a4f 513d b5ef e7bc 0b0f 743b 1dfb 193b
00000090: dd6a 853c a7da 98bd 51f2 b83c a885 e4bc
000000a0: 504d 64bd 7120 51bc 9321 a6bd d4be 06bc
000000b0: e9fc 043a f6e0 be3c 2a2a d1bc a98d 923c
000000c0: 1241 6e3c 6247 6bbd 2b2f c3bc 1491 85bd
000000d0: 6b74 193d 19a1 f43c e1cc 93bd cb5e e73c
000000e0: 86e5 17bd 4c9b 6bbd 79a8 c6ba 4b31 76bd
000000f0: f934 d03c d471 bebc 3cbe 123d 6ff1 3bbc
00000100: fae2 39bd 4166 5abd f7a4 913c 9904 a2bd
00000110: 23b6 17bd 8b1f c03c 6389 3abc 029b fbbb
00000120: ac7a 7cbd 2686 82bd 3b81 043d 9876 1bbd
00000130: 0566 aebd 247b 9abd 126d f2bc d928 bdbc
00000140: 940e e9bc a2ad 1d3d 4cc8 a53b c6a8 12bd
00000150: 1c2e e23c 8c5c 213b 405c 3fbb 8027 77bd
00000160: 48f9 1b3d a94c 123d a037 c93c fd0f 34bd
00000170: 9fed df3c c788 bb3c 171c 4f3c 293e 64bd
00000180: d3e2 0cb9 cba1 49bc 8dda 78bc b545 cf3a
00000190: ec9f 6e3c c8e4 40bd 66c5 a0bd 14b4 903c
000001a0: 9477 bfbc f07d 15bd 9ea8 b13b 0b84 dcba
000001b0: 8357 a43b 7ce6 61bc e937 a7bd b6cb 79bd
000001c0: 5d7f dd3c 4013 4bbd b65c cabc 9286 02bd
000001d0: 3369 3a3c ad7f 163d dbc1 5abc 65c3 9bbd
000001e0: 0921 613c 913c a2bd 62e2 8bbd 9ee9 91bd
000001f0: 5165 133d 0a53 633c 95a1 913b ce5a a2bc
00000200: 5a6c f7bb 5b64 5f3d 9002 f83b 391b d4bc
00000210: 84fa 6d3c ce66 603d 0ddc 9a3d bbd6 d83b
00000220: 84af 80bc 1789 123b 98d5 18bd 9280 dabc
00000230: 4fce 3bbd 9a57 663c 2135 1e3d 4bd3 ff3c
00000240: 63e0 fbbc 3185 f53b cd18 1fbd b34e a03c
00000250: 6d8f 84bb c934 273d 0b70 643d ab21 e9bc
00000260: 55dd a33c 8181 3fbd 10b1 8e3a 55df 703b
00000270: d33d 17bd 04e4 8c3d cc99 2a3c dac7 bdbc
00000280: 0d67 80bd c2e6 3c3d 9d36 17bc ed6a e83a
00000290: 983a 96bc 61a8 803d 6442 02bc c09b 973c
000002a0: 2048 543d d321 ae3c 6cb7 9e3d 847d 4f3c
000002b0: c8cc 8cbc 84c3 04bd 201c f03c d370 baba
000002c0: 40b5 6abc a154 833d cebc ee3c 2029 903d
000002d0: 4763 11bd 1335 75bc eec7 8b3d dda8 4ebd
000002e0: cef0 3a3d 851f 093d 2c48 943c 2017 9b3d
000002f0: 8553 f2bc 0a07 0a3d da3b a4bc 3130 923c
00000300: 2b61 3d3d 9002 743d dac0 b7bb fc3f 8a3d
00000310: a71e cf3c 2065 32bc a31a 08bc 37ab a9bb
00000320: fab1 6d3d 261c 463d dfd3 dcbc cb1e 8f3d
00000330: b5ec 803d bab4 873d ad57 fa3c 5b13 283d
00000340: e4e2 963c de7e 06bd fc2a a2bb 4dea 1b3d
00000350: 2beb 30bd eb9d d4bc b4a5 253c a414 653d
00000360: 3b17 1cbd 6c74 14bd af53 3ebc c90c ee3c
00000370: e94e b7bc a9ec 8ebc 2eb3 dabb 8232 533d
00000380: cac8 193c db57 c23c ce86 c43a 10b1 8dbc
00000390: 8085 bcbc 9b5a c23c 16f4 923d 5074 8139
000003a0: f336 773c 2b19 3b3d 2059 28bc e398 693b
000003b0: 91ad a6bb b6e8 223d 7d6f 873d 8519 553d
000003c0: 447a f7bc 223c 2b3d 2346 aa3c 6571 953c
000003d0: a0a7 57bc dc77 a4bc 6e2f ceba 6578 913d
000003e0: 06f6 a2bc e2c1 8d3d 5fd7 9e3d 55ad 9a3d
000003f0: 2c8c bcbc 1632 373c abe1 813b 6c45 023c

action_model._discrete_distribution.branches.0.bias f4 [2]
0.058908574 -0.058908574
00000000: 1e4a 713d 1e4a 71bd

exp_avg f4 [128, 2]
-6.813832e-05 -0.00024593985 -0.00018317845 -0.00010351683 0.00010164904 -7.275776e-08 -0.0001773123 -7.5005373e-06
-3.6976253e-06 4.161027e-05 -4.3396303e-05 7.591409e-05 2.1428683e-05 0.00017768992 -5.6987235e-05 -3.338232e-05
2.4774512e-05 -0.000132985 -4.9838098e-05 -3.4541226e-06 -0.00015841925 -9.153249e-05 2.8377894e-05 -3.5100886e-05
-0.0001394562 -0.00017670143 7.836492e-05 0.00014757247 2.4625788e-05 0.00015118478 -4.234704e-05 -9.043972e-06
-8.889211e-05 0.00012892918 4.4432083e-05 4.5292836e-05 5.686275e-05 0.0002880842 -1.7215156e-05 -2.3616158e-05
1.9944384e-05 6.229925e-05 -8.340738e-06 -5.0212275e-05 -9.65144e-05 2.0666259e-05 -7.253306e-05 -9.136112e-05
-0.00014677996 -0.00015219426 -3.981991e-05 0.00014437719 -5.4464108e-05 -1.4287216e-05 -0.00013553503 -4.003487e-05
-3.365607e-05 -7.381216e-06 0.00016553336 -2.8790775e-05 0.00013433013 -3.5855515e-05 0.00012049055 -0.00011049642
-0.00015664476 -0.00027328217 8.202923e-05 0.000116551455 -9.045211e-05 -2.8129887e-05 0.00041311962 0.000715839
-3.6896694e-05 -2.9842671e-05 -0.00016634901 -0.00014142641 -0.00067928125 -0.00094332534 0.0001116358 8.161069e-05
-8.433591e-06 1.8788742e-06 -0.00028853392 -0.0005389775 -3.617695e-05 -4.552327e-05 -0.00011021982 5.0211966e-06
2.7113578e-05 -3.5232524e-06 4.0246232e-05 4.6023873e-05 -0.0005913827 -0.0007309352 0.00011412192 0.00015501169
-9.665189e-06 -1.9940726e-05 9.132469e-05 -7.219726e-05 6.727158e-05 -2.4699693e-07 -0.00021014467 -6.9611946e-05
0.00013091025 0.00017431041 3.907095e-05 0.00013406285 -0.00023551716 -0.00020791143 0.000105877516 -2.4991507e-05
2.64754e-05 1.3527521e-05 -0.000109633926 -0.0002778967 0.00018767075 7.5490575e-06 -0.00067848276 -0.0008164344
-0.00038645862 -0.0005194195 -0.00015892596 -0.00013842127 0.00015218994 1.6788508e-06 -8.8876855e-05 0.000101018726
1.48311365e-05 5.2895757e-05 -8.900463e-05 -3.143016e-05 -0.00030011346 -2.2640786e-05 5.0416835e-05 -6.81225e-05
-5.7664758e-05 -0.00010001884 -0.00052976987 -0.0007490446 -0.00014064094 -0.00017097307 -0.0007134664 -0.000862702
-6.2069294e-06 0.0001293101 -0.00015068366 -0.00019665087 2.4787927e-05 3.088356e-05 -0.0005154811 -0.0007652394
0.0004445712 0.00056260265 0.00015897892 -3.8157763e-05 4.666835e-05 0.00012834363 -0.00023281286 -0.00048192736
-7.153108e-05 -1.5820458e-05 -0.00042756714 -0.0005743214 6.68811e-05 2.9180701e-05 0.00027308948 -0.00011480987
-0.00013683272 -0.000107823704 -0.00045989206 -0.00014281303 -0.00023653552 6.421174e-05 -8.8476874e-05 -4.5329427e-05
-0.0002158591 -0.00018351614 4.7203e-05 -5.6471486e-05 1.4481353e-05 -1.7767186e-05 -4.018445e-05 -4.7566253e-05
0.0001289085 2.374325e-05 -0.00035070264 -0.00019410937 -1.4131536e-05 -1.5171845e-06 -0.0001790353 -7.6895485e-05
1.4090474e-06 -9.327453e-05 -4.4179957e-05 -8.69424e-05 -9.237515e-05 -2.1280091e-05 -0.0001316682 -0.00022089347
-0.00010336435 -0.00012435431 -1.9606887e-06 -9.826763e-07 -0.00020521163 -0.00025453593 -7.990416e-05 -0.00016738534
-5.3250693e-05 -5.906914e-05 -0.00019727673 -0.00032824432 -2.3347015e-05 -2.218866e-05 0.00010208869 -1.8034196e-05
-0.00012796542 6.941249e-05 7.3842624e-05 0.0001453312 2.163231e-05 2.999285e-05 0.000120276825 1.2803271e-05
-6.223187e-05 -2.3998806e-05 -0.0006182834 -0.00079975196 -9.675051e-05 -7.615121e-05 -0.00034259845 -0.0004596494
-0.000113133196 -0.000107701984 -0.00011731444 -3.721268e-05 -0.00017295548 -7.963764e-05 -0.0002807378 -0.00015064474
-2.5921156e-05 4.7354755e-05 -0.0001444722 -9.380946e-05 -0.00025906117 -0.000150215 -1.813316e-05 -3.4834447e-05
-0.0003572137 -0.0004267632 7.107913e-05 0.0001818891 0.0005805933 0.00068252266 -0.00025394102 -0.00030709294
00000000: 7be5 8eb8 7df1 80b9 9713 40b9 2d17 d9b8
00000010: 6a2c d538 003f 9cb3 e8ec 39b9 20ad fbb6
00000020: b824 78b6 b086 2e38 6d04 36b8 1134 9f38
00000030: bfc1 b337 4652 3a39 9405 6fb8 fe03 0cb8
00000040: dcd2 cf37 e471 0bb9 4009 51b8 60cd 67b6
00000050: 581d 26b9 22f5 bfb8 100d ee37 4a39 13b8
00000060: fd3a 12b9 ee48 39b9 d957 a438 afbd 1a39
00000070: 7a93 ce37 5b87 1e39 ca9d 31b8 90bb 17b7
00000080: 976b bab8 2a31 0739 965c 3a38 d0f8 3d38
00000090: ea7f 6e38 020a 9739 4469 90b7 501b c6b7
000000a0: 3d4e a737 a8a6 8238 32ef 0bb7 059b 52b8
000000b0: c667 cab8 745c ad37 e41c 98b8 2199 bfb8
000000c0: f2e8 19b9 5696 1fb9 4e04 27b8 f563 1739
000000d0: 6470 64b8 20b3 6fb7 681e 0eb9 1deb 27b8
000000e0: ee29 0db8 2aac f7b6 0693 2d39 b883 f1b7
000000f0: f8da 0c39 9163 16b8 dfaf fc38 50ba e7b8
00000100: 0241 24b9 5047 8fb9 1c07 ac38 166d f438
00000110: 1bb1 bdb8 79f8 ebb7 fa97 d839 24a7 3b3a
00000120: 86c1 1ab8 a656 fab7 f96d 2eb9 dd4b 14b9
00000130: cb11 32ba 7e49 77ba 041e ea38 6826 ab38
00000140: ff7d 0db7 a02d fc35 5e46 97b9 2b4a 0dba
00000150: b4bc 17b8 3df0 3eb8 d125 e7b8 c07b a836
00000160: f771 e337 0471 6cb6 10ce 2838 c209 4138
00000170: 0507 1bba 3b9c 3fba bd54 ef38 a28a 2239
00000180: ac27 22b7 6246 a7b7 9285 bf38 9c68 97b8
00000190: 2814 8d38 009b 84b4 485a 5cb9 a1fc 91b8
000001a0: f444 0939 18c7 3639 1de0 2338 3993 0c39
000001b0: 28f5 76b9 cd02 5ab9 8f0a de38 daa4 d1b7
000001c0: 7d17 de37 43f4 6237 44eb e5b8 aab2 91b9
000001d0: 7cc9 4439 e94d fd36 35dc 31ba fc05 56ba
000001e0: 999d cab9 a729 08ba 5da5 26b9 2d25 11b9
000001f0: 2d95 1f39 e054 e135 6663 bab8 04da d338
00000200: 3fd3 7837 63dc 5d38 ffa7 bab8 e1d3 03b8
00000210: 8c58 9db9 b8ec bdb7 aa76 5338 fddc 8eb8
00000220: 10dd 71b8 35c1 d1b8 41e0 0aba 885b 44ba
00000230: 0479 13b9 3c47 33b9 eb07 3bba f426 62ba
00000240: 1e45 d0b6 6a97 0739 d600 1eb9 1134 4eb9
00000250: abef cf37 f888 0138 5a21 07ba 599a 48ba
00000260: 5615 e939 a07b 133a 94b3 2639 960b 20b8
00000270: c2bd 4338 fb93 0639 3a1f 74b9 32ab fcb9
00000280: f502 96b8 2db6 84b7 172b e0b9 0f8e 16ba
00000290: 8442 8c38 14c9 f437 732d 8f39 14c6 f0b8
000002a0: c17a 0fb9 691f e2b8 ab1d f1b9 15c0 15b9
000002b0: 8506 78b9 6aa9 8638 a98c b9b8 1a20 3eb8
000002c0: 3c58 62b9 3d6e 40b9 d6fb 4538 ccdb 6cb8
000002d0: f0f4 7237 be0a 95b7 ba8b 28b8 e081 47b8
000002e0: 9d2b 0739 3e2c c737 83de b7b9 d689 4bb9
000002f0: 7c16 6db7 10a2 cbb5 6cbb 3bb9 f342 a1b8
00000300: 801e bd35 629c c3b8 de4d 39b8 d854 b6b8
00000310: 88b9 c1b8 a682 b2b7 6a10 0ab9 a49f 67b9
00000320: 50c5 d8b8 1b65 02b9 6094 03b6 80e4 83b5
00000330: 142e 57b9 3c73 85b9 3892 a7b8 2984 2fb9
00000340: 7f59 5fb8 02c1 77b8 12dc 4eb9 3518 acb9
00000350: 55d9 c3b7 c921 bab7 7318 d638 2448 97b7
00000360: 752e 06b9 8c91 9138 f5db 9a38 0c64 1839
00000370: 0877 b537 2899 fb37 213d fc38 a1cd 5637
00000380: 7b82 82b8 0b51 c9b7 4c14 22ba 72a6 51ba
00000390: 89e6 cab8 5fb3 9fb8 c99e b3b9 19fd f0b9
000003a0: ec41 edb8 10de e1b8 b606 f6b8 d014 1cb8
000003b0: 625b 35b9 2203 a7b8 fd2f 93b9 64f6 1db9
000003c0: 4271 d9b7 c89e 4638 767d 17b9 92bb c4b8
000003d0: 9ad2 87b9 0883 1db9 aa1c 98b7 341b 12b8
000003e0: 6948 bbb9 30bf dfb9 5110 9538 7cb9 3e39
000003f0: f532 183a 52eb 323a 6323 85b9 5101 a1b9

exp_avg_sq f4 [128, 2]
1.9747046e-07 2.3936667e-07 1.5994489e-07 3.25937e-07 5.681226e-08 5.8778124e-08 1.5626269e-07 3.0636522e-07
7.0289126e-08 1.7335992e-07 9.867677e-08 1.2400221e-07 3.3751218e-07 7.297725e-07 3.5065558e-08 9.256682e-08
1.6020333e-07 2.0603184e-07 6.067345e-08 7.3542395e-08 1.3229109e-07 1.2901255e-07 2.5938112e-08 2.1410813e-08
1.685148e-07 3.1548996e-07 3.3357628e-07 7.2008874e-07 5.968025e-07 1.3375225e-06 8.391309e-08 4.926228e-08
1.0226522e-06 9.3105734e-07 2.836109e-08 4.3450306e-08 2.0202039e-07 3.079757e-07 9.185498e-08 6.2489214e-08
3.1332263e-08 3.7421177e-08 5.3577896e-08 3.085441e-08 4.6982304e-08 7.6437374e-08 1.8021911e-08 3.695626e-08
2.462609e-07 4.2016495e-07 3.11075e-07 3.5741203e-07 4.1573582e-08 1.00754335e-07 8.319319e-08 7.04034e-08
3.0021928e-07 4.564717e-07 1.8348689e-07 1.8756208e-07 8.142499e-08 1.01520754e-07 1.707697e-07 9.530875e-08
2.0824737e-07 4.180663e-07 3.1477626e-07 6.043626e-07 6.286966e-08 2.2030713e-08 1.9346535e-06 3.6933075e-06
6.153476e-08 6.353511e-08 9.075747e-08 3.647512e-07 2.6291798e-06 5.271426e-06 4.2897025e-07 6.071122e-07
1.6274106e-08 1.707077e-08 7.3610533e-07 1.0033488e-06 8.795847e-08 1.1204723e-07 6.472977e-08 1.1692458e-07
8.209018e-08 5.2937967e-08 3.0495136e-07 6.120314e-07 1.4268046e-06 3.2477153e-06 1.8343196e-07 2.3752811e-07
5.0461466e-08 2.88637e-08 4.839999e-08 5.255341e-08 1.4152337e-07 1.2469592e-07 8.557061e-08 7.8746204e-08
2.1292696e-07 2.610121e-07 2.7342847e-07 4.48751e-07 2.6755646e-07 1.0639606e-06 5.234868e-08 5.06089e-08
1.4811592e-07 2.9491707e-07 2.7759216e-07 5.6454536e-07 1.8496954e-07 1.4517869e-07 1.7017888e-06 3.3362287e-06
7.044108e-07 1.6959839e-06 1.1037628e-07 2.3829301e-07 1.600128e-07 1.2052422e-07 1.8974063e-06 5.499051e-06
8.019453e-08 2.6778525e-07 8.844535e-08 2.886679e-07 2.4491555e-07 4.3779653e-07 7.633494e-08 1.0287675e-07
7.778546e-07 1.0394091e-06 1.8614124e-06 3.5593034e-06 6.885197e-08 1.0821372e-07 2.1441706e-06 5.0588023e-06
2.537139e-07 2.9311906e-07 2.2237514e-07 5.039491e-07 3.8510274e-07 4.916614e-07 1.3009983e-06 2.7043648e-06
9.846615e-07 1.3773107e-06 2.2720918e-07 2.540086e-07 1.0312491e-07 1.3245652e-07 5.32315e-07 1.031565e-06
2.116062e-08 1.4300449e-08 7.433293e-07 1.6938754e-06 7.024341e-08 7.730412e-08 4.6618266e-07 3.9158903e-07
1.7359004e-07 2.8731716e-07 3.823308e-07 3.5589144e-07 2.2357708e-07 3.3573602e-07 2.0819446e-08 2.236227e-08
1.2958789e-07 3.3795735e-07 2.6133545e-08 2.2918655e-08 6.401326e-08 6.143537e-08 5.7120157e-08 5.6257395e-08
4.9933956e-08 4.740354e-08 3.2428838e-07 1.959923e-07 1.07422435e-08 9.58327e-09 6.0644886e-08 4.6099267e-08
1.8633938e-07 3.3609282e-07 1.957991e-07 3.1531465e-07 1.991937e-07 2.3686991e-07 3.5323882e-07 6.227612e-07
2.2858303e-07 3.6747207e-07 2.7626814e-07 9.33067e-08 2.2162405e-07 6.3303594e-07 3.0891005e-07 4.563032e-07
3.007187e-07 3.991912e-07 4.348578e-07 7.8066597e-07 6.5187846e-09 1.2783199e-08 6.456507e-08 3.3345568e-08
1.0308688e-07 1.6455166e-07 2.7681963e-07 4.780782e-07 3.9483325e-08 5.258995e-08 7.890965e-08 6.608815e-08
6.9079164e-08 8.3663465e-08 1.7711992e-06 3.5817561e-06 9.491126e-08 2.1284046e-07 4.04155e-07 7.949923e-07
1.02788526e-07 2.0740787e-07 9.386983e-08 2.3042162e-07 7.184301e-08 9.623932e-08 2.367164e-07 3.679828e-07
2.651132e-07 6.1002027e-07 4.4204832e-08 6.252952e-08 1.0797955e-07 1.2866265e-07 5.968214e-08 5.024988e-08
5.253722e-07 1.181438e-06 2.549741e-07 5.05734e-07 2.700494e-06 3.5314026e-06 1.4427357e-07 2.1772065e-07
00000000: 4408 5434 4e82 8034 51bd 2b34 71fc ae34
00000010: be01 7433 3b73 7c33 29c9 2734 847a a434
00000020: dbf1 9633 d024 3a34 21e8 d333 7825 0534
00000030: 5233 b534 96e5 4335 fd9a 1633 26c9 c633
00000040: 5b04 2c34 9a39 5d34 954b 8233 5cee 9d33
00000050: e60b 0e34 b386 0a34 83ce de32 e0ea b732
00000060: fff0 3434 9c60 a934 6016 b334 1f4c 4135
00000070: f533 2035 ec84 b335 b633 b433 7394 5333
00000080: 1042 8935 c6ed 7935 b29e f332 1e9e 3a33
00000090: f1ea 5834 dc57 a534 cf41 c533 cf31 8633
000000a0: 3092 0633 05b9 2033 851d 6633 c884 0433
000000b0: 97c9 4933 e425 a433 9ace 9a32 d6b9 1e33
000000c0: d735 8434 0893 e134 d301 a734 56e2 bf34
000000d0: a38e 3233 485e d833 f1a7 b233 ae30 9733
000000e0: d32d a134 fe10 f534 7e04 4534 ac64 4934
000000f0: dddb ae33 a003 da33 d15c 3734 8aac cc33
00000100: 9a9a 5f34 9872 e034 85fe a834 7b3b 2235
00000110: f602 8733 0d3e bd32 18d5 0136 8ada 7736
00000120: 1825 8433 cc70 8833 72e6 c233 06d3 c334
00000130: f770 3036 34e1 b036 394d e634 6ff8 2235
00000140: 23cb 8b32 05a3 9232 c698 4535 cdaa 8635
00000150: aee3 bc33 9e9e f033 9101 8b33 f817 fb33
00000160: 8e49 b033 e95d 6333 32b8 a334 7a4a 2435
00000170: a280 bf35 53f3 5936 65f5 4434 3b0b 7f34
00000180: f8ba 5833 f3ef f732 5ae0 4f33 16b7 6133
00000190: a6f5 1734 27e4 0534 f1c2 b733 2f1b a933
000001a0: eba0 6434 3b21 8c34 b9cb 9234 deeb f034
000001b0: aea4 8f34 68cd 8e35 fbd5 6033 135d 5933
000001c0: cb09 1f34 1855 9e34 fa07 9534 438b 1735
000001d0: 0a9c 4634 6ae2 1b34 0569 e435 f9e3 5f36
000001e0: be16 3d35 90a1 e335 0008 ed33 7cdd 7f34
000001f0: fccf 2b34 7269 0134 62aa fe35 7d84 b836
00000200: 6937 ac33 20c4 8f34 58ef bd33 37fa 9a34
00000210: f07c 8334 4c0a eb34 94ed a333 17ed dc33
00000220: c3cd 5035 d381 8b35 a5d5 f935 5edc 6e36
00000230: c5db 9333 1f63 e833 92e4 0f36 c8be a936
00000240: 2c36 8834 fa5d 9d34 03c6 6e34 1e47 0735
00000250: 1ec0 ce34 b7fa 0335 f69d ae35 a27c 3536
00000260: b628 8435 09dc b835 c9f6 7334 ad5e 8834
00000270: 8575 dd33 5f39 0e34 69e4 0e35 4e74 8a35
00000280: b2c4 b532 0aae 7532 3389 4735 1e59 e335
00000290: b9d8 9633 6402 a633 a847 fa34 963b d234
000002a0: 1164 3a34 9240 9a34 2543 cd34 5911 bf34
000002b0: 6610 7034 353f b434 72d6 b232 2717 c032
000002c0: d924 0b34 8170 b534 467c e032 a8de c432
000002d0: a977 8933 74ee 8333 4754 7533 a99f 7133
000002e0: f776 5633 be98 4b33 db19 ae34 f471 5234
000002f0: e38c 3832 aba3 2432 e13b 8233 aefe 4533
00000300: 9414 4834 3f70 b434 d93c 5234 8448 a934
00000310: f3e1 5534 4e56 7e34 c6a4 bd34 d32b 2735
00000320: 6d70 7534 fa48 c534 0152 9434 e75f c833
00000330: 8ef7 6d34 e6ed 2935 46d8 a534 d6f9 f434
00000340: 7772 a134 6c50 d634 6776 e934 f58e 5135
00000350: d6fb df31 1b9d 5b32 06a7 8a33 d737 0f33
00000360: 9d60 dd33 9eaf 3034 cd9d 9434 4955 0035
00000370: 6094 2933 43df 6133 0a75 a933 58ec 8d33
00000380: ac58 9433 7aaa b333 f1b9 ed35 1a5e 7036
00000390: 04d2 cb33 2489 6434 a4fa d834 7467 5535
000003a0: 97bc dc33 d7b3 5e34 7c95 c933 d069 7734
000003b0: 1d48 9a33 20ac ce33 1c2c 7e34 2c8f c534
000003c0: e154 8e34 46c0 2335 badb 3d33 f847 8633
000003d0: 63e2 e733 8526 0a34 9a2a 8033 54d2 5733
000003e0: 4d07 0d35 e791 9e35 60e3 8834 c7c1 0735
000003f0: 223a 3536 09fd 6c36 9ee9 1a34 99c6 6934

exp_avg f4 [128]
0.00038125622 -0.00055132736 0.00017646831 -0.00044553116 -0.0003424278 -6.088143e-05 -0.0007602791 -0.00025911978
0.0004954713 -0.0002643576 -0.0004968836 -6.702167e-05 0.00024096527 -0.00075501023 -0.000816947 -0.00021578267
-0.0005807645 1.459512e-05 -0.0003671802 -9.134755e-05 -0.00012583725 -0.0001860834 -0.00018540959 -5.1294497e-05
-0.00047873467 -0.00030965483 -0.0002641357 -0.00042006682 -0.0006041902 0.00040122546 0.00013640165 0.00014413445
-3.7139675e-05 -0.00047841604 -0.00025729142 -0.0016092719 -5.5668297e-06 -0.00037202504 0.00030790304 -0.0006388438
8.989073e-05 6.843383e-05 -0.00041109123 -0.0002812464 9.160064e-05 -0.00046620125 0.00013601244 -0.00034199646
-0.00015664387 0.00021628427 0.00021955074 -0.0005018732 -0.00035333383 -0.0008178793 -0.00041287672 0.00019852887
8.9103334e-05 -8.055775e-05 0.0003155046 0.00018163277 0.00024929605 -0.00017137892 0.00024278194 -0.0012397767
-0.00026579178 -0.00019234334 -0.00059165055 0.00042701734 -0.00040085995 0.0003297382 0.00019147532 0.0003933932
-0.00031033705 -0.0001022349 -0.00032296547 0.00034492358 -0.00055799226 0.00040057677 -0.00026273014 0.0007953915
-0.00018964421 0.00012869902 0.00018308329 0.0002883849 -0.00035753177 -0.00096296775 -0.00034439686 -0.0002905777
-0.00032839333 -0.00014005891 0.0002336074 -0.00012622785 0.00014618115 -0.00084770116 5.1549017e-05 -0.0005254713
-0.00020276928 -0.00038632812 -0.0007377282 -0.00040128012 -0.0004650807 0.00011172572 0.00015956354 -0.00035406047
-0.00017553987 -0.00024187585 -2.6098225e-05 0.00010022035 -0.00022679083 -0.0004921233 -9.460326e-05 0.00019726466
-0.00031583986 0.00029441935 1.6077374e-05 0.0003196718 -1.0258554e-05 -0.000494548 -0.00048306526 -0.0006141712
-0.0005417244 -0.0003850684 -0.00047108968 -6.875141e-05 4.156111e-05 -0.00059512886 -0.00080427015 0.000269764
00000000: 58e3 c739 f486 10ba 5a0a 3939 2e96 e9b9
00000010: e287 b3b9 f05a 7fb8 774d 47ba 78da 87b9
00000020: 84e2 013a 7a99 8ab9 4b41 02ba fc8d 8cb8
00000030: 9fab 7c39 e1eb 45ba 6328 56ba b843 62b9
00000040: 723e 18ba 90dd 7437 1882 c0b9 d891 bfb8
00000050: 2ef3 03b9 621f 43b9 826a 42b9 0c25 57b8
00000060: aefe fab9 2b59 a2b9 b27b 8ab9 6a3c dcb9
00000070: 8562 1eba 925b d239 0a07 0f39 cc22 1739
00000080: 6cc6 1bb8 ead3 fab9 12e5 86b9 34ee d2ba
00000090: b4ca bab6 5b0c c3b9 0c6e a139 1578 27ba
000000a0: b883 bc38 2284 8f38 bb87 d7b9 4174 93b9
000000b0: b819 c038 796c f4b9 909e 0e39 fd4d b3b9
000000c0: c540 24b9 5eca 6239 3437 6639 2490 03ba
000000d0: aa3f b9b9 f366 56ba 6077 d8b9 302c 5039
000000e0: fddc ba38 1df1 a8b8 506a a539 ad74 3e39
000000f0: f3b3 8239 2eb4 33b9 4893 7e39 0180 a2ba
00000100: f859 8bb9 c6af 49b9 ff18 1bba 4ce1 df39
00000110: 832a d2b9 b6e0 ac39 c4c6 4839 5740 ce39
00000120: bcb4 a2b9 f266 d6b8 b153 a9b9 dcd6 b439
00000130: 3a46 12ba 8104 d239 0bbf 89b9 d281 503a
00000140: 3bdb 46b9 61f3 0639 0cfa 3f39 5e32 9739
00000150: 1a73 bbb9 ac6f 7cba 2a90 b4b9 ae58 98b9
00000160: 352c acb9 c7dc 12b9 82f4 7439 085c 04b9
00000170: 3448 1939 4338 5eba 5636 5838 c8bf 09ba
00000180: 779e 54b9 158c cab9 1a64 41ba e862 d2b9
00000190: 13d6 f3b9 4a4e ea38 8350 2739 31a1 b9b9
000001a0: 2011 38b9 0ea0 7db9 83ed dab7 642d d238
000001b0: b3ce 6db9 d601 01ba bd65 c6b8 d4d8 4e39
000001c0: 4f97 a5b9 4c5c 9a39 e6dd 8637 9f99 a739
000001d0: 271c 2cb7 8ea4 01ba ec43 fdb9 5500 21ba
000001e0: 8202 0eba 01e3 c9b9 96fc f6b9 a22e 90b8
000001f0: e751 2e38 6c02 1cba a8d5 52ba 1c6f 8d39

exp_avg_sq f4 [128]
2.6434836e-07 3.4066449e-07 1.0631843e-07 7.842297e-07 1.1966668e-07 2.1315505e-07 6.789615e-07 7.316468e-08
4.280902e-07 2.1877194e-07 4.1390692e-07 3.0614967e-08 2.411426e-07 6.9379047e-07 9.3604393e-07 1.2348693e-07
2.2171412e-06 5.3379267e-08 4.9054415e-07 1.2924119e-07 7.9630055e-08 5.359816e-08 1.5982543e-07 1.3328544e-08
6.9583723e-07 8.6708883e-07 2.5892513e-07 2.549829e-07 9.3171064e-07 3.8955756e-07 1.5249451e-07 1.4180075e-07
1.6293028e-07 4.457482e-07 5.300266e-08 3.5159583e-06 6.286007e-08 1.5535389e-07 1.1819099e-06 1.1789916e-06
5.4421555e-08 3.095071e-07 3.1303912e-07 3.2328117e-07 1.2538818e-07 5.459214e-07 6.9408776e-07 5.06295e-07
6.188884e-08 8.929687e-08 2.346627e-07 2.7187244e-07 4.0069682e-07 6.6956545e-07 3.205137e-07 9.734731e-08
1.7824658e-07 2.1230706e-07 2.6518865e-07 7.914371e-07 3.6015604e-07 1.3553807e-07 2.5890063e-07 2.1947174e-06
8.9014314e-08 9.3902e-08 1.0790338e-06 2.855022e-07 1.5394704e-06 9.2974716e-07 5.693757e-08 9.767463e-07
6.5804335e-07 2.351672e-07 6.2928603e-07 5.7724736e-07 9.377328e-07 6.260131e-07 2.9489016e-07 7.545007e-07
3.7711118e-08 3.8109565e-07 1.3817966e-07 8.7635027e-07 4.8887347e-07 1.0496218e-06 8.2270617e-07 5.8762687e-08
1.6555842e-07 4.01124e-08 1.6157902e-07 4.7390582e-08 7.865738e-08 8.7887577e-07 2.8687756e-08 2.2274044e-07
2.0958052e-07 5.256024e-07 6.7887214e-07 7.5013264e-07 6.308995e-07 2.818955e-07 1.2818084e-07 6.840581e-07
2.683195e-07 5.29382e-07 1.3635935e-08 4.8756622e-08 4.007676e-07 4.8445975e-07 1.12057634e-07 1.5107396e-07
1.4189757e-07 8.3360885e-07 6.569264e-08 2.0177816e-07 7.901697e-08 6.807857e-07 2.1596347e-07 4.561351e-07
3.3118795e-07 1.2456984e-07 1.89899e-07 3.7869718e-08 3.4688892e-07 3.773149e-07 3.4464067e-06 1.0203645e-07
00000000: c3eb 8d34 92e4 b634 2d51 e433 db83 5235
00000010: ba7d 0034 9ddf 6434 e141 3635 b51e 9d33
00000020: 45d4 e534 93e7 6a34 ef36 de34 837d 0333
00000030: 6376 8134 eb3c 3a35 7344 7b35 d497 0434
00000040: 32ca 1436 2043 6533 f0ad 0335 8cc5 0a34
00000050: 1601 ab33 cd33 6633 7b9c 2b34 8efb 6432
00000060: 92c9 3a35 e4c1 6835 6602 8b34 95e4 8834
00000070: ab1a 7a35 6224 d134 5fbd 2334 e541 1834
00000080: eff1 2e34 2b4f ef34 0aa5 6333 b4f3 6b36
00000090: b0fd 8633 5acf 2634 1da2 9e35 d83d 9e35
000000a0: 22bd 6933 552a a634 c50f a834 6d8f ad34
000000b0: 71a2 0634 6f8b 1235 5951 3a35 54e8 0735
000000c0: c0e7 8433 79c3 bf33 98f7 7b34 ddf5 9134
000000d0: 5a1f d734 30bc 3335 1113 ac34 400d d133
000000e0: 0c64 3f34 85f6 6334 405f 8e34 2573 5435
000000f0: 785b c134 6c88 1134 08ff 8a34 f548 1336
00000100: 2328 bf33 2ca7 c933 52d3 9035 2047 9934
00000110: cd9f ce35 bd93 7935 858b 7433 bf18 8335
00000120: 65a4 3035 4582 7c34 35ec 2835 23f4 1a35
00000130: 82b8 7b35 4b0b 2835 6551 9e34 e588 4a35
00000140: d0f7 2133 6399 cc34 895e 1434 553e 6b35
00000150: 213b 0335 bbe0 8c35 f0d7 5c35 4262 7c33
00000160: 5ac4 3134 0d48 2c33 817e 2d34 7f8a 4b33
00000170: 5aea a833 e2eb 6b35 0b6d f632 6d2a 6f34
00000180: 0e09 6134 1f17 0d35 bd3b 3635 b95c 4935
00000190: 155b 2935 6c57 9734 15a2 0934 1da0 3735
000001a0: 8d0d 9034 db1a 0e35 7a43 6a32 7968 5133
000001b0: 1429 d734 d20b 0235 56a4 f033 e536 2234
000001c0: 825c 1834 2ac5 5f35 e912 8d33 5ca8 5834
000001d0: 0ab0 a933 3dbf 3635 96e3 6734 bbe2 f434
000001e0: 20ce b134 7fc1 0534 0ae7 4b34 32a6 2233
000001f0: 0d3c ba34 c491 ca34 d148 6736 221f db33
